models/autosave/g1AE-1-5-1-400.pt (torch, 120711 bytes, 24 tensors)

encoder.embed.weight f4 [8, 8]
-0.05229703 -0.03346197 0.039653767 0.0072049233 -0.059574526 -0.041299284 0.054321993 0.025845757
0.10234 -0.23695603 -0.1609768 0.065238416 0.1044134 0.37509474 -0.15031217 0.09881738
0.20729747 -0.29408646 -0.12341456 1.3312372 0.14912194 0.10857676 -0.86351204 0.27442
1.150598 -1.6171014 -1.3621329 -1.441604 1.8865411 -1.2623688 0.12553102 1.5247388
-0.83700943 1.0057709 0.94950795 -0.09843819 -0.7484542 -0.20618336 1.0115561 -0.6957505
1.5886441 -1.7658696 -1.7628778 -1.5752254 1.5369657 -1.4409724 0.19683163 1.6450202
-0.7483319 0.6361181 0.64777595 -0.19387865 -0.6818687 -0.117791 1.0507756 -0.83229584
0.21609353 -0.0678766 -0.13105702 0.94052994 0.17637624 0.15994081 -0.741347 0.21980202
00000000: 6935 56bd 6b0f 09bd fd6b 223d 4717 ec3b
00000010: 6b04 74bd 7029 29bd bd80 5e3d 7bba d33c
00000020: a297 d13d 9aa4 72be 1ad7 24be b89b 853d
00000030: b1d6 d53d 6b0c c03e 6feb 19be c460 ca3d
00000040: ca45 543e 8092 96be c6c0 fcbd fb65 aa3f
00000050: 6cb3 183e 7e5d de3d 200f 5dbf c780 8c3e
00000060: cc46 933f 2efd cebf 5f5a aebf 7b86 b8bf
00000070: 2e7a f13f 4d95 a1bf 348b 003e a42a c33f
00000080: 4046 56bf 1abd 803f f412 733f f699 c9bd
00000090: b29a 3fbf bb21 53be ac7a 813f b41c 32bf
000000a0: b158 cb3f 0408 e2bf fba5 e1bf fca0 c9bf
000000b0: 4bbb c43f c971 b8bf 3b8e 493e 0690 d23f
000000c0: ae92 3fbf a3d8 223f a5d4 253f 2088 46be
000000d0: f28e 2ebf 683c f1bd d17f 863f 5711 55bf
000000e0: 9f47 5d3e e302 8bbd d033 06be 92c6 703f
000000f0: f99b 343e 86c7 233e ebc8 3dbf c813 613e

encoder.fc_one.weight f4 [400, 8]
0.67251295 -0.27008072 0.6675105 -0.96153855 -0.5748197 -0.9207402 0.2595171 0.0222556
-0.8053888 0.22359869 0.8494235 0.21312907 0.15954605 -0.88099384 0.25742972 -0.10684812
-0.6772773 0.25302795 0.28593114 0.4641175 0.30131197 -0.51055324 0.6490034 -0.83517814
0.13710918 -0.29151282 -0.23642254 0.967625 0.2846477 0.4898209 -0.50780165 0.18174799
-0.7142883 0.4534217 -0.72441936 -0.040652845 -0.51794136 -0.10602868 0.35626963 -1.1866331
-0.07825913 -0.49693403 0.68430436 -0.40039483 -0.5789785 -0.22749712 0.08398297 0.53358823
0.21879914 -0.8596771 -0.10407438 0.33437905 0.9216255 0.0022288135 -0.8585479 0.5181189
0.1329966 0.30245107 0.6917662 -0.06478043 -0.64641136 -0.11735282 0.6975363 -0.58970976
-0.29814133 0.46130857 0.5622705 0.08866177 -0.558845 -0.014448025 0.26020262 -1.1650343
0.30505309 0.32270148 -0.28889036 0.78320223 0.15188663 0.33144644 0.43850806 -0.1137758
0.9731442 -0.5803103 0.1727813 -0.42328835 0.33026388 0.113652684 -1.1694605 0.7295102
-0.5749746 0.041108888 -0.03826256 -0.06761457 0.01588975 0.04930336 0.36474276 -0.2762476
-0.4169142 0.45808008 0.061172683 0.057753377 0.0071424246 -0.16197371 0.35536948 -0.28207645
-0.3141856 1.3426421 0.58409405 -0.019385692 -0.7493329 -0.12109552 -0.35638428 0.023802573
0.8257443 -0.34497803 -0.47528648 -1.167165 0.58528477 -0.73858935 -0.06551135 0.8518469
-0.43575945 0.5329302 -0.90515804 0.10564621 -0.38579977 0.16689318 -1.4656452 0.14868568
-0.4780343 0.2798017 0.068131596 -0.48881298 0.7840991 0.29954427 0.06965406 -0.40137383
-0.31567574 -0.597266 -0.49549058 -1.1087291 0.57563084 0.93318444 0.13157688 -0.5128211
-0.9950255 0.8932028 0.54356515 0.031164397 -0.36611947 -0.08745234 0.6224961 -1.1071992
-0.028922826 -0.3057963 -0.103328526 1.232087 -0.1091605 0.88275796 -1.071171 -0.11969848
-0.65841585 0.4263147 0.09266946 -0.7965133 -1.0746704 -0.033717703 0.5007909 -0.057400372
0.007396654 -1.0264608 -0.27992785 -0.28365082 0.18272343 -0.3044369 -1.3928391 0.43351534
-0.54439473 1.5407218 0.47134477 -0.59747106 -0.7591902 -0.53808874 1.0660691 -1.5355005
-0.69801605 0.8824 0.6534826 -0.29773274 -0.46748462 -0.08296404 0.4459309 -0.8256827
0.3313706 -0.41087127 -0.055115227 0.57029927 -0.024075974 1.0605125 -0.53465575 0.2358054
0.34728423 -0.58984584 -0.67499125 -0.09273119 0.4027236 -1.3120036 0.09053673 -0.7658081
-0.40703502 0.27881545 -0.710551 -0.6234891 0.6193616 -0.4961438 0.31780705 0.032977168
-0.6926688 0.18497416 0.553636 -0.14099929 -0.5412701 -0.16553174 0.40399104 -0.15005603
-0.6018698 0.032418236 -0.35792533 -1.2112788 -0.10490372 -0.0070164166 -0.024380721 -0.393878
0.28024268 -0.32893082 -0.75616896 0.081021234 0.26542613 0.94476014 -0.079845 0.3837177
0.4647806 0.7312961 -0.45076934 -1.2941059 0.20012185 -0.7718331 0.02762954 -1.1973242
-0.20380206 -0.6837214 0.2575618 -1.6143768 0.8296326 -1.1926379 -0.11096404 -0.31936765
00000000: cf29 2c3f 0548 8abe f8e1 2a3f 6427 76bf
00000010: 6227 13bf a1b5 6bbf 6ddf 843e 6051 b63c
00000020: f62d 4ebf 0ef7 643e d273 593f 823e 5a3e
00000030: 0a60 233e d088 61bf d4cd 833e 30d3 dabd
00000040: 0c62 2dbf e18c 813e 9165 923e cfa0 ed3e
00000050: 9045 9a3e 9eb3 02bf 1625 263f 3cce 55bf
00000060: 5966 0c3e 2b41 95be c018 72be 46b6 773f
00000070: 58bd 913e cec9 fa3e 4aff 01bf 251c 3a3e
00000080: 99db 36bf e426 e83e 8c73 39bf 9983 26bd
00000090: ce97 04bf 9125 d9bd f968 b63e 98e3 97bf
000000a0: 5346 a0bd 236e febe 922e 2f3f 8d00 cdbe
000000b0: ef37 14bf 01f5 68be 43ff ab3d 3d99 083f
000000c0: e20c 603e cc13 5cbf f324 d5bd bb33 ab3e
000000d0: a6ef 6b3f 4911 123b ccc9 5bbf 71a3 043f
000000e0: 4330 083e deda 9a3e 9717 313f 9aab 84bd
000000f0: 377b 25bf ad56 f0bd bd91 323f 38f7 16bf
00000100: fba5 98be a330 ec3e f6f0 0f3f 4d94 b53d
00000110: 7710 0fbf 69b7 6cbc 4739 853e d81f 95bf
00000120: eb2f 9c3e 2139 a53e 70e9 93be f17f 483f
00000130: 2b88 1b3e 59b3 a93e 2184 e03e 4903 e9bd
00000140: fa1f 793f 378f 14bf 95ed 303e 40b9 d8be
00000150: 5918 a93e bdc2 e83d e2b0 95bf 2ec1 3a3f
00000160: 8931 13bf cb61 283d 34b9 1cbd 8279 8abd
00000170: 392b 823c 52f2 493d 90bf ba3e 5370 8dbe
00000180: c775 d5be 7989 ea3e 3590 7a3d ce8e 6c3d
00000190: 000b ea3b 70dc 25be fdf2 b53e 536c 90be
000001a0: efdc a0be b2db ab3f 3087 153f bece 9ebc
000001b0: 48d4 3fbf ee00 f8bd 0078 b6be 9dfd c23c
000001c0: fa63 533f f6a0 b0be c058 f3be aa65 95bf
000001d0: 39d5 153f 3114 3dbf d12a 86bd a312 5a3f
000001e0: dd1b dfbe 1d6e 083f 70b8 67bf 0a5d d83d
000001f0: 8c87 c5be 0ce6 2a3e 439a bbbf 0f41 183e
00000200: e9c0 f4be 2b42 8f3e 9488 8b3d b245 fabe
00000210: b8ba 483f de5d 993e caa6 8e3d df80 cdbe
00000220: 40a0 a1be 6de6 18bf f1b0 fdbe d6ea 8dbf
00000230: 8b5c 133f 2de5 6e3f 17bc 063e 3e48 03bf
00000240: feb9 7ebf f0a8 643f 1627 0b3f 7a4c ff3c
00000250: 0374 bbbe 361a b3bd e85b 1f3f b4b8 8dbf
00000260: 90ef ecbc 5591 9cbe e89d d3bd 07b5 9d3f
00000270: 8a8f dfbd 6dfc 613f 221c 89bf 7a24 f5bd
00000280: f18d 28bf ec45 da3e 7cc9 bd3d 4ce8 4bbf
00000290: cd8e 89bf 931b 0abd d533 003f a71c 6bbd
000002a0: a25f f23b 1163 83bf b452 8fbe ae3a 91be
000002b0: da1b 3b3e 27df 9bbe 8d48 b2bf b9f5 dd3e
000002c0: 745d 0bbf 5f36 c53f 1a54 f13e ddf3 18bf
000002d0: 4a5a 42bf 2fc0 09bf f474 883f 488b c4bf
000002e0: 2eb1 32bf f7e4 613f a34a 273f 6d70 98be
000002f0: 255a efbe 0de9 a9bd 0e51 e43e f15f 53bf
00000300: 68a9 a93e b85d d2be 81c0 61bd 22ff 113f
00000310: fa3a c5bc e0be 873f 33df 08bf f976 713e
00000320: 3dcf b13e 2300 17bf 3acc 2cbf dae9 bdbd
00000330: ca31 ce3e bcef a7bf 526b b93d 000c 44bf
00000340: e566 d0be e6c0 8e3e ace6 35bf fb9c 1fbf
00000350: 7b8e 1e3f 8f06 febe 9bb7 a23e 1113 073d
00000360: be52 31bf de69 3d3e 17bb 0d3f 1e62 10be
00000370: ad90 0abf 2781 29be ead7 ce3e 4aa8 19be
00000380: 2414 1abf fcc8 043d fd41 b7be 2f0b 9bbf
00000390: c3d7 d6bd f8e9 e5bb 14ba c7bc 61aa c9be
000003a0: f87b 8f3e 9f69 a8be 4a94 41bf 76ee a53d
000003b0: efe5 873e cddb 713f c685 a3bd a576 c43e
000003c0: b9f7 ed3e 3936 3b3f 3dcb e6be 43a5 a5bf
000003d0: beec 4c3e db96 45bf 5857 e23c eb41 99bf
000003e0: 7db1 50be 5e08 2fbf 24df 833e e6a3 cebf
000003f0: cd62 543f 5ca8 98bf 1d41 e3bd 2884 a3be

encoder.fc_one.bias f4 [400]
-0.6560659 -0.4550163 -0.2726258 0.22296499 -0.12905268 -0.5038731 -0.030026184 -0.33429405
-0.26358098 -0.36489668 -0.031746242 -0.21717781 -0.33711845 -0.70642495 -0.64670765 -0.70031625
-0.56408286 -0.45291793 -0.4995464 0.68009615 -0.047566056 -0.09798528 0.3192493 -0.20228757
0.26861024 -0.63852227 -0.5646917 -0.16158333 -0.48778886 0.37954268 -0.63812643 -0.7596177
-0.9415534 0.24046554 -0.5977008 -0.055777725 0.2890829 -0.6462351 -0.25863242 -0.733196
-0.80680656 -0.5715363 -0.7372372 -1.270644 0.18364416 -0.31615102 0.0472556 -0.4783009
0.31203765 -0.36313137 0.45414704 -0.7522586 -0.55181515 -0.60400647 -0.299502 -0.73469454
-0.26251122 -0.74151534 -0.72000235 -0.5680125 -0.7058925 0.030083941 0.23306821 -0.71406645
-0.49959263 -0.75583947 -0.15407486 0.16194944 -0.5696166 -0.8121286 -0.681562 -0.5087758
-0.062076226 0.19175588 -0.5776895 -0.3663342 -0.6210604 -0.9138822 -0.73848003 -0.6160395
-0.16655098 -0.74359375 -0.57815546 -0.5737194 -1.1047232 -0.22510043 -0.5747347 -0.10952463
-0.6745029 -0.51817447 0.10503562 -0.94141954 -0.20317179 0.29415187 -0.035820298 -0.46622983
-0.008388312 -0.35564643 0.015491657 -0.73641056 0.3967222 -0.25069964 -0.5036836 -0.3279432
-0.24305445 -0.5550515 0.018630123 -0.36313024 -0.4291426 0.4465296 -0.578869 -0.08574298
-0.85833603 -0.2570148 -0.29343718 0.13657568 -0.76609945 -0.3363046 -0.3412587 0.46921182
-0.72094256 -0.82397765 -0.4942616 -0.13692826 -0.7891644 -0.16065848 -0.5944261 -0.7014249
-0.51899934 -0.826753 -0.26106367 -0.012192634 -0.7453496 -0.51873845 -0.005410146 -0.7415074
-0.4560642 -0.051537305 0.2059671 -0.6867032 -0.98994595 -0.26487708 -0.36450508 -0.04840664
-0.624127 -0.3308887 -0.7703384 0.34112492 0.61535054 -0.6422539 -0.13879335 -0.60867625
-0.6392082 -0.76990384 -0.033774257 -0.24804701 -1.1371104 0.17597745 -0.46426836 -0.9113165
-0.38529027 0.2532171 -0.13230379 -0.69618106 -0.74310297 -0.56263447 -0.3546364 -0.7516968
-0.18596837 -0.90721756 0.42791703 -0.74872106 -0.19067965 -0.7038213 -0.6783249 -0.60618484
0.007815786 -0.8445845 -0.7770185 -0.86017483 -0.5087517 -0.037339244 -0.3899037 -0.805048
-0.59075373 -0.29089394 -0.35963377 -0.06526762 -0.67633456 -0.299917 -0.74164325 -0.72880447
-0.53094155 -0.15441278 0.45013082 -0.98398626 -1.0423253 -0.49894267 0.23999205 0.10016096
-0.9203706 -0.5876802 0.24611852 -0.9172662 -0.017821835 -0.78080827 -0.81640506 -0.3446809
-0.17036068 -0.3722946 -0.6803164 -0.48593017 0.23736475 -0.039655894 -0.079397745 -0.44570866
0.12664403 -0.10511438 -0.07562222 -1.0239426 -0.6335348 -0.06127456 -0.045034956 -0.25811037
-0.9343578 -0.17673421 -0.7533863 -0.21217822 -0.67269 -0.82453984 -0.8549592 -0.7476092
-0.16728823 -0.5102966 0.10537228 -0.4862028 -0.20297062 -0.024899881 -0.65202403 0.008806279
-0.60037047 -0.630743 -0.5570527 0.19183578 -0.5319883 0.51572055 -0.804279 -0.0074069607
-0.37628925 -0.96579957 -0.8628742 -0.24546614 -0.77251995 -0.26783997 -0.571583 -0.09805174
00000000: eff3 27bf e5f7 e8be 9c95 8bbe ef50 643e
00000010: 6326 04be d4fd 00bf 79f9 f5bc 9728 abbe
00000020: 16f4 86be bdd3 babe 5908 02bd dc63 5ebe
00000030: ca9a acbe 44d8 34bf a28e 25bf ed47 33bf
00000040: bc67 10bf dce4 e7be 8cc4 ffbe c81a 2e3f
00000050: a0d4 42bd 82ac c8bd a574 a33e 7924 4fbe
00000060: 4887 893e 3276 23bf a38f 10bf 1a76 25be
00000070: 76bf f9be 6b53 c23e 415c 23bf 4e76 42bf
00000080: a509 71bf 993c 763e eb02 19bf 2f77 64bd
00000090: ad02 943e aa6f 25bf 786b 84be bcb2 3bbf
000000a0: e08a 4ebf 3450 12bf 94bb 3cbf 76a4 a2bf
000000b0: 370d 3c3e 8cde a1be 178f 413d dbe3 f4be
000000c0: 66c3 9f3e 5bec b9be f685 e83e 0594 40bf
000000d0: c243 0dbf 2ba0 1abf 5358 99be f114 3cbf
000000e0: df67 86be f3d3 3dbf 1352 38bf 4469 11bf
000000f0: 5fb5 34bf 9972 f63c 6fa9 6e3e 0fcd 36bf
00000100: 9bca ffbe b27e 41bf cdc5 1dbe 13d6 253e
00000110: 65d2 11bf a9e7 4fbf d97a 2ebf 213f 02bf
00000120: a443 7ebd a75b 443e 76e3 13bf 2890 bbbe
00000130: d0fd 1ebf 2ff4 69bf 070d 3dbf c4b4 1dbf
00000140: 578c 2abe 295c 3ebf ff01 14bf 46df 12bf
00000150: 9267 8dbf ba80 66be d021 13bf 734e e0bd
00000160: 39ac 2cbf 15a7 04bf ea1c d73d df00 71bf
00000170: 440c 50be 139b 963e 4eb8 12bd adb5 eebe
00000180: 216f 09bc 4a17 b6be b8d0 7d3c 6785 3cbf
00000190: 2c1f cb3e b45b 80be 69f1 00bf 2ce8 a7be
000001a0: 44e3 78be db17 0ebf 339e 983c 35ec b9be
000001b0: 94b8 dbbe 879f e43e c230 14bf 049a afbd
000001c0: e9bb 5bbf 7297 83be 663d 96be 7fda 0b3e
000001d0: 181f 44bf 1e30 acbe 76b9 aebe 883c f03e
000001e0: b18f 38bf 33f0 52bf db0f fdbe ec36 0cbe
000001f0: ae06 4abf a883 24be 4f2c 18bf 9590 33bf
00000200: 24dd 04bf 16a6 53bf 23aa 85be 9dc3 47bc
00000210: 3bcf 3ebf 0bcc 04bf 9847 b1bb 6ed3 3dbf
00000220: 3f81 e9be c818 53bd 0ae9 523e c8cb 2fbf
00000230: 196d 7dbf f89d 87be 69a0 babe 0a46 46bd
00000240: c9c6 1fbf 3e6a a9be e634 45bf eda7 ae3e
00000250: 9d87 1d3f c06a 24bf d81f 0ebe 35d2 1bbf
00000260: 26a3 23bf 6b18 45bf e056 0abd 0900 7ebe
00000270: d58c 91bf 6f33 343e 95b4 edbe 0a4c 69bf
00000280: c444 c5be aca5 813e a57a 07be ec38 32bf
00000290: ff3b 3ebf d008 10bf e792 b5be 346f 40bf
000002a0: 7e6e 3ebe 693f 68bf f117 db3e 2fac 3fbf
000002b0: 8741 43be a22d 34bf b3a6 2dbf ee2e 1bbf
000002c0: c80d 003c b136 58bf afea 46bf 6b34 5cbf
000002d0: 8d3d 02bf 09f1 18bd 75a1 c7be a017 4ebf
000002e0: a33b 17bf 0df0 94be eb21 b8be 08ab 85bd
000002f0: 4324 2dbf b98e 99be 55dc 3dbf ee92 3abf
00000300: c9eb 07bf 621e 1ebe 8c77 e63e 86e6 7bbf
00000310: ea6a 85bf 6a75 ffbe 7ac0 753e 3021 cd3d
00000320: 689d 6bbf 3672 16bf 7e06 7c3e f5d1 6abf
00000330: 19ff 91bc 0de3 47bf ecff 50bf 047a b0be
00000340: 0873 2ebe 669d bebe 3729 2ebf d7cb f8be
00000350: bf0f 733e 386e 22bd 499b a2bd ed33 e4be
00000360: f9ae 013e 3546 d7bd d3df 9abd 8d10 83bf
00000370: 562f 22bf 08fb 7abd 9376 38bd 0b27 84be
00000380: 1332 6fbf d0f9 34be eddd 40bf 3f45 59be
00000390: 6935 2cbf 0b15 53bf 9bde 5abf 5163 3fbf
000003a0: 9b4d 2bbe cca2 02bf 6ccd d73d 93ef f8be
000003b0: 88d7 4fbe d6fa cbbc 0ceb 26bf 3648 103c
000003c0: e1b1 19bf 6078 21bf 019b 0ebf 9970 443e
000003d0: 6330 08bf 4306 043f 3be5 4dbf 17b6 f2bb
000003e0: fca8 c0be a43e 77bf 53e5 5cbf 7a5b 7bbe
000003f0: dec3 45bf 5222 89be 4353 12bf 5acf c8bd

encoder.lstm.weight_ih_l0 f4 [20, 400]
0.8727646 0.63385546 0.08916337 -0.4880192 0.36802766 0.42413756 -0.8053261 0.5361217
0.62954056 0.033859316 -0.20580287 0.09446455 0.09022887 -0.33874676 0.36388648 -0.7546991
-0.9778832 0.14968905 0.48331445 -0.12292107 -0.10714319 0.9204772 0.67981344 0.5138814
0.09781781 0.5222938 0.31580088 0.13258968 0.32537243 -0.12081363 0.561063 0.8269461
-0.16694106 0.681129 -0.014329664 0.1521544 -0.9274725 -0.8047184 -0.023732152 -0.027787838
0.2180007 0.33480242 -0.13150476 0.07032851 0.18066639 0.18662074 0.6506392 0.3130679
0.85262144 0.3145462 0.39055717 0.6944653 -0.45454305 0.54114425 0.07580911 0.26186156
0.33291614 0.48255086 0.120637335 -0.87524587 -0.65565443 -0.88889176 0.3533756 0.60879487
0.044183172 0.61976045 0.32516363 -0.5351332 0.052896474 0.38307375 1.0116069 0.028273096
0.6957119 0.20855136 0.23358068 0.13875374 0.3877615 -0.29936528 -0.6242593 0.657508
-0.114939325 0.69001406 0.18477567 0.19982949 -0.25322193 0.21521366 0.24100193 -1.094742
0.72054505 0.15061472 0.97899026 0.3974832 -0.22623475 -0.37955052 0.16055357 -0.21091555
0.20865472 0.56747717 -1.2261928 0.66805226 -0.44118938 0.16556233 0.22663432 -0.4468928
0.24725729 0.3552735 0.36372566 -0.013913276 0.10522016 -0.60862106 -0.16589442 0.4452813
-0.012323022 -0.089066625 0.312518 -0.08256217 -0.1741274 0.31807554 0.042500865 0.58747095
0.06808262 0.40097758 0.97049063 0.1145736 0.31177515 0.20000856 0.5665311 0.39614725
0.10136278 0.12544416 0.10270532 1.7852763 0.43332466 0.7235703 0.1880761 0.28952742
-0.059782114 0.29183963 -0.46847185 -0.14649002 -0.042578626 0.02334354 0.049338914 -0.66613084
0.27602562 0.1575013 0.94360363 -0.5312012 0.14918925 0.66235584 0.5766518 0.30932695
0.36015764 0.555851 0.48980486 0.89274764 -0.32737765 0.47917727 0.51602185 0.07072831
0.048795734 0.34083983 -0.5452175 0.25795072 0.7469583 0.021887345 -0.8032121 0.16142434
-0.4120127 -0.19019352 0.8030545 0.48663244 -0.06843565 0.20511797 0.70590544 0.6655642
-0.23824398 0.7198489 1.3726783 0.8060163 0.39895278 0.43877327 0.23928809 0.69565374
0.88347775 0.5108486 0.20574117 -0.06210524 0.623636 0.042045556 0.5426719 0.31002328
0.114314616 -0.20496981 0.42888868 0.41709468 -0.4846386 0.55670214 -0.03614599 0.29671064
0.585276 0.27450994 0.05251115 -0.041470777 0.603181 0.3364033 0.26071975 0.100921646
0.06155597 0.29203254 -0.85110444 0.932272 -0.49740952 1.0943996 0.075669326 -0.07427567
0.67906016 0.47965786 0.23135297 -0.20795603 0.45213273 0.078712426 -0.29614866 0.42888302
0.9490735 0.27706185 0.94881856 0.971983 0.48600194 0.59664446 0.4512082 -0.20088409
0.56999195 -0.49114606 0.3987382 0.47616333 -0.06808015 0.028408105 0.53820306 0.6024906
0.24030115 0.15787522 0.6742025 0.6125246 0.5945916 0.3302563 0.24656306 -0.29410887
0.2352553 0.85535073 1.2804717 0.43717 0.41489106 0.24316409 0.596348 0.32360384
00000000: 806d 5f3f 5a44 223f 499b b63d a7dd f9be
00000010: 1f6e bc3e 8f28 d93e da29 4ebf 463f 093f
00000020: 9229 213f 11b0 0a3d fdbd 52be a176 c13d
00000030: eac9 b83d 3770 adbe 544f ba3e f633 41bf
00000040: 8e56 7abf 1648 193e fe74 f73e 0bbe fbbd
00000050: e46d dbbd 65a4 6b3f 4108 2e3f bb8d 033f
00000060: b454 c83d 0cb5 053f a7b0 a13e 97c5 073e
00000070: 3797 a63e 236d f7bd d3a1 0f3f bdb2 533f
00000080: 99f2 2abe 785e 2e3f f8c6 6abc 5dce 1b3e
00000090: d66e 6dbf 0602 4ebf ee69 c2bc 52a3 e3bc
000000a0: 933b 5f3e 396b ab3e 2fa9 06be 6508 903d
000000b0: 9c00 393e 8219 3f3e 4a90 263f 704a a03e
000000c0: 6645 5a3f 330c a13e 1cf7 c73e 7ac8 313f
000000d0: deb9 e8be 6e88 0a3f cf41 9b3d b812 863e
000000e0: fc73 aa3e e810 f73e b510 f73d 1d10 60bf
000000f0: f8d8 27bf 698e 63bf a6ed b43e fbd9 1b3f
00000100: 6af9 343d 9fa8 1e3f d97b a63e 7dfe 08bf
00000110: f9a9 583d 3e22 c43e 567c 813f fb9c e73c
00000120: 2d1a 323f 7d8e 553e c62f 6f3e 7615 0e3e
00000130: ad88 c63e 6846 99be 75cf 1fbf 7252 283f
00000140: 4f65 ebbd c3a4 303f d535 3d3e 1aa0 4c3e
00000150: 4ea6 81be f860 5c3e 36c9 763e 8120 8cbf
00000160: a475 383f bf3a 1a3e 1b9f 7a3f eb82 cb3e
00000170: 15aa 67be 7254 c2be 2868 243e 3ffa 57be
00000180: 95a9 553e 2f46 113f e3f3 9cbf 7905 2b3f
00000190: 93e3 e1be 2c89 293e d412 683e 22cf e4be
000001a0: 0431 7d3e 68e6 b53e 403a ba3e 82f4 63bc
000001b0: ab7d d73d 97ce 1bbf 3ae0 29be e9fb e33e
000001c0: 80e6 49bc 9068 b6bd 5c02 a03e 5b16 a9bd
000001d0: 744e 32be ccda a23e 6315 2e3d 7f64 163f
000001e0: e76e 8b3d ef4c cd3e 1372 783f 90a5 ea3d
000001f0: fea0 9f3e 0bcf 4c3e 2f08 113f d0d3 ca3e
00000200: 4a97 cf3d 6f74 003e 2b57 d23d ef83 e43f
00000210: bbdc dd3e e73b 393f 0597 403e f03c 943e
00000220: 17de 74bd 016c 953e 8bdb efbe 7b01 16be
00000230: ed66 2ebd f43a bf3c 9a17 4a3d 8d87 2abf
00000240: 3b53 8d3e 0548 213e 0290 713f cdfc 07bf
00000250: 11c5 183e 2790 293f 749f 133f 1a60 9e3e
00000260: 9566 b83e 404c 0e3f b4c7 fa3e 1c8b 643f
00000270: 0b9e a7be b956 f53e 021a 043f 01da 903d
00000280: 09de 473d 8f82 ae3e 6093 0bbf 1e12 843e
00000290: a938 3f3f 174d b33c 4f9f 4dbf 6c4c 253e
000002a0: 54f3 d2be 17c2 42be fb94 4d3f e327 f93e
000002b0: fd27 8cbd 720a 523e 38b6 343f 6a62 2a3f
000002c0: 3bf6 73be 0448 383f ecb3 af3f 1657 4e3f
000002d0: 8a43 cc3e e4a6 e03e f007 753e 5d16 323f
000002e0: 992b 623f f9c6 023f d0ad 523e 1062 7ebd
000002f0: 9ca6 1f3f f637 2c3d 8cec 0a3f 5fbb 9e3e
00000300: c81d ea3d 9be3 51be 4c97 db3e 6f8d d53e
00000310: 8d22 f8be 0884 0e3f d10d 14bd 75ea 973e
00000320: a6d4 153f 918c 8c3e ee15 573d 43dd 29bd
00000330: 126a 1a3f 0e3d ac3e 0f7d 853e 02b0 ce3d
00000340: 1d22 7c3d 4a85 953e fbe1 59bf 61a9 6e3f
00000350: 76ac febe 4915 8c3f 85f8 9a3d d81d 98bd
00000360: e3d6 2d3f b795 f53e cbe7 6c3e 6df2 54be
00000370: f17d e73e fb33 a13d cca0 97be 8e96 db3e
00000380: 7bf6 723f 0ddb 8d3e c6e5 723f e1d3 783f
00000390: 3fd5 f83e b1bd 183f c304 e73e 8fb4 4dbe
000003a0: feea 113f 7f77 fbbe 6a27 cc3e aecb f33e
000003b0: 9b6d 8bbd 1db8 e83c adc7 093f d33c 1a3f
000003c0: 8111 763e 0baa 213e 8998 2c3f 6ace 1c3f
000003d0: 2837 183f 5b17 a93e 077b 7c3e 7095 96be
000003e0: c4e6 703e 44f8 5a3f 7fe6 a33f bfd4 df3e
000003f0: 9a6c d43e 0200 793e 43aa 183f 67af a53e

encoder.lstm.weight_hh_l0 f4 [20, 5]
-0.17443956 -0.12904479 0.078234255 -0.3921963 0.0046800217 -0.49739268 -0.27707145 0.84641796
0.46780983 0.39539793 -0.5480326 -0.5142108 0.549864 0.3357847 0.5425265 -0.014669593
-0.0075286995 0.06663854 -0.009522963 -0.028450515 -0.30595762 -0.44180533 0.68679214 0.2269763
0.68953305 -0.58852947 -0.55202687 1.2640127 0.09599508 1.385078 -0.52337843 -0.55406004
1.031524 0.33668488 0.93666035 -0.27136806 -0.194404 0.18635799 0.035578713 0.077268325
0.6910764 0.7465885 -0.7153256 -0.017176945 -0.54033667 -0.39847863 -0.33251065 0.5000316
0.007903128 0.2988049 0.11569345 0.09984632 -0.24797319 0.1826679 -0.26960444 0.2874109
0.2883023 -0.34346905 0.27495784 -0.28528923 -0.366971 -0.31304088 0.016879866 0.19542614
-0.05455908 -0.159252 -0.16067792 0.14627777 -0.11524304 0.10784114 -0.5517457 -0.34753105
0.724462 0.09801283 0.63905144 -0.5936367 -0.55808794 0.6099109 0.1507801 0.61946404
-0.5042015 -0.5306722 0.6064067 -0.002533058 0.77619094 -0.40428934 -0.37756065 0.2997783
-0.09241059 0.2846337 0.57156724 0.65220314 -0.67950785 -0.51333565 -0.9243085 -0.35481754
-0.26663616 0.25214586 -0.17658068 0.004062858
00000000: 49a0 32be 5124 04be 4839 a03d f4cd c8be
00000010: de5a 993b 41aa febe 4fdc 8dbe d9ae 583f
00000020: c584 ef3e 9971 ca3e dd4b 0cbf 52a3 03bf
00000030: e3c3 0c3f f9eb ab3e 04e3 0a3f bc58 70bc
00000040: 4fb3 f6bb c979 883d 3406 1cbc 0e11 e9bc
00000050: 7aa6 9cbe 4f34 e2be 9cd1 2f3f 7a6c 683e
00000060: 3d85 303f dea9 16bf a251 0dbf 2bcb a13f
00000070: 1299 c43d 3c4a b13f 21fc 05bf e1d6 0dbf
00000080: fa08 843f f661 ac3e f9c8 6f3f c1f0 8abe
00000090: d811 47be a1d4 3e3e fcba 113d db3e 9e3d
000000a0: 62ea 303f 6d20 3f3f 941f 37bf aab6 8cbc
000000b0: 8153 0abf 6405 ccbe d63e aabe 1202 003f
000000c0: 1f7c 013c f5fc 983e b0f0 ec3d 3a7c cc3d
000000d0: afec 7dbe 4b0d 3b3e 9809 8abe 8627 933e
000000e0: 5c9c 933e 2ddb afbe 46c7 8c3e 6e11 92be
000000f0: 9fe3 bbbe e546 a0be a547 8a3c ca1d 483e
00000100: 5879 5fbd f512 23be c188 24be d7c9 153e
00000110: 8b04 ecbd d1db dc3d 353f 0dbf 97ef b1be
00000120: 5776 393f f3ba c83d e098 233f 93f8 17bf
00000130: dade 0ebf 1f23 1c3f 1966 1a3e 3295 1e3f
00000140: 5913 01bf 22da 07bf 783d 1b3f a901 26bb
00000150: 73b4 463f 03ff cebe a14f c1be 8b7c 993e
00000160: c341 bdbd 82bb 913e 3b52 123f c9f6 263f
00000170: 3af4 2dbf f769 03bf 7b9f 6cbf a5aa b5be
00000180: 8984 88be 4319 813e 91d1 34be b921 853b

encoder.lstm.bias_ih_l0 f4 [20]
-0.0055647884 -0.23795153 0.5029083 -0.15307985 0.31966227 0.5989715 0.6391124 0.22017294
-0.6785929 0.35281348 -0.26922557 -0.2888927 0.32272652 0.039952938 0.5964978 0.5617073
0.56780756 0.39485094 -0.59669197 0.24555787
00000000: d458 b6bb 91a9 73be 99be 003f f7c0 1cbe
00000010: c6aa a33e 3256 193f df9c 233f 0475 613e
00000020: 44b8 2dbf f8a3 b43e efd7 89be bee9 93be
00000030: 693c a53e b1a5 233d 14b4 183f 0dcc 0f3f
00000040: d65b 113f e729 ca3e cec0 18bf 8673 7b3e

encoder.lstm.bias_hh_l0 f4 [20]
-0.09815419 -0.2649746 0.47158462 -0.052396905 0.3713611 0.6676189 0.6519436 0.2598162
-0.75567365 0.34239173 -0.29503635 -0.3408417 0.28142715 0.10750254 0.5190867 0.54307073
0.6534209 0.41537178 -0.58534014 0.3085997
00000000: 1005 c9bd c0aa 87be 8a73 f13e 239e 56bd
00000010: 0b23 be3e 12e9 2a3f c7e5 263f a106 853e
00000020: d473 41bf f84d af3e 010f 97be ce82 aebe
00000030: 3817 903e 4b2a dc3d dee2 043f af06 0b3f
00000040: 9846 273f 9cab d43e dad8 15bf c800 9e3e

encoder.lstm.weight_ih_l0_reverse f4 [20, 400]
-0.08826455 -0.6068894 0.29409513 0.7312307 -0.19292074 0.618518 0.7475457 -0.31563574
-0.18452387 0.23908319 0.12236089 -0.05516353 -0.2651321 0.31155455 0.45654947 -0.2873068
0.4074183 1.0546973 -1.1104202 0.4788157 0.2945078 0.0047538504 -0.43697017 -0.26280072
0.47472304 0.7776589 0.24836081 0.021018066 0.6266332 0.53600246 0.35802805 0.706501
0.111186385 0.27120644 -0.3369392 0.10322464 0.7218013 -0.038607754 0.046892267 0.13214433
-0.19906025 -0.05609087 -0.13944049 -0.3246991 -0.4113559 -0.46803018 0.28628215 -0.042221043
-0.08043754 -0.31244147 -0.3542598 -0.07662617 0.19055998 0.27972698 0.2521747 0.58396494
-0.1602609 0.9667856 0.6156994 -0.2782096 -0.025178075 -0.2904554 -0.3693083 0.11507212
0.017093193 0.5009769 -0.39647624 0.15576133 0.3936148 -0.31595463 1.0140518 0.113893196
0.04385095 -0.23028146 0.4888369 0.22601709 0.21530694 0.24001881 0.15996455 1.1021618
-0.10368284 0.8880639 0.6368102 0.6768106 -0.0014928404 0.4003532 0.26813248 0.2945214
0.11545683 1.1268085 0.31216636 0.27519882 0.530229 0.8350304 -0.09315291 0.5042414
0.612225 -1.1796259 -0.75443107 0.34373307 -0.0016969292 0.1635209 0.043740246 -0.078012906
0.011165822 -0.61311513 0.41735694 -0.0019432299 -0.25374418 -0.37192747 -0.0028610388 0.5746298
0.12852742 0.0069498452 -0.2309854 0.64043206 0.3926397 0.51455694 -0.003503641 -0.053655416
0.62668353 0.52348113 0.9972384 -0.042900074 0.1503786 0.8546418 -0.04852351 0.7942984
0.14188701 -0.1661423 -0.042989448 -0.07731776 1.0237912 0.10482992 -0.30492875 0.8252258
-0.13658623 0.39713097 0.757028 0.57575923 0.3821702 0.20152144 -0.03186206 0.35364747
0.01881758 -0.21651876 0.93443125 -0.110917725 -0.5213123 0.33711413 0.29012582 0.89266175
0.5730881 0.6106268 -0.118223526 0.41659296 -0.1136051 0.9407538 0.11680085 0.22895521
0.096152306 0.52758324 0.25021952 -0.37092918 0.73238844 0.65385205 -0.42397544 1.0752436
0.18206449 0.12433749 0.26319593 0.9674328 0.32444453 -0.18004115 0.8705851 0.30500588
0.6311979 0.55336535 -0.44268978 0.82136023 0.95409685 -0.94705874 -0.058018506 1.0422858
-0.0957044 -0.7544952 -0.26620755 -0.015570349 0.51986134 -0.08154535 0.054936513 0.5982639
-0.14061436 -0.4506677 0.48663923 0.30597544 0.15681338 0.09998768 0.95188373 0.2065563
0.12590495 0.6729597 0.28752387 0.3084917 -0.14017631 0.68635833 -0.20384668 0.6184527
-0.2771792 0.29605132 -0.7667945 0.24021547 0.4791919 0.74104506 0.26538622 0.91256475
-0.10133804 0.1466863 -0.44171652 -0.038243543 0.8657722 -0.46994 -0.16279721 -0.26052946
0.21776934 0.42157653 0.16633277 -0.20638795 0.16466036 1.3196913 1.3143959 0.74293983
0.39867228 -0.01463476 0.2367781 0.4875859 0.36407447 -0.31885839 -0.58211434 -0.20287813
0.004833359 -0.57169783 0.5099016 -1.3817874 0.2073088 -0.56887794 0.07747111 0.68046397
-0.19335982 0.22217648 0.38076282 0.6949352 1.1531368 -0.0018767035 0.7861627 -0.12007358
00000000: 0bc4 b4bd 1b5d 1bbf a393 963e ef31 3b3f
00000010: 048d 45be 3257 1e3f 285f 3f3f 029b a1be
00000020: d3f3 3cbe 39d2 743e 5998 fa3d 27f3 61bd
00000030: 65bf 87be 1484 9f3e dac0 e93e e019 93be
00000040: 2299 d03e 5200 873f 4022 8ebf 5527 f53e
00000050: bac9 963e 30c6 9b3b 8eba dfbe d18d 86be
00000060: e60e f33e a714 473f 4c52 7e3e 142e ac3c
00000070: 096b 203f 7537 093f 744f b73e 40dd 343f
00000080: b0b5 e33d 92db 8a3e 4b83 acbe 7167 d33d
00000090: f8c7 383f 2a23 1ebd 1b12 403d d850 073e
000000a0: 73d6 4bbe 8abf 65bd 7dc9 0ebe f63e a6be
000000b0: 3e9d d2be a7a1 efbe 9393 923e f9ef 2cbd
000000c0: 70bc a4bd 54f8 9fbe 8a61 b5be 2eee 9cbd
000000d0: 2822 433e 6038 8f3e 0b1d 813e ba7e 153f
000000e0: 6f1b 24be 437f 773f 7a9e 1d3f 7d71 8ebe
000000f0: 4042 cebc 92b6 94be fa15 bdbe efaa eb3d
00000100: 0607 8c3c 0640 003f effe cabe e67f 1f3e
00000110: e187 c93e cec4 a1be 73cc 813f d640 e93d
00000120: 0e9d 333d e7ce 6bbe d548 fa3e 0671 673e
00000130: 6c79 5c3e 7ec7 753e bfcd 233e a313 8d3f
00000140: ab57 d4bd 2858 633f fe05 233f 7643 2d3f
00000150: 69ab c3ba 18fb cc3e a948 893e 82cb 963e
00000160: a174 ec3d 433b 903f 45d4 9f3e dce6 8c3e
00000170: 16bd 073f 8dc4 553f f4c6 bebd f715 013f
00000180: c7ba 1c3f fbfd 96bf 6522 41bf c8fd af3e
00000190: 7f6b deba 0672 273e f928 333d 3bc5 9fbd
000001a0: daf0 363c 1df5 1cbf cfaf d53e fab3 feba
000001b0: c2ea 81be 476d bebe 4480 3bbb f01a 133f
000001c0: b19c 033e 87bb e33b 7087 6cbe 5bf3 233f
000001d0: 1208 c93e 01ba 033f 589d 65bb c8c5 5bbd
000001e0: 556e 203f dc02 063f 044b 7f3f fdb7 2fbd
000001f0: d9fc 193e cec9 5a3f 97c0 46bd 2457 4b3f
00000200: d44a 113e 3521 2abe b415 30bd c658 9ebd
00000210: 970b 833f 12b1 d63d 9f1f 9cbe ff41 533f
00000220: 43dd 0bbe c054 cb3e 96cc 413f f564 133f
00000230: d0ab c33e a35b 4e3e cb81 02bd 4811 b53e
00000240: 5327 9a3c 18b7 5dbe e336 6f3f d528 e3bd
00000250: b974 05bf 399a ac3e 5f8b 943e 7b85 643f
00000260: e7b5 123f 0a52 1c3f 2d1f f2bd ac4b d53e
00000270: caa9 e8bd 3ed5 703f 4935 ef3d 3c73 6a3e
00000280: 80eb c43d b20f 073f c61c 803e 6eea bdbe
00000290: cf7d 3b3f d962 273f 4f13 d9be 95a1 893f
000002a0: 1d6f 3a3e a7a4 fe3d 9ec1 863e ada9 773f
000002b0: 981d a63e b55c 38be aade 5e3f bb29 9c3e
000002c0: 3096 213f 5aa9 0d3f 3ca8 e2be aa44 523f
000002d0: b13f 743f 7172 72bf d0a4 6dbd 9f69 853f
000002e0: ab00 c4bd 9926 41bf 5b4c 88be c71a 7fbc
000002f0: a215 053f 4001 a7bd 1c05 613d d327 193f
00000300: 36fd 0fbe ebbd e6be c728 f93e d0a8 9c3e
00000310: b093 203e 57c6 cc3d a7ae 733f 7f83 533e
00000320: 3aed 003e 1647 2c3f 5436 933e a0f2 9d3e
00000330: 618a 0fbe 2eb5 2f3f 2fbd 50be eb52 1e3f
00000340: 6fea 8dbe 0a94 973e a54c 44bf 0bfb 753e
00000350: a458 f53e 21b5 3d3f b4e0 873e d89d 693f
00000360: 518a cfbd ef34 163e ab28 e2be 43a5 1cbd
00000370: 3fa3 5d3f fa9b f0be 50b4 26be 1e64 85be
00000380: edfe 5e3e e1d8 d73e 2353 2a3e 5d57 53be
00000390: ba9c 283e a5eb a83f 203e a83f 4e31 3e3f
000003a0: c61e cc3e a2c6 6fbc f575 723e dca4 f93e
000003b0: f867 ba3e 6841 a3be 7205 15bf 49bf 4fbe
000003c0: 2761 9e3b ca5a 12bf e988 023f 69de b0bf
000003d0: c248 543e fca1 11bf 2ca9 9e3d e332 2e3f
000003e0: 1e00 46be 3b82 633e 58f3 c23e 46e7 313f
000003f0: fd99 933f b8fb f5ba f541 493f 23e9 f5bd

encoder.lstm.weight_hh_l0_reverse f4 [20, 5]
1.393433 0.5578288 -2.0630684 0.63047683 0.78118575 0.06384925 0.019666472 0.2055402
-0.034670528 0.16665371 -0.7725766 -2.7040281 -1.0637378 -2.9166763 -1.0753356 0.5017433
1.2093775 1.5404954 1.1470281 1.0050423 0.11469586 0.4809667 0.38011312 0.4957643
0.4551131 0.33878845 1.6542917 -1.2029382 1.6821861 0.12100338 0.09268191 0.32725978
0.5565576 0.34662637 0.0074707307 0.9031251 0.9517155 0.9805443 0.8467885 0.68634397
0.3584421 0.34804192 0.26081282 0.31648287 0.08821825 0.30758238 0.85831594 0.6797375
0.8358664 0.8289525 0.9478369 0.41965044 -0.6363212 0.52915156 0.7432184 0.39400506
1.0826824 0.76091295 1.0865996 0.42245823 0.19738525 -0.07018335 -0.0349155 0.023010358
-0.016900927 0.7089931 1.5551829 1.3984766 1.5798684 1.0403447 0.3623784 0.3858834
0.48412168 0.51149535 0.28620636 1.0674666 1.1200781 0.31097248 1.0982766 1.0901368
0.633496 0.93187976 0.6355043 1.0287704 0.74677366 0.6095216 0.42566526 0.64898616
0.42320317 0.36065406 0.7702177 1.0151964 0.19160452 0.90615743 1.0124702 1.2790521
0.27276915 -1.1433554 0.14517221 1.1530867
00000000: 035c b23f decd 0e3f 5009 04c0 ee66 213f
00000010: cafb 473f 65c3 823d 951b a13c 2179 523e
00000020: af02 0ebd 45a7 2a3e 94c7 45bf cc0e 2dc0
00000030: 8f28 88bf d3aa 3ac0 99a4 89bf 4072 003f
00000040: e2cc 9a3f f42e c53f d1d1 923f 3aa5 803f
00000050: aae5 ea3d 4441 f63e 309e c23e d1d4 fd3e
00000060: 9604 e93e ae75 ad3e d5bf d33f e1f9 99bf
00000070: e051 d73f 9fd0 f73d 03d0 bd3d 988e a73e
00000080: 8f7a 0e3f 0379 b13e 08cd f43b 3533 673f
00000090: a1a3 733f f404 7b3f 22c7 583f 3db4 2f3f
000000a0: b985 b73e 8d32 b23e 4289 853e 0b0a a23e
000000b0: c5ab b43d 707b 9d3e 98ba 5b3f 4703 2e3f
000000c0: 57fb 553f 3b36 543f 70a5 723f 6cdc d63e
000000d0: f2e5 22bf 7a76 073f 9043 3e3f 08bb c93e
000000e0: 5695 8a3f 31cb 423f b215 8b3f 724c d83e
000000f0: 5c1f 4a3e 4abc 8fbd 8e03 0fbd 3880 bc3c
00000100: d073 8abc 9280 353f 3c10 c73f 4801 b33f
00000110: 2139 ca3f 042a 853f a989 b93e 8292 c53e
00000120: ccde f73e 5cf1 023f a489 923e bfa2 883f
00000130: b85e 8f3f c937 9f3e 5494 8c3f 9a89 8b3f
00000140: cb2c 223f ac8f 6e3f 69b0 223f c0ae 833f
00000150: 8f2c 3f3f 9c09 1c3f ccf0 d93e f523 263f
00000160: 16ae d83e a6a7 b83e fd2c 453f f5f1 813f
00000170: fa33 443e eff9 673f a098 813f fbb7 a33f
00000180: 66a8 8b3e 7859 92bf 06a8 143e 5898 933f

encoder.lstm.bias_ih_l0_reverse f4 [20]
0.23328325 -0.93125063 0.4173917 -0.8914513 0.3786386 0.29602876 0.2920513 0.96288204
0.43606532 0.84430075 0.5845149 0.23353823 0.25341976 0.54949296 0.53772193 0.8786872
0.8239313 0.5965411 0.8077197 0.015326846
00000000: cee1 6e3e 7166 6ebf 5db4 d53e 2736 64bf
00000010: ebdc c13e 1591 973e bf87 953e 707f 763f
00000020: f443 df3e 1824 583f c5a2 153f a524 6f3e
00000030: 3cc0 813e 92ab 0c3f 25a8 093f a5f1 603f
00000040: 29ed 523f ebb6 183f b8c6 4e3f 741d 7b3c

encoder.lstm.bias_hh_l0_reverse f4 [20]
0.19477896 -0.9604183 0.34899792 -0.8992081 0.3765443 0.2416562 0.39851138 0.94912666
0.4132815 0.79688597 0.5687401 0.27315447 0.19277503 0.5151969 0.50244135 0.8854063
0.85996205 0.44973966 0.69119394 0.056879144
00000000: 2374 473e f9dd 75bf dbaf b23e 8132 66bf
00000010: 6aca c03e b974 773e af09 cc3e f7f9 723f
00000020: a299 d33e b800 4c3f f498 113f e7da 8b3e
00000030: d166 453e f2e3 033f ff9f 003f fda9 623f
00000040: 7926 5c3f 4744 e63e 16f2 303f 1bfa 683d

decoder.embed.weight f4 [8, 8]
-0.015047247 0.014919396 -0.1151875 0.12234799 0.04906486 -0.060250502 0.08536484 -0.020145863
0.044059098 0.036323953 -0.12878986 0.10088137 -0.1694123 0.09945286 -0.083120555 -0.007014255
0.42430803 0.35642865 0.07299311 0.56458056 -0.088694796 -0.08243779 0.59995544 -0.23452885
0.0022763577 -0.06989119 -0.19756146 0.2776478 -0.23880894 0.064391896 0.06718846 -0.07226425
0.26157573 0.2366975 0.24223338 -0.21332371 0.31379348 0.29678285 0.20636776 -0.11523888
-0.34931588 -0.44753754 0.056971192 -0.2242241 0.013929625 -0.29314747 -0.5034054 0.550537
-0.06366458 -0.048809618 -0.0035387333 0.0051954496 -0.09869188 -0.07933485 0.016518708 0.082552165
0.17253962 0.16108827 -0.6073829 0.6288681 -0.23610857 0.59782857 0.33494583 -0.68561137
00000000: ba88 76bc 7b70 743c 6de7 ebbd 9591 fa3d
00000010: 3cf8 483d 3bc9 76bd c3d3 ae3d f008 a5bc
00000020: 5077 343d 6dc8 143d 7de1 03be e49a ce3d
00000030: 6b7a 2dbe f1ad cb3d 1c3b aabd d6d7 e5bb
00000040: e73e d93e d17d b63e 697d 953d 5a88 103f
00000050: 9ea5 b5bd 25d5 a8bd ae96 193f 5528 70be
00000060: f22e 153b 1d23 8fbd 8d4d 4abe da27 8e3e
00000070: 558a 74be e6df 833d 1a9a 893d 47ff 93bd
00000080: 41ed 853e d460 723e 070c 783e 8871 5abe
00000090: 8aa9 a03e ecf3 973e 1252 533e 5d02 ecbd
000000a0: 88d9 b2be a423 e5be a05a 693d 019b 65be
000000b0: 1539 643c 6d17 96be 2ddf 00bf feef 0c3f
000000c0: 9362 82bd 98ec 47bd 18ea 67bb 973e aa3b
000000d0: f81e cabd 4f7a a2bd 3e52 873c 1c11 a93d
000000e0: 3aae 303e 53f4 243e 727d 1bbf 80fd 203f
000000f0: 72c6 71be 4b0b 193f 057e ab3e 3a84 2fbf

decoder.lstm.weight_ih_l0 f4 [20, 8]
0.40311733 0.13305317 0.3368935 0.21815011 0.02929308 0.30167213 0.3102694 -0.5070066
-0.5474529 -0.67625755 -0.48588032 0.07064597 -0.54150367 -0.83235085 -0.6921019 0.7090651
0.67813915 0.51478547 0.982201 -0.30924287 0.8996847 0.8003182 0.3864526 -0.6745783
0.9097117 1.032959 0.8614549 -0.795692 1.1873767 0.7686458 0.90873694 -1.1987921
0.46135104 0.6240894 0.9480321 -0.22429156 0.47810525 0.53412247 0.42501527 -0.8379845
0.20524016 -0.2869093 -0.70807636 0.30093166 0.27572674 -0.23521233 -0.2472654 -0.03680325
-0.3276841 -0.18099084 -0.48358795 -0.062241897 -0.12884767 -0.12753004 -0.2643661 0.11305752
0.5542052 0.7847875 0.042311084 0.46122864 0.087535106 0.90310574 0.7050558 -0.40369967
0.42073664 0.124339096 1.1013054 -0.6616335 0.8926402 0.71891475 0.54979014 0.009750055
0.15120214 0.33934045 0.2674348 -0.18347275 0.2249225 0.36838365 -0.04348306 0.17457563
0.7155423 0.68621445 -0.5056832 0.3409892 -0.19128935 0.704559 0.5498032 -0.6736952
-0.13888639 -0.16645275 -0.22090085 -0.21932228 -0.093882374 -0.13069403 -0.16739444 0.01608975
-0.4048369 -0.35557213 -0.038985677 -0.10110546 -0.29005522 -0.3368872 -0.454422 0.08944064
-1.3069136 -1.3817554 -0.93881553 1.5230993 -1.4775983 -1.2631514 -1.2592812 1.22153
-1.009708 -1.179783 -0.45669067 -0.03502295 -0.5042703 -0.8980684 -1.093916 1.268426
-0.64725953 -0.8173831 -0.5872856 -0.058626026 -0.1978049 -0.63990134 -0.54207 0.82016337
0.2480779 0.5023445 -0.009436732 0.64843893 -0.09832235 0.05981937 0.44424924 -0.27957976
-0.14077786 0.1107977 -0.38033375 0.41233978 -0.8426018 -0.05957214 -0.09675787 0.0025430617
0.09767962 -0.297998 0.18213831 0.06981159 0.20542847 -0.4901732 -0.28613263 0.14604245
0.14838381 0.25528547 0.7387874 -0.61954707 0.8052472 0.079468355 0.08031329 -0.035455067
00000000: 6565 ce3e 173f 083e 4e7d ac3e be62 5f3e
00000010: 0bf8 ef3c c574 9a3e a1db 9e3e 2fcb 01bf
00000020: e025 0cbf 371f 2dbf 4ec5 f8be d6ae 903d
00000030: fc9f 0abf f214 55bf 972d 31bf 4a85 353f
00000040: 879a 2d3f fbc8 033f 8671 7b3f 1555 9ebe
00000050: bd51 663f a7e1 4c3f 1ddd c53e 2ab1 2cbf
00000060: dee2 683f 0038 843f 4f88 5c3f 79b2 4bbf
00000070: f6fb 973f f9c5 443f fca2 683f 0572 99bf
00000080: 3436 ec3e 53c4 1f3f 3bb2 723f b0ac 65be
00000090: 36ca f43e 40bc 083f 9a9b d93e 2786 56bf
000000a0: 7a2a 523e c7e5 92be 7e44 35bf b713 9a3e
000000b0: 0e2c 8d3e 80db 70be 2433 7dbe 01bf 16bd
000000c0: 36c6 a7be aa55 39be d798 f7be 5cf1 7ebd
000000d0: a5f0 03be 3c97 02be fe5a 87be b38a e73d
000000e0: 64e0 0d3f d5e7 483f 634e 2d3d 2926 ec3e
000000f0: 9b45 b33d f031 673f 897e 343f b9b1 cebe
00000100: cb6a d73e 7fa5 fe3d 93f7 8c3f d060 29bf
00000110: 1184 643f cc0a 383f 0cbf 0c3f b2be 1f3c
00000120: bcd4 1a3e 08be ad3e 37ed 883e 48e0 3bbe
00000130: 1552 663e c89c bc3e 4b1b 32bd f4c3 323e
00000140: c82d 373f c0ab 2f3f 7474 01bf 2396 ae3e
00000150: 5be1 43be fb5d 343f e7bf 0c3f 4a77 2cbf
00000160: 3c38 0ebe 9772 2abe d533 62be 0596 60be
00000170: 6745 c0bd a8d4 05be 7369 2bbe a7ce 833c
00000180: c846 cfbe 8d0d b6be 72af 1fbd 6110 cfbd
00000190: 1e82 94be 7b7c acbe 00aa e8be a72c b73d
000001a0: f248 a7bf 5cdd b0bf 3756 70bf ebf4 c23f
000001b0: f121 bdbf f2ae a1bf 2030 a1bf 185b 9c3f
000001c0: 1d3e 81bf 2103 97bf 5cd3 e9be 3a74 0fbd
000001d0: dc17 01bf d0e7 65bf 7105 8cbf c85b a23f
000001e0: cdb2 25bf 0540 51bf 5958 16bf d821 70bd
000001f0: 5e8d 4abe 93d0 23bf 19c5 0abf 3af6 513f
00000200: 2208 7e3e a699 003f 869c 1abc 1800 263f
00000210: 3a5d c9bd 2805 753d a374 e33e 1425 8fbe
00000220: 1228 10be e8e9 e23d 1bbb c2be 331e d33e
00000230: c0b4 57bf eb01 74bd fd28 c6bd 7fa9 263b
00000240: 410c c83d 3293 98be 7782 3a3e 61f9 8e3d
00000250: d75b 523e fbf7 fabe fa7f 92be 278c 153e
00000260: edf1 173e c7b4 823e 2c21 3d3f a39a 1ebf
00000270: ae24 4e3f 4ec0 a23d 4b7b a43d 5539 11bd

decoder.lstm.weight_hh_l0 f4 [20, 5]
-2.4391904 1.2734139 1.2891042 0.22246024 -1.2766062 -0.57481474 -0.31379128 0.6835406
0.2611914 0.2412411 -0.27038753 1.075577 -0.5142093 0.63569856 0.105500795 -0.6628999
-0.14496617 0.04556048 -1.7231576 1.016436 0.6152968 -0.60376424 -1.6413467 -0.3868156
-0.21299283 -0.008502079 -0.059802737 -0.5432135 -1.6664464 -0.89016396 -0.39196098 -0.45044872
0.665368 0.32623407 1.2429202 0.08398297 -0.1500977 0.10167234 -2.378429 -0.088913724
0.7469307 0.90682894 -0.23215173 -0.3364801 -0.21280614 -0.004328506 -0.35046974 0.37214002
0.25972265 0.13129866 -1.1722841 1.3205777 1.7336284 -0.3122242 2.367606 -0.33779103
-0.29144004 0.33418426 0.13365288 0.15671591 1.2582068 -1.0655342 -1.075424 0.8501343
-0.88339 -0.4408537 -0.70393056 0.27398255 -1.9112247 -0.25965828 1.0104183 -1.0258161
-1.2177434 -0.13291866 -0.3225878 -1.6945361 -0.63147736 -0.46848243 -1.7031295 -1.5230348
0.7394072 1.059858 -2.4143822 -2.8093948 -1.6830792 -1.3319325 -0.7378139 -0.00060316094
-3.2877116 0.0025400673 -1.6140264 -0.6396769 1.2996545 -1.9606307 1.7928791 -0.6000226
-2.5860949 -0.025924295 -0.87366116 -0.0058903387
00000000: b21b 1cc0 3aff a23f 5e01 a53f 9ecc 633e
00000010: d567 a3bf 0f27 13bf 40a9 a0be 84fc 2e3f
00000020: e1ba 853e e807 773e 3c70 8abe 82ac 893f
00000030: 38a3 03bf 24bd 223f cd10 d83d cfb3 29bf
00000040: 0372 14be a09d 3a3d 6e90 dcbf 931a 823f
00000050: 1784 1d3f 4b90 1abf a617 d2bf b20c c6be
00000060: cb1a 5abe 4e4c 0bbc b7f3 74bd 0a10 0bbf
00000070: 1e4e d5bf c9e1 63bf 1caf c8be 37a1 e6be
00000080: 8f55 2a3f 2708 a73e 0218 9f3f 43ff ab3d
00000090: 36b3 19be 9639 d03d 2e38 18c0 6618 b6bd
000000a0: da36 3f3f f125 683f 2fb9 6dbe 1f47 acbe
000000b0: dae9 59be 24d6 8dbb c570 b3be 2389 be3e
000000c0: 5efa 843e 2873 063e 680d 96bf b108 a93f
000000d0: 89e7 dd3f dadb 9fbe db86 1740 f2f2 acbe
000000e0: a137 95be 331a ab3e 4ddc 083e 237a 203e
000000f0: ec0c a13f 6d63 88bf 7ea7 89bf 67a2 593f
00000100: d925 62bf 93b7 e1be cb34 34bf 7147 8c3e
00000110: 03a3 f4bf eef1 84be 6355 813f f14d 83bf
00000120: 04df 9bbf d41b 08be 3a2a a5be 8fe6 d8bf
00000130: 80a8 21bf eedc efbe 2600 dabf cef2 c2bf
00000140: ca49 3d3f 6da9 873f 3d85 1ac0 20cd 33c0
00000150: 246f d7bf c47c aabf 5fe1 3cbf 721d 1eba
00000160: de69 52c0 4277 263b 6b98 cebf dec1 23bf
00000170: 145b a63f f2f5 fabf 107d e53f 159b 19bf
00000180: 9482 25c0 305f d4bc 42a8 5fbf be03 c1bb

decoder.lstm.bias_ih_l0 f4 [20]
0.3660665 0.16080163 0.08709633 0.27262104 0.20072508 -0.37349486 0.8313574 -0.41618678
-1.1324149 0.04724783 -0.02503289 0.6843437 -0.31314918 0.09971115 -0.42353085 -0.15749736
-0.5824152 -0.14555414 -0.2813272 -0.06819368
00000000: 116d bb3e 2fa9 243e 905f b23d fc94 8b3e
00000010: e08a 4d3e b83a bfbe d7d3 543f 6f16 d5be
00000020: f9f2 90bf f186 413d c611 cdbc 2631 2f3f
00000030: 1755 a0be 5c35 cc3d 09d9 d8be fd46 21be
00000040: 2a19 15bf 250c 15be 1e0a 90be 21a9 8bbd

decoder.lstm.bias_hh_l0 f4 [20]
0.3230082 0.11704714 0.09343969 0.14834389 0.23703825 -0.43797135 0.86522275 -0.27111897
-1.0376469 0.082646064 0.11024648 0.57163763 -0.38266984 0.10870975 -0.38837436 -0.14716929
-0.55227745 -0.11907648 -0.3844465 -0.1561677
00000000: 5561 a53e 69b6 ef3d 4f5d bf3d 76e7 173e
00000010: 28ba 723e c83d e0be 3d7f 5d3f 1bd0 8abe
00000020: 9dd1 84bf 5742 a93d e8c8 e13d d856 123f
00000030: 4ded c3be 38a3 de3d 01d9 c6be 8cb3 16be
00000040: 0e62 0dbf 5fde f3bd 2cd6 c4be 6dea 1fbe

decoder.lstm.weight_ih_l0_reverse f4 [20, 8]
0.20287424 0.15410875 -1.2585195 0.4282778 -1.062392 0.05084092 0.1994858 -0.16601887
-0.48494148 -0.08272142 -0.84888077 0.96749365 -0.97205836 0.3843577 0.046156794 -0.4478767
0.45452133 0.49115643 0.80337375 0.40244016 0.844642 0.5547487 0.8669345 -0.51400614
-0.066816725 -0.22589058 0.17907599 -0.51483303 0.10519031 -0.26501477 -0.08107322 0.27423498
-0.42780763 -0.25512266 -0.44350275 0.080832966 -0.2909035 -0.27215517 -0.17077291 -0.16186745
-0.05323641 0.00020042458 -0.062491063 0.101997934 0.006806382 0.15304768 -0.10756169 0.12948123
-0.08019854 0.013478611 0.026940022 0.22405976 -0.11692114 0.029572673 -0.018941185 0.09828168
-0.10770838 -0.129726 0.11508383 -0.12069665 -0.018060384 0.0030110655 -0.15189339 0.14358005
-0.2855023 -0.2868913 0.12543496 -0.61992234 0.4735476 -0.25242645 -0.24910755 0.60005224
0.2747375 0.33807355 -0.26513666 0.09696684 -0.45699838 0.096040994 -0.1393591 -0.045582414
0.12579641 0.30273277 0.021997007 -0.5892379 0.12967484 0.089801095 0.45413744 0.12784189
-0.2658572 -0.5670698 0.46806306 -0.46849874 0.632057 -0.38363263 -0.2155439 0.41444793
0.00879321 0.14698577 0.05460443 -0.32179764 0.12865062 -0.26514894 -0.013063241 0.05840326
-0.11148778 -0.022720048 -0.14729942 0.47544804 -0.5771258 -0.080107115 0.15990138 0.13444175
-0.08597817 0.06697906 0.20178498 -0.09423159 0.116965204 -0.20555486 -0.047727652 0.087805666
-0.51832783 -0.26250014 -0.41900262 0.3048922 -0.3358951 0.009162926 0.059778407 0.029749699
0.9045801 0.8025809 -0.4777515 0.6545727 -0.3471151 1.3229381 0.98480713 -1.1617655
0.079605 0.07473041 0.6508313 -0.20723096 0.31090075 -0.14407176 -0.23978776 0.1877329
0.080092154 0.35629758 0.54983807 -0.9216419 0.47556126 0.25676414 -0.14846225 -0.027478673
0.49516377 0.45871666 -0.23300779 0.4207858 -0.31551594 0.3404934 0.83622056 -0.58432204
00000000: 44be 4f3e afce 1d3e 2b17 a1bf 3a47 db3e
00000010: 76fc 87bf 923e 503d 0146 4c3e da00 2abe
00000020: 404a f8be d969 a9bd 4050 59bf aaad 773f
00000030: d1d8 78bf 88ca c43e e80e 3d3d 1850 e5be
00000040: 05b7 e83e db78 fb3e e7a9 4d3f a30c ce3e
00000050: 753a 583f 0304 0e3f 6bef 5d3f e895 03bf
00000060: 35d7 88bd dc4f 67be b25f 373e 19cc 03bf
00000070: 046e d73d 04b0 87be b709 a6bd 8768 8c3e
00000080: 9a09 dbbe 709f 82be cb12 e3be c18b a53d
00000090: 4ef1 94be ec57 8bbe 18df 2ebe 95c0 25be
000000a0: 6c0e 5abd 1029 5239 a1f6 7fbd 4be4 d03d
000000b0: 1208 df3b 88b8 1c3e 4e49 dcbd ba96 043e
000000c0: 223f a4bd 64d5 5c3c 52b1 dc3c ec6f 653e
000000d0: 5a74 efbd 6442 f23c 8b2a 9bbc e847 c93d
000000e0: 3696 dcbd e4d6 04be 12b1 eb3d ce2f f7bd
000000f0: 5ff3 93bc 4c55 453b f189 1bbe a606 133e
00000100: 5c2d 92be 6be3 92be 0672 003e 3bb3 1ebf
00000110: d574 f23e 0a3e 81be 0d16 7fbe 069d 193f
00000120: 65aa 8c3e fa17 ad3e febf 87be 8d96 c63d
00000130: b1fb e9be 24b1 c43d 27b4 0ebe a0b4 3abd
00000140: c6d0 003e caff 9a3e 1133 b43c 4cd8 16bf
00000150: 7bc9 043e a3e9 b73d b484 e83e fce8 023e
00000160: 6f1e 88be 7d2b 11bf f6a5 ef3e 11df efbe
00000170: 7dce 213f 7f6b c4be 8ab7 5cbe 8532 d43e
00000180: 6511 103c 7083 163e e5a8 5f3d a9c2 a4be
00000190: fdbc 033e 9ac1 87be 3407 56bc 4238 6f3d
000001a0: b553 e4bd 651f babc a9d5 16be ed6d f33e
000001b0: 84be 13bf 330f a4bd 30bd 233e 19ab 093e
000001c0: 5315 b0bd 512c 893d b9a0 4e3e 7efc c0bd
000001d0: 748b ef3d f97c 52be 127e 43bd 75d3 b33d
000001e0: 22b1 04bf 6b66 86be 8387 d6be d51a 9c3e
000001f0: 71fa abbe 1920 163c 34da 743d a4b5 f33c
00000200: 9092 673f f175 4d3f d89b f4be 1492 273f
00000210: 12b9 b1be 0956 a93f 521c 7c3f bbb4 94bf
00000220: f207 a33d 420c 993d e19c 263f 5a34 54be
00000230: 622e 9f3e 8c87 13be ec8a 75be 0e3d 403e
00000240: 5b07 a43d a36c b63e 30c2 0c3f b9f0 6bbf
00000250: c47c f33e 9776 833e 7d06 18be f41a e1bc
00000260: 1b86 fd3e e9dc ea3e 9899 6ebe 3d71 d73e
00000270: 4e8b a1be 2755 ae3e 8d12 563f 2196 15bf

decoder.lstm.weight_hh_l0_reverse f4 [20, 5]
0.57261294 0.94795907 -0.5285276 0.115479454 2.6911533 0.3685762 0.9305379 1.9039627
-3.35461 0.14191101 -0.19784965 1.2639744 1.7981584 0.9973297 0.66044706 0.9566867
1.2240033 -0.5684068 0.513408 0.8678813 1.654828 1.4342669 -0.714403 0.18756083
-0.9640304 0.6659286 0.07749792 -0.5654908 0.30252433 -0.6110013 0.6124179 0.020489886
-0.7067758 0.74462897 0.060131863 0.062156796 0.07188581 0.8865791 0.14768629 0.5656423
0.49072018 1.0805156 0.28769234 1.237924 0.9171854 -0.063764 0.10589536 2.9460378
0.09980108 0.28698882 -1.5729096 -0.620118 1.1144488 -0.74320585 -0.06607433 0.17251882
-0.5935526 -1.1527699 1.5256908 -0.36563373 -1.3560252 0.5712264 -1.5908238 -0.11677999
-2.5698636 -0.51698864 -1.051702 0.62888914 -0.49317878 -0.57368374 -1.8246131 -0.09095044
2.1726544 0.25420862 -1.7965946 2.7434006 0.24111603 -0.41650268 1.5456461 -0.78833026
0.40601048 0.9191242 0.4590661 -1.0704714 -0.19043882 1.1916548 2.286446 1.0238217
0.7346723 1.0930101 0.07186817 0.6920477 -1.6107006 0.21109338 0.21756719 -0.9151463
0.89559984 1.4877427 0.6809002 0.048004396
00000000: c396 123f 72ad 723f 964d 07bf 7e80 ec3d
00000010: db3b 2c40 05b6 bc3e bb37 6e3f 0db5 f33f
00000020: eeb1 56c0 1f51 113e 1999 4abe eac9 a13f
00000030: 0e2a e63f 0051 7f3f 0f13 293f 6be9 743f
00000040: 24ac 9c3f 1c83 11bf b56e 033f 782d 5e3f
00000050: 67d1 d33f 0f96 b73f 1de3 36bf f20f 403e
00000060: b2ca 76bf 4c7a 2a3f 3bb7 9e3d 01c4 10bf
00000070: 78e4 9a3e 956a 1cbf 6bc7 1c3f 68da a73c
00000080: 42ef 34bf 01a0 3e3f d44c 763d 2098 7e3d
00000090: de38 933d d9f6 623f 133b 173e efcd 103f
000000a0: ad3f fb3e 564e 8a3f 694c 933e 4b74 9e3f
000000b0: aacc 6a3f b396 82bd abdf d83d e28b 3c40
000000c0: 8264 cc3d 33f0 923e 1a55 c9bf 0ec0 1ebf
000000d0: 42a6 8e3f bd42 3ebf fa51 87bd c6a8 303e
000000e0: 10f3 17bf f78d 93bf d649 c33f 5834 bbbe
000000f0: 3c92 adbf e53b 123f 1da0 cbbf 592a efbd
00000100: a578 24c0 5e59 04bf 2c9e 86bf e1fe 203f
00000110: ee81 fcbe f0dc 12bf ec8c e9bf 3944 babd
00000120: c50c 0b40 a227 823e d0f6 e5bf e093 2f40
00000130: 1fe7 763e d73f d5be bbd7 c53f 03d0 49bf
00000140: 9be0 cf3e b94b 6b3f b60a eb3e 3505 89bf
00000150: 6502 43be 2588 983f 2255 1240 970c 833f
00000160: 7c13 3c3f c1e7 8b3f 9e2f 933d 0a2a 313f
00000170: 702b cebf dd28 583e efc9 5e3e 0747 6abf
00000180: 0846 653f 5a6e be3f 7a4f 2e3f 42a0 443d

decoder.lstm.bias_ih_l0_reverse f4 [20]
0.001399254 -0.034608044 0.4946558 0.84657186 0.5419656 0.20186166 -0.0543802 -0.023385651
1.3211852 -0.31836557 -0.16027458 -0.28427738 -0.15496528 -0.94123834 -0.2782574 -0.059991814
0.05386939 -0.52732056 0.6906925 -0.097509205
00000000: 2c67 b73a 2ac1 0dbd 8643 fd3e efb8 583f
00000010: 42be 0a3f d3b4 4e3e c6bd 5ebd 4493 bfbc
00000020: 991c a93f d000 a3be 051f 24be ce8c 91be
00000030: 38af 1ebe fff4 70bf c177 8ebe fab9 75bd
00000040: 26a6 5c3d 7bfe 06bf 39d1 303f e8b2 c7bd

decoder.lstm.bias_hh_l0_reverse f4 [20]
-0.03290904 -0.009765175 0.51044583 0.8316428 0.4472327 0.22285666 -0.03531561 0.018836211
1.3050638 -0.23258509 -0.22898598 -0.38052034 -0.15357712 -0.9438483 -0.17888422 -0.047850013
0.002198021 -0.5597903 0.61287457 -0.08499876
00000000: a1cb 06bd 1dfe 1fbc 94ac 023f 8be6 543f
00000010: affb e43e 8934 643e 1aa7 10bd 664e 9a3c
00000020: 550c a73f c92a 6ebe 4d7b 6abe 90d3 c2be
00000030: 5243 1dbe 0ba0 71bf 6d2d 37be 60fe 43bd
00000040: ac0c 103b 6b4e 0fbf 59e5 1c3f d413 aebd
