models/autosave/g1AE-1-10-1-500.pt (torch, 254535 bytes, 24 tensors)

encoder.embed.weight f4 [8, 8]
00000000: 9f55 0f3d de23 73bd 224c 8f3d f6f5 003d
00000010: 0067 42bc 353c 50bd 292e cbbc 38e7 9dbc
00000020: df41 59bf 1ae8 293f 43ed eebd 8b1d 0bbf
00000030: 10e3 633e e349 dd3e 539c 5cbe 856e 4dbe
00000040: e409 2abf 15bf 2b3f 33bf 17be 6be8 3ebf
00000050: 3d47 013e 281e 4c3f 3aec edbd d30e a7bd
00000060: 8de8 993f 475d 9dbf 1f93 dcbf 502b 953f
00000070: cce9 b03f 9835 a0bf ffb9 193f 4d8e c5bf
00000080: 1c03 673e 9405 cebd eb3f e43e cf67 293e
00000090: 79ef 12bf 9a3b 81bd 3dc9 d5bf fc74 3c3f
000000a0: 24a4 843f 54f8 a3bf 7722 cfbf 3b22 d13f
000000b0: b426 c33f 4840 b9bf bc10 653f 62fa c3bf
000000c0: 2f7d 843e ba69 f6bd b64c 0f3f aabc aa3d
000000d0: 03bd 21bf 53fa 16be fa4f bcbf e375 0b3f
000000e0: cb53 2dbf ec70 053f f0c0 28be a59d 28bf
000000f0: 3f26 6f3c 2a1b 473f d334 47be f6ee 94be
0.034993764 -0.059360377 0.06996943 0.031484567 -0.011865377 -0.050838668 -0.024802284 -0.019275293
-0.84866136 0.66369784 -0.11666348 -0.54341954 0.22254586 0.43220434 -0.21544008 -0.20061691
-0.6642134 0.67088443 -0.1481903 -0.7457339 0.12624831 0.79733515 -0.11617322 -0.08157124
1.2024094 -1.2294091 -1.7232398 1.1653843 1.3821349 -1.2516356 0.6004943 -1.5434052
0.2255978 -0.10059658 0.44580016 0.16543506 -0.57396656 -0.06310196 -1.6702038 0.73616004
1.0362592 -1.2810159 -1.6182393 1.6338571 1.5246186 -1.4472742 0.8947866 -1.5310786
0.25876758 -0.120318845 0.55976427 0.08336766 -0.63179034 -0.14743929 -1.4711907 0.54476756
-0.6770598 0.5212543 -0.1647985 -0.65865546 0.014596521 0.77775824 -0.19453745 -0.29088563

encoder.fc_one.weight f4 [500, 8]
00000000: 4220 04c0 d11b 853f c413 a4bf f0ec b4be
00000010: 007c c93e 9c86 8b3f 26c5 fabe 9f55 d6bd
00000020: 2d72 fa3e 834f 95bf 4bf1 55bf 9da4 e1bd
00000030: b90b 8f3f 0a60 84bf c1b4 8b3f 16b7 36bf
00000040: 33fc 9c3f 2245 0f3f 8c13 8abf a935 503c
00000050: c5ea 143e 2fb9 35bf 65f8 903f 580c 253e
00000060: ed1e 203e 40d8 ecbd 3a5b 96be fb40 803c
00000070: 5999 f3be d778 fa3d 3e5a 5fbd c4b8 7e3f
00000080: abe9 323e 022d 053d 39ac 1dbd b7a5 433e
00000090: ee8f 82be 6a8f b5bc 91f5 993e fc16 853e
000000a0: 5ed3 ecbe 6523 693f 5dfd cc3e 3986 86bd
000000b0: 048e 213f 6286 d33d 5ada ea3d a348 153f
000000c0: 13d9 663c d5f5 d0bd 992d c3bc 194e 313c
000000d0: 55c1 e7bd f2da 9c3d 8db8 953b e950 a43d
000000e0: f4a6 4b3f c508 fcbe 9043 4dbd 0988 9cbe
000000f0: 6d12 963f f4a5 66bf 70b9 513f 0291 32bf
00000100: 0ded 183f 2ddd 7cbc 1a2f 643e a44c 723e
00000110: d572 963e cbe7 163f 4672 9a3e 9d68 e93e
00000120: f661 28be dc0c 29bf 2ca2 933f ff00 c63e
00000130: c335 dbbf 834d bb3b 3d20 b03f 725f 663f
00000140: 0284 4f3f 75a2 82bd d68d 84be 8ad4 8dbc
00000150: e3d5 c3bb de1b cc3e 746c 2f3f ffa6 6cbf
00000160: 99e3 72bf f100 4abd 5c80 513f b84c 0fbf
00000170: 563f 9ebe 7329 8f3d b1a6 d43e a4da 0e3e
00000180: c30e 353f 7596 113e a8ab ccbd 57a3 9ebe
00000190: 0945 c7bd 88bc b93d 1e97 1e3e d9c3 453e
000001a0: fb69 853f 5d47 8dbe 9329 26bf 5d29 c4be
000001b0: 82f5 23bb 47f9 383e 5a57 82bc a512 eabd
000001c0: 398c 393d d694 f2bd 8c7f 133f d518 5f3f
000001d0: f239 723f f8b5 a1be 070b 613f dc9d 74be
000001e0: 2d0d e5bc 7d6d 6d3d 6a94 b73f 0895 cdbd
000001f0: 9ab4 c6bf 0721 ad3d eeec 58be 5173 c93f
00000200: 3b1b 0b3f 49dc bd3d 3bed e23e 350a 133e
00000210: 99da 52bf 6655 c23e 2390 3ebf f81b 543e
00000220: 80c2 2b3e 8246 2a3e cf7a 8e3e c2a6 8bbe
00000230: b500 bebe ba3a 4f3d c0d5 793d 689f 8dbd
00000240: ea25 973b fdfc 1f3d 12f5 04bd 3677 79bd
00000250: b570 0abd b85f d7bb 970d fabc 20bb d23b
00000260: ee48 d8bf 3500 a53f da10 083e 955f 55bf
00000270: 1a79 10be 84f0 d83f 621b c3bd 118a 5abd
00000280: b0e8 813d 332e b53d f6cb a3bc b08b 0bbe
00000290: f44e acbe ea21 973e 8749 3c3e b5ed 9c3e
000002a0: 8733 a73d a1d5 a83e 5c18 cabd 9be1 cebd
000002b0: 1175 d0be 1365 ba3d 542c b83e 26af 563e
000002c0: 1b2a 243f e79a 50bf f5f6 39bf 5df2 ed3d
000002d0: 3482 5c3f 2fe8 87be face 913e 5535 2b3c
000002e0: ee1b 1b3f 90a9 97bf 6d95 9ebf 647e 2abf
000002f0: 3863 38be fef6 8bbc 0f70 8e3f dff2 f43d
00000300: 8afd a3bd b9fd 4f3e e0db 1dbe 9f77 75be
00000310: 288f cabe 63b5 0e3e b97c d1bd 9053 53be
00000320: 41fb 033f 2b91 47bf e995 cc3f 53e3 903f
00000330: 9797 f7bf 762d 2cbf 87bf 923f b3d7 fd3f
00000340: 6a9f a03f 2428 123f acd3 3ebf e707 2d3f
00000350: 1189 bb3b 5d70 e93e 9273 1b3f 9af7 fa3e
00000360: c585 f83e b2fb 823e fbd7 f8be 7eb8 993f
00000370: fe64 aa3b e80a d3bf 4ad3 0240 bff5 8bbf
00000380: b6b3 3f3f 4e05 1cbf fd22 ffbe 5be3 643f
00000390: c735 1e3e 3f8d 20bf b9e8 8f3f bfce 31be
000003a0: 2e09 3dbd 6f2f 883e c66b 5dbf 8d0a 773c
000003b0: f457 a43d f02e 98bf 0894 6e3e c7eb 0a3f
000003c0: 50f1 0f3e c044 71bf 0846 35bf 3ec9 1abe
000003d0: 14e8 803e a332 45be f695 8d3f ff16 debd
000003e0: 32b9 6cbf b5eb 813f 7538 87bf c0de 9cbf
000003f0: adf7 393f 360c 313f ea6c bcbd 862f c6be
-2.0644689 1.0399114 -1.2818532 -0.3533702 0.39352417 1.0900455 -0.48978537 -0.1046555
0.48915234 -1.166489 -0.8357131 -0.110177256 1.1175452 -1.0341809 1.0914537 -0.71373117
1.2264465 0.55964863 -1.0787215 0.012708106 0.14542682 -0.7098569 1.1325804 0.1611799
0.15636797 -0.11564684 -0.29366475 0.015655985 -0.47577932 0.122300796 -0.05452942 0.9950068
0.1747195 0.032513626 -0.038494322 0.19106184 -0.25500435 -0.022163112 0.30070165 0.25994098
-0.4625501 0.9106963 0.4003705 -0.0656857 0.63107324 0.10328366 0.114674285 0.5831396
0.01408984 -0.10203139 -0.023825454 0.010821843 -0.11316172 0.07658948 0.0045691193 0.08023245
0.79551625 -0.4922544 -0.05011326 -0.30572537 1.1724373 -0.90096974 0.8192358 -0.69752514
0.5973671 -0.015433592 0.22283593 0.23662049 0.29384485 0.5894744 0.3016531 0.45587626
-0.16443619 -0.66035247 1.1533866 0.38672635 -1.7125782 0.005716027 1.3759838 0.8998939
0.810608 -0.063786425 -0.25889462 -0.01731326 -0.005976425 0.3986501 0.6852486 -0.92442316
-0.94878536 -0.049317304 0.81836486 -0.5597644 -0.30907696 0.06990328 0.41533425 0.13950592
0.7072565 0.14217551 -0.09993678 -0.30983993 -0.09729964 0.090691626 0.15487334 0.19312991
1.0422968 -0.27593508 -0.6490719 -0.38312808 -0.002501816 0.18063842 -0.015910793 -0.114293374
0.045299742 -0.118447945 0.57616496 0.87147266 0.9461967 -0.31584144 0.8790745 -0.23888344
-0.027960384 0.057965744 1.4342167 -0.10038191 -1.5523865 0.08453565 -0.21184132 1.5738317
0.54338425 0.09270532 0.44321617 0.14359362 -0.82364804 0.3795578 -0.74438685 0.20713794
0.16773415 0.16628459 0.2782807 -0.27275664 -0.37109914 0.050593115 0.060994864 -0.0691517
0.004612674 0.039059628 -0.03246028 -0.060904704 -0.033798892 -0.00657269 -0.030524058 0.0064309984
-1.6897256 1.2890688 0.13287678 -0.8334897 -0.14108697 1.69484 -0.09526707 -0.053354327
0.0634321 0.088467024 -0.019994717 -0.13627505 -0.33653986 0.29518062 0.18387423 0.30650106
0.08164125 0.32975486 -0.098679274 -0.101016246 -0.40714315 0.091013096 0.3597132 0.20965251
0.6412675 -0.8148636 -0.7264245 0.11618493 0.86136174 -0.2654433 0.28478223 0.010449727
0.6058949 -1.1848621 -1.2389351 -0.66599107 -0.18006599 -0.017085548 1.1127948 0.119603865
-0.08007343 0.20311631 -0.15415907 -0.23971413 -0.39562345 0.13936381 -0.10228867 -0.20637345
0.5155526 -0.77955884 1.5983249 1.1319374 -1.9343137 -0.6725687 1.14647 1.9831451
1.2548649 0.570925 -0.74541736 0.67590183 0.0057231267 0.4559354 0.6072322 0.4901703
0.48539558 0.25582653 -0.4860228 1.2009428 0.0052000275 -1.6487703 2.044146 -1.0934371
0.7488359 -0.60945594 -0.4983138 0.89409417 0.15450202 -0.62715524 1.1242896 -0.17364024
-0.046151333 0.2659869 -0.86492574 0.015078199 0.08024588 -1.1889324 0.23298657 0.5426602
0.14056897 -0.9424553 -0.70809984 -0.1511583 0.25177062 -0.19257598 1.106139 -0.1084423
-0.92470086 1.0150057 -1.0564104 -1.2255478 0.7264355 0.6915926 -0.09200461 -0.38708133

encoder.fc_one.bias f4 [500]
00000000: aa3b ce3e d7a6 22bf dd7b 48bf 77b2 05bf
00000010: f043 36bf 1051 3dbf 9483 aebe 250a 52bf
00000020: e37b 9fbf cef3 483f d5f8 27bf c372 2ebf
00000030: e8f5 2c3f 6afc de3e 43ba 24be 3d09 27be
00000040: 9156 ddbe 2cc2 febe 0308 53be aefd 993e
00000050: 29fb 29bf 9978 5cbe 43d0 34bf 21d8 3cbf
00000060: 4fd8 31bf 6f81 dd3e 99e7 adbe db4d 0fbf
00000070: 4da4 28bf 7f8d 10bf 31ad 15bf 29d3 92bd
00000080: 172c 5fbf f140 763e 5f41 b8be 7ee8 3cbf
00000090: 3a99 f9bc 2219 e2be 3d95 45bf 5beb b0be
000000a0: 99b7 3b3f a912 79be 49fd dd3e 688b 4bbb
000000b0: da8c 8ebe d61e 10be f525 ebbe 3f63 b33e
000000c0: 5fa3 17bf 07b7 e3be ad3e 54be ea24 88bf
000000d0: e313 8c39 6c3b 803e 5abd 05bf 077a a6be
000000e0: 393f 533e 46f1 20bf 2008 89be 2871 b2be
000000f0: ffff 38bf 6200 0c3e b45a 24bd 8fec 7e3e
00000100: 9bcb e9be 0583 39bf 9f33 0b3e 9b43 093a
00000110: 49c0 25bf 4de0 c13e 3459 6bbe edd0 1abf
00000120: 9187 dabe 8c2c 20bf 285f 0abf 6c3f 07bf
00000130: 7188 983d 4f20 f5be d8d1 53bf 51c9 4cbf
00000140: 8792 b1be 145d 743e c6fb bebe 9060 b13e
00000150: db44 e1be 43b8 1ebf 1f8b fabe a5a9 833f
00000160: 5225 cdbd 4a3b cebd 2389 ab3e d77a 24bf
00000170: 218a cf3e 8572 f03e 262d 94bc 14ca 8dbe
00000180: 2f1f 213e 3bd0 24bf 6cf2 5bbf e7e0 35bf
00000190: 731d 5f3f 5379 64bf 70c2 55bf 627e ecbe
000001a0: 6d26 343a cc78 65bf 6111 3cbf 2474 163f
000001b0: 03ab 8cbf 9ed5 12bf fc08 b83e 68b5 29be
000001c0: 63ed 20be f8ee 90bd 2e24 0f3f 8e09 b63e
000001d0: 1370 2e3f 4f76 a6bd b57f 64bf f626 0cbf
000001e0: 216c 38bf e350 8dbe 0b43 b4bd 04c7 06bf
000001f0: f4c3 783e a3b5 943d 38a3 d4be 33ee 7abd
00000200: 0886 25bf fc14 3dbf 0dd0 38be c19d b3be
00000210: 2ff3 3bbf 1b60 9ebe 01eb 3f3e 5185 17bf
00000220: a055 45bf 19b8 d53e dee8 ecbd 81f2 943e
00000230: 48f4 90be 956c 113f 3549 06bf 186c dabe
00000240: 9929 9abe 9780 95be da74 4bbf 07ef debe
00000250: 2271 913b 1c9b 31bf 194f 883e 1d09 66bf
00000260: 1302 a2be 0561 12bf 8411 d03c aa2a a8bd
00000270: b1d9 3bbf 85d9 263f 6988 943e 6694 e63e
00000280: 6090 3ebe a7f8 2b3e 340f 1e3f d017 22bf
00000290: 71f0 c3be af0f 003d efee 02bf 52b8 9dbe
000002a0: 81d2 8bbe d922 6fbe 2ea5 4ebe f0fc 1fbf
000002b0: b0c1 ef3e 1bc5 c23e 079b efbe c26e 153f
000002c0: 96b3 d7be 4f74 d93e 7557 27bf bd57 d4bf
000002d0: 274b 2dbf dd08 25bf 9db9 0fbe 77eb 193f
000002e0: 4fac 5cbf 26a4 46bf 30cd ab3d 53ed 85bf
000002f0: 6a86 4abf dbae 11bf c88e f0be 245a 813e
00000300: 23a5 e9be 8b3c 29bf d83d fbbd 4523 853e
00000310: 3dca 2ebf b2f4 eabc 4706 44bf c84a 33bf
00000320: b13a c53e 9da8 62bf c1c3 dcbe c418 8cbf
00000330: 3e45 23bf 1c78 19bf 5087 27bf a225 3a3f
00000340: 6db8 68be f703 a3bd f2af 853d 8075 903e
00000350: 3ae8 113d f14b 2dbd 3861 ffbe c158 2fbf
00000360: 52eb 7f3e 3405 a83c e5b3 0abf 8f24 b3be
00000370: 48ab a4be 4435 b5bd 892f 013f c2ff e93e
00000380: dcb6 02be b1f2 19bf 1b25 8cbe 8853 493e
00000390: 2dd9 67be d95b 6bbf 0dd0 0a3f 1c73 f1be
000003a0: a898 25bf 840c 24bd ec70 67bf c8af 0bbd
000003b0: 8bab 0d3f 3890 04bf d9d7 f83e dbe4 81be
000003c0: 5f84 cabe ce04 01be 3e7e 7ebf 54d8 383e
000003d0: 03eb 4cbf ffd2 e5be 6216 0fbf 1847 cdbd
000003e0: aa91 4abf e7bf 143e 28fe 2abf 79f3 dcbd
000003f0: acf9 613e 443b 10be c5e8 c2bd f669 34bf
0.40279895 -0.6353583 -0.78314 -0.5222544 -0.71197414 -0.73951817 -0.3408476 -0.8204673
-1.2459682 0.78497016 -0.6561406 -0.6814386 0.67562723 0.43551952 -0.16086678 -0.16312118
-0.43230107 -0.49757516 -0.20608525 0.30076355 -0.66398865 -0.2153038 -0.7063028 -0.73767287
-0.69470686 0.43262812 -0.33965757 -0.55978173 -0.65875703 -0.56465906 -0.58467394 -0.07169182
-0.8717665 0.2404821 -0.35987374 -0.73792255 -0.030468572 -0.441598 -0.77180845 -0.34554562
0.7332702 -0.24323525 0.43357304 -0.0031058434 -0.27841836 -0.14074263 -0.45927396 0.35036656
-0.5923366 -0.44475576 -0.20727034 -1.0636265 0.00026717698 0.25045335 -0.5224205 -0.32514974
0.20629586 -0.62868154 -0.2676401 -0.34851956 -0.7226562 0.13672021 -0.040125564 0.24894927
-0.4566315 -0.72465545 0.1359391 0.0005236209 -0.6474653 0.3786644 -0.22983247 -0.60475045
-0.42681554 -0.62567973 -0.54051447 -0.5283115 0.07447899 -0.47876212 -0.8274207 -0.79994684
-0.34682104 0.23863631 -0.37301463 0.34643984 -0.43997845 -0.6199991 -0.48934266 1.0286146
-0.10016884 -0.10069902 0.33503065 -0.6424994 0.40535071 0.4696237 -0.018087935 -0.27693236
0.15734552 -0.64380234 -0.8591678 -0.710463 0.8715431 -0.89247626 -0.83499813 -0.46190172
0.0006872181 -0.89637446 -0.7346402 0.58770967 -1.0989689 -0.57357204 0.35944355 -0.16573107
-0.15715556 -0.0707683 0.5591458 0.35554165 0.6813976 -0.08128034 -0.89257365 -0.5474695
-0.7203999 -0.27600774 -0.0880185 -0.52647424 0.242935 0.07261207 -0.41530776 -0.06126232
-0.6465764 -0.73860145 -0.18048115 -0.35081294 -0.73417944 -0.30932698 0.1874199 -0.591878
-0.7708378 0.41742018 -0.115678534 0.29091266 -0.28311372 0.5680631 -0.52455455 -0.42660594
-0.30109861 -0.2919967 -0.79475176 -0.43541738 0.0044385353 -0.69377303 0.26622847 -0.89857656
-0.31642208 -0.5717929 0.025398977 -0.082112625 -0.73379046 0.6517566 0.29010323 0.45035094
-0.18609762 0.16794072 0.6174195 -0.63317585 -0.3826938 0.031264957 -0.51145834 -0.30804688
-0.2730904 -0.23353137 -0.20180199 -0.62495327 0.4682746 0.38041005 -0.46797964 0.5837213
-0.421292 0.4247155 -0.65367824 -1.6589276 -0.676928 -0.6446665 -0.1403565 0.60124916
-0.8620042 -0.7759422 0.08388746 -1.0463051 -0.7911135 -0.56907433 -0.46983933 0.25264084
-0.45633802 -0.66108006 -0.12267655 0.2600347 -0.6827734 -0.028681133 -0.7657208 -0.7003598
0.3852134 -0.88538533 -0.43118098 -1.0945058 -0.6377753 -0.599489 -0.65440845 0.72713673
-0.22726603 -0.079597406 0.065276995 0.28214645 0.03562186 -0.04230875 -0.4987886 -0.684948
0.24992111 0.020510294 -0.5418075 -0.3498883 -0.32161927 -0.0884805 0.5046316 0.4570294
-0.12765068 -0.6013594 -0.2737206 0.19660771 -0.2264144 -0.91937023 0.5422371 -0.47158134
-0.6468606 -0.040051 -0.9040668 -0.034103185 0.5533988 -0.5178256 0.4860218 -0.25369915
-0.39554116 -0.12599489 -0.9941138 0.18051273 -0.800461 -0.4488754 -0.5589353 -0.10023326
-0.79128516 0.1452633 -0.6679406 -0.10788626 0.22067899 -0.14085108 -0.095170535 -0.70474184

encoder.lstm.weight_ih_l0 f4 [40, 500]
00000000: 6c1b 4b3f 91a4 1c3f 58eb 223e b811 87bc
00000010: f5f7 45bd 16bd 793f 2d3b 093e ed6f 1d3e
00000020: beb4 413d ea31 5fbc 82a2 9dbd 5ccf a13e
00000030: 06d5 513f bdf7 c03e eb94 09bc 07e9 043f
00000040: 7f8c 563f 06e7 efbc f92b 903d 37e4 853e
00000050: 11ef 73bd df8a 733e 442b 1dbd 732d 6c3c
00000060: 1b8d de3e a231 1abf ff96 8f3e d2d7 af3e
00000070: bb1a dd3d a0ae c5bd 44cc 1f3e fade 673f
00000080: b60e 013e 9d17 ae3e 48a5 ae3e 5499 22be
00000090: 042e 793e 7255 78be 5615 bf3c 0e13 853e
000000a0: f537 033f a845 ae3d 2f51 e4be 09f2 2e3e
000000b0: f4bf 3c3d a34b dfbd a74d 1e3e 2ddb 1bbf
000000c0: 0e71 ed3e e206 463e ed04 c1bb 9d4c cc3d
000000d0: 3fab 9c3e 9ad4 b9bd a391 fdbe e5fc 913d
000000e0: d03e 5bbf db06 fa3d d0de 873f 5cf6 8cbe
000000f0: 3067 34be ef8f 1cbe 4ae1 043f 26fa 8d3f
00000100: 8b95 623f b96a ab3d 0e28 2f3e bf76 b8bd
00000110: 9162 603d afc3 cf3d 1c29 293f 3e51 92be
00000120: 26a1 b03d 06e5 c13d 0ec0 aabd 7db7 d7bc
00000130: 7f47 c03f a315 853e a280 8d3d a8aa 0f3f
00000140: cb30 be3d 3501 04be 005a 173e fd6b 243e
00000150: fb83 063e 5c63 7f3d 101c 26bd 3524 853f
00000160: 9f96 aa3f c238 5dbd 6316 b63e ec08 593c
00000170: 949a 6eba 1323 3abd 32c7 063f 2f6f 143e
00000180: cda9 debd a4c9 c73d 9841 863e ff4f 203f
00000190: 3d1b bd3d c48e 4fbd ea43 33be 8a2a af3e
000001a0: a3e9 a73e 2a94 3b3c a042 003f 8646 8d3e
000001b0: fe26 da3d b8ec 773e d66e 5dbd e23a 533d
000001c0: ed0b d4bb cfdb 1b3f 6304 183f 2add e53e
000001d0: 2b32 153f 688b 1a3f 3705 6d3e 685b 8b3f
000001e0: d669 d23e 6fbc c03e bda0 e9be 4151 46bd
000001f0: a6c0 cbbe 6f54 4b3f 13c9 1ebe dc8b ed3e
00000200: eeb0 573c 6432 113f 67f0 8d3e c266 423e
00000210: 1d3e 5f3d b373 b23e b1a1 e23d bf3e 023f
00000220: 75d2 113e 5e90 9fbe fde2 97bd d103 39bd
00000230: 0a04 31be 97c2 813c 89ed fb3d 9054 c43d
00000240: 6eab a03e 1fce 853e 630d a33e 513c a73e
00000250: 1d26 90bc 3890 533e c858 8d3e 2f9d 22bf
00000260: 73f4 1b3e 81ed 7b3d de8d 7c3f 6174 54bd
00000270: 5672 883d 754d 353d f8d2 2dbe bd9a ea3d
00000280: d07d b0bd 8f01 4b3f 265f 0cbf c263 b03d
00000290: 42d5 efbe 98c4 0c3f fadc e53d a5b1 d13e
000002a0: d8a5 d43e 6799 5d3d 43b2 043e 1e97 3c3d
000002b0: 0833 733f c3ff 4f3f 52c1 d83c 89b6 08bf
000002c0: 5c15 443e d3cf c03e 312b d13e cbb6 80bd
000002d0: d064 c53d 3d8f 0b3f d846 ae3f c3aa 133e
000002e0: 54f6 cd3c e28a 8a3e aa7b 3a3f 1a63 59bd
000002f0: 91e0 3dbd b069 a93e a981 6d3d 2357 2cbe
00000300: 8028 6a3f db61 853c 18de 033f 24be f33f
00000310: e074 133e 3f06 183f 3ce0 923d 5287 183e
00000320: 6664 d23e 47c0 963e 4235 61be a1cc 913d
00000330: b7ae c9be f011 c2bd f0f3 853e 94cb e73c
00000340: c42b 6abc 0317 cb3e 6617 53bd 8a60 d5bd
00000350: 38cd 94bc 30fc 74be ef00 043e 6bc9 98bb
00000360: 90a2 813f fcbe 353d 424c fe3e eadd 863e
00000370: 451d 203d cca4 983e 9179 c53e 1992 473e
00000380: c184 043f 0ca0 c93e c1db 583f ea76 8cbe
00000390: 9ddf bc3e c314 543f 17d8 683f 356f ed3e
000003a0: 15dc 8f3e 608d 27bc 1dd7 a6bd f71d ec3e
000003b0: 8c84 413f 81de 583d 4cf0 e53e d688 433f
000003c0: 17da 61be 4cf6 d83e aac5 043f 2cb0 133f
000003d0: a8d3 a73e ceae 4dbe a7aa f63d 951f 9d3f
000003e0: d0d5 ab3d 2905 8d3e c3a7 b43f 4937 edbe
000003f0: 5682 553f 4b7c 783f b1b9 b53e 60d5 873e
0.7933872 0.6118861 0.15910089 -0.016487941 -0.048332173 0.9755415 0.1340148 0.15374728
0.04729151 -0.01362274 -0.076970115 0.31603515 0.8196567 0.3768901 -0.008397321 0.5191807
0.8380813 -0.029284965 0.07039637 0.26150677 -0.059554163 0.23783444 -0.03837134 0.014415133
0.4346703 -0.60231984 0.28044888 0.34344345 0.10796114 -0.09652448 0.15605265 0.9057461
0.12603268 0.3400239 0.34110475 -0.15878803 0.2433396 -0.24251345 0.023325603 0.259911
0.5125726 0.085093796 -0.44593188 0.17084517 0.0460815 -0.109030984 0.1545931 -0.6088131
0.46375316 0.19338563 -0.00589048 0.0997555 0.305994 -0.09073754 -0.49525174 0.07128314
-0.8564272 0.12208339 1.0614872 -0.27531707 -0.17617488 -0.15289281 0.51906264 1.1091964
0.88509434 0.08369965 0.17105123 -0.09007024 0.0547815 0.101447456 0.6607835 -0.28577608
0.086244866 0.09467511 -0.08337413 -0.026332611 1.5021819 0.2599307 0.069093004 0.56119776
0.0928665 -0.12891085 0.14780426 0.1605682 0.13136284 0.062350616 -0.040554106 1.0401675
1.3327216 -0.054009207 0.35563955 0.013246756 -0.00091020134 -0.045443606 0.526477 0.14495538
-0.10872231 0.09755257 0.2622192 0.62622064 0.09233711 -0.05067326 -0.17506376 0.34212142
0.32795438 0.011448899 0.5010166 0.27592868 0.106519684 0.24211395 -0.05406078 0.051569827
-0.006471148 0.60882276 0.59381694 0.44895297 0.58279675 0.6036897 0.2314652 1.088727
0.4109637 0.37643763 -0.45630446 -0.048417334 -0.39795417 0.7942571 -0.15506391 0.46395767
0.013164742 0.56717515 0.27722475 0.18984511 0.054502595 0.34853896 0.110659964 0.5087699
0.14240439 -0.3116483 -0.074163415 -0.045169655 -0.17286697 0.015839858 0.123011656 0.095864415
0.3138079 0.2613382 0.3184615 0.32663205 -0.017596299 0.20660484 0.27606797 -0.63521093
0.15229969 0.0615058 0.9865397 -0.0518688 0.06662433 0.044263322 -0.1697501 0.11455295
-0.08617747 0.79299253 -0.54832685 0.08612777 -0.4684239 0.5498748 0.112237886 0.40955845
0.4153278 0.054101374 0.12958626 0.046042554 0.9499974 0.81249636 0.02645937 -0.53403527
0.19148773 0.37658557 0.40853265 -0.06284865 0.09638369 0.5451544 1.361537 0.14420609
0.025141872 0.27059084 0.72844946 -0.053073026 -0.04635674 0.33088446 0.05798498 -0.16830115
0.9146805 0.016282013 0.51510763 1.9042401 0.14400053 0.5938453 0.071716756 0.1489537
0.41092223 0.2944357 -0.21992972 0.07119108 -0.3939111 -0.094760776 0.26162672 0.028295316
-0.014292661 0.39665994 -0.051535986 -0.10418804 -0.018164262 -0.23924327 0.12890981 -0.004662683
1.0127735 0.04437159 0.49667555 0.26341182 0.039090414 0.2981323 0.3856931 0.19489326
0.51765066 0.3937992 0.8471032 -0.27434474 0.36889353 0.8284418 0.90954727 0.46373907
0.28097597 -0.0102265775 -0.08146498 0.4611661 0.75592875 0.05294657 0.44909894 0.7638067
-0.22055851 0.4237541 0.5186411 0.5769069 0.32778668 -0.20086214 0.12044268 1.2275263
0.08390391 0.27543 1.4113697 -0.46331242 0.83402 0.97064656 0.35493234 0.2652998

encoder.lstm.weight_hh_l0 f4 [40, 10]
00000000: 1811 dfbd 986d a23d 297c b33d cfe6 0dbe
00000010: 7666 a63e 4328 ccbe 7283 453e 9969 723b
00000020: c761 14be baa6 15be 3960 1dbd f42b b63c
00000030: 19f8 3dbf 4b8f 3ebd 3df0 f43f cde0 8bbf
00000040: 7ed5 2d3e bae6 0bbe 04ae 20be dcd5 86bf
00000050: de5b 27bd df65 3c3e 91f1 23be 3554 70be
00000060: 04da 3d3e 04da 92be b50f 0a3f 0a6e b4bd
00000070: 21ce eabd 2214 2ebe d345 193e 2198 9ebd
00000080: 9645 5b3e ba8f 2d3e 9a72 9ebe b3a6 8f3e
00000090: 5354 6dbd 0658 453c d1ce 343d 43b6 7e3e
000000a0: 773a dd3b 22b6 af3c 5541 85be e4d6 a23d
000000b0: bc61 2f3e fe71 17be 88cf 5f3b fdba b43d
000000c0: 5668 f9bc be55 1bbe ad7c 303b 9d7b 933d
000000d0: 71c0 15be 2dcc 8cbd 20ba 993d 19ab 5fbe
000000e0: b67e 813d dc6f 43bc cf62 273d d3b1 2ebe
000000f0: a037 44bd 19c8 6c3c 8902 343d 2251 023d
00000100: 1a72 30bf a52b 5d3f 63f6 28be 10ac 963c
00000110: 81b5 933d ae2d a73d 0a64 163e fa57 65be
00000120: a907 dc3d 8199 263e 6c1e 12be 2a0e 463e
00000130: 5c9d 48be c2d8 0a3e 3b6d 3f3e 3478 203e
00000140: 4d86 1b3d 467a 83bd 9fbe 3dbe 18a6 26bd
00000150: 3d89 733e 1081 40be e26c 493d 9493 493d
00000160: 20bc 8ebc cdea 3cbe fa61 fcbd 29a5 0a3e
00000170: 8280 24be d45b 85be c97d 083e 89fc 58be
00000180: 8403 c43e 4892 bbbd 5b0b e8bd c718 34be
00000190: cbb6 57bd 2265 593d db5a 2ebf 91eb 99bd
000001a0: 63f8 3d3f 87f9 49bf c390 b93d 61e4 093d
000001b0: 732a 8abc 29a2 e5be b693 b7bd 5ca8 ea3d
000001c0: d94a f6be b527 a8bd 7a25 203f c8c6 12bf
000001d0: 28e0 473e 0db6 17be 7478 54bd 9de7 04bf
000001e0: 60cc d2bd b139 523e 0ced 91be 8a94 15be
000001f0: 657a b83e d740 d9be 1f81 fc3d cf75 e0bd
00000200: ccc2 0abe f760 bdbe f7c7 2a3e f768 00be
00000210: d3b0 313e 3e7a 4b3d efb9 96bd 03db 303e
00000220: 602f 1fbe ba6b b43d 1c31 733d ced4 de3d
00000230: e5e7 bc3a a830 8fbc 5a90 1cbe 911e e83b
00000240: 0b31 82bb 7ebe 02be 21c5 83bd 02c7 8f3c
00000250: afeb 60bc 4510 9ebe c48b 5bbd d4dc e63d
00000260: cb16 d8be 7bb3 5bbd 9619 c53e 9da8 d6be
00000270: b31a dd3d 8a5d e1bc 6349 213d 9031 cabe
00000280: 317d c3bc 6f33 1d3e ae86 97be 539e 10be
00000290: 2b04 d43e 5f3a c7be 3a6d 953d 9b4c 0cbd
000002a0: 94cc f2bd d777 d0be 6c2c 723d 9909 d6bd
000002b0: 6462 c93c 00b7 e83d 0423 c6bd 68d5 0c3e
000002c0: ee51 45be fede 3bbc 25eb 053e e29e b73d
000002d0: 9779 6e3d efc2 94bd 665b 083e b194 b2bd
000002e0: 9b4c 4ebe 835e 3d3e b936 af3d ae4e 2cbd
000002f0: 8d91 d33d 120d 893d 70da 2dbe bcf9 603e
00000300: 8370 47be 155b 34be 24b1 583e 5902 80be
00000310: 4257 483e d564 18be 3fae 47be d1ba 8fbe
00000320: 4d42 f53c 906f 8ebd cab0 d23e 98c2 cc3d
00000330: 6acd c4be 6760 f73e 528f 28be e88f 243d
00000340: d78d 073d 17e4 ef3e 4375 20be 4061 0f3e
00000350: 6887 79be d9a9 83bd 1819 3c3f 8c60 0fbf
00000360: ff7a 423e eb46 b9bd 1e8e b8bd 3b6a f5be
00000370: d123 863d 330a 20be 0738 153e f28e 3d3e
00000380: b4ff 93bd 3120 283e 8f98 24be 8f08 963d
00000390: b269 9f3d 0554 963d ab09 f73c b4b8 b73b
000003a0: 3e62 0f3e ca42 0c3e cfcb 07be 0f90 b63d
000003b0: 83e1 b5bd 8218 853c b7c8 bc3b 448a e93d
000003c0: 1922 0e3c 86d2 a03d 27bd 21be 73be 04bd
000003d0: 6498 3d3d 36c4 99bd cf68 523c 7cb3 2d3d
000003e0: 06bb 043d b560 cfbd 3698 db3d 9300 32bd
000003f0: 340c 4a3e 9a60 aa3d 50fd 0ebc 603b fc3d
-0.10891932 0.079310596 0.08763916 -0.13857578 0.32500046 -0.39874467 0.19288424 0.003698921
-0.14490424 -0.14614382 -0.038421843 0.022237755 -0.7420669 -0.046523374 1.9135815 -1.0927979
0.16975972 -0.13662234 -0.15691382 -1.0534015 -0.040859096 0.18398236 -0.16010119 -0.23469622
0.18540198 -0.28681958 0.5393022 -0.08810051 -0.11465097 -0.16999868 0.14968042 -0.0774386
0.21413264 0.16949359 -0.3094681 0.2805687 -0.057941746 0.012044912 0.044142548 0.24874215
0.0067513543 0.021449152 -0.26026407 0.079511434 0.17127126 -0.14789578 0.0034150798 0.08824728
-0.030445259 -0.15169427 0.0026929781 0.07201312 -0.14624192 -0.06874881 0.07506204 -0.21842612
0.06322996 -0.011928525 0.040865716 -0.17060022 -0.04790461 0.014452004 0.04394773 0.031815656
-0.68924105 0.8639472 -0.16500239 0.018392593 0.072123535 0.081630096 0.146866 -0.22396842
0.107436486 0.16269495 -0.14269418 0.1934134 -0.19591278 0.13559249 0.18694012 0.15670854
0.037969876 -0.06419806 -0.18529747 -0.040685743 0.23782821 -0.18799233 0.049176104 0.049213007
-0.01742369 -0.18448944 -0.12323375 0.13539566 -0.16064647 -0.26046622 0.13329233 -0.21190085
0.38283932 -0.0915876 -0.11330291 -0.17587577 -0.05266456 0.053074963 -0.68107384 -0.07515634
0.74207133 -0.78896374 0.09060814 0.033665065 -0.016865944 -0.4485028 -0.089637205 0.11457893
-0.4810398 -0.082106985 0.62557185 -0.57334566 0.19519103 -0.1481554 -0.051872686 -0.51915914
-0.10292888 0.2052982 -0.28501165 -0.14607444 0.3603088 -0.4243228 0.123293154 -0.1095997
-0.13550872 -0.3698804 0.16677843 -0.12540041 0.1735261 0.049677126 -0.07359683 0.17271046
-0.15545416 0.0880961 0.059373006 0.10880433 0.0014412372 -0.017479256 -0.15289441 0.007083722
-0.0039731315 -0.1276798 -0.06434084 0.017550949 -0.013728066 -0.30871788 -0.053600088 0.11272588
-0.4220489 -0.053637963 0.38496083 -0.41925517 0.10796108 -0.027510423 0.039376628 -0.39490938
-0.023863407 0.15351652 -0.2959494 -0.14122896 0.4140943 -0.3891172 0.07296224 -0.034252744
-0.118554264 -0.4071643 0.059124395 -0.10451049 0.02458305 0.113630295 -0.096746475 0.13753283
-0.19269535 -0.01146674 0.13077982 0.08965851 0.058221426 -0.07263743 0.13316116 -0.08719767
-0.2014641 0.18493085 0.085553594 -0.042067222 0.10330496 0.06691946 -0.16977859 0.21970266
-0.19476514 -0.1761287 0.21161324 -0.2500179 0.19564536 -0.14882214 -0.19500063 -0.28072217
0.029938841 -0.069548726 0.41150504 0.09998053 -0.38437968 0.48315737 -0.16460922 0.040176302
0.033094253 0.46853706 -0.15669732 0.14001942 -0.2436806 -0.0642888 0.7347579 -0.56006694
0.18992232 -0.0904673 -0.09011482 -0.4793261 0.065498 -0.1562889 0.14572154 0.1851156
-0.07226506 0.1641853 -0.16073821 0.07325851 0.07783832 0.07340244 0.030155977 0.005606735
0.1400232 0.13697353 -0.1326134 0.08914196 -0.088809036 0.016247038 0.0057612318 0.11403325
0.008675122 0.07852654 -0.15794812 -0.03240819 0.04628791 -0.075081274 0.012842371 0.042407498
0.032404922 -0.10125867 0.10722391 -0.04345758 0.19731218 0.083192065 -0.008727387 0.123160124

encoder.lstm.bias_ih_l0 f4 [40]
00000000: 8021 a63e c793 b2be 8fb8 903e bb9b b5bd
00000010: 54e7 fa3d a637 c73d 360b 70bf 4871 3cbd
00000020: e296 393e e0ca 3e3e 90c9 393f 08fb 0d3f
00000030: 25b3 e13e 193a f5bd a6ee e73d a722 d63e
00000040: 5dc1 b63e c47f bebd 082e cfbd 63f0 933e
00000050: 6c6c c3be cdfc 2c3f 60a9 51be 9602 3dbe
00000060: 2b00 f63d 65e2 abbd f349 293f d0a9 a6bd
00000070: a5f2 0dbe a787 5fbe 8080 34be 6ced 86be
00000080: 28b5 8cbe 2f17 dd3d 62a2 3a3e a731 bb3e
00000090: 95bd 99be 2bb4 5fbd 75f3 43be b21f b7be
0.32447433 -0.3487837 0.28265807 -0.08867594 0.122511536 0.09727411 -0.93767107 -0.04600647
0.18123963 0.18632078 0.72573185 0.5546117 0.4408199 -0.11973972 0.113248155 0.41823313
0.356944 -0.09301713 -0.10116202 0.28894338 -0.38168657 0.67573243 -0.20474768 -0.18458018
0.12011751 -0.08392791 0.6612846 -0.08137858 -0.13862093 -0.21829091 -0.17627144 -0.26353014
-0.2748196 0.107954375 0.18226007 0.3656132 -0.30027452 -0.05461518 -0.1913584 -0.3576637

encoder.lstm.bias_hh_l0 f4 [40]
00000000: 2428 4f3e 5bdf a6be f1b5 923e a9c9 bfbd
00000010: a333 793e cf08 c23d 1434 6abf ae7d 2fbe
00000020: d9f1 153e ceef 0d3e 192a 263f 3b0c f43e
00000030: e6b5 003f 675f 5ebd 99a1 a83d d738 ec3e
00000040: 1eb1 b03e 6e7d 0ebe 2443 f2bd 3fe6 493e
00000050: 8c46 a1be 3051 2a3f 31c3 0ebe 0f4d 1fbe
00000060: e438 073e 06cb 3bbe a037 343f 83ea 42be
00000070: 6c6c 13be 155c f9bd 693a 74be c71b 27be
00000080: 8e69 52be 1965 0f3d c02c 373e d1b4 f43e
00000090: 79c9 96be 9425 03be 2db4 12be 0898 b4be
0.20230156 -0.32592282 0.28654435 -0.093646355 0.24336104 0.09474336 -0.91485715 -0.17137787
0.14643039 0.1386101 0.64907986 0.4766558 0.50277555 -0.0542902 0.08233947 0.46137115
0.3451013 -0.13915035 -0.11829212 0.19716738 -0.31499135 0.6653013 -0.13941647 -0.1555674
0.13205296 -0.18339166 0.70397377 -0.19034772 -0.14396828 -0.121757664 -0.23850407 -0.1631919
-0.20548078 0.035008524 0.17888165 0.47794202 -0.29450586 -0.12807304 -0.14326544 -0.3527224

encoder.lstm.weight_ih_l0_reverse f4 [40, 500]
00000000: 5c8f 943e 25ef 953e c389 b4bd afa0 953d
00000010: 68ba 71bd 188b 89bc 0c34 433e 8721 943d
00000020: a478 a23c 0db8 2c3e 38e7 c9bd 4a3e b53c
00000030: fe42 893e aa8a 0d3e f2f6 c63e daa0 553e
00000040: f780 13be 1db1 c03d 23c1 43bd 2105 033f
00000050: 8dac 0abe 956f 913d 5fd3 473e 4937 cdbe
00000060: 26f5 a93e 308f 943e 6649 6d3d 3377 b33e
00000070: ec9f d73d a633 39be 919b 153d 611d 0a3e
00000080: d88e 0abf 2134 913e f390 2f3f ccfc 93bc
00000090: a1bc c53e ebcf bf3e 08b9 5bbe 494c e83d
000000a0: 5c9c fd3d 6cfc 453d 1134 703d e4f4 0b3e
000000b0: c8c9 0cbe 31c2 97bd 78d9 b63d 32ad b23d
000000c0: 2a0d 923d 1af7 213e 02f6 9dbd 7ce2 933e
000000d0: 76c5 3e3f fa4e 813d 1588 ba3d 9ee6 6bbd
000000e0: 433a 2b3e 1308 8b3d 1fd8 f93d 1d22 ce3c
000000f0: c807 26be a217 9e3e 7530 b43e 2a1d 1e3e
00000100: ac5f ebbd 07ff febc b2cd 153e 6921 9b3e
00000110: bdb0 00bd 110a 723d 0c16 46ba 0e27 493e
00000120: ddf5 8d3d 426a 91bd f351 573d f000 6d3d
00000130: 6515 403e 25eb f7bc 50f7 743c 7892 fc3d
00000140: 7761 d33e 89ce 3e3e 773f 233e cfa3 773d
00000150: 2045 ff3d ae66 90bd d48e b43d fa74 7b3e
00000160: 5568 e4bd 4f14 b03c f87e 8f3e 9bba 073e
00000170: 3e14 9c3d 9937 073e cf2c 893d d1e8 1a3e
00000180: 6f49 9f3d c014 f13c 34f6 9f3c 536c 27be
00000190: 3372 603e e094 5ebc 0b5f 923e cf88 07bc
000001a0: be06 b03c de63 553e 75c1 813c 814e 2d3e
000001b0: 49a6 ffbd d3eb f13d e02f 823d e521 f3bc
000001c0: fa02 8b3e 679f f43d 66fd 003e 0063 54be
000001d0: ebbe c13d 2205 67be 572e 13bd 1e9f f13e
000001e0: 518a 603e 2842 863e f737 023f ce1a 30be
000001f0: 655a 44be 8ed6 933e 5fc9 f0bd 8f02 033e
00000200: ae1a 3e3e aba7 9d3e fcde 343d 98ac 6b3e
00000210: 6d15 0f3d d5d7 8e3d 0d65 353e c527 8abc
00000220: 9b9c 6dbc ba9a f13e 7135 f9bd e75b 62bd
00000230: c38a 8ebe edcc 813e 232d 7e3c 579c b4bd
00000240: 6d34 283e 9311 06bd ba3f 363d f66b 48bd
00000250: f5b3 023e 88ae 2e3e e5c6 583e f440 d93d
00000260: 3abc 833e 5035 58bd fdf1 263f b2d0 f3bc
00000270: 16bc 353e 8d25 073e 778b 2a3e 2fb6 c53d
00000280: 8e03 023e 8941 893f 442d 9fbd c429 343e
00000290: dafc 923d c80e 5b3e a7b0 e0bd 7141 44bd
000002a0: 5516 d83d 7ebb 5b3e 2eae 903e 9581 243d
000002b0: 11c6 14be 2acc 453e d9b4 003e 1c47 a83d
000002c0: ee1c 623d a089 b7bd 9a8f 993d 468a 643c
000002d0: 0bd1 53bc 6856 7bbe 403f eb3e 659b 263e
000002e0: 47cf bcbd 2427 103d ab5a 8f3d 05cd d63d
000002f0: ecbe cf3d 4208 73be 3fba 81bd 6f44 283e
00000300: a776 ddbe 9acc 52be b693 113e cf40 32bc
00000310: ee8e 0abd 752e db3e 2159 623e 5a26 b4be
00000320: 2c11 803e 553d 8b3d 2fcf ed3d 3964 c0bd
00000330: 5850 cabe aef5 273d a5e7 a1be f6be ba3e
00000340: c24b 0e3d 1ecd f13d 8d6b a4bd 6911 07bc
00000350: 9244 e03e 6c79 8abd 84e4 453e b7b9 233d
00000360: 5700 ca3d 5f63 6b3e 1dac e33d cb04 22be
00000370: d8ac a83d 732a 613e cd58 943e f515 423e
00000380: 65b9 4c3e 099d f63d cfeb 1c3e 7be7 df3e
00000390: 51b6 903e b16b a43e 32ba 8f3e d90c 1abe
000003a0: cc61 f6bd 5e03 1d3d c07a b5bb af2c 9b3e
000003b0: b4c4 da3e 2dca fabd 646f 903d 9ea5 dabc
000003c0: 53d5 e03d 75e7 823e fc90 fbbd 0923 bb3e
000003d0: 8a87 22be 2249 41bd 4823 623e eb45 3cbd
000003e0: 2582 43be 5a4c 8f3e f2f1 6b3d 6fbe 6a3c
000003f0: a475 cc3e 36b4 053e bab7 04bd 080a ca3e
0.29015625 0.29284015 -0.088153385 0.073060386 -0.05901566 -0.016789958 0.19062823 0.07232957
0.019832917 0.16867085 -0.098585546 0.022124428 0.26808923 0.13822427 0.3886028 0.20862141
-0.14404665 0.09408782 -0.04779161 0.511797 -0.13542385 0.07101361 0.19514225 -0.40081242
0.33194846 0.29015493 0.057931326 0.3505188 0.105285496 -0.18086109 0.036525313 0.1348777
-0.5412421 0.28360084 0.6858055 -0.018064879 0.38620475 0.37463316 -0.21457303 0.11342675
0.12383339 0.04833643 0.058643404 0.13667637 -0.13748848 -0.07410086 0.089281976 0.08724441
0.07131417 0.15816918 -0.07712938 0.2888373 0.7452005 0.06313892 0.09107987 -0.05759298
0.16721444 0.067886494 0.12199425 0.02516275 -0.16213906 0.30877405 0.3519322 0.15440813
-0.11492857 -0.031127466 0.14629248 0.30298927 -0.03141855 0.05909163 -0.0007556386 0.19643804
0.0693166 -0.07100345 0.052568387 0.057862222 0.18758161 -0.030263493 0.014951542 0.12332624
0.41285297 0.18633474 0.15942179 0.060458954 0.124643564 -0.070508346 0.08816305 0.24556342
-0.11152712 0.021494059 0.28026557 0.13254778 0.076210484 0.13204803 0.06698 0.15127875
0.07777678 0.02942884 0.019526578 -0.16349916 0.21918564 -0.013585299 0.28588137 -0.008272364
0.02148759 0.20838878 0.015839318 0.16924478 -0.12482888 0.11812558 0.06356788 -0.029679248
0.27150708 0.11944466 0.12596664 -0.2074089 0.09460243 -0.22560552 -0.035932865 0.4719171
0.21927764 0.26222348 0.50866646 -0.17197725 -0.19175108 0.2887463 -0.117571585 0.12793945
0.18564865 0.30791983 0.044157967 0.23015058 0.034932543 0.069747604 0.17714329 -0.016864667
-0.01450267 0.4718836 -0.12168396 -0.055263426 -0.27840242 0.25351658 0.015513691 -0.08818882
0.16426249 -0.032731604 0.044494368 -0.048931085 0.1276396 0.17058766 0.21169622 0.10608092
0.25729543 -0.052785218 0.65212995 -0.0297626 0.1774753 0.13197918 0.16654764 0.096538894
0.12696669 1.0723125 -0.077723056 0.17594057 0.07177134 0.21392357 -0.10971194 -0.047913972
0.105511345 0.21458241 0.2825789 0.04016264 -0.14528681 0.19316164 0.12568988 0.08216688
0.05520337 -0.08961797 0.07498093 0.013948983 -0.012928258 -0.2454468 0.45946693 0.16270216
-0.092192225 0.035193577 0.069997154 0.10488323 0.10143837 -0.23733619 -0.06334352 0.16432355
-0.43254587 -0.20585862 0.14216504 -0.010879709 -0.033827715 0.4280888 0.22104312 -0.3518551
0.250131 0.067988075 0.11611783 -0.09394116 -0.39514422 0.041005783 -0.31622043 0.36473817
0.034740217 0.11806701 -0.08028326 -0.008243897 0.43802315 -0.06761441 0.19325453 0.039972033
0.09863346 0.22987126 0.111168124 -0.15822141 0.08236092 0.2198885 0.28974 0.18953688
0.19992597 0.12041671 0.15324329 0.43731293 0.28264096 0.32113412 0.28071743 -0.15043963
-0.12030372 0.03833329 -0.0055383146 0.30307528 0.42728198 -0.12245593 0.07052496 -0.0266903
0.10978188 0.25567213 -0.12283513 0.36550167 -0.15872017 -0.047188886 0.22083771 -0.045965116
-0.19092615 0.2798794 0.057603784 0.0143276295 0.39933503 0.13057026 -0.032401778 0.39460778

encoder.lstm.weight_hh_l0_reverse f4 [40, 10]
00000000: e66e 433e 65d6 af3d 4aec 163e 42ab 47be
00000010: ae20 19be 2a62 14bd 513f 893d 367b 3fbe
00000020: f497 58be a09c 0bbe 4700 163e 1bc1 41bf
00000030: 2f88 ddbd d551 153d 9e82 0b3f abae 263f
00000040: 2243 8f3c 2b79 bb3c 256c 783d abec 313d
00000050: 15e4 51be 1334 80be 943b eebd 863d 8c3d
00000060: 45fc a63e e13f 1ebd b2c3 fabc 493f b13c
00000070: 873d 823e a9ed cdbd 3fa3 ea3e e68f 963f
00000080: f060 03bd 99b0 6dbe 6280 1bc0 884a 20c0
00000090: 2709 e5bd 194b c73d 7770 0fbf 74a9 d13c
000000a0: f562 9a3e fd6d 273f 90eb 9abc d53d bbbd
000000b0: 905a f5be 07d5 acbc dcc3 913d 5529 eabd
000000c0: 915c a7be c079 27be cba7 c5be 1966 f5bd
000000d0: 9eec 063d 4a21 223c d0e6 893f 8368 5b3f
000000e0: 3e53 fcbd 4a41 bc3c 2da4 c03e 2132 37bd
000000f0: 5ab8 2fbe 94b7 e8bc 90f1 a93d 6999 5c3e
00000100: 4d38 f53d ee62 18bd 5f7b 12bd 2f8d 2ebe
00000110: 5db6 573e 4c18 ffbd edc8 063f cbf7 c63e
00000120: 5ba7 82bd fc1a eabe 812e febe ec6e 973e
00000130: 97f5 c0bd 3336 4c3e 78a5 30bf 234c bd3d
00000140: 0ae6 c93d 8630 c73d 7c77 553d e9dc 28be
00000150: c748 f6bd eea7 4ebc 782b 10bd 90cc 2fbd
00000160: 22b4 25be 7398 61bc f1cc d4be 2510 03bf
00000170: 94e6 b43c 1fc8 fb3d 3b8d c33f 329c 763f
00000180: 353c d3bd 9182 e9bc 5b8b 143f 5d7f 18bd
00000190: 7f52 4bbe 1bfc 8fbe 3147 2c3e f2c5 d53e
000001a0: d051 ba3e 3200 34bb 53e3 c43d ad3f 87bd
000001b0: 6082 3a3e feda 19be b2b6 6fbe f9d9 81bd
000001c0: 5e2b 98bd 89a3 4e3c b573 5f3e c9dd a13b
000001d0: f6a8 b33d 687c a2bd ef8a 733e a2ac 29bd
000001e0: 4b15 cdbc 5107 023d 1521 8e3c 7138 823c
000001f0: 9e51 023e 1e92 17be 0076 653d 6506 8cba
00000200: 1ecc 0e3e 8263 e5bc bbf2 603e 2db9 a03e
00000210: e126 39bd e0e9 86be 7b86 6fbe 5642 f93d
00000220: 4652 04be 8c4e 753e 9e3f 89be eb83 763d
00000230: 39f5 e7be 08e7 b8be 0e69 903d 0894 a53e
00000240: d920 de3e 666d 31be 4174 e03b b103 8cbd
00000250: c149 bc3e a509 8abd 6742 2a3e 4390 383e
00000260: 16d4 23bd 4f2f 72be bfd2 68be 3c63 de3d
00000270: dcc8 fdbd 16bf e33d bc64 b4bd 8646 b73c
00000280: 14b7 67bd f823 04bd 0648 953d 420f e83d
00000290: 8cfc 913d a758 923b ef07 da3d 8de5 e7bd
000002a0: d68e 2d3e 4799 e73c b372 043e d7ed d13d
000002b0: 8a41 933c 547f 71be c694 36be 5a51 7c3e
000002c0: fb86 b8bd 9306 943d a283 edbd 2a60 4a3d
000002d0: b562 9bbe 6873 973e 9eb1 033e d6fc b23d
000002e0: 9655 10bd b9f2 d3be dad0 b53d d929 93bd
000002f0: d9ee a03e f3eb 45bd 4aac 283f 0d86 30bf
00000300: 239b 303c 701d a6be 7ddd 8f3e a180 8b3f
00000310: 2f3e edbc 8159 1e3d aa25 20bf 56dc aebc
00000320: a9a4 a53d 71b1 aabd 5633 ee3d 80f7 37be
00000330: 3e06 62bd 611d 123e 9578 fdbd 5d42 453d
00000340: f8f3 44bd d45e ca3d 9e79 6e3d b0e3 b9bc
00000350: fba3 05be 9144 18be cab9 02be 0749 563e
00000360: 192e 17be 53f2 133e 8ebb 15be ac7e 393e
00000370: 5222 703c e3e2 c83b c0b5 fb3a 3913 073e
00000380: a01f 083e c6e6 10be 75ea c93d f3d8 80bd
00000390: 4ae7 dd3d 6e8e 1dbd 9a0f b6be 312c 0a3e
000003a0: 0823 89bd 0fd8 c53e f9fe 883e ae33 1cbe
000003b0: e13c e93d 98e7 d6bd 17cc 9d3e cc0e 8bbd
000003c0: a4b0 c0bd 0657 95bd 6421 053e 4b06 bd3d
000003d0: 19ac 043b d0e7 b2bd bcda 333d 3314 cdbd
000003e0: 0d19 ef3d face 8b3d 2b1c e33d 7eac e0bd
000003f0: 397d 763d 8027 6fbd bf3b 50be 7381 3f3e
0.19085273 0.085858144 0.14738575 -0.19498923 -0.14953873 -0.03622643 0.0670153 -0.18699345
-0.21151716 -0.13633966 0.14648543 -0.7568528 -0.108169906 0.036454994 0.5449618 0.6511027
0.017488066 0.022884926 0.06065001 0.043438595 -0.20497163 -0.2503973 -0.116324574 0.06847672
0.3261434 -0.03863514 -0.030610893 0.021636622 0.25437567 -0.10055096 0.45827672 1.1762664
-0.03207487 -0.23211898 -2.4297109 -2.504549 -0.11183386 0.097311206 -0.5603098 0.025593497
0.30153623 0.65402204 -0.018911153 -0.09142653 -0.47920656 -0.021097673 0.07117435 -0.11433665
-0.3268781 -0.16355038 -0.38604578 -0.11982364 0.0329405 0.009895632 1.0773563 0.8570635
-0.12320565 0.022980351 0.37625256 -0.04472554 -0.17160168 -0.02840785 0.082980275 0.21542896
0.11973629 -0.03720372 -0.035762187 -0.17046045 0.2106566 -0.12455806 0.5265034 0.38860926
-0.06379577 -0.45723712 -0.49644855 0.29576814 -0.094218425 0.1994255 -0.69002485 0.092430376
0.098583296 0.09726052 0.052115902 -0.1649052 -0.120256 -0.01261328 -0.035197705 -0.042919695
-0.16181996 -0.013769257 -0.41562608 -0.5119651 0.022082604 0.122940294 1.5277475 0.96332085
-0.10314218 -0.028504642 0.5802514 -0.037230838 -0.19855689 -0.2812203 0.16824032 0.41752583
0.36390543 -0.0027465937 0.09613671 -0.06603942 0.18213797 -0.15024945 -0.23409536 -0.06340403
-0.07430147 0.012612232 0.21821482 0.004939769 0.08772461 -0.07933885 0.23783468 -0.0414244
-0.025034567 0.03174526 0.01734976 0.015896054 0.12726447 -0.14801833 0.056020737 -0.0010683058
0.13945052 -0.02800155 0.21967594 0.31391278 -0.045203093 -0.26350307 -0.23391144 0.12170856
-0.1292201 0.23955745 -0.2680635 0.0601844 -0.45304278 -0.36113763 0.070512876 0.323395
0.43384436 -0.17326888 0.006849796 -0.068366416 0.3677502 -0.06740121 0.16626893 0.18023781
-0.039997183 -0.2365086 -0.22736643 0.10858771 -0.123918265 0.11120431 -0.08808276 0.022372495
-0.05657108 -0.032260865 0.07289128 0.11331035 0.071282476 0.0044661346 0.106460445 -0.1132308
0.16949019 0.02827133 0.1293438 0.102504425 0.017975587 -0.23583728 -0.1783019 0.24640408
-0.090101205 0.072278164 -0.115973726 0.049408115 -0.30348745 0.29580235 0.12860724 0.08739631
-0.03523787 -0.4139612 0.08877726 -0.07185716 0.31432226 -0.04832072 0.6588789 -0.68954545
0.010779175 -0.32444334 0.2809867 1.089863 -0.028960316 0.038659576 -0.6255747 -0.021345299
0.08088047 -0.083346255 0.11630885 -0.17965508 -0.055181734 0.1426902 -0.12376515 0.048158992
-0.04808423 0.09881368 0.058221452 -0.022691578 -0.13050835 -0.14869906 -0.12766185 0.20926295
-0.14763679 0.14447908 -0.14622328 0.18114728 0.01465662 0.0061305626 0.0019203946 0.13190927
0.13293314 -0.14150533 0.09859172 -0.0629138 0.108351305 -0.03846591 -0.35558778 0.1349342
-0.06696135 0.38641402 0.2675703 -0.15254089 0.11388565 -0.10493392 0.3081977 -0.06789932
-0.094086915 -0.07291989 0.13001019 0.09229716 0.002024418 -0.08735621 0.043909773 -0.10013618
0.116747 0.06826587 0.11089357 -0.109704 0.060178015 -0.05838728 -0.20335291 0.18701725

encoder.lstm.bias_ih_l0_reverse f4 [40]
00000000: 9f03 983e aafb 2abc 48fb 30be d3db e2bd
00000010: 78ac ce3e 98ad 3dbf 9896 f6bd 9776 c93e
00000020: e52d 343e 05fd fdbe 0919 2bbe de89 05be
00000030: afe3 08be adaf a13e 447f c4be 50dc 0a3e
00000040: b4be 1fbd 4a8d 373e eb20 0bbe 0f03 133f
00000050: a436 153e 647f 593d e2c7 52bc ceef 8cbe
00000060: 1d23 ecbd 5d44 4c3e 4d5c 723d eaee 1b3f
00000070: 8cb7 21be 7b6e 513e 912b 633e 0907 0fbf
00000080: f305 42be 4328 bcbe fe3e 2d3e 9c54 34bf
00000090: 4ca4 3cbd 9d4e 15be d0cd 293e 7ff3 88be
0.29690263 -0.010435978 -0.17283356 -0.110770844 0.40365958 -0.7409301 -0.12040442 0.3934829
0.17595632 -0.496071 -0.16708769 -0.13040873 -0.13368104 0.31579342 -0.38378346 0.13560605
-0.039000228 0.17924991 -0.13586776 0.5742654 0.14571625 0.053100005 -0.012865039 -0.27526706
-0.11530135 0.19947954 0.059170056 0.6091143 -0.15792674 0.20452301 0.22184588 -0.5587011
-0.18947582 -0.36749467 0.16918561 -0.70441604 -0.046055123 -0.1458077 0.16582417 -0.26748273

encoder.lstm.bias_hh_l0_reverse f4 [40]
00000000: 8056 693e 2bb0 113d 3b12 d2bd 5721 b3bd
00000010: 4a57 e03e 981b 43bf a0eb dabd ac71 cf3e
00000020: bc86 7d3e 639d 0cbf 1591 2dbe 17f4 49be
00000030: c098 cebd c239 903e 05b2 98be baf2 633e
00000040: c27a e9bd 8d3d 8d3e c2be edbd d4af 053f
00000050: 5fa1 013e 218a 723d 8b6c 0ebd 1b17 cdbe
00000060: 9148 eabd 3b48 b83d a223 7ebd 7cee 083f
00000070: 3dfe 03be 86bb ed3d f182 783e 938d f2be
00000080: e153 e9bd 959a afbe e2ea 823e 76b2 15bf
00000090: c782 90bd 93ca 65be f96c 943e 4758 a1be
0.22786903 0.035568397 -0.102573834 -0.087465934 0.43816596 -0.7621398 -0.10689473 0.40516412
0.24758428 -0.54927653 -0.16949876 -0.19722019 -0.100877285 0.28169066 -0.29823318 0.22260562
-0.11400367 0.27586022 -0.1160865 0.5222142 0.12659214 0.05921376 -0.034771483 -0.4005669
-0.11439622 0.08998152 -0.0620457 0.534889 -0.12889953 0.11608033 0.242687 -0.47373638
-0.11392952 -0.34297624 0.25569826 -0.58475435 -0.07056194 -0.22440557 0.2898939 -0.31512663

decoder.embed.weight f4 [8, 8]
00000000: e27e c03d 952a 9a3d 9e1d d2bd 882d f4bd
00000010: 3556 083e 4242 da3a ad5c bcbd bc15 eebd
00000020: a004 80bd a7d2 163d c07e 10bc bf59 723b
00000030: ba15 acbc c095 02bb a55a 8a3d 80fb 3f3d
00000040: 447a f6bd 98e3 d63e fffd 9c3d 78fa c63e
00000050: 974a 80bd 177a 7a3d 694f 913e 8587 6cbe
00000060: 1ff3 b73c 5588 383e aa12 153e 3d4d 723d
00000070: be44 29be 4838 2a3d 383d 583a 99ce a1bd
00000080: 30f8 eb3d 76bf 99be b856 943d 50a8 c73d
00000090: 7d7f 16be 4bf3 483e 7a9c 62be 594c 22be
000000a0: caf2 63be 99a1 29be a956 5dbe 2172 d1bd
000000b0: 8ace 743b d5ca c0be 1429 ca3d a615 de3d
000000c0: 8317 50be e457 fd3d 790c 16be 9a48 c2bd
000000d0: 4f5a bd3d c478 64be dd86 db3d 0211 fd3d
000000e0: 85a0 ffbe fe24 da3e 33ce ae3e 66c6 433f
000000f0: ee8c 07bf 5e64 163f c99c 413f e6d8 51bf
0.09399201 0.07527653 -0.10259555 -0.11922747 0.13314135 0.0016651826 -0.09197364 -0.11625239
-0.06250882 0.036821987 -0.008819282 0.0036979762 -0.021006454 -0.0019925684 0.0675557 0.04687071
-0.12035039 0.41970515 0.076656334 0.38862967 -0.06264227 0.06115159 0.28380898 -0.23098572
0.022454796 0.18020757 0.14557901 0.05915569 -0.1653013 0.04155758 0.00082488684 -0.079007335
0.115219474 -0.30028886 0.07243103 0.097489 -0.1469707 0.19624059 -0.22130004 -0.15849437
-0.22260585 -0.16565551 -0.2161509 -0.102268465 0.0037354552 -0.3765475 0.09871116 0.10843973
-0.20321469 0.123702794 -0.14653195 -0.09486504 0.092457406 -0.22311693 0.107190825 0.123567596
-0.49927154 0.42606348 0.34141693 0.76474607 -0.52949417 0.587469 0.7562986 -0.81971586

decoder.lstm.weight_ih_l0 f4 [40, 8]
00000000: fc15 943f dd38 5cbf 9066 b43f d3b5 a43f
00000010: c287 c1bf d152 883f 6afd 9bbf 89a1 a9bf
00000020: 244e 86be a0bd 4c3d 8e20 90be a0e0 32be
00000030: b689 1e3e d9ae 063e e432 013f 8ba0 5f3e
00000040: ddb0 86be 2c0a 73bc cd26 223f 6d53 583f
00000050: ad47 4abf 6892 6c3f 4762 9d3e 1696 0fbf
00000060: d62e 86be 0e48 f83d 839f 4c3f 7361 303f
00000070: 6c8e 8bbe 7aeb 933f 2a8c 883c fece dcbe
00000080: 9dbe c93e 9b48 1c3e 96e1 8f3e c1c4 98be
00000090: 2521 b2be 9df6 583d dccd 8dbe d8a7 e838
000000a0: 80b6 703e 8ec7 88be e82a 6f3f a3a6 01be
000000b0: 2e3b d3be 3382 3a3e 54e1 1abf 5146 d2be
000000c0: b390 89be 3faf 6c3f 2a70 db3e ea78 003c
000000d0: bd2a 223e 47f9 0f3f faba 47be a849 97bd
000000e0: 9de2 7cbf 924e 45be f26c 26bf da88 a7be
000000f0: 5b5c 293e 3dd4 0cbf 186f 813f 708f b83e
00000100: e981 693e a8e2 b73c b8b7 0a3f 6083 b23e
00000110: 159d 3cbf c5c3 dc3d 4f4d 24bf ce91 d6be
00000120: 2925 0b3e 6287 98be 3566 783e f500 923e
00000130: 834e bfbe add7 0e3f f364 203f 54d9 6b3d
00000140: 5ea8 fcbd e041 17bd c6fa f13d b1ce 363e
00000150: e12d f1bd 7cfc 143d 5b89 91bd f1fe a5bd
00000160: 0d48 843d bef9 93be 60f1 f23b 09e8 323e
00000170: 4c40 35be 3e5d 98bc 68ce b2bd 5031 1d3c
00000180: 2183 00be 01ef 003d 2681 10be 10db 12be
00000190: e388 533e 473c 103c 5d83 183e 0d43 883e
000001a0: 028c 593f 0fb3 823f 9867 0abf 2ec8 8a3e
000001b0: e052 933e 454e 38bf ec09 b13e 9ac8 0d3f
000001c0: e8f7 3abd db52 57bf 0d85 8abe 8c39 53bc
000001d0: c333 f6bc 4136 22bf c6d9 8fbe 2d5f e2bd
000001e0: b89c 1e3d 2386 29be 59d8 46be ddf1 2f3e
000001f0: d94c 453f 2ac5 81be e7b7 283d 0e8d 1a3e
00000200: 909b c4bd c162 183e 1d44 0d3e f770 dbbd
00000210: 9517 17bd 714b 953d 1b9e 27be c038 1cbe
00000220: 714f 75be 5001 9e3f 168d 5e3e 4a94 493e
00000230: 686f 8bbe ad78 88be 2754 5cbe 4fc4 0dbf
00000240: 4df3 303f f716 f83d 3986 163f 21e3 71bd
00000250: 40c9 c3be aafd be3e e219 03bf b0ef 3bbe
00000260: f6b0 b53e de77 2c3f ab3c 083f 5c25 02be
00000270: 6125 e0be 261d 0dbb 3260 adbe a49a debe
00000280: e499 7b3f a476 1fbf e383 243f 8d8c 4e3f
00000290: 8e37 59bf 8630 443f 79bc 98bf 2717 67bf
000002a0: 90bd b7bd a620 ec3c cfeb 1e3e 5c90 933e
000002b0: 86aa 85bc b5ef c3bc ee9f 6abe 281c aebd
000002c0: 4454 ccbd ec8c 8e3e 6330 ca3e 443a 1d3f
000002d0: 77ed 1fbe 3b97 203f 64c2 413e 40ad 1dbf
000002e0: 394d 85bf e42d ce3c db84 a53d dd2f 9bbe
000002f0: ff2c 773d 5f36 1c3e e05d 6c3f ec1b cabb
00000300: 22f8 ea3e 406d a8be ce57 1ebe 7500 ee3c
00000310: 6648 89bd fcb7 aebe 38ce 14bf 9905 49bd
00000320: b1d1 433e 1a95 a03e 3588 efbd 5d3e 743e
00000330: ff6e 86be faa6 3c3e 79f7 90be f42e 3ebe
00000340: 0fc3 28be 2a12 673e a4f8 223c 0f16 543e
00000350: 947d a33d 2078 e73e a546 9dbd 5d02 6d3d
00000360: 5330 683e 30f5 9c3f ec65 da3e 8b65 223f
00000370: 1b2c 03bf cb15 873f ad19 023e 1141 d4be
00000380: b6cb 583f 35fd 54bf 7cf3 573f d645 213f
00000390: 41d4 5ebf 45cd 2f3f 4c33 36bf 681f 85bf
000003a0: 2b0f 2ebe 8b1e f1bd 0f60 123e 1631 1c3e
000003b0: 8eff 5dbe 8443 d63e ca17 1e3d 3010 8dbe
000003c0: 1112 0abf c3fc b6be b20d 60bf e515 94bf
000003d0: 780b 8c3f 931b a5be 4242 5b3f 2e05 943f
000003e0: 967f 4c3f 52ac 0bbf 5cb5 2fbe 8cb0 f8bd
000003f0: 50ce 95bb cad8 0cbe 7010 18bf 3fec e63e
1.1569209 -0.86024266 1.40938 1.2867988 -1.5119555 1.0650274 -1.2186711 -1.3252422
-0.26231492 0.049985528 -0.28149837 -0.174685 0.1548222 0.13152637 0.5046828 0.21838586
-0.2630681 -0.014833968 0.63340455 0.845023 -0.7901562 0.924109 0.30739042 -0.5608839
-0.26207608 0.12123118 0.79930896 0.68898696 -0.27257097 1.1556237 0.016668398 -0.43126673
0.3940324 0.15262072 0.28101796 -0.2983761 -0.34790912 0.052969564 -0.2769612 0.000110938854
0.23507118 -0.26714748 0.93424845 -0.12661223 -0.41256088 0.1821373 -0.60500073 -0.41069272
-0.2686821 0.92454904 0.42859012 0.007841328 0.15836616 0.5623974 -0.1950492 -0.07387096
-0.98783284 -0.19268253 -0.6500999 -0.32721597 0.16539137 -0.5501135 1.0112028 0.36046934
0.22803463 0.022446945 0.5418658 0.34865856 -0.7367719 0.107795276 -0.64180464 -0.41908115
0.13588394 -0.2979079 0.24257739 0.28516355 -0.37364587 0.55797845 0.62654036 0.057580307
-0.12336801 -0.036928058 0.11815409 0.17852284 -0.11776329 0.0363736 -0.071062766 -0.08105267
0.06459055 -0.28901476 0.007414028 0.17471327 -0.17700309 -0.018599149 -0.08730775 0.009594277
-0.12550022 0.031477932 -0.14111766 -0.14341378 0.20657687 0.008803434 0.14893861 0.26613656
0.8497926 1.0210894 -0.5406432 0.2710585 0.28774166 -0.7199443 0.34577882 0.5538422
-0.045646578 -0.841108 -0.27054635 -0.012892138 -0.030053979 -0.63364035 -0.28095835 -0.110533096
0.038723677 -0.16555075 -0.19418468 0.17182107 0.77070385 -0.25345737 0.041191008 0.1509287
-0.09599984 0.14881422 0.13795514 -0.10714906 -0.036887724 0.0728978 -0.16368906 -0.15256023
-0.23956086 1.234415 0.21733508 0.19685474 -0.27233434 -0.26654568 -0.21516477 -0.5537767
0.6912125 0.12113755 0.5879856 -0.059054498 -0.3823948 0.37302905 -0.5121137 -0.18353152
0.35486573 0.673704 0.5321757 -0.12709564 -0.43778518 -0.0021532266 -0.33862454 -0.43477356
0.98281693 -0.62290406 0.64263743 0.80683213 -0.84850395 0.7663654 -1.1932517 -0.902697
-0.08971703 0.028824162 0.15519641 0.28821075 -0.016316663 -0.023918012 -0.22912571 -0.08501464
-0.0997701 0.2784189 0.3949004 0.6141703 -0.1561793 0.6273076 0.1892181 -0.61592484
-1.0414191 0.025168367 0.08081981 -0.30309954 0.060345646 0.15255116 0.9233074 -0.0061678793
0.45892435 -0.3289585 -0.15463182 0.029052952 -0.06703262 -0.34124744 -0.58127165 -0.049077604
0.1912296 0.31363755 -0.11695901 0.23851915 -0.26256558 0.18423072 -0.28313807 -0.18572599
-0.16480659 0.22565523 0.009946976 0.2071154 0.079829365 0.45208836 -0.0767949 0.057863582
0.22674684 1.2262325 0.42655885 0.6343619 -0.51239175 1.0553526 0.12705107 -0.41455892
0.8468584 -0.83198863 0.843559 0.62997186 -0.87042624 0.6867259 -0.7117202 -1.040021
-0.16997974 -0.11773404 0.14294456 0.152531 -0.21679518 0.41848385 0.038596906 -0.27551413
-0.5393382 -0.35739717 -0.875209 -1.1569182 1.0941 -0.322476 0.85647976 1.1564081
0.7988218 -0.54559815 -0.17159027 -0.12143049 -0.0045717135 -0.13754573 -0.5940008 0.45102116
