agl/models/autosave/g1-attn-AE-1-7-1-500-lr0.005.pt (torch, 116158 bytes, 23 tensors)

encoder.embed.weight f4 [8, 8]
0.025959415 0.067042895 0.02781725 0.02639346 0.014361791 0.03611638 -0.025270643 0.038801268
0.5259721 0.4933155 0.40171584 0.5225694 -0.3420297 0.42196587 0.337487 -0.41681227
0.56826127 0.40160707 0.20771037 0.5277179 -0.44407547 0.42207012 0.33030066 -0.40562704
0.4332819 0.4028532 0.32509968 0.46837384 -0.4345211 0.33433577 0.55845356 -0.39365625
0.479874 0.7658322 0.44840395 0.58781695 -0.6170643 0.5986786 0.7217678 -0.29966915
-0.11368584 -0.13903487 -0.10001915 -0.30593735 0.11224761 -0.1744319 -0.12504089 0.08397136
-0.85285074 -0.99850106 -0.911884 -0.024223162 0.83043593 -0.9821965 -0.8608883 1.0680028
0.09507708 0.35958302 0.38711384 0.5199156 -0.5082072 0.4021052 0.61030835 -0.39362547
00000000: d7a8 d43c c94d 893d 00e1 e33c 1937 d83c
00000010: b84d 6b3c c5ee 133d 6104 cfbc 14ee 1e3d
00000020: 1ca6 063f d993 fc3e b3ad cd3e 1cc7 053f
00000030: 841e afbe e90b d83e 19cb ac3e 6b68 d5be
00000040: 9279 113f 719f cd3e 07b2 543e 8518 073f
00000050: dc5d e3be 9319 d83e 2b1d a93e 59ae cfbe
00000060: 20d7 dd3e c642 ce3e 7773 a63e b2ce ef3e
00000070: 8d79 debe 0f2e ab3e d0f6 0e3f 508d c9be
00000080: 0cb2 f53e 940d 443f 3495 e53e 2c7b 163f
00000090: edf7 1dbf 0043 193f c6c5 383f 3c6e 99be
000000a0: 1fd4 e8bd 285f 0ebe d7d6 ccbd d2a3 9cbe
000000b0: 13e2 e53d 479e 32be b80a 00be 2df9 ab3d
000000c0: 6d54 5abf c49d 7fbf 3b71 69bf a76f c6bc
000000d0: 7397 543f 3b71 7bbf 2d63 5cbf 51b4 883f
000000e0: c6b7 c23d 441b b83e c933 c63e 3019 053f
000000f0: de19 02bf bce0 cd3e 2b3d 1c3f 4789 c9be

encoder.fc_one.weight f4 [500, 8]
0.3576727 0.45347878 0.081131965 -0.2459306 -0.17202 0.27406806 0.1207255 -0.16041489
0.43924433 1.0717461 0.46546018 0.33288082 -0.49213886 1.0195143 0.75213516 -1.0263896
0.075567685 0.03373617 -0.0031472673 -0.06028212 -0.046112254 0.03794227 -0.041921493 0.01668707
-0.27899313 0.3029523 0.8337453 0.32215813 -0.24405505 0.6814344 -0.3327704 0.36357275
0.11182642 0.040636804 0.0843063 -0.1072998 -0.0046091937 -0.1486399 0.054571107 -0.02083648
0.25033095 0.36182368 0.33583435 0.0327424 -0.33988956 0.22451593 0.5290996 -0.52180725
0.015253086 0.037810855 0.043653253 -0.016514607 0.005243478 -0.0007634053 0.03483069 0.012466869
0.035645418 0.34306434 0.24882902 0.09242946 -0.2866352 0.19508693 0.05713153 -0.27016467
0.7297561 0.59741867 0.84440565 0.29939702 -0.8615548 0.7394354 0.95414776 -0.3593435
0.14089094 -0.028649637 0.12282733 0.008126608 -0.20767589 0.2065982 0.19215621 -0.09162109
0.44964734 0.26186907 0.2736335 0.0052620796 -0.23677982 0.14723289 -0.03982514 -0.038960434
-0.026985198 0.009961543 0.010784636 -0.094564885 -0.0093790125 -0.07225532 0.116611816 -0.061656013
0.12025867 -0.066848695 0.20877561 0.089823104 -0.17472817 0.52188444 0.34939277 -0.32098618
0.42890126 0.63890547 0.39052662 0.55331 -0.20068102 0.36313695 -0.027119536 -0.62483466
-0.030662376 0.23047322 -0.13433856 -0.07655021 -0.32583883 0.2343925 -0.072696395 -0.10030582
0.7639146 0.43564314 0.36401612 0.20606154 -0.33952948 0.53933394 0.3980917 -0.62987494
0.30434257 -0.11377891 -0.5612358 0.19024111 -0.20058672 0.38565898 0.3264794 0.15661561
0.1437076 0.17170547 0.07032073 -0.043357477 -0.39681453 0.21416843 0.45944166 -0.4667258
-0.030436484 0.06547872 0.041654833 -0.16483738 -0.07136272 0.070753545 -0.033781286 -0.054277107
0.7500234 0.546875 0.82286644 0.3319743 -0.7649353 0.9510332 0.4912594 -0.7011885
0.029473722 0.17791378 0.14996365 -0.16518106 -0.14303026 0.11492006 0.12570494 -0.14924683
-0.036703166 0.27418092 0.46487767 0.2416902 0.38658145 0.662966 0.19015543 0.43993852
0.00012796307 0.02998513 0.08032701 -0.06800097 -0.046558406 -0.07270289 0.04931654 -0.03322387
1.7870276 1.7846932 1.6061357 0.7713233 -1.6266904 1.7630352 1.5442547 -1.022507
0.0038310844 0.06816227 0.004032673 -0.09911019 0.069350585 -0.0043507186 0.02132924 -0.014001493
0.29650784 0.38482922 0.11877735 0.5018881 -0.39068004 0.52881545 0.33392337 -0.1532833
0.26390904 0.33328706 -0.18501456 0.21157748 0.0760089 0.2711068 0.21336083 -0.2624797
0.5135291 0.069912426 0.3308136 0.20142813 -0.8644548 0.48018017 0.8035903 -0.56502
-0.31568918 0.3524414 0.27756208 0.32251447 -0.32393125 0.3499569 0.974791 -0.7388524
0.74551487 0.6279339 0.95101833 0.25216946 -0.9122978 0.1902085 0.64499974 -0.46916005
0.4112998 0.1541395 0.43954074 -0.23384938 -0.73686 -0.6439728 -0.5367286 -0.39674407
-0.29316628 0.16994224 0.74539554 0.07031837 0.06255864 0.27681252 0.14544384 -0.6170319
00000000: e020 b73e 5f2e e83e 8428 a63d 3bd5 7bbe
00000010: 0326 30be a652 8c3e ee3e f73d cd43 24be
00000020: a2e4 e03e fa2e 893f cc50 ee3e 5b6f aa3e
00000030: a0f9 fbbe 727f 823f ee8b 403f bc60 83bf
00000040: 3bc3 9a3d f02e 0a3d 6242 4ebb 62ea 76bd
00000050: 34e0 3cbd 5b69 1b3d dfb5 2bbd 52b3 883c
00000060: 30d8 8ebe 901c 9b3e 5570 553f e9f1 a43e
00000070: 91e9 79be 7c72 2e3f e260 aabe 3526 ba3e
00000080: 4005 e53d c772 263d c8a8 ac3d ffbf dbbd
00000090: b808 97bb 0f35 18be f485 5f3d 44b1 aabc
000000a0: 612b 803e f440 b93e 7bf2 ab3e e51c 063d
000000b0: 0106 aebe 81e7 653e 1273 073f 2995 05bf
000000c0: 14e8 793c 8edf 1a3d c1cd 323d a449 87bc
000000d0: 7bd1 ab3b 431f 48ba a0aa 0e3d d741 4c3c
000000e0: ee00 123d 21a6 af3e 09cd 7e3e a84b bd3d
000000f0: d9c1 92be dec4 473e c002 6a3d 0653 8abe
00000100: 4cd1 3a3f 6ef0 183f f82a 583f 914a 993e
00000110: db8e 5cbf a34b 3d3f 0743 743f dffb b7be
00000120: b745 103e a5b2 eabc e58c fb3d 7725 053c
00000130: fda8 54be 7b8e 533e 99c4 443e d7a3 bbbd
00000140: 2d38 e63e b413 863e b119 8c3e 866d ac3b
00000150: 6976 72be 38c4 163e b01f 23bd fa94 1fbd
00000160: 1010 ddbc bd35 233c 0bb2 303c 3cab c1bd
00000170: 6eaa 19bc 99fa 93bd 2dd2 ee3d 048b 7cbd
00000180: 2d4a f63d f8e7 88bd 46c9 553e 2df5 b73d
00000190: f1eb 32be 389a 053f 9ce3 b23e 4d58 a4be
000001a0: f298 db3e 4f8f 233f 1bf3 c73e b9a5 0d3f
000001b0: 537f 4dbe 16ed b93e ca29 debc 2af5 1fbf
000001c0: aa2f fbbc 2c01 6c3e 0c90 09be 5bc6 9cbd
000001d0: 59d4 a6be 9604 703e d9e1 94bd 236d cdbd
000001e0: e88f 433f 9e0c df3e 5260 ba3e cc01 533e
000001f0: cfd6 adbe ca11 0a3f add2 cb3e 7c3f 21bf
00000200: cad2 9b3e eb04 e9bd 26ad 0fbf 91ce 423e
00000210: 9b66 4dbe 1875 c53e 4f28 a73e d85f 203e
00000220: 1628 133e 8fd3 2f3e 5104 903d 9c97 31bd
00000230: 462b cbbe f84e 5b3e f03b eb3e aff6 eebe
00000240: ef55 f9bc b519 863d 429e 2a3d 21cb 28be
00000250: 9e26 92bd 3ce7 903d 3f5e 0abd ac51 5ebd
00000260: 8901 403f 0000 0c3f 60a7 523f 89f8 a93e
00000270: cdd2 43bf e976 733f 5a86 fb3e 1781 33bf
00000280: e072 f13c 082f 363e 1290 193e 3925 29be
00000290: 8676 12be 355b eb3d ccb8 003e 29d4 18be
000002a0: 0f56 16bd 7161 8c3e 7204 ee3e a37d 773e
000002b0: 01ee c53e 24b8 293f 1bb8 423e 9f3f e13e
000002c0: d32d 0639 60a3 f53c 7d82 a43d 1844 8bbd
000002d0: 07b4 3ebd 41e5 94bd 2400 4a3d c115 08bd
000002e0: 52bd e43f d470 e43f db95 cd3f 7275 453f
000002f0: 6437 d0bf 23ab e13f 23aa c53f 82e1 82bf
00000300: ee12 7b3b a998 8b3d 8324 843b 49fa cabd
00000310: ae07 8e3d 7990 8ebb a9ba ae3c 8566 65bc
00000320: e0cf 973e 5608 c53e 8a41 f33d bd7b 003f
00000330: 3707 c8be 7360 073f 01f8 aa3e 4cf6 1cbe
00000340: 161f 873e 9aa4 aa3e 7574 3dbe c4a7 583e
00000350: 8eaa 9b3d 83ce 8a3e 437b 5a3e bd63 86be
00000360: a576 033f 3f2e 8f3d 6660 a93e 2d43 4e3e
00000370: e94c 5dbf 2dda f53e 18b8 4d3f 27a5 10bf
00000380: 03a2 a1be 3373 b43e 9e1c 8e3e 9e20 a53e
00000390: 51da a5be 8d2d b33e e78b 793f 6e25 3dbf
000003a0: 10da 3e3f 47c0 203f f075 733f 5b1c 813e
000003b0: 598c 69bf 04c6 423e b41e 253f bf35 f0be
000003c0: e395 d23e bfd6 1d3e 7c0b e13e 3676 6fbe
000003d0: dba2 3cbf 67db 24bf 0c67 09bf 0a22 cbbe
000003e0: e419 96be 5705 2e3e 3ed2 3e3f 1403 903d
000003f0: bf1e 803d 5fba 8d3e 3bef 143e cdf5 1dbf

encoder.fc_one.bias f4 [500]
-0.15357481 -0.11741297 -0.22365406 -0.20658943 -0.47180796 -0.054619864 -0.19454303 -0.24924828
-0.106122404 -0.2158197 -0.11063637 -0.45285302 -0.19923455 -0.12305955 0.38645238 -0.0598469
-0.33501244 -0.070271835 -0.21823215 -0.1016251 -0.26036096 -0.19473462 -0.17043735 0.27859056
-0.13807487 -0.06593634 -0.0878407 -0.16331212 -0.09263242 -0.118843466 -0.18134709 -0.054269783
-0.26588407 -0.19367935 -0.19959766 -0.62569773 -0.460249 0.25118715 -0.33289015 -0.023253173
-0.2740324 0.18914357 0.08744599 -0.274812 -0.369505 0.21786681 -0.009034611 -0.048041537
-0.16910584 -0.21162878 -0.2777181 -0.10591612 0.1527184 -0.10098776 -0.35390314 -0.28524536
-0.021184767 -0.02335458 -0.058325972 -0.098549835 0.17073014 0.25094157 -0.05924088 -0.20981567
-0.119411804 0.17179954 -0.1102878 -0.13420512 -0.14443865 -0.18613017 -0.122497976 -0.22007298
-0.08987833 0.07334219 -0.03921513 -0.17153981 -0.17864314 -0.14354421 -0.1908634 -0.18691409
-0.40480068 -0.056934427 -0.07527764 -0.38146904 -0.39778107 -0.06848609 0.047791295 -0.045310702
-0.14015584 0.24100152 -0.40266284 -0.27501073 0.013371084 -0.15247153 0.26322463 -0.0077846893
-0.15039223 -0.2253927 -0.2853973 0.1280875 0.20850395 0.23339812 -0.32841966 0.1694537
-0.047553554 -0.19112767 -0.1856784 0.22257128 -0.015074196 -0.062295515 -0.13814154 -0.042142354
-0.31741846 -0.059238587 -0.3384667 -0.16286957 -0.095559575 -0.22037569 -0.18896903 -0.21905681
-0.14300059 -0.12375629 -0.12380964 0.17652379 -0.10386596 -0.18796274 -0.34509054 -0.22447857
-0.441789 -0.13705944 -0.23547523 -0.19889894 -0.16763799 -0.22895865 -6.381394e-05 -0.19146894
-0.09929876 -0.12357125 0.2107558 -0.21087204 -0.066454455 0.07664938 -0.28186622 -0.24246009
-0.4257528 -0.34644035 -0.13395369 -0.17891756 -0.5025605 -0.3077167 -0.19466938 -0.37104255
-0.3992664 -0.3102429 -0.124339566 -0.47922865 -0.011132577 -0.3084677 -0.033106986 -0.2405641
-0.08572555 -0.16096164 -0.2108481 -0.16531672 -0.10108216 -0.38490015 0.14581183 -0.124361664
-0.118235506 -0.18080904 -0.24137187 -0.064597145 -0.15152419 -0.46327212 -0.16435903 -0.10898399
-0.035151836 -0.3949492 0.29516003 -0.062989295 -0.25753215 0.32477573 -0.412469 -0.2968797
-0.17231084 -0.14299254 0.016466845 0.16431098 -0.22343627 0.071512274 -0.12838858 -0.1713487
-0.24351075 -0.062245555 -0.1409268 -0.07664778 -0.16461919 -0.06755027 -0.38464487 -0.06092692
-0.40356594 -0.24955815 -0.27607745 -0.090813346 -0.13621446 -0.05477469 -0.48203242 0.26918
-0.10820735 -0.080369 -0.4644938 0.15373167 -0.1558429 -0.28201833 -0.0831129 -0.15743913
-0.2294503 -0.092728384 -0.046849288 -0.2696042 -0.09190804 0.21365759 -0.18454818 0.110195525
-0.14803337 -0.18448411 -0.41593775 -0.16146822 -0.30349824 -0.28967822 -0.34173018 -0.15398419
-0.18747771 -0.057631023 -0.19027482 -0.088734984 -0.43305925 -0.1974602 -0.38835543 0.34024912
-0.13405873 -0.3313639 -0.2017926 0.07568751 -0.44109356 -0.32462862 -0.067109 -0.21158965
-0.14048946 -0.11710604 -0.16051945 -0.10574753 0.046397366 -0.36740074 -0.18169959 -0.20471554
00000000: b742 1dbe 3676 f0bd 9205 65be 2e8c 53be
00000010: d090 f1be 14b9 5fbd 4a36 47be f13a 7fbe
00000020: b456 d9bd d7ff 5cbe 5295 e2bd 5adc e7be
00000030: 2404 4cbe a506 fcbd 16dd c53e 0622 75bd
00000040: c086 abbe aeea 8fbd 4078 5fbe d220 d0bd
00000050: 084e 85be 8368 47be 2187 2ebe 6ca3 8e3e
00000060: 8063 0dbe a209 87bd d3e5 b3bd 4b3b 27be
00000070: 11b6 bdbd 3464 f3bd 0db3 39be fe49 5ebd
00000080: f521 88be e153 46be 5463 4cbe ba2d 20bf
00000090: c2a5 ebbe 9a9b 803e 9470 aabe 707d bebc
000000a0: fa4d 8cbe daae 413e e216 b33d 29b4 8cbe
000000b0: c22f bdbe 7a18 5f3e e805 14bc 34c7 44bd
000000c0: 152a 2dbe 37b5 58be 1131 8ebe 8dea d8bd
000000d0: 3662 1c3e acd2 cebd cb32 b5be ae0b 92be
000000e0: ad8b adbc 1b52 bfbc 37e7 6ebd 7fd4 c9bd
000000f0: e2d3 2e3e 6a7b 803e 91a6 72bd ebd9 56be
00000100: 2d8e f4bd 38ec 2f3e 92de e1bd 116d 09be
00000110: bae7 13be e898 3ebe 38e0 fabd d05a 61be
00000120: 2112 b8bd 6e34 963d 0ba0 20bd 22a8 2fbe
00000130: 3aee 36be 41fd 12be b271 43be 6866 3fbe
00000140: 0942 cfbe 1334 69bd 2a2b 9abd e94f c3be
00000150: f6a9 cbbe 6f42 8cbd cec0 433d b797 39bd
00000160: 0385 0fbe 1ac9 763e d329 cebe 35ce 8cbe
00000170: 6412 5b3c 7f21 1cbe 61c5 863e b516 ffbb
00000180: 6c00 1abe 58cd 66be 981f 92be 5f29 033e
00000190: 0f82 553e ebff 6e3e 9f26 a8be 4585 2d3e
000001a0: 84c7 42bd f9b6 43be 7a22 3ebe bae9 633e
000001b0: c3f9 76bc 9529 7fbd fa74 0dbe 769d 2cbd
000001c0: ac84 a2be 29a4 72bd 824b adbe 48c7 26be
000001d0: bdb4 c3bd 2aaa 61be 1981 41be 6e50 60be
000001e0: bf6e 12be f073 fdbd e98f fdbd a7c2 343e
000001f0: adb7 d4bd 4e79 40be b5af b0be b6dd 65be
00000200: 2b32 e2be 4f59 0cbe 6b20 71be 2aac 4bbe
00000210: 4ba9 2bbe 2374 6abe d9d3 85b8 6f10 44be
00000220: 265d cbbd ec12 fdbd 5ed0 573e d7ee 57be
00000230: 4619 88bd 5afa 9c3d c550 90be 7547 78be
00000240: 45fc d9be a160 b1be 282b 09be 2a36 37be
00000250: cea7 00bf 0b8d 9dbe 6957 47be 4af9 bdbe
00000260: a56c ccbe 28d8 9ebe bea5 febd 755d f5be
00000270: 6a65 36bc 7aef 9dbe 319b 07bd 6f56 76be
00000280: e190 afbd 21d3 24be 90e8 57be c948 29be
00000290: 2a04 cfbd a211 c5be b24f 153e 54b1 febd
000002a0: 7525 f2bd 0126 39be 302a 77be 824b 84bd
000002b0: 2829 1bbe 0132 edbe bc4d 28be 0033 dfbd
000002c0: 5ffb 0fbd c836 cabe 371f 973e 8800 81bd
000002d0: 41db 83be 0149 a63e 232f d3be 9e00 98be
000002e0: 4172 30be a36c 12be 7ae5 863c 2341 283e
000002f0: 7acc 64be 0775 923d 4c78 03be 0976 2fbe
00000300: e25a 79be 32f5 7ebd 1d4f 10be 83f9 9cbd
00000310: ef91 28be cc57 8abd 2cf0 c4be 828e 79bd
00000320: 32a0 cebe 2c8c 7fbe 065a 8dbe 59fc b9bd
00000330: ce7b 0bbe 6d5b 60bd f4cc f6be f6d1 893e
00000340: d19b ddbd 8198 a4bd 22d2 edbe d66b 1d3e
00000350: 4895 1fbe b564 90be 1937 aabd b937 21be
00000360: 05f5 6abe 61e8 bdbd 0ae5 3fbd 9009 8abe
00000370: 483a bcbd 0ec9 5a3e 33fa 3cbe 31ae e13d
00000380: 0f96 17be 67e9 3cbe cbf5 d4be ed57 25be
00000390: 1f64 9bbe b450 94be 42f7 aebe 08ae 1dbe
000003a0: 28fa 3fbe 820e 6cbd 67d7 42be b0ba b5bd
000003b0: f1b9 ddbe 0233 4abe 86d6 c6be 2235 ae3e
000003c0: b146 09be 87a8 a9be b8a2 4ebe 0e02 9b3d
000003d0: 04d7 e1be b935 a6be 7270 89bd f5aa 58be
000003e0: 78dc 0fbe 4bd5 efbd 365f 24be 2992 d8bd
000003f0: 2a0b 3e3d f31b bcbe 750f 3abe f3a0 51be

encoder.gru.weight_ih_l0 f4 [21, 500]
-0.15008664 0.05111006 -0.061277762 -0.4325248 -0.0039486135 -0.2460912 0.010801527 -0.06769125
0.13734078 -0.086805746 0.33718294 0.056020685 0.16432942 -0.31610307 0.71738094 0.6825425
-0.31424844 0.20563427 0.009635482 0.4878822 -0.06356318 -0.82425076 -0.026463464 -0.13518892
-0.013893547 -0.45058793 -0.50042844 0.09647707 -0.25733587 0.41470885 -0.22501892 -0.3671905
-0.31119427 0.035312712 0.02762449 0.024990743 -0.36990863 0.9833214 -0.7741152 0.6649025
-0.09753236 0.43753055 0.57595825 -0.42801443 0.029888533 -0.21963315 0.39441317 0.465149
0.0810291 -0.0636001 -0.14772995 0.4333241 -0.020018505 0.1432303 -0.0010506532 0.1467465
0.73939615 0.047830522 -0.1902234 0.25818345 0.17102651 0.17441757 0.34625158 -0.048169035
0.42133528 0.12870887 -0.16964777 0.062942214 -0.29400554 -0.033401515 0.056024566 0.7968508
0.0326998 -0.10940336 0.6675957 -0.86724997 -0.002480858 0.3555823 -0.067409016 -0.21993545
0.034237478 -0.04949126 -0.43321332 -0.7501905 -0.17690194 -0.07100177 0.7616813 -0.31204185
0.019617736 -0.031431507 -0.3815576 -0.13538355 -0.056852415 -0.1445093 0.9343497 0.10732781
0.12233465 -0.35395098 -0.875929 0.601074 0.37534276 -0.07170056 -0.7757213 0.99616545
-0.054885976 -0.7589074 -0.4766424 0.8019618 0.7717565 0.046391606 0.21663772 0.6840626
0.07833471 -0.57618475 -0.17281392 -0.5053766 0.34512916 0.08592285 -0.08150476 0.07723981
-0.028952515 0.16703159 0.19143766 0.47851363 0.14869386 -0.069854535 0.21052718 -0.51153904
-0.06924946 0.37211293 -0.14551269 -0.5261228 -0.04308119 -0.42158952 0.85216403 -0.12542447
0.54209197 -0.6867394 0.29075935 0.03687565 0.826325 0.07060145 0.15921228 -0.69338334
-0.65773505 0.014054482 0.80720466 0.059605356 -0.7283113 -0.7188487 -0.0014354348 -0.045174073
-0.5003959 -0.048311297 -0.1153018 0.044594973 0.18328089 0.43463022 0.18175524 -0.032712247
0.23990075 -0.3796025 -0.23752628 0.04251602 -0.21231855 0.0034484463 -0.030203603 -0.02354062
-0.17409323 0.023111511 -0.07456869 -0.14830467 0.2949049 0.07608851 -0.2527555 0.58678454
-0.24034816 -0.24375953 0.31291282 0.07466725 0.027024355 0.42828918 -0.1553759 0.10834158
0.31392163 0.2808221 0.44212687 0.6956804 -0.5487098 0.41691232 0.4978098 -0.43156275
-0.12652828 0.5689525 -0.35456923 -0.12416793 -0.6171153 0.3822195 0.058531832 -0.10006459
-0.78922564 0.040574677 -0.0056783226 -0.09705032 -0.30162418 -0.03466114 0.03847285 1.222383
0.39284208 0.016363941 0.04485487 0.7866479 0.14495297 -0.4748849 0.18160097 0.06666938
0.26532856 0.36776927 0.19776098 -0.51619416 0.38937932 -0.23048207 -0.40827754 0.12547497
0.34386194 -0.096306615 0.047326736 -0.008226688 -1.0765865 -0.7319202 -0.8730364 -0.5577326
-0.055452053 0.43153292 -0.20977308 0.68363917 0.07071276 0.039543673 -0.37001303 0.1823865
0.07604985 -0.125756 0.054948535 0.3609029 0.04730184 -0.14704135 0.4417983 -0.7240076
0.4413899 -0.054054182 -0.23454994 -0.020955143 0.6001046 -0.0067032366 0.76928157 0.23607986
00000000: 50b0 19be c858 513d 64fe 7abd e473 ddbe
00000010: 5f63 81bb 55ff 7bbe e3f8 303c b6a1 8abd
00000020: 10a3 0c3e 36c7 b1bd 3ea3 ac3e f275 653d
00000030: f945 283e 43d8 a1be 47a6 373f 1bbb 2e3f
00000040: 2ce5 a0be ca91 523e 24de 1d3c b2cb f93e
00000050: 6a2d 82bd 1902 53bf e8c9 d8bc f76e 0abe
00000060: c2a1 63bc 76b3 e6be 141c 00bf c595 c53d
00000070: 87c1 83be b854 d43e 5c6b 66be 6500 bcbe
00000080: db54 9fbe 10a4 103d c14c e23c 63b9 cc3c
00000090: aa64 bdbe f4ba 7b3f 6a2c 46bf 0d37 2a3f
000000a0: 0cbf c7bd 0104 e03e 0072 133f b524 dbbe
000000b0: ccd8 f43c 83e7 60be 86f0 c93e 0228 ee3e
000000c0: 96f2 a53d c540 82bd 8546 17be a8dc dd3e
000000d0: d9fd a3bc f7aa 123e 12b6 89ba b744 163e
000000e0: 1149 3d3f f0e9 433d ecc9 42be 9f30 843e
000000f0: 9321 2f3e 859a 323e e347 b13e e54c 45bd
00000100: 42b9 d73e 42cc 033e 25b8 2dbe d9e7 803d
00000110: e587 96be 07d0 08bd 047a 653d 6afe 4b3f
00000120: 3af0 053d de0e e0bd 8de7 2a3f 1804 5ebf
00000130: e495 22bb e20e b63e bd0d 8abd c236 61be
00000140: 993c 0c3d 59b7 4abd 23ce ddbe 7c0c 40bf
00000150: c825 35be 6069 91bd 8cfd 423f f3c3 9fbe
00000160: 60b5 a03c 53be 00bd 855b c3be fca1 0abe
00000170: 14de 68bd 3ffa 13be 8b31 6f3f afce db3d
00000180: 978a fa3d 1039 b5be e23c 60bf fcdf 193f
00000190: ed2c c03e bed7 92bd ac95 46bf b304 7f3f
000001a0: 1ed0 60bd c147 42bf 790a f4be 5e4d 4d3f
000001b0: d591 453f 2005 3e3d 47d6 5d3e ba1e 2f3f
000001c0: f36d a03d d880 13bf 22f6 30be 5c60 01bf
000001d0: c5b4 b03e 52f8 af3d f8eb a6bd e82f 9e3d
000001e0: d32d edbc 540a 2b3e 3c08 443e bdff f43e
000001f0: 3443 183e e50f 8fbd 7094 573e 39f4 02bf
00000200: a9d2 8dbd 9685 be3e 4701 15be fcaf 06bf
00000210: e775 30bd 95da d7be 6c27 5a3f 466f 00be
00000220: 8ac6 0a3f 27ce 2fbf 69de 943e ec0a 173d
00000230: 098a 533f 7e97 903d 8b08 233e 9281 31bf
00000240: 5361 28bf c544 663c f7a4 4e3f bf24 743d
00000250: 9c72 3abf 7806 38bf 3325 bcba 7308 39bd
00000260: f219 00bf 11e2 45bd 5a23 ecbd 38a9 363d
00000270: fcad 3b3e da87 de3e 0c1e 3a3e 47fd 05bd
00000280: 8ba8 753e 425b c2be 173a 73be 4725 2e3d
00000290: 096a 59be 54ff 613b 8c6d f7bc 42d8 c0bc
000002a0: 7f45 32be 5a54 bd3c 78b7 98bd 2edd 17be
000002b0: c6fd 963e 4bd4 9b3d 2b69 81be 8337 163f
000002c0: d41d 76be 199c 79be 1c36 a03e 25eb 983d
000002d0: 2e62 dd3c b848 db3e dc1a 1fbe 31e2 dd3d
000002e0: 56ba a03e eac7 8f3e 745e e23e 1c18 323f
000002f0: 3f78 0cbf 8875 d53e ede0 fe3e cbf5 dcbe
00000300: a190 01be dfa6 113f 198a b5be c14b febd
00000310: 45fb 1dbf 46b2 c33e 13bf 6f3d aaee ccbd
00000320: b10a 4abf a231 263d 3911 babb 51c2 c6bd
00000330: 7c6e 9abe d7f8 0dbd b595 1d3d 0c77 9c3f
00000340: 9922 c93e ac0d 863c bdb9 373d c261 493f
00000350: 8d6e 143e 1d24 f3be 9bf5 393e f589 883d
00000360: 25d9 873e 414c bc3e db81 4a3e 4d25 04bf
00000370: ba5c c73e 7e03 6cbe c109 d1be 837c 003e
00000380: ac0e b03e 673c c5bd aed9 413d 3bc9 06bc
00000390: 96cd 89bf 1f5f 3bbf 507f 5fbf 90c7 0ebf
000003a0: b121 63bd e2f1 dc3e c1ce 56be fa02 2f3f
000003b0: dad1 903d 8cf8 213d 5972 bdbe 87c3 3a3e
000003c0: 06c0 9b3d 2ec6 00be b711 613d 44c8 b83e
000003d0: 93bf 413d 0292 16be 6333 e23e 9058 39bf
000003e0: dbfd e13e eb67 5dbd dc2d 70be 1faa abbc
000003f0: 74a0 193f d3a6 dbbb a3ef 443f ebbe 713e

encoder.gru.weight_hh_l0 f4 [21, 7]
-0.15282647 0.31857106 0.23650122 -0.52190024 0.13961758 0.04038923 -0.06028886 0.60575956
-0.52253443 0.34019905 1.4657049 -0.2004004 -0.15753487 0.2587376 0.14404735 -1.6938382
0.94675833 0.7532074 -0.8775307 -0.3363164 0.77679133 0.25444996 -0.83541405 1.1908283
0.47208259 -0.23180993 -0.23253885 0.22327545 -0.8655173 0.32688636 -0.38625595 -0.59551996
0.10544052 0.38251 -0.25500014 -0.22673413 0.09196137 -0.1101227 -0.015029901 -0.8728162
-0.9622531 0.8543628 -0.69605666 0.42276257 -0.519695 -1.039892 0.27170187 0.4305361
-0.31996706 -0.7449709 0.9513383 -0.24164437 -2.6635885 0.30713058 0.03152686 -0.25074694
-0.49187946 1.5456713 -0.44261077 -1.3646673 0.055444855 0.020897703 -0.15695691 4.6077027
1.1766564 -0.45041245 1.8707734 0.71521467 0.23344341 -0.5708148 0.35427412 0.5383458
-0.4709213 -0.4440372 0.6216074 0.740936 -0.67247164 -3.0507643 0.052645583 -0.69884694
0.42349064 0.122819655 0.040022664 -0.16446589 0.08472796 0.34133908 -0.14447132 -0.36280715
0.6322045 0.6825042 -0.6143131 -4.0395465 -0.050213244 -0.7994527 0.4389958 -0.121504985
-0.2684886 -0.1007221 0.6370833 -0.6513312 1.3813562 0.324179 -0.30625865 -0.36277255
0.28988218 -0.60439634 0.755902 -0.51326966 -1.557705 0.29483882 0.23559624 -0.22126232
3.4341626 1.4457326 0.58998066 0.40036047 -0.28284824 -0.50305533 0.22620913 -0.077523425
-0.6031846 0.23626094 0.21863857 -0.924787 -0.9316006 0.85202724 -0.4860807 0.46445084
-0.50969744 -0.3436768 0.33972165 0.17563985 -0.31689322 -0.081664376 -0.265941 0.40045878
0.46098512 -0.3230606 -0.3505436 0.347567 0.80184984 -0.8070258 0.9436208 0.14299938
-0.26421583 -0.046766084 0.29833415
00000000: 8b7e 1cbe bf1b a33e 602d 723e 419b 05bf
00000010: e9f7 0e3e 2d6f 253d 74f1 76bd 0f13 1b3f
00000020: d1c4 05bf 922e ae3e 389c bb3f c335 4dbe
00000030: d250 21be 4179 843e 2681 133e b1cf d8bf
00000040: c15e 723f 33d2 403f daa5 60bf aa31 acbe
00000050: ccdb 463f 4447 823e b2dd 55bf 106d 983f
00000060: cfb4 f13e 955f 6dbe aa1e 6ebe 52a2 643e
00000070: 8b92 5dbf a65d a73e 57c3 c5be ff73 18bf
00000080: 33f1 d73d 5ad8 c33e 618f 82be fe2c 68be
00000090: 3e56 bc3d 0388 e1bd f93f 76bc e270 5fbf
000000a0: 3856 76bf 85b7 5a3f c530 32bf 5674 d83e
000000b0: bb0a 05bf 2e1b 85bf 821c 8b3e 3a6f dc3e
000000c0: b9d2 a3be 6ab6 3ebf e88a 733f 9f71 77be
000000d0: 3c78 2ac0 3840 9d3e 4f22 013d e761 80be
000000e0: a0d7 fbbe 8fd8 c53f e19d e2be 6bad aebf
000000f0: 251a 633d a931 ab3c 50b9 20be 4d72 9340
00000100: ad9c 963f 769c e6be 8175 ef3f 4f18 373f
00000110: ca0b 6f3e eb20 12bf 6b63 b53e 08d1 093f
00000120: 991c f1be d858 e3be aa21 1f3f fbad 3d3f
00000130: 1a27 2cbf b93f 43c0 e5a2 573d a2e7 32bf
00000140: c4d3 d83e df88 fb3d ceee 233d bf69 28be
00000150: da85 ad3d ffc3 ae3e 4af0 13be dcc1 b9be
00000160: 27d8 213f 98b8 2e3f a043 1dbf f743 81c0
00000170: 67ac 4dbd efa8 4cbf 0fc4 e03e 9bd7 f8bd
00000180: 5677 89be 6347 cebd e417 233f a4bd 26bf
00000190: 48d0 b03f cafa a53e efcd 9cbe 53bd b9be
000001a0: 706b 943e b8b9 1abf cb82 413f a465 03bf
000001b0: e162 c7bf 1df5 963e 2440 713e 9792 62be
000001c0: 52c9 5b40 c40d b93f f908 173f 0cfc cc3e
000001d0: 7cd1 90be 3cc8 00bf 5ea3 673e 9ac4 9ebd
000001e0: 4e6a 1abf 63ee 713e cae2 5f3e d7be 6cbf
000001f0: 607d 6ebf 751e 5a3f 92df f8be 80cc ed3e
00000200: 887b 02bf 68f6 afbe ffef ad3e efda 333e
00000210: d43f a2be a73f a7bd 6b29 88be ef08 cd3e
00000220: 3e06 ec3e 3368 a5be 737a b3be 4df4 b13e
00000230: 0846 4d3f 3e99 4ebf 2291 713f 6e6e 123e
00000240: 4c47 87be cb8d 3fbd 41bf 983e

encoder.gru.bias_ih_l0 f4 [21]
0.14581223 0.5170179 1.2092505 0.6157353 -0.48640952 0.21822575 -0.31965318 -0.9450123
-0.37097073 0.13101858 -0.010116037 -0.55318755 -0.22511178 -0.7555176 0.115887836 -0.8407775
0.42446133 0.15665138 1.2006391 0.8718703 -1.333733
00000000: cd4f 153e 495b 043f b8c8 9a3f d4a0 1d3f
00000010: ab0a f9be 9276 5f3e 95a9 a3be 53ec 71bf
00000020: e0ef bdbe bc29 063e bcbd 25bc b39d 0dbf
00000030: b483 66be 9a69 41bf 9a56 ed3d 323d 57bf
00000040: ff52 d93e 3869 203e 8bae 993f e432 5f3f
00000050: c3b7 aabf

encoder.gru.bias_hh_l0 f4 [21]
0.22582094 0.51349425 1.1625187 0.5713042 -0.45325366 0.218452 -0.38001156 -1.0751705
-0.2238998 0.12111183 0.0348263 -0.5157078 -0.30756798 -0.82336575 0.9076899 -0.7170789
0.46795303 0.34354508 -0.96945214 0.37428713 1.2341417
00000000: 9b3d 673e 5c74 033f 6acd 943f fe40 123f
00000010: dd10 e8be e2b1 5f3e e090 c2be 309f 89bf
00000020: fd45 65be 7b09 f83d 06a6 0e3d 6d05 04bf
00000030: 8d79 9dbe 19c8 52bf 5e5e 683f 7c92 37bf
00000040: 8a97 ef3e 24e5 af3e 042e 78bf 90a2 bf3e
00000050: 5bf8 9d3f

encoder.gru.weight_ih_l0_reverse f4 [21, 500]
-0.0135437995 0.10027152 0.02972303 0.356138 0.027912596 -0.12798585 -0.069146305 0.08828444
0.5445406 0.06764907 0.08489556 -0.06427166 0.015353678 0.13776883 0.5830394 0.24980488
0.17307456 0.37537363 -0.07728855 0.46982828 -0.039914664 0.78024966 0.06641811 -0.041812588
-0.04245101 0.107731685 0.3634619 -0.04689453 -0.07767728 0.2543501 0.55557096 0.07650996
0.08452557 -0.038814284 0.03555315 0.14227736 0.43486187 0.4725307 0.49843752 0.0012449116
-0.021381916 0.7508304 0.32281393 0.37239558 0.05337889 0.15329781 0.3000066 0.5242303
0.02772182 0.2282647 0.02796792 0.6736526 0.30648962 0.21614881 -0.045442324 -0.05255836
0.26742113 0.19503154 0.32237986 0.24130182 0.13571957 0.1582326 0.36064368 0.15941428
0.15428457 0.17674711 0.7227083 -0.02766548 -0.04390816 0.051313013 0.05364294 -0.032493297
0.0063449237 0.32271722 0.11275633 0.1492145 0.07503084 0.003123401 0.074243575 0.06562955
-0.016606363 0.20324618 0.18134934 0.43727258 0.53327346 0.023610894 0.14309968 0.35114405
0.056696896 0.28780046 -0.035894237 0.16555315 0.50015444 0.047740817 0.24346443 0.029608365
0.6354396 0.3712437 0.29528764 0.07612458 0.35421994 0.47192588 0.5748888 0.5201519
0.2212545 0.58347493 0.13586569 0.61404216 0.53959113 0.47177613 0.046131756 0.17073342
-0.045742024 -0.048308086 0.07287093 -0.09681314 0.3126604 -0.036454443 0.16306394 0.1489978
-0.030170731 0.13725768 0.4487087 0.44527856 0.10788765 -0.04514908 0.09682636 0.15681817
0.03104228 0.07788366 0.26903364 0.022016684 0.07609565 0.23246734 0.4382637 0.24472103
0.048082776 0.08711915 0.39010996 0.12782589 0.49780226 0.4499313 0.10273477 1.0888793
0.5992063 -0.13293903 0.43967062 0.030707102 0.4506671 0.3845013 -0.053548854 0.057341646
0.124139555 0.055174902 0.3154486 -0.0756131 0.6767818 0.16434811 -0.012120119 -0.036049757
0.20660695 0.44374263 0.47022566 0.08106832 0.12420057 -0.0020865824 0.6032291 0.47213125
0.2963601 -0.04442417 0.017005868 0.5172697 0.08364678 0.05124803 0.2548333 0.22643675
0.23324901 0.34871972 0.1996483 0.07400223 0.01968437 0.40991616 -0.19046964 -0.13454685
0.58653903 0.50455195 0.53933144 1.1720793 0.31981164 0.14470622 0.19253181 -0.105358474
0.12362626 0.5004204 0.36024985 0.10624817 0.1408952 0.4318393 -0.04297992 0.18229271
0.38784695 -0.06391844 0.025721291 0.2436326 0.5486939 0.28678462 0.02458222 0.3656585
0.21154898 0.3681931 0.15835315 0.7739341 0.10455016 0.026269026 0.41893438 0.18609843
0.2305327 0.13519673 0.106217146 0.279388 0.25010258 0.68680227 0.56784785 0.30075943
0.11273892 -0.028793532 -0.055345193 0.12313887 1.4204379 0.4778924 0.21429601 0.11575681
0.00228145 0.30429265 0.10034442 -0.06358792 -0.011470034 0.011555392 0.649992 0.13901947
0.062160533 -0.053542428 -0.025296643 0.08516658 0.014372682 -0.02840235 0.050006654 -0.04290148
0.35218623 0.0144382315 0.3958547 0.051582307 0.5471379 0.021804819 -0.007971678 0.22365692
00000000: d0e6 5dbc 285b cd3d b67d f33c b857 b63e
00000010: f5a8 e43c b90e 03be 949c 8dbd 79ce b43d
00000020: 0367 0b3f 988b 8a3d b9dd ad3d dca0 83bd
00000030: fe8d 7b3c 4613 0d3e 1242 153f dacc 7f3e
00000040: 753a 313e f930 c03e 7649 9ebd 558d f03e
00000050: 8f7d 23bd 71be 473f 3806 883d ad43 2bbd
00000060: 1ce1 2dbd 6ea2 dc3d ae17 ba3e 7b14 40bd
00000070: 4415 9fbd 2d3a 823e e639 0e3f 41b1 9c3d
00000080: be1b ad3d bafb 1ebd 2ea0 113d 28b1 113e
00000090: 37a6 de3e 8bef f13e 3433 ff3e 4d2c a33a
000000a0: 2129 afbc 6c36 403f de47 a53e a2aa be3e
000000b0: d3a3 5a3d 1afa 1c3e 779a 993e f533 063f
000000c0: df18 e33c 39be 693e fb1c e53c 7f74 2c3f
000000d0: 35ec 9c3e 1d56 5d3e bb21 3abd 6f47 57bd
000000e0: 6ceb 883e 59b6 473e f90e a53e d317 773e
000000f0: 12fa 0a3e ba07 223e 4aa6 b83e 7f3d 233e
00000100: c6fc 1d3e 32fd 343e 6903 393f b7a2 e2bc
00000110: 0bd9 33bd 982d 523d b3b8 5b3d b117 05bd
00000120: 14e9 cf3b 313b a53e caec e63d b0cb 183e
00000130: c5a9 993d f9b1 4c3b 040d 983d c968 863d
00000140: 110a 88bc c41f 503e a4b3 393e 31e2 df3e
00000150: 9c84 083f a26b c13c b988 123e 27c9 b33e
00000160: 013b 683d 955a 933e d605 13bd c486 293e
00000170: 1f0a 003f e08b 433d bd4e 793e 3e8d f23c
00000180: 2bac 223f a713 be3e f12f 973e 34e7 9b3d
00000190: 515c b53e 45a0 f13e ea2b 133f ad28 053f
000001a0: 8a90 623e 9d5e 153f 6020 0b3e de31 1d3f
000001b0: a522 0a3f a48c f13e a7f4 3c3d bed4 2e3e
000001c0: fd5b 3bbd b3de 45bd 5b3d 953d f845 c6bd
000001d0: 0615 a03e 4151 15bd 3cfa 263e e192 183e
000001e0: 9c28 f7bc 478d 0c3e 26bd e53e 8dfb e33e
000001f0: 33f4 dc3d 3eee 38bd e64c c63d f194 203e
00000200: 614c fe3c 7881 9f3d c7be 893e 555c b43c
00000210: 09d8 9b3d eb0b 6e3e 1a64 e03e 2698 7a3e
00000220: 72f2 443d 866b b23d 7ebc c73e cae4 023e
00000230: f0df fe3e 655d e63e 9b66 d23d 6660 8b3f
00000240: 9665 193f 2b21 08be 821c e13e 768d fb3c
00000250: d7bd e63e 5bdd c43e 0b56 5bbd 13df 6a3d
00000260: e13c fe3d 14ff 613d 7b82 a13e 0adb 9abd
00000270: 9241 2d3f df4a 283e 7793 46bc e9a8 13bd
00000280: c690 533e 3c32 e33e 6bc1 f03e 2607 a63d
00000290: de5c fe3d 0bbf 08bb 396d 1a3f 30bb f13e
000002a0: 83bc 973e 1ef6 35bd e44f 8b3c c96b 043f
000002b0: 014f ab3d 74e9 513d 8379 823e 09df 673e
000002c0: d4d8 6e3e 648b b23e 9b70 4c3e 7b8e 973d
000002d0: 1e41 a13c 88e0 d13e 790a 43be a6c6 09be
000002e0: 6c27 163f 512a 013f a011 0a3f b206 963f
000002f0: 5abe a33e de2d 143e 0f27 453e 2fc6 d7bd
00000300: c42f fd3d 8d1b 003f ab72 b83e a498 d93d
00000310: d546 103e 0a1a dd3e b60b 30bd f1aa 3a3e
00000320: e093 c63e ace7 82bd 75b5 d23c d37a 793e
00000330: 3477 0c3f 6fd5 923e a760 c93c 9737 bb3e
00000340: 4ca0 583e ce83 bc3e 5427 223e 8c20 463f
00000350: 651e d63d 2432 d73c 917e d63e 9690 3e3e
00000360: c410 6c3e 0371 0a3e 6088 d93d f20b 8f3e
00000370: 720d 803e 46d2 2f3f 7a5e 113f 24fd 993e
00000380: aae3 e63d 6ae0 ebbc a4b1 62bd 3b30 fc3d
00000390: e9d0 b53f 50ae f43e 6a70 5b3e e811 ed3d
000003a0: 6184 153b 3fcc 9b3e 6081 cd3d 623a 82bd
000003b0: cfec 3bbc d452 3d3c e065 263f 1f5b 0e3e
000003c0: 0b9c 7e3d 4e4f 5bbd e83a cfbc d16b ae3d
000003d0: 667b 6b3c 0cac e8bc c7d3 4c3d 76b9 2fbd
000003e0: c151 b43e 558e 6c3c 78ad ca3e f847 533d
000003f0: 3b11 0c3f 05a0 b23c a49b 02bc 5206 653e

encoder.gru.weight_hh_l0_reverse f4 [21, 7]
1.0948524 -0.6494259 1.1449759 1.7261882 -0.57457376 -0.8139427 -0.2307809 -0.7363158
0.63918114 -0.34351704 -0.46372426 -0.32149115 0.53850764 0.78893065 0.8890859 -1.1434387
3.5721574 1.0832969 -0.50764936 -1.1981524 0.30623153 1.4505093 -0.48183343 1.553889
1.6755534 -1.353252 -0.4123104 0.18502745 0.3517072 -0.022302773 -0.27179256 0.16390033
-0.59387857 -0.07224273 0.35572207 -0.5307694 0.9004076 0.35788837 -0.49081752 0.22859749
0.86759526 -0.06661635 -0.763435 0.4026842 -0.23224422 -0.501649 0.07649883 0.42768466
0.5667872 -2.2071018 0.4494314 -2.1706512 -2.1709378 3.3228889 0.48902094 -1.3114104
-0.39261195 1.2937518 0.37224457 -0.24934205 0.104433164 1.2977017 0.48021483 -2.96412
-1.2989984 -2.455858 -2.363667 -0.14547372 -1.1123667 2.2755218 -1.2304316 0.23039706
-1.6999578 -1.8935518 2.494937 0.29811642 -1.4496926 -1.5123992 -0.86040145 -1.4380004
-1.4829232 1.5220232 -0.5142841 -0.4946874 -0.014108343 2.7023292 -0.6285752 0.22854495
1.5427594 1.6917641 -1.2404126 -1.492021 0.685453 -1.2420902 -1.8421991 1.4874314
0.88138354 -1.1490386 1.2770029 -0.56310177 1.1163179 1.638037 -0.61075366 -0.754138
0.0399882 -0.81353956 -0.14520517 -0.77531266 -0.96618783 0.42524466 0.12996936 -0.17664924
1.063038 0.04573947 0.67551017 1.3189833 1.1680038 -0.19751656 -1.4907477 1.3659453
-0.54305476 1.3484323 1.6857141 -0.8380916 -0.6089373 0.513583 0.68003863 0.041947365
-0.0028549624 0.46196634 -0.36072773 0.1356051 -0.10998133 0.47410917 1.5301135 0.06606831
0.44353634 1.1444337 1.3762634 -1.5159473 0.6247101 -0.16034256 0.7275978 0.80087566
-0.071216986 -0.21149853 -0.037032936
00000000: 2024 8c3f c740 26bf 928e 923f bcf3 dc3f
00000010: 4417 13bf 8c5e 50bf d451 6cbe 317f 3cbf
00000020: 60a1 233f 77e1 afbe 446d edbe 7d9a a4be
00000030: a3db 093f 5cf7 493f 229b 633f 335c 92bf
00000040: 3a9e 6440 79a9 8a3f 4ff5 01bf 0f5d 99bf
00000050: 61ca 9c3e 4aaa b93f dfb2 f6be d6e5 c63f
00000060: 8978 d63f 5d37 adbf 591a d3be d677 3d3e
00000070: f712 b43e 4eb4 b6bc 6528 8bbe 7dd5 273e
00000080: 6d08 18bf fff3 93bd 3421 b63e 81e0 07bf
00000090: 1d81 663f 253d b73e 6f4c fbbe 7615 6a3e
000000a0: b91a 5e3f 276e 88bd 7a70 43bf a02c ce3e
000000b0: 6ed1 6dbe 126c 00bf 6bab 9c3d 7cf9 da3e
000000c0: f718 113f 2841 0dc0 df1b e63e f3eb 0ac0
000000d0: a5f0 0ac0 36aa 5440 f460 fa3e 4cdc a7bf
000000e0: 6f04 c9be a999 a53f d796 be3e 8653 7fbe
000000f0: 0ee1 d53d 171b a63f b8de f53e 24b4 3dc0
00000100: 9445 a6bf c72c 1dc0 5246 17c0 10f7 14be
00000110: 0862 8ebf 26a2 1140 c87e 9dbf 35ed 6b3e
00000120: 3898 d9bf e85f f2bf 0cad 1f40 b7a2 983e
00000130: 878f b9bf 4c96 c1bf 4543 5cbf 6610 b8bf
00000140: 6dd0 bdbf a8d1 c23f 1fa8 03bf ab47 fdbe
00000150: ae26 67bc f6f2 2c40 4eea 20bf b007 6a3e
00000160: 2479 c53f ba8b d83f d7c5 9ebf 8bfa bebf
00000170: d979 2f3f d0fc 9ebf 2ecd ebbf 2764 be3f
00000180: 5aa2 613f b213 93bf d574 a33f 7027 10bf
00000190: 81e3 8e3f 32ab d13f 5a5a 1cbf 300f 41bf
000001a0: abca 233d 2144 50bf aab0 14be e47a 46bf
000001b0: 1658 77bf abb9 d93e b016 053e 8ae3 34be
000001c0: a111 883f 4f59 3b3d 3cee 2c3f 72d4 a83f
000001d0: 2681 953f c841 4abe d2d0 bebf 4cd7 ae3f
000001e0: a305 0bbf 6e99 ac3f 7bc5 d73f 2c8d 56bf
000001f0: 51e3 1bbf 2d7a 033f 0317 2e3f 00d1 2b3d
00000200: 521a 3bbb da86 ec3e 4eb1 b8be 10dc 0a3e
00000210: e43d e1bd 70be f23e c2da c33f d24e 873d
00000220: 3217 e33e ce7c 923f 6629 b03f 900a c2bf
00000230: 00ed 1f3f d730 24be d943 3a3f 3006 4d3f
00000240: 36da 91bd 1293 58be d9af 17bd

encoder.gru.bias_ih_l0_reverse f4 [21]
1.0288706 -0.7993003 -0.051638756 0.84403217 -0.2984002 -0.73669654 -1.1524268 0.35654378
-1.2903194 0.04091545 0.9500627 0.044739895 -0.50086 -1.0256827 0.78863394 1.6038303
-0.14968666 0.5400708 1.0617279 1.7002755 -1.859713
00000000: 08b2 833f f29e 4cbf 2983 53bd 7e12 583f
00000010: e9c7 98be 2598 3cbf b982 93bf e88c b63e
00000020: 3029 a5bf f596 273d 4f37 733f 2e41 373d
00000030: 5c38 00bf 9249 83bf eae3 493f 504a cd3f
00000040: 7647 19be 1442 0a3f b3e6 873f a1a2 d93f
00000050: 130b eebf

encoder.gru.bias_hh_l0_reverse f4 [21]
0.9774497 -0.69701815 -0.025487276 0.80476755 -0.25285938 -0.65691453 -1.0580873 0.5104161
-1.2793223 0.073816635 0.94229436 0.04328229 -0.49905264 -1.057993 0.7466698 -1.0617888
-0.110984355 0.5615227 0.52006984 -0.54063475 1.0849451
00000000: 253a 7a3f c86f 32bf b1ca d0bc 3f05 4e3f
00000010: c976 81be 8d2b 28bf 686f 87bf a1aa 023f
00000020: d5c0 a3bf 2d2d 973d 343a 713f c548 313d
00000030: d483 ffbe 516c 87bf c125 3f3f b2e8 87bf
00000040: c44b e3bd f4bf 0f3f 4c23 053f 0a67 0abf
00000050: 7bdf 8a3f

encoder.fc_hidden.weight f4 [7, 14]
0.0099115465 0.2548043 0.03457975 -0.741208 0.19390944 0.26865962 -0.1690796 -0.5008379
0.0916369 0.4730078 -0.60557103 -0.100360185 0.09245992 0.32198313 -0.12648095 0.39772516
-0.12228847 0.041281454 0.16905084 0.5292162 -0.40266564 -0.6265449 0.15875405 -0.33023447
-0.720934 -0.21031472 0.19173148 0.04111682 -0.4943467 0.42888734 -0.4988757 -0.43917266
0.6770902 0.5910707 -0.58574086 -0.50498927 0.3904826 -0.55178356 -0.78493685 0.32477704
0.510086 -0.20562941 0.1889751 0.037735943 0.25628358 0.15919633 -0.1769797 -0.027613414
0.012459856 -0.48070937 -0.14322288 -1.5924389 -0.3365963 0.01667899 -0.17998411 0.33744767
0.082110256 -0.3635205 0.18853615 0.06795527 -0.3606336 -0.6670735 0.60737646 0.49918938
-0.3510995 0.5866308 0.7314373 0.4232323 -0.25269672 0.5453696 -0.3244815 -0.33613327
-0.26457173 1.1319572 0.23719318 0.053715706 -0.113815285 0.53523755 0.090215385 0.38978857
0.97514933 0.32863638 0.15435407 0.044406943 -0.1423058 0.101450406 -0.1849854 -0.17465426
0.21354887 0.53491694 -0.48047182 -0.12321111 0.5509864 -0.081029445 -0.43183097 -0.043961473
0.53768104 -0.2654092
00000000: 0a64 223c b675 823e 7fa3 0d3d cfbf 3dbf
00000010: 3290 463e c18d 893e 3423 2dbe ea36 00bf
00000020: 21ac bb3d 142e f23e b406 1bbf a489 cdbd
00000030: a05b bd3d f9da a43e 3984 01be a2a2 cb3e
00000040: 6172 fabd be16 293d aa1b 2d3e b67a 073f
00000050: 312a cebe 3f65 20bf 6c90 223e 7e14 a9be
00000060: 218f 38bf be5c 57be 4255 443e 1c6a 283d
00000070: 031b fdbe 1f97 db3e a36c ffbe 3ddb e0be
00000080: c955 2d3f 6950 173f 1df3 15bf fa46 01bf
00000090: 56ed c73e b041 0dbf 9ff1 48bf 2d49 a63e
000000a0: ff94 023f 8490 52be b082 413e 0191 1a3d
000000b0: 9a37 833e 5d04 233e 2b3a 35be 8735 e2bc
000000c0: 6d24 4c3c 8a1f f6be 05a9 12be 0ad5 cbbf
000000d0: 5a56 acbe 61a2 883c c14d 38be f1c5 ac3e
000000e0: 6c29 a83d 5c1f babe 9f0f 413e 222c 8b3d
000000f0: f8a4 b8be 54c5 2abf 067d 1b3f c095 ff3e
00000100: 50c3 b3be 702d 163f 7a3f 3b3f e7b1 d83e
00000110: 7761 81be 589d 0b3f 7022 a6be a919 acbe
00000120: f275 87be f9e3 903f c5e2 723e 0005 5c3d
00000130: fd17 e9bd 5405 093f d8c2 b83d 5e92 c73e
00000140: 63a3 793f 0743 a83e fe0e 1e3e 0ee4 353d
00000150: 9db8 11be 3bc5 cf3d d06c 3dbe 91d8 32be
00000160: 8eac 5a3e 51f0 083f 6700 f6be 1b56 fcbd
00000170: 720d 0d3f c4f2 a5bd f318 ddbe f210 34bd
00000180: 77a5 093f b7e3 87be

encoder.fc_hidden.bias f4 [7]
-0.059690814 -0.0027108158 -0.55935013 0.22292498 0.061114065 -0.2760106 -0.17763327
00000000: 5b7e 74bd f1a7 31bb 9231 0fbf 7246 643e
00000010: be52 7a3d 4351 8dbe 7fe5 35be

decoder.attention.attn.weight f4 [7, 21]
-2.3085535 -1.484063 0.13917512 -0.6581549 2.2546132 4.2509723 -0.8111553 0.056634765
0.9765854 0.9810121 0.88718224 0.46280435 0.23099478 -0.5117112 -0.010281496 0.6356254
-0.77593315 -0.17486645 0.2107362 0.14869116 -0.84840155 -2.9370646 -1.9152335 -0.095939465
-1.1525639 0.43056038 2.8512425 -1.0210413 1.3390626 1.1902041 -1.0163219 1.6392361
0.011892024 0.49283326 -0.13025331 -0.45791593 0.13632563 -0.4100595 -0.5787602 0.8214341
0.056779627 -0.69130373 1.7421436 0.9545767 0.49031392 -0.39201048 -1.0150201 -2.4053419
1.3720803 -0.8358832 -1.44607 -0.7288186 -1.015825 0.113018796 0.14356358 0.024393117
-0.22752988 -0.07813187 1.0461717 -0.094972365 -1.3353919 0.36107633 1.7186173 -2.9282222
-1.0955887 0.12200035 -0.68046165 -0.021992777 2.6380239 -0.00963185 2.2894742 1.9617157
0.503877 1.9820275 0.19647424 0.26324645 -0.13294765 -0.1663072 0.38365328 -0.25814706
-0.48973075 0.08815531 0.19461094 -0.09316974 2.793335 1.0811359 -0.15764433 0.4743421
-0.09025051 -2.8712513 0.6631564 -2.2691205 -1.3894998 -0.15650591 -2.1253448 -0.07505932
-0.35983333 0.31244853 0.47224545 -0.30916741 0.9127526 0.7006249 0.14481087 -0.5490211
0.13029525 2.0016632 1.0848753 -0.04885654 -0.45018652 -0.008606827 -2.8643737 1.6574224
-2.5567615 -0.46320397 -0.6621941 -1.1809744 -0.19858995 -0.3077813 0.2870648 1.1263272
-0.2145049 1.9117452 1.4066238 0.37368065 0.023540748 -0.2317541 1.4036939 1.8875216
0.25523993 -0.2724223 -1.4623489 -1.7140269 0.9439427 -1.0394697 -1.1689558 -0.928057
-0.7477497 -0.20473424 0.03470175 0.35365674 -0.5034992 -0.46270072 0.8843341 -0.74598616
-1.1599576 0.52552974 1.4828176
00000000: 57bf 13c0 c7f5 bdbf ec83 0e3e d77c 28bf
00000010: 954b 1040 f707 8840 e0a7 4fbf dbf9 673d
00000020: 8001 7a3f 9c23 7b3f 601e 633f b1f4 ec3e
00000030: e589 6c3e 81ff 02bf b873 28bc 59b8 223f
00000040: 8ea3 46bf 3110 33be 3bcb 573e 7f42 183e
00000050: d830 59bf def8 3bc0 5f26 f5bf e97b c4bd
00000060: 3787 93bf 6972 dc3e c27a 3640 7bb1 82bf
00000070: 6766 ab3f 9c58 983f d616 82bf 7dd2 d13f
00000080: c4d6 423c a454 fc3e 2061 05be f573 eabe
00000090: f298 0b3e 52f3 d1be a129 14bf 8149 523f
000000a0: c191 683d 48f9 30bf 90fe de3f 235f 743f
000000b0: 6d0a fb3e 99b5 c8be 2eec 81bf 1ff1 19c0
000000c0: 54a0 af3f 71fc 55bf d218 b9bf db93 3abf
000000d0: 8e06 82bf 6676 e73d 5502 133e 13d4 c73c
000000e0: 98fd 68be 9a03 a0bd f4e8 853f df80 c2bd
000000f0: 1fee aabf ffde b83e a7fb db3f fe67 3bc0
00000100: 403c 8cbf 52db f93d bc32 2ebf 322a b4bc
00000110: 62d5 2840 e8ce 1dbc bf86 1240 8019 fb3f
00000120: 15fe 003f 14b3 fd3f 8b30 493e 3dc8 863e
00000130: 6e23 08be 6f4c 2abe 346e c43e da2b 84be
00000140: fdbd fabe c58a b43d 1748 473e c7cf bebd
00000150: 00c6 3240 a962 8a3f 846d 21be f8dc f23e
00000160: 42d5 b8bd 95c2 37c0 9ec4 293f 4539 11c0
00000170: 21db b1bf 1643 20be a605 08c0 b3b8 99bd
00000180: 133c b8be 41f9 9f3e 28ca f13e 314b 9ebe
00000190: 28aa 693f 275c 333f 4d49 143e a68c 0cbf
000001a0: 1e6c 053e 401b 0040 32dd 8a3f cc1d 48bd
000001b0: d97e e6be a603 0dbc e651 37c0 6b26 d43f
000001c0: fba1 23c0 1229 edbe 8d85 29bf 2b2a 97bf
000001d0: 2a5b 4bbe 8395 9dbe 28fa 923e 7d2b 903f
000001e0: 2ca7 5bbe 11b4 f43f 400c b43f 1253 bf3e
000001f0: 87d8 c03c f250 6dbe 3eac b33f 4f9a f13f
00000200: cfae 823e f07a 8bbe 402e bbbf 3c65 dbbf
00000210: 3ba6 713f 580d 85bf 58a0 95bf 2595 6dbf
00000220: 866c 3fbf daa5 51be 6c23 0e3d 7f12 b53e
00000230: 53e5 00bf 1ce7 ecbe b863 623f f3f8 3ebf
00000240: 7e79 94bf 1e89 063f f8cc bd3f

decoder.attention.attn.bias f4 [7]
-0.27631348 -0.15078808 -0.2660649 -0.34703577 0.22409698 0.2045511 -0.0680213
00000000: f678 8dbe 3168 1abe a939 88be acae b1be
00000010: ae79 653e d875 513e c04e 8bbd

decoder.attention.v.weight f4 [1, 7]
-3.318129 -2.293053 0.711944 -2.2082927 2.5076556 1.7367269 0.92523944
00000000: 3a5c 54c0 61c1 12c0 f641 363f ab54 0dc0
00000010: 6e7d 2040 114d de3f 7edc 6c3f

decoder.embed.weight f4 [8, 8]
0.032227352 -0.060281973 -0.022711286 0.016164178 -0.039327163 -0.06936431 0.022377986 0.075938836
0.46359652 0.44231835 -0.10992922 -0.43577936 0.10861983 -0.37800136 -0.32385775 0.15062737
-0.7361161 -0.7504129 0.20833011 -0.18718861 -0.13333116 0.44523585 -0.051290102 -0.08972599
-0.076586574 -0.10655396 0.26146597 0.21962678 -0.2905806 0.09949948 0.1720975 -0.193201
-0.17645402 -0.2788092 -0.5175091 0.20131263 0.3473485 0.222165 0.20693442 0.36536297
-0.0042916406 -0.024799362 -0.17481743 -0.08140729 0.18923126 -0.10663525 -0.021653827 0.17933889
0.1799966 0.18624157 0.36490116 -0.27051067 -0.2673489 -0.21186435 -0.22068846 -0.27958488
0.25140682 0.2927575 -0.18918383 0.14915894 -0.02142929 -0.2800233 0.46786544 -0.31625006
00000000: d400 043d 3bea 76bd 050d babc bd6a 843c
00000010: 8515 21bd e00e 8ebd 0a52 b73c d285 9b3d
00000020: 865c ed3e 8d77 e23e 9222 e1bd 791e dfbe
00000030: 1374 de3d 6589 c1be afd0 a5be 103e 1a3e
00000040: 1b72 3cbf 0f1b 40bf 7d54 553e 5fae 3fbe
00000050: f787 08be f4f5 e33e 9215 52bd 43c2 b7bd
00000060: 6cd9 9cbd f638 dabd dede 853e d8e5 603e
00000070: fbc6 94be 62c6 cb3d 543a 303e 7cd6 45be
00000080: 5db0 34be 14c0 8ebe 7a7b 04bf e624 4e3e
00000090: aad7 b13e 397f 633e 9ee6 533e db10 bb3e
000000a0: e4a0 8cbb 0828 cbbc 5703 33be deb8 a6bd
000000b0: d7c5 413e 9563 dabd 5e63 b1bc 9da4 373e
000000c0: 0751 383e 1cb6 3e3e 53d4 ba3e 6080 8abe
000000d0: f4e1 88be f8f2 58be 28fc 61be c025 8fbe
000000e0: 65b8 803e 50e4 953e 68b9 41be 1fbd 183e
000000f0: 7a8c afbc 375f 8fbe 0f8c ef3e 87eb a1be

decoder.gru.weight_ih_l0 f4 [21, 22]
-0.55026215 -0.53222495 0.20293789 -0.025569756 0.09978615 0.48253912 0.12735692 0.11273613
0.31784087 -0.31356925 0.48113123 0.45954648 -0.516479 -0.30178854 0.38487977 0.17382054
-0.29380485 0.42334443 0.29834837 -0.07969076 -0.42402878 0.21646751 0.016039742 0.21318898
-0.2269987 -0.24897796 0.19149274 -0.6319512 -0.45338246 0.7348985 0.6745004 -1.0919938
0.41901645 0.59329545 0.5846096 0.523083 -0.556468 0.5809594 0.74327415 2.14902
0.6050724 1.5411614 0.4062385 -0.5603631 -0.15589504 -0.026079807 0.40116304 0.18761526
0.52577496 0.27032137 0.24319667 0.3119634 0.75538725 -0.98353857 0.7078584 0.71348906
-0.5659386 -0.77303416 0.6272698 0.714911 -0.6928155 0.78360415 0.6160355 -0.11784323
-0.65648955 0.46752694 -0.13008036 -0.19637996 -0.22991122 0.21621478 0.57185656 0.35690427
-0.19336933 0.5186577 0.96657985 -0.98213404 1.0123833 0.8076633 -0.91232425 -0.69569546
0.91174054 0.7861395 -0.9909068 0.67918926 0.9851315 -0.27040496 -0.8903144 -0.25575492
0.12442912 0.14110905 -0.42404938 -0.023669353 -0.06078238 -0.19647633 0.046229407 0.0067988737
0.17266785 -2.4433663 0.0622043 2.4600203 0.34554493 0.35383785 -0.3641831 -0.38976628
0.4542014 -0.32185102 -0.046575356 -0.86804956 0.34850496 1.8065219 -0.869885 -1.0168251
0.0667881 1.2966313 -0.3022894 1.1069349 0.4861131 -0.3282952 -0.046427023 -0.28394854
0.552515 -0.08362789 -1.4788164 -0.37534505 1.430363 -0.22519524 -1.2250355 -0.4434221
-0.51042545 -0.41270715 -1.0230453 1.0109149 0.24188533 -0.09474121 0.07044042 -0.030456109
-0.066392206 -0.18320273 0.28917506 0.34812468 1.4161096 0.11870683 2.7545424 2.9582286
-0.10206046 -0.50153005 0.11987534 -0.2649926 -0.01576474 -0.7269851 0.07724145 0.5911703
-1.9408907 -0.7137788 -0.017523667 -0.09157082 -0.06482001 0.14045855 0.024625309 0.102143995
0.23398454 -0.003906703 -0.20786914 -0.18715075 -0.62843955 0.86136264 0.046350677 0.2717559
-0.078575104 0.5963819 0.089355476 0.61537015 0.56265473 -0.22822964 0.59188 0.13859138
-0.17150533 0.026681118 -0.017513897 0.04929575 0.03259768 0.3141925 0.04364652 0.17597865
-1.7851045 -0.30018198 0.39075214 -0.089695476 -0.072765976 -1.0402668 0.049337782 0.35961008
-0.022165366 -0.3204412 0.77420086 -1.0952533 0.38968027 1.1014874 -0.16047262 0.018582227
0.6607243 -1.1586509 -0.02709741 0.21991259 -0.94379944 -0.17442907 0.10263572 -0.29154426
0.47965813 0.46257204 -0.25338215 -0.026573844 0.21613322 0.5435025 -0.18616438 0.14267892
0.710693 -0.24453406 -0.20651819 0.1430129 0.27514082 0.26429033 -0.13571735 -0.24999799
-0.099032246 -0.47373682 -0.3730998 -0.11628427 -0.9471813 -0.11877038 -0.7474013 -0.77318424
0.1016854 1.8644669 -0.09735212 0.43374512 0.19621947 2.0780365 -0.062101435 -0.54490066
0.7374331 0.000674427 0.017114496 0.013245702 -0.010020306 0.012042296 0.035016764 -0.031240234
-0.03542455 0.018594794 -0.48633367 -0.0063751806 -0.32274652 -0.55453265 0.35762507 0.43026787
00000000: fbdd 0cbf e53f 08bf f3ce 4f3e aa77 d1bc
00000010: ae5c cc3d 5e0f f73e da69 023e 33e2 e63d
00000020: 0abc a23e 268c a0be d556 f63e ad49 eb3e
00000030: f837 04bf 0784 9abe f60e c53e 03fe 313e
00000040: 976d 96be 9ac0 d83e 1ec1 983e e934 a3bd
00000050: 4d1a d9be a9a9 5d3e c765 833c 364e 5a3e
00000060: 5972 68be 14f4 7ebe ac16 443e 8ec7 21bf
00000070: bf21 e8be 4f22 3c3f 0fac 2c3f 74c6 8bbf
00000080: 5389 d63e 36e2 173f faa8 153f c4e8 053f
00000090: b074 0ebf c1b9 143f 3747 3e3f 8b89 0940
000000a0: 06e6 1a3f c744 c53f 7efe cf3e f573 0fbf
000000b0: f3a2 1fbe 52a5 d5bc 3e65 cd3e 371e 403e
000000c0: 3099 063f 9067 8a3e 8c08 793e abb9 9f3e
000000d0: 0f61 413f 2fc9 7bbf 3536 353f 38a7 363f
000000e0: 5ae1 10bf 91e5 45bf c194 203f 6804 373f
000000f0: 5b5c 31bf 489a 483f 81b4 1d3f cb57 f1bd
00000100: b30f 28bf b15f ef3e c933 05be d417 49be
00000110: d96d 6bbe 6867 5d3e 3165 123f 28bc b63e
00000120: 9c02 46be c0c6 043f c771 773f 236d 7bbf
00000130: c795 813f 06c3 4e3f 158e 69bf 1919 32bf
00000140: d467 693f 7040 493f 11ac 7dbf 59df 2d3f
00000150: 9431 7c3f 8572 8abe a5eb 63bf 4ff2 82be
00000160: b2d4 fe3d e47e 103e 001d d9be 3be6 c1bc
00000170: f2f6 78bd 1731 49be 0c5b 3d3d 16c9 de3b
00000180: d7cf 303e 1d60 1cc0 f0c9 7e3d f970 1d40
00000190: 44eb b03e 3c2a b53e 3576 babe 728f c7be
000001a0: 168d e83e a8c9 a4be cdc5 3ebd 7f38 5ebf
000001b0: 3e6f b23e 1c3c e73f c9b0 5ebf 5327 82bf
000001c0: 33c8 883d 04f8 a53f adc5 9abe 0bb0 8d3f
000001d0: d1e3 f83e 4f16 a8be 432a 3ebd b461 91be
000001e0: 9f71 0d3f 1945 abbd db49 bdbf 3a2d c0be
000001f0: 2316 b73f 9599 66be f7cd 9cbf 3908 e3be
00000200: 3eab 02bf 5a4e d3be 26f3 82bf a965 813f
00000210: cab0 773e ae07 c2bd 1143 903d 177f f9bc
00000220: a3f8 87bd 7f99 3bbe c10e 943e 663d b23e
00000230: 1443 b53f 911c f33d 6c4a 3040 9e53 3d40
00000240: 1305 d1bd 4664 00bf 3481 f53d 1cad 87be
00000250: 0e25 81bc b21b 3abf c430 9e3d f056 173f
00000260: 1b6f f8bf 35ba 36bf cb8d 8fbc 7b89 bbbd
00000270: 5ac0 84bd 5ed4 0f3e 04bb c93c df30 d13d
00000280: a599 6f3e cd03 80bb a6db 54be 72a4 3fbe
00000290: 6ae1 20bf 4382 5c3f 35da 3d3d 9723 8b3e
000002a0: fceb a0bd 7cac 183f 0100 b73d e688 1d3f
000002b0: 240a 103f 08b5 69be 7385 173f e6ea 0d3e
000002c0: 189f 2fbe 5c92 da3c 4e79 8fbc 57ea 493d
000002d0: 2585 053d d7dd a03e b1c6 323d bf33 343e
000002e0: 4e7e e4bf 74b1 99be aa10 c83e 43b2 b7bd
000002f0: 5406 95bd 7627 85bf 6a16 4a3d d01e b83e
00000300: 2494 b5bc de10 a4be 0732 463f 4331 8cbf
00000310: 2c84 c73e 8afd 8c3f ef52 24be c139 983c
00000320: 3a25 293f ac4e 94bf 63fb ddbc c430 613e
00000330: d79c 71bf 899d 32be ad32 d23d 4a45 95be
00000340: c095 f53e 3ed6 ec3e 4ebb 81be 64b1 d9bc
00000350: 0752 5d3e fb22 0b3f e0a1 3ebe 6c1a 123e
00000360: faef 353f 2367 7abe 8179 53be f971 123e
00000370: 42df 8c3e 1051 873e 7df9 0abe 79ff 7fbe
00000380: 6bd1 cabd a28d f2be f006 bfbe 7326 eebd
00000390: 797a 72bf e33d f3bd b155 3fbf 67ef 45bf
000003a0: 6f40 d03d daa6 ee3f 8c60 c7bd d713 de3e
000003b0: c2ed 483e 8dfe 0440 135e 7ebd 9c7e 0bbf
000003c0: 6ac8 3c3f 08cc 303a b333 8c3c 8004 593c
000003d0: 362c 24bc 0d4d 453c bd6d 0f3d 85eb ffbc
000003e0: 5519 11bd 1c54 983c ba00 f9be e4e6 d0bb
000003f0: 083f a5be daf5 0dbf a21a b73e 124c dc3e
