agl/models/autosave/g1-attn-AE-1-5-1-100-lr0.0008.pt (torch, 39888 bytes, 25 tensors)

encoder.embed.weight f4 [8, 8]
-0.07607188 0.07979206 -0.07950146 -0.016235065 -0.018783808 0.041131783 -0.049089544 -0.068326175
0.216996 -0.21109858 -0.14898336 0.18997318 -0.19714294 -0.17540856 -0.21207383 -0.21277493
0.23163648 -0.23540556 -0.2330617 0.20486288 -0.20449227 -0.21892236 -0.20345436 -0.23660631
0.0028615491 0.008284414 -4.2976506e-05 -0.0004356758 0.0016140892 -7.6162905e-06 0.0055190804 0.009241297
0.005161406 -0.00025183195 -0.006676013 0.0016793974 -0.0041461303 -0.0037175708 2.9200637e-05 0.0045692795
-0.026044436 0.018313695 0.010760686 -0.015154742 0.016904894 0.02180376 0.019541856 0.02190848
-0.8112367 0.7743611 0.7724838 -0.780008 0.74187523 0.8106651 0.7693546 0.81999457
0.20368469 -0.19275993 -0.23720686 0.19645952 -0.22912829 -0.23291022 -0.22096628 -0.27495337
00000000: 93cb 9bbd 056a a33d a9d1 a2bd 66ff 84bc
00000010: 80e0 99bc cd79 283d 1e12 49bd 98ee 8bbd
00000020: 3334 5e3e 3a2a 58be 188f 18be 5488 423e
00000030: d7df 49be 4d9e 33be e229 59be ace1 59be
00000040: 1d32 6d3e 280e 71be baa7 6ebe 93c7 513e
00000050: 6c66 51be 2f2d 60be 5756 50be ed48 72be
00000060: d488 3b3b 5abb 073c ac41 34b8 6b6b e4b9
00000070: d98f d33a 708f ffb6 67d9 b43b cf68 173c
00000080: 0321 a93b 5008 84b9 75c2 dabb 3a1f dc3a
00000090: 43dc 87bb 7da2 73bb e4f3 f437 e5b9 953b
000000a0: 245b d5bc 9a06 963c 974d 303c 984b 78bc
000000b0: 227c 8a3c cd9d b23c 3e16 a03c 6a79 b33c
000000c0: 35ad 4fbf 873c 463f 80c1 453f 9bae 47bf
000000d0: 89eb 3d3f bf87 4f3f 6cf4 443f 2aeb 513f
000000e0: b892 503e dc62 45be 5be6 72be af2c 493e
000000f0: 9ba0 6abe 0480 6ebe fc44 62be b0c6 8cbe

encoder.fc_one.weight f4 [100, 8]
-0.28626305 0.19222033 0.30115873 -0.22005738 0.2227807 0.21704964 0.19663729 0.21400025
-0.22895163 0.18789801 0.20390634 -0.17842409 0.19082767 0.21741988 0.22473195 0.14474504
-0.19720273 0.2610604 0.22085153 -0.24229108 0.2051569 0.25706175 0.18886052 0.16934724
-0.16460033 0.10586571 0.2202068 -0.31883135 0.18934897 0.14952782 0.24792327 0.22772029
-0.14899638 0.1291799 0.17778812 -0.17046782 0.1920793 0.18366152 0.14303654 0.15897533
-0.17856444 0.20180562 0.16313934 -0.21056804 0.17740074 0.23622335 0.20258784 0.16595162
-0.2748436 0.17559579 0.24313562 -0.18109132 0.22227585 0.27756366 0.19962606 0.15525238
-0.15648095 0.14174101 0.1739985 -0.23352425 0.16701984 0.26927367 0.17281243 0.14574389
0.004768524 -0.02497018 -0.046542715 0.11254135 -0.016489517 -0.07028811 -0.033040345 0.011278288
-0.2231962 0.21539024 0.22589962 -0.23264654 0.23427868 0.21269952 0.24026163 0.17917505
0.045175236 -0.06624611 -0.06020561 0.01819194 -0.061196472 -0.044646677 0.13012438 -0.012323778
-0.25673953 0.20679122 0.2249209 -0.22183976 0.23376381 0.23869953 0.19305041 0.20073223
-0.22121346 0.2314023 0.28406438 -0.19079807 0.13698745 0.21008419 0.1768189 0.12072674
-0.25822747 0.19051263 0.23091972 -0.22227335 0.3176408 0.21186091 0.23532234 0.15222079
-0.16685891 0.14876841 0.16709153 -0.15786481 0.16943502 0.13075721 0.124062255 0.12646659
-0.2329825 0.2246039 0.28518686 -0.33754548 0.31616503 0.22719577 0.29771927 0.283897
-0.22482394 0.16689487 0.1978344 -0.15420865 0.169797 0.15195988 0.18559144 0.28913552
-0.1992035 0.19791983 0.22737148 -0.1991028 0.2166393 0.20087169 0.18754442 0.1689614
-0.13168517 0.3908455 0.1723673 0.051061418 0.29466888 -0.02284801 0.32210776 0.1681512
-0.12042607 0.12566511 0.14446391 -0.1408777 0.14018169 0.15477863 0.15071872 0.16180807
-0.15385519 0.2597048 0.19129285 -0.17268376 0.010527016 -0.068419226 0.29349706 0.19094755
-0.18977335 0.22958858 0.21241735 -0.2354709 0.29435048 0.24991213 0.13841195 0.2682795
-0.18146671 0.14990258 0.19390263 -0.12817666 0.13933611 0.1280269 0.14620785 0.06794005
-0.18637294 0.19303708 0.15982012 -0.18301633 0.15956724 0.168624 0.11834543 0.08186813
-0.2020439 0.1966714 -0.02821675 -0.24941218 0.22487867 0.20725219 0.13995512 0.17844978
0.044738162 0.013075508 0.018753208 0.0009822351 0.0012226789 -0.048749976 -0.03469294 -0.05576272
-0.18016262 0.17375654 0.1626757 -0.20534144 0.16752227 0.20291579 0.18084697 0.16771093
-0.20843808 0.16774294 0.20471294 -0.24694811 0.22745717 0.16395009 0.16802418 0.17668186
-0.20514554 0.19633734 0.3138932 -0.2019137 0.24053931 0.3257733 0.21689017 0.13864958
-0.004910545 0.036739815 -0.078810126 0.06637066 -0.0669687 -0.018504484 0.15840279 0.020644158
-0.24776933 0.19078264 0.2626055 -0.22670117 0.25795117 0.2665016 0.13644068 0.22281954
-0.12653491 0.21443118 0.16173619 -0.17316362 0.17544658 0.16146101 0.22424094 0.14736103
00000000: 1291 92be 68d5 443e 7a31 9a3e b956 61be
00000010: a020 643e 4342 5e3e 495b 493e e222 5b3e
00000020: 4c72 6abe 5668 403e d3cc 503e ceb4 36be
00000030: 5468 433e 51a3 5e3e 2220 663e 0b38 143e
00000040: 83ef 49be b5a9 853e e726 623e 271b 78be
00000050: a714 523e 999d 833e a764 413e 5d69 2d3e
00000060: fd8c 28be 1fd0 d83d e47d 613e dd3d a3be
00000070: b2e4 413e d21d 193e 99df 7d3e 822f 693e
00000080: 8292 18be bc47 043e 170e 363e 1e8f 2ebe
00000090: 70b0 443e c411 3c3e 2c78 123e 6eca 223e
000000a0: 99d9 36be 22a6 4e3e 000e 273e 269f 57be
000000b0: 8aa8 353e 89e4 713e 3073 4f3e 39ef 293e
000000c0: 4db8 8cbe 62cf 333e 8bf8 783e 0170 39be
000000d0: 489c 633e d31c 8e3e c66a 4c3e 7bfa 1e3e
000000e0: 8b3c 20be 8e24 113e aa2c 323e fb20 6fbe
000000f0: 4007 2b3e 3dde 893e bef5 303e e33d 153e
00000100: 4741 9c3b 438e ccbc 93a3 3ebd 147c e63d
00000110: 0615 87bc 36f3 8fbd 5055 07bd 92c8 383c
00000120: 8b8d 64be 428f 5c3e 3b52 673e e53a 6ebe
00000130: c0e6 6f3e e7cd 593e 2507 763e aa79 373e
00000140: ab09 393d 0aac 87bd 289a 76bd 4307 953c
00000150: 27a9 7abd 6fdf 36bd 533f 053e ace9 49bc
00000160: 5d73 83be 14c1 533e aa51 663e f629 63be
00000170: c85f 6f3e a66d 743e 02af 453e c08c 4d3e
00000180: c885 62be b9f4 6c3e e370 913e 9260 43be
00000190: 7046 0c3e 4f20 573e 0410 353e 953f f73d
000001a0: 6436 84be be15 433e 3876 6c3e a09b 63be
000001b0: d1a1 a23e 11f2 583e 57f8 703e c4df 1b3e
000001c0: 10dd 2abe bf56 183e 0b1a 2b3e 50a7 21be
000001d0: 6080 2d3e 38e5 053e 5a14 fe3d 7580 013e
000001e0: f792 6ebe 91fe 653e 0304 923e c3d2 acbe
000001f0: 62e0 a13e 02a6 683e a96e 983e f35a 913e
00000200: 3f38 66be 7de6 2a3e 1a95 4a3e dfe8 1dbe
00000210: 44df 2d3e 5f9b 1b3e af0b 3e3e 9209 943e
00000220: 01fc 4bbe 7fab 4a3e 12d4 683e 9be1 4bbe
00000230: b1d6 5d3e 4fb1 4d3e a50b 403e 3804 2d3e
00000240: 7ad8 06be e71c c83e 0e81 303e c725 513d
00000250: d7de 963e c02b bbbc 4feb a43e d42f 2c3e
00000260: f2a1 f6bd 5bae 003e 59ee 133e 3e42 10be
00000270: ca8b 0f3e 4a7e 1e3e 0256 1a3e 04b1 253e
00000280: 378c 1dbe 07f8 843e 46e2 433e 03d4 30be
00000290: 8179 2c3c 611f 8cbd 3f45 963e c187 433e
000002a0: f253 42be 4519 6b3e ef83 593e 491f 71be
000002b0: 1bb5 963e f7e8 7f3e ddbb 0d3e ee5b 893e
000002c0: 69d2 39be 1080 193e 698e 463e be40 03be
000002d0: 20ae 0e3e 7c19 033e 83b7 153e 2724 8b3d
000002e0: 8cd8 3ebe 83ab 453e e3a7 233e a268 3bbe
000002f0: 9865 233e c5ab 2c3e 175f f23d 7aaa a73d
00000300: 99e4 4ebe 3a64 493e d026 e7bc e865 7fbe
00000310: 9846 663e eb39 543e 6550 0f3e 8abb 363e
00000320: 5d3f 373d a83a 563c 54a0 993c 57be 803a
00000330: 4c42 a03a 0eae 47bd 2f1a 0ebd 7367 64bd
00000340: 8d7c 38be 3ced 313e 7594 263e 0745 52be
00000350: f58a 2b3e 28c9 4f3e f32f 393e 6abc 2b3e
00000360: cb70 55be cec4 2b3e 45a0 513e f7df 7cbe
00000370: 88ea 683e 88e2 273e 880e 2c3e 17ec 343e
00000380: ac11 52be a80c 493e 9cb6 a03e 77c2 4ebe
00000390: f04f 763e c2cb a63e 7518 5e3e 28fa 0d3e
000003a0: a3e8 a0bb 7d7c 163d 3467 a1bd 57ed 873d
000003b0: e326 89bd b796 97bc 5734 223e f01d a93c
000003c0: 3eb7 7dbe 865c 433e 3a74 863e 5a24 68be
000003d0: 2d12 843e e672 883e 1bb7 0b3e ce2a 643e
000003e0: 5e92 01be d993 5b3e 2c9e 253e ce51 31be
000003f0: 45a8 333e 0956 253e 6b9f 653e cfe5 163e

encoder.fc_one.bias f4 [100]
0.07658381 0.042525463 0.07113769 0.03939289 0.046129797 0.0648988 0.024897197 0.06519057
-0.0032462133 0.086275764 -0.0028741842 0.077749185 0.056994196 0.057235327 0.027948063 0.05828803
0.050059803 0.07080906 -0.045312285 0.05072325 -0.049879834 0.05159039 0.030577566 0.040416077
-0.045462973 -0.08921298 0.06026893 0.09044392 0.018976424 -0.10366266 0.07055007 0.045962468
0.024902958 0.029926836 -0.082808435 0.060931273 0.078368686 0.026914153 0.033299994 -0.08976053
0.022379171 0.061131503 0.050342813 0.067889035 0.050014574 -0.07171223 -0.04736728 0.051462058
0.028521884 0.033096813 -0.076958746 0.05591457 0.039729428 -0.13864158 0.07010744 -0.10407463
0.060858835 -0.045855384 0.08213962 0.019008907 -0.08030315 0.027383767 0.043095745 0.079432845
0.044387266 0.020235736 -0.09322821 0.034598153 0.068833336 -0.08937634 -0.087854475 -0.06745176
0.06235526 0.045681015 0.033206567 0.06557771 -0.00015648223 -0.011928258 0.06747855 -0.003114889
0.013645682 -0.101822466 0.024398565 -0.014953016 0.03521261 0.07073889 0.08583724 0.07731353
0.02824474 -0.10919623 -0.055078045 0.04167743 0.012154665 0.06371418 0.021762095 0.034893908
0.046999197 0.077738546 0.06692743 0.04929931
00000000: f9d7 9c3d 2e2f 2e3d a3b0 913d 705a 213d
00000010: 99f2 3c3d a9e9 843d 35f5 cb3c a282 853d
00000020: 6cbe 54bb 59b1 b03d cf5c 3cbb f73a 9f3d
00000030: bf72 693d 976f 6a3d 56f3 e43c 6ebf 6e3d
00000040: 820b 4d3d 5704 913d 6099 39bd 2fc3 4f3d
00000050: cc4e 4cbd 7250 533d ce7d fa3c 548b 253d
00000060: 6237 3abd 4bb5 b6bd 8edc 763d a93a b93d
00000070: 7274 9b3c 174d d4bd 8e7c 903d 2443 3c3d
00000080: 4a01 cc3c 2029 f53c 7897 a9bd 1293 793d
00000090: c37f a03d 127b dc3c 9365 083d 5ed4 b7bd
000000a0: 8654 b73c 0765 7a3d 4434 4e3d 6809 8b3d
000000b0: 15dc 4c3d dddd 92bd 3104 42bd e1c9 523d
000000c0: baa6 e93c 8690 073d 8c9c 9dbd ad06 653d
000000d0: 53bb 223d 0ff8 0dbe 7d94 8f3d 1425 d5bd
000000e0: 1d47 793d dbd2 3bbd d138 a83d 91b8 9b3c
000000f0: fa75 a4bd ec53 e03c 2a85 303d b0ad a23d
00000100: 6ccf 353d 6ac5 a53c 6fee bebd cbb6 0d3d
00000110: 7ef8 8c3d f10a b7bd 0ced b3bd 2624 8abd
00000120: 3b68 7f3d 041c 3b3d 9c03 083d 9b4d 863d
00000130: 6115 24b9 be6e 43bc 3232 8a3d 2a23 4cbb
00000140: 2392 5f3c 4c88 d0bd 80df c73c 7ffd 74bc
00000150: 193b 103d 8ddf 903d 6fcb af3d 8e56 9e3d
00000160: 8361 e73c 46a2 dfbd 8499 61bd f4b5 2a3d
00000170: 5c24 473c 947c 823d 6c46 b23c eaec 0e3d
00000180: 3b82 403d 6335 9f3d 4011 893d 13ee 493d

encoder.gru.weight_ih_l0 f4 [15, 100]
0.44714317 0.56234956 0.5443835 0.48414904 0.4203036 0.54430526 0.6164176 0.41131386
-0.17059065 0.4555015 0.22394787 0.39727667 0.5137994 0.47703362 0.5269991 0.54161185
0.46639684 0.49050486 0.026812645 0.5009705 0.17579307 0.41826057 0.46110088 0.47278264
0.111929074 -0.053035833 0.36687616 0.44707114 0.62199533 -0.042386435 0.51375103 0.62123734
0.48509377 0.5215236 -0.118678465 0.3622518 0.48265746 0.5150756 0.49997464 0.04617746
0.6709725 0.40597665 0.5406485 0.5115501 0.43479 0.140528 0.08257933 0.3589701
0.6236501 0.54726964 -0.03871683 0.5060268 0.60587 -0.028873825 0.5523569 0.07174087
0.3367582 0.14531952 0.49546114 0.7106277 0.04498225 0.5225731 0.45393255 0.48821956
0.49615997 0.4777533 -0.07437548 0.56051093 0.45533198 0.0020700893 -0.054865856 -0.019038027
0.5081229 0.45134184 0.3796433 0.63512284 0.7968443 0.024331555 0.37580693 0.6052589
0.57093555 -0.031810027 0.42866445 -0.26523045 0.54686713 0.4811637 0.39239413 0.38524905
0.54381734 -0.07852797 0.2899441 0.49058613 -0.19177 0.4888102 0.6212936 0.54991055
0.48761693 0.5836723 0.5277006 0.3721049 0.51921165 0.39813867 0.5684165 0.4722768
0.46283546 0.49282393 0.54777306 0.54495794 0.062002674 0.4788753 0.12667443 0.46763968
0.40407062 0.5143962 0.40549815 0.41875058 0.49903253 0.5245385 0.19272195 0.47997957
0.18988955 0.48557708 0.39290142 0.42488447 0.14183095 0.03252626 0.41022915 0.5162322
0.514549 -0.09842507 0.4451862 0.5342314 0.43519935 0.5052692 0.062702395 0.5265458
0.45620495 0.49826172 0.5843298 -0.076264046 0.46996593 0.4023594 0.42339024 0.4131339
0.3957188 0.24739037 0.058736373 0.46147808 0.48062676 0.50712615 0.066227205 0.52040666
0.5293995 -0.02058311 0.53280866 0.037021637 0.48769453 0.09194575 0.36154222 0.6741749
0.07078109 0.41484538 0.55428165 0.4630993 0.38242444 0.45727503 -0.00015872349 0.53771335
0.4463868 0.030445436 0.07324143 -0.009523791 0.4481037 0.44540435 0.38623834 0.47135746
0.5495762 0.19554012 0.458543 0.47669184 0.51095676 -0.12589791 0.29329288 -0.025210403
0.51642466 0.39264554 0.42154875 0.4072845 0.44161302 -0.004572458 0.22373255 0.43954682
0.010825506 0.44426262 0.5454818 0.43296447 0.50199383 0.44970226 0.4348738 0.36834633
0.54038775 0.5850937 0.6028995 0.57229567 0.5221557 0.5425685 0.68367535 0.6034297
-0.25541985 0.5369135 0.16606615 0.44524398 0.6698801 0.5993397 0.56987816 0.56951267
0.6746626 0.6159698 0.067058235 0.67806804 0.20505707 0.55226254 0.69040537 0.56017375
0.019489942 -0.044577163 0.5541136 0.60319865 0.8310102 -0.005665655 0.68172324 0.72021496
0.5629882 0.71067345 -0.12731631 0.54960006 0.56485605 0.49814308 0.65635085 0.02177985
0.7835576 0.5533373 0.7584819 0.5947663 0.50694233 0.13182282 0.06314801 0.4763599
0.64251876 0.72953236 -0.05937322 0.6913238 0.6304933 -0.003850564 0.6423435 -0.027622545
00000000: f3ef e43e 24f6 0f3f b85c 0b3f 62e2 f73e
00000010: 0932 d73e 9757 0b3f 8bcd 1d3f bb97 d23e
00000020: 51af 2ebe 7e37 e93e 9752 653e d967 cb3e
00000030: 5c88 033f c03d f43e 6ae9 063f 13a7 0a3f
00000040: 91cb ee3e 7423 fb3e 31a6 db3c 9a3f 003f
00000050: 1903 343e 4026 d63e 6a15 ec3e 9110 f23e
00000060: 123b e53d 1a3c 59bd 31d7 bb3e 82e6 e43e
00000070: 163b 1f3f 669d 2dbd 3085 033f 6909 1f3f
00000080: 365e f83e 9282 053f b20d f3bd 1179 b93e
00000090: e11e f73e ffdb 033f adfc ff3e 9424 3d3d
000000a0: dbc4 2b3f 2cdc cf3e f167 0a3f f3f4 023f
000000b0: cb9c de3e 92e6 0f3e 5a1f a93d eeca b73e
000000c0: 88a7 1f3f dd19 0c3f 8a95 1ebd f98a 013f
000000d0: 4c1a 1b3f cd88 ecbc 4367 0d3f e1ec 923d
000000e0: 926b ac3e a4ce 143e 15ad fd3e b2eb 353f
000000f0: 4f3f 383d 5ac7 053f d969 e83e eaf7 f93e
00000100: ae08 fe3e 159c f43e 2c52 98bd a57d 0f3f
00000110: 4621 e93e 56aa 073b 05bb 60bd a3f5 9bbc
00000120: 5814 023f 4716 e73e 9b60 c23e 6997 223f
00000130: fdfd 4b3f f852 c73c c469 c03e 3ff2 1a3f
00000140: d528 123f 3b4b 02bd e879 db3e 49cc 87be
00000150: 7cff 0b3f 175b f63e e2e7 c83e 5d3f c53e
00000160: 9d37 0b3f 46d3 a0bd 8e73 943e 1b2e fb3e
00000170: 5b5f 44be 5545 fa3e 190d 1f3f f0c6 0c3f
00000180: eda8 f93e 8c6b 153f 6317 073f 8984 be3e
00000190: 0eeb 043f d5d8 cb3e be83 113f 44ce f13e
000001a0: c5f8 ec3e 6b53 fc3e db3a 0c3f 5d82 0b3f
000001b0: 84f6 7d3d 252f f53e f1b6 013e 786e ef3e
000001c0: 58e2 ce3e 78af 033f 749d cf3e 7a66 d63e
000001d0: 3181 ff3e 2848 063f e758 453e e2bf f53e
000001e0: 6872 423e 8f9d f83e 602a c93e 758a d93e
000001f0: 223c 113e 413a 053d 8e09 d23e cb27 043f
00000200: 7cb9 033f 1593 c9bd 72ef e33e 64c3 083f
00000210: 73d2 de3e 5359 013f 1d6a 803d b5cb 063f
00000220: b293 e93e 291c ff3e a396 153f 5330 9cbd
00000230: 609f f03e 0d02 ce3e 9bc6 d83e 4986 d33e
00000240: a89b ca3e e753 7d3e 8d95 703d db46 ec3e
00000250: b614 f63e 05d3 013f 21a2 873d 5f39 053f
00000260: ba86 073f e99d a8bc 2666 083f 00a4 173d
00000270: 19b3 f93e 0e4e bc3d 101c b93e ba96 2c3f
00000280: adf5 903d 9d66 d43e 67e5 0d3f 5a1b ed3e
00000290: 23cd c33e f41f ea3e 036f 26b9 95a7 093f
000002a0: d08c e43e b568 f93c 9aff 953d ad09 1cbc
000002b0: d96d e53e 0a0c e43e 08c1 c53e c455 f13e
000002c0: 07b1 0c3f ab3b 483e 26c6 ea3e f410 f43e
000002d0: 10ce 023f 62eb 00be 7c2a 963e 0c86 cebc
000002e0: 6834 043f d608 c93e 3dd5 d73e 9887 d03e
000002f0: 1a1b e23e 8fd4 95bb 251a 653e 480c e13e
00000300: 775d 313c 6476 e33e b2a4 0b3f 85ad dd3e
00000310: ab82 003f 603f e63e c7a7 de3e e497 bc3e
00000320: da56 0a3f b3c8 153f 9f57 1a3f f881 123f
00000330: ffab 053f c5e5 0a3f 5905 2f3f 5e7a 1a3f
00000340: 64c6 82be 2a73 093f 3f0d 2a3e 05f7 e33e
00000350: 437d 2b3f 546e 193f 89e3 113f 95cb 113f
00000360: b0b6 2c3f 32b0 1d3f d455 893d de95 2d3f
00000370: 7bfa 513e 1461 0d3f 68be 303f 8c67 0f3f
00000380: 5fa9 9f3c 8b96 36bd 64da 0d3f 3a6b 1a3f
00000390: 16bd 543f f5a6 b9bb 6a85 2e3f 0260 383f
000003a0: ff1f 103f b2ee 353f 355f 02be 97b2 0c3f
000003b0: 689a 103f 9c0c ff3e 9c06 283f a86b b23c
000003c0: 3b97 483f 83a7 0d3f df2b 423f 9b42 183f
000003d0: f9c6 013f 90fc 063e be53 813d 72e5 f33e
000003e0: 1c7c 243f a2c2 3a3f 5531 73bd 99fa 303f
000003f0: 0268 213f be59 7cbb a070 243f ad48 e2bc

encoder.gru.weight_hh_l0 f4 [15, 5]
-0.32217178 -0.0414614 -0.18787754 -0.22566721 0.19747663 0.33564758 -0.55941063 0.37133464
0.30694744 0.38087416 -0.2931981 0.035022885 -0.2557416 -0.28077033 0.11163731 -0.12259487
-0.15519688 0.018946871 0.04905681 0.23223294 0.24098274 -0.50034297 0.3760547 0.33203804
0.5493776 -0.6356901 0.89597124 -0.5570158 -0.6322725 -0.4434618 -0.4138512 0.56825745
-0.43061656 -0.49100932 -0.6239774 -0.6243368 0.7706829 -0.5234214 -0.6347936 -0.5189826
-0.5575364 0.6540535 -0.42703497 -0.4671328 -0.4280161 -0.26841238 0.533696 -0.23875853
-0.26606408 -0.48765314 0.20767151 -0.45457423 0.3459643 0.27621296 0.5841261 -0.5326807
0.63239026 -0.57071966 -0.4873181 -0.5813213 0.27675793 -0.48325568 0.28846794 0.2766365
0.5858514 0.2843488 -0.6037554 0.37217098 0.3110194 0.5786286 0.34654713 -0.61986464
0.504264 0.5164341 0.59277725
00000000: b3f3 a4be 6ed3 29bd f862 40be 4e15 67be
00000010: 5037 4a3e 00da ab3e 8935 0fbf 931f be3e
00000020: 3728 9d3e f001 c33e 101e 96be 2874 0f3d
00000030: 90f0 82be 21c1 8fbe 1aa2 e43d 0513 fbbd
00000040: eeeb 1ebe 7836 9b3c cbef 483d 79ce 6d3e
00000050: 2ec4 763e 7a16 00bf 3e8a c03e e400 aa3e
00000060: 03a4 0c3f 96bc 22bf 5f5e 653f 9698 0ebf
00000070: 9cdc 21bf 6d0d e3be 4ee4 d3be 5279 113f
00000080: c679 dcbe 9365 fbbe fcbc 1fbf 89d4 1fbf
00000090: 794b 453f f2fe 05bf d581 22bf 0bdc 04bf
000000a0: b5ba 0ebf 0d70 273f 54a4 dabe 082c efbe
000000b0: ed24 dbbe 596d 89be 4da0 083f 1e7d 74be
000000c0: 8d39 88be acad f9be d7a7 543e f4bd e8be
000000d0: 3c22 b13e c96b 8d3e 4a89 153f c35d 08bf
000000e0: 54e4 213f af1a 12bf c281 f9be 79d1 14bf
000000f0: 37b3 8d3e 4a6d f7be 12b2 933e 4da3 8d3e
00000100: 5bfa 153f 2a96 913e b78f 1abf 328d be3e
00000110: ef3d 9f3e 0121 143f a06e b13e 73af 1ebf
00000120: 7217 013f 0635 043f 40c0 173f

encoder.gru.bias_ih_l0 f4 [15]
-0.09851735 0.22350432 -0.016692625 0.09362111 0.102608435 0.15478355 -0.0055538677 0.14187184
0.14099954 0.059173416 0.022936577 0.023144353 0.08145922 0.08522344 0.0351315
00000000: 77c3 c9bd 51de 643e f9be 88bc 6dbc bf3d
00000010: 5f24 d23d 947f 1e3e 38fd b5bb da46 113e
00000020: 2f62 103e d35f 723d 7de5 bb3c 3a99 bd3c
00000030: 17d4 a63d a089 ae3d 0ce6 0f3d

encoder.gru.bias_hh_l0 f4 [15]
0.042212073 0.1470879 -0.0069986763 0.030107463 0.068566546 0.1066887 0.083025694 0.18379757
0.074306294 0.07395852 0.03926211 -0.0006675763 0.06261757 0.03890172 0.10713714
00000000: 91e6 2c3d 369e 163e 2755 e5bb eda3 f63c
00000010: 9e6c 8c3d 9b7f da3d 6009 aa3d 6e35 3c3e
00000020: e62d 983d 9177 973d 4ed1 203d 4a00 2fba
00000030: a43d 803d 6957 1f3d b86a db3d

encoder.gru.weight_ih_l0_reverse f4 [15, 100]
0.46747288 0.36548993 0.5946349 0.46380934 0.42157814 0.5281209 0.45448095 0.54659075
0.0012791781 0.46129152 -0.077120736 0.39830354 0.44108045 0.55626976 0.42998305 0.35443085
0.51579696 0.59494936 0.061761286 0.47689554 0.03575611 0.3666815 0.5585005 0.49510908
0.21093309 -0.044355217 0.442428 0.4551101 0.35106045 -0.12809601 0.3984033 0.37754524
0.38283148 0.50357014 0.06603482 0.5187266 0.38007978 0.49547058 0.60870916 0.023497917
0.52502203 0.5105911 0.53904545 0.5406997 0.43977416 0.109059855 0.18639968 0.33800766
0.36507148 0.5576152 -0.065401934 0.50264716 0.5732505 -0.01522216 0.44108418 -0.04442955
0.37990758 0.06741094 0.5199714 0.584815 -0.1481448 0.44810864 0.57479155 0.6331906
0.5163668 0.5190334 0.024577105 0.57326293 0.48671395 -0.07118461 -0.17654984 -0.021480689
0.4465693 0.3962778 0.38405538 0.567133 0.5103285 -0.028436167 0.5611268 0.4553024
0.5519496 -0.2640005 0.48424506 -0.19516982 0.549775 0.49399883 0.49901396 0.5149882
0.3949963 -0.014709425 0.18684976 0.51738375 -0.22559409 0.41868094 0.5990602 0.472322
0.4367125 0.5408155 0.48463115 0.33736616 0.71698385 0.585212 0.6650369 0.7565833
0.57629454 0.6910868 0.72344786 0.78317744 -0.041747387 0.60497254 0.026916903 0.59680414
0.667833 0.74122655 0.5185035 0.52743644 0.66057926 0.7111152 -0.066005155 0.59133506
0.036125 0.6153995 0.7678449 0.73278517 0.1385937 -0.07114541 0.5856029 0.7851904
0.5622229 0.05100927 0.725873 0.68463206 0.52682465 0.8154675 0.16443034 0.6698105
0.63884026 0.5919104 0.6834961 -0.08845555 0.7103927 0.66854584 0.7801339 0.7958025
0.58371025 0.19108006 0.0447571 0.515954 0.67285454 0.7429501 -0.06652197 0.82391757
0.7884006 -0.07701302 0.6566017 0.004016246 0.60440713 0.028848777 0.54652137 0.66220814
-0.06787561 0.64143544 0.7339576 0.7840914 0.7738604 0.8007112 0.090936475 0.7596781
0.7421954 0.06741072 -0.04570065 0.006557878 0.7973435 0.5210508 0.30214185 0.7787783
0.5914777 -0.015800366 0.67639273 0.598057 0.67407906 -0.19433145 0.4534657 -0.13953117
0.8012067 0.6768397 0.8379475 0.72521585 0.5759143 0.054449104 0.027986242 0.6283719
-0.16646452 0.6674137 0.7886823 0.5939914 0.60580873 0.8248468 0.63891256 0.59870106
0.2518735 0.37705442 0.389368 0.32918683 0.27395624 0.31524125 0.3716349 0.27102092
0.060461555 0.32670233 -0.04499229 0.19217853 0.33848664 0.38095227 0.41220516 0.23231661
0.26678008 0.29986918 0.14483243 0.22527874 0.12728016 0.33245692 0.35570818 0.40053383
0.041089263 -0.031911813 0.1793916 0.2700082 0.23542635 -0.008644007 0.2662598 0.36964318
0.15808828 0.23094669 0.17506985 0.25816077 0.29193807 0.39189807 0.40518555 -0.032597996
0.42915213 0.20827197 0.38852105 0.37171292 0.335832 0.14036578 0.24494503 0.33495602
0.29429364 0.3221906 0.041771706 0.30311838 0.49268562 -0.013193438 0.33861643 0.02115627
00000000: 9b58 ef3e 7f21 bb3e fe39 183f 6b78 ed3e
00000010: 17d9 d73e ee32 073f bab1 e83e 5fed 0b3f
00000020: 18aa a73a 672e ec3e 7af1 9dbd 71ee cb3e
00000030: 4cd5 e13e b267 0e3f bd26 dc3e f677 b53e
00000040: 450b 043f 9a4e 183f 67f9 7c3d a72b f43e
00000050: 0075 123d adbd bb3e e4f9 0e3f f07e fd3e
00000060: d8fe 573e d1ad 35bd ec85 e23e 3104 e93e
00000070: 32be b33e 9a2b 03be 84fb cb3e 9c4d c13e
00000080: 7d02 c43e f9e9 003f 443d 873d 44cb 043f
00000090: d199 c23e 52ae fd3e 5dd4 1b3f b47e c03c
000000a0: d867 063f 19b6 023f e2fe 093f 4c6b 0a3f
000000b0: 142a e13e c65a df3d 8fdf 3e3e 570f ad3e
000000c0: a6ea ba3e dfbf 0e3f 73f1 85bd 7cad 003f
000000d0: 8bc0 123f 5e66 79bc c9d5 e13e c3fb 35bd
000000e0: 3f83 c23e bf0e 8a3d d81c 053f 70b6 153f
000000f0: 45b3 17be 7f6e e53e 8a25 133f c718 223f
00000100: 9d30 043f 5fdf 043f ed55 c93c 5cc1 123f
00000110: 9232 f93e 3dc9 91bd 7bc9 34be 45f8 afbc
00000120: bba4 e43e ece4 ca3e e8a2 c43e a12f 113f
00000130: e3a4 023f f7f2 e8bc 02a6 0f3f 651d e93e
00000140: 924c 0d3f 132b 87be f8ee f73e 99da 47be
00000150: 0ebe 0c3f 6aed fc3e c27e ff3e 44d6 033f
00000160: f43c ca3e cdff 70bc 8b55 3f3e 4373 043f
00000170: 2302 67be 595d d63e 025c 193f 30d4 f13e
00000180: c898 df3e e272 0a3f 9321 f83e 42bb ac3e
00000190: 418c 373f 74d0 153f dc3f 2a3f 71af 413f
000001a0: 0a88 133f 11eb 303f e133 393f 517e 483f
000001b0: 4fff 2abd 7bdf 1a3f d680 dc3c 28c8 183f
000001c0: 1af7 2a3f 06c1 3d3f a5bc 043f 1306 073f
000001d0: b91b 293f a50b 363f b62d 87bd bc61 173f
000001e0: cff7 133d d28a 1d3f 7c91 443f cf97 3b3f
000001f0: 82eb 0d3e afb4 91bd 12ea 153f 3d02 493f
00000200: d7ed 0f3f 19ef 503d d0d2 393f 0c44 2f3f
00000210: fbdd 063f 7ac2 503f 6d60 283e b378 2b3f
00000220: 098b 233f 7187 173f 9af9 2e3f 2f28 b5bd
00000230: 4cdc 353f d225 2b3f dbb6 473f b6b9 4b3f
00000240: 096e 153f 7eaa 433e 3953 373d 9015 043f
00000250: 3240 2c3f fa31 3e3f ac3c 88bd 43ec 523f
00000260: 9fd4 493f 01b9 9dbd 0d17 283f b79a 833b
00000270: 6dba 1a3f 4554 ec3c d3e8 0b3f 7986 293f
00000280: 5e02 8bbd 1d35 243f a5e4 3b3f 37ba 483f
00000290: b71b 463f 69fb 4c3f e73c ba3d 447a 423f
000002a0: 8500 3e3f a20e 8a3d 9b30 3bbd 78e3 d63b
000002b0: b41e 4c3f 9663 053f 56b2 9a3e 045e 473f
000002c0: 156b 173f c56f 81bc 1328 2d3f 431a 193f
000002d0: 7290 2c3f d3fe 46be a82c e83e 42e1 0ebe
000002e0: e21b 4d3f 5e45 2d3f ba83 563f bfa7 393f
000002f0: 1f6f 133f 0606 5f3d 6743 e53c fbdc 203f
00000300: ad75 2abe a0db 2a3f 15e7 493f d20f 183f
00000310: 4816 1b3f 2929 533f c68f 233f 7944 193f
00000320: 90f5 803e 470d c13e 3e5b c73e 2d8b a83e
00000330: fe43 8c3e 4d67 a13e ee46 be3e 41c3 8a3e
00000340: 89a6 773d 8745 a73e d649 38bd 73ca 443e
00000350: 1f4e ad3e 2d0c c33e 8e0c d33e 68e4 6d3e
00000360: 6697 883e 7488 993e f44e 143e 78af 663e
00000370: bb55 023e cb37 aa3e 621f b63e c512 cd3e
00000380: 374d 283d f6b5 02bd 6eb2 373e 843e 8a3e
00000390: 9b13 713e 989f 0dbc 3453 883e df41 bd3e
000003a0: e5e1 213e 4a7d 6c3e 8345 333e a62d 843e
000003b0: e878 953e dda6 c83e 7b74 cf3e 7a85 05bd
000003c0: d4b9 db3e 3f45 553e 3bec c63e 2851 be3e
000003d0: 2cf2 ab3e 0cbc 0f3e dfd2 7a3e 5b7f ab3e
000003e0: a8ad 963e 2bf6 a43e cf18 2b3d 5532 9b3e
000003f0: 4a41 fc3e 4a29 58bc 225f ad3e ea4f ad3c

encoder.gru.weight_hh_l0_reverse f4 [15, 5]
0.5410484 -0.60441417 0.41973433 0.45463848 -0.71388525 0.40634882 -0.45282206 0.4522388
0.34009737 -0.5246335 0.43062294 -0.52550054 0.37324673 0.2837934 -0.5597017 0.5824958
-0.49666154 0.4114362 0.32592425 -0.56774616 0.5335095 -0.6128185 0.48055804 0.4831052
-0.61081517 -0.39312685 0.59049416 -0.5523135 -0.48756263 0.64100045 -0.10120243 0.3847746
0.33736616 0.28953958 0.47182143 -0.12248764 0.13969266 -0.14987022 -0.22901523 0.15216424
0.0043586898 0.12893777 -0.13118419 -0.0027798628 0.071411245 -0.19606534 0.46886617 0.2741818
0.2580092 0.5027339 0.491642 -0.7487577 0.16323614 0.10263005 -0.80227405 -0.41448623
0.66468775 0.085399315 0.19331266 0.71699715 0.38134575 -0.3111483 0.41529074 0.4538173
-0.42308685 0.32942986 -0.2889251 0.43836245 0.469524 -0.4672413 -0.53663105 0.6747428
0.08060386 0.1391306 0.7011851
00000000: 2682 0a3f e3ba 1abf 6be7 d63e 60c6 e83e
00000010: 2fc1 36bf f40c d03e 4bd8 e7be d88b e73e
00000020: 3e21 ae3e 624e 06bf 9c7a dc3e 3487 06bf
00000030: 321a bf3e 5e4d 913e 9c48 0fbf 721e 153f
00000040: 6c4a febe c4a7 d23e 8bdf a63e d057 11bf
00000050: 1494 083f ace1 1cbf b40b f63e 9159 f73e
00000060: 625e 1cbf ec47 c9be a02a 173f 6b64 0dbf
00000070: cfa1 f9be 9b18 243f 3843 cfbd 2d01 c53e
00000080: 42bb ac3e 883e 943e 9492 f13e cdda fabd
00000090: 980b 0f3e 9477 19be f882 6abe f1d0 1b3e
000000a0: 57d3 8e3b 4308 043e 2655 06be 5c2e 36bb
000000b0: 0f40 923d 5ac5 48be 3a0f f03e 8f61 8c3e
000000c0: c819 843e 2bb3 003f 80b8 fb3e 96ae 3fbf
000000d0: 6027 273e b42f d23d d561 4dbf 8a37 d4be
000000e0: fa28 2a3f d6e5 ae3d c1f3 453e 208d 373f
000000f0: c03f c33e d44e 9fbe fda0 d43e be5a e83e
00000100: d79e d8be 08ab a83e feed 93be 0b71 e03e
00000110: 7365 f03e 403a efbe a760 09bf f2bb 2c3f
00000120: a313 a53d 4178 0e3e de80 333f

encoder.gru.bias_ih_l0_reverse f4 [15]
0.06927609 0.0434421 0.35776347 0.34535867 -1.6605496e-05 0.14825031 0.13820733 0.02382794
0.028899143 0.13887209 -0.05759399 -0.031319313 -0.20212412 -0.2641457 -0.011711193
00000000: 9fe0 8d3d 58f0 313d c62c b73e dad2 b03e
00000010: 084c 8bb7 eece 173e 3986 0d3e d032 c33c
00000020: e5bd ec3c 7c34 0e3e ade7 6bbd ae48 00bd
00000030: a0f9 4ebe 1b3e 87be 4ee0 3fbc

encoder.gru.bias_hh_l0_reverse f4 [15]
0.12626421 0.036067303 0.36561754 0.39191332 -0.10297826 0.120198585 0.08776435 -0.031231811
-0.0662516 0.14732453 -0.048889086 -0.053250827 -0.21479097 -0.18318877 0.021731367
00000000: 684b 013e 4fbb 133d 3932 bb3e dda8 c83e
00000010: 44e6 d2bd ad2a f63d ccbd b33d dbd9 ffbc
00000020: ebae 87bd 3edc 163e ec3f 48bd 8a1d 5abd
00000030: 2af2 5bbe d695 3bbe fb05 b23c

encoder.fc_hidden.weight f4 [5, 10]
-0.013179138 0.07044602 -0.022948686 -0.09054474 -0.062489375 -0.22803955 0.20148547 -0.3307632
-0.24906974 0.27742893 0.310324 -0.31875816 0.3356247 0.31676584 0.41658404 0.35154533
-0.3647403 0.1818942 0.21398945 -0.47155866 -0.0013828438 -0.07452774 0.10850483 0.032293655
0.19947326 0.21773027 -0.28525215 0.2978016 0.2066999 -0.19445796 0.06361098 -0.049714766
-0.01619708 0.037964184 0.045534622 0.1984056 -0.20111938 0.32970384 0.24316582 -0.29561558
-0.21573272 0.32513815 -0.26810384 -0.19549218 -0.31414875 -0.29834664 0.3972721 -0.19293949
-0.15966493 0.4030951
00000000: 50ed 57bc 0146 903d e2fe bbbc 856f b9bd
00000010: dcf4 7fbd 3383 69be 3552 4e3e cb59 a9be
00000020: 230c 7fbe 2a0b 8e3e cae2 9e3e 4534 a3be
00000030: 00d7 ab3e 222f a23e 814a d53e c0fd b33e
00000040: 3ebf babe 7942 3a3e 0d20 5b3e 2370 f1be
00000050: 8a40 b5ba 00a2 98bd c837 de3d 5a46 043d
00000060: b842 4c3e aff4 5e3e 920c 92be 7479 983e
00000070: 23a9 533e fd1f 47be 7946 823d b6a1 4bbd
00000080: bdaf 84bc 5580 1b3d 8382 3a3d d62a 4b3e
00000090: 3df2 4dbe f1ce a83e 7600 793e ed5a 97be
000000a0: 0ae9 5cbe 8278 a63e e844 89be 1a2f 48be
000000b0: 1bd8 a0be e4c0 98be 4067 cb3e ee91 45be
000000c0: 347f 23be 7b62 ce3e

encoder.fc_hidden.bias f4 [5]
0.09708369 0.28520435 -0.10604139 -0.1356745 -0.19475482
00000000: d0d3 c63d 4e06 923e 3a2c d9bd 42ee 0abe
00000010: cf6d 47be

decoder.attention.attn.weight f4 [5, 15]
0.6613703 -0.7734439 -0.51786214 -0.3355234 0.7034969 0.929189 -0.27787188 0.91515833
0.76658326 0.18707654 0.32084835 -0.12724803 0.5072489 0.5488555 -0.25381902 -0.9164361
0.7598331 0.77731496 0.6435183 -0.7674259 -0.89577496 0.116130084 -0.8220273 -0.59043026
-0.061896887 -0.55621773 0.24449793 -0.54485685 -0.5944836 0.27034006 -0.6642477 0.75461054
0.51266026 0.35710984 -0.74102557 -0.9455935 0.29560384 -0.9371128 -0.69474155 -0.119895376
-0.32231796 0.23584396 -0.51512975 -0.4315066 0.3179358 -0.4291031 0.934891 0.22379938
0.02590066 -0.80732167 -0.94257754 0.38132268 -0.9109738 -0.7629662 -0.17687015 -0.22157982
0.12253841 -0.44375363 -0.4216965 0.121041454 -0.5847797 0.7640423 0.5387979 0.3647921
-0.7691754 -0.9496037 0.3281222 -1.0233201 -0.6787451 -0.14092842 -0.3226536 0.12879291
-0.5926606 -0.46634158 0.26118082
00000000: 904f 293f 6b00 46bf 9d92 04bf b9c9 abbe
00000010: 5f18 343f 55df 6d3f 3945 8ebe d147 6a3f
00000020: cd3e 443f fe90 3f3e 3c46 a43e 4f4d 02be
00000030: 10db 013f cb81 0c3f 91f4 81be 8e9b 6abf
00000040: 6c84 423f 1dfe 463f 9ebd 243f 0676 44bf
00000050: 8251 65bf 9cd5 ed3d 6270 52bf 7026 17bf
00000060: 9787 7dbd 4964 0ebf aa5d 7a3e bd7b 0bbf
00000070: 1430 18bf 036a 8a3e 230c 2abf 282e 413f
00000080: b43d 033f 1ad7 b63e dab3 3dbf 6a12 72bf
00000090: 6359 973e a0e6 6fbf 95da 31bf b58b f5bd
000000a0: dc06 a5be 1481 713e 8bdf 03bf 6fee dcbe
000000b0: 7bc8 a23e 67b3 dbbe 0455 6f3f aa2b 653e
000000c0: 9f2d d43c a2ac 4ebf c34c 71bf ba3c c33e
000000d0: 9435 69bf c151 43bf 731d 35be d2e5 62be
000000e0: 6bf5 fa3d ad33 e3be 9be8 d7be 95e4 f73d
000000f0: 1fb4 15bf 4798 433f a9ee 093f 08c6 ba3e
00000100: aee8 44bf 3a19 73bf a2ff a73e 27fc 82bf
00000110: 3dc2 2dbf 8a4f 10be da32 a5be 4ae2 033e
00000120: 9bb8 17bf 53c4 eebe 7eb9 853e

decoder.attention.attn.bias f4 [5]
-0.54290336 0.48439696 0.4940482 0.67272234 0.513221
00000000: b7fb 0abf e102 f83e e3f3 fc3e 8837 2c3f
00000010: 7462 033f

decoder.attention.v.weight f4 [1, 5]
1.256429 -1.2721895 -1.2608309 -1.5011938 -1.2751877
00000000: aad2 a03f 1bd7 a2bf e862 a1bf 1e27 c0bf
00000010: 5a39 a3bf

decoder.embed.weight f4 [8, 8]
0.043932978 0.012802612 0.07635957 -0.0060361237 0.005967746 0.049371134 0.0609008 0.05405775
-0.47964102 0.61888385 -0.5251349 0.6332279 -0.70196486 -0.66821104 -0.6090463 0.73190856
0.30605322 -0.097314216 0.1267351 -0.18409649 0.2982334 0.22404298 0.333113 -0.27146232
0.0057156663 -0.022862513 0.03627951 -0.023476038 -0.060845137 -0.024612848 -0.00060336944 0.07170033
-0.21983606 0.021429075 -0.21578296 0.15479194 0.06054689 0.024868224 -0.14865872 -0.062347963
-0.024079677 0.055239283 -0.038824085 0.009114233 0.09707306 0.014879552 -0.02293517 -0.025507824
0.050547846 -0.06136183 0.024964962 -0.051400244 -0.070836246 -0.043568987 0.054931536 0.043973006
0.43021804 -0.62427956 0.4980009 -0.29948696 0.19002447 0.29291746 0.31809026 -0.19742027
00000000: 11f3 333d 0cc2 513c 6862 9c3d adca c5bb
00000010: 158d c33b 6339 4a3d 1e73 793d a96b 5d3d
00000020: 8293 f5be 2c6f 1e3f 3e6f 06bf 391b 223f
00000030: f8b3 33bf e10f 2bbf 75ea 1bbf 5c5e 3b3f
00000040: 02b3 9c3e ad4c c7bd d9c6 013e ca83 3cbe
00000050: 0cb2 983e 866b 653e ca8d aa3e 1cfd 8abe
00000060: 7c4a bb3b 2a4a bbbc d399 143d d250 c0bc
00000070: c038 79bd e2a0 c9bc 702b 1eba 9fd7 923d
00000080: b41c 61be 078c af3c 35f6 5cbe c781 1e3e
00000090: 0400 783d 72b8 cb3c fe39 18be 9460 7fbd
000000a0: be42 c5bc 9642 623d 0106 1fbd dd53 153c
000000b0: 3ece c63d 5dc9 733c 8ae2 bbbc c9f5 d0bc
000000c0: 420b 4f3d 8b56 7bbd 5283 cc3c 1089 52bd
000000d0: 9812 91bd 6575 32bd e4ff 603d 0a1d 343d
000000e0: 8a45 dc3e c9d0 1fbf f9f9 fe3e 5b56 99be
000000f0: c695 423e 47f9 953e badc a23e 8a28 4abe

decoder.gru.weight_ih_l0 f4 [15, 18]
-0.032951068 -0.0937811 0.074848205 0.08162474 -0.08250097 -0.023262488 -0.18273276 0.07149697
0.60092235 -0.46749783 0.646697 0.63769525 0.60777694 0.41381422 -0.56093055 0.4199644
0.36473507 -0.59794354 0.20326807 0.10292775 -0.21202031 -0.05367287 0.15135328 -0.034227412
-0.029292187 0.106642224 0.2659244 -0.70183617 0.2775117 0.32435578 0.5673015 0.34084272
-0.5698426 -0.20324504 -0.2074952 -0.5467423 0.13341105 -0.0339293 0.20731832 -0.1102815
0.057280995 0.016670216 0.08404538 0.032159563 0.492575 -0.2834664 0.5012933 0.37357453
0.3465573 0.43114564 -0.40501213 0.2774656 0.29730433 -0.34331837 -0.0023101547 -0.100014865
0.060192596 -0.1134893 -0.00057956425 -0.03745832 -0.18890665 -0.051368125 0.5986969 -0.5441296
0.739616 0.6203208 0.6959661 0.504415 -0.53397924 0.39333856 0.35075068 -0.60892797
0.124398716 0.010793236 -0.1132595 0.14475887 0.18905868 0.075383596 -0.0021601287 0.06750561
0.24661882 -0.7275409 0.14914426 0.21851659 0.45809802 0.36556274 -0.551704 -0.18375905
-0.30399385 -0.52112603 -0.07724523 0.014363773 -0.00306989 0.041834865 -0.08328811 -0.008241699
0.00619072 -0.019654695 -0.006959826 -0.38840958 0.102105774 -0.002668843 0.24384941 0.13250463
-0.13120143 0.14591195 0.07083851 -0.27337727 0.1880596 -0.21607913 0.1287368 -0.13981612
-0.24026945 -0.0723082 0.23124535 0.15662086 0.07331649 -0.17770489 0.13934354 0.15882052
0.18870379 0.18313192 -0.14083442 0.40530008 0.44410723 -0.15659851 0.071367115 0.010714995
-0.015537593 -0.028365003 0.020871267 -0.026117131 0.013541738 0.09487295 0.043835137 -0.26809156
0.08220789 0.10265101 0.2173981 0.29365858 -0.22971219 0.20229252 0.14910364 -0.21290489
0.005989777 -0.0060517816 0.009684451 -0.009462451 0.013909174 0.01792423 -0.014618863 -0.007973095
-0.029732706 -0.29934362 -0.035751954 0.06026406 0.09983557 0.3674119 -0.26423874 0.23046695
0.29323983 -0.33016443 0.14815181 -0.11885804 0.18977362 -0.08333082 -0.1653823 -0.17865475
0.095229916 0.17767327 0.17901687 -0.12677811 0.07390477 0.047035024 0.12184282 0.14221323
-0.15597206 0.47460994 0.3990302 -0.2202664 0.08591322 0.022052424 -0.008008868 0.012402912
-0.17234679 -0.11252606 -0.09492713 0.060472295 0.2899703 -0.013086829 0.32240504 0.27429527
0.1258373 0.18007903 -0.26069131 0.40358266 0.4512641 -0.15966722 0.07742564 0.14073181
0.103365324 -0.04406932 -0.24303193 -0.41035676 0.04577933 0.24255995 -0.117493734 -0.15323046
-0.18659993 -0.08933724 -0.007222854 -0.1403093 -0.040193096 0.02295246 0.03192402 0.021191327
-0.023006748 0.061782368 -0.111111924 -0.019327024 0.068517625 0.11717135 0.13848996 -0.05864874
-0.37336576 0.06237505 -0.43000144 -0.32698587 -0.27824637 -0.23056099 0.31885925 -0.42956966
-0.43641266 0.27207547 -0.040849224 0.09125049 -0.09578092 -0.050983388 0.08013251 0.08538307
0.087553516 -0.008071062 -0.4044892 0.1928892 -0.45698684 -0.47044107 -0.2840425 -0.35300437
0.3447168 -0.32084364 -0.3420755 0.35372785 -0.10681944 -0.0044295304 -0.17871061 -0.008475318
00000000: b3f7 06bd 4e10 c0bd 044a 993d df2a a73d
00000010: 45f6 a8bd f990 bebc 4c1e 3bbe 016d 923d
00000020: 0cd6 193f e05b efbe ef8d 253f ff3f 233f
00000030: 4597 1b3f 75df d33e 2599 0fbf 9305 d73e
00000040: 8ebe ba3e d412 19bf 8125 503e c9cb d23d
00000050: da1b 59be 15d8 5bbd 5bfc 1a3e 0b32 0cbd
00000060: 2bf6 efbc 3d67 da3d 3e27 883e 89ab 33bf
00000070: 0316 8e3e f611 a63e ac3a 113f f082 ae3e
00000080: 34e1 11bf 781f 50be 9f79 54be 4ef7 0bbf
00000090: e89c 083e 73f9 0abd 414b 543e 44db e1bd
000000a0: 7a9f 6a3d fa8f 883c fc1f ac3d bfb9 033d
000000b0: ca32 fc3e 8222 91be c254 003f 2945 bf3e
000000c0: f56f b13e 1fbf dc3e c05d cfbe f90f 8e3e
000000d0: 4638 983e 6dc7 afbe f765 17bb 98d4 ccbd
000000e0: 838c 763d 146d e8bd e6ed 17ba e56d 19bd
000000f0: bf70 41be 6267 52bd 3344 193f 144c 0bbf
00000100: 7957 3d3f 58cd 1e3f d62a 323f 5721 013f
00000110: ddb2 08bf ac63 c93e 9895 b33e b4e2 1bbf
00000120: c1c4 fe3d 1dd6 303c 99f4 e7bd ab3b 143e
00000130: 9998 413e b762 9a3d f290 0dbb 6240 8a3d
00000140: a589 7c3e 1f40 3abf 46b9 183e d0c2 5f3e
00000150: d38b ea3e 0a2b bb3e 793c 0dbf 552b 3cbe
00000160: 15a5 9bbe 8468 05bf bf32 9ebd 0856 6b3c
00000170: 3530 49bb 095b 2b3d f592 aabd 3108 07bc
00000180: 86db ca3b e202 a1bc 410f e4bb 9fdd c6be
00000190: d51c d13d c1e7 2ebb a9b3 793e 4baf 073e
000001a0: ab59 06be f169 153e c813 913d 1bf8 8bbe
000001b0: b292 403e d943 5dbe 94d3 033e f52b 0fbe
000001c0: 3209 76be 5216 94bd 95cb 6c3e 3861 203e
000001d0: f526 963d 45f8 35be 13b0 0e3e d9a1 223e
000001e0: 913b 413e ef86 3b3e e636 10be 7e83 cf3e
000001f0: 0662 e33e 5c5b 20be ec28 923d f28d 2f3c
00000200: 6391 7ebc b95d e8bc 38fa aa3c 98f3 d5bc
00000210: 2ade 5d3c c04c c23d 798c 333d 4c43 89be
00000220: 9c5c a83d b13a d23d 9c9d 5e3e 6b5a 963e
00000230: ac39 6bbe c525 4f3e a0ae 183e bd03 5abe
00000240: e445 c43b 064e c6bb 88ab 1e3c 6508 1bbc
00000250: 4ee3 633c d6d5 923c f583 6fbc 96a1 02bc
00000260: 0192 f3bc 9143 99be a470 12bd 72d7 763d
00000270: 9776 cc3d 6a1d bc3e 4d4a 87be 87ff 6b3e
00000280: 8823 963e 500b a9be 1cb5 173e d86b f3bd
00000290: 0454 423e 59a9 aabd fa59 29be 45f1 36be
000002a0: e707 c33d fbef 353e 3350 373e 1fd2 01be
000002b0: 625b 973d cca7 403d ba88 f93d 58a0 113e
000002c0: 24b7 1fbe 1300 f33e b04d cc3e 848d 61be
000002d0: 45f3 af3d 49a7 b43c a137 03bc 9535 4b3c
000002e0: ad7b 30be 1074 e6bd 2869 c2bd ccb1 773d
000002f0: fd76 943e 246a 56bc 4612 a53e 6e70 8c3e
00000300: 7edb 003e a366 383e 5579 85be 63a2 ce3e
00000310: 170c e73e ce7f 23be 5591 9e3d 001c 103e
00000320: 33b1 d33d 0882 34bd 5ddd 78be 481a d2be
00000330: 1b83 3b3d a361 783e 8ea0 f0bd 72e8 1cbe
00000340: 0d14 3fbe 71f6 b6bd b1ad ecbb 3ead 0fbe
00000350: 84a1 24bd cc06 bc3c c3c2 023d 6f99 ad3c
00000360: a678 bcbc 820f 7d3d a68e e3bd b553 9ebc
00000370: f852 8c3d 88f7 ef3d 50d0 0d3e a939 70bd
00000380: cc29 bfbe fb7c 7f3d 2629 dcbe b16a a7be
00000390: 4f76 8ebe 2e18 6cbe 8541 a33e 8ef0 dbbe
000003a0: 7b71 dfbe 7a4d 8b3e 8451 27bd 89e1 ba3d
000003b0: c928 c4bd f5d3 50bd 831c a43d 52dd ae3d
000003c0: 424f b33d 7d3c 04bc 3519 cfbe bf84 453e
000003d0: 2efa e9be a7dd f0be 056e 91be fdbc b4be
000003e0: b87e b03e 9e45 a4be 8524 afbe d11b b53e
000003f0: 27c4 dabd 9825 91bb eaff 36be 0fdc 0abc

decoder.gru.weight_hh_l0 f4 [15, 5]
0.112843625 0.5273352 -0.054058246 -0.062145088 -0.52995634 0.059894737 0.11813235 -0.051902104
-0.084644474 -0.08991586 0.15106557 0.3938618 -0.17095453 -0.20685914 -0.24557225 0.020283375
0.5454306 -0.0017117476 -0.109242626 -0.5597357 0.08613941 0.09348125 -0.17349072 -0.10931698
-0.035459775 -0.44045964 0.05342716 0.27031907 0.44925454 -0.10612036 -0.61262953 0.34560546
0.7518791 0.733916 -0.2130047 -0.49080983 0.1600879 0.34856898 0.5399369 -0.15897024
-0.41766638 0.17698048 0.31617942 0.4723791 -0.13852753 -0.5054396 0.3545124 0.5585728
0.77124435 -0.30694178 0.3952071 0.2940238 -0.18924086 -0.4075458 -0.27222526 -0.7572592
0.23058899 0.6674072 0.88128114 -0.2670519 -0.3353514 -0.20377596 0.17101894 0.40519562
0.2158947 -0.16463743 -0.39108425 0.053942215 0.2218307 0.42835328 0.59702075 -0.25561392
-0.590745 -0.81412 0.28952146
00000000: 8f1a e73d 71ff 063f 2e6c 5dbd d98b 7ebd
00000010: 38ab 07bf 2f54 753d 60ef f13d 4d97 54bd
00000020: 155a adbd ce25 b8bd efb0 1a3e 41a8 c93e
00000030: b40e 2fbe e2d2 53be 4b77 7bbe 5229 a63c
00000040: 57a1 0b3f b85c e0ba 99ba dfbd d74a 0fbf
00000050: dc69 b03d 1973 bf3d 8da7 31be 95e1 dfbd
00000060: 453e 11bd ed83 e1be 70d6 5a3d 4367 8a3e
00000070: b104 e63e a255 d9bd 4ad5 1cbf 33f3 b03e
00000080: 267b 403f ebe1 3b3f e71d 5abe 6d4b fbbe
00000090: 15ee 233e a277 b23e 4e39 0a3f 18c9 22be
000000a0: 5ed8 d5be 5f3a 353e 45e2 a13e acdb f13e
000000b0: 29da 0dbe 7d64 01bf a682 b53e a1fe 0e3f
000000c0: 4570 453f 7927 9dbe 9658 ca3e 4a8a 963e
000000d0: 5bc8 41be d8a9 d0be 1c61 8bbe bddb 41bf
000000e0: 851f 6c3e 33db 2a3f a49b 613f 07bb 88be
000000f0: 2eb3 abbe a5aa 50be 971f 2f3e cd75 cf3e
00000100: 8013 5d3e b796 28be 323c c8be 83f2 5c3d
00000110: 9627 633e 1f51 db3e 5ad6 183f d4df 82be
00000120: 103b 17bf 2b6a 50bf 283c 943e

decoder.gru.bias_ih_l0 f4 [15]
0.6289436 0.3043231 0.4117421 0.51616186 0.29471284 0.0437135 -0.02144293 0.021917399
-0.0781809 0.045594838 0.4063088 -0.08631017 -0.4608704 -0.46439186 -0.0126868915
00000000: 7302 213f 3dd0 9b3e dccf d23e 2f23 043f
00000010: 9ae4 963e ed0c 333d 15a9 afbc 1e8c b33c
00000020: 4f1d a0bd a7c1 3a3d b507 d03e 63c3 b0bd
00000030: 34f7 ebbe c5c4 edbe aedc 4fbc

decoder.gru.bias_hh_l0 f4 [15]
0.6138653 0.28204957 0.4361679 0.50684124 0.37576973 -0.018100213 -0.05268128 -0.11098558
0.049683288 0.0047385637 0.4474453 -0.13782084 -0.37307173 -0.48872072 0.044065237
00000000: 4726 1d3f cd68 903e 6651 df3e 59c0 013f
00000010: e464 c03e e646 94bc 53c8 57bd 684c e3bd
00000020: b480 4b3d f445 9b3b 8d17 e53e e820 0dbe
00000030: 4203 bfbe 9a39 fabe c07d 343d

decoder.fc_one.weight f4 [100, 23]
0.04498475 0.024546389 -0.037511487 0.06936065 0.02190768 -0.097927034 0.019297915 -0.060461923
-0.06433964 -0.015372182 -0.08066936 0.07150556 0.04547234 -0.036045197 0.06117295 -0.003451418
-0.028105145 0.010965906 -0.053985327 0.0076249726 0.051360436 -0.012312702 0.071573175 -0.25160456
0.63523036 0.19838591 0.24439803 -0.6857408 0.20843613 -0.5147215 0.18446323 0.30756053
0.4260037 -0.058520846 0.25856814 0.37919718 0.40651852 0.22392242 0.0514225 0.034801133
-0.015774058 0.050524615 -0.12302174 -0.15845692 -0.0067958864 0.07227372 0.43822485 -0.06687249
-0.44883296 -0.49030146 0.10978516 -0.2082318 0.22986712 -0.118835256 -0.1318853 -0.1860118
-0.35184154 0.1477133 -0.7155473 -0.7884577 0.1673276 -0.09222348 0.20998909 -0.15399985
0.1154826 -0.28918105 -0.28477365 -0.14911091 0.35146862 0.20250313 0.10310539 -0.20716904
-0.29045227 0.027059883 0.026755074 0.33655325 0.09575255 0.08175031 -0.20006537 0.4244179
-0.27921355 0.6481924 0.6208971 -0.3796668 -0.3214766 0.24126343 -0.31957537 0.40485826
-0.016851576 -0.08821212 -0.34762827 0.11982449 0.20000155 -0.005877165 -0.117260695 -0.29464817
0.13855144 0.054447427 0.21209411 0.06400789 0.16308095 -0.09099361 0.41389382 -0.30740792
0.21820846 0.16327804 -0.34733677 -0.09138811 -0.024634711 -0.101648875 0.122471124 -0.120671675
0.028845236 -0.05014927 0.00503897 -0.31889084 0.23576172 0.2617905 0.38330594 -0.40386686
0.14187549 -0.64401424 0.18386199 0.21000189 0.4600639 -0.048191737 0.07699951 -0.08380593
-0.012781007 0.1863314 0.20413233 -0.123117596 0.28934497 -0.17461163 -0.13868341 0.05126349
0.04612009 -0.059368342 0.019310461 -0.28415683 -0.14682654 -0.057279933 0.37229416 -0.09875687
0.19991626 -0.17160021 -0.15870415 -0.1589133 0.17426454 -0.26231 -0.26211783 -0.26181015
-0.21675001 0.06628051 -0.0063582035 0.16041678 0.029319204 0.07062657 -0.04616211 0.010522248
-0.02317543 1.0442412 -0.28848022 -1.0515859 -1.006492 0.20029703 0.008424404 0.20570257
0.03190461 0.006944357 -0.06190463 -0.41720736 0.47677216 -0.11341921 -0.13914219 0.57391936
-0.085164316 0.13482131 -0.20524168 0.37071908 -0.21690133 -0.2528179 -0.2946937 0.20356977
1.2782214 -0.4629617 -1.0345045 -0.6695831 0.28714994 0.0471014 0.6358477 0.028945273
0.15415643 -0.60890096 0.81547606 -0.5661567 0.6561464 0.5676571 -0.70011073 0.4487984
-0.52222574 0.46591407 -0.6357212 -0.22123942 -0.44411266 0.6245532 0.38149035 0.1071072
0.3247881 -0.1310165 -0.10456901 -0.21745741 0.04963047 0.26554027 -0.0053326716 0.033871014
-0.22640984 0.7264554 -0.5062351 0.2628016 0.2814774 -0.5481202 0.10805473 -0.037508704
0.036862038 -0.28540874 0.11323524 -0.07563555 0.10104489 -0.020035436 -0.16828711 0.49552867
0.19099648 0.10319245 -0.62327576 0.22958086 -0.5947405 0.31273824 0.33092678 0.47968358
0.04002415 0.09306081 0.16614188 0.13008204 0.014969371 0.2760162 -0.100903206 0.2761998
-0.26662812 -0.086138554 -0.06340593 0.24286811 0.20696022 -0.44374672 0.22409192 0.37320057
00000000: ee41 383d 8215 c93c a5a5 19bd f50c 8e3d
00000010: bc77 b33c f88d c8bd a916 9e3c eca6 77bd
00000020: 80c4 83bd 9bdb 7bbc fa35 a5bd 8271 923d
00000030: 3441 3a3d 21a4 13bd 7d90 7a3d 2f31 62bb
00000040: c33c e6bc 58aa 333c b81f 5dbd e8da f93b
00000050: 525f 523d 37bb 49bc f594 923d 50d2 80be
00000060: 759e 223f ad25 4b3e 7a43 7a3e b68c 2fbf
00000070: 4870 553e cac4 03bf eee3 3c3e 9378 9d3e
00000080: 281d da3e 8eb3 6fbd 0b63 843e 2226 c23e
00000090: 3223 d03e eb4b 653e 66a0 523d a28b 0e3d
000000a0: 9938 81bc e6f2 4e3d d2f2 fbbd 8842 22be
000000b0: 07b0 debb 3e04 943d 025f e03e 72f4 88bd
000000c0: 6fcd e5be cb08 fbbe 0bd7 e03d b83a 55be
000000d0: 4962 6b3e e65f f3bd f10c 07be e179 3ebe
000000e0: 9324 b4be 2842 173e 1c2e 37bf 5dd8 49bf
000000f0: ed57 2b3e aadf bcbd 6107 573e 23b2 1dbe
00000100: 2482 ec3d 8a0f 94be dacd 91be 88b0 18be
00000110: b2f3 b33e fb5c 4f3e eb28 d33d 1f24 54be
00000120: 29b6 94be b0ac dd3c 752d db3c b550 ac3e
00000130: ea19 c43d b56c a73d f0dd 4cbe 4e4d d93e
00000140: 14f5 8ebe f0ef 253f 1df3 1e3f b063 c2be
00000150: 9598 a4be c30d 773e 629f a3be 9549 cf3e
00000160: 510c 8abc 8ea8 b4bd 55fc b1be 8b66 f53d
00000170: 35cd 4c3e 3c95 c0bb 6026 f0bd 20dc 96be
00000180: 6ee0 0d3e 4404 5f3d 332f 593e 9216 833d
00000190: b1fe 263e dc5a babd e4e9 d33e 9264 9dbe
000001a0: 0a72 5f3e 5c32 273e 20d6 b1be b029 bbbd
000001b0: bcce c9bc 492d d0bd 24d2 fa3d b622 f7bd
000001c0: d84c ec3c 5269 4dbd f21d a53b a945 a3be
000001d0: 856b 713e 6809 863e ad40 c43e a3c7 cebe
000001e0: cf47 113e 1ede 24bf 5146 3c3e bc0a 573e
000001f0: 7f8d eb3e b364 45bd ebb1 9d3d 72a2 abbd
00000200: 6e67 51bc a9cd 3e3e 1108 513e 1425 fcbd
00000210: 0625 943e 64cd 32be 0603 0ebe aaf9 513d
00000220: 6be8 3c3d 382c 73bd f930 9e3c 017d 91be
00000230: b259 16be 5d9e 6abd 579d be3e 0b41 cabd
00000240: d9b6 4c3e f7b7 2fbe 5783 22be 2bba 22be
00000250: 6772 323e 7f4d 86be 4f34 86be fb0b 86be
00000260: b7f3 5dbe 13be 873d 7a58 d0bb 4c44 243e
00000270: d42e f03c aaa4 903d 7b14 3dbd 8265 2c3c
00000280: 66da bdbc b2a9 853f aeb3 93be 5e9a 86bf
00000290: bbd4 80bf aa1a 4d3e 8306 0a3c b2a3 523e
000002a0: 69ae 023d 7d8d e33b b68f 7dbd 349c d5be
000002b0: 7b1b f43e 5548 e8bd 4a7b 0ebe 61ec 123f
000002c0: a16a aebd 990e 0a3e e02a 52be e4ce bd3e
000002d0: 621b 5ebe 5971 81be 18e2 96be 9874 503e
000002e0: c29c a33f 5109 edbe a56a 84bf cc69 2bbf
000002f0: 5105 933e 66ed 403d eac6 223f a31e ed3c
00000300: 2fdb 1d3e efe0 1bbf 0ac3 503f a5ef 10bf
00000310: 36f9 273f fa51 113f 753a 33bf e7c8 e53e
00000320: 96b0 05bf 4a8c ee3e a0be 22bf 968c 62be
00000330: bc62 e3be b8e2 1f3f b452 c33e 055b db3d
00000340: a04a a63e 3029 06be 4728 d6bd 28ad 5ebe
00000350: 5249 4b3d e5f4 873e b1bd aebb 55bc 0a3d
00000360: fbd7 67be fbf8 393f a098 01bf ee8d 863e
00000370: ce1d 903e 9b51 0cbf cc4b dd3d baa2 19bd
00000380: a6fc 163d 1821 92be e1e7 e73d d0e6 9abd
00000390: a0f0 ce3d 5b21 a4bc 7553 2cbe efb5 fd3e
000003a0: 9594 433e 9056 d33d 008f 1fbf 3f17 6b3e
000003b0: ea40 18bf 3a1f a03e 3c6f a93e 1699 f53e
000003c0: 5df0 233d aa96 be3d 1921 2a3e 3a34 053e
000003d0: 1842 753c ff51 8d3e 57a6 cebd 0f6a 8d3e
000003e0: 7b83 88be 6969 b0bd f8da 81bd 6bb2 783e
000003f0: 61ed 533e c532 e3be 5a78 653e 2514 bf3e

decoder.fc_one.bias f4 [100]
-0.028021645 0.20298757 0.042555224 0.07328243 0.18884088 0.15074776 -0.152533 0.29903778
0.021733392 0.20140398 0.29946524 -0.03947712 0.14539336 0.29097375 0.1423623 -0.08524769
0.28080523 0.22809473 0.30127883 0.03736019 0.2792132 0.14326645 0.053701498 0.11844903
0.15481278 0.16828337 -0.09494367 0.2510829 -0.28947708 0.18944046 -0.03338789 0.04925654
-0.029830955 0.12625349 0.12853262 0.21514009 -0.24208887 0.24018966 0.16932668 0.13199258
0.13921437 0.1351076 -0.0690548 0.124675505 -0.20259143 -0.12504724 -0.28895637 0.07036749
-0.24885355 -0.06748412 0.12467956 0.15903564 -0.0013761575 -0.08583337 0.12861189 -0.12276117
0.052951675 0.21046694 0.1380298 0.1954338 -0.030446073 0.18030603 0.1469454 0.23601632
0.031036656 0.13124181 0.1486627 0.12178617 0.16232039 0.18699694 -0.03784329 0.16783725
0.24715944 0.29969823 0.3349579 0.2047126 0.07875506 0.29563475 0.09055496 0.21106127
0.09065129 0.045311306 0.17060447 0.23070161 -0.069368914 0.0030062199 -0.26066068 0.1188897
-0.0911079 0.24988493 0.18278508 0.25840065 0.14813049 -0.25590128 0.18150073 0.08808959
0.13344948 0.10341465 0.14407974 0.19900912
00000000: a68d e5bc f9db 4f3e 634e 2e3d 1915 963d
00000010: 815f 413e 9f5d 1a3e 9c31 1cbe 7b1b 993e
00000020: 3a0a b23c d83c 4e3e 8253 993e c3b2 21bd
00000030: ffe1 143e 83fa 943e 6cc7 113e 5796 aebd
00000040: b4c5 8f3e aa91 693e 3841 9a3e 0007 193d
00000050: 08f5 8e3e 71b4 123e 1af6 5b3d 6895 f23d
00000060: 3e87 1e3e 7a52 2c3e d471 c2bd f08d 803e
00000070: 5736 94be aefc 413e bdc1 08bd 3ac1 493d
00000080: 0c60 f4bc 9848 013e 0e9e 033e af4d 5c3e
00000090: 25e6 77be 47f4 753e f963 2d3e 1029 073e
000000a0: 368e 0e3e a659 0a3e 9a6c 8dbd df55 ff3d
000000b0: 2174 4fbe 620c 00be 17f2 93be d51c 903d
000000c0: 77d3 7ebe 1d35 8abd ff57 ff3d 3dda 223e
000000d0: 2f60 b4ba 68c9 afbd d6b2 033e 356a fbbd
000000e0: dbe3 583d a584 573e af57 0d3e cc1f 483e
000000f0: 0b6a f9bc 25a2 383e db78 163e 43ae 713e
00000100: 9640 fe3c 4164 063e 093b 183e 076b f93d
00000110: 5137 263e 207c 3f3e 9101 1bbd 87dd 2b3e
00000120: 5d17 7d3e 0c72 993e 9a7f ab3e 2ea0 513e
00000130: 554a a13d 705d 973e e174 b93d 7220 583e
00000140: 62a7 b93d 5998 393d f0b2 2e3e 0b3d 6c3e
00000150: 4a11 8ebd 0004 453b 5175 85be 717c f33d
00000160: c796 babd d6e1 7f3e 032c 3b3e 174d 843e
00000170: 85af 173e 7e05 83be 54db 393e 5168 b43d
00000180: fba6 083e 0fcb d33d a489 133e 0cc9 4b3e
