agl/models/autosave/g1-attn-AE-1-5-1-200-lr0.0005.pt (torch, 12012 bytes, 21 tensors)

encoder.embed.weight f4 [8, 8]
0.014009332 -0.039352912 0.012540016 0.004514656 0.051399622 -0.058911037 0.034541417 -0.07729899
-0.058532916 0.0018803607 -0.04926416 -0.0054004285 0.041932628 -0.026495202 0.006156546 0.02580748
-0.3336624 0.2961963 -0.32484004 -0.47035345 0.40000638 -0.3071553 0.29829118 0.4090974
-0.36974862 0.28976327 -0.25108936 -0.10722038 0.03292187 -0.3724265 0.38104147 0.43026152
0.35946125 -0.49942788 0.46436352 0.35831705 -0.06972807 0.25855684 -0.40227005 -0.3246157
0.04422793 -0.032569624 0.065260045 0.115044735 -0.12454903 0.010920723 -0.050065197 0.0746334
0.82481617 -0.7382449 0.8735719 0.7043615 -0.7381895 0.49140137 -0.64548314 -0.25605482
-0.13146111 0.16035692 -0.2003769 -0.23121832 0.1932248 -0.18222974 0.16526292 0.18718414
00000000: 6687 653c 8530 21bd a474 4d3c aeef 933b
00000010: 6988 523d b34c 71bd 4d7b 0d3d ef4e 9ebd
00000020: 36c0 6fbd 6f76 f63a 37c9 49bd 14f6 b0bb
00000030: 8cc1 2b3d 770c d9bc dabc c93b 356a d33c
00000040: ccd5 aabe 0ba7 973e 6f51 a6be 2bd2 f0be
00000050: a3cd cc3e 7643 9dbe 9fb9 983e 3775 d13e
00000060: b14f bdbe da5b 943e c98e 80be 5c96 dbbd
00000070: 15d9 063d b0ae bebe de17 c33e 3d4b dc3e
00000080: 4e0b b83e 03b5 ffbe 0ec1 ed3e 5575 b73e
00000090: 97cd 8ebd 9061 843e 57f6 cdbe 0734 a6be
000000a0: 5928 353d ba67 05bd 0fa7 853d 939c eb3d
000000b0: 9013 ffbd d5ec 323c 2a11 4dbd 65d9 983d
000000c0: 2727 533f 9efd 3cbf 68a2 5f3f 0951 343f
000000d0: fdf9 3cbf f698 fb3e 623e 25bf 9e19 83be
000000e0: be9d 06be 9b34 243e 9a2f 4dbe 7fc4 6cbe
000000f0: b9dc 453e 6f9a 3abe af3a 293e 33ad 3f3e

encoder.gru.weight_ih_l0 f4 [15, 8]
0.010919954 -0.162217 0.19430058 0.1274769 -0.06694937 -0.082253456 -0.026911313 0.16566865
0.19539802 -0.2523497 0.17654917 0.08529811 -0.11099051 0.11846885 -0.13687469 0.11816796
0.07050487 -0.18995892 0.29619265 0.24707243 -0.12037415 -0.026481545 -0.08921124 0.15017165
0.104015 -0.30111572 0.24895595 0.22222066 -0.21850312 -0.20002118 -0.28486532 0.16080105
0.090007424 -0.25357902 0.1725134 0.08779924 -0.113098465 -0.08901819 -0.07798347 0.15333153
0.069392845 -0.050226353 0.12739372 0.17416698 -0.18608546 0.21105629 -0.08961643 0.002725175
-0.07455597 0.023819169 0.035056055 0.037581734 -0.10997202 -0.07246185 0.12179308 0.056414574
0.1213444 -0.16801062 0.19814557 0.18329865 -0.1707054 0.0785564 0.015564581 0.20905778
0.13817532 -0.17766844 0.17840128 0.060506877 -0.105945565 0.38375565 -0.14279023 -0.24472629
0.043524373 -0.11841909 0.089145936 0.046296906 -0.14612208 0.20861898 -0.011348769 0.06734945
0.0012340939 0.030728454 0.0025476678 0.028101979 -0.040854763 -0.077831425 0.007105584 0.013204497
-0.15765819 0.072379835 -0.101336606 0.026061786 0.038008317 -0.28909135 0.17075443 0.12626873
0.10175292 0.044356126 0.056252785 -0.052915115 0.07497581 0.02951762 -2.7448928e-05 -0.028351204
0.16800942 -0.09619189 0.05296465 0.03769355 -0.03766684 0.32543412 -0.16951308 -0.3111512
-0.0860905 -0.04521664 -0.008040393 -0.027370226 0.011136145 -0.06554561 -0.021574708 0.17943121
00000000: 9be9 323c 371c 26be bbf6 463e 4e89 023e
00000010: c01c 89bd 8074 a8bd 1d75 dcbc 0ba5 293e
00000020: 6b16 483e fb33 81be 4ec9 343e c7b0 ae3d
00000030: fe4e e3bd cc9f f23d e128 0cbe 0b02 f23d
00000040: db64 903d 9784 42be 90a6 973e 8e00 7d3e
00000050: b986 f6bd d3ef d8bc 62b4 b6bd 99c6 193e
00000060: d105 d53d d72b 9abe 4fee 7e3e d08d 633e
00000070: 48bf 5fbe 5ad2 4cbe ded9 91be 08a9 243e
00000080: d055 b83d 1cd5 81be 5aa7 303e 17d0 b33d
00000090: 2ba0 e7bd 2b4f b6bd ccb5 9fbd f102 1d3e
000000a0: d61d 8e3d 26ba 4dbd 8073 023e d458 323e
000000b0: 308d 3ebe 241f 583e d288 b7bd da98 323b
000000c0: cdb0 98bd 6b20 c33c f096 0f3d 4eef 193d
000000d0: 0339 e1bd e166 94bd a66e f93d f812 673d
000000e0: 6a83 f83d fa0a 2cbe ace6 4a3e a4b2 3b3e
000000f0: 65cd 2ebe 2ee2 a03d 9602 7f3c 3e13 563e
00000100: d57d 0d3e b7ee 35be d3ae 363e 0fd6 773d
00000110: fdf9 d8bd 9f7b c43e 9a37 12be 8799 7abe
00000120: 9d46 323d b585 f2bd 2592 b63d d3a1 3d3d
00000130: 07a1 15be 37a0 553e 30f0 39bc 82ee 893d
00000140: 52c1 a13a 3dba fb3c c6f6 263b 1f36 e63c
00000150: 5357 27bd 1566 9fbd f5d5 e83b ad57 583c
00000160: 2671 21be e13b 943d 9189 cfbd 877f d53c
00000170: 9cae 1b3d c803 94be 40da 2e3e 974c 013e
00000180: d663 d03d c5ae 353d 5269 663d 85bd 58bd
00000190: eb8c 993d f0ce f13c 2042 e6b7 c940 e8bc
000001a0: a90a 2c3e 4100 c5bd 76f1 583d 8d64 1a3d
000001b0: 8b48 1abd 4d9f a63e d694 2dbe 364f 9fbe
000001c0: 3750 b0bd 1535 39bd dabb 03bc 8637 e0bc
000001d0: 6174 363c c73c 86bd 71bd b0bc d1bc 373e

encoder.gru.weight_hh_l0 f4 [15, 5]
-0.5031862 -0.39940587 -0.45929343 -0.5859203 -0.57497114 -0.5216142 -0.53911763 -0.46726093
-0.567934 -0.57828397 -0.61755306 -0.4953318 -0.5552681 -0.58046913 -0.5143373 -0.6206917
-0.33602944 -0.60143167 -0.6120221 -0.56157833 -0.5755733 -0.33967835 -0.5268246 -0.5481398
-0.56902415 0.29256538 0.27940896 0.34802487 0.12675132 0.43320394 0.3174975 0.2917463
0.25713408 0.11221538 0.5706145 0.36090985 0.2243773 0.36791345 0.33342472 0.31576055
0.17530829 0.107786015 0.16773844 0.3964602 0.08476518 0.37776902 0.31850478 0.33285794
0.28960058 0.40935382 0.46241778 0.34765488 0.5062573 0.50113297 0.49864092 0.45618978
0.36613014 0.47199303 0.39441362 0.53323805 0.502992 0.33225054 0.5716641 0.5590409
0.4680748 0.52518964 0.2884548 0.453322 0.6453422 0.4042018 0.5294218 0.4337858
0.51625234 0.36498693 0.5826158
00000000: d0d0 00bf ed7e ccbe 8228 ebbe dffe 15bf
00000010: 4f31 13bf 8288 05bf 9d03 0abf d33c efbe
00000020: 1f64 11bf 6b0a 14bf f517 1ebf 219c fdbe
00000030: 0d26 0ebf a099 14bf 9cab 03bf a7e5 1ebf
00000040: 0d0c acbe 6df7 19bf 7bad 1cbf 99c3 0fbf
00000050: c658 13bf 52ea adbe fadd 06bf e452 0cbf
00000060: 91ab 11bf 21cb 953e b10e 8f3e 5130 b23e
00000070: 19cb 013e e8cc dd3e 088f a23e c55f 953e
00000080: 14a7 833e 2dd1 e53d cb13 123f 2dc9 b83e
00000090: 2ac3 653e 275f bc3e a5b6 aa3e 5eab a13e
000000a0: 0484 333e eabe dc3d a0c3 2b3e d5fc ca3e
000000b0: 5e99 ad3d f16a c13e 0f13 a33e 5b6c aa3e
000000c0: 8746 943e d396 d13e 06c2 ec3e d2ff b13e
000000d0: 149a 013f 404a 003f dd4d ff3e b591 e93e
000000e0: 6975 bb3e 12a9 f13e 95f0 c93e 4a82 083f
000000f0: 15c4 003f be1c aa3e 9458 123f 4e1d 0f3f
00000100: 80a7 ef3e d472 063f 59b0 933e d219 e83e
00000110: 2535 253f 8af3 ce3e 3088 073f 2c19 de3e
00000120: 1d29 043f 91df ba3e 4f26 153f

encoder.gru.bias_ih_l0 f4 [15]
0.2258911 0.0057602534 0.20723988 0.21414234 0.12799995 0.08279691 0.07613594 0.09409937
0.008046504 0.017449724 -0.0060199923 -0.02237675 -0.060436837 -0.059488278 0.047558673
00000000: ff4f 673e 82c0 bc3b b136 543e 2148 5b3e
00000010: 6b12 033e 6d91 a93d 29ed 9b3d 2cb7 c03d
00000020: 7cd5 033c b9f2 8e3c 5b43 c5bb 724f b7bc
00000030: 9e8c 77bd fba9 73bd e2cc 423d

encoder.gru.bias_hh_l0 f4 [15]
0.12071117 0.1249723 0.23948646 0.19765894 0.20846719 0.10970588 0.13782845 0.18526967
-0.004553062 0.0770431 -0.048309024 -0.077257164 -0.115655385 -0.096650876 -0.04772395
00000000: 6b37 f73d 7af1 ff3d f03b 753e 1b67 4a3e
00000010: 6c78 553e 7aad e03d e722 0d3e 55b7 3d3e
00000020: da31 95bb c6c8 9d3d afdf 45bd 0139 9ebd
00000030: bbdc ecbd e5f0 c5bd 307a 43bd

encoder.gru.weight_ih_l0_reverse f4 [15, 8]
1.0378418 -0.6995107 0.8611308 0.95119 -0.8741776 0.53835213 -1.2388107 0.28017995
0.66550857 -0.32404676 0.26164722 0.22396766 -0.15152358 0.61443377 -0.4898875 -0.024504466
0.7205228 -0.48366982 0.65765834 0.50694597 -0.5412361 0.71873087 -0.601547 0.40562743
1.0424833 -0.7015637 0.97770506 0.8549266 -0.78475475 0.53493875 -0.90736634 0.18979712
0.72998416 -0.5932596 0.7805371 0.76050687 -1.0397116 0.4424219 -0.63733697 0.390118
-0.03451041 0.22712228 -0.1897146 -0.054816447 -0.15404919 -0.24344923 0.21737584 0.25294957
-0.067733325 -0.0100840125 0.08753637 0.09625155 -0.031701963 -0.27146414 -0.11054618 0.17323641
0.01913474 -0.086148836 0.12892248 0.066717766 0.08102267 0.2102779 -0.13812795 -0.2819254
-0.08174282 0.096159615 -0.05492799 -0.087657 -0.1411177 -0.025996745 0.049689908 0.16928463
-0.11104804 -0.009735206 -0.23434412 -0.17814235 0.5640833 0.05619567 0.024114167 -0.29290143
1.3837484 -1.2850894 0.9966083 0.88250923 -0.6701913 1.5857236 -1.414232 -1.0298405
0.8239842 -0.60650146 0.38723597 0.31652325 -0.28317767 1.2580328 -0.6908404 -0.7402624
-0.79969776 0.7406565 -0.6036704 -0.60245854 0.5851264 -0.7725017 0.79030454 0.45147938
1.3210139 -1.2236534 0.9302809 0.9447931 -0.7852271 1.263578 -1.2859117 -0.88085115
-0.068353854 0.05747989 -0.13634023 -0.036736935 0.085484795 0.093220815 0.082087375 -0.08588226
00000000: 00d8 843f 2213 33bf 1173 5c3f 3081 733f
00000010: 1aca 5fbf 72d1 093f 5991 9ebf bf73 8f3e
00000020: c55e 2a3f 75e9 a5be a0f6 853e c757 653e
00000030: ff28 1bbe 884b 1d3f 89d2 fabe 97bd c8bc
00000040: 2f74 383f 92a3 f7be 4c5c 283f 36c7 013f
00000050: 738e 0abf bffe 373f fcfe 19bf 66ae cf3e
00000060: 1870 853f ae99 33bf e14a 7a3f 78dc 5a3f
00000070: b0e5 48bf bff1 083f 2949 68bf 2d5a 423e
00000080: 3ee0 3a3f dcdf 17bf 48d1 473f 94b0 423f
00000090: 4515 85bf 2085 e23e 8428 23bf 8cbd c73e
000000a0: ca5a 0dbd be92 683e 8b44 42be 3687 60bd
000000b0: 12bf 1dbe c14a 79be c697 5e3e 9b82 813e
000000c0: c5b7 8abd 6a37 25bc 4546 b33d 881f c53d
000000d0: ebd9 01bd 59fd 8abe 0966 e2bd e364 313e
000000e0: 75c0 9c3c cd6e b0bd 4104 043e 53a3 883d
000000f0: 37ef a53d 1753 573e 6a71 0dbe 8758 90be
00000100: c868 a7bd 55ef c43d 2cfc 60bd 8385 b3bd
00000110: 2981 10be 20f7 d4bc a587 4b3d f358 2d3e
00000120: 286d e3bd 6a80 1fbc e8f7 6fbe f36a 36be
00000130: c367 103f 6e2d 663d 138b c53c 2df7 95be
00000140: ab1e b13f cf7d a4bf b921 7f3f 20ec 613f
00000150: a891 2bbf fef8 ca3f 8e05 b5bf d0d1 83bf
00000160: a1f0 523f ae43 1bbf cb43 c63e 560f a23e
00000170: aafc 90be 3807 a13f ebda 30bf d681 3dbf
00000180: feb8 4cbf aa9b 3d3f 258a 1abf b93a 1abf
00000190: d8ca 153f acc2 45bf 6651 4a3f 4e28 e73e
000001a0: fc16 a93f ada0 9cbf e426 6e3f f6dd 713f
000001b0: a504 49bf edbc a13f c198 a4bf 767f 61bf
000001c0: 1bfd 8bbd 0870 6b3d c69c 0bbe 7879 16bd
000001d0: a712 af3d 8eea be3d 6d1d a83d 0ae3 afbd

encoder.gru.weight_hh_l0_reverse f4 [15, 5]
0.5853932 0.5254944 -0.09475888 0.5638888 -0.06277046 0.19194955 0.34267527 -0.18472405
0.14642558 -0.08217435 0.39497247 0.3863714 0.024270369 0.36450997 -0.039547913 0.50377184
0.55879694 0.025409102 0.53138083 0.06971754 0.98667914 0.8298285 -0.47870082 0.9604793
-0.75188965 0.19521084 0.56838185 -0.15402336 0.24201156 0.70740336 -0.58599675 -0.14295009
0.61500806 -0.70070773 1.4643193 -0.5755633 -0.12772685 0.8343668 -0.8429556 1.8211905
-0.065750785 0.33400965 0.12923397 -0.04351113 0.950769 -0.51155454 0.17448595 0.16685574
-0.5614695 1.6967812 0.7825058 0.45237827 0.07560196 0.71316504 0.11504884 0.3355687
0.28897944 -0.18167977 0.3766774 -0.37556458 -0.67642254 -0.2081691 -0.12182271 -0.51758057
0.14938562 0.76180595 0.23733568 0.17960337 0.565086 -0.058391776 -1.4853345 -0.42543882
0.3190412 -1.3913845 0.17003
00000000: 54dc 153f cd86 063f f210 c2bd 045b 103f
00000010: cd8d 80bd 6c8e 443e 2273 af3e 4d28 3dbe
00000020: 96f0 153e 074b a8bd d539 ca3e 79d2 c53e
00000030: a7d2 c63c 0da1 ba3e fefc 21bd 31f7 003f
00000040: 510d 0f3f c026 d03c 9308 083f 12c8 8e3d
00000050: 0197 7c3f a46f 543f 4618 f5be f9e1 753f
00000060: d77b 40bf 5ae5 473e 7981 113f 4db8 1dbe
00000070: e1d1 773e 6318 353f e203 16bf 8261 12be
00000080: 2b71 1d3f 9561 33bf d16e bb3f 1e58 13bf
00000090: d4ca 02be 1099 553f f0cb 57bf c51c e93f
000000a0: 59a8 86bd 5003 ab3e e955 043e ba38 32bd
000000b0: 9965 733f 3df5 02bf 72ac 323e 3bdc 2a3e
000000c0: 77bc 0fbf 2030 d93f 4d52 483f 209e e73e
000000d0: 33d5 9a3d fc91 363f ba9e eb3d a9cf ab3e
000000e0: 1df5 933e 430a 3abe dcdb c03e 004a c0be
000000f0: 072a 2dbf 482a 55be 2f7e f9bd 2980 04bf
00000100: 8bf8 183e b705 433f 2008 733e f2e9 373e
00000110: 7aa9 103f 372c 6fbd 711f bebf 1ed3 d9be
00000120: 5e59 a33e e318 b2bf 581c 2e3e

encoder.gru.bias_ih_l0_reverse f4 [15]
0.007904185 -0.0034454602 0.0038856429 0.011702426 0.03593788 -0.9603735 -0.76365525 -0.2217229
-0.73292583 -0.6113793 0.05467988 -0.24872737 0.08653298 0.000106484586 -0.13081922
00000000: 8e80 013c 3bcd 61bb 45a6 7e3b 88bb 3f3c
00000010: 9933 133d 0adb 75bf e97e 43bf 540b 63be
00000020: 07a1 3bbf 5b83 1cbf 03f8 5f3d 63b2 7ebe
00000030: 3438 b13d 7a50 df38 79f5 05be

encoder.gru.bias_hh_l0_reverse f4 [15]
0.15212482 -0.05843193 0.13376614 0.0009740712 0.007297329 -0.91678894 -0.7549215 -0.21006308
-0.62241155 -0.5789771 0.3550477 -0.12718993 0.04955775 0.2883635 -0.022713438
00000000: 9cc6 1b3e 5256 6fbd fef9 083e d058 7f3a
00000010: 6f1e ef3b aeb2 6abf 8942 41bf c71a 57be
00000020: 5d56 1fbf d837 14bf d0c8 b53e 143e 02be
00000030: 11fd 4a3d 61a4 933e 8811 babc

encoder.fc_hidden.weight f4 [5, 10]
-1.0615522 -0.81613237 -0.9348869 -1.1606046 -1.1187721 -0.28808385 -0.29208064 0.08884788
-0.13374963 -0.07908974 -0.47003883 -0.42346528 -0.27402312 -0.32987237 -0.401297 -0.11202771
0.3618859 -0.1889092 0.1509251 0.1300135 0.46426228 0.28756493 0.31630716 0.34477833
0.43762603 0.23162836 -0.022956451 -0.1180877 0.22822233 -0.14530124 -0.062371664 -0.093752384
-0.1589449 -0.2044472 -0.18574893 -1.0439473 -1.4146105 0.9251617 -1.1276222 0.52784264
1.1185423 0.57909757 1.2216809 1.455797 0.88821715 -0.33782348 0.22263607 0.18128943
-0.26358628 0.7836695
00000000: f1e0 87bf 0dee 50bf bf54 6fbf b18e 94bf
00000010: ed33 8fbf ba7f 93be 988b 95be e1f5 b53d
00000020: aaf5 08be cdf9 a1bd eea8 f0be 71d0 d8be
00000030: c24c 8cbe 08e5 a8be cd76 cdbe c96e e5bd
00000040: 1c49 b93e 6a71 41be 1c8c 1a3e 4222 053e
00000050: c9b3 ed3e b63b 933e 03f3 a13e c986 b03e
00000060: 8510 e03e fc2f 6d3e 2b0f bcbc f7d7 f1bd
00000070: 1db3 693e d9c9 14be 6e79 7fbd 4001 c0bd
00000080: 74c2 22be 9b5a 51be f834 3ebe 11a0 85bf
00000090: f511 b5bf 66d7 6c3f ed55 90bf b220 073f
000000a0: 652c 8f3f bd3f 143f 0a60 9c3f 8e57 ba3f
000000b0: 3362 633f 33f7 acbe b6fa 633e f0a3 393e
000000c0: c8f4 86be 909e 483f

encoder.fc_hidden.bias f4 [5]
0.33291948 -0.19757834 0.2011204 -0.12774245 -1.1536444
00000000: 6c74 aa3e fa51 4abe 82f2 4d3e ebce 02be
00000010: 9faa 93bf

decoder.attention.attn.weight f4 [5, 15]
0.7126363 1.5733457 -0.90550745 0.8029313 -0.60550386 0.18506813 0.16174714 0.22915705
0.191265 0.1827825 -0.59757733 -0.5532119 0.6312862 -0.56751597 0.5505106 -0.8088343
-0.8978145 0.45490438 -1.5369703 0.67667645 -0.17441113 -0.26915765 -0.2838687 -0.0670841
-0.14327492 0.5274711 0.5935554 -0.63424635 0.4795427 -0.59303594 -0.58783835 0.26099193
0.19473499 -0.31791848 0.53027374 -0.89503455 -0.79882777 -0.6825737 -0.99770135 -0.984912
-0.6360278 -0.35607997 0.22387668 -0.55614734 0.5339341 -0.6895242 -1.6117654 1.0762371
-0.6766951 0.535894 -0.21814132 -0.26169404 -0.19996113 -0.057323985 -0.06949241 0.53976315
0.60641396 -0.59303105 0.5683381 -0.59219426 0.7336639 1.5335379 -0.853732 0.81189114
-0.65257853 0.14820793 0.2408479 0.32979968 0.19720027 0.062031776 -0.59488744 -0.47344482
0.64254284 -0.6104858 0.59401524
00000000: 556f 363f 6463 c93f 56cf 67bf e88c 4d3f
00000010: 4d02 1bbf 8082 3d3e 0ba1 253e 25a8 6a3e
00000020: f9da 433e 562b 3b3e d4fa 18bf 4c9f 0dbf
00000030: f99b 213f ba48 11bf 43ee 0c3f c40f 4fbf
00000040: 2cd7 65bf 3ae9 e83e 71bb c4bf ab3a 2d3f
00000050: d598 32be 08cf 89be 3d57 91be 6363 89bd
00000060: a9b6 12be 5908 073f 3ff3 173f f85d 22bf
00000070: 9f86 f53e 34d1 17bf 937c 16bf bca0 853e
00000080: 9c68 473e 36c6 a2be 05c0 073f fc20 65bf
00000090: fa7f 4cbf 26bd 2ebf 5b69 7fbf 3123 7cbf
000000a0: b8d2 22bf 1d50 b6be ee3f 653e ac5f 0ebf
000000b0: e8af 083f a884 30bf 544e cebf 23c2 893f
000000c0: e43b 2dbf 5930 093f 7060 5fbe c3fc 85be
000000d0: 9cc2 4cbe 8ecc 6abd 0952 8ebd eb2d 0a3f
000000e0: f23d 1b3f e2d0 17bf 9b7e 113f 0b9a 17bf
000000f0: 66d1 3b3f f84a c43f 2e8e 5abf 19d8 4f3f
00000100: 630f 27bf d2c3 173e d5a0 763e 81db a83e
00000110: deee 493e 0815 7e3d 8b4a 18bf 5c67 f2be
00000120: b07d 243f cc48 1cbf 6211 183f

decoder.attention.attn.bias f4 [5]
0.44981232 -0.5603333 -0.41011527 -0.44510275 0.48645726
00000000: cd4d e63e 0172 0fbf a1fa d1be 82e4 e3be
00000010: ed10 f93e

decoder.attention.v.weight f4 [1, 5]
-1.6452342 1.9848073 1.8014603 1.5156363 -1.6987071
00000000: 0997 d2bf 2a0e fe3f 4096 e63f 5f00 c23f
00000010: 3c6f d9bf

decoder.embed.weight f4 [8, 8]
0.011677151 0.018575458 -0.013120555 -0.036272552 -0.07998332 -0.028886184 0.054941766 -0.038797215
-0.5491002 -1.4001238 -1.4048263 -1.4742522 -1.639526 1.5997808 -1.4170899 -1.3057032
-0.8896475 0.8850298 0.53630126 -0.5749132 -0.5299488 -0.7681901 -0.61630267 0.83666605
0.37653238 0.0027244948 0.0482325 -0.0032464413 -0.0037461843 -0.03302351 0.013446495 -0.18297201
0.14887156 -0.00203704 -0.7563507 0.022682598 0.018498901 0.02057282 0.01303869 0.004412174
1.0041468 -0.02671735 -0.08257082 0.012245988 -0.0004240916 0.05482135 0.019427484 0.22449334
-0.18089113 0.14762324 0.21128435 0.103686444 0.054850254 -0.08577406 0.12851155 -0.110208295
-0.7490148 1.018726 0.54980075 -0.65069205 -0.5639765 -0.83736336 -0.5956872 0.65013766
00000000: 8551 3f3c 8f2b 983c 99f7 56bc 8792 14bd
00000010: 4bce a3bd b8a2 ecbc 9e0a 613d d4e9 1ebd
00000020: d591 0cbf 4237 b3bf 59d1 b3bf 4cb4 bcbf
00000030: fddb d1bf 9ec5 cc3f 3463 b5bf 4821 a7bf
00000040: f0bf 63bf 5091 623f 0a4b 093f 832d 13bf
00000050: b9aa 07bf 1ba8 44bf 03c6 1dbf bf2f 563f
00000060: dac8 c03e 708d 323b 718f 453d 3fc2 54bb
00000070: 8b82 75bb a943 07bd b04e 5c3c 045d 3bbe
00000080: c971 183e dc7f 05bb 33a0 41bf dbd0 b93c
00000090: 028b 973c 5588 a83c 3ba0 553c 0094 903b
000000a0: e287 803f 58de dabc e41a a9bd 65a3 483c
000000b0: 9c58 deb9 5a8c 603d 6326 9f3c 95e1 653e
000000c0: 863b 39be 8c2a 173e ed5a 583e 8f59 d43d
000000d0: a9aa 603d 4faa afbd 8898 033e e3b4 e1bd
000000e0: 6fbf 3fbf 9d65 823f bebf 0c3f c193 26bf
000000f0: c460 10bf 725d 56bf f57e 18bf 6c6f 263f

decoder.gru.weight_ih_l0 f4 [15, 18]
0.7882676 0.7290666 -0.5561207 0.22943932 0.2976891 -0.4572424 0.24449512 0.3936514
-2.0251322 -1.7960395 -2.1097898 -1.9540374 -1.9254066 0.61551476 -0.031519257 -0.45564327
0.46001545 -1.7685589 0.2614243 0.26984832 -0.2232115 -0.15147285 -0.3477501 -0.07768074
-0.11637408 -0.12666623 -1.2020037 -1.2125592 -1.4237419 -1.2981801 -1.2245123 0.77197564
0.10694864 -0.60051537 0.66763955 -1.3251308 0.40146205 0.13787079 -0.3963026 0.13278843
-0.07172945 0.068859965 0.11902624 -0.3491391 -0.63256484 -0.8710291 -0.66041857 -0.6518476
-0.6236967 0.73730826 0.38576388 -0.5545106 0.7463927 -1.0546455 0.49628165 0.48418656
-0.44419622 0.34247994 0.0011860341 -0.2778506 0.21501833 0.10939307 -1.8172624 -1.585911
-1.8189234 -1.5257539 -1.9690772 0.27995783 0.20512998 -0.49581543 0.22549368 -0.984886
0.29973933 0.2637609 -0.6369136 -0.19752166 -0.20568098 -0.19682819 -0.28353316 0.32811803
-1.4205396 -1.6192063 -1.4212202 -1.1125493 -1.3337331 1.1774107 0.69796944 -0.91913074
1.120254 -1.8736837 -0.16202438 -0.34580892 -0.014822213 -0.32141483 -0.43460464 0.31976584
-0.39551166 -0.8433447 -0.5549701 -0.40448776 -0.4126136 -0.18663082 -0.67160493 -0.19357242
0.15501648 -0.087943144 -0.16374815 0.06257525 -0.032597326 -0.15116407 -0.08867633 -0.09465625
-0.096222244 0.13154265 -0.10289378 -0.10255861 -0.32583717 -0.3484253 -0.15624158 -0.17079942
-0.25724393 0.017219203 0.20108025 -0.17407487 0.16823232 -0.115561 -0.036120407 0.06240684
0.03444505 0.04168475 0.05527842 -0.04977602 0.029409625 0.041948475 -0.38945884 -0.2910235
-0.2726581 -0.14668046 -0.3930186 0.088404 0.20998181 -0.1361009 0.098396175 -0.120639324
-0.17087652 -0.6577445 -0.03950193 -0.45114908 -0.50394756 0.6431301 -0.4911407 -0.4928201
0.7446997 0.4138536 0.7528602 1.7296662 0.58469194 -0.23319755 -0.09109524 0.05526718
-0.11186758 0.15880033 0.11745678 0.0034897905 0.383206 -0.32219037 -0.49041593 0.16512741
-0.32204145 0.003136997 -0.015169214 0.2422551 -0.05385914 -0.45118475 0.041404724 -0.2468865
-0.39382344 0.38283634 -0.25491387 0.19309802 0.08462894 -0.28725663 -0.2551859 -0.16778852
-0.2771011 0.37051305 -0.13747802 -0.46273592 -0.63868386 -0.38305956 -0.5371288 -0.3121651
-0.75683665 -0.29422638 -0.028247455 0.020463822 -0.122099705 0.016527627 0.13564083 -0.18653668
-0.09225363 0.18881975 0.297317 0.18396541 0.21719728 -0.16697489 0.25181717 0.1886844
0.43216836 0.4775153 0.2824607 -0.31054384 0.042802814 -0.26945287 -0.2336777 0.33787116
0.04381475 0.16583304 0.023760598 -0.21026672 -0.28031993 -0.08893336 -0.21932486 0.04845143
-0.38589385 -0.34218797 -0.39105985 -0.62614703 -0.26492473 0.50693935 0.039787788 0.19350396
0.33051738 -0.3231482 -0.38518184 0.3578985 -0.019805416 0.19739556 0.3118955 -0.30400673
0.23848909 -1.0555474 -0.33032215 -0.35352635 -0.3528334 -0.1597627 -0.37901133 -0.12164442
0.29691556 -0.16849172 -0.11576481 -0.08682424 -0.3285577 0.016874906 -0.046309404 0.062195327
00000000: e8cb 493f 1ca4 3a3f ed5d 0ebf 24f2 6a3e
00000010: b56a 983e ad1b eabe ee5c 7a3e ad8c c93e
00000020: c49b 01c0 9fe4 e5bf cc06 07c0 e61d fabf
00000030: b973 f6bf 6092 1d3f 561a 01bd 134a e9be
00000040: 2587 eb3e 2360 e2bf 68d9 853e 8f29 8a3e
00000050: 8e91 64be b31b 1bbe 4d0c b2be 1417 9fbd
00000060: 8955 eebd cbb4 01be 42db 99bf 2435 9bbf
00000070: 2d3d b6bf c42a a6bf d2bc 9cbf 32a0 453f
00000080: e307 db3d 60bb 19bf 6dea 2a3f e39d a9bf
00000090: 6f8c cd3e 002e 0d3e 2de8 cabe b1f9 073e
000000a0: e4e6 92bd 7406 8d3d 08c4 f33d 5cc2 b2be
000000b0: c5ef 21bf c3fb 5ebf 3111 29bf 7cdf 26bf
000000c0: 96aa 1fbf 3cc0 3c3f d882 c53e 68f4 0dbf
000000d0: 9813 3f3f a0fe 86bf a118 fe3e 4de7 f73e
000000e0: b06d e3be 8859 af3e b374 9b3a 6f42 8ebe
000000f0: c42d 5c3e 7909 e03d 0e9c e8bf 22ff cabf
00000100: 7bd2 e8bf e74b c3bf b90a fcbf a256 8f3e
00000110: 980d 523e 85db fdbe d1e7 663e 7d21 7cbf
00000120: 6f77 993e ab0b 873e c50c 23bf 1e43 4abe
00000130: 099e 52be 548d 49be 422b 91be 16ff a73e
00000140: 3ed4 b5bf 2742 cfbf 8bea b5bf 0468 8ebf
00000150: c4b7 aabf 65b5 963f 20ae 323f 274c 6bbf
00000160: 7c64 8f3f ded4 efbf b8e9 25be de0d b1be
00000170: ded8 72bc 7c90 a4be 8084 debe 59b8 a33e
00000180: 8180 cabe 70e5 57bf 8512 0ebf 0519 cfbe
00000190: 1742 d3be 261c 3fbe 4dee 2bbf d937 46be
000001a0: a4bc 1e3e 891b b4bd 98ad 27be 7427 803d
000001b0: c684 05bd c1ca 1abe f09b b5bd 23db c1bd
000001c0: 2b10 c5bd 1eb3 063e f9b9 d2bd 400a d2bd
000001d0: 21d4 a6be cd64 b2be cbfd 1fbe 0be6 2ebe
000001e0: 7ab5 83be 490f 8d3c fbe7 4d3e af40 32be
000001f0: 1845 2c3e 3fab ecbd fef2 13bd 519e 7f3d
00000200: 4116 0d3d a1bd 2a3d a06b 623d f1e1 4bbd
00000210: 74ec f03c 2ad2 2b3d 2667 c7be 0801 95be
00000220: d899 8bbe 6733 16be bc39 c9be 280d b53d
00000230: 7905 573e 095e 0bbe ef83 c93d c011 f7bd
00000240: 41fa 2ebe f261 28bf c7cc 21bd 03fd e6be
00000250: b502 01bf 2da4 243f cb76 fbbe eb52 fcbe
00000260: a4a4 3e3f 9ee4 d33e 72bb 403f b465 dd3f
00000270: 5fae 153f 57cb 6ebe 2490 babd d75f 623d
00000280: d41a e5bd 8e9c 223e 2e8d f03d f8b4 643b
00000290: 9433 c43e 23f6 a4be cc17 fbbe 2917 293e
000002a0: 9ee2 a4be 1496 4d3b 4c88 78bc b911 783e
000002b0: 679b 5cbd b001 e7be 0098 293d d1cf 7cbe
000002c0: 3aa3 c9be 2003 c43e 1284 82be 7dbb 453e
000002d0: f051 ad3d 4d13 93be baa7 82be c1d0 2bbe
000002e0: 32e0 8dbe e3b3 bd3e 0ac7 0cbe b9eb ecbe
000002f0: c980 23bf 6220 c4be 4681 09bf 1bd4 9fbe
00000300: 0cc0 41bf d7a4 96be 3567 e7bc bfa3 a73c
00000310: 690f fabd f264 873c 6ee5 0a3e 7903 3fbe
00000320: 79ef bcbd f759 413e ef39 983e 6e61 3c3e
00000330: f768 5e3e 77fb 2abe 2eee 803e 7c36 413e
00000340: 2c45 dd3e e37c f43e b09e 903e 9aff 9ebe
00000350: 0152 2f3d baf5 89be 3549 6fbe 73fd ac3e
00000360: 1877 333d 23d0 293e 96a5 c23c 2950 57be
00000370: 1886 8fbe b222 b6bd b296 60be 0275 463d
00000380: e193 c5be 4333 afbe ff38 c8be 2c4b 20bf
00000390: 37a4 87be c7c6 013f 85f8 223d e725 463e
000003a0: 9339 a93e ae73 a5be 8e36 c5be 793e b73e
000003b0: f83e a2bc 1022 4a3e c4b0 9f3e c5a6 9bbe
000003c0: 7c36 743e 2d1c 87bf fc1f a9be 6801 b5be
000003d0: 94a6 b4be d598 23be c60d c2be b620 f9bd
000003e0: 5105 983e 1889 2cbe 1a16 edbd e8d0 b1bd
000003f0: b738 a8be 3e3d 8a3c eeae 3dbd 87c0 7e3d

decoder.gru.weight_hh_l0 f4 [15, 5]
1.327309 -0.8938967 0.8749755 0.96823627 -1.856984 -0.10329395 -0.9012086 0.96818924
0.0026958673 -0.5911681 0.15094392 -0.57914543 0.5524187 0.21703398 -0.30340636 0.3195156
-0.46688095 -0.108092785 1.0547268 -0.8285776 0.22703539 -0.8359407 0.8891217 -0.33168083
-0.8991163 0.27171057 2.8600247 -3.2394042 0.106524035 0.08927893 0.14402045 0.99040866
-0.8719559 -0.2811923 -0.075934805 0.30304983 1.0396051 -0.86325973 0.009145731 -0.06473449
0.44330665 1.2226453 -1.4308628 -1.2756917 0.30412456 1.9823382 1.6058526 -1.7445562
-0.01579616 -0.40758687 0.54239637 2.4540205 -3.0536644 0.17200692 -0.13519855 -0.9157305
-0.033451743 0.21585444 -1.8122613 1.7314024 0.8600836 0.16245948 -0.21009277 1.3146633
-1.7272516 1.4057732 1.1898788 -2.0286047 0.7919623 -0.39239177 -1.7640322 -1.5133327
1.3044367 0.20488212 0.5514035
00000000: 43e5 a93f 6ad6 64bf 65fe 5f3f 55de 773f
00000010: a7b1 edbf c78b d3bd 9bb5 66bf 40db 773f
00000020: 26ad 303b cb56 17bf 0b91 1a3e e042 14bf
00000030: 506b 0d3f 283e 5e3e 1458 9bbe 8c97 a33e
00000040: 050b efbe c05f ddbd 4a01 873f a91d 54bf
00000050: f77b 683e 3600 56bf 7b9d 633f 12d2 a9be
00000060: 7c2c 66bf a61d 8b3e a50a 3740 6652 4fc0
00000070: 4629 da3d dfd7 b63d 197a 133e 6c8b 7d3f
00000080: 8038 5fbf 70f8 8fbe b583 9bbd 5929 9b3e
00000090: c811 853f 97fe 5cbf fad7 153c 8493 84bd
000000a0: 17f9 e23e a47f 9c3f 8326 b7bf de49 a3bf
000000b0: 37b6 9b3e 42bd fd3f 948c cd3f 9e4d dfbf
000000c0: f366 81bc 3aaf d0be 7dda 0a3f ac0e 1d40
000000d0: 3d6f 43c0 9522 303e 7d71 0abe 506d 6abf
000000e0: b204 09bd f208 5d3e 2ef8 e7bf 989e dd3f
000000f0: 702e 5c3f c75b 263e 8f22 57be e346 a83f
00000100: 9516 ddbf 60f0 b33f f34d 983f a9d4 01c0
00000110: 0bbe 4a3f 93e7 c8be cfcb e1bf e3b4 c1bf
00000120: c8f7 a63f 9ecc 513e c828 0d3f

decoder.gru.bias_ih_l0 f4 [15]
2.0911891 1.4350116 0.9619377 1.07203 1.5797628 -0.28112411 -0.19250637 -0.110478535
-0.6510001 -0.09954257 0.0046688695 -0.5677483 0.46386915 -0.20330775 -0.2535899
00000000: 0bd6 0540 76ae b73f 8d41 763f 4738 893f
00000010: ab35 ca3f 80ef 8fbe 6420 45be 9242 e2bd
00000020: f1a7 26bf fadc cbbd 51fd 983b f457 11bf
00000030: 4280 ed3e e82f 50be 89d6 81be

decoder.gru.bias_hh_l0 f4 [15]
2.1804674 1.3433888 0.8917849 1.1790965 1.6422774 -0.34026104 -0.17759007 -0.062376086
-0.66495997 -0.10620363 -0.052420642 -0.6431186 0.5497324 -0.08100711 -0.16064821
00000000: c78c 0b40 2af4 ab3f 044c 643f a2ec 963f
00000010: 2536 d23f b236 aebe 2cda 35be 117e 7fbd
00000020: d13a 2abf 4a81 d9bd 07b7 56bd 6ca3 24bf
00000030: 43bb 0c3f 0ee7 a5bd f780 24be

decoder.fc_out.weight f4 [8, 23]
0.38086507 0.6596946 -1.26364 -0.42735186 1.3373133 2.67612 2.6861646 2.7320714
2.559432 2.6170833 -0.78788185 0.11119362 0.38706872 -0.6221327 2.796754 -0.40611577
-0.4224737 0.27915663 0.6533873 0.77608883 0.19424163 0.53722185 -0.11246631 0.40675202
0.71116346 -1.1691301 -0.41706026 1.3783491 2.6737368 2.602542 2.7293222 2.5234122
2.5654562 -0.75040466 0.11445594 0.38277492 -0.67631304 2.8152957 -0.4220194 -0.40441796
0.2761959 0.69568765 0.7903679 0.20294873 0.50891775 -0.11691792 -1.4681716 1.8207629
-0.8312207 -1.7435689 2.8298645 0.048548374 -0.10042148 0.1787639 0.5634694 -0.18361482
-0.8374878 -0.6811867 0.57998353 -0.90639746 0.6504341 -1.3166733 0.6280235 0.8343444
-0.7707825 -0.62874144 -0.8641647 -0.78209996 1.0892907 -0.23590948 0.4601075 -0.8210253
0.6593342 -0.4327585 -0.55267495 -0.45993838 -0.55835027 -0.8160983 -0.6114654 -1.1840454
-1.3455532 1.0699724 -1.235767 1.0596521 0.06833898 -0.5310511 -0.07006278 -0.49152178
-0.31527975 0.46620414 -0.45218164 -0.4332187 -0.7952674 -0.02689521 0.07330308 -0.65846694
-1.3105367 -0.025431368 0.021870561 -0.02764115 0.12582009 0.16841044 1.0489045 0.45920786
-0.35562238 0.8082728 -0.36951998 0.11207422 -0.38640568 -0.3351196 -0.31608856 -0.41171268
0.43430653 -0.27766287 -0.3814259 1.8385633 -0.042617217 -0.20155598 1.6842481 -0.6815546
-0.21268493 0.037579626 -0.1604747 -0.434681 -0.15604249 -0.6223104 -0.63797027 0.3189356
-0.5483065 0.09720319 0.18593825 0.88559455 0.94910705 0.9199071 1.0362734 -1.132609
0.8832277 -0.13566172 0.5412868 0.360284 -0.263111 0.37472808 0.32360062 0.18415341
0.04643181 0.013206358 0.2229157 0.1184112 0.6070641 1.2163225 -0.90036786 0.78362095
-0.5888495 0.50499624 0.075464256 -0.31640738 0.29772544 0.42129695 -0.109249644 0.30142406
1.1701263 -1.6677997 -2.1442568 1.7118751 -4.3521414 3.4486883 1.028959 0.576979
1.170078 1.5665175 0.6105189 -0.21680711 0.022629922 0.15165146 -0.14788261 0.7804484
-0.58381253 -0.1630409 -0.35787603 0.2437331 0.6442265 0.014417684 0.28849506 -0.30221635
00000000: bf00 c33e bfe1 283f f5be a1bf ddcd dabe
00000010: 152d ab3f 8d45 2b40 1fea 2b40 42da 2e40
00000020: bccd 2340 4b7e 2740 a0b2 49bf 7bb9 e33d
00000030: df2d c63e 1744 1fbf 04fe 3240 68ee cfbe
00000040: 794e d8be 9eed 8e3e 6444 273f c2ad 463f
00000050: 47e7 463e 5f87 093f bd54 e6bd cd41 d03e
00000060: cf0e 363f 0ea6 95bf ec88 d5be be6d b03f
00000070: 811e 2b40 0c90 2640 37ad 2e40 967f 2140
00000080: 6f30 2440 851a 40bf e067 ea3d 13fb c33e
00000090: da22 2dbf ce2d 3440 ed12 d8be df0f cfbe
000000a0: 8d69 8d3e 9618 323f 8d55 4a3f cbd1 4f3e
000000b0: 6f48 023f aa72 efbd 0ced bbbf c20e e93f
000000c0: e1ca 54bf 442d dfbf 801c 3540 a9da 463d
000000d0: c7a9 cdbd e20d 373e 883f 103f 8605 3cbe
000000e0: 9a65 56bf 4062 2ebf cd79 143f aa09 68bf
000000f0: d982 263f c088 a8bf 26c6 203f 9897 553f
00000100: 0052 45bf 33f5 20bf e639 5dbf b437 48bf
00000110: e16d 8b3f 4192 71be 3693 eb3e b72e 52bf
00000120: 20ca 283f 8692 ddbe 1b7c 0dbf 0b7d ebbe
00000130: 0bf0 0ebf d1eb 50bf ff88 1cbf cd8e 97bf
00000140: 163b acbf dbf4 883f 9d2d 9ebf aea2 873f
00000150: 4ff5 8b3d f7f2 07bf 137d 8fbd bea8 fbbe
00000160: 596c a1be 4fb2 ee3e 5a84 e7be d7ce ddbe
00000170: a596 4bbf 5853 dcbc ed1f 963d 4a91 28bf
00000180: abbf a7bf 7255 d0bc e429 b33c b16f e2bc
00000190: fbd6 003e c973 2c3e 8142 863f 4b1d eb3e
000001a0: 2314 b6be f7ea 4e3f b931 bdbe 2b87 e53d
000001b0: f7d6 c5be cc94 abbe 5cd6 a1be 01cc d2be
000001c0: 6d5d de3e d429 8ebe 414a c3be 0b56 eb3f
000001d0: 648f 2ebd b164 4ebe 7195 d73f 5d7a 2ebf
000001e0: 14ca 59be 18ed 193d 7b53 24be 828e debe
000001f0: 9ac9 1fbe bc4f 1fbf 0552 23bf 874b a33e
00000200: d15d 0cbf 7712 c73d 9966 3e3e 53b6 623f
00000210: aef8 723f 087f 6b3f 9ba4 843f 55f9 90bf
00000220: 361b 623f e8ea 0abe c691 0a3f 2577 b83e
00000230: 7cb6 86be 5cdc bf3e fbae a53e b692 3c3e
00000240: 482f 3e3d 7b5f 583c 0344 643e 9281 f23d
00000250: 8e68 1b3f 75b0 9b3f 827e 66bf 629b 483f
00000260: d7be 16bf 6f47 013f 018d 9a3d 2600 a2be
00000270: 786f 983e 3cb4 d73e 47be dfbd 4154 9a3e
00000280: b3c6 953f 767a d5bf 813b 09c0 b91e db3f
00000290: be44 8bc0 4fb7 5c40 eeb4 833f e5b4 133f
000002a0: 1ec5 953f a583 c83f f74a 1c3f af02 5ebe
000002b0: 6362 b93c 854a 1b3e 8a6e 17be 77cb 473f
000002c0: bd74 15bf 32f4 26be 873b b7be 2b95 793e
000002d0: 07ec 243f 2638 6c3c a0b5 933e 1abc 9abe

decoder.fc_out.bias f4 [8]
-2.0093448 -2.0414824 -0.27440423 0.17765604 0.5114963 0.20435706 -0.24233511 -1.1950347
00000000: 1b99 00c0 a6a7 02c0 b67e 8cbe 77eb 353e
00000010: 6cf1 023f fa42 513e b226 78be e6f6 98bf
