agl/models/autosave/g1-gru-AE-1-4-1-600-lr0.0008.pt (torch, 130055 bytes, 24 tensors)

encoder.embed.weight f4 [8, 8]
000000 e1 70 71 3c 0a b6 5a 3d b8 60 97 3c 05 2b 44 3d
       0.014736385 0.053396262 0.018478736 0.04789259
000010 fc 81 8e 3d 8a 0b e6 bc 0a 15 ba bc bb 21 76 3d
       0.06958386 -0.028081674 -0.02271511 0.06009076
000020 85 f5 e9 be f1 de 1d bf 3a fc 13 bf 88 1c 20 3f
       -0.4569513 -0.61668307 -0.5780674 0.62543535
000030 ed a4 29 3f 26 8e 18 3f a8 1d 26 3f 27 83 f4 be
       0.6626728 0.595919 0.64889 -0.4775631
000040 87 cd f8 be 3b dc bc be c6 1f ce be 45 a4 09 3f
       -0.48594305 -0.36886773 -0.40258616 0.5376628
000050 bd 76 df 3e 60 12 ec 3e b2 0a db 3e 27 d2 ec be
       0.43645278 0.4610777 0.42781597 -0.46254084
000060 8e ce 4b 3f 4d dc c6 bd d6 5e d3 bd aa 7f c9 3d
       0.7961205 -0.09709988 -0.10320823 0.09838803
000070 04 5e bc 3d 9d ba aa 3d 76 73 2a bf 3b a2 24 3f
       0.091976196 0.08336375 -0.6658243 0.64310044
000080 da 6d d9 bc a0 ef d4 36 c9 d2 c2 bb 74 5c b7 3b
       -0.02654164 6.3459884e-06 -0.0059455377 0.005595738
000090 fe 00 42 3c d8 f4 6f 3c 8c 99 07 3d bf ef 06 bd
       0.011841057 0.014645778 0.033105418 -0.032943483
0000a0 ca f1 c8 3d 2c ba 8d 3d 47 65 17 3d 57 56 65 bd
       0.098117426 0.06920275 0.03696182 -0.055990543
0000b0 27 93 5f bd b1 9b 9f bd 75 67 d9 bd 48 eb b2 3d
       -0.054583695 -0.07793368 -0.10615436 0.087362826
0000c0 67 c5 a7 bc 4c 65 00 3f 9d 52 f0 3e 97 f9 eb be
       -0.020479871 0.50154567 0.4693803 -0.4608886
0000d0 eb 82 f3 be 4d eb f7 be 20 76 3b 3d 9e 69 e2 bc
       -0.4756082 -0.48421708 0.04576695 -0.027638253
0000e0 a2 00 eb be 61 bd f7 be 7b 70 ef be c0 b4 dc 3e
       -0.4589892 -0.48386672 -0.46765503 0.4310665
0000f0 c6 4c c9 3e a4 0f e5 3e c4 35 dd 3e 89 5e f1 be
       0.39316386 0.44738495 0.43205082 -0.47142437

encoder.fc_one.weight f4 [600, 8]
000000 78 ba a5 bc a2 d1 ba 3c 9e fe b5 3b 2a da 81 3b
       -0.020230517 0.022805039 0.0055540344 0.0039627748
000010 f6 91 f2 bc 3f 96 8c 3d 38 41 9e bb 92 56 80 3c
       -0.029610615 0.06864595 -0.004829552 0.01566628
000020 bc 32 9c bd 98 a3 47 be a2 ea 3d be 84 a0 5e 3d
       -0.07626864 -0.19496 -0.18546537 0.0543523
000030 9c 3d 09 3e 39 0f c9 bc ad 7b 44 3d f3 cc c0 be
       0.13402408 -0.024543392 0.04796951 -0.37656364
000040 c8 a1 1e be 5c 3a 53 be 3c f7 46 be 8d a2 83 3e
       -0.15491402 -0.20627731 -0.1943025 0.25709954
000050 29 b0 b3 3e 88 87 84 3e 7a a5 21 3e 8f 5c 3f be
       0.35095337 0.25884652 0.1578578 -0.18687652
000060 0b 91 f2 3c a2 a5 bf 3c 09 d9 26 bc c2 f9 75 bc
       0.029610178 0.02339441 -0.010183581 -0.01501316
000070 08 1c b2 3c 79 c5 03 3a 9f cd 60 bc 29 52 ff bc
       0.021741882 0.0005026679 -0.013720899 -0.031167107
000080 6b 9e ae 3d 43 4b f7 be fd 7e 01 bf ba fe 1b 3f
       0.085263096 -0.48299608 -0.50584394 0.60935557
000090 49 46 19 3f 58 8e 09 3f c4 76 95 bd fa 46 d9 3d
       0.5987287 0.53732824 -0.07298043 0.10609241
0000a0 f9 5b 49 3d a5 68 1a 3c 19 77 f9 3c c3 47 0c bc
       0.049159978 0.009424363 0.030452298 -0.008562031
0000b0 12 c5 05 3c e3 e9 b7 3c a6 3c c5 bb c7 e6 43 bd
       0.008164661 0.022450393 -0.0060191927 -0.04782751
0000c0 a9 a3 5e be 70 ce 80 bd 33 3a d8 bd 72 35 7f 3e
       -0.21742119 -0.06289375 -0.105579756 0.24922732
0000d0 db b3 29 3e 5e a3 08 bc 42 47 8c 3d 4e 3f 95 be
       0.16572516 -0.008339731 0.06849529 -0.2914986
0000e0 5a 45 2f 3e 5e 5f 33 be a8 8b 41 be e7 f1 6e 3e
       0.171163 -0.17516848 -0.18900931 0.23334466
0000f0 b5 b3 64 3e 6e 5f 14 3e 16 d0 f7 bd 3f 5c 8b 3e
       0.22334178 0.14489529 -0.12100236 0.27218816
000100 20 0e 8c be e2 45 82 be 92 af 45 bd 9e 9d 47 3e
       -0.27354527 -0.2544394 -0.04826314 0.1949372
000110 70 02 94 3e 4a ae a0 3e ea 60 4c 3e 81 9f d8 be
       0.2890811 0.31382972 0.19958845 -0.42309192
000120 3b 2e 77 bd ad 96 b8 be 15 45 d5 be 89 b0 b9 3e
       -0.060346823 -0.36052456 -0.41654268 0.36267498
000130 dd 51 a5 3e e9 4d 97 3e 83 e5 d8 3d af de 55 bd
       0.3228902 0.29551628 0.10590651 -0.05221432
000140 7c a8 9b 3e c7 7c 94 3c 32 98 aa bd 38 5e 0a bd
       0.3040198 0.018125905 -0.0832981 -0.03378126
000150 39 bb d9 3c 0e 1e c5 ba 34 b0 c8 be 3b 67 b7 3e
       0.026578533 -0.0015038864 -0.39196932 0.35820946
000160 b9 8e 0a 3d 20 0c 22 bd f6 46 a2 bd 6f fd 9e bd
       0.033827517 -0.039562345 -0.07923691 -0.07763182
000170 42 4f f7 bc 15 29 60 3d 8b f9 c3 bd 5d 23 75 3c
       -0.03018916 0.05472668 -0.09569081 0.014962045
000180 e5 4d 00 3e 7c d9 d0 bc 49 28 fa bc aa 1e f6 3c
       0.12529714 -0.02549433 -0.030536788 0.030043919
000190 7b db d4 3c 97 be cc 3c 15 45 12 be e9 86 d7 3d
       0.025983563 0.024993224 -0.14284165 0.10523779
0001a0 02 c4 4a 3e 88 37 37 be 9a 10 4c be 44 f3 89 3e
       0.19801334 -0.17892277 -0.19928208 0.2694341
0001b0 1a 44 89 3e a5 ba a0 3e 2a 47 e6 bd 7c cb 58 3e
       0.2680977 0.31392398 -0.11244042 0.21171373
0001c0 5f 4b 13 3e 55 62 cf bd a4 cd df bd cd 3c d1 3d
       0.1438422 -0.10126177 -0.10927895 0.10216675
0001d0 96 dd fa 3d fe 2c d4 3d 69 6a d1 3c bc 6e 03 3e
       0.122492954 0.10360144 0.025563436 0.1283521
0001e0 6a e6 63 be 90 33 07 be 63 02 22 3c c7 92 a3 3d
       -0.22255865 -0.13203263 0.009888264 0.0798698
0001f0 cf 51 e9 3d 09 72 1d 3e d2 12 51 3e be a3 24 be
       0.11392557 0.15375532 0.20417336 -0.16078088
000200 a7 97 a8 bc f8 5c 97 bd 19 07 c8 bd e8 9c a7 3d
       -0.020580126 -0.07390779 -0.09766979 0.08184224
000210 d1 60 d1 3d e6 2b d9 3d 76 f9 ae 3c 1f ea 0e 3d
       0.102235444 0.10604076 0.021359187 0.034891244
000220 98 ca 82 be 84 f9 36 be 42 c4 3e be d4 c2 34 3e
       -0.25545192 -0.1786862 -0.18629554 0.17652446
000230 80 f0 6c 3e 7f 7d 2e 3e 0a ed 57 3e 9f 6a 96 be
       0.23138618 0.1704006 0.21086517 -0.2937822
000240 cc 7b 2b be 30 4c 93 be 2f e0 e4 be 5f 71 c7 3e
       -0.16746444 -0.28769064 -0.44702289 0.38953683
000250 2d 16 06 3f c9 a3 da 3e 9b d8 08 3e 5d 3e 12 be
       0.5237759 0.42703083 0.13363878 -0.14281602
000260 45 2a 98 3e d6 5f e8 bc 04 bc 27 bd 8a 0f f8 3c
       0.2971975 -0.02836601 -0.04095079 0.030280847
000270 f7 6a d0 3c 40 86 02 3d 4a 67 b3 be a2 21 a8 3e
       0.02544163 0.031866312 -0.3503974 0.3283816
000280 47 be 01 3d 05 86 b2 3c d9 4c 48 3d 9a 5e ce 3c
       0.031675603 0.021792421 0.048901413 0.025191594
000290 c2 24 80 3c d0 2f 28 3d 3b e9 ba bc 03 6c 19 3c
       0.015642527 0.041061223 -0.022816291 0.009364131
0002a0 b4 29 38 be 3a 61 ba 3d 45 ba 5f 3d 81 45 85 bd
       -0.17984658 0.09100576 0.054621 -0.065073974
0002b0 0e 3b 3c 3e 56 5f 86 3e a4 1a 49 3e 29 7d 49 be
       0.18381903 0.2624461 0.19639069 -0.19676651
0002c0 1e 06 77 be 54 51 4a be 32 59 b2 be c3 6e 20 3e
       -0.24123427 -0.19757587 -0.34833676 0.15667252
0002d0 f0 6a 57 3e 10 a4 77 3e 7b ed e1 3d de c3 df bd
       0.21036887 0.24183679 0.11031624 -0.109260306
0002e0 cf 0e 97 be 90 d9 70 be b3 1f 55 be 41 f8 17 3e
       -0.29503486 -0.23520494 -0.20812874 0.14840795
0002f0 ad ef 8d 3e 1f 62 8d 3e 35 0e 92 3e 3a bb 6b be
       0.2772192 0.27613923 0.28526464 -0.2302064
000300 6a 5d 8d 3c d0 2f 88 be 3d d2 c6 be bb 54 bb 3e
       0.017256457 -0.26598978 -0.38832274 0.36588082
000310 bd 2c c6 3e 79 11 d4 3e 38 47 21 bd 04 83 86 3d
       0.38706008 0.4141958 -0.03937456 0.06567958
000320 b8 fa 69 be 5c 47 65 bd dd 5e 2d be f2 38 72 3c
       -0.22849548 -0.055976257 -0.16930719 0.014784085
000330 87 11 bc bc 5e 2f ef 3c b1 b7 18 bd e8 82 7e be
       -0.022957576 0.029197391 -0.037284557 -0.24854624
000340 07 c2 90 3e be 35 2f be b3 3f d3 bd ad 98 af 3d
       0.2827303 -0.17110345 -0.10314884 0.085740425
000350 25 50 ac 3d e2 40 85 3e 43 8b ed bd e4 0a 22 bd
       0.08413724 0.26026064 -0.11598828 -0.039561167
000360 9b a2 9d be 96 62 4f bd 07 0c 64 bb f2 97 ce bd
       -0.3078812 -0.05063113 -0.0034797208 -0.10087575
000370 36 c7 ab 3d 1a d5 ca bd 11 de 80 3e f1 d8 af be
       0.08387606 -0.09903927 0.25169423 -0.343452
000380 0f cc 47 3d 9a 4c 00 3d 6b 2b 1e bd 80 a0 2f bc
       0.04877859 0.031323053 -0.038615625 -0.0107194185
000390 6e 6b 45 3d 6f 9c ba 3b df b5 c6 3c c6 53 9a bc
       0.048198156 0.005694918 0.024256645 -0.018838774
0003a0 2d f0 b0 be b3 68 81 be 8c 65 85 be b5 2d 40 3d
       -0.3455824 -0.25275192 -0.26054037 0.04691859
0003b0 59 1f 78 3d 6f 3b 6c 3e 1f 2c de 3e 5c 79 a3 be
       0.06057677 0.23069547 0.43393037 -0.31928527
0003c0 42 39 9f be 7b c6 a1 3c 08 b4 f8 3b d2 7d b7 3d
       -0.31098372 0.019747963 0.007589821 0.08959545
0003d0 bf 92 92 bd 2b 9d 0a 3e b9 55 4c 3e c1 03 95 be
       -0.07156896 0.13536517 0.19954576 -0.29104427
0003e0 3f 93 95 be 9e cd 2d be 94 c3 88 be 3c d6 50 3e
       -0.29213902 -0.16972968 -0.26711714 0.20394224
0003f0 e9 43 47 3e c8 16 36 3e 8b 8c 62 3e bf f1 a0 be
       0.194595 0.17782128 0.22123925 -0.31434438

encoder.fc_one.bias f4 [600]
000000 b8 d1 cf bd f1 4e 97 bd 83 48 f0 3c 0a 7a f1 bd
       -0.101474226 -0.07388104 0.029331451 -0.11790855
000010 91 68 26 bd 53 49 d1 bd 3c de df 3c 47 57 ca bb
       -0.040627066 -0.102190636 0.02732765 -0.006174955
000020 d7 8a 5a 3d 21 f6 09 3d a3 23 39 3d db c1 d8 bd
       0.053355064 0.033681992 0.0452 -0.1058385
000030 b8 73 f1 3c 14 6d 91 bd 29 38 d4 3d c2 fe db 3c
       0.029474124 -0.07100883 0.10362274 0.026854876
000040 c9 5e 41 3d a9 3c ff 3c 89 98 56 3d c9 3c 61 3d
       0.047209535 0.031156855 0.052391563 0.05498961
000050 db 52 e0 bd 36 0f e0 3c 9c ad 8b 3c 22 4d 23 3d
       -0.109533034 0.027351003 0.017050557 0.03986848
000060 2c 9d f9 bc b6 5d 15 3d aa 61 5f bd 0e 12 bf bc
       -0.030470453 0.036466323 -0.0545365 -0.023324039
000070 54 b5 f3 bd 2f 67 fc bd ae 98 3f 3c 36 c8 57 3d
       -0.1189982 -0.12324368 0.0116941165 0.05268117
000080 7b 53 b4 bd d4 01 a3 3d e1 c2 3d 3d 9d 33 14 bd
       -0.08804985 0.07959333 0.04632843 -0.036182035
000090 e9 40 2d 3d 29 ca 43 3d 6c ab cd 3d 71 8a 3e 3d
       0.04229823 0.047800217 0.10042462 0.046518747
0000a0 ec 93 d9 3c 9a 53 28 3d 87 e6 b1 3c a6 cf 26 3d
       0.026559792 0.041095354 0.02171637 0.040725373
0000b0 a1 d0 6e 3d 9c 55 94 bd 35 b5 0c be 0b 4e 64 3d
       0.058304433 -0.07242891 -0.13741 0.05573849
0000c0 9f 83 5b bc 2e 1a e6 bd 29 27 8e 3d 58 e3 85 3d
       -0.01339808 -0.11235462 0.06941063 0.06537503
0000d0 84 2b 0a 3d 74 69 01 3d 4a 16 ad bc 30 e3 37 3d
       0.033732906 0.03159471 -0.021128792 0.044894397
0000e0 6b a5 11 3d 87 ce 4e 3c 57 b2 e5 bd ed 81 ff 3c
       0.035558145 0.012622482 -0.11215656 0.031189883
0000f0 dc 8e 69 3c 32 93 3c bd d1 84 01 bb 23 6a bb 3c
       0.014255252 -0.046038814 -0.0019763003 0.022877758
000100 aa 80 bb bd 84 3f 45 3d 3f a2 e0 bc 66 7e 24 3d
       -0.091554 0.048156276 -0.027421115 0.040159605
000110 fa c0 46 3d b3 c9 8b bc a5 35 9a 3d 67 16 81 3d
       0.04852388 -0.017063951 0.07529763 0.06303101
000120 82 c9 d4 bd 64 8e 58 3c 60 c0 84 bb 36 dd 36 3d
       -0.10389997 0.013217542 -0.004051253 0.044644557
000130 c6 e0 43 3d 1d b6 b5 bc f6 a1 06 3d 52 45 9c bc
       0.047821783 -0.022181565 0.0328693 -0.019076023
000140 85 91 23 3d 9e 65 3d 3c 2e b1 80 3c 0c 4c 5c 3d
       0.0399337 0.011559872 0.015709486 0.05378346
000150 f0 53 97 bd 5d 6d 9c bd af ee db ba ef 2c 1d 3d
       -0.07389057 -0.07638047 -0.0016779507 0.03837293
000160 e3 ec b2 bd e9 eb af bd f4 c1 81 3c 93 48 74 bc
       -0.08736589 -0.08589918 0.015839554 -0.014909881
000170 7a bb d8 bd a7 58 3b 3d c2 21 2b 3d a8 ae c0 bc
       -0.10582633 0.045738842 0.04178024 -0.023520783
000180 df bc 18 3d 86 75 1e bd 38 fe a8 bc b0 45 fd 3c
       0.037289497 -0.038686298 -0.020629033 0.030917019
000190 dd 44 e2 bc 88 7b 86 3c 8b b5 9f 3d 49 d0 11 3d
       -0.027620727 0.016416326 0.077982984 0.035599027
0001a0 e5 dd 75 3d 8c c5 ea 3d 09 20 69 bc 70 62 6c 3d
       0.06002607 0.1146346 -0.014228829 0.057711065
0001b0 11 43 c0 bd 58 6f 1f 3d d2 2e e4 bd 72 b7 b0 bc
       -0.09387792 0.038924545 -0.11141743 -0.021571849
0001c0 96 c7 56 3d 2a 8a 7a 3d a7 cd 39 bc e7 33 69 bd
       0.052436434 0.06116692 -0.011340535 -0.056934264
0001d0 5b 83 0c be ad 4a e4 bd 41 66 f4 3c 89 fd 88 3d
       -0.13721983 -0.11147056 0.029833915 0.06688983
0001e0 fd 9d cb 3c 47 8d 55 3d 20 61 1a 3d e4 9b f9 bd
       0.024855608 0.052136686 0.037690282 -0.12187937
0001f0 6f 3f 98 3d 17 5e 1b 3d f0 cc 29 bc fb 41 ef 3c
       0.07433974 0.037931528 -0.010363802 0.029206267
000200 e6 e0 be 3c 29 db e5 3c fe f2 86 bc d3 78 b3 bc
       0.0233006 0.028058605 -0.01647329 -0.0219082
000210 5e f7 e9 3c d5 a3 ce bc 7a b7 63 3d c8 c7 c5 bd
       0.028560337 -0.025224606 0.0555949 -0.09657246
000220 c3 0e c2 bd bd 05 49 3d 9d a7 29 3d e3 af c3 3c
       -0.09475472 0.049077738 0.041419614 0.02388758
000230 3c 73 9e 3d ca 8e 11 3d 72 33 89 bc 3f dc 90 3d
       0.07736823 0.035536565 -0.016748164 0.070732586
000240 7a 06 60 bc 3b 4e af 3b 00 66 1f bd e5 54 ed 3c
       -0.013673419 0.005349902 -0.038915634 0.028971145
000250 4d 63 a2 bd 19 d2 bd bd 98 11 b4 3d 77 bd dc bd
       -0.07929096 -0.092685886 0.08792418 -0.10778325
000260 53 31 18 3e 35 e1 90 bd 34 88 18 3d 46 39 22 3d
       0.14862566 -0.07074205 0.03723927 0.0396054
000270 3c f2 77 3d 36 1d 10 bd f2 47 a1 3d 11 f8 a2 3c
       0.060533747 -0.035184108 0.078750506 0.019893678
000280 ee 50 b7 bc 8b 1a 7e bc f8 b1 4a bd 9a 41 50 3b
       -0.022377457 -0.015509258 -0.04948613 0.0031777383
000290 59 03 87 3d 25 6d 85 3d b0 96 72 bd 7d 1b c7 3c
       0.065924354 0.06514958 -0.059225738 0.0243051
0002a0 87 51 39 3d 72 62 a3 3c 57 08 5f bd 96 58 f6 3c
       0.045243766 0.019944403 -0.054451313 0.030071538
0002b0 2f b4 94 bc 42 b9 bb bd 40 5f a3 bd 94 65 bd bd
       -0.018152324 -0.091661945 -0.07977152 -0.0924789
0002c0 a5 71 85 bd 3a 71 ba bd 01 38 12 3d b5 ec 8a 3b
       -0.065158166 -0.091036275 0.03569794 0.0042396435
0002d0 06 ec cb 3d 2d b2 9a 3d 42 7c 11 bd aa 5e 90 3d
       0.09957127 0.075535156 -0.035518892 0.07049306
0002e0 7a c3 29 3c 07 49 1f 3d ab 25 88 bc 00 07 6a 3c
       0.010361547 0.038888004 -0.016619524 0.0142838955
0002f0 d2 c1 ac bd 6f 4f 2c 3d 4d 64 1e bd ba a9 28 3c
       -0.08435406 0.04206794 -0.038669873 0.010294372
000300 14 ad e9 bd eb 72 0c 3d e7 7e c5 3b 8f c4 bf bc
       -0.11409965 0.03428928 0.006027091 -0.023409156
000310 49 4c 7e bd 43 d1 3a 3d 9f 9d 17 3d cc 56 fa 3c
       -0.06208447 0.045609724 0.037015554 0.030558966
000320 e8 52 52 bd 0a 2f 89 3d d1 c6 23 3d 76 1f 7d 3d
       -0.051348597 0.06698425 0.039984528 0.06179758
000330 54 1b c0 bd d3 c8 5a 3d ff b0 c1 3d d0 f5 a6 3d
       -0.093802124 0.053414177 0.094575875 0.08152354
000340 01 99 b7 3d 9d 63 c2 bd a1 50 ca ba 0b 8d bd bc
       0.0896473 -0.09491656 -0.0015435406 -0.023138544
000350 26 88 91 3c 3f ca 08 bc 6f f3 23 3d f8 5e 00 3d
       0.017765116 -0.0083490005 0.04002708 0.03134057
000360 8f 98 84 bd f9 09 33 3d 4a 66 a6 bd 25 06 b1 3b
       -0.06474411 0.043710683 -0.08124979 0.005402344
000370 0f 62 2d 3d 76 ce c6 3d 59 5f b3 bd 3e ff 8d bd
       0.042329844 0.09707348 -0.087584205 -0.06933449
000380 f3 3e 4d 3d 9f cf f1 3c 6c 13 b4 3c be 5b bd 3c
       0.05010886 0.029517947 0.021981917 0.023115035
000390 12 39 e1 bd 15 b8 c3 bd db 15 bc bd 30 a4 a4 bd
       -0.109972134 -0.09556595 -0.09183856 -0.08039129
0003a0 31 cf 46 bd 13 8a 92 3c 61 f0 75 3d 3a 2d 00 3d
       -0.048537437 0.017888105 0.060043696 0.03129313
0003b0 da 4e 10 3d 14 41 89 3c 50 0d 88 bd 79 b8 10 3d
       0.03523145 0.016754664 -0.06643164 0.035332177
0003c0 74 cd 9b 3c e3 90 ae bd b0 cc c6 3c 90 64 03 3d
       0.019018866 -0.08523729 0.024267524 0.032078326
0003d0 99 2b 3e 3c 79 00 33 bd 54 c2 de 3b df b9 8e 3d
       0.011607074 -0.043701623 0.006798068 0.06969046
0003e0 08 99 7b bc c0 cf d5 bd 2f aa 2c 3d 22 ed 88 bd
       -0.01535631 -0.10440016 0.042154487 -0.066858545
0003f0 90 55 e4 bd ed db 20 bc 04 94 1b 3d 72 3a f9 bd
       -0.11149132 -0.009818059 0.037982956 -0.12169351

encoder.gru.weight_ih_l0 f4 [12, 600]
000000 0e b5 75 bd 4e 36 05 3d 48 83 b6 3e 36 e9 5b bd
       -0.05998712 0.032522492 0.35647035 -0.053689204
000010 92 60 28 3e 2a 55 65 3d ad d8 90 3d a4 ef 19 bd
       0.16443089 0.055989422 0.070725776 -0.037582055
000020 24 02 33 3e e7 bd de 3e 65 95 be 3c 80 a5 91 3c
       0.17481285 0.4350426 0.023264596 0.017779112
000030 d3 6e c4 bc 21 b7 33 3e 35 9b de 3c 7e 97 91 3e
       -0.023978626 0.17550327 0.027173618 0.28435892
000040 8d 38 b3 3d e4 cd 63 3e 0d d2 e0 3e f8 df 16 3d
       0.087510206 0.2224651 0.43910256 0.036834687
000050 1a 6c 48 bc af 31 3c 3e 22 15 df 3e 06 32 f4 3e
       -0.012232805 0.18378328 0.4357081 0.47694415
000060 62 4f 69 3e 66 f5 f4 3d ed f4 a4 b9 42 b8 21 3e
       0.22784188 0.119608685 -0.00031463002 0.15792945
000070 75 35 2d bd 03 c2 bb 3c a8 92 95 3d c8 e5 98 3e
       -0.04228731 0.02291966 0.07303363 0.2986281
000080 99 41 7b 3e 76 66 23 3d 4e 58 58 3e 14 68 4b 3e
       0.24536742 0.039892636 0.21127436 0.19863921
000090 bf 4f 6b 3e 3c a5 b0 3e c7 fd 78 bb a2 fe 8b 3e
       0.2297964 0.34501064 -0.003799306 0.27342707
0000a0 ca fb cf 3e da c3 80 3c f7 3d c0 3d 72 33 d4 bd
       0.40621787 0.01571839 0.09386819 -0.10361375
0000b0 4e 97 9a 3e 4f 2b cb bc 48 1e 41 3d 0b 39 e4 3d
       0.3019356 -0.024800925 0.04714802 0.111436926
0000c0 e9 9e 05 3e 25 45 9c 3c e3 4a 06 3d 20 e9 91 3e
       0.130489 0.01907594 0.03278626 0.28498173
0000d0 ab ff 9b 3e fa 18 b6 3e d3 be d2 3e 11 e3 ac 3d
       0.30468497 0.3556593 0.41161212 0.08441747
0000e0 4c 8e 81 3e ed cb a9 3c 74 54 5d bd 1b 03 b4 3e
       0.25303876 0.020727122 -0.05403562 0.3515862
0000f0 a3 44 a9 3c 89 a8 1a 3e 3a f4 0e 3e 1d e2 7b 3e
       0.020662611 0.15103354 0.13960353 0.24597974
000100 1c e2 79 3e ea 1a 70 bd 3f 35 a2 3d 72 28 f9 3e
       0.2440266 -0.058619417 0.07920312 0.4866367
000110 68 7a ff 3e e6 8a b2 3d 6c 47 e6 3d 1a 8f 45 3e
       0.49898076 0.08717899 0.112440914 0.1929287
000120 78 4e ef bb ec 59 1f 3e da a2 8e 3d 42 b5 9e bc
       -0.0073030554 0.15561646 0.06964655 -0.01937354
000130 d4 97 99 3e 5e d8 4d 3e 40 ca 7b 3e 93 7a 08 3e
       0.29998648 0.20102069 0.24588871 0.13328008
000140 0d 1c 04 3e fa 5e ec 3d 8e 87 f0 bd fd b0 f8 bc
       0.12901326 0.11541553 -0.11744605 -0.030357832
000150 45 58 06 3d 61 e7 a1 bc bf db b4 3d 7c bc b4 3e
       0.032799024 -0.01976365 0.08830976 0.35300052
000160 ca c6 17 3c 88 e3 4f bd 94 1f dd 3d 2b 16 84 3e
       0.009263704 -0.0507541 0.10797039 0.25798163
000170 12 16 74 3d de 92 c1 3e ad 54 57 3e 92 b5 05 3e
       0.05959136 0.37807363 0.21028395 0.13057545
000180 5d c4 a7 3e f4 05 7b 3e 0a f8 3a 3e a6 a3 5f 3e
       0.32767 0.2451399 0.18258682 0.2183977
000190 cb 21 57 3e eb 3f 8b 3e b9 42 98 3e 9c ed 38 3e
       0.21008985 0.27197203 0.29738405 0.18059391
0001a0 73 a1 0e 3f a3 08 f6 3c ec ba 39 3e c2 91 79 3e
       0.557151 0.030033415 0.18137711 0.24372008
0001b0 08 29 2b 3e 55 15 bc 3e ea 72 56 3c a9 ab ee 3d
       0.16714871 0.36735025 0.013088921 0.11653835
0001c0 86 9f 8b 3e c8 8f 49 bd 07 43 ac 3d 81 b5 31 3e
       0.27270144 -0.049209386 0.08411222 0.17354394
0001d0 71 f7 49 3d 45 07 2f bd 34 ce 71 3e 62 04 5d bd
       0.049308244 -0.042731542 0.23613816 -0.053959258
0001e0 97 fd 21 3e 5c 32 7b bd 3e 83 12 3e a1 ed 73 3d
       0.15819393 -0.061327323 0.14307877 0.059552792
0001f0 5b 23 3f 3e 19 c1 0c 3e 58 03 66 bc a3 91 87 3e
       0.18665831 0.13745536 -0.014038883 0.264783
000200 6e c7 1d 3c f5 b1 72 3d f4 b3 6f 3e c5 f4 a6 3e
       0.009630067 0.059251744 0.2340849 0.3260862
000210 d0 60 56 3e 10 06 98 3e e9 be cb 3e 65 84 0b bd
       0.20935369 0.29692125 0.3979409 -0.03406181
000220 28 6f 8d 3d a5 67 2d bd 7c 5e 8b 3e 98 85 94 3e
       0.06905967 -0.04233517 0.27220523 0.29008174
000230 ee ed 1d 3d 57 2c 58 3d 67 78 59 3e 48 c1 a5 3d
       0.038556986 0.05277666 0.21237336 0.08093506
000240 28 49 c1 3e c8 31 f6 3d 4b bf a5 bd 6e de ec 3e
       0.37751126 0.12021214 -0.08093127 0.4626345
000250 81 bf 14 3d f8 df e8 bb e3 f0 21 3c ae af 41 3d
       0.036315445 -0.0071067773 0.009884092 0.04728668
000260 57 f5 af 3d 6d 72 19 3e df 48 da 3d 64 93 8c 3e
       0.08591717 0.14985056 0.1065843 0.274562
000270 22 10 9f 3d f1 5d 83 3e b5 b1 37 bc bb f1 bd 3e
       0.07766749 0.2565761 -0.011211802 0.37098488
000280 f8 82 42 3c 8c d9 6f 3e 18 dd bb 3d e4 5d c0 3d
       0.011872046 0.23422831 0.0917303 0.09392908
000290 9a 3d 8c 3d 82 93 18 3e ac 66 a9 bd 03 14 2c 3d
       0.06847687 0.1490002 -0.08271536 0.042011272
0002a0 17 27 a1 3e 62 c8 4d 3e 83 5b 58 3d b2 9a 06 be
       0.31475136 0.20095971 0.052821647 -0.13144949
0002b0 41 d0 81 3e 79 af 3e 3e 3d e9 68 bc 17 0c a6 3d
       0.25354198 0.18621625 -0.014215765 0.08107775
0002c0 56 dd ee 3d 28 a3 b4 3d 39 b4 b7 3e 17 cd 76 3e
       0.1166331 0.08820182 0.35879686 0.24101673
0002d0 02 65 68 3d 79 89 07 3e 11 fb 1d 3e c0 49 1d 3e
       0.056736954 0.13236035 0.15427805 0.15360165
0002e0 cc ac b7 3d 34 ee e5 3e ae 55 71 3e c1 32 21 3e
       0.08968505 0.44908297 0.2356784 0.15742017
0002f0 6f c0 03 3e 6c b9 62 3e 92 50 bb 3d 85 4d 0c be
       0.12866376 0.22141045 0.09146227 -0.13701446
000300 4b cb 68 3d d5 76 ad 3e 0b e4 a8 3e 4f 01 2f bd
       0.0568345 0.33879724 0.32986483 -0.042725857
000310 70 f1 cb 3c 26 89 f2 3d e7 27 c4 3e ac 86 6c 3e
       0.0248954 0.11842565 0.38311693 0.23098248
000320 8e c3 04 3e 7a c4 dc bd 2a 16 56 3c e9 63 1b 3e
       0.12965223 -0.107796624 0.013066808 0.15174831
000330 a7 27 f2 bc b9 50 18 3b ef 37 d3 3c f0 c9 38 3d
       -0.029559923 0.0023241474 0.025783507 0.045114458
000340 e1 62 88 bd 99 5a 8a 3d e6 5f 08 3f 0b c9 19 3e
       -0.06659485 0.067555614 0.5327133 0.15018098
000350 14 cb 84 3e 7c ec eb 3e c1 7c ab 3e 55 ba 8d 3d
       0.25936186 0.4607886 0.33493617 0.06920306
000360 e4 8d 4c 3e 2f 76 c3 bc c2 1e 97 bc 58 67 30 3d
       0.19976002 -0.023860065 -0.018447284 0.043067306
000370 4f e0 a1 3e c2 11 60 3e fe 40 b1 3d 09 df 34 3e
       0.31616446 0.21881774 0.086549744 0.17663206
000380 02 f3 b3 3d 24 ac 81 3e 38 b6 f7 bc 4c 71 c6 3d
       0.087865844 0.25326645 -0.030238256 0.096895784
000390 1c 22 74 bd b3 f5 4b 3d 22 be b8 3d eb 5b 5d bd
       -0.05960284 0.049794864 0.0902064 -0.054042738
0003a0 5a 96 4e bc a1 e0 32 3e 3b 24 a0 3e ff a1 02 3f
       -0.012609089 0.17468502 0.31277642 0.51028436
0003b0 27 74 50 3e ad e6 c4 bc 11 34 14 3d d9 5c 8f 3e
       0.20356809 -0.024035776 0.036182467 0.28000525
0003c0 ce 0c 9f 3e c6 ce 0f 3e 43 b6 ed 3e 2d 92 0b 3e
       0.31064457 0.14043722 0.46428117 0.1362998
0003d0 17 cb b4 3e 53 2b c7 3d 5c a8 9d 3e ec a3 9d 3d
       0.35311195 0.0972506 0.3079251 0.07697281
0003e0 37 da d9 3e 71 d5 3b bc c5 04 0e bd 1c c1 d2 bb
       0.42549297 -0.011464463 -0.034672517 -0.006431712
0003f0 c3 af 84 3c 0e 8e 72 3e 9e 35 1c 3e d4 19 99 ba
       0.016197091 0.23687002 0.15254828 -0.0011680671

encoder.gru.weight_hh_l0 f4 [12, 4]
000000 f0 e3 46 bf 5c 89 ff 3e e9 7a 1b 3f b8 1e 0f bf
       -0.77691555 0.49909484 0.6073442 -0.5590625
000010 f5 3f c9 be a2 89 0b 3f 36 fc aa 3e 24 a6 0a bf
       -0.39306608 0.54506886 0.33395547 -0.5415976
000020 6a 8c d1 be fc e9 bf 3e 78 a0 db 3e 96 b2 d1 be
       -0.4092744 0.37483203 0.42895865 -0.40956563
000030 53 b9 eb be ad d9 e2 3e 09 8e af 3e 3a 88 f5 be
       -0.4603983 0.44306698 0.34288052 -0.47955495
000040 00 1b be ba e6 98 94 be b7 c8 dc bd 58 dc 92 3e
       -0.0014503896 -0.29022902 -0.10780471 0.28683734
000050 c0 6d d5 3c bc 02 50 be 7c 4c b1 bc f6 00 15 3e
       0.02605331 -0.20313543 -0.021642916 0.14551148
000060 05 41 59 3e 40 72 80 be 3f 82 37 be c7 a2 ba 3e
       0.21216209 -0.25087166 -0.17920779 0.36452314
000070 7f a9 5f 3e ff 77 c2 be e4 1d ba be 27 ab eb 3e
       0.21842001 -0.37982175 -0.3635093 0.46029016
000080 8b bd 02 3f b0 0f 03 bf 66 84 e1 be 2a a5 0c 3f
       0.5107047 -0.5119581 -0.44046324 0.5493952
000090 e1 43 bb be 0c 9f c0 3e b0 48 a2 3e 19 70 e7 be
       -0.36575225 0.37621343 0.3169608 -0.4520271
0000a0 82 68 d2 be a6 5d 89 3e e4 c1 b7 3e 58 82 c8 be
       -0.41095358 0.2682926 0.35890114 -0.39161944
0000b0 6b 9a 04 3f 80 9b 93 be b6 84 81 be 08 31 89 3e
       0.51798123 -0.28829575 -0.25296563 0.2679522

encoder.gru.bias_ih_l0 f4 [12]
000000 bf 37 1d bc a1 9a 82 3e 58 b1 87 3d 7d c4 be 3d
       -0.00959581 0.25508597 0.066256225 0.09314821
000010 71 f0 7c 3d 34 12 05 3e e4 37 33 3e 25 57 15 3e
       0.06175274 0.12995225 0.1750179 0.14584024
000020 ee 12 6b 3d de fc 04 3e e4 32 42 3d c7 45 88 bc
       0.0573911 0.12987086 0.047411814 -0.016634835

encoder.gru.bias_hh_l0 f4 [12]
000000 fa e4 b5 3d b0 e0 8f 3e 4e b7 6c 3d f5 9a d7 3d
       0.088815644 0.2810111 0.057792 0.105276026
000010 ea 61 dc 3d b6 94 6c 3d ad 42 6a 3d 2a 69 f0 3d
       0.10760863 0.05775901 0.057192493 0.117388085
000020 a7 f3 aa 3d 3f 11 55 3e 50 eb b5 3d 15 44 17 bd
       0.08347254 0.2080736 0.08882773 -0.036930162

encoder.gru.weight_ih_l0_reverse f4 [12, 600]
000000 24 9b b8 3d 72 c8 23 3e 72 1b 8f 39 34 37 7b 3d
       0.09013966 0.15994433 0.00027295534 0.061331943
000010 a7 4a d3 3d fb 71 57 3d 2e 4c 30 3d e3 0f e4 3d
       0.10316973 0.052598935 0.0430414 0.11135843
000020 1c fe 03 39 eb 81 f8 bc 8b 5b f4 3e d8 d4 3b bd
       0.00012587797 -0.030335387 0.47726092 -0.04585728
000030 12 36 ae 3d 5d dc 83 b9 c6 9e 65 bc 39 7b 75 3d
       0.08506407 -0.0002515045 -0.014014905 0.059931967
000040 12 4b 40 3e 7e de 08 bd 56 4f 8b bc 4c 22 57 3e
       0.18778637 -0.03341531 -0.017005604 0.21009177
000050 33 aa 68 3d de a9 d1 3e 04 a4 31 bc d2 f0 40 be
       0.05680294 0.4094991 -0.010842327 -0.18841866
000060 ce 57 e0 3d 85 4f 9d 3e da b4 0b 3d f2 40 9d 3e
       0.109542474 0.3072473 0.03410802 0.30713612
000070 b5 02 9e 3b c5 56 f1 3d 6f 24 c3 3e 83 8a 81 bc
       0.0048221 0.11784128 0.38113734 -0.015813118
000080 24 09 ca 3d a6 b9 07 3f e8 a0 1d 3c ca 96 69 3d
       0.09865025 0.5301765 0.009620883 0.05702857
000090 a5 19 06 be b5 78 d9 3b a3 23 a6 3e 54 77 cd 3d
       -0.1309572 0.006636704 0.32449064 0.10032526
0000a0 92 71 10 bd 3c d4 92 3e e7 e5 a5 3d f7 cc f8 3e
       -0.03526456 0.28677547 0.08100491 0.48593876
0000b0 5b 10 83 bc 4a 56 63 bc 73 63 b3 bb 51 6d 0e 3f
       -0.01599901 -0.013875553 -0.0054745018 0.55635554
0000c0 a2 f6 93 3d 59 9a 80 3c 76 3b 2f 3e a0 8e 89 3e
       0.07224776 0.015698599 0.17112526 0.26866627
0000d0 ae 1c cd 3d 3d 73 27 3d 6f e6 02 3e 46 2f de 3e
       0.10015236 0.040881384 0.12783216 0.43395442
0000e0 3a 53 5f 3d d0 55 88 3e 67 6d 85 3d 1f 5f dd bd
       0.05452273 0.2662797 0.065150075 -0.108091585
0000f0 82 02 04 3c 02 bb e7 3d 06 80 54 3e 4b 86 9f 3e
       0.0080572385 0.11314966 0.20751962 0.31157145
000100 ec db 23 3e a3 11 b9 3d 00 97 ad 3e c1 18 4f bd
       0.16001862 0.09036567 0.33904266 -0.050560717
000110 dc 46 c3 bd 3f b0 9a 3e 43 26 80 3e f0 d8 a2 bd
       -0.09535 0.3021259 0.2502919 -0.07951534
000120 2f 53 a2 bd 04 3f 90 3e 69 e3 a4 bd 91 03 f5 3e
       -0.07926022 0.28173077 -0.080511875 0.47854283
000130 97 ca c8 bb ea 1d 12 bb ed 49 17 3e 79 1f 03 3e
       -0.006127666 -0.0022295662 0.14774294 0.12804975
000140 b5 6f 83 3e a1 c3 bd 3d b6 bc 46 3e a1 25 a3 bd
       0.25671163 0.09265829 0.19407925 -0.079661615
000150 61 81 1a bd 4b fc 3b 3d 4a d5 75 3e df 31 cd bd
       -0.03772104 0.045894902 0.24007145 -0.10019278
000160 b0 a5 17 3d 1f 3b bc bc 20 39 a1 bd 1e fd a3 bd
       0.037023246 -0.02297741 -0.07872224 -0.08007263
000170 dc 8f 98 bd 6d e2 6c bd 02 e2 98 3e 1d 77 f4 3d
       -0.07449314 -0.057833124 0.2985993 0.119367816
000180 e3 5e de 3a 1b 1e 3a 3d a7 c7 2d bb 2e d8 0d 3d
       0.0016965534 0.045438867 -0.0026516707 0.034629993
000190 4b fb f2 3d d3 31 e0 3d 2d 09 44 bd ed 53 c5 bc
       0.118643366 0.10947003 -0.047860313 -0.02408787
0001a0 b5 84 b3 bd f5 a0 bd 3e b6 06 3c 3d 69 3d b9 3e
       -0.08765546 0.37036863 0.045904838 0.36179665
0001b0 7d d8 1e 3f 33 2d 52 bd d6 d7 8b 3d fe 6b 86 3d
       0.62049085 -0.051312637 0.06828277 0.065635666
0001c0 81 9a 50 bc b7 76 09 3f 8b f5 cb 3d 56 35 99 3d
       -0.012732149 0.5369677 0.09958943 0.07480876
0001d0 9e 75 03 bc 8f 59 ff bc c9 f0 a8 3e a6 6e c9 3d
       -0.008023648 -0.031170635 0.32996204 0.09835558
0001e0 de 87 77 3d ea 49 75 3e 30 72 bf 3e 16 1e 3c bd
       0.060432307 0.23953977 0.37391806 -0.04592713
0001f0 41 2a 1c be c1 d0 f5 3e c0 ee 1a 3e 14 63 2a bd
       -0.15250494 0.4801083 0.15130138 -0.041598395
000200 56 65 46 3e a8 f5 c0 3e ed 46 9b 3d a0 d3 5e 3d
       0.19374594 0.3768742 0.075818874 0.05440104
000210 a3 be 9a 3d 52 08 99 3e 56 6b 9e bd 5e 6f 59 3c
       0.07555892 0.2988916 -0.077353165 0.013271181
000220 eb 84 a8 3c 58 1d 14 3f 04 b3 b0 3d 66 b9 9c 3d
       0.020571193 0.57857275 0.086278945 0.076525494
000230 94 46 51 3d 33 45 a8 3e ba 5a ca 3d 5d 67 03 3f
       0.0510927 0.32865295 0.09880586 0.51329595
000240 5c b9 94 3d 7a d5 f4 3e fd 2e 44 3d 33 a7 07 bb
       0.07261917 0.4781912 0.047896374 -0.0020699024
000250 26 fd 9f bd ee 09 19 3d 28 b6 85 bc c1 cd 8e 3d
       -0.07811956 0.037362985 -0.01632221 0.06972838
000260 37 af a3 3d ad ee 42 3c d1 e8 ca 3e 7a ec 0c 3e
       0.07992404 0.011897725 0.3963075 0.13762084
000270 98 26 01 3d 01 44 d2 3d 69 3f 4b bc 25 ec d0 bd
       0.031530946 0.10266877 -0.012405255 -0.10201291
000280 fe 53 c6 3e c4 92 80 3d 2b 51 65 3e 3a 94 b9 3e
       0.38735956 0.06277993 0.22394244 0.362459
000290 0b 7e df 3d da 6b f5 3e bb b0 84 3d 30 b4 7c 3d
       0.10912713 0.47933847 0.06479021 0.061695278
0002a0 26 88 ca bd 06 da 82 3e 9a dc 93 3d 72 7a 81 3d
       -0.098892495 0.25556964 0.07219811 0.06322183
0002b0 a3 3b 0e 3e b3 4a a2 3d fe 93 94 3d a2 a5 25 3b
       0.13889937 0.07924404 0.0725479 0.0025275727
0002c0 78 1b 24 3e 9d 58 a7 3e e2 15 35 be ac 77 9d 3d
       0.16026103 0.32684794 -0.17684129 0.07688841
0002d0 10 97 2b 3d af a9 86 3e e1 a7 6b 3c 51 c4 54 3e
       0.04189211 0.26301333 0.014383287 0.20778014
0002e0 10 03 1e 3e 47 62 c0 3d 1b d4 ba 3d 35 8d ac 3e
       0.15430856 0.09393745 0.09122487 0.33701482
0002f0 ec 21 27 3f f5 e3 07 3e 74 7a c9 3d 6a d9 4e 3e
       0.65286136 0.13270552 0.09837809 0.20200124
000300 fd 0f c5 3b 94 24 92 bb 23 c7 64 3d 9b 90 64 3e
       0.006013869 -0.004459927 0.055853974 0.22320788
000310 48 33 76 3d 79 4e 6e 3e 33 ad 9a bb d9 7d 4a bd
       0.0601075 0.23272122 -0.004720354 -0.049436424
000320 36 51 e5 3d 07 b9 e9 3e 6f 4d 94 3e 4b 21 60 3e
       0.111971304 0.45648977 0.28965327 0.218877
000330 6d 98 88 bd 12 10 93 3e aa f5 d1 bd 0f 2d a3 3e
       -0.06669698 0.28723198 -0.10251935 0.31870314
000340 e9 6e aa 3d 85 cb ae 3d 39 9c 86 3d 5e 4e 21 3d
       0.08321936 0.08534912 0.06572766 0.039381377
000350 0d d2 72 3e e8 ef 31 3e 23 05 43 be 1b 5f 94 3e
       0.2371294 0.17376673 -0.19044928 0.2897881
000360 62 27 85 3e 5f 2d 58 3e 8a aa 13 bd 98 63 a3 3e
       0.2600661 0.21111058 -0.03605131 0.31911922
000370 93 30 71 bd df a0 86 3e ac 36 59 3e a6 85 9b 3d
       -0.058884215 0.2629461 0.21212262 0.07593851
000380 22 e9 ef 3e d4 8c 18 3e 62 5d fc 3e b5 7e 70 3e
       0.46857554 0.14897472 0.49289995 0.23485835
000390 ee 5b 80 bd 97 06 6a 3d 3b bd b9 3d 52 7a 43 3d
       -0.06267534 0.05713519 0.09069296 0.047724076
0003a0 c7 f8 ad 3d 57 b3 c7 3e 45 e7 8a bd 33 f0 1d bb
       0.08494716 0.39004013 -0.067823924 -0.0024099469
0003b0 ec bd ed bd e2 ff 35 3e fb 35 b2 bd 8e 84 86 bc
       -0.1160849 0.17773393 -0.08701702 -0.016420629
0003c0 7b ef a1 bd 32 e3 24 3e ca ac dc 3d 01 e1 b6 3e
       -0.079070054 0.16102293 0.107751444 0.3571854
0003d0 6e 2c 2b 3e bd 87 f5 3d ae 60 3c 3d 8f 34 24 3f
       0.16716167 0.11988781 0.04599064 0.641427
0003e0 79 ac c4 3d 26 62 7d bd 54 24 07 3f a7 d3 42 bd
       0.09603209 -0.06186118 0.5278981 -0.04756513
0003f0 5a 02 d8 bd 59 56 e7 3e 04 36 55 3e 15 5f 3f bd
       -0.105473235 0.45183066 0.20821387 -0.046721537

encoder.gru.weight_hh_l0_reverse f4 [12, 4]
000000 e1 6a c4 be e0 79 8d 3e 8d 09 9a 3e ba 2c ab 3e
       -0.38362792 0.27632046 0.30085412 0.3343256
000010 ac 94 96 bc 59 82 3a bf aa 9f 85 bf 08 d4 38 bf
       -0.01838144 -0.72855145 -1.0439351 -0.72198534
000020 49 a5 52 bf 1f 40 7f be 44 43 2d bf f8 ad 95 be
       -0.82283455 -0.24926804 -0.67680764 -0.2923429
000030 69 e4 28 bf 6f f8 41 3d 5e a6 87 bd c2 7b 76 be
       -0.65973526 0.047356065 -0.06623529 -0.24070647
000040 f3 9e 0f 3f cf 34 2e bf f7 7c df bd ef b5 92 bd
       0.5610191 -0.6804933 -0.10912507 -0.07163607
000050 d1 65 41 bc 6a 5f 8d be cb 2c 62 be 48 e4 92 3e
       -0.01180406 -0.27611858 -0.220874 0.2868979
000060 12 27 2e 3e 44 82 8d 3d 4d df 44 3f 34 2a 70 3e
       0.17007092 0.06909612 0.7690323 0.23453599
000070 37 3a 91 3d ab c3 30 3e 3c c7 99 3d 16 1c 13 3f
       0.07091182 0.17262141 0.07508704 0.5746473
000080 a6 86 77 be 6c 31 39 3e bb 5d 8f bf 44 fe 15 be
       -0.24172458 0.18085259 -1.1200479 -0.14647776
000090 0c 38 db 3e eb 2e 7a 3f 48 94 00 bb f3 8f 05 bd
       0.42816198 0.9772784 -0.0019619633 -0.032607984
0000a0 1e 49 17 3f 5c a8 a1 3f d5 b2 0c be 3d c0 c2 be
       0.5909594 1.2629504 -0.13740094 -0.3803729
0000b0 7c e3 84 be 77 19 be 3e b0 77 e3 bd 40 b3 a2 bd
       -0.25954807 0.37128803 -0.11106813 -0.079443455

encoder.gru.bias_ih_l0_reverse f4 [12]
000000 7e 8a fa 3e e4 ab f1 bd df d0 1e 3f e4 cc c2 3e
       0.48933786 -0.11800364 0.6203746 0.38046944
000010 9d cf 19 be 1d 19 d8 be d9 fe a1 bd cd 95 6c 3c
       -0.15020604 -0.4220666 -0.079099365 0.014440012
000020 c6 34 93 3b e6 6f 9a 3a 89 56 a0 bd 4b 27 0c 3e
       0.004492375 0.0011782616 -0.07829005 0.13686864

encoder.gru.bias_hh_l0_reverse f4 [12]
000000 20 f3 e8 3e 04 4b b2 bd da e7 04 3f 4f 7a dd 3e
       0.4549799 -0.08705714 0.5191628 0.43257377
000010 7a 87 2c be ca d6 c1 be bd 92 e4 bd 52 20 bd 3c
       -0.16848555 -0.37859184 -0.111608006 0.0230867
000020 7d 10 ba bd b2 e2 e9 3d 60 81 da 3a b6 0b 1e 3e
       -0.09085176 0.11420192 0.0016670637 0.15434155

decoder.embed.weight f4 [8, 8]
000000 64 34 63 bd 33 6f 3e 3c c7 ae f0 bc 29 fe f9 bb
       -0.055469885 0.011623192 -0.029380215 -0.007629175
000010 66 a6 a2 ba 1e 8e 3d 3c c0 5d a0 bd b8 ae 5c 3b
       -0.001240921 0.011569528 -0.078303814 0.0033673476
000020 a8 96 8a bc 0c 8d a8 bc 81 51 86 3c 15 d6 a3 bc
       -0.016917542 -0.020575069 0.016396286 -0.019999543
000030 e0 41 a5 3c 9c b6 bd 3c 12 35 02 bc 7c 2a 90 3c
       0.020173013 0.023158364 -0.007947223 0.017598383
000040 4c 1a 7f 3d 6a b5 51 3e d4 07 41 be c3 ba 19 3e
       0.062280938 0.2047936 -0.18850642 0.1501265
000050 b3 ea 1f be f4 e0 07 be d1 b2 51 3e d6 87 ed bd
       -0.15616874 -0.13269407 0.2047837 -0.11598174
000060 2e 4c df 3c 9c 08 0b 3c ca 1e df bc 62 db 88 3c
       0.027258005 0.008485939 -0.027236361 0.016706172
000070 4c 74 b8 bc 5c 90 2d bd d8 89 a1 3c f4 a4 aa bb
       -0.022516392 -0.042374 0.01971905 -0.005207652
000080 d3 bf 18 3d a4 8f 9a 3c 7c 88 0b bd 84 04 24 3d
       0.037292313 0.018867321 -0.03406571 0.04004337
000090 c7 f8 0a bd 15 34 4b bd f8 27 3c 3d 91 f1 14 bd
       -0.03392866 -0.049610216 0.045936555 -0.03636319
0000a0 9a c5 04 bf f8 0e dc be ef 67 06 3f 6c f7 e0 be
       -0.51864016 -0.4298017 0.5250234 -0.43938768
0000b0 b5 77 df 3e 3d e0 ac 3e 3a 89 dc be c4 e4 f5 3e
       0.43646017 0.3376483 -0.43073446 0.48026097
0000c0 80 b8 c4 3a a4 14 b2 ba 17 4a cd 3b 67 bb 51 bc
       0.0015008599 -0.0013586474 0.0062649357 -0.012801028
0000d0 95 2a 57 3c 80 03 03 3c 50 3a ea 3b d6 b9 d7 3b
       0.013132711 0.00799644 0.0071480647 0.0065834327
0000e0 22 2a b4 3e cf 72 10 3f 67 43 be be 21 1d b7 3e
       0.35188395 0.56425184 -0.371608 0.3576441
0000f0 f3 f1 b6 be 52 be 12 bf b9 3f f4 3e c0 28 c3 be
       -0.35731468 -0.57321656 0.47704867 -0.38117027

decoder.gru.weight_ih_l0 f4 [12, 8]
000000 9f 21 27 be 81 4a f6 bd 37 8b f4 3d 48 2e 2b be
       -0.16321419 -0.12025929 0.119406156 -0.16716874
000010 ff 3b f0 3d 83 98 f9 bc 6b cb 1c be e0 3f 66 3e
       0.11730193 -0.030468231 -0.15311973 0.22485304
000020 1c bc 59 bd d0 2b 12 bd 4c 68 c3 bd 08 eb cb 3d
       -0.05315791 -0.035686314 -0.095413774 0.09956938
000030 69 58 06 be cd 8f f3 bd f1 b4 42 3d bf a1 b9 bd
       -0.13119663 -0.11892662 0.04753584 -0.09064054
000040 6b 60 b8 3d 55 a9 c5 3d 42 a8 19 be 83 cc 74 3d
       0.09002765 0.09651438 -0.15005592 0.05976535
000050 ec 87 59 3c 80 2b ef bd 64 ef 9a 3d cb 5d 7a ba
       0.013277035 -0.11678219 0.075651914 -0.00095507194
000060 33 62 4a 3d 58 ac ed 3d c9 05 b7 bd 79 6a bb 3d
       0.049410056 0.116051376 -0.0893665 0.091511674
000070 6f d8 4f be a4 94 05 be 00 51 22 3e a3 5e 48 be
       -0.20297407 -0.13044983 0.15851212 -0.19567351
000080 20 6a 49 be 08 21 d3 3d 95 eb b0 3d ea 00 46 be
       -0.1966939 0.103090346 0.08638684 -0.19336286
000090 a2 3c 14 3e 48 2e 69 be aa bb df 3c cd b2 2e 3e
       0.14476255 -0.22771561 0.027311165 0.17060395
0000a0 88 37 b9 bd 16 fa fb 3c f1 45 9d 3d 1e 61 9c bc
       -0.09043795 0.030758899 0.07679356 -0.019089278
0000b0 80 55 d4 3c 61 b4 95 bd db 4d dc 3d 7a ee 78 3d
       0.025919676 -0.07309795 0.10757037 0.060774304
0000c0 44 4b 32 be a7 36 2f bc f2 65 1b 3e f6 75 41 be
       -0.17411524 -0.0106941825 0.15175608 -0.18892655
0000d0 1c e4 d0 3d ad 8a 23 bc 07 af 1e bd 64 54 ac 3d
       0.101997584 -0.009981793 -0.038741138 0.08414534
0000e0 32 ad 1e be f4 4b fc 3c 5a 75 a4 3e e8 bf 1d 3d
       -0.15495756 0.030797936 0.32120782 0.038513094
0000f0 46 bd 64 3c ef 71 4d bd cb 30 cf 3c 28 cc 46 3d
       0.013961142 -0.050157484 0.025291821 0.048534542
000100 c9 1d c1 bd da 6b c3 3c 44 b1 fd 3d 3c c3 b2 3c
       -0.09429509 0.023855139 0.12387326 0.02182161
000110 06 9f 85 bd 84 0c 76 bd b2 ca 3e 3d b1 7c 9c bb
       -0.06524472 -0.06007053 0.046580024 -0.0047756066
000120 6c 52 f8 3d de ca 5b 3d 83 01 1d be fd 28 9c 3d
       0.12125096 0.053660266 -0.15332608 0.076250054
000130 11 14 d8 bd 49 c0 d9 bc fd e4 ca 3d b2 33 94 bd
       -0.10550702 -0.026580947 0.09906957 -0.072364226
000140 26 d1 71 3e 6b 19 f9 3d 74 a0 3c be bc 18 c2 3d
       0.2361494 0.12163051 -0.18420583 0.09477374
000150 f9 ff 65 be 91 59 0e be cd 0e 41 3e 02 ac 62 be
       -0.22460927 -0.13901354 0.18853302 -0.22135928
000160 4a e6 d0 bd da 31 e2 3c a3 d0 1a bd 76 7e 12 be
       -0.10200174 0.027611662 -0.037796628 -0.14306054
000170 b9 69 28 3d d5 04 f3 bd 0d 6d 95 3d eb 64 96 3d
       0.04111645 -0.11866156 0.072961904 0.07343467

decoder.gru.weight_hh_l0 f4 [12, 4]
000000 72 cd fa be 7f 59 b7 3e dd aa d0 3e 42 88 b7 be
       -0.48984867 0.35810468 0.40755358 -0.35846144
000010 da 73 cb be cf 13 d1 3e 00 3f ec 3e 19 ae f0 be
       -0.39736825 0.40835425 0.46141815 -0.47007826
000020 c8 77 cc be e0 30 b4 3e 1a c1 cb 3e a3 cd b3 be
       -0.39935136 0.3519354 0.39795762 -0.35117826
000030 e0 4c d1 be 3e fe ef 3e c4 53 b2 3e 3b c8 f5 be
       -0.40878963 0.4687366 0.34829533 -0.48004326
000040 f7 15 d7 be 2c 58 f3 3e 9a 69 cc 3e 8c 13 e7 be
       -0.42008945 0.47528207 0.39924318 -0.451321
000050 41 2e 0a bf 93 9a f3 3e c7 35 03 3f e0 09 0d bf
       -0.5397683 0.47578868 0.5125393 -0.55093193
000060 75 3a fa be 56 5b cd 3e 8e a8 f9 3e 3d 93 e0 be
       -0.48872724 0.40108746 0.4876141 -0.43862334
000070 d6 30 1f bf 58 53 03 3f 7b 2b 0a 3f 6a 3c 2b bf
       -0.6218389 0.5129905 0.53972596 -0.6688906
000080 18 87 b2 3e bf dd 20 be c8 85 93 be fe a8 d1 3d
       0.34868693 -0.1570959 -0.28813004 0.10237311
000090 c0 ad 9b be ae 8e 8d 3e 53 d4 88 3e a7 fc 1d be
       -0.30405998 0.27647918 0.2672449 -0.1542841
0000a0 3c 5a a6 be cc 98 3e 3e 7a ef 5b 3e 8b c4 11 be
       -0.32490718 0.18612975 0.21478072 -0.14235131
0000b0 69 43 7e 3e aa 30 80 be e2 b2 41 be 2b ea a7 3e
       0.24830402 -0.25037128 -0.18915895 0.32795843

decoder.gru.bias_ih_l0 f4 [12]
000000 61 fd 02 3e 17 c6 a1 3d 23 e1 a1 3d e2 c8 f7 3d
       0.12791969 0.07899111 0.079042695 0.12098862
000010 19 f1 4e 3e af bb 2e 3e 61 04 65 3e 24 db 84 3e
       0.20209159 0.17063783 0.22364952 0.2594844
000020 fe c5 9f 3e 40 07 6e be e0 cf 71 be ec bb 73 3e
       0.31205744 -0.23244953 -0.23614454 0.23802155

decoder.gru.bias_hh_l0 f4 [12]
000000 c4 eb ec 3d 09 fd c2 3d 4d 82 fa 3d 05 a0 1b 3e
       0.11568406 0.09520919 0.12231884 0.15197761
000010 93 42 90 3e 40 23 f1 3d 41 aa 64 3e a8 88 6c 3e
       0.28175792 0.117743015 0.22330572 0.23099005
000020 58 90 22 3e fa 4e 4e be fa 3a f0 bd 87 de 76 3e
       0.15875375 -0.20147315 -0.11729999 0.24108325

decoder.gru.weight_ih_l0_reverse f4 [12, 8]
000000 d6 0c c3 bc 66 55 0d 3d e9 9d 78 bd 08 ea d8 bd
       -0.023809832 0.03450527 -0.06069747 -0.10591513
000010 7b cd 93 3d 14 e5 df bc e4 52 e6 3d 2c 64 a8 3d
       0.07216927 -0.027330913 0.11246279 0.08222231
000020 fc b8 bf be 2f 0c a2 be 00 1d 56 3d 45 ee b7 be
       -0.3744582 -0.3164992 0.05227375 -0.35923973
000030 c0 88 85 3e 84 0c 85 3e 78 b2 99 be 20 49 d7 3e
       0.26080894 0.2598611 -0.30018973 0.42047977
000040 82 33 a6 3e e0 b5 8e 3e c4 d6 78 be 23 1b 88 3e
       0.32461172 0.27873135 -0.24300677 0.26583204
000050 e5 54 95 be 5a 99 8a be d2 b6 64 3e b1 b6 9f be
       -0.29166332 -0.27070123 0.22335365 -0.3119407
000060 52 7d 24 3f 18 57 8c 3f 7a 8e 51 bf 24 67 54 3f
       0.64253724 1.0964079 -0.81858027 0.8296988
000070 bf 7f 41 bf ba 05 9a bf 3d be 86 3f 64 8e 78 bf
       -0.7558555 -1.2032998 1.0526806 -0.9709227
000080 da 1a 78 be 33 f2 b6 be 02 30 67 3e 34 c9 b8 be
       -0.24228993 -0.35731658 0.22576907 -0.36091006
000090 de ea 96 3e de d5 ba 3d d9 13 6e be a9 69 86 3e
       0.29476064 0.09122823 -0.23249759 0.26252487
0000a0 41 6e 1b be 67 3d ea 3b e2 85 76 3d 2d ca b6 bd
       -0.15178777 0.007148433 0.060186274 -0.08925281
0000b0 f7 d3 02 3e a8 f7 af bd d0 ab e4 bb a7 36 9b 3d
       0.1277617 -0.085921586 -0.0069784895 0.075787835
0000c0 ae 67 7a 3c 35 6f e2 3d a9 8e 52 bd 20 e6 88 bb
       0.015283508 0.11056367 -0.051405583 -0.0041778237
0000d0 94 97 5f 3c 84 38 de bd 91 33 35 3d 81 4f ac 3c
       0.013646979 -0.10850623 0.04423863 0.021034004
0000e0 c8 71 b4 be ac 1c 73 be 75 ff a2 3e 3c 76 a0 be
       -0.35243058 -0.23741406 0.31835523 -0.31340206
0000f0 68 9f 89 3e 3f 9f 80 3d ed 69 4e be 4e d2 95 3e
       0.2687943 0.06280374 -0.20157595 0.29262012
000100 85 6d 48 3e e4 25 28 3e 40 cf 36 be 6c 50 67 3e
       0.19573028 0.16420704 -0.17852497 0.22589272
000110 5c 3b 35 be 3a f6 1b be 7e f2 37 3e a2 71 2b be
       -0.17698425 -0.15230647 0.17963597 -0.16742566
000120 31 7e 21 be cf 67 66 bd 83 83 12 3e cd 03 e7 bd
       -0.15770794 -0.056251343 0.1430798 -0.11280022
000130 a3 8e 6c 3e 9f f8 11 3e 88 91 ee bd 6e dd d6 3d
       0.23101287 0.14254998 -0.11648852 0.10491453
000140 c7 48 2b bd d6 94 e2 3c b6 3d d8 bb cb 99 cf 3c
       -0.041817453 0.027658861 -0.0065991534 0.025341889
000150 ae 61 1c bb 4b e0 04 be 9c 12 83 3d 58 59 6d 3c
       -0.0023861933 -0.12976186 0.06400034 0.014486633
000160 96 73 48 3f 49 94 45 3f ea 44 56 bf 40 10 6b 3f
       0.7830137 0.7717939 -0.83698905 0.9182167
000170 0c 3d 84 bf 42 c8 27 bf aa 43 64 3f 87 5f 56 bf
       -1.033113 -0.65539944 0.8916575 -0.83739513

decoder.gru.weight_hh_l0_reverse f4 [12, 4]
000000 83 12 c0 3e 38 59 ad 3d bb 83 e6 3d 1f 9d 8a bb
       0.37514123 0.08464283 0.11255594 -0.004230156
000010 f6 65 63 bd ec 08 b3 bd 7f 0f 05 bf 61 1e 09 bf
       -0.05551716 -0.08741936 -0.5197677 -0.5356198
000020 6b 15 a8 3c 0c 4f 01 3f dd c4 99 be 94 dd d4 be
       0.020518025 0.5051124 -0.30033007 -0.415753
000030 53 7b 29 3e 3a d3 9b 3e 30 dd 34 3e 62 2a 0a 3c
       0.1655095 0.3043459 0.17662501 0.008432956
000040 95 1b ba be 29 7a 80 3e a1 5c 65 3e de 02 5a be
       -0.36349168 0.250932 0.22398616 -0.21290156
000050 ed 70 32 bf d6 14 7e be fd 51 3a bf 45 01 e7 be
       -0.6970356 -0.24812636 -0.72781354 -0.45118156
000060 5c 15 37 bf b7 45 b4 bd d7 1a 8f bf 69 19 f2 be
       -0.71516967 -0.088023596 -1.1180066 -0.4728501
000070 10 8e 58 bf fb b1 b2 3e b1 c0 84 3e af 62 a2 be
       -0.8459177 0.34901413 0.25928262 -0.31715915
000080 00 e2 1e 3e 48 50 e8 3d b7 8a 1c 3d 52 f8 6f be
       0.155159 0.113434374 0.038218226 -0.2343457
000090 0e f5 b8 3e 09 ba bf 3e 38 f5 b8 3e 7e 9a 8c 3d
       0.36124462 0.3744662 0.36124587 0.068654045
0000a0 79 78 92 3e bd 6f 87 3e 4c df 85 3e 04 36 bc bc
       0.28607538 0.26452437 0.26146924 -0.022974975
0000b0 3f bc 2b 3f c2 8d 01 3e c3 68 0f be ce df 44 3e
       0.67084116 0.12651733 -0.14004807 0.19226

decoder.gru.bias_ih_l0_reverse f4 [12]
000000 a0 78 ae 3e f0 04 c9 3e 26 17 c5 3e 8a 87 8f 3e
       0.34076405 0.3926158 0.38494223 0.28033096
000010 ab 70 ad bd a0 ca 2e 3e 87 a8 50 3e 90 5e b6 bd
       -0.08468755 0.17069483 0.20376788 -0.08904755
000020 f6 bb d0 3e 76 29 53 3e 83 66 5a 3e a9 61 13 3c
       0.40768403 0.20621285 0.21328168 0.008995452

decoder.gru.bias_hh_l0_reverse f4 [12]
000000 66 8f e0 3e 46 32 c7 3e da 51 94 3e e1 23 79 3e
       0.43859404 0.38905543 0.28968698 0.24330093
000010 b8 1d 25 bd c6 33 25 3e 07 77 1e 3e 36 e6 39 3d
       -0.040311545 0.16133031 0.15475093 0.045385562
000020 4c 66 a8 3e 95 38 53 3e 89 e2 a3 3e 1a fb 59 3e
       0.32890546 0.20627053 0.3200877 0.21287194
