agl/models/autosave/g1-gru-AE-1-5-1-300-lr0.001.pt (torch, 80455 bytes, 24 tensors)

encoder.embed.weight f4 [8, 8]
00000000: 296c 013c 9983 b3bb e609 8abd c235 ea3a
00000010: 56b9 993d 70b5 173c a4a5 3fbc c2d3 07bc
00000020: c4a9 64be 4803 1fbe bc7e 443e baaf 5fbe
00000030: 300c 593e 989e 4c3e 39ef 773e 836b 5fbe
00000040: 3883 bdbd 37f7 89bd 43f8 223e 02ac 82be
00000050: 1485 983e 9c31 973e cdb9 6f3d 4d81 91be
00000060: 9f20 9dbe a33b dbbe ae67 723e 097b 85be
00000070: 6774 783e 2aaf 7d3e 9855 aa3e dbae 84be
00000080: 007e 603e b6e9 a33e e4f8 95be 1017 993e
00000090: 7fc0 9bbe 6603 8fbe bb57 bfbe a4bb a23e
000000a0: 5645 16bc b855 5bbc 2d93 153b 7606 5bbc
000000b0: a728 fd3b 1092 023c 18f1 983c 4e56 2fbc
000000c0: ff6e cd3d fc75 c23d 0e5a b1bd e0bc d13d
000000d0: ce06 ddbd dfd2 f2bd c7e4 e3bd ad65 de3d
000000e0: 2220 363e 8993 4b3e 7834 28be da29 443e
000000f0: aa41 4bbe 62fb 1abe a1c4 85be f2b1 4c3e
0.007899323 -0.005478334 -0.06740169 0.0017868804 0.07506053 0.009259567 -0.011697207 -0.008290233
-0.22330385 -0.15528595 0.1918897 -0.21844378 0.21196055 0.19982374 0.2421235 -0.21818356
-0.092535436 -0.067366056 0.15915017 -0.25521857 0.2978903 0.29530036 0.058526803 -0.2841896
-0.3068895 -0.42818937 0.23672363 -0.2607043 0.24263154 0.24773851 0.33268428 -0.25914654
0.21923065 0.32014245 -0.2929145 0.29900408 -0.304203 -0.2793228 -0.3737162 0.31783783
-0.009171804 -0.013387136 0.002282332 -0.01336824 0.0077257934 0.007969394 0.01866965 -0.010701729
0.100309364 0.0949516 -0.08659755 0.10241103 -0.107923135 -0.11856627 -0.1112762 0.10859237
0.17785695 0.19880499 -0.16426265 0.1915659 -0.19849268 -0.15134957 -0.26126578 0.19989756

encoder.fc_one.weight f4 [300, 8]
00000000: 59ef 393e 5f35 6f3e a8b3 f4bd 5d2e 183e
00000010: 7fa1 59be ba64 1dbe 1623 0cbe 2b77 143e
00000020: c148 65be 0aae 26be e0b2 653e 65ca 59be
00000030: 70c7 173e fd85 823e 622a 263e 8a17 a1be
00000040: 6b54 2ebe 6e52 84be 8309 4c3e cfef adbd
00000050: 2e7e 833e c562 3e3e f2ca 433e d4b5 2abe
00000060: c5ec 9abe 6c8f 7fbe 377f 913e 3bfe 82be
00000070: d2da 643e 5258 983e 5aa3 843e 6029 e6bd
00000080: 23d7 3abe 1c65 c9bd 9771 323e c982 38be
00000090: dafd 123e 0f54 083e a3d3 703e 69b9 80be
000000a0: ecfb 3cbe 96d2 08be 7608 703e e969 57be
000000b0: 78b1 5e3e 6a62 743e c918 783e d14f 51be
000000c0: 05bd 69be 170b 15be 61cd 8e3d 4935 37be
000000d0: 78fa 5a3e f70d ac3d 90b6 753e 0a3e 7abe
000000e0: de0c 24be a762 89be 4158 6b3e ffab 9abe
000000f0: fa08 8b3e dbf0 863e df66 813e 0805 41be
00000100: b069 5dbe 57de 9cbe a7f7 cf3d 8042 7fbd
00000110: ab58 393e 9a83 003e 142b 0e3e ce44 1abe
00000120: 86be 25be dc75 be3a 0a5b 1a3e faeb 87be
00000130: a45d 0b3e ef69 5d3e 07ff 853e 7007 61be
00000140: b4c6 463e b1c7 323e cc9e 8abe 54fb 073e
00000150: 50ed 30be fc7e 3bbe 32d3 82be 09eb 823e
00000160: 5a7b b13b c73d 103c 0f67 dbbc 9547 03bd
00000170: a20f da3d f3a5 44bd 4adf 163b 35fc 2a3d
00000180: cb5f b1be c563 b5be 8757 b53e 473e 84be
00000190: ce96 943e e929 473e f08c bf3e d9e9 abbe
000001a0: 99d0 993e 2a10 053e fd34 90be 2dbd 923e
000001b0: ffa9 79be 5c83 5bbe 2229 34be df31 853e
000001c0: c2bc 49be bc97 0fbe b6fd 9f3e a2af e1bd
000001d0: 2184 763e 9057 963e 87b7 8a3e da9b a0be
000001e0: 26cb 4bbd 6d8b 9f3c 785b 633d a820 31bd
000001f0: f999 8abd b78a fd3c 9ea4 f43c b139 7e3c
00000200: c2ac acbe 691a 40be 1dba de3d a6c1 81be
00000210: 4b60 ac3e c88a 423e 584b 563e 5ddb 35be
00000220: 8a99 313e 1a44 3d3e 377e 7bbe 301a 8b3e
00000230: 6e23 78be 87e6 26be ed0c 02be acec 4f3e
00000240: baae c1bd 11ed 2c3d 5b31 703e 95eb 4dbe
00000250: d96d 2c3e af23 373e ccd8 513e 09bd f4bd
00000260: ed05 bbbd 14fd b7be 6bdf 203e 0f3c 2cbe
00000270: 340f 1e3c 6a54 203e c764 8f3b e408 62be
00000280: 29a2 973c 423d 84bc 612d 423d 732c 09bd
00000290: f32d e2bc b6cb fd3b 471f e53c b860 8d3c
000002a0: 3afd d1be 873c 9ebe 8287 623e 511e 8ebe
000002b0: cb1e 8a3e 042b 7d3e 36a3 703e ec6a 7abe
000002c0: 1549 3abd 077f 0c3d 840b 64bc ab45 4bbd
000002d0: 85f6 3d3b 04f1 47bd a360 1abc 5b15 8abc
000002e0: 90ff 95bd b9a4 eabc 6cb4 373e 0755 01be
000002f0: c2c9 403e 58b7 353e 295a 1f3e f617 41be
00000300: bea1 06be 2b92 48be ddc6 893d 443e abbd
00000310: 7d8c b03d a7fb 093d 58c9 9f3d 5b77 cdbd
00000320: bb90 6a3e 54ad 143e 0658 4ebe bd1e 943e
00000330: bc63 82be 29b3 92bd 4eb2 2cbe 30fd 653e
00000340: 5af5 91be 9444 75be e6f2 1b3e 552f 34be
00000350: 0151 4b3e ce5a e83d f92b 4a3e 1801 15be
00000360: 9267 d5bd ef47 2ebe b709 9f3e f824 97be
00000370: f913 813e 2018 833e 7c0d af3e 669b 47be
00000380: 5f8d 883e 8775 433e 7589 3ebe 7ca4 883e
00000390: dc22 5fbe 1b4d 38be b2ab 5fbe f01c 783e
000003a0: ebc0 31bc eef3 2cb8 1e75 c33a aef8 34bd
000003b0: 143a 523c 3383 143d 80f9 32bd c22d adba
000003c0: e059 61be 3215 debd 57db 883e b553 84be
000003d0: c974 6a3e b2c3 7d3e 4499 6c3e cace 3dbe
000003e0: ce4c 54bd c43b a1bd 13f4 3c3b 784b 7c3e
000003f0: b8a9 833d d660 d0bc c570 dcbc e1db 933d
0.1815771 0.23360203 -0.11948329 0.14861436 -0.21253012 -0.15370455 -0.13685259 0.14498584
-0.22391035 -0.16277328 0.22431517 -0.21268614 0.14822173 0.2549285 0.16227105 -0.3146327
-0.1702439 -0.2584414 0.19925503 -0.084930055 0.25682205 0.18592365 0.19120386 -0.16670924
-0.30258766 -0.24957055 0.2841737 -0.25584587 0.22349098 0.29754883 0.25905877 -0.112383604
-0.1824613 -0.09833738 0.17426144 -0.1801864 0.14354649 0.13313316 0.23518233 -0.25141457
-0.18455476 -0.13361582 0.23440728 -0.21036495 0.21747386 0.23865667 0.24228205 -0.20440604
-0.22826011 -0.14555012 0.06972767 -0.1789142 0.21384609 0.08401101 0.23995423 -0.24437729
-0.16020533 -0.26833078 0.22982885 -0.30209348 0.27155286 0.26355633 0.25273797 -0.18849576
-0.21622348 -0.30638382 0.10154658 -0.06231928 0.1810023 0.12550202 0.1388362 -0.1506531
-0.1618596 0.0014530974 0.15073791 -0.26547223 0.1360994 0.21622442 0.26171133 -0.21975493
0.19411737 0.17458989 -0.27074277 0.13279468 -0.17278028 -0.1831016 -0.25551754 0.25569943
0.005416316 0.008803791 -0.02678254 -0.032050688 0.10647513 -0.048009824 0.0023021274 0.04174443
-0.34643397 -0.3542768 0.3541834 -0.25828764 0.29021305 0.19449581 0.37412214 -0.3357685
0.3004196 0.12994447 -0.28165427 0.28659955 -0.24381255 -0.21436828 -0.17593816 0.2601461
-0.19700912 -0.14022726 0.31248254 -0.110198274 0.2407384 0.2936368 0.27093145 -0.31368905
-0.049754284 0.019475663 0.055507153 -0.043244034 -0.06767649 0.030949933 0.029863652 0.015516684
-0.33725554 -0.18760075 0.10875342 -0.25343055 0.33667216 0.18998253 0.20927179 -0.17759462
0.17343727 0.1848301 -0.24559866 0.27168417 -0.24232265 -0.16298877 -0.12700243 0.20305127
-0.094571546 0.04221827 0.23456328 -0.20109399 0.16838779 0.17884706 0.20492858 -0.11950118
-0.0913199 -0.3593527 0.15710227 -0.16819786 0.009647179 0.15657201 0.0043760273 -0.22073704
0.018509941 -0.016142491 0.047406558 -0.033489656 -0.0276098 0.0077452315 0.027969016 0.017258033
-0.4101351 -0.30905554 0.22122005 -0.27757505 0.26976618 0.2472344 0.2349976 -0.2445485
-0.045479853 0.03430083 -0.013918761 -0.049626987 0.0028986048 -0.048813835 -0.009422454 -0.016855886
-0.07324135 -0.028642999 0.17939919 -0.12630092 0.18826964 0.17745721 0.15561737 -0.18856797
-0.13147637 -0.19587009 0.06727383 -0.083614856 0.08620546 0.03368726 0.07802075 -0.10032531
0.22906773 0.14519244 -0.20150766 0.289297 -0.25466716 -0.07163078 -0.16864893 0.22459865
-0.285075 -0.23951942 0.15229377 -0.1759618 0.1985512 0.113454446 0.19743337 -0.14551198
-0.10420145 -0.17019628 0.310621 -0.29520392 0.2521055 0.25604343 0.34189975 -0.19492874
0.26670358 0.19087802 -0.18607123 0.26687992 -0.21790642 -0.17998163 -0.2184284 0.24229789
-0.010849218 -4.1235173e-05 0.0014912223 -0.044182472 0.01283123 0.036257934 -0.043694973 -0.001321249
-0.22006941 -0.108438864 0.26729843 -0.25845113 0.22896113 0.24781683 0.23105341 -0.18535915
-0.05183106 -0.078727275 0.0028832003 0.24638164 0.06428856 -0.0254368 -0.026909241 0.07219673

encoder.fc_one.bias f4 [300]
00000000: 3dcc 623d 52a7 6dbb 634e 073d 73b5 723d
00000010: 205a edbb b624 a13c 7e4a f93c e714 5d3d
00000020: a2e8 893c 854a f8bc 1b7d 863d e3ed c4bd
00000030: b1f1 ac3d 2cbc f33d ac8e 0ebd 5414 fabd
00000040: 6279 2a3d 679e 813d fb9f b3bc 9d98 2e3d
00000050: c487 c4bd 30e6 363d f3e1 90bd c101 fa3c
00000060: 1502 05bb 8ab1 b13d 8d91 503d 2f20 973d
00000070: 9b75 a53d 769f dfbd b63d 3b3d 18a9 b5bd
00000080: dff2 6f3d dfb7 b13d b400 523d 9a71 dfbc
00000090: e524 2e3d 0f5e b5bd 07f7 6d3d 2cc4 463d
000000a0: 71c3 2d3d e78e 9f3c 1b7c 8c3d 399d 96bc
000000b0: 5f52 2e3d 0ad7 cc3d 73dd c4bd fb40 313d
000000c0: b9e8 133e 81b1 4a3d f409 c1bc 7890 fc3d
000000d0: 0ef6 2abb eb61 e63d 03fe 0c3b 6332 2e3d
000000e0: 8ea7 213d c256 823d 9981 9abd c869 c83d
000000f0: 5cdb 81bd 228c fc3c 2efd b4bd 5854 c2bc
00000100: 712d 7bbd cfa5 0f3c 9d37 983c 058b b6bd
00000110: 7099 d9bd 85c4 4cbd e505 d2bc 1872 263d
00000120: dc13 cdbd 7e86 9e3d 94d1 c83c b702 acbc
00000130: 9edc 1a3d c9ac 98bc ddd0 e2bd f906 e9bd
00000140: 3c10 aa3c 7d74 5b3d 096b 9a3d 1840 2e3d
00000150: 4c42 143d f9bb a33d 06b6 a9bd c849 06b9
00000160: ebd7 643d 035b 85bd 8edd bc3d 1862 8b3d
00000170: b178 babc 42cf 09bd 46bf 0f3d 4fbe 0e3d
00000180: 2edb e9bd 7098 833d aca4 a0b9 723a 9cbd
00000190: 01f3 0a3c dc4d 013e 9981 4d3d 5dae f93c
000001a0: f850 86bc 95b9 87bd f1fc bdbd 6f4e 8c3d
000001b0: 7933 383d f709 de3d 71a6 513d cd5f 253d
000001c0: 4c3b 143d acb7 153d 2c9b 4e3d ab20 60bd
000001d0: a120 e9bd 7b8e 203c 8c2c 3f3c 596b c5bd
000001e0: 6461 cd3c 8501 acbc 800b 083e 8107 c4bc
000001f0: fef6 c7bc e914 943d 660f a7bd 2f3d e43c
00000200: e1a5 c4bd ae47 c6bd beef a9bd 01bd b73d
00000210: 54c5 893d 8583 393d 82a2 e93c e84f adbc
00000220: 7bb9 3e3d 43bb 913d 8b33 97bc 8927 3e3d
00000230: 0256 36bd 3770 0e3d 4027 44bd f80a ef3d
00000240: a481 b33d 874e 903d e220 423d f1da b1bd
00000250: 823e c2bd 748b 113d ac70 f3bc d680 503d
00000260: b629 503d 6a87 a2bd f354 233d 965c 863d
00000270: 83d0 b2bd 7677 253d b708 adbd 4329 983d
00000280: 5816 a33d 2781 593d 3d59 a9bc 0ec2 cd3d
00000290: de96 21be f54f ec3c e764 bebd b7ed 663d
000002a0: bc31 263d 0e13 583d 2286 a2bd 1e6f a73d
000002b0: 500c be3b 2862 123e 4efd 8abd 2954 63bd
000002c0: 80a5 a7bc bfe8 c43d 7e40 debb 185c 3d3c
000002d0: f1f8 cbbc 1db5 e53c 2121 a53d b20e 143d
000002e0: a344 9a3d 6061 2f3d f0cb 213d ec6d 5f3d
000002f0: 0601 bc3d 0602 213d 79ae 9f3d 2c80 a03d
00000300: b1fd 62bd 8c67 093d 6209 1b3c 8040 e53c
00000310: ebfd 683d fc11 de3d ecec d0bc a6a4 2c3d
00000320: 92b0 7f3d 8b40 ddbc 9db8 59bd 13b5 2f3d
00000330: 1bac 82bc 4d21 b43d 26b9 a43c 5f3d 353d
00000340: 56b5 95bd bf86 3a3d a9f2 973c 51d2 c3bd
00000350: 6ccb b2bc a4b7 af3d d894 c73d 5026 c13c
00000360: ba84 323d 7493 dc3c cd81 a33c b0a6 843c
00000370: 59ad 183d 1eae 6e3d d8a6 b7bc 6ba8 8b3d
00000380: 2985 bfbc 0806 e83c 49bf 5f3d 5138 243d
00000390: c226 493d 8e4f 393d f4b9 87bd 2448 6a3d
000003a0: 5b34 c63d 4819 333d df6e e23d adb2 84bd
000003b0: a565 953d 9398 c0bd 084e 89bc d9f5 9abd
000003c0: 92a4 a13d b7cb 9a3b 10a9 48bd 3f28 ca3c
000003d0: f9f1 7b3d 9538 683d 4b0a f2bd 3e0f a23d
000003e0: 7e17 69bd d5be c2bd 2abc 63bd e47f 7fbd
000003f0: addd 0fbd d541 9b3c 291a 893d 21b9 233e
0.055370558 -0.003626306 0.03303374 0.059255075 -0.0072434098 0.019670825 0.030431028 0.053975012
0.01683456 -0.030308971 0.06566831 -0.09615686 0.084445365 0.11901125 -0.03480403 -0.122109085
0.041619666 0.06329041 -0.02192687 0.042626012 -0.09596208 0.044653118 -0.070743464 0.030518414
-0.002029543 0.08676441 0.050920058 0.073791854 0.08079072 -0.10919087 0.04571315 -0.08870143
0.05858123 0.08677649 0.0512702 -0.02727585 0.042515654 -0.08855831 0.05809691 0.048526928
0.042422716 0.01947732 0.06859609 -0.018385516 0.042559024 0.10001953 -0.096125506 0.04327486
0.14444245 0.049485687 -0.023564316 0.12332243 -0.0026086601 0.11249145 0.0021513707 0.04252852
0.039466433 0.06364204 -0.0754425 0.09785801 -0.063406676 0.03082854 -0.08837353 -0.023721859
-0.061322633 0.008767559 0.018581206 -0.089132346 -0.10624969 -0.049992103 -0.025637576 0.040636152
-0.100135535 0.07740496 0.024513997 -0.020997388 0.037808053 -0.018637078 -0.11074994 -0.11378283
0.020759694 0.05357789 0.075399466 0.042541593 0.036196038 0.07994837 -0.08286671 -0.00012806721
0.055869978 -0.065115 0.09221946 0.06805819 -0.022762628 -0.033644922 0.035094522 0.03484946
-0.11418758 0.064255595 -0.00030640268 -0.07628335 0.008480788 0.12627357 0.050172422 0.03047865
-0.01639603 -0.06627194 -0.0927676 0.068508975 0.044970963 0.108417444 0.05118412 0.040374566
0.036189362 0.036552116 0.050440952 -0.054718655 -0.113831766 0.009799595 0.011668336 -0.096396156
0.025070854 -0.020996818 0.13285637 -0.02392936 -0.024409767 0.07230551 -0.08157234 0.027861206
-0.096019514 -0.096816406 -0.0829768 0.089715965 0.067270905 0.045291442 0.028519873 -0.021156266
0.046563607 0.071157955 -0.018457195 0.046424422 -0.044515617 0.034774985 -0.047888994 0.11672014
0.08764961 0.07046228 0.04739464 -0.08684338 -0.09484579 0.035533383 -0.029716812 0.050904118
0.05082103 -0.079359844 0.039875936 0.06560628 -0.08731177 0.04039713 -0.08448928 0.07429745
0.07963246 0.053101685 -0.020672435 0.100467786 -0.15780208 0.02884672 -0.09296589 0.056379046
0.040574774 0.052752547 -0.0793574 0.08175491 0.0057998076 0.14295256 -0.06786595 -0.055500183
-0.020464659 0.09614705 -0.0067825904 0.011557601 -0.024898978 0.028040463 0.080629595 0.036146827
0.07532623 0.042817473 0.03950113 0.05454819 0.09179883 0.03930857 0.0779695 0.07836947
-0.05541772 0.033546016 0.009462686 0.027984858 0.05688278 0.10843274 -0.025503598 0.04214921
0.06242425 -0.027008316 -0.053154577 0.042897295 -0.015951207 0.08795414 0.020107817 0.04424798
-0.07309978 0.04553866 0.018548327 -0.09561599 -0.021825515 0.085799485 0.097451866 0.02357784
0.04358361 0.02692578 0.019959355 0.016192764 0.037274692 0.05827152 -0.022418424 0.068192326
-0.023378925 0.028323188 0.054625783 0.04009277 0.049109228 0.045241885 -0.066272646 0.057197705
0.09677955 0.043725282 0.11056303 -0.06479392 0.07294778 -0.09404101 -0.016760841 -0.07566423
0.078927174 0.0047239917 -0.048989356 0.024677394 0.06151006 0.056694586 -0.118183695 0.079130635
-0.05690717 -0.095090546 -0.05559937 -0.062377825 -0.035123516 0.01895229 0.06694443 0.1598859

encoder.gru.weight_ih_l0 f4 [15, 300]
00000000: 621a 073e bb3d c23d 2637 fc3d 4b3b f03d
00000010: ecc2 e93d 1ba0 e63d f1fd 103e a61e 4e3e
00000020: c4f9 453d 46f5 a03a 69c4 7cbd 0343 313d
00000030: 038a 68bc a4c3 063e 8189 11bc fc7b 0abd
00000040: 4d6e 853a 1326 eb3c 7b8e 033e 9bfe f83d
00000050: c245 31bc b0b5 d83d c0a4 86bd 79d0 fc3d
00000060: 52ff ca3c 02c3 043e 7282 303e 8077 273e
00000070: 794b 0f3e 9e84 6e3d 7d5c 193e c7a3 0bbb
00000080: b1d8 1a3e 70d0 603d 15d8 ca3d 839b 983d
00000090: 8a70 b93d 7ea6 2fbd c7fd 093e 5bd4 8c3d
000000a0: e6ed d03c faf1 403c bb4b 363e d1e4 853d
000000b0: b48d 1f3e 719e 75bc 5d8d 93bd fb2a d63d
000000c0: 6548 033e e346 4c3e bfd4 44bd 5d99 263e
000000d0: eb00 973d ee7a 323e e82b 803d be34 343d
000000e0: 18f9 403a 1a65 fb3c 13ec 953d 080f b33d
000000f0: 1f32 8e3d 08ce 013e a46e 913d 0a7c 9e3d
00000100: 2d39 f83c bfe2 0d3e 6e6d c93c 490a 493d
00000110: 78a7 9b3d b3ee 41bd 0a5a 6f3b 37de c23c
00000120: 4af2 33bd 163e 333d daf5 873d ac5f 183d
00000130: 9b71 ce3d 63a1 dd3d 6941 9a3d 03dd 5bbd
00000140: 8888 073e 5685 f83d d2f7 d83d f553 d13b
00000150: 9578 103d 3693 513c 85cc 943c da27 c9bc
00000160: a923 003e 9038 983d 28e6 c3bb db8f cd3d
00000170: b723 bb3c 2574 b73d 58b6 df3c 1f50 3e3d
00000180: fa9c b23c 5ab1 8d3c dd9a e23d b1ee 9c3b
00000190: 60cf 7d3d a5ba e83d 34ef cd3d bf49 193e
000001a0: 7888 e43d 8e06 86bd 8ced 82bd 5129 0f3e
000001b0: dd81 573d 3b77 153e 478a 0e3c babf f23d
000001c0: e561 0f3e c116 193e f443 663e 980a c03b
000001d0: 6a87 7cbd 7913 04bd a29e 053e c2b1 733b
000001e0: ecae 07bd f34e 273d dd92 debc f974 3bbd
000001f0: de09 dd3d 1cf0 fe3c 14b2 4b3d 3c2a 2d3e
00000200: ac06 c73c 2999 b43d 6ab0 313c a7cc d8bb
00000210: f24d 973d 1640 e13c 7f8c 3e3c 681e 863d
00000220: a328 d93c 99fe 703d 9997 123e 69e5 0d3c
00000230: 5a2c f23c 96be 853d b9cc ddbd 2f34 0c3e
00000240: 9aee fb3d 49ff 183e b222 383d 8501 a0bd
00000250: eb3e cdbc 0f1c 6b3d c57b eabd 587b 333e
00000260: 90c2 083e 52a2 5bbd c276 ee3d ee1f 023e
00000270: d984 4bbd 9fac b5bc ad71 6ebb 917b 063e
00000280: b1cc 323d ac65 903d 45ad 8bbc 8da8 353e
00000290: d2b4 2c3c 9094 b23d 8f2a 263d e421 c33d
000002a0: 49f3 b73d 435e 5c3e 029f 4f3d a8aa 6f3e
000002b0: be28 5c3d 7df6 e43d c3d3 7ebc 4b0a 49bd
000002c0: 5372 a63d 2d02 823d 812a 5b3c 9785 e53d
000002d0: 3c5b 3abc a178 43bd 087e 363e 5072 f53d
000002e0: 1f2a 673d 575c c03c e52b d93d bec2 c43d
000002f0: b61c 093d d989 233c cc59 2e3e bb03 0f3d
00000300: cd86 63bd f8a4 633d d69a 0c3e c2d3 093d
00000310: 6f82 3c3d d41d 803e c2b4 113d 818f a33d
00000320: e897 ce3d 1c39 1d3e dcef 04bd 099f 533e
00000330: a772 0a3e 606f 0dbc 23b4 ac3d f9a7 b43d
00000340: a4ef 5f3c e96f eaba 1d9e 3f3d 80cc 9cbb
00000350: 09db 1c3e eb3a 4c3d 01a9 e93d 00ba 543d
00000360: 0d84 153e 3e45 233b 6486 d63d 0b51 c73d
00000370: bb30 3b3e b6c0 85bd bf4f 98bd d914 103e
00000380: 2e9a af3d 8753 af3d e913 f73d 04e9 aa3d
00000390: ee4e 0d3e c373 1f3e 5db6 8bbd e8c7 f83d
000003a0: 098c 223e adbb 943d cb59 e23d 8958 d8bb
000003b0: 53e0 823e 0bbb 8bbd 2167 c83c b3be d7bc
000003c0: 9fdd a43d 5c79 b03d 97c7 123d 15ed 383e
000003d0: 2c7f 473d ad4c b43d ca1a 54bd dd34 223e
000003e0: 5286 2c3c 9c1d 923d f2be 6f3d 6990 523c
000003f0: 04cb 013e 870a 78bc 956d e43d 7135 db3d
0.13193658 0.094844304 0.12315206 0.11730059 0.114141315 0.112610064 0.14159371 0.20128879
0.0483339 0.0012280128 -0.06171075 0.043276798 -0.014193061 0.13160568 -0.008882881 -0.033809647
0.0010179967 0.028704679 0.1284732 0.12157937 -0.010819854 0.10581529 -0.06574392 0.123444505
0.02477995 0.12965015 0.17237261 0.1635418 0.13993634 0.058231942 0.14976688 -0.0021307336
0.15121724 0.05488628 0.099044956 0.074515365 0.09054668 -0.04288339 0.13475715 0.06876441
0.025504064 0.011776442 0.17802326 0.06537784 0.15581399 -0.014991389 -0.07204697 0.104574166
0.12820585 0.19948916 -0.048054453 0.16269441 0.07373222 0.17429706 0.062583745 0.04399561
0.00073613366 0.030687857 0.07320418 0.08743101 0.069431536 0.12676251 0.07101181 0.07738502
0.030300701 0.13856028 0.024588313 0.049082074 0.076003015 -0.047346782 0.0036522173 0.0237876
-0.043932237 0.04376038 0.06638689 0.037200615 0.10080262 0.10821798 0.07532007 -0.05367757
0.13235676 0.12134807 0.10594143 0.0063881823 0.035271246 0.0127914455 0.018163929 -0.024555136
0.12513603 0.074326634 -0.0059783645 0.10037204 0.022844179 0.089577 0.027308628 0.04646313
0.021803368 0.017296482 0.11064694 0.0047891964 0.061965346 0.113637246 0.1005539 0.14969538
0.11158842 -0.06544219 -0.06392965 0.13980605 0.05261408 0.14596264 0.00869996 0.11852975
0.14002188 0.14950086 0.2248686 0.005860638 -0.06165258 -0.032245133 0.13048795 0.003718481
-0.033125803 0.040846776 -0.02716964 -0.04576585 0.10792898 0.031120352 0.049730375 0.16910642
0.024295174 0.088182755 0.010845283 -0.0066161933 0.07387914 0.027496379 0.011630177 0.06548768
0.026508635 0.058836553 0.14315642 0.008660653 0.029562164 0.06530492 -0.108300634 0.13691781
0.12301369 0.14941134 0.044954963 -0.0781279 -0.025054416 0.057399806 -0.114493884 0.1752752
0.1335547 -0.053621598 0.11643745 0.12707493 -0.04968724 -0.022177039 -0.0036383674 0.13133074
0.04365224 0.07050642 -0.017050395 0.17740078 0.010541158 0.08719742 0.04056793 0.095279485
0.0898195 0.21520333 0.05068875 0.23404944 0.053749792 0.111798264 -0.015553418 -0.04908208
0.08127274 0.06348071 0.013376833 0.11207121 -0.011374291 -0.047722463 0.17821515 0.11984694
0.056436654 0.023481531 0.10604075 0.096074566 0.033474647 0.009981596 0.17026442 0.034915667
-0.055548478 0.05557725 0.1373094 0.033649214 0.04602283 0.25022757 0.035572775 0.079863556
0.100875676 0.15353817 -0.03245531 0.20666136 0.13520299 -0.008632511 0.08432796 0.08821101
0.013667975 -0.0017886135 0.046781648 -0.0047851205 0.1531793 0.049860876 0.11409188 0.051935196
0.14601155 0.0024913098 0.10474852 0.097322546 0.18280308 -0.06530897 -0.07437085 0.14070453
0.08574329 0.085608535 0.120643444 0.083452255 0.1379964 0.15571503 -0.068218924 0.12147504
0.15873732 0.07262359 0.11052283 -0.006602351 0.2556177 -0.06822785 0.024463238 -0.02633605
0.08050083 0.086168975 0.035834875 0.1805919 0.048705265 0.08803687 -0.05178336 0.15840478
0.010530071 0.07134554 0.05853171 0.012851813 0.126751 -0.015139229 0.111537136 0.107035525

encoder.gru.weight_hh_l0 f4 [15, 5]
00000000: bb96 10be d744 9dbd dfd4 c43d c9f6 ecbd
00000010: 8ee7 ad3d e725 82bc c058 03be 7e2b 943d
00000020: 4928 d0bc 8562 3c3c 55e6 3dbd 9f7c f0bd
00000030: b6c6 6f3d 6cd4 e0bd b79b 133e 9c81 d1bc
00000040: c8f9 d7bd 452a 203d 6c60 1dbe 13dd 883d
00000050: 6a3a f8bc 66f4 d0bd 0c0a af3d a30b 20be
00000060: 573c 1b3e b4dd 473e f16b 3f3e c618 15be
00000070: f021 4a3e 1c61 72be 4556 4b3e 0ab9 813e
00000080: 7586 6bbe 4232 843e 63aa 8bbe f980 863e
00000090: 5327 7d3e 09dc 5ebe f970 473e 3f4d 27be
000000a0: 1841 8f3e 1bdc 243e 8169 8abe 1d8d 803e
000000b0: 5753 71be c52b 043e a22f 693e 626f 3ebe
000000c0: c76d 653e 7416 38be 6f30 243e b926 d43d
000000d0: fe3b ebbd ab37 a33d 2e77 0fbe 64fa dc3c
000000e0: 2326 b23d 430f b9bd ffc1 0f3e cbee 0cbe
000000f0: 6670 0cbd 36b3 b1bd 0752 323e 6049 35bd
00000100: 70ee fa3d 1da0 143e fd7e 103e bcd2 13be
00000110: 52d7 013e ee8f 07be 31a2 30bd e8e9 92bd
00000120: 4176 be3d 4711 dfbc 32ed ea3d
-0.14119999 -0.07679146 0.096109144 -0.11570508 0.08491431 -0.015887214 -0.12826824 0.07234858
-0.025409834 0.011498098 -0.04636224 -0.117425196 0.058539115 -0.10978016 0.14414869 -0.025574498
-0.10545689 0.03910281 -0.15368813 0.066827916 -0.030301291 -0.10202865 0.08546838 -0.15629439
0.15159737 0.19518167 0.1869352 -0.14560232 0.19739509 -0.23669857 0.19857128 0.25336486
-0.2300051 0.25819594 -0.27278432 0.26270273 0.24722032 -0.21763624 0.1947669 -0.16338061
0.2797935 0.16099589 -0.27033618 0.2510766 -0.23566948 0.12907322 0.22772077 -0.18597177
0.22405158 -0.17977315 0.16034101 0.10358948 -0.11486052 0.07969602 -0.14010307 0.026974864
0.0869868 -0.09036114 0.14038847 -0.13762967 -0.03428688 -0.0867676 0.17414103 -0.04425943
0.122525096 0.14514203 0.14110942 -0.14435858 0.12679794 -0.13238499 -0.043123428 -0.0717352
0.09299899 -0.027229918 0.11471023

encoder.gru.bias_ih_l0 f4 [15]
00000000: a67c 233e 74eb bf3d 039c 123e 4ab7 353c
00000010: 581b 343e a2d3 53be 985c 10be 7a13 4bbe
00000020: e147 17be d108 1dbe b67c c8bd 29a2 ebbd
00000030: df59 6e3d 370a 14be a8f0 ef3d
0.15965518 0.09371081 0.14317326 0.011091063 0.17588556 -0.206862 -0.14097822 -0.19831648
-0.14773513 -0.15335394 -0.09789412 -0.11505539 0.058191177 -0.14457022 0.117158234

encoder.gru.bias_hh_l0 f4 [15]
00000000: d055 ca3d 63fd b43d 4752 0b3e 2339 ac3d
00000010: 902e dd3d 4ccf 83be 79da 0bbe 7d31 51be
00000020: 9e67 10be 997e 6abe 0f60 ddbd 46c9 23be
00000030: 5234 153e 8234 94bd 3391 103e
0.09879649 0.08837392 0.13605605 0.084093355 0.10799897 -0.25744092 -0.1365756 -0.20429035
-0.14102027 -0.22899856 -0.10809337 -0.15994748 0.1457074 -0.072365776 0.14117889

encoder.gru.weight_ih_l0_reverse f4 [15, 300]
00000000: c358 0f3e aa59 a8bd 5399 25bd 99f8 81bd
00000010: b593 a13d dc83 66bd 8194 413d 7288 8b3c
00000020: 2ba1 b23d 918c dc3d 86f4 3a3e a73d 3a3d
00000030: 5295 11bd 7fb9 4f3d a8ca 95bd 7567 b93d
00000040: 78e4 1bbe 8fc2 023d 2527 243d cbbc 733d
00000050: ce58 4cbc 5b3c 7e3d c6a6 943c 3781 6a3c
00000060: 25c5 bfbd 8afc 433e 9114 35be c608 c63b
00000070: 96f1 503e d8d2 82bd 949f 263c 6729 b23d
00000080: b6e4 893d ac80 383e 8e8f f6ba f24f 863d
00000090: 0cba 053e e723 bfbc 8c25 313d f400 8c3d
000000a0: 2431 69bd 9ad3 00be ad11 9b3d 0ec5 bd3d
000000b0: 8c23 08be 39d3 8a3e c91d c8ba 7a72 b8b8
000000c0: 0b43 303e 5351 4abc 83b3 0a3e 5432 1e3e
000000d0: b7f0 f93d 8186 003e 3678 d93d cbd9 b53d
000000e0: b3d1 0b3e e69e 3a3c c447 2d3c ef01 683e
000000f0: 84e1 103d 4d9a e33c 7c13 c6bc 20d5 da3d
00000100: 2649 0e3d 4fe7 5f3d d8e6 39bd d4aa b5bc
00000110: 60f4 173e dd30 c7bd 80fc ab3c 37c1 21ba
00000120: 31e8 833c 72cc c2bd a12b b83d 20b9 89bd
00000130: 8766 1abd 7ddc 77bd 468c 0dbc ed63 af3c
00000140: a062 58bd 3690 a7bd a37c d4bd 2567 133d
00000150: 00e4 08bd 7c42 8bbd ae17 fbbb 64e5 3a3e
00000160: e835 9fbd 73db f8bc 3ef4 5abd ada7 953d
00000170: 4e6e ac3c c115 0dbe 4e6d fe3d e946 593d
00000180: 7066 07bd 379a a3bd 4529 1a3e 6725 7abd
00000190: ab00 8d3d d46f 923d 01c1 a03d ac8d 8c3c
000001a0: b33a 4d3d f9fd 9bbd 91de c9bc 2c04 29bd
000001b0: 6d20 953d a663 b13d 5457 2abe 56d9 1abd
000001c0: 0f09 2e3e 24be f13d 8971 b93d ee24 223c
000001d0: 4718 43bc 9462 0ebe d4f7 afbd 4fd0 6a3d
000001e0: 1721 09bd 1ea4 a73d 6791 aa3d bb2c e6bc
000001f0: df69 a9bd a817 8cbd 43bc 633c 33e7 933d
00000200: 9e85 e9bc 493f c53d 7b6a 26bd 005e 21bd
00000210: 2c8e f4bc 5b44 2cbe 68ce 023e bd61 c83d
00000220: a5b6 c1bd 7b2b 963d fce8 203e dd4f 01bd
00000230: 2d72 863d 36cf 62bd fbeb aabc 7e3e a6bb
00000240: 1637 5abc a9c3 b23c f255 713c 548f a8bd
00000250: 6496 4d3d 2e2b 9f3c 3596 043e fdcf cd3c
00000260: 29e9 053c fce7 9d3d 37b9 883d b8ac f0bc
00000270: 89f1 06bd 49ec d7ba 1abb 8db9 19d3 98bd
00000280: 4617 953d 27c7 943e 3f9d 07bb 6b78 863d
00000290: b6a6 b23d 5441 363d 14e4 4bbc 594b 583b
000002a0: 2af4 babd 855d 0ebe 9b62 c0bc 58ee 88bd
000002b0: d9b2 9e3c 7c8d 203e 5273 f73c 267f e93c
000002c0: dfd4 e03c 4d68 6f3e 2339 68bd fab3 aa3d
000002d0: 4391 153e 3841 af3d a78b 423e a21f 24bd
000002e0: 3144 0c3d 80a6 dd3c 10ce d5bd d6df ebbb
000002f0: aeb3 323e c1b5 4f3d b217 5a3d 1b3d 3a3e
00000300: b78e 073c b49f 05bd 3c1a 063d 7886 a53d
00000310: 0f97 06be 0e1e 9e3d 8bf7 ac3c e95e cfbb
00000320: 40e1 41bd 19ec 223c 5d82 96bd 90d6 99bb
00000330: 210e d53d f40b 7e3e 18f6 8e3d d814 cebd
00000340: 3dbb 3c3d d920 cebd 7c05 e3bb 3649 563d
00000350: 19cd 083d a101 8e3e 5799 9bbd 7ec4 c73d
00000360: ea2c 10bc 1696 44bd 884b 313d 7b0a 403c
00000370: eba0 34be 06d0 c5bd 145d b23d b1cb 61bb
00000380: 8e99 093d 2d82 0abe 2a6f 0ebd 052f 5bbd
00000390: 6b8a 153d e55d ce3c 29f2 783d 59b6 b73d
000003a0: 1c6a 4e3e 04c4 083e d239 99bc 1bb2 08bc
000003b0: 6948 b5bd bfac f7bc 285f 23ba b896 ffbc
000003c0: 460a 04bb b909 34bd a4c2 3a3d dbe6 d63c
000003d0: 2082 efbc 9518 cdbd a5fa 78bb 9a68 893d
000003e0: 4e08 fc3c 33d4 e6bc e338 9b3d 73a7 863d
000003f0: c93e 17bd eb2d 08be 8ed2 533e bdc2 e03d
0.13998704 -0.08220227 -0.040429424 -0.06346244 0.07889501 -0.056278095 0.047260765 0.017032836
0.087221466 0.107689984 0.18257341 0.045468953 -0.035542794 0.050714012 -0.07314044 0.09052936
-0.15223873 0.031923827 0.040076394 0.05950622 -0.012472345 0.06206928 0.01814593 0.014313034
-0.09363774 0.19139305 -0.17683627 0.0060435263 0.20404658 -0.063878715 0.010169882 0.08699303
0.06733076 0.18017834 -0.0018811093 0.06558217 0.13059253 -0.02333255 0.043248698 0.06836119
-0.05693163 -0.1258072 0.07571731 0.09266101 -0.1329481 0.27114275 -0.0015267666 -8.7951266e-05
0.17213075 -0.012348491 0.13545041 0.15448886 0.12204116 0.12551309 0.106186315 0.08879431
0.13654213 0.011390423 0.010576192 0.22656988 0.03537132 0.027783537 -0.024179213 0.106851816
0.03473773 0.054663952 -0.045386165 -0.022176184 0.14839315 -0.09726117 0.020994425 -0.0006170454
0.016101928 -0.09511651 0.089926966 -0.06724763 -0.037695434 -0.06051301 -0.008639401 0.021409953
-0.05282843 -0.08181803 -0.10375335 0.03598704 -0.033420563 -0.0679979 -0.007662735 0.18251568
-0.07773954 -0.030378079 -0.053455584 0.07307372 0.021048691 -0.1377783 0.12423192 0.05304614
-0.033056676 -0.079883985 0.15054806 -0.061070826 0.06884893 0.07150236 0.078493126 0.017157398
0.050104808 -0.07616801 -0.02464226 -0.041263744 0.07281575 0.086615846 -0.16634876 -0.037804924
0.16995643 0.118038446 0.09054858 0.0098965 -0.011907644 -0.13904792 -0.08592191 0.057327565
-0.033478823 0.081856 0.083285145 -0.028097501 -0.082721464 -0.068404496 0.013899866 0.07221832
-0.028506096 0.09631211 -0.04062889 -0.039396286 -0.02985295 -0.1682295 0.1277405 0.09784267
-0.09458665 0.07332512 0.15713876 -0.031570304 0.06564746 -0.055373393 -0.020864477 -0.0050733676
-0.013318798 0.021821814 0.014729964 -0.08230463 0.05019225 0.01942977 0.12947924 0.02512359
0.0081732655 0.07710263 0.06675952 -0.029379234 -0.03294519 -0.0016473617 -0.00027033017 -0.07462139
0.0727983 0.2905819 -0.0020693091 0.06565937 0.08723204 0.044495896 -0.012444515 0.0033003895
-0.09128602 -0.13902862 -0.023484519 -0.066860855 0.01937239 0.15678972 0.030206356 0.028503012
0.027445255 0.23379631 -0.056695115 0.08335109 0.14606194 0.08557361 0.18998586 -0.04006923
0.03424472 0.027056932 -0.10439694 -0.007198314 0.17451355 0.050710443 0.053245254 0.18187372
0.008273772 -0.032623008 0.032739863 0.080822885 -0.13143562 0.07720576 0.021114131 -0.006328453
-0.047333956 0.009943985 -0.073490836 -0.0046947673 0.104030855 0.24809247 0.069805324 -0.100625694
0.046077 -0.10064859 -0.006928144 0.052315913 0.03339872 0.27735618 -0.07597607 0.09754275
-0.008799771 -0.047994696 0.043284923 0.011721249 -0.1763951 -0.09658818 0.087091595 -0.0034453685
0.033593707 -0.1352622 -0.034773983 -0.05351164 0.03650896 0.025191257 0.060777817 0.08970327
0.20157665 0.13356024 -0.018704329 -0.008343245 -0.08851702 -0.030233739 -0.0006232136 -0.031199798
-0.0020147725 -0.043954585 0.04559578 0.026233127 -0.029236853 -0.10014454 -0.0037991193 0.06709404
0.030765679 -0.028177356 0.0757921 0.06574907 -0.03692511 -0.13298766 0.20685789 0.109746434

encoder.gru.weight_hh_l0_reverse f4 [15, 5]
00000000: 5840 c9be 750b a6be 193f 623e 6e22 853e
00000010: da30 debd 6068 99be 852a 2bbe 72be c93d
00000020: dc59 743e 4c9a bebe 8e8c 8bbd 30f4 803d
00000030: 6975 b53e d018 0bbe 3570 81bd 6b88 cabe
00000040: f84b 53be df75 533e 71f4 e13d d1d8 dfbe
00000050: 55b3 55be 84bd 73be 3c19 9fbc e19f 933e
00000060: 8f27 d63d 544d a4be 644a 01bf a9ad 58bf
00000070: 8a6a 143f 8f3f 6dbe dcaf 2d3d bc6a 97bd
00000080: a7b2 9abf 00fd 453e 5521 e43c a875 a23d
00000090: de18 d33e 2676 073f 6627 a1bf 53a0 02be
000000a0: efd9 d3bb 38a1 733e af69 213b 98ac bcbe
000000b0: f2b8 9dbd 2734 d9be 872f 0abf 6883 bebe
000000c0: 647a 123f df79 40bf efcc 153e 239b 933e
000000d0: 3bbe 33be bcdf 30be 0bc8 cbbc 8e3a 013e
000000e0: fcd8 743e b83d 40be 2789 11be 9584 d8bb
000000f0: deec 9b3e 4c7b 103f 1ebc 623f a48a bcbf
00000100: 23b7 343e c2f1 cfbd 287f 27be afbc a93e
00000110: 584d 203e e574 d83c 98a0 8d3e 297f b93e
00000120: c613 44bd 0197 8fbe cf25 1c3f
-0.39306903 -0.32430616 0.22094382 0.2600283 -0.108491614 -0.29962444 -0.16715439 0.09850778
0.23862404 -0.37227094 -0.06813918 0.06296575 0.3544114 -0.13583684 -0.0632023 -0.39557204
-0.20634449 0.20650433 0.110329516 -0.43720105 -0.20869191 -0.23802763 -0.019421212 0.28832915
0.10456764 -0.32090247 -0.50504136 -0.84639984 0.57975066 -0.23168777 0.04240404 -0.07393405
-1.208577 0.19334793 0.027847925 0.079325974 0.4122991 0.52914655 -1.2590148 -0.12756471
-0.0064651887 0.23791969 0.0024629643 -0.3685043 -0.07701291 -0.42422602 -0.5397877 -0.3720963
0.57218003 -0.7518596 0.14628957 0.28829297 -0.17553036 -0.17272848 -0.024875661 0.12619993
0.23910898 -0.18773544 -0.14212476 -0.006607602 0.30454153 0.56438136 0.88568294 -1.472981
0.17647986 -0.101535335 -0.163571 0.33151767 0.15654504 0.026422927 0.27661586 0.36229828
-0.04787042 -0.28044894 0.6099519

encoder.gru.bias_ih_l0_reverse f4 [15]
00000000: 332f 893d 4185 8c3d 36b0 953e c11c 173e
00000010: 6aef 0e3e 63cc 17be 0f75 bcbe c801 53be
00000020: 7bd9 fdbd 03b7 2dbd ea8b 7abd 184c 95bd
00000030: c39e 783d d700 b73d c4a6 51be
0.06698456 0.06861354 0.29236 0.14757062 0.13958517 -0.14824061 -0.3680806 -0.20606148
-0.12394997 -0.04241086 -0.06116859 -0.07289904 0.060698282 0.08935707 -0.20473772

encoder.gru.bias_hh_l0_reverse f4 [15]
00000000: 1e6b 133e 1957 c23d 530d 553e e306 ea3d
00000010: 0fb1 0f3e 4257 01bd 8d9d c4be bd32 8ebe
00000020: c2fa 03be 3be1 73bc 8b43 29be cf14 b0bb
00000030: 72c7 d6bb e8a6 673c 95fb 56be
0.1439633 0.09489269 0.20805864 0.11427095 0.14032386 -0.031577356 -0.38401452 -0.27773085
-0.12888625 -0.014885242 -0.16529672 -0.0053735743 -0.0065545375 0.014138915 -0.20994408

decoder.embed.weight f4 [8, 8]
00000000: 6f85 02bb 5ab0 c33c e0d2 b03c eb67 863d
00000010: 271d 513d 70c6 943c 2771 40bb 541f 363b
00000020: 2c93 03bd 1cd1 b23c eae1 fcbc e7eb 67bd
00000030: 22d9 d93d 5729 a8bc ff7d f5bc 834e a53d
00000040: 0a58 3b3e eb3b 8a3c 05e0 713e 6c9a 3c3e
00000050: 3664 84bd 9ee4 42be 53eb 8cbe 57d9 2dbe
00000060: 3648 4e3d 2890 2e3e e306 ca3c 60ac 81bc
00000070: 8831 7e3d 8436 dcbd 6bc4 10be 3665 373c
00000080: 5c93 2b3e e9a0 f73e 81ed ad3d 6fb5 503d
00000090: 21ff 913e 293d 63be 81a0 79be 2263 7b3d
000000a0: d822 b7bd 9db8 98be 743c 9238 e240 e63c
000000b0: 7f6a 81be eb67 353e 73c0 473e 1f70 09be
000000c0: e517 34be 7ea7 c0bd 2fd5 32be 2d22 62be
000000d0: 5e15 bf3d c3d4 023e 944a be3d 4f8d 883e
000000e0: 753b 1f3f e349 74be d901 103f 7be4 113f
000000f0: ea2e c2be a8e2 33bf fd0c 35bf 45a1 0abf
-0.0019915958 0.023887802 0.021584928 0.065627895 0.051053192 0.018161029 -0.002936432 0.002778967
-0.032122776 0.021828227 -0.030869443 -0.05662146 0.10637118 -0.020527525 -0.029967306 0.080716155
0.18295303 0.016874274 0.23620613 0.18418282 -0.06464426 -0.19032523 -0.27523288 -0.1697744
0.050361834 0.17047179 0.024661487 -0.015829265 0.062058955 -0.107525855 -0.14137428 0.011193564
0.16755432 0.48364952 0.08492566 0.05095428 0.2851496 -0.221913 -0.24377634 0.061373837
-0.08942193 -0.2982835 6.973083e-05 0.02810711 -0.25276563 0.17715423 0.19507007 -0.13421677
-0.1758724 -0.094069466 -0.17464136 -0.2208335 0.09330247 0.12776475 0.092915684 0.2667031
0.622001 -0.2385631 0.5625282 0.5698926 -0.37926418 -0.70267725 -0.70722944 -0.5415233

decoder.gru.weight_ih_l0 f4 [15, 8]
00000000: 5182 673d 6477 bdbc 3303 ba3d 8a9f aa3d
00000010: 4464 0e3d 7b98 7dbd 6481 a8bd 2c0a e93c
00000020: 3e2e 5a3e 4757 e43d 6fcc b8bc cb34 2b3e
00000030: 141c e33d a932 efbd 5bd4 98be d1b2 d33d
00000040: 08b7 953f fe4f e83e af14 503f 8ca1 1a3f
00000050: e0f3 7a3e a475 9bbf 65db 8bbf de4f 69be
00000060: 9160 98be 6e7a 04be a148 86be d159 83be
00000070: 2296 f23b f88c c83e 2e2a 4f3e 15a2 4e3e
00000080: 266a 783c 54ed a63c 687a 02be 9a54 87bd
00000090: a4ae 843d 8e1e 863c b4e9 d4bd e9bc f03d
000000a0: 1175 f9bc fdbe 523e 9b49 66be def1 0fbc
000000b0: 419e 9c3e 3bf5 7d3d ab47 01bd 6f00 683e
000000c0: 27c6 483e ba9e e73d 18a4 bbbd 55a7 94bc
000000d0: ee54 4b3e 02e8 85be 78ea 91bd 3a12 083e
000000e0: eab2 703e db79 92bd a739 cbbd 0471 5fbd
000000f0: bb3f 923d 002f 4bbe d463 ccbe 8721 a0bc
00000100: f3d1 84be a019 043e dd94 93be 9198 aabe
00000110: d083 a03e d1a0 613e a08f 4b3d 42ed d63e
00000120: 2f71 55bd 7ce1 273e e2a9 3fbd a7a2 7cbe
00000130: f09a a93e 13e7 4e3d df9b 94bd c238 773e
00000140: 7758 0a3e 5c81 80b9 6c0b 043e 2928 b2bd
00000150: 657e f2bc b2a7 37be d2e6 afbd 2208 6dbd
00000160: f457 1abe 30c8 aabd 6035 1abc a1b3 f0bd
00000170: 7fbf bbbc bbfd 153e 8322 f63b e27d 94bc
00000180: d612 733f 5496 0e3f 2a9e 313f 400f f93e
00000190: c94b 423e b02d 90bf 581b 97bf b373 b7be
000001a0: c041 ba3e 017f 2d3e 4625 d33e 6fbd 843e
000001b0: e810 f03d df19 eebe 5a17 d4be be32 23be
000001c0: 93ef 12be bfaf 27bc ce4f dbbd 7fbe e1bd
000001d0: 4b0a 17bc ddab 133e 74df 003e 2aa1 513d
0.056520764 -0.023128219 0.090826415 0.08331211 0.03476359 -0.061912995 -0.08227804 0.028447233
0.21306702 0.11149459 -0.022558419 0.16719358 0.1108934 -0.116795845 -0.29849514 0.10336841
1.1696482 0.4537353 0.8128156 0.6040275 0.24507093 -1.2145276 -1.0926329 -0.22784373
-0.29761174 -0.12937328 -0.26227286 -0.25654462 0.007403151 0.3917005 0.20230934 0.20179017
0.0151620265 0.020376839 -0.12742007 -0.06607933 0.064786226 0.016371991 -0.10396138 0.11754782
-0.03045133 0.20580669 -0.22489016 -0.008785693 0.30589488 0.062001448 -0.03156249 0.22656415
0.19606839 0.113095716 -0.09162158 -0.018146196 0.19856617 -0.2615357 -0.071247995 0.13288203
0.2350575 -0.07152148 -0.09923106 -0.05455114 0.07141062 -0.19842148 -0.39919913 -0.019547237
-0.2594143 0.129004 -0.2882451 -0.33319524 0.31350565 0.22034003 0.04969752 0.41977888
-0.052109893 0.16394609 -0.046792872 -0.24671422 0.3312602 0.05051334 -0.072562926 0.24142745
0.13510309 -0.00024510443 0.12894982 -0.08699066 -0.029601285 -0.17935064 -0.08588947 -0.057869084
-0.15072614 -0.08338964 -0.00941214 -0.117530115 -0.02291846 0.14647572 0.0075114383 -0.018126432
0.94950616 0.5569813 0.69381964 0.48644447 0.18974222 -1.1263943 -1.180522 -0.3583046
0.36378288 0.1694298 0.41239375 0.25925776 0.117219746 -0.46504113 -0.41424066 -0.15937325
-0.14349203 -0.010234772 -0.10708581 -0.11022662 -0.009218763 0.1442103 0.1258524 0.05117909

decoder.gru.weight_hh_l0 f4 [15, 5]
00000000: 426c 18be 1489 62bd cbc1 9b3d ecff db3a
00000010: cb5c 163e 257b 12be a657 4abe 3c21 853e
00000020: f709 a7bd a192 5a3e c76c 3fbe ce6a afbd
00000030: da49 373e 7258 55bc 91ac d33c 6f98 c0bd
00000040: cdb6 36be 33ef f83d e022 5bbe 58c8 463e
00000050: b932 77bd 9539 33be 9656 1f3e 1e21 38be
00000060: 0e79 d63d 1b39 93bd 861f e9bd a4e5 883d
00000070: 5379 9cbd cfd9 403d 953d 5fbe 5fa7 09be
00000080: 717b 903e e564 6bbe e7c8 883e db31 e4bb
00000090: d3a5 183d acfc cd3e ee9c 4a3e df52 32bd
000000a0: f7bb 23be 74a2 d1bd d2f4 dd3d 7d1c c4bd
000000b0: cd10 fc3d 5616 80be 6b8b 22be 821a 873e
000000c0: 29c5 d4bd 919b 1a3e 137a cc3c e13c 8e3d
000000d0: 899f 4b3d ad48 263e a430 56bd 4921 403e
000000e0: 26e5 be3d 3a07 8ebe ca0f 223e 9150 b7bd
000000f0: 8af0 ecbd 08d6 fabd 0dac 033d efdc c5bd
00000100: ec1a bc3d d509 2f3e 9eb2 563e f99a 8bbd
00000110: dd85 ca3d ec04 1bbe ce1c e6bd ad7d 3cbe
00000120: 093c 6e3e 17c9 dfbd 443c 373e
-0.14885047 -0.05530651 0.076053225 0.0016784645 0.14683835 -0.14304788 -0.19759998 0.26001918
-0.081561975 0.21344997 -0.18693839 -0.08565293 0.17899266 -0.013021575 0.025839122 -0.094040744
-0.1784317 0.12154999 -0.21400023 0.19412363 -0.060351107 -0.17502435 0.15560374 -0.17981383
0.10472308 -0.071886264 -0.11382966 0.066844255 -0.07640328 0.04708272 -0.21800835 -0.13442753
0.28219178 -0.22987707 0.26715776 -0.006963951 0.037267517 0.40231836 0.19786426 -0.043536063
-0.15989672 -0.102360636 0.108377114 -0.09575746 0.12307892 -0.2501704 -0.15873496 0.2638741
-0.10389168 0.15098406 0.024960553 0.069452055 0.04971269 0.16238661 -0.05229248 0.18762697
0.0932105 -0.27739888 0.15826336 -0.08950914 -0.11569317 -0.122478545 0.032146502 -0.0966128
0.091848224 0.17093594 0.20966575 -0.06816668 0.09888814 -0.15138596 -0.11235963 -0.18407317
0.23265089 -0.10927027 0.17894083

decoder.gru.bias_ih_l0 f4 [15]
00000000: 91d2 4b3d 3fd1 773d 58e5 04bd 8c55 383d
00000010: e892 543e 1dc2 0c3e 8724 2e3e fde3 55be
00000020: 070c 313e ce32 2f3e a205 8d3d d74f f03c
00000030: cb10 d7bd 6da5 ac3d fb8c 1cbc
0.04976136 0.060502287 -0.03244528 0.04500346 0.20759165 0.13745923 0.17006122 -0.20887752
0.17289744 0.17109224 0.0688584 0.029334946 -0.1050125 0.0842999 -0.009555097

decoder.gru.bias_hh_l0 f4 [15]
00000000: 7129 cd3d f326 1d3e 4082 1ebe fcf1 1c3e
00000010: b895 9c3d 4292 ca3c 1f13 2a3e 1c48 5fbe
00000020: d74e 103e 53be 7a3e b837 ce3b bc2f 033c
00000030: 1fff 753c 5034 23ba edae 93bd
0.1001767 0.15346889 -0.15479374 0.15326685 0.07645744 0.024727944 0.16608857 -0.21804851
0.14092575 0.24486665 0.0062932633 0.008006986 0.015014439 -0.0006225752 -0.07211099

decoder.gru.weight_ih_l0_reverse f4 [15, 8]
00000000: cad6 343e eb0e 503d 8026 553e e459 313e
00000010: b4d6 a7be 4a20 4cbe d9cf 4dbe 9e48 54be
00000020: 3064 bc3e 0796 5d3e 5d66 a73e a76c 7f3e
00000030: 503c 6e3d e701 8ebe 14c5 9abe c435 99be
00000040: a68d d63c 9f44 733e 3753 14be 6d5b b3bd
00000050: 72e3 2dbd 6669 ff3d 7bfb c03d 4c41 223e
00000060: 30df 733e 7c2a c43d f833 4a3e ca59 8e3d
00000070: 2466 213e 7660 41be 9571 9ebe 2b8e e4bc
00000080: b34a f8be 09c8 0b3e 6514 e8be 62f2 c6be
00000090: 342c a6bd 9a17 c53e 403a 903e 3e85 943d
000000a0: c760 64bd 3187 483e 7140 cabd a748 85be
000000b0: dbf4 093e 9b7c 0ebe 6ca6 adbe 7de2 853e
000000c0: ef6e f3bc e373 a53d 5d10 263d a465 a0bd
000000d0: fdcd a5bd 484a 21be a1f2 54be ae36 0dbc
000000e0: 4797 a9be c232 93be 257d d4be 77c7 05bf
000000f0: 6af8 be3e 9f69 f23e 2af9 7f3e f01d 8c3e
00000100: 6557 b83d cf2c 1e3e 4746 573d 4246 5e3d
00000110: 56e6 6fbd a68a 0abe 82c0 22be 70c7 01be
00000120: c6ba 36bf 82a5 9b3e afdb 7fbf 9b16 90bf
00000130: 2753 103f eafa ce3e c6f5 ad3e c832 733f
00000140: ca11 88be 27c7 2abe aede 8bbe 4f4c 83be
00000150: 6cb8 41bd e1a7 463e 2c31 2a3e de5c 183e
00000160: 943a 71be 6bd0 23be 9cdd 86be 0ca7 4dbe
00000170: eda6 c2bd e635 fb3d 17e9 0d3e 19db d03d
00000180: 90e7 2e3d 20f9 3b3e b50d 50be ff2e 00be
00000190: 7978 a93e e75f 163d 066e 85bd fcd2 4b3e
000001a0: 3631 553e 57fb e53d af52 663e 3012 e13d
000001b0: 5c42 5f3e c79d b8bd 6712 2fbe e451 ce3d
000001c0: 9e1b e7bd d6cb 163f 8f3c 83be cc2c b4be
000001d0: e7bc 463f 6527 99bc 17f0 e1bc c98b 1a3f
0.1766006 0.050795477 0.20815468 0.17319447 -0.32780993 -0.19934192 -0.20098819 -0.20730826
0.36795187 0.21639262 0.32695284 0.24943791 0.058162987 -0.27735826 -0.30228484 -0.29923832
0.02619059 0.23756646 -0.14484869 -0.087576725 -0.042453237 0.12471275 0.09422966 0.15845221
0.23815608 0.09578416 0.19746387 0.0695072 0.1576162 -0.18884453 -0.3094603 -0.027899822
-0.4849449 0.13650526 -0.4532806 -0.38856798 -0.081139 0.3849457 0.2816944 0.072519764
-0.055756357 0.19582821 -0.098755725 -0.26031992 0.13472311 -0.1391472 -0.33916032 0.2614936
-0.029715983 0.08078744 0.04054295 -0.078318864 -0.0809593 -0.15750992 -0.2079568 -0.008618994
-0.33123228 -0.28749663 -0.41501728 -0.52257484 0.372989 0.47346207 0.24997392 0.2736659
0.09001044 0.1544678 0.052557256 0.05426622 -0.058569275 -0.13529453 -0.15893748 -0.12673736
-0.71378744 0.3039971 -0.99944586 -1.1256899 0.5637688 0.40425807 0.33976573 0.9499936
-0.26576072 -0.16677533 -0.2731833 -0.25644156 -0.04729502 0.19399978 0.1662032 0.14879176
-0.23557502 -0.15997474 -0.2634095 -0.20083255 -0.09504495 0.1226614 0.13858448 0.101980396
0.042701304 0.18356752 -0.20317729 -0.12517928 0.33099726 0.036712553 -0.06515126 0.19904703
0.20819554 0.1122958 0.22492479 0.10989797 0.21802658 -0.09014469 -0.17096864 0.10074213
-0.112845644 0.5890478 -0.2563214 -0.35190427 0.7763199 -0.018695543 -0.027580304 0.60369545

decoder.gru.weight_hh_l0_reverse f4 [15, 5]
00000000: c585 a93f 7a89 883f 5430 29be 33e5 78bf
00000010: 81e2 0c3f 521e 243f e645 0d3f 01a9 c53d
00000020: 6f0c 05bf b55d 0e3e 433b 193f 9947 643e
00000030: e2d2 b0bd 210f 7b3d 6d1e f53e cd9e ec3e
00000040: 8696 9e3e 143e c63c dfa3 2bbe cf48 613e
00000050: 167c 323f 9057 883f 698d 133d 76e1 f1bf
00000060: b766 603f e307 c53e fd14 3a3f 7ec3 de3e
00000070: f285 bfbf 2152 3c3d cefb a93e bedf d23e
00000080: c3cd 843e 206f 13bf cdba 893e 5ebc 65be
00000090: 4e3f 603c 8d98 cc3e 2a5a 8bbe 47d4 f63e
000000a0: 5f03 ca3d f6fe 943e 0b70 1b3e ecde b7be
000000b0: 268a 863e 16c9 b13e 64ed 723f 255e 323f
000000c0: c92b cdbf 06ca e83e 71ec f33d 6550 a83e
000000d0: 5721 8f3d 4fb6 a9be 4323 733e 1937 ee3c
000000e0: fa79 2b3e 468f 153d 1694 53be f004 353e
000000f0: 9861 47bf 3246 28bf b099 5a3e 30d4 da3e
00000100: 3158 2bbf 8639 3b3d 1695 27bd cb1f 12bd
00000110: b6e1 373e 2359 42be 6212 17bd 5eb8 5e3e
00000120: 7783 063d 3739 3abe 52ad e63e
1.3243948 1.0666955 -0.16522342 -0.9722473 0.5503312 0.64108765 0.5518478 0.096513756
-0.519721 0.13902934 0.5985605 0.22292937 -0.08633973 0.061293725 0.47874776 0.46214905
0.30974215 0.024199523 -0.1676173 0.2200043 0.6972059 1.0651722 0.03602353 -1.889693
0.8765673 0.3848258 0.72688276 0.43508524 -1.4962752 0.04597676 0.33199924 0.41186327
0.25938234 -0.5759144 0.2690033 -0.22435138 0.013686968 0.39960137 -0.27217227 0.4820883
0.09863924 0.2910077 0.1517946 -0.35912263 0.26277274 0.3472373 0.9489348 0.69674903
-1.6028987 0.45466632 0.11910332 0.32873836 0.06988781 -0.33146903 0.2374392 0.029079007
0.16745749 0.03651359 -0.20661959 0.17677665 -0.7788329 -0.6573211 0.2134769 0.4274001
-0.66931444 0.045709155 -0.040913664 -0.03567485 0.17957196 -0.18979315 -0.036882766 0.21750018
0.03284022 -0.18185888 0.45054108

decoder.gru.bias_ih_l0_reverse f4 [15]
00000000: 38f2 9cbd b37f 873e 06ae 3b3f f307 c63e
00000010: 9399 b0be 3039 233d 3df2 4ebd 0f36 d2bd
00000020: 2f6b 60bd e8eb a03e 9b15 30be eacd 7ebe
00000030: 69b6 eabd 3dea d33e faa4 113e
-0.07663387 0.26464614 0.73312414 0.3867794 -0.34492168 0.03984946 -0.050523985 -0.10264217
-0.05478972 0.31429982 -0.17195742 -0.24883237 -0.11460573 0.41389647 0.1422309

decoder.gru.bias_hh_l0_reverse f4 [15]
00000000: 677b 32be 8fed 543e bab9 2b3f 1bd7 cd3e
00000010: 9158 a4be b11d 873d ac39 a6bd 7920 c4bd
00000020: 935e 1dbe f2e7 943e 63c0 7fbd e9fd 8dbe
00000030: 65d7 debd b8bf cf3e f305 483b
-0.17429887 0.20793746 0.6708027 0.40203175 -0.3209882 0.0659746 -0.08116469 -0.09576506
-0.15368108 0.2908321 -0.062439334 -0.2773278 -0.10880927 0.40575957 0.0030521124
