agl/models/autosave/g1-new-AE-0-5-1-165-lr0.001.pt (torch, 5102 bytes, 7 tensors)

endecoder.embed.weight f4 [8, 20]
000000 0a ce 06 3c e6 b1 cb 3c 0f 54 6b bd 59 81 20 bd
       0.0082278345 0.024865102 -0.05745321 -0.039185856
000010 20 25 94 bd eb 3e 9b bd 3e 18 9a bd c7 20 45 bd
       -0.072336435 -0.0758036 -0.07524155 -0.048126962
000020 70 f5 40 bd eb fe 15 3c 42 71 b6 bc 45 04 51 bd
       -0.047109067 0.009155015 -0.022270802 -0.051029462
000030 0f 7b ee 3c a4 cc 0b 3d 33 53 ad 39 8f 34 be bb
       0.029111413 0.034130707 0.0003305912 -0.0058046053
000040 70 46 10 3c 29 ef ae 3c 85 44 fb bc 3d 52 fd 3a
       0.008805856 0.021354275 -0.030672321 0.0019326877
000050 03 3a c8 be 4c ed 01 3e 5d 3a b3 3e a4 e4 fd 3e
       -0.3910676 0.12688178 0.35005465 0.495885
000060 40 17 2a 3f fd b3 ff 3e 6c 1a 0c 3e 27 89 33 bf
       0.66441727 0.49942008 0.13681954 -0.7013115
000070 cf 86 86 3e d1 29 fe 3d c8 81 34 bf e9 51 1d 3f
       0.26274726 0.124103196 -0.7051053 0.6145311
000080 34 da 38 bf 01 f0 09 3f 47 f2 24 bf 5c 12 1c 3f
       -0.7220795 0.5388184 -0.64432186 0.60965514
000090 6c bb ef be 35 b7 38 3f 10 00 4b 3f 28 2c 4e 3e
       -0.4682268 0.7215455 0.7929697 0.20134032
0000a0 34 33 e5 3d b5 06 2c 3d 8a 92 9b be c2 6f c0 be
       0.11191407 0.041998584 -0.30385238 -0.37585264
0000b0 08 b3 b8 be 6e 98 9e be c3 25 90 bd a7 1b c1 3e
       -0.3607409 -0.3097567 -0.070384525 0.3771641
0000c0 4e 60 92 3e 40 a4 b3 bd 37 a5 d9 3e 1b f2 6a be
       0.285891 -0.087715626 0.4250886 -0.22943918
0000d0 04 8d 8e 3e 3d f1 ce be 80 b3 a7 3e a3 7d b9 be
       0.2784196 -0.40418425 0.32754135 -0.36228666
0000e0 c7 0b 5b 3e ea 6f 8a be 1b 00 b7 be 0b c6 82 bd
       0.21391211 -0.2703851 -0.35742268 -0.0638543
0000f0 bf 92 fa be 10 dd 15 be d5 6f 1e 3f 65 4c a6 bc
       -0.48940083 -0.1463511 0.6188939 -0.0203001
000100 ba c1 cb 3e f0 13 c7 3e 56 cc 0e be 00 f8 a2 bd
       0.3979624 0.388824 -0.13945135 -0.079574585
000110 d8 0a fe bd d5 55 35 be ea 7e 2b bd 65 21 e5 3e
       -0.12404412 -0.17708524 -0.04186908 0.4475204
000120 15 66 16 be 3b 6e c5 bc d5 00 d7 3c d0 b4 dc 3c
       -0.14687379 -0.024100414 0.026245514 0.026941687
000130 2a 3f a1 be 01 30 0a 3e 5c 18 8b 3e 21 bf d3 bd
       -0.31493503 0.13494875 0.27167022 -0.10339189
000140 c5 92 33 be 66 e1 84 be 2a a8 85 3e 54 49 12 be
       -0.17536457 -0.25953215 0.26104861 -0.14285785
000150 0f 0a 6a 3e 13 af 82 3e 90 66 80 be 65 db 42 3d
       0.228554 0.25524196 -0.2507825 0.047572512
000160 93 c7 a2 be a5 9a 64 be 02 53 22 bc de 0b 89 3e
       -0.31792888 -0.22324617 -0.009907486 0.26766866
000170 07 f2 45 be af 74 3d bd 20 84 6c 3d c5 8d 2f bd
       -0.19330607 -0.046253856 0.05774319 -0.04285981
000180 1b 1b 55 be 16 42 d3 3d af 7e 6c 3e 95 53 74 be
       -0.20811121 0.10315339 0.23095201 -0.23860009
000190 d7 09 4c be 6f d6 b3 bd 66 62 13 3e ec 4f 3e 3d
       -0.19925629 -0.08781134 0.14393005 0.04646294
0001a0 fc b1 fc 3d 70 62 1c 3d c0 ee b2 3c 90 be cb bd
       0.12338635 0.038179815 0.02184236 -0.09948456
0001b0 65 f0 16 bd d2 2f 56 bd 3d 7f 3e be 0c f2 19 3e
       -0.03685035 -0.0522917 -0.18603225 0.1503374
0001c0 76 4b 93 3c e4 4c b7 3d 84 da 7a bd fb 8a e1 3c
       0.017980319 0.089502126 -0.06124355 0.027532091
0001d0 5d 7d a0 bd db 82 2b 3d d5 9a d9 3d 05 ef 37 3b
       -0.07836411 0.04187284 0.10625235 0.002806605
0001e0 a4 f5 84 bd 8c b1 07 3c 0e bd 72 3a b8 bc 5c bd
       -0.06492165 0.008282077 0.0009259739 -0.053890914
0001f0 01 c7 cb 3d 0f d3 b2 3d a2 73 19 3c 88 20 16 3d
       0.09950066 0.087316625 0.009365948 0.036652118
000200 42 76 cc bc 46 70 bf bd f9 c5 cf bd 15 86 90 bd
       -0.024958733 -0.09347586 -0.10145182 -0.07056824
000210 66 95 cd 3d 90 66 07 3d d7 83 4d 3d 6d c4 14 bd
       0.10038261 0.033056796 0.05017456 -0.03632014
000220 ab b7 48 3c 5f ba ae bd 32 1a 32 bd 36 e9 9f bd
       0.012250821 -0.08531641 -0.043482013 -0.07808153
000230 76 7e b2 bd ea 30 3b bd b0 7e 15 3c 62 2e 37 be
       -0.08715527 -0.045700945 0.009124443 -0.17888787
000240 9b 7f 9a 3c 4a be 8d 3c 28 27 0d 3b ed 35 b0 3d
       0.018859675 0.017302651 0.0021538232 0.086040355
000250 94 50 20 bc 46 06 59 be ed 79 55 3e 72 7a 1d bd
       -0.009784836 -0.211938 0.20847292 -0.03844685
000260 5c 49 85 3e 73 81 2b be 95 30 a9 3e e9 3f e5 bd
       0.2603253 -0.167486 0.33044878 -0.111938305
000270 21 50 a0 bd e6 11 e6 bd 78 f6 3c be 61 51 64 be
       -0.078277834 -0.112338826 -0.18453395 -0.22296669

endecoder.rnn.weight_ih_l0 f4 [15, 20]
000000 0a 19 41 be 7f 20 48 be 5a 8a f3 3d ad 47 e3 be
       -0.18857208 -0.19543646 0.11891623 -0.44390622
000010 c4 72 12 3e e9 bf 8e 3e af 13 92 be ed 28 c1 3e
       0.14301592 0.2788079 -0.28530642 0.37726536
000020 e5 7c 54 be 61 ce 78 be 88 ab 6d 3e ec ad fe 3d
       -0.20750768 -0.24297477 0.23209965 0.12435517
000030 7a ca 89 3d 0f 04 f0 be 53 bb b0 3e 54 45 a3 be
       0.067280725 -0.46878096 0.34517917 -0.3188883
000040 5d 13 18 be b5 6a d8 bd 86 9b fc 3c 40 e0 b2 be
       -0.14851137 -0.10567228 0.030835878 -0.34936714
000050 85 6d 74 be b4 39 6a be 66 7e 0c 3e 87 3c d2 be
       -0.23869903 -0.22873574 0.13720092 -0.41061804
000060 af ce d5 3d 59 d1 92 3e 73 ee 5e be ee f9 e8 3e
       0.104398124 0.28675345 -0.21770649 0.4550318
000070 e8 e1 7e be 43 34 9d be 09 f9 a3 3e e3 d5 3c 3e
       -0.24890864 -0.30703935 0.32025936 0.18440966
000080 8b b0 0c 3e 5b 01 e7 be 2b 68 ab 3e 9d 09 f5 be
       0.13739221 -0.45118222 0.3347791 -0.47858897
000090 9e d6 77 be 3d e3 f5 bd bc 4f f1 3d d5 72 a3 be
       -0.24202964 -0.12006233 0.11782786 -0.31923547
0000a0 aa 7b 58 be 36 8d 98 be f0 e3 ed 3d 76 68 00 bf
       -0.21140924 -0.29795235 0.11615741 -0.50159395
0000b0 30 6e 87 3d 5e ab 14 3e 18 2e 8d be 9c d2 9b 3e
       0.066128135 0.14518496 -0.2757423 0.3043412
0000c0 0b 51 c8 be 74 3a a4 be ea e7 a0 3e 78 47 e1 3d
       -0.3912433 -0.32075846 0.31426936 0.1099996
0000d0 71 e4 64 3c df a0 19 bf 00 e9 df 3e 2a a6 c8 be
       0.01397048 -0.60011095 0.43732452 -0.39189273
0000e0 8b ca 2c bd 62 95 b0 bd 73 26 77 3d c5 e1 cf be
       -0.042185348 -0.086222425 0.060339402 -0.40601936
0000f0 ac 77 01 bf 96 96 d1 be db 75 c0 3e c4 bd 9c bc
       -0.5057323 -0.409352 0.37589917 -0.019133456
000100 ee cf ee 3e b6 e5 48 3e 83 b5 c4 be ee f8 a4 be
       0.46643013 0.19618878 -0.38419732 -0.32221168
000110 1a eb b2 be d0 7a cb be 1b db 0c bf a7 96 01 3f
       -0.34944993 -0.39742136 -0.5502183 0.506205
000120 4b 59 d2 be 5a 0a e3 3d 5b 6c 8e be d7 3f 97 3e
       -0.4108375 0.11085959 -0.27817044 0.29540893
000130 b4 cc bf be 1e aa eb 3e 87 5d 06 3f 74 6e 82 be
       -0.37460864 0.46028227 0.5248646 -0.25474894
000140 6d a4 09 bf 93 c0 c3 be 12 63 d0 3e de b7 8b 3a
       -0.5376652 -0.3823286 0.40700585 0.0010659655
000150 0c f6 13 3f a0 0b eb 3e 10 87 fb bd d4 0b 83 be
       0.5779731 0.45907307 -0.122816205 -0.25594962
000160 b3 f4 f8 be 91 0a c0 be 9a 6f 8b be 1f da e7 3e
       -0.4862419 -0.37508062 -0.27233583 0.452836
000170 9d c6 67 be 19 72 c6 3d ac 34 31 be 2b f9 6c 3e
       -0.22634359 0.09689731 -0.17305249 0.23141925
000180 0e 84 06 bf 56 1c ac 3e 12 5b ba 3e 78 dc 81 be
       -0.5254525 0.3361537 0.36397606 -0.25363517
000190 37 93 8a bd b2 e8 50 3d 11 c2 b3 3c ba 89 93 3e
       -0.0676636 0.051003166 0.021943124 0.28816015
0001a0 63 88 f4 bc 45 43 b5 3d 02 f4 71 3d 6f 31 ac be
       -0.02985019 0.08850721 0.059070595 -0.33631465
0001b0 b8 e3 8c 3d 8b 62 0b bd f8 e6 d6 bd 71 05 74 bc
       0.068793714 -0.034029525 -0.104932725 -0.014893875
0001c0 dc 24 19 be 81 00 32 3e 19 8e 31 be c2 48 3e 3e
       -0.14955467 0.17383005 -0.17339362 0.18582442
0001d0 6d 3b 70 3c b3 d2 07 bd b3 a0 26 3e 15 b6 07 3d
       0.014662606 -0.033159923 0.1627224 0.03313263
0001e0 69 ba 36 3e 33 5a cd bd 4b ab 7c bd 90 22 d2 bd
       0.17844547 -0.1002697 -0.061686795 -0.102604985
0001f0 72 2d 96 be 8f aa 95 bd 7c 86 d1 bd 07 a9 95 3d
       -0.29331547 -0.07307922 -0.10230729 0.0730763
000200 6f d9 cb bd a4 33 a3 bd 1a 78 e9 3d b1 d3 3d be
       -0.099535815 -0.07968834 0.11399861 -0.18537785
000210 fd 92 82 3e 44 87 ed bd a5 08 f3 3d d2 74 55 be
       0.25502768 -0.115980655 0.11866883 -0.20845345
000220 b8 19 39 3e 98 e2 85 be de 64 46 be 48 7e f1 bd
       0.18076217 -0.2614944 -0.19374415 -0.11791664
000230 17 dd a6 3e 27 23 22 3e b6 a8 87 be b8 1b be bd
       0.32590553 0.15833722 -0.26495904 -0.09282631
000240 c9 8e b2 be 4c 5c 83 be dd a2 dc bd 89 8c 17 3e
       -0.3487456 -0.25656354 -0.10773251 0.14799704
000250 e7 3a 4f bd 5f 2d ff 3d 7c 2d 43 3e 44 52 93 be
       -0.050593283 0.12459826 0.1906032 -0.287737
000260 17 da 9f 3e a3 9b 99 bd 4e 06 5a 3e a7 7a 4f be
       0.31221077 -0.075003885 0.21291468 -0.20261632
000270 59 7d 85 3e 93 3e 96 be 5b 24 b4 be 8f 14 93 3d
       0.26072195 -0.29344615 -0.35183987 0.071816556
000280 e4 36 dd 3e 4d 9b 47 3e 3c b6 62 be 93 fb c2 be
       0.4320594 0.19492836 -0.2213983 -0.3808256
000290 f6 36 ac be 0f 11 d2 be 0e f9 cb 3e e7 1c e1 3e
       -0.33635682 -0.4102864 0.3983845 0.43967363
0002a0 2d 77 c3 be 49 e3 aa 3e 0a 0f d3 3e 37 21 e8 be
       -0.3817686 0.3337653 0.4122241 -0.4533784
0002b0 93 f7 f3 3e d8 af a5 be f4 74 01 3f a7 4d f6 be
       0.47649822 -0.3236072 0.5056908 -0.4810612
0002c0 0f f0 cd 3e f8 0c 0d bf 8a af 01 bf 9e c9 06 3e
       0.40222213 -0.55097914 -0.50658476 0.13162848
0002d0 0d 09 c1 3e 80 0d 76 3e e4 d3 89 be b7 a6 d0 be
       0.37702218 0.24028587 -0.26919472 -0.40752193
0002e0 78 d1 a7 be 0e e5 eb be df 73 08 3e f6 ad de 3e
       -0.32777 -0.46073192 0.13325451 0.43492097
0002f0 21 77 2f be f4 ec 85 3e 11 ef e9 3e 67 01 c1 be
       -0.17135288 0.26157343 0.45690206 -0.37696382
000300 d1 79 09 3f f7 0e 9e be f1 c3 e4 3e c1 71 c9 be
       0.537015 -0.30870792 0.4468074 -0.393446
000310 31 6c f4 3e c6 0f e4 be 54 63 da be 1e 54 f7 3d
       0.47738793 -0.44543284 -0.42653906 0.12076591
000320 02 b4 8e 3d ed ee 57 3e c6 81 06 bd 04 11 ba 3e
       0.069679275 0.21087237 -0.032838605 0.36341107
000330 81 d0 05 3d 6e fc 9a 3c 91 85 8a 3e 86 e6 81 be
       0.032669548 0.018919196 0.27055028 -0.25371188
000340 c0 c7 3f 3e 4e 35 44 3e d0 a4 02 be ca 6e 50 bd
       0.18728542 0.19160959 -0.12758183 -0.050886907
000350 db f0 1d be 31 d4 91 3e c0 dc 7f be b3 e6 82 3e
       -0.1542391 0.28482202 -0.24986553 0.25566635
000360 00 45 96 bd b0 df 32 3e c6 d4 4f 3d 98 04 a8 3e
       -0.073373795 0.17468143 0.050740026 0.32816005
000370 49 58 3a 3e a8 72 85 bd c1 ee 6d be f4 e5 05 bf
       0.1819774 -0.065160096 -0.23235609 -0.52304006
000380 a9 b9 72 be 5b 30 1d be 8e 92 8d bd a8 c4 f3 3e
       -0.23703636 -0.15350477 -0.06912719 0.47610974
000390 9b 14 2e be c9 3f 93 bc 08 a3 da 3e 2e dd 6b be
       -0.17000048 -0.017974751 0.42702508 -0.23033592
0003a0 da b5 ad 3e e2 fe f8 be 21 01 c9 3e fb 70 ee be
       0.33927804 -0.4863196 0.39258674 -0.46570572
0003b0 5b 2d 29 3e 64 52 a0 be 93 28 a6 be eb fc 05 be
       0.16521208 -0.3131286 -0.3245283 -0.13084762
0003c0 57 65 65 bd e9 64 c3 be e3 b9 9d 3d ae a7 09 bf
       -0.05600485 -0.38162926 0.07701471 -0.53771484
0003d0 9e ab b4 bd 56 63 e5 3a f5 33 9e be a3 a1 dc 3e
       -0.08821796 0.0017500918 -0.30899015 0.4309207
0003e0 63 47 d5 be 47 44 bd be 2a d7 c8 3e d7 be 52 bc
       -0.41656026 -0.36966154 0.39226657 -0.012862883
0003f0 a7 4f 97 3e f5 82 15 bf 0b 4a ff 3e eb 1c fa be
       0.29552957 -0.5840295 0.49861178 -0.48850188

endecoder.rnn.weight_hh_l0 f4 [15, 5]
000000 5e a8 32 bf f6 90 c8 3e 13 de 20 3f c1 33 a5 3e
       -0.6978816 0.39173096 0.6283886 0.32266048
000010 e9 74 d0 be f8 e2 0b bf 16 a1 22 3f e9 67 11 3f
       -0.40714195 -0.546432 0.6352705 0.5679918
000020 43 1c d7 3e e5 dc cf be c3 66 b8 be 20 b9 75 3e
       0.4201375 -0.40598217 -0.360159 0.23996401
000030 9e 61 c5 3e 3d 1a fa 3e c1 07 12 bf c4 84 2f be
       0.38551039 0.48848143 -0.5704308 -0.1714049
000040 c0 bf 58 be f4 a5 3f 3d b5 b4 a5 3e b5 73 7a be
       -0.21166897 0.046789125 0.3236443 -0.24458201
000050 a9 87 70 be a3 dc e9 3d 09 82 5b 3e 08 4f 40 3f
       -0.2348925 0.11419036 0.21436323 0.7512059
000060 b0 6b af be eb 67 ca 3e 46 8e bf be 8c 44 b5 be
       -0.34261847 0.39532408 -0.37413234 -0.3540386
000070 97 59 73 bd 10 73 1c 3e a4 dc 96 3e fb fb 36 bf
       -0.05941161 0.15278268 0.2946521 -0.7147824
000080 53 c4 0a bf 8b f0 e0 3c 98 b1 b3 3c 8f 2b 21 bc
       -0.54205817 0.02745845 0.02193527 -0.009837045
000090 60 f2 1c be fd 1b 07 be 44 c9 78 be 06 08 28 3e
       -0.15326834 -0.1319427 -0.24295527 0.1640931
0000a0 69 3b 05 3f dd e5 de be af 01 f7 be 67 43 36 bc
       0.5204378 -0.43534747 -0.48243472 -0.011124468
0000b0 d2 5c 8c 3e 5e 0b 10 3f 2b 8d 12 bf c1 d5 03 bf
       0.27414566 0.56267345 -0.57246655 -0.5149804
0000c0 2a 77 4c 3e 1f 13 92 3e 47 49 23 3f 83 93 d0 be
       0.19967332 0.28530213 0.6378369 -0.40737543
0000d0 a5 ff 14 bf 72 83 bc be aa bc c4 3e fa 44 27 bf
       -0.5820258 -0.36819035 0.3842519 -0.65339625
0000e0 8a 36 3f 3f 21 31 2e 3f 35 cc f0 3d fe e0 8a be
       0.74692595 0.68043715 0.117576994 -0.2712478
0000f0 06 5d a0 be 20 ef 0c 3e 15 6e b4 3e 5b 75 ee 3e
       -0.3132097 0.13763094 0.35240236 0.4657391
000100 ce d9 18 bf a4 4b 15 3e 19 eb ac be 73 71 39 be
       -0.59707344 0.14579636 -0.33773115 -0.18109684
000110 f5 e8 02 3f b8 5e 3a be 80 0c 68 3e 1e 4f 48 be
       0.51136714 -0.18200195 0.22661018 -0.19561431
000120 c5 86 33 be 2e 36 2f bf cf 03 00 3f
       -0.17531879 -0.68442047 0.5000581

endecoder.rnn.bias_ih_l0 f4 [15]
000000 03 20 92 3e ba 43 9b 3e a6 be a3 3e 5d ca c0 3e
       0.28540048 0.3032511 0.3198139 0.3765439
000010 03 6d 88 3e 9e 0b 83 bc e8 4f 90 be 7c 52 0e bf
       0.2664567 -0.01599675 -0.28185964 -0.5559461
000020 95 c9 15 bf b3 81 0b bf af f3 06 be 51 e6 cf 3b
       -0.58510715 -0.5449478 -0.13178895 0.0063445945
000030 11 0e 27 3e 9f 90 54 3e 1d 5a a1 be
       0.1631396 0.20758294 -0.31514063

endecoder.rnn.bias_hh_l0 f4 [15]
000000 a4 00 9d 3e 85 4d 71 3e cb 88 9a 3e 83 7a f2 3e
       0.3066455 0.23564728 0.3018249 0.47359094
000010 2c c4 a8 3e d4 93 75 3d 4e 7f 9b be b6 70 20 bf
       0.32962167 0.059955433 -0.30370563 -0.62671983
000020 80 80 2e bf bc b1 1e bf 1e 09 09 be 78 fe a3 bb
       -0.68164825 -0.6198995 -0.13382384 -0.0050047003
000030 fc 67 a4 3e f6 38 a9 3e f8 dc be be
       0.32110584 0.3305127 -0.3727796

endecoder.decoder.weight f4 [8, 5]
000000 95 f5 33 3f 0b 85 38 be 0d 01 0d bf e7 f9 67 bf
       0.70296603 -0.18019502 -0.5507973 -0.90615696
000010 b3 45 5d 3f e6 8f 3b 3f a4 55 2c be 58 af 0e bf
       0.8643448 0.73266447 -0.16829544 -0.55736303
000020 18 e6 71 bf 83 dc 62 3f ad 98 34 bf 0f e3 68 3f
       -0.9449172 0.88617724 -0.70545465 0.90971464
000030 9f c2 31 3f 72 9a 42 bf 7a 84 80 3e a1 4b c4 3e
       0.69437593 -0.76016915 0.25101072 0.3833895
000040 dc b7 37 bf d6 75 38 bf 29 3a d6 3e 53 b7 0b be
       -0.7176492 -0.72054803 0.41841248 -0.13644151
000050 e5 56 5a be 6c c7 0b 3e 39 17 c6 be 5e b1 fa 3e
       -0.2132221 0.13650292 -0.38689592 0.48963445
000060 51 42 06 bf ac e0 ec 38 0e 75 c1 be 12 d4 dc 3e
       -0.5244494 0.00011295205 -0.37784618 0.43130547
000070 73 d8 bb 3e c9 f1 19 be 39 fa 43 be 52 32 f1 3d
       0.36688575 -0.1503364 -0.19138421 0.11777176
000080 9e 14 d2 3e f2 7c 8d 3e df 2a 87 be 9e 8f 19 bf
       0.41031355 0.27634388 -0.26399896 -0.5998477
000090 e6 81 59 3f 33 7d 2f 3f 05 55 b1 be 36 52 28 3c
       0.84963834 0.68550414 -0.34635177 0.010273507

endecoder.decoder.bias f4 [8]
000000 28 25 07 bf 01 e1 e8 be 8a a3 0e be 1b 2a 88 3e
       -0.5279107 -0.45484164 -0.13929573 0.26594624
000010 8d 0e b2 3e a8 98 e4 3d 2b 92 9b 3d cd de 4f be
       0.34776726 0.11161929 0.07596239 -0.20299836
