agl/models/autosave/g1-new-AE-0-5-1-165-lr0.0005.pt (torch, 5102 bytes, 7 tensors)

endecoder.embed.weight f4 [8, 20]
-0.060895752 -0.020930657 -0.09298987 -0.025832132 -0.011966785 0.073146544 -0.06618381 -0.063432656
-0.01661533 -0.07770897 -0.012838689 -0.035087463 -0.017401388 0.04391779 -0.0037128539 0.06616003
0.013212318 -0.05604013 0.037155237 -0.03454619 -0.06325727 -0.21713454 0.2683315 -0.22735886
0.2864181 -0.26492617 0.23411877 -0.1350552 -0.15434834 -0.3120595 -0.14023398 0.096861444
0.08845612 0.01625611 0.33189946 0.21806039 0.20185894 0.2779929 0.24793425 -0.28074467
-0.4916441 0.43584952 -0.42311615 0.34351107 -0.15764233 0.6149068 -0.5727691 -0.06490955
-0.046048123 0.101918444 0.4108138 -0.5667718 -0.29055318 0.30793646 -0.479856 -0.10571064
-0.29761976 -0.39742005 -0.51713985 0.62615657 -0.122414805 0.064355485 0.1399716 0.037392665
0.4456435 -0.11235483 0.0109362975 -0.49465457 -0.45340213 -0.52209365 0.16351387 -0.036561176
-0.22621228 0.2714877 -0.021187717 -0.1746204 -0.08155071 0.006238352 0.1046707 -0.04477214
-0.18542212 0.19674806 -0.11445915 0.124151565 0.20847662 0.15984213 -0.14912713 -0.24286906
-0.16761275 -0.25772822 0.1805172 -0.17491812 -0.17767665 0.22515066 -0.17158353 -0.25156793
-0.15272796 -0.18250385 -0.09395256 0.09114365 -0.12517951 0.06946812 -0.0319798 0.06486739
0.2724758 -0.004287818 -0.039051134 -0.21156137 -0.20108731 -0.17069344 0.107810795 -0.022299226
-0.12601262 0.3560966 -0.078049086 -0.18413453 -0.14065999 -0.01637829 0.057840377 -0.015686229
-0.03513378 0.054180663 -0.051907208 0.14495488 0.0143849915 0.108804025 -0.009857315 -0.11750981
-0.033727612 0.039552182 0.14173815 -0.012550796 0.0039127343 0.111304425 -0.11515611 0.0334289
-0.11167011 0.00021053597 -0.045868874 0.019157482 -0.11940049 0.099431716 -0.18614456 0.07794857
0.13484132 0.15237276 -0.14625919 -0.14102034 -0.13528062 -0.06507682 0.10853566 -0.106737785
-0.08183824 0.070022516 -0.052782062 -0.05982165 -0.15249461 -0.10704002 -0.111330315 0.19263497
00000000: d36d 79bd c576 abbc 7971 bebd e89d d3bc
00000010: 5610 44bc dbcd 953d 618b 87bd fbe8 81bd
00000020: df1c 88bc e125 9fbd 5d59 52bc dfb7 0fbd
00000030: 5b8d 8ebc 24e3 333d 5a53 73bb e97e 873d
00000040: 7a78 583c 568a 65bd 1730 183d 4e80 0dbd
00000050: 078d 81bd 8458 5ebe bf62 893e c3d0 68be
00000060: 65a5 923e 67a4 87be d5bc 6f3e e94b 0abe
00000070: 7e0d 1ebe 43c6 9fbe 7f99 0fbe 4b5f c63d
00000080: 7b28 b53d 892b 853c baee a93e 394b 5f3e
00000090: 1cb4 4e3e 1655 8e3e 7ae2 7d3e c4bd 8fbe
000000a0: c7b8 fbbe ab27 df3e aea2 d8be afe0 af3e
000000b0: fe6c 21be 886a 1d3f ffa0 12bf 4cef 84bd
000000c0: f59c 3cbd 9eba d03d 3056 d23e f517 11bf
000000d0: 63c3 94be d9a9 9d3e b0af f5be d27e d8bd
000000e0: 9e61 98be a47a cbbe 4763 04bf cc4b 203f
000000f0: 9db4 fabd cfcc 833d b754 0f3e 0d29 193d
00000100: 632b e43e 4a1a e6bd 282e 333c 5d43 fdbe
00000110: 5324 e8be eea7 05bf 2e70 273e 2cc1 15bd
00000120: 31a4 67be 7000 8b3e dd91 adbc b1cf 32be
00000130: 0f04 a7bd 176b cc3b 985d d63d fe62 37bd
00000140: 4cdf 3dbe 5378 493e 8f69 eabd 2d43 fe3d
00000150: e57a 553e a8ad 233e c8b4 18be abb2 78be
00000160: ada2 2bbe f4f4 83be 80d9 383e bc1d 33be
00000170: def0 35be e58d 663e 98b3 2fbe 83cd 80be
00000180: b864 1cbe 4ae2 3abe 336a c0bd 86a9 ba3d
00000190: 0f2f 00be 4d45 8e3d 40fd 02bd 32d9 843d
000001a0: f381 8b3e d380 8cbb 15f4 1fbd 8ba3 58be
000001b0: d5e9 4dbe 43ca 2ebe e8cb dc3d deac b6bc
000001c0: 7409 01be 4b52 b63e 33d8 9fbd c38d 3cbe
000001d0: 2c09 10be c32b 86bc 08ea 6c3d 6880 80bc
000001e0: 70e8 0fbd 8bec 5d3d a79c 54bd 0d6f 143e
000001f0: 07af 6b3c a5d4 de3d 9380 21bc fca8 f0bd
00000200: f725 0abd 7801 223d ce23 113e dba1 4dbc
00000210: 6536 803b 93f3 e33d f7d6 ebbd beec 083d
00000220: 4cb3 e4bd 52c3 5c39 00e1 3bbd 27f0 9c3c
00000230: 3e88 f4bd dba2 cb3d ae9c 3ebe 80a3 9f3d
00000240: d813 0a3e 9b07 1c3e f8c4 15be a367 10be
00000250: 0187 0abe ff46 85bd f247 de3d 5799 dabd
00000260: cf9a a7bd f767 8f3d 0132 58bd 8c07 75bd
00000270: 8c27 1cbe cc37 dbbd 2601 e4bd 1a42 453e

endecoder.rnn.weight_ih_l0 f4 [15, 20]
-0.4029423 -0.008499319 -0.013863947 -0.056418344 0.55139595 -0.011637333 -0.03542598 -0.48833036
-0.5239772 -0.5520726 0.18977383 -0.14393495 -0.13567036 0.39801547 0.1072308 -0.10966633
0.045242388 0.081573054 0.017469699 -0.022709709 -0.35352385 0.08069512 -0.028902132 0.12871127
0.43181136 0.057990555 -0.095507525 -0.45757326 -0.4050935 -0.49860743 0.2997398 -0.20757575
-0.2248276 0.41598824 -0.04511138 -0.16646357 -0.16001293 -0.09669543 -0.0068384777 -0.008706141
-0.34538734 0.21134749 -0.11019281 0.32572448 0.41193837 0.05469524 -0.095761195 -0.43999264
-0.4486195 -0.34228304 0.36020255 -0.26817125 -0.4117873 0.3613008 -0.15661025 -0.25814372
-0.28772745 -0.10567583 -0.14377345 0.017018326 -0.2338052 0.23594296 -0.13497417 0.29128477
0.2676462 0.091130085 -0.15679911 -0.39048713 -0.27606255 -0.21663062 0.26509434 -0.13743149
-0.27333125 0.30360666 -0.28131115 -0.22938617 -0.2949308 -0.15762754 -0.08144174 0.08986461
-0.40217778 0.6533834 -0.30507466 0.54294515 0.28707334 0.35649228 -0.41590074 -0.34589282
-0.36404222 -0.25180832 0.64655364 -0.45681968 -0.6263973 0.48119324 -0.60545105 -0.64746445
-0.52027875 -0.5445904 -0.22636774 0.41871077 0.41265994 -0.019206062 -0.14501286 0.06497227
-0.39449316 0.10992882 -0.03283223 0.35497805 0.42988896 0.48673534 -0.09678748 -0.024487598
0.25995144 -0.32034832 -0.041175634 0.00092419656 0.05292253 -0.041279256 -0.1749472 0.06602592
0.2660628 -0.111549616 -0.07870016 -0.17759047 -0.2649688 -0.06941857 0.12754975 0.35151
0.31980136 0.3275896 -0.26736754 0.17947042 0.35235333 -0.33883023 0.1634204 0.14862636
0.14723238 0.022669936 -0.23140106 -0.038312767 0.1244161 0.06395928 -0.18406722 0.13603193
-0.10140514 0.028794048 -0.03328113 0.1516683 0.11511362 0.111589 0.060291756 -0.0074769785
0.03946629 -0.0222978 -0.13823022 -0.06532085 -0.069658555 -0.1591214 -0.095834345 0.05618204
0.08766177 0.17130817 -0.1705262 0.20003976 -0.10391817 0.09441048 -0.037970964 0.08039854
0.08279183 0.09124924 0.028134542 0.034998313 -0.061278302 -0.09486377 -0.1621124 -0.2000507
-0.16902302 -0.21045753 -0.09165168 0.10878689 0.4725919 -0.2008708 -0.16304353 -0.22400081
-0.5019253 -0.075049 0.177306 0.37945074 0.5330897 0.4149062 -0.28740937 0.24333067
0.31121337 -0.45476767 0.14903453 0.19070043 0.24722284 0.11825402 -0.16136457 -0.04394939
0.35771304 -0.0041658124 -0.1617511 0.05704063 -0.46854728 0.1203546 -0.060789403 0.3650474
0.43501157 0.5314534 -0.19052644 0.13910027 0.23260371 -0.44901097 -0.17892818 -0.024989108
-0.009215561 -0.075285934 -0.116854295 0.1104226 -0.3206943 0.093791395 -0.031649455 0.050707955
0.30991346 0.02014415 -0.0024206145 -0.42428604 -0.45159873 -0.40446204 0.114132404 -0.17903553
-0.29790163 0.44815537 0.03272021 -0.08130384 -0.100284114 -0.0127642825 0.18143936 0.019980013
0.029441701 -0.22786698 0.4698829 -0.23674531 0.14044397 -0.45321608 0.35130852 -0.14359057
-0.17563935 -0.19657375 -0.1357024 0.13638213 -0.08089318 0.124728166 0.30284506 -0.03382491
00000000: 744e cebe ba40 0bbc 9c25 63bc ec16 67bd
00000010: 4928 0d3f 83aa 3ebc d51a 11bd 7006 fabe
00000020: 5f23 06bf a154 0dbf 1254 423e af63 13be
00000030: 2ced 0abe afc8 cb3e d29b db3d be98 e0bd
00000040: 1550 393d c60f a73d 9d1c 8f3c b609 babc
00000050: 1401 b5be 7c43 a53d 2ac4 ecbc e3cc 033e
00000060: 6116 dd3e 8187 6d3d 7399 c3bd 0b47 eabe
00000070: 6a68 cfbe 7949 ffbe 7f77 993e bd8e 54be
00000080: 3539 66be 69fc d43e b6c6 38bd 6d75 2abe
00000090: 6eda 23be 4108 c6bd 4f15 e0bb 34a4 0ebc
000000a0: 9cd6 b0be 7a6b 583e c5ac e1bd 5cc5 a63e
000000b0: 96e9 d23e 1e08 603d 721e c4bd b746 e1be
000000c0: 75b1 e5be b93f afbe 786c b83e be4d 89be
000000d0: c9d5 d2be 6bfc b83e 705e 20be 6a2b 84be
000000e0: 0351 93be 926c d8bd 5939 13be 046a 8b3c
000000f0: a16a 6fbe 089b 713e ab36 0abe 4723 953e
00000100: ec08 893e 69a2 ba3d f28f 20be eeed c7be
00000110: 1258 8dbe 6bd4 5dbe 72ba 873e d7ba 0cbe
00000120: 13f2 8bbe 5572 9b3e 0408 90be 35e4 6abe
00000130: 2b01 97be 1d69 21be edca a6bd f00a b83d
00000140: 3fea cdbe 2244 273f bf32 9cbe 74fe 0a3f
00000150: 47fb 923e 2886 b63e f1f0 d4be dd18 b1be
00000160: be63 babe 05ed 80be 8a84 253f 45e4 e9be
00000170: 935b 20bf f65e f63e d7fe 1abf 3bc0 25bf
00000180: fd30 05bf 476a 0bbf f2cc 67be 4261 d63e
00000190: 2a48 d33e 0856 9dbc 407e 14be 2e10 853d
000001a0: 02fb c9be 5c22 e13d 177b 06bd afbf b53e
000001b0: 681a dc3e 6035 f93e 8438 c6bd 379a c8bc
000001c0: 5b18 853e b204 a4be c8a7 28bd c845 723a
000001d0: 4bc5 583d 7014 29bd 5c25 33be 9938 873d
000001e0: 6239 883e 2074 e4bd 8d2d a1bd 47da 35be
000001f0: fea9 87be 532b 8ebd 679c 023e 1ef9 b33e
00000200: 01bd a33e d3b9 a73e 66e4 88be 18c7 373e
00000210: a867 b43e 287b adbe ad57 273e 8231 183e
00000220: 16c4 163e 4db6 b93c 66f4 6cbe d9ed 1cbd
00000230: decd fe3d 15fd 823d 1e7c 3cbe f44b 0b3e
00000240: 7fad cfbd 7fe1 eb3c cb51 08bd ef4e 1b3e
00000250: b1c0 eb3d c688 e43d 7df4 763d 7101 f5bb
00000260: 68a7 213d e0a9 b6bc 398c 0dbe f0c6 85bd
00000270: 25a9 8ebd b8f0 22be cc44 c4bd 241f 663d
00000280: 0488 b33d 696b 2f3e 6c9e 2ebe 39d7 4c3e
00000290: 0dd3 d4bd 485a c13d 7187 1bbd fda7 a43d
000002a0: c38e a93d e2e0 ba3d 697a e63c 645a 0f3d
000002b0: f5fe 7abd f047 c2bd cb00 26be 17da 4cbe
000002c0: 5f14 2dbe 2e82 57be e0b3 bbbd a9cb de3d
000002d0: 91f7 f13e 13b1 4dbe e2f4 26be 7860 65be
000002e0: 2d7e 00bf 4ab3 99bd b48f 353e 5e47 c23e
000002f0: 9178 083f 966e d43e 5227 93be ad2b 793e
00000300: 5c57 9f3e 4fd7 e8be 829c 183e f946 433e
00000310: fc27 7d3e 2a2f f23d c13c 25be 4704 34bd
00000320: 2a26 b73e 5e81 88bb 15a2 25be 70a3 693d
00000330: 6ee5 efbe 797c f63d 4ffe 78bd 7ee7 ba3e
00000340: d6b9 de3e 540d 083f 5d19 43be 4d70 0e3e
00000350: ab2f 6e3e c4e4 e5be f338 37be f5b5 ccbc
00000360: ddfc 16bc 832f 9abd 4e51 efbd 3e25 e23d
00000370: 0b32 a4be b415 c03d dca2 01bd 25b3 4f3d
00000380: faac 9e3e 5805 a53c 2ca3 1ebb 053c d9be
00000390: f337 e7be a615 cfbe 40be e93d 1755 37be
000003a0: 9086 98be 9f74 e53e a005 063d a182 a6bd
000003b0: c261 cdbd 4821 51bc 3dcb 393e 20ad a33c
000003c0: b92f f13c f655 69be 7e94 f03e 5d6d 72be
000003d0: 8bd0 0f3e f00b e8be b6de b33e 6809 13be
000003e0: cdda 33be a14a 49be 92f5 0abe c2a7 0b3e
000003f0: 53ab a5bd 7b71 ff3d 820e 9b3e fd8b 0abd

endecoder.rnn.weight_hh_l0 f4 [15, 5]
-0.42534748 0.29145893 -0.10386319 -0.1376771 -0.2961761 -0.564048 0.34010595 -0.15381289
-0.24098942 -0.3427757 -0.46543828 0.4278282 -0.33090732 -0.28117257 -0.29805654 -0.37287298
0.43521667 -0.40996248 -0.40081927 -0.42708737 -0.6013887 0.42564797 -0.10087107 -0.19028217
-0.41093543 0.5165072 -0.37745655 -0.037492216 0.040258676 0.22994961 0.5451986 -0.4771381
0.052317113 -0.07319362 0.13106115 0.35641214 -0.30973664 0.4426836 0.47145006 0.22211185
0.2689909 -0.23715137 0.5233071 0.53308177 0.2651325 0.56584084 -0.47063315 -0.007299069
-0.014663534 0.2521299 0.57840294 -0.41421646 0.18345484 0.22310331 0.3707333 -0.5540828
0.506207 -0.16135606 -0.18143219 -0.31224507 0.27576977 -0.28614387 0.63815075 0.6398095
0.49772644 0.28070396 -0.32478556 0.6015159 0.5361279 0.4169775 0.64208835 -0.5117121
0.01675127 0.1281364 0.39213797
00000000: 25c7 d9be 1b3a 953e 39b6 d4bd 3afb 0cbe
00000010: 65a4 97be 7365 10bf 5e22 ae3e 2081 1dbe
00000020: eec5 76be 4c80 afbe ed4d eebe 4c0c db3e
00000030: af6c a9be daf5 8fbe de9a 98be 35e9 bebe
00000040: b8d4 de3e 9ae6 d1be 2f38 cdbe 32ab dabe
00000050: 9cf4 19bf 88ee d93e 7e95 cebd 54d9 42be
00000060: 2166 d2be d139 043f fc41 c1be 7091 19bd
00000070: 48e6 243d e977 6b3e 2392 0b3f 724b f4be
00000080: 784a 563d 89e6 95bd e534 063e a77b b63e
00000090: cd95 9ebe 6da7 e23e e761 f13e 4a71 633e
000000a0: 2db9 893e cfd7 72be 74f7 053f 0c78 083f
000000b0: 72bf 873e f2da 103f d4f6 f0be 072d efbb
000000c0: 523f 70bc 2c17 813e 3712 143f 2e14 d4be
000000d0: 96db 3b3e 3275 643e c1d0 bd3e 5fd8 0dbf
000000e0: c896 013f 863a 25be 5cc9 39be 96de 9fbe
000000f0: b231 8d3e 7381 92be d95d 233f 8eca 233f
00000100: 00d6 fe3e 6eb8 8f3e 4b4a a6be f2fc 193f
00000110: ae3f 093f 137e d53e e75f 243f 90ff 02bf
00000120: f639 893c 3036 033e 4fc6 c83e

endecoder.rnn.bias_ih_l0 f4 [15]
0.51343733 0.50615126 0.4040469 0.3009683 0.16082177 -0.5143481 -0.4206855 -0.22869845
-0.21693291 -0.8269442 -0.48319584 0.43727705 0.13102357 0.18009679 -0.035400648
00000000: a170 033f 2193 013f 3cdf ce3e 8418 9a3e
00000010: 76ae 243e 51ac 03bf 1764 d7be ed2f 6abe
00000020: a923 5ebe 9db2 53bf 7265 f7be c7e2 df3e
00000030: 0b2b 063e 4b6b 383e 4500 11bd

endecoder.rnn.bias_hh_l0 f4 [15]
0.5197628 0.42882124 0.48377013 0.29100615 0.09931264 -0.5220102 -0.4484672 -0.17068967
-0.22745593 -0.77456003 -0.4428792 0.37621024 0.2061057 0.12189815 -0.23561515
00000000: 2d0f 053f 758e db3e b8b0 f73e c2fe 943e
00000010: 6d64 cb3d 76a2 05bf 7e9d e5be 46c9 2ebe
00000020: 35ea 68be 9149 46bf 10c1 e2be a19e c03e
00000030: 5f0d 533e bda5 f93d 1945 71be

endecoder.decoder.weight f4 [8, 5]
0.9507551 -0.8294025 0.10847529 0.16997063 0.6604391 0.9187006 -0.72122234 0.2174191
0.16063373 0.5729017 -0.23483808 0.25826296 -0.9652225 -0.9931343 -0.30765262 -0.028998274
-0.046970874 0.6688683 0.69735545 0.4410153 -0.33719897 0.32150343 -0.055184454 0.008336085
0.13290504 -0.16061316 0.26219764 0.408993 0.2916689 -0.46388564 -0.29936558 0.29349515
-0.022386158 -0.03372273 -0.42092437 -0.22840634 0.29408497 -0.8341452 -0.78724927 -0.38688686
00000000: b064 733f b953 54bf 4b28 de3d c80c 2e3e
00000010: 8912 293f f62f 6b3f 07a2 38bf 1da3 5e3e
00000020: 2b7d 243e b0a9 123f 6579 70be 0b3b 843e
00000030: d218 77bf 0d3e 7ebf a584 9dbe ca8d edbc
00000040: 8864 40bd f43a 2b3f e385 323f c2cc e13e
00000050: 58a5 acbe 199c a43e 1809 62bd 1394 083c
00000060: 4218 083e c777 24be c53e 863e 8867 d13e
00000070: a055 953e 6b82 edbe 7246 99be ff44 963e
00000080: 2d63 b7bc d820 0abd 6683 d7be 5ae3 69be
00000090: 4e92 963e 8a8a 55bf 2b89 49bf 0916 c6be

endecoder.decoder.bias f4 [8]
-0.50287986 -0.58848685 -0.4956996 0.50588614 0.5139761 0.017103994 -0.008798615 -0.43780398
00000000: bcbc 00bf 13a7 16bf 57cc fdbe c181 013f
00000010: f093 033f ad1d 8c3c 1128 10bc d827 e0be
