agl/models/autosave/new-AE-124-16-0.001-A.pt (torch, 113900 bytes, 21 tensors)

encoder.embedding.weight f4 [8, 124]
00000000: bbcc 523b 6907 eabc 3ecc 77bb eb79 ee3a
00000010: 7c7c 4ebc bbf3 e03a f1f4 06bc 64f6 2bbc
00000020: b1da a23b 7de6 273b e1df cbb9 5de2 36bc
00000030: 8ebd 953b 27e2 06bc 6b3c 91ba 3857 e1bb
00000040: 8736 043c 4130 403a e960 ffbb feb2 9b3c
00000050: 6499 de3b 8e60 d9ba 3c0b 093c fe1e 283b
00000060: 591b e7bb cf20 2c3c 2a03 29bb 3f5a 93bb
00000070: 3647 a8bc 2d5a 823c 50e1 0a3b ceb6 2f3c
00000080: 7de0 a93b 650c c5ba 6626 b73a 2b01 3b3b
00000090: 21ba 1b3c 9dff 0d3b b369 6f3c d754 9dbc
000000a0: 1454 063c f4bc 0a39 3ebd 40bc 0905 293c
000000b0: de55 d8bb 35d8 593a 85ff 273c 57a3 24bc
000000c0: 6508 a73b bb7f 533c 207d 4b3b 78a6 28bc
000000d0: acb0 6dbb db4c 9e3b 1d50 323c bd1b 95bc
000000e0: a637 0f3b 7d21 843b cf34 863c 84b4 cabb
000000f0: 1080 3dbb 5d4d 013a 649e c13b 423a c53a
00000100: a6c2 92bc 93a8 45bc e0a3 a03b 5b13 603c
00000110: 0632 483c 05c6 f6ba d774 76bb fcf6 4a3c
00000120: 6238 2dbb 5535 c33b aee5 343c 7efb 20bc
00000130: a664 2d3c a6c0 9bbc 988e 533c 342e c13b
00000140: 95d1 1bbb 2803 97bb 97df 5cbb 6173 ffbb
00000150: 590e 9bbc 129c 0d3b 0a8c 293c f880 38ba
00000160: e5d6 46bc ec5e 203c 3046 7c3c 83f9 183c
00000170: 2118 5b3b 9f81 14bb dd40 5fbb 5375 3b3c
00000180: 626b 82bc 15bc ef39 1c45 a03c 2268 0a3c
00000190: b701 123b 8fd3 853c e110 c4bb 0f64 cbbb
000001a0: cbe9 6cbc a524 3dbc 2bd6 e63b 7c1d 313c
000001b0: 1c1a 55bb 0053 a03b 8f0f a03b 1984 c6bb
000001c0: d7ec 7f3b 92ae b1bb 3d67 b13c 662f 973c
000001d0: c4db dbbb 8259 b8b8 54f0 953b 7f2a 1e3c
000001e0: 5164 943a 1ef1 bb3b 2637 033c 3937 553c
000001f0: 391f 5f3d 6ae2 f73d b979 b73c b7f0 71bd
00000200: e3e0 dd3e 1146 ca3d fb62 df3c f871 98bc
00000210: 1f14 123e e2e7 d33e 1b09 ee3c e395 82bd
00000220: 177c 60bc 9f14 2b3e 8681 8e3e 6c32 1f3d
00000230: 3ded 5d3e d529 773d 7cc9 15bc 6c19 6b3d
00000240: a527 a6be 0d12 cbbe a3fe 233d ac0f 853d
00000250: d421 13be 9f60 8b3d 4347 9dbc 0c08 edbe
00000260: 2b0a 63bd eb2b 00bd 3d72 d23d f69c 4a3e
00000270: 327f 7b3d 29a7 b63d 02a3 8cbd 66db 7f3d
00000280: 1272 a13c 8b71 a93d af51 87bd 2dec 223c
00000290: 7566 97be 4543 d63c 3b30 b6bc 1ae9 18bd
000002a0: c9b7 703e a6fe d13d 7aad a53d 227a 9ebd
000002b0: 5e65 55bd a60c 43ba 8bcd 76bd 82f5 6e3e
000002c0: 3268 3c3d b39a aebd e02c 59bd f64b 98bc
000002d0: c699 553d 73f3 90be d50c 813d 6c34 213d
000002e0: 7906 fabc c6e9 aebc 96cd 62bd 89ff c03e
000002f0: 4d0c 68bd 282b 5b3e 9338 1dbd d9d7 c53c
00000300: f03d 21bd 9196 fabd 31c7 e8bc d626 903e
00000310: fb08 093e d919 3e3d 57df bebe 8a88 20be
00000320: 891d 97bc 6801 c63d 5915 73bd aee7 8fbe
00000330: 1ded eebd 8885 bc3e a935 393d 9de6 5fbe
00000340: 6713 47bd c5b6 b3bd aa71 85bd 2d69 cbbb
00000350: 1dc6 8e3b 6440 be3d f913 e23a 71ad c5bd
00000360: fe79 a63b f4ed 543d 5cb6 f83d ed95 0bbd
00000370: c597 5dbd d0cb edbc 5765 f8bd 60e2 abbe
00000380: 904f 1b3d 6bcf a33e f6d5 90be 0647 ecbb
00000390: eb23 183c 4c89 3f3d b943 3b3d c5a1 633d
000003a0: d91c f33c e24b 08bd 8d70 003e ad31 133d
000003b0: f5f7 98bd d387 a83e 4cef 173d 110f a6ba
000003c0: d39e 69bb 0ba3 27be 6637 9a3e dc92 25bc
000003d0: 00fc 87bd edcb a1bd 9a11 b33d b313 afbc
000003e0: 53a3 203c e152 7d3b 8cca 723c ba3a 1dbc
000003f0: 54dd b43d 1c60 123d 5703 adbc 9ff2 0dbf
0.0032165486 -0.028567987 -0.0037810947 0.0018194293 -0.012602922 0.0017162481 -0.0082371095 -0.010495756
0.0049699177 0.002561956 -0.0003888598 -0.011162368 0.004569716 -0.00823263 -0.0011080628 -0.0068768524
0.008069641 0.0007331409 -0.007793535 0.019006249 0.006793188 -0.0016584562 0.008364495 0.0025653238
-0.0070528206 0.010505869 -0.002578924 -0.004496842 -0.020541769 0.01591214 0.0021191426 0.010724736
0.005184232 -0.0015033601 0.0013973236 0.0028534632 0.009504826 0.002166725 0.014612603 -0.019205494
0.008198757 0.00013231096 -0.011763869 0.010316142 -0.006602033 0.00083101104 0.010253792 -0.010048709
0.0050974363 0.012908871 0.0031049922 -0.0102935955 -0.0036268635 0.004830939 0.010883358 -0.018201703
0.0021853237 0.0040323124 0.016382603 -0.00618607 -0.0028915443 0.00049324875 0.005908774 0.0015047269
-0.017915081 -0.012064117 0.004902348 0.01367649 0.012218958 -0.0018827325 -0.0037606263 0.012387987
-0.0026431312 0.0059572854 0.011041088 -0.009825585 0.0105830785 -0.01901276 0.012912415 0.0058954004
-0.0023776044 -0.0046085306 -0.0033702606 -0.0077957367 -0.01892774 0.0021607918 0.010348329 -0.0007038261
-0.012136196 0.009788256 0.015397593 0.009336832 0.003343113 -0.0022660268 -0.003406576 0.0114415465
-0.015920345 0.00045725764 0.019564204 0.008447679 0.0022278854 0.01633623 -0.0059834574 -0.0062069963
-0.014460037 -0.011544381 0.007044574 0.010810252 -0.0032516783 0.004892707 0.004884667 -0.0060582277
0.003905108 -0.0054224217 0.021655673 0.018455219 -0.0067095477 -8.790476e-05 0.0045757685 0.009653687
0.00113214 0.0057355305 0.008008754 0.013013654 0.054473136 0.12103732 0.02239691 -0.059067454
0.43335637 0.09876645 0.027268877 -0.018609032 0.14265488 0.4138785 0.029057076 -0.06376245
-0.01370146 0.16707085 0.27833194 0.038866445 0.2167253 0.06034263 -0.009142276 0.05739729
-0.3245212 -0.3966221 0.040037762 0.0649713 -0.14368373 0.068055384 -0.01919902 -0.46295202
-0.05542962 -0.031291883 0.102756955 0.19786438 0.0614006 0.08918602 -0.06867029 0.062465094
0.019707713 0.0827361 -0.06607377 0.009944004 -0.29570356 0.026155123 -0.022239795 -0.037331678
0.23507608 0.102536485 0.08089729 -0.07738139 -0.052098624 -0.00074405444 -0.060254615 0.23335841
0.045997806 -0.085256 -0.05302131 -0.018590908 0.052148603 -0.28310737 0.06301276 0.039356634
-0.030520665 -0.021351706 -0.055371843 0.37694958 -0.056652356 0.21403182 -0.03838403 0.024150776
-0.03936571 -0.122357495 -0.028415294 0.2815463 0.13382332 0.04641137 -0.3727977 -0.15677086
-0.0184467 0.09668237 -0.05934653 -0.28106445 -0.116663195 0.36820626 0.04521719 -0.21865316
-0.048602488 -0.08775095 -0.0651582 -0.0062076063 0.004357113 0.09289625 0.0017248384 -0.09652222
0.0050804606 0.051984742 0.12144157 -0.034078527 -0.054099817 -0.02902785 -0.12128704 -0.33571148
0.037917674 0.31994185 -0.2828824 -0.007210615 0.009285907 0.046761796 0.045718882 0.055574197
0.029676842 -0.033275492 0.12542935 0.035936046 -0.07469169 0.32916126 0.037093446 -0.0012669285
-0.0035647645 -0.1637079 0.3012039 -0.010105815 -0.06639862 -0.07900224 0.087435916 -0.021371698
0.0098045645 0.0038654136 0.014818799 -0.009596521 0.088312775 0.03573619 -0.021119757 -0.55448335

encoder.rnn.weight_ih_l0 f4 [48, 124]
00000000: 2472 a13d 18a0 773e 3591 913e a6a6 35bd
00000010: 8899 6b3b 6a20 b53d 62b1 bdbc 2035 c5bc
00000020: 0ddc 3e3c e7b1 b73d 33fe e53d e2eb ffbd
00000030: f09b 3c3e a4ef 733c 605c dd3d 6a77 0ebe
00000040: 747b 163d a9e4 13bd ac05 26bc d720 c63c
00000050: d252 1cbe d0ba 7a3e 4fd7 2abe ad24 d23d
00000060: 3bf9 7abd a062 07bc 4f39 993c 10dc 57bd
00000070: e499 0dbe 75fa 243e 9aca 803d 083e dfbc
00000080: 3aeb e0bd 68b9 213e ae28 27bd 11e1 633c
00000090: ceee 8dbd 57d9 e03d 9ef9 953c dc6b c53d
000000a0: e13b 053e a781 373d 8a90 81be 92ac cdbd
000000b0: 5757 a93a 86e2 59be d4c6 cb3c 46ae e43c
000000c0: 30ab b33c 2204 e7bc fe8f 8bbe 3d66 b1bd
000000d0: 7b6a 88bd 35bb adbc 5cf7 bf3c 0679 c1bd
000000e0: 3884 443e 8e82 883d 9059 9f3e 3925 113e
000000f0: 34c6 5abe d1f9 8a3d 70bb 033d 89a4 ac3d
00000100: a393 0e3c 1a3a fd3d ea3c 38be 3f4b e13d
00000110: ff18 9c3d 89e2 593d fb9d 87be 6e03 3b3e
00000120: 8027 a4bc 123c 543e b72a c83d 1165 bf3d
00000130: 9d63 073e 6e51 3f3d 67f0 a3bd 4347 b63d
00000140: 9a8a fbbd aecb 0dbe 9812 d53b 3446 e33c
00000150: bd8d 56bd 7161 353b 0762 463d e58c 91bd
00000160: 38cb 11bd 5358 05be 32e1 493d 10b8 5e3d
00000170: 7d10 29bc ac9f 383c a5bc 9f3c 0ab2 c03d
00000180: e421 6fbb f6ec a83d 762c 1b3d 995c c33d
00000190: b80e 433d 7a99 383e 94ed e2bb 6117 433d
000001a0: ea2b b639 2d2e 0e3d bf11 e13b 2d69 3abd
000001b0: 8fd6 26bc 552d 8abd 0679 3c3d 179c 62be
000001c0: a524 e9bb 61b6 3abd 5887 bebd 4135 76bc
000001d0: cf11 4d3d f346 f5bd 1cb9 78bd 07ae 2c3d
000001e0: 1bbd d73d 9601 103d 20cc 063e 7da7 1abd
000001f0: bd2f ebbc c649 de3e d85b c63e 4269 c23e
00000200: e316 be3e a805 b3be 4825 d9be 2f95 9dbe
00000210: 253e adbd d59f fb3e 75a5 013d 0215 3abe
00000220: d294 dcbe a58e c43e e845 e93e 18cb b93e
00000230: 5561 cd3e c695 a03e 1bd0 f8be 2d1f 2fbd
00000240: 2308 95be fd88 4ebe 3237 6c3e 51d9 2b3d
00000250: 91e8 ab3c 77e5 2bbe 40ac d83e 22af aebe
00000260: bcc2 50be 4914 e0be 67e4 81bd ab97 c73e
00000270: b53a 883e 587e 233e 9e8d d53e 1a93 013f
00000280: 4e70 e53e bd11 7d3d 1cff ddbd d0d5 903e
00000290: cde3 9dbe cbd2 593e a59c 5ebe 4afe 83be
000002a0: 9c74 a63e 52bc d63e 286c 723d 89da 8cbe
000002b0: 119f e13e fd0a edbe 9824 30be 2a02 543e
000002c0: fa74 f13e 264a f2be 46af ed3e 8b90 59be
000002d0: 123e 8d3e d59b 58be 0a36 9f3e fd03 2d3e
000002e0: 0fa7 c1be 28c0 0ebf ab26 ed3e c96d 173f
000002f0: a02c adbd d698 a53e e235 99bd 12f9 b23e
00000300: 140b ddbe d343 e7be 4d56 adbd ac86 e13e
00000310: f1ed 8b3e dfa0 1e3e 4e30 a6be 54be a0be
00000320: 5249 2f3e 5e7f b0bd a565 80bb fe83 7cbe
00000330: b139 7fba 4f44 c03e 0b09 d6be c29f 84be
00000340: a477 d3bd 04a9 bdbe 58cd a43e 9473 ab3e
00000350: f087 e7be 2d4c fb3e c623 d3be 40fe d73d
00000360: 6fcf fd3e b9b9 583e 808e 8b3d a1d8 d4be
00000370: 77d1 b9be 67ac d9be b0b6 343e 92ee 79be
00000380: 9b6a d83d a208 e73e 95df edbe 8e0f 0a3f
00000390: b7d0 f2be 8085 d73e a56b 463e 850c f3be
000003a0: 3d20 03bf 3196 e2be 396c 883e f3f6 913e
000003b0: ee8e 993d 6bf6 a43e 2e95 9f3e 2ab1 d13e
000003c0: 4969 bcbe 88d8 4f3d d876 b73e 8e01 c1be
000003d0: cbbd b0be 565a bfbe 3e7f cb3e 8507 1abe
000003e0: 4629 abbe 1b68 27be b025 29be 1cf0 013e
000003f0: cba2 42be 92ff 6fbe 07c0 54be 3c25 3d3d
0.07883099 0.24182165 0.28431097 -0.04434838 0.0035949666 0.08844073 -0.023155872 -0.024073184
0.011649144 0.08969479 0.11230125 -0.12496163 0.1841886 0.014888678 0.10808635 -0.1391274
0.036738828 -0.03610674 -0.010133188 0.024185581 -0.15265968 0.24485326 -0.16683696 0.102609016
-0.06127284 -0.00826326 0.018704085 -0.052700102 -0.13828236 0.16111167 0.06288643 -0.027251258
-0.10982366 0.15793383 -0.04081028 0.0139086405 -0.06930314 0.10978954 0.018307503 0.09639713
0.13011123 0.04480138 -0.25305587 -0.10042681 0.0012919706 -0.21277818 0.024875082 0.027915131
0.021932214 -0.028200213 -0.27258295 -0.086620785 -0.066609345 -0.021207431 0.02343338 -0.094469115
0.19191062 0.06665526 0.31123018 0.14174356 -0.21364671 0.0678593 0.032161176 0.0842982
0.0087021915 0.123645976 -0.17991987 0.1100068 0.07621955 0.053194556 -0.26487717 0.18263027
-0.020038366 0.2072604 0.09773772 0.09345449 0.13221593 0.046708517 -0.080048375 0.08900311
-0.122822955 -0.13847229 0.0065024607 0.027743436 -0.052381266 0.0027676488 0.04843333 -0.071069516
-0.035594195 -0.13021974 0.04928703 0.054374754 -0.0103188725 0.0112685375 0.019499132 0.09408958
-0.0036488706 0.08248322 0.037884198 0.09539146 0.04762146 0.18027297 -0.006925294 0.047629718
0.00034746464 0.034712005 0.0068685706 -0.04551046 -0.010182991 -0.06746928 0.046013854 -0.22129856
-0.007114964 -0.045584086 -0.093031585 -0.015027345 0.05006581 -0.11976423 -0.06072341 0.042158153
0.10534116 0.035157762 0.13163805 -0.037757386 -0.028709287 0.4341566 0.38741946 0.3797093
0.37126836 -0.34965253 -0.42411256 -0.3077788 -0.08459119 0.4914538 0.031651933 -0.18172076
-0.4308229 0.3839008 0.45561147 0.3628776 0.4011332 0.31364268 -0.48596272 -0.04275434
-0.2910777 -0.20169444 0.2306793 0.041955296 0.02098492 -0.16786753 0.42318916 -0.3411799
-0.20386785 -0.43765476 -0.063423924 0.389829 0.2660729 0.15966165 0.41709608 0.50615084
0.44812244 0.061784495 -0.10839674 0.28288126 -0.3083786 0.21271817 -0.21739443 -0.25779945
0.3251084 0.41940552 0.059185177 -0.2751048 0.4406667 -0.46297446 -0.1720146 0.2070395
0.4715956 -0.47322196 0.46422786 -0.21246545 0.27586418 -0.21153195 0.31095916 0.16896053
-0.37822768 -0.5576196 0.46318564 0.59151894 -0.08455777 0.32343167 -0.074809805 0.3495565
-0.43172514 -0.45168933 -0.08463726 0.4404806 0.27329972 0.15491055 -0.3245873 -0.3139521
0.17117813 -0.08618043 -0.003918367 -0.24659726 -0.0009736075 0.37552115 -0.41803774 -0.25903136
-0.10325554 -0.3704301 0.32187915 0.33486617 -0.452209 0.49081555 -0.4123823 0.10546541
0.49572322 0.21164598 0.06814289 -0.41571525 -0.36292621 -0.42514345 0.17647815 -0.24407414
0.105672084 0.45123774 -0.46459642 0.53929985 -0.47424862 0.4209404 0.19377 -0.4747049
-0.51221067 -0.44255212 0.26645067 0.2850872 0.07497965 0.32219252 0.31168503 0.40955478
-0.36799076 0.05074361 0.35832858 -0.376965 -0.345198 -0.37373608 0.39745516 -0.15041931
-0.33429927 -0.16348307 -0.16518283 0.1268925 -0.19007413 -0.23437336 -0.20776378 0.046178088

encoder.rnn.weight_hh_l0 f4 [48, 16]
00000000: 62fd a7be 4c5e bdbd 9df5 083e 064b 563e
00000010: 0c7f 05bf 02f7 cf3e e1f8 4bbe 7780 9a3e
00000020: 3b8f 07be 5954 45be b238 0cbe 14f5 d7be
00000030: 029a 6cbe 1c77 06bf 0af0 45be 550d bdbd
00000040: 2a88 72be 39ce 34be 7c62 2c3e 4803 6a3e
00000050: cc50 7fbe 5192 423e a737 72be 2659 be3d
00000060: 6d1e a53d dda9 78be f281 39be 9658 c23b
00000070: 60b4 a9be 72b3 52be 4723 61be a1de 29be
00000080: 9710 b2be 5eaa eabe cbc0 c13d 057a f73d
00000090: 015c c9bd 8a23 bb3d 9150 e5be 9e2c 373e
000000a0: 6d2f 9c3e fe4b 04bd af5b e6be bcce be3d
000000b0: 7a9e babe c78d 8e3d fc31 b6be a757 efbe
000000c0: a2fc 9bbe 7e25 f2be aefd 133e f82c 243e
000000d0: 0bde 5d3b ef86 113d 2f94 d2be 7f04 393e
000000e0: 9cce 5b3e 124a b9bd 305a e9be 4957 333d
000000f0: 7a80 a7be 5f86 7e3d 2af0 b0be bc12 e9be
00000100: 7f31 24bd 4fe1 ac3d a0ac bf3e 362a 5b3e
00000110: 80e0 a7be 630c a63e 7e7a b43c 557b e53e
00000120: 5c20 3fbe f5b9 bcbe fa5d 74bd c3a8 88be
00000130: 5eff 06be 7876 b9be cb07 e9bd 5126 c13d
00000140: 0995 cbbd b38d bdbd b2f3 dd3e d687 b63c
00000150: 6908 9ebd f727 123e 3da3 c6bd 70c8 893e
00000160: 90b3 a3bd 59ad 08be 6237 75bd 62d3 8bbd
00000170: 2734 363e 5bb3 9fbd 0019 66be 7ac1 e1bd
00000180: 10bf c2be 861d 32be 8bcd 033f 931c da3e
00000190: 4da6 c5be ca8c ca3e 2f84 71be b394 893e
000001a0: 8390 a33d 9f76 d5be b04d 1abe b584 8a3d
000001b0: 5dd9 acbd 38a2 85be d6e5 babe e0c6 11be
000001c0: 3ad0 1ebe 0ef1 78bc 294f 75bd be2b 963e
000001d0: 300e 2ebf e497 133f 7ed7 f6bd 7493 8a3e
000001e0: cbfb 34be b428 bcbe b6de d3bd 8f1b 7abe
000001f0: fa39 abbe 7d9e ecbe 88fd 0fbe 2176 6cbd
00000200: ba21 f83e a4a7 a33d 4e16 a5be 8a95 7cbe
00000210: 49e5 283d 49e8 58bd 39cc 543e a98b 13bf
00000220: 210f 8abd 16b2 0f3e 144e 553d 0943 46bd
00000230: 171f b03e 5109 173b ded7 8c3e 0b69 213d
00000240: c413 993e 66b5 6abd 3833 a3bd 757e af3e
00000250: 3449 903c 4d24 39be f354 e23c 965a a4be
00000260: 2229 57bd 7220 36bf 8ef7 d4be 83a6 e6be
00000270: ab50 bebd 1177 a7be 185a 0c3f 20e7 65be
00000280: 7a8e 06bd 0fe7 97bd ee7f 2abd be35 54bd
00000290: a231 b7be 034e 913e 1b54 14be 9c84 013e
000002a0: 9ce3 bdbd f547 3c3d db06 a1bd cfb6 15be
000002b0: 60f7 2abc c8b4 acbe bf70 c9bd 35b7 70bd
000002c0: a6d2 8f3c b451 d1bc aa4f f5bd 8fa1 43be
000002d0: 57aa 4bbd faf8 90bc 297a b1bd e70d 6dbd
000002e0: ccb2 e6bd 62ae 013e ad15 3d3d e013 adbd
000002f0: 8cb9 9abe 796c 22bc 81ec c2bd 9a5a 9ebc
00000300: 24fd e8be ea9e 60bb 56cb 6c3e a979 993d
00000310: 7978 84bf 5e1c 743f c61b 24bd b592 703d
00000320: bff4 5abe ccd1 14be e86d 843e 10c8 76be
00000330: ae4c 26be 89b9 05bf 5e2e 80be e9ba 1f3e
00000340: 31a6 403e 6532 9d3e 35de aabc f993 90be
00000350: bfde b7be 8d11 a63e 9ec7 123e 5809 003e
00000360: 22f0 ccbe 5beb 903d dfe9 a83e c939 c4be
00000370: 7b2e 453d d15e a2be d5f8 2abc e74f 823e
00000380: 0a06 a5be 9c04 77be 7019 833e 9c47 cb3e
00000390: 5e8a 5ebe f04e 6e3e 36a4 a5be 8ccb 4f3e
000003a0: b7d1 283e 648f c3be bd0b 71be 10bf 933d
000003b0: 1c4b b0be 6a85 3dbe a96a 92be a1d0 80be
000003c0: 8bcb 9dbe a59e 773d 8fb8 9f3e 9bd1 ac3e
000003d0: bd05 ecbe 85b2 c93e 027c 99bd cd52 623e
000003e0: 5a85 35be 195e 64be 9f8c 4b3d eb13 8639
000003f0: a44e bebe e8f0 e8be c315 89be 968c c13d
-0.32810503 -0.09246501 0.13374944 0.20927057 -0.52146983 0.4061814 -0.19919159 0.30176136
-0.13238232 -0.19270457 -0.13693503 -0.42179167 -0.23105624 -0.52525496 -0.19329849 -0.092310585
-0.23684755 -0.17656793 0.16834444 0.22852814 -0.24933165 0.19001128 -0.23654042 0.092943475
0.08062444 -0.24283548 -0.18115976 0.0059309704 -0.33145428 -0.20576265 -0.21986113 -0.16588832
-0.34778282 -0.45833105 0.094606005 0.1208382 -0.098320015 0.09137638 -0.4478803 0.17888114
0.30504933 -0.032299034 -0.44991824 0.09316775 -0.36449033 0.06960636 -0.3558501 -0.4674656
-0.3046618 -0.4729423 0.1445224 0.16032779 0.0033854272 0.035529073 -0.4112868 0.18068121
0.21465534 -0.09047331 -0.4557662 0.043784413 -0.32715207 0.062139865 -0.3455823 -0.45522106
-0.040086266 0.08441412 0.3743639 0.21402821 -0.32788467 0.32431325 0.022031065 0.44820657
-0.18664688 -0.36860624 -0.059659936 -0.26691255 -0.13183352 -0.36223197 -0.113784395 0.094311364
-0.099405356 -0.092555426 0.43349987 0.022281568 -0.07716448 0.14273058 -0.09699104 0.26910734
-0.07993233 -0.13347377 -0.05986727 -0.068274274 0.17793332 -0.07797881 -0.22470474 -0.11023231
-0.38036394 -0.17394075 0.5148551 0.42599925 -0.3860344 0.3956054 -0.2358558 0.2687126
0.07986548 -0.41692063 -0.15068698 0.06763593 -0.08439896 -0.26100326 -0.36503476 -0.14236021
-0.1550912 -0.015194191 -0.059889946 0.29330248 -0.679904 0.5765364 -0.120528206 0.27065623
-0.17674176 -0.36749804 -0.10345213 -0.24424575 -0.3344267 -0.46214667 -0.14061558 -0.057729844
0.4846323 0.07990959 -0.3224358 -0.2466642 0.04123429 -0.0529559 0.2078103 -0.5763498
-0.06741167 0.14032778 0.052076414 -0.048403773 0.3439872 0.0023046324 0.27508444 0.039406817
0.29897892 -0.0573019 -0.079687536 0.34276167 0.017613031 -0.18080254 0.027628398 -0.32100362
-0.05252946 -0.7114326 -0.4159512 -0.45048913 -0.0929273 -0.32708028 0.5482497 -0.22451448
-0.03285072 -0.07417118 -0.04162591 -0.051809065 -0.35780054 0.2837983 -0.14485209 0.12648243
-0.09271929 0.04596706 -0.07862636 -0.14620517 -0.010434955 -0.33731675 -0.09835958 -0.05876847
0.0175565 -0.025551654 -0.11978085 -0.19104598 -0.049722996 -0.017696846 -0.08665878 -0.057874586
-0.112645715 0.12664178 0.04616325 -0.084510565 -0.30219686 -0.009913557 -0.09517766 -0.019330312
-0.4550563 -0.0034274408 0.23124442 0.07493908 -1.0349265 0.95355785 -0.04006555 0.05873366
-0.21382426 -0.14533156 0.25865102 -0.24099755 -0.16240188 -0.5223623 -0.25035375 0.15598644
0.18813397 0.3070251 -0.02085791 -0.28237894 -0.3591213 0.32435265 0.1433396 0.12503564
-0.40026957 0.070761405 0.3299093 -0.38325337 0.04814003 -0.31712964 -0.010435303 0.25451586
-0.3223117 -0.24122852 0.25605345 0.3970307 -0.2173247 0.232723 -0.32351846 0.2029249
0.1648625 -0.38195336 -0.23539634 0.07214177 -0.34432304 -0.18507925 -0.28597 -0.2515917
-0.30819353 0.06045403 0.31195495 0.33753666 -0.46098128 0.39394012 -0.07494356 0.22101898
-0.17726651 -0.2230152 0.049694654 0.00025573312 -0.37169373 -0.45496297 -0.26774415 0.09450643

encoder.rnn.bias_ih_l0 f4 [48]
00000000: ff24 533e 1d7f 623d 6b14 94bd 9d30 103d
00000010: f93b c73e 8593 e03d fd6e b6bd df1e c53e
00000020: 3ee5 a03d fc94 413f f86a 66bc 6f23 d13d
00000030: 8553 cebd 6d07 4e3d c556 803d 1d0c acbb
00000040: e90f 8fbe 4904 61be fd2d e3be 40f6 803d
00000050: 6ca2 03bf 6ef6 cdbe a803 8abd 4af9 59be
00000060: 00fa d0be b81c adbd 2570 c8bc 295a c2be
00000070: daed ffbc 9bb7 47bf 41f4 bcbd bac8 91be
00000080: cd02 0b3d 0342 12bd b552 883e a1bb da3e
00000090: e657 90be 8bf3 333e b4ea 3cbd a2c8 fe3d
000000a0: 4464 76bd 98d6 cabe 19b1 2c3d cbd2 fbbd
000000b0: 3267 e7bd 3790 89be a100 a23d 79bc 0fbe
0.20619582 0.055297006 -0.07230457 0.03520261 0.38912943 0.10965637 -0.08907888 0.38500115
0.078562245 0.7561796 -0.014063589 0.102118365 -0.10074524 0.05030005 0.0626655 -0.0052504675
-0.27941826 -0.21974291 -0.44371024 0.062969685 -0.5141971 -0.40227073 -0.067389786 -0.21286502
-0.40815735 -0.08452743 -0.024467537 -0.37959412 -0.031241346 -0.78014535 -0.09226275 -0.28473455
0.033938218 -0.035707485 0.266256 0.42721274 -0.2819206 0.17573373 -0.046122268 0.124406114
-0.060154215 -0.39616847 0.04216108 -0.12296065 -0.1129898 -0.2686784 0.07910276 -0.1403674

encoder.rnn.bias_hh_l0 f4 [48]
00000000: 0325 533e 287f 623d 6714 94bd 9030 103d
00000010: f93b c73e 8993 e03d f66e b6bd dd1e c53e
00000020: 3ce5 a03d ff94 413f e56a 66bc 6f23 d13d
00000030: 8953 cebd 6207 4e3d ca56 803d 140c acbb
00000040: e80f 8fbe 4104 61be fc2d e3be 38f6 803d
00000050: 6da2 03bf 72f6 cdbe a503 8abd 48f9 59be
00000060: fef9 d0be b51c adbd 2770 c8bc 295a c2be
00000070: cfed ffbc 9bb7 47bf 3ff4 bcbd b8c8 91be
00000080: 6bd5 a93d 181d 5e3d e8b2 053e 8578 893e
00000090: 6c5d 93be 6eea 803e aa39 0ebd f513 033e
000000a0: 2919 f8bd 1b37 d9be 481c be3d cd3a 32be
000000b0: e8ce 95bc 2879 8abe a849 803d 9b32 65bd
0.20619588 0.055297047 -0.07230454 0.035202563 0.38912943 0.1096564 -0.08907883 0.3850011
0.07856223 0.75617975 -0.014063572 0.102118365 -0.10074527 0.05030001 0.06266554 -0.0052504633
-0.27941823 -0.21974279 -0.4437102 0.062969625 -0.5141972 -0.40227085 -0.067389764 -0.212865
-0.4081573 -0.08452741 -0.02446754 -0.37959412 -0.031241326 -0.78014535 -0.09226274 -0.2847345
0.08292659 0.054226965 0.13056529 0.26849762 -0.28782213 0.25178856 -0.03472296 0.12800582
-0.12114174 -0.42424855 0.09282738 -0.17405243 -0.018287137 -0.2704556 0.06264049 -0.055956464

encoder.rnn.weight_ih_l0_reverse f4 [48, 124]
00000000: 237f 43bd b5ba 413e 1b6f 853e 2f49 bc3d
00000010: 341e 1c3e d92f d9ba b832 883d 2b02 4ebd
00000020: b6cd 313d 1e4e be3d fc21 923d 4e8f 45be
00000030: 1aa7 4bbe b10a 493e 486a 3d3e 76b5 043d
00000040: 7417 893e 947b 0b3e 67f1 54bd 27d8 9a3d
00000050: fc2b 42be 3a18 dbbd 8663 063e 801b b73d
00000060: 4303 8fbc 027c d23b 1c9d 0a3e 5f28 dcbd
00000070: 6168 a83d 5f53 86be 9e4b b9bd e502 d73d
00000080: fe40 4d3e f2c1 8fbd ad8e 833d ea44 da3d
00000090: c433 fb3d 7e79 b6bd efe2 bfbd b079 813e
000000a0: 9e2b 44be 5ef7 2c3e 5de4 15be ba6e 4bbe
000000b0: 12d5 2f3e 0de0 8a3e 996b eabc 21d9 29be
000000c0: 29db 7c3d 63e6 2bbd f4bc b33c cc45 763e
000000d0: 9a55 763e b725 f1bd 3700 263b a6de 57be
000000e0: 1f14 0a3e 3b78 a1bd 4d27 0b3e c741 c43d
000000f0: 2bc1 1ebe 7feb 47be e22f 00bd 4a36 fd3d
00000100: e586 043d 72c7 5c3e 7bc9 5abd 21ac 683e
00000110: a373 70be a678 4cbe e899 c1bc a9eb 853e
00000120: d0af 5c3e 9766 5c3e 1899 0bbe 182d 33be
00000130: 3de4 813e 8850 0cbd 9ca4 003e e930 3ebe
00000140: a506 053e ef6d 133d 2358 0cbe 7e07 8fbe
00000150: ba96 c3bc 0a76 12be 0023 b6bc 640a 003d
00000160: ba71 39bd 3772 7f3e b238 1fbd 42e5 3cbd
00000170: 375a 6b3e 0fef 023e d88d e33d 3896 60be
00000180: c6c4 f0bd 627e 2abe bfe1 613e 4330 26be
00000190: fbf4 563c 2552 e03d b718 2cbe 9552 973d
000001a0: 5f52 0dbb c93f 573e 7873 ce3c a4dd 0fbe
000001b0: af4c 83bd a458 02be 2d59 243e 6bdd 493e
000001c0: 9036 10be fd82 703e b071 b83d af91 de3c
000001d0: 9005 b6bd fcdb f2bd e461 373e d387 a3bd
000001e0: 05e9 6dbe a350 50be e2fe 3a3e 8c8c 66be
000001f0: f48a 06be 44a7 8e3e 12bd fc3d 409e f93e
00000200: 7d6a b43d edd5 b8be 124a d8be ee9b 1dbf
00000210: 0941 98be a70a 8e3e d4f9 93bd 987a a2bd
00000220: aa96 2fbf f47f 143e 1498 473e 2527 1e3f
00000230: e187 773e 8443 033f 5072 01bf f805 8abe
00000240: a92b 023b f905 dfbe 0559 233f 8e2b 46be
00000250: 4828 3b3e 0f66 2bbd 9de5 ed3e 9365 04be
00000260: 5191 003d 810a e1be c70e 163d 806f ec3e
00000270: c6a3 073f 8585 c23d a05f 8e3e 528e 243f
00000280: 9a07 003f 307b 1e3c 4339 773d ecba debc
00000290: ba6e 5fbe cfd5 2d3e bb04 39bd a128 06be
000002a0: af7e 003f c43c 2f3e 4762 a33c a1d2 1bbe
000002b0: 14f6 0b3f a838 28bf c55a 3a3d 6089 943e
000002c0: f1ad da3e 7912 b4be 986f 1e3f 2733 c3bd
000002d0: d905 bdbd d2ed 11be 491b f73c a0be 99bc
000002e0: 6c54 7fbe a242 22bf 2526 e43e a136 863e
000002f0: cf14 f3bc 8933 0e3f 1def 2fbe 4f4c 1a3e
00000300: fcbe 01bf d20f c2be e4ee 9d3d df51 193e
00000310: 4a04 a73d 8a0e 00bd 32ed bfbe 0195 48be
00000320: 7cb9 d43d dfa8 01be e0e5 e83d 2e1a 01bf
00000330: f8cf 693e b8b2 063f 3c9e c9be a5dd 90be
00000340: 8b47 e33d 952e 32be eeb3 443e 48b9 203f
00000350: a603 eebe c890 353f 758f 0fbf 80d5 c83d
00000360: 5500 133f 4ee0 953d cfd8 953d d6ba c6be
00000370: 3d08 2cbf 6837 15bf f53d e43d 8564 cabe
00000380: 8dd3 713c 1f86 3c3e 1f80 83be 2bf3 823e
00000390: 4a64 b6be e1ea 7b3e 3deb 85bb 57f9 f3be
000003a0: a02b 13bf 4c07 17bf ae54 a13d 8664 213f
000003b0: e545 323e c0ff 873d e752 223f de10 113f
000003c0: fbd6 1ebf c683 823e 0dca 063e 82cb 12bf
000003d0: 34c0 b2be 15c7 febe a03d 8c3d a925 dcbd
000003e0: e947 993c d3b6 af3e d095 2d3e 8d2d db3d
000003f0: 9f81 633e e7b7 f83c 2833 d6bc f913 a6bd
-0.04772867 0.1891888 0.2606133 0.09193646 0.15245897 -0.0016570046 0.06650299 -0.050295036
0.043409072 0.092922434 0.07135388 -0.19292948 -0.19887963 0.19632985 0.18497574 0.032399617
0.26775706 0.1362136 -0.05198803 0.07560759 -0.18962091 -0.1069798 0.13123903 0.08940792
-0.01745761 0.0064234743 0.13536495 -0.10749888 0.08223034 -0.26235482 -0.09047626 0.10498599
0.20044324 -0.07019414 0.064236976 0.106576756 0.12265733 -0.089098915 -0.09369456 0.25288153
-0.19157264 0.16891238 -0.14637895 -0.19866458 0.17171124 0.27124062 -0.02861576 -0.16586734
0.061732445 -0.04196776 0.021940686 0.24050063 0.24056092 -0.11774772 0.0025329718 -0.21081027
0.13484238 -0.0788426 0.13589211 0.095828585 -0.15503375 -0.19523428 -0.031295665 0.123638704
0.032355208 0.21560457 -0.053414803 0.22721912 -0.23481612 -0.19967899 -0.023632959 0.26156357
0.21551442 0.2152351 -0.1363262 -0.1749767 0.25369444 -0.034256488 0.12562793 -0.18573345
0.12990816 0.035993513 -0.13705496 -0.27935404 -0.023875583 -0.14302841 -0.022233486 0.03125991
-0.045274474 0.24945913 -0.03887243 -0.046117075 0.22983633 0.12786506 0.11111039 -0.21932304
-0.117562816 -0.16649774 0.22058772 -0.16229348 0.013119931 0.10953168 -0.16806303 0.07388798
-0.002156399 0.21020426 0.025201544 -0.14049393 -0.064111106 -0.12729126 0.16049643 0.1971337
-0.14083314 0.23487468 0.09006059 0.027169077 -0.0888778 -0.11858365 0.17908436 -0.07984891
-0.23233421 -0.2034326 0.18261293 -0.22514552 -0.13138944 0.2786199 0.1234075 0.48753548
0.088093735 -0.36100712 -0.4224401 -0.61566055 -0.29737118 0.27742502 -0.07225385 -0.07933539
-0.6858927 0.14501935 0.19491607 0.6177848 0.24172927 0.51274896 -0.5056505 -0.2695768
0.001986245 -0.43559244 0.6380771 -0.19352552 0.18277085 -0.041845378 0.46464244 -0.12929372
0.031388585 -0.43953326 0.036635187 0.46178818 0.52984273 0.09498123 0.2780733 0.64279664
0.500116 0.009672925 0.060357343 -0.02718874 -0.21819583 0.16976093 -0.045170527 -0.13101436
0.50193304 0.17113024 0.019944323 -0.15217067 0.5467236 -0.6571145 0.04549672 0.2901106
0.42710832 -0.35170344 0.6188903 -0.09531241 -0.09229631 -0.14250877 0.030164378 -0.018767655
-0.24934548 -0.63382924 0.44560352 0.26213554 -0.029673008 0.55547386 -0.17181058 0.15068172
-0.50682044 -0.37902695 0.077115804 0.14972638 0.08155115 -0.031263866 -0.37485653 -0.1958809
0.10386941 -0.12662075 0.1137197 -0.5043057 0.2283324 0.52616453 -0.39378536 -0.282941
0.1109763 -0.17400582 0.19209263 0.62782717 -0.4648716 0.70924044 -0.56078273 0.09806347
0.5742238 0.07318173 0.073167436 -0.3881442 -0.6720007 -0.5828767 0.1114463 -0.39529815
0.01475991 0.18410538 -0.25683686 0.25576147 -0.3562339 0.24601318 -0.0040868805 -0.4765117
-0.5748844 -0.5899551 0.078774795 0.6304401 0.17409475 0.06640577 0.6340775 0.5666636
-0.62046784 0.2549116 0.13163014 -0.5734178 -0.34912264 -0.49761263 0.068476915 -0.107493706
0.018711047 0.3431917 0.1695168 0.107020475 0.22217415 0.030361129 -0.02614744 -0.08109278

encoder.rnn.weight_hh_l0_reverse f4 [48, 16]
00000000: 60c3 aabe 5a61 bd3c d40f b13e 2e8b 6cbe
00000010: 40a4 e4be 14a6 b63e f44f 043f a5d0 9e3e
00000020: eed7 81be da56 a63e a0b2 bbbe 6642 f0be
00000030: dbad ad3e a955 d43e 8353 0dbf e36e d83e
00000040: 14a9 6a3e beb0 0abe d5b3 dcbd 1919 953c
00000050: d24e aebd b9dc 693e 30da 533e f6f4 ab3e
00000060: 920f 3a3e af7b 453e 0f95 89be 8113 babd
00000070: a959 21be 3701 953e 5937 bcbe 7994 5c3e
00000080: da94 9cbe 17a8 10be c9a5 9e3e e5ae ffbd
00000090: 98bd 6fbf a8c6 9c3e 1473 e33e 230b 9c3e
000000a0: 885c f1be 3aed a73f b320 f6be 68e8 b1be
000000b0: dc81 8e3e 7943 713f c62f 02bf a4ea c93e
000000c0: c088 763e a268 953e e8ed 82bd cefa b0be
000000d0: 07df 17bf b809 5e3e ca3d 8e3e fe0c bf3e
000000e0: 0b1a debe ea81 ed3e c483 dbbe 5460 67be
000000f0: 930c edbd ae76 b33e b4bf 32be 78d7 0b3f
00000100: 2013 ab3e 2b7b bfbe 09a6 84be ea2b 78be
00000110: 72e2 f83d bc2d 303d b412 58bd c5fb 3fbd
00000120: 1c86 b03c 1071 fb3c 41b3 433e a477 1d3e
00000130: fa73 0cbe 802d e23d e2c3 903d 8915 ecbd
00000140: 6eb3 bebe 246b 3bbe 20bc 5f3e c46e 00be
00000150: e7ed a7be fc09 353e e01b c93e 6ebb 903e
00000160: 236b 643d 949f c33e e2ba 97be e853 80be
00000170: 7e36 a33e 94da 9e3e eed4 56be df9c ab3e
00000180: d7b4 55be 02a7 553e c221 a73e e875 3dbf
00000190: 293b 3dbf c75e 163f 9d3a e93e e856 4c3f
000001a0: 6e88 18bf ad88 473f cc40 00bf cc44 e3be
000001b0: d307 943e 5646 fc3e 55c7 0bbf 74b4 513f
000001c0: 52d7 babe 01ba 67be b10e 5c3e d553 65bd
000001d0: 9303 c2be b095 b73d d527 ab3e 0841 2c3e
000001e0: 5098 5e3d 505f bd3e 9b3c 6ebe 4c65 70be
000001f0: d6fc ac3e fbf1 803e a757 47be b51f 9c3e
00000200: bb3f af3e cd74 69bd 411f 38be 0bc1 853d
00000210: db38 1d3d 96d0 473d 20d5 1c3d 4dcc 643d
00000220: de9e ae3e fc21 86bd 37d9 00be e304 203d
00000230: b604 93be 4cc7 d03e 7d5b b13d 54df f73c
00000240: 4038 7bbe 0930 21be 2905 073e 3950 97be
00000250: 4e51 dabe 36b5 1a3e 7e73 d93d d47a b7bd
00000260: 4215 b9be 5d88 ca3e 4aed 3dbe 5aaf 37be
00000270: 04e2 d53d 0798 2c3e 0d9f 26bd a941 aa3e
00000280: 78aa 6dbe e00b 9f3e 03e8 6d3e 0aaa f3be
00000290: 3154 4ebf 45aa 0f3e af8e 1cbe 17d1 79bc
000002a0: 6ee4 4bbf e0b6 2a3f bfd8 e5bb 3f7e 02bc
000002b0: 3c63 633d fdc6 e9be 190f af3e a081 9d3e
000002c0: 8951 b7be 50c6 05bf 900e 0b3f 4757 3c3e
000002d0: 01a9 e0bc 27e4 b4bd 1f04 dc3d 3aa1 a4bd
000002e0: 94b2 b03c b70f ec3d 35da fdbd 2035 b6bd
000002f0: ed4a f63e 9b0d 563e a43c 9dbd 6d12 c9bc
00000300: 8543 aabd 73fe 6abb e90e 7e3d 1e99 43bf
00000310: cf04 56bf df43 143f 78f4 8b3e c57d c23e
00000320: aea6 43bf 1979 813f 1004 c6be 6df2 b4be
00000330: beed 283d 465a d93e 4306 05bd 7040 f63e
00000340: d5cd 5dbe 96d9 de3d 5697 923e f425 e6be
00000350: e48f 5ebf af29 8c3e cf92 5b3e 9f49 8c3e
00000360: 5cd4 1fbf 5b1f 463f bcdf cbbe 0c9f 89be
00000370: 0c8c 423e 7bb7 6d3e 18d6 e4bd 48ad 493f
00000380: b42e 58bd 0501 f53d a7b0 3b3e ad84 9dbe
00000390: e03d 54bf a31a 593e 3177 943e d688 b93e
000003a0: 61e4 a8be 6cbd 2c3f 1e19 e8be 13f2 51be
000003b0: 98fd 423e 055b dc3e 52ef 6ebe ca5d 393f
000003c0: 750a 2ebc b58d e23d a17c 9cbd f3c9 9abe
000003d0: 5d25 fbbd 1878 823e b812 8c3c db63 083e
000003e0: 3951 b1be fd19 1f3e cb92 f4bc e96d 6dbd
000003f0: 282f 01be 4532 3cbe 6d3a cabd 91a9 093d
-0.33352184 0.02311771 0.34582388 -0.23099968 -0.44656563 0.35673583 0.516845 0.31018558
-0.25360054 0.32488137 -0.36659718 -0.46925658 0.33921704 0.41471604 -0.55205554 0.422721
0.2291606 -0.13543984 -0.10776488 0.018200444 -0.085111275 0.22838105 0.206887 0.33585328
0.18170002 0.19285463 -0.26871535 -0.09085751 -0.15756859 0.2910249 -0.36760977 0.21541013
-0.30582315 -0.14126621 0.3098586 -0.1248453 -0.9364867 0.30620313 0.44423735 0.30477247
-0.47140908 1.3119271 -0.48071823 -0.34747624 0.2783345 0.9424358 -0.50854146 0.3943683
0.24075603 0.2918139 -0.06393033 -0.3456635 -0.5932469 0.21683395 0.27781516 0.373146
-0.43379244 0.4638818 -0.42873967 -0.2259534 -0.11574664 0.35051483 -0.17455941 0.54625654
0.3341303 -0.37398657 -0.25907925 -0.24235502 0.12152566 0.043012366 -0.05275221 -0.046870966
0.021548323 0.03069356 0.19111349 0.1537767 -0.13716117 0.11043835 0.07068612 -0.11527545
-0.3724627 -0.1830259 0.21849108 -0.12542254 -0.32798693 0.1767959 0.3927908 0.28267998
0.055766236 0.38207686 -0.29634768 -0.25064015 0.31877512 0.31026137 -0.20979664 0.3351812
-0.20869766 0.2086449 0.32642943 -0.74008036 -0.73918396 0.5873837 0.4555253 0.7982011
-0.59583175 0.77942926 -0.5009887 -0.44388425 0.2891222 0.49272412 -0.5460103 0.81915975
-0.364924 -0.22629549 0.2148998 -0.05598815 -0.37893352 0.089640975 0.33428827 0.16821682
0.054344475 0.3698678 -0.23265307 -0.23476142 0.3378665 0.25184616 -0.1946703 0.3049294
0.3422831 -0.056996156 -0.17980672 0.06530961 0.0383843 0.048782907 0.03828919 0.0558589
0.3410558 -0.06549451 -0.12582861 0.03906716 -0.28714532 0.4077705 0.08660028 0.030257858
-0.24533176 -0.1574098 0.13185562 -0.29553393 -0.42640156 0.15108189 0.106177315 -0.089589745
-0.3614903 0.39557162 -0.1854755 -0.17937985 0.104435 0.16854869 -0.040679026 0.3325322
-0.2320956 0.31063747 0.23233037 -0.47590667 -0.80597216 0.14029796 -0.15288804 -0.015247605
-0.7964543 0.66685295 -0.0070143635 -0.00796467 0.05551456 -0.4565963 0.34191206 0.3076296
-0.35804394 -0.52255726 0.54319096 0.18392669 -0.027424337 -0.08832579 0.107429735 -0.08038564
0.021569528 0.11526435 -0.12395135 -0.088968515 0.4810404 0.20903628 -0.07677582 -0.024544919
-0.083136596 -0.003585723 0.06202594 -0.76405513 -0.8360109 0.57916063 0.27334952 0.3798658
-0.7642621 1.0115081 -0.38674974 -0.35341206 0.041242354 0.42451686 -0.032476675 0.48096037
-0.2166055 0.10881345 0.28631085 -0.4495083 -0.8693831 0.27375552 0.21442722 0.27399918
-0.6243341 0.77391595 -0.39819133 -0.26879156 0.18998736 0.23214523 -0.11173648 0.7878003
-0.052778915 0.11963085 0.18329106 -0.30765286 -0.82906914 0.21201567 0.28997186 0.3623721
-0.3298674 0.67476535 -0.45331663 -0.205025 0.19042051 0.43038192 -0.23333481 0.72408736
-0.01062261 0.11062185 -0.076409586 -0.302322 -0.12262986 0.2548225 0.01709877 0.13319342
-0.3463228 0.15537257 -0.029855153 -0.057966147 -0.12615645 -0.18378551 -0.09874425 0.033608977

encoder.rnn.bias_ih_l0_reverse f4 [48]
00000000: 8fd4 86bd 0ad7 d8bd d8fb 6bbe 49ae c23d
00000010: 01f3 683e aa49 433e 2a1a 1c3d c192 023e
00000020: 408e acbc 237b 443e 2e95 143e 026a 43be
00000030: 4a2c aa3d 3a8f dc3d 95cf 813d faba 843e
00000040: 4c74 e2be 1bdf 0fbe 0dd0 ecbe f50c 7dbe
00000050: af3e c1be fdd3 17be 184a 23bf 7556 83be
00000060: 75cd 82be c8ed ddbe b58e bdbe adad 0bbf
00000070: e240 b2be e7a2 bdbe e571 06bf 3c27 78be
00000080: 3cd4 8cbd 897e 033e 5949 483d 38e4 90be
00000090: 6ad6 28bc 268d 543e a68b 883e 040a 833e
000000a0: 54cc 323d 2adf 573e 5a8d 71be 4bba 18be
000000b0: bbe9 9ebd 8ee7 4a3e 5921 03be bd79 483e
-0.06583511 -0.105878904 -0.2304529 0.095058985 0.22748949 0.1907107 0.03811089 0.12751295
-0.021063924 0.19187598 0.14510033 -0.19083408 0.08309229 0.10769506 0.06338421 0.25923902
-0.44229352 -0.14049952 -0.4625248 -0.24711974 -0.37743136 -0.14826961 -0.63784933 -0.256519
-0.25547376 -0.43345475 -0.3702294 -0.54561883 -0.34815127 -0.37038347 -0.5251754 -0.24233717
-0.06876418 0.12841238 0.048898075 -0.28299117 -0.010305027 0.20756969 0.26669043 0.2559358
0.043651894 0.21081224 -0.23589078 -0.14914815 -0.07759424 0.19814894 -0.1280569 0.1957769

encoder.rnn.bias_hh_l0_reverse f4 [48]
00000000: 8dd4 86bd 02d7 d8bd cffb 6bbe 4bae c23d
00000010: 0bf3 683e ac49 433e 241a 1c3d c092 023e
00000020: 4c8e acbc 277b 443e 2a95 143e 006a 43be
00000030: 492c aa3d 3d8f dc3d 96cf 813d f7ba 843e
00000040: 4c74 e2be 21df 0fbe 11d0 ecbe f40c 7dbe
00000050: ad3e c1be f9d3 17be 1a4a 23bf 7556 83be
00000060: 78cd 82be caed ddbe b98e bdbe aead 0bbf
00000070: e140 b2be e7a2 bdbe e671 06bf 3f27 78be
00000080: e976 8f3c 48fa 0d3e fe64 9abd 96ae a4be
00000090: 7e0c fdbd abed 513e b200 f53d 0bb7 653e
000000a0: b348 323d abff 623e 09d6 85be 45ff 39be
000000b0: 378f 26be 8c82 d63d 3bd9 2bbd 1e1e 733e
-0.065835096 -0.105878845 -0.23045276 0.095059 0.22748964 0.19071072 0.038110867 0.12751293
-0.021063946 0.19187604 0.14510027 -0.19083405 0.08309228 0.10769508 0.06338422 0.25923893
-0.44229352 -0.1404996 -0.46252492 -0.24711972 -0.3774313 -0.14826955 -0.63784945 -0.256519
-0.25547385 -0.4334548 -0.3702295 -0.5456189 -0.34815124 -0.37038347 -0.52517545 -0.24233721
0.017512755 0.13865006 -0.07538794 -0.32164448 -0.12355898 0.2050082 0.11963023 0.22433107
0.043526363 0.22167842 -0.26139858 -0.18163784 -0.1626557 0.104741186 -0.041955214 0.23741958

encoder.fc.weight f4 [16, 32]
00000000: b4ec 763e 33ea e33d e185 16be 3ed9 a4bd
00000010: 3596 493e 222c 47be 8092 713e 6270 9d3d
00000020: 92c5 583e 67eb cf3d 550f 573e 97ec 6f3e
00000030: b978 bf3e e57f 5c3e 5c5f ad3d 7707 2b3e
00000040: 4bf9 0abc 4d7a 0bbe 6f15 a03c 9b83 113e
00000050: 0d84 f73d 50b8 02be 0ed7 f8bd cb52 1dbe
00000060: b899 163e b2f5 c9bd 7b70 e83d bbe0 ea3d
00000070: 0e72 5e3e e0dd 61be 8688 8e3c cd18 aabd
00000080: b1c5 66be 140d a1be 46b1 463e 5350 893e
00000090: bfbf 03be ad22 ca3d 2a71 8abe 7968 253e
000000a0: 8fd2 eebd 3cde 0cbe 94ac 48be b83e bfbd
000000b0: db9b b4bd 9919 fcbd faca 91be 1b75 a5be
000000c0: f3ec 2cbe 4aa4 32bc 0102 d83e 593b b1bd
000000d0: e4d0 0abe 61a0 553e 98ff c33e 793b 2d3e
000000e0: e029 fcbd 4398 c5bd d91c debb 1ca2 0abe
000000f0: eac3 a23e c19d f93d cce7 01be 0b97 b83d
00000100: 99dc 94be 4df5 6fbe 08b0 1d3e 8af5 413e
00000110: 183d f8bc 964c 163c 470e 5bbe fff2 be3e
00000120: a07a cdbc 17c2 08bd f281 50be f743 1dbd
00000130: 33da 70be 12a4 84bc 79b8 4fbe 307d 7bbe
00000140: 8913 d93c 81b1 88bd 67b3 ad3e 7d7f dc3c
00000150: 3154 6c3d eaa0 80bc a6af 26bd b383 23bc
00000160: c70b 273c 97a9 09bb d842 c43c 01dd 283d
00000170: 6fad 96ba e876 5b3d 41ac b93c 816c eabc
00000180: 2329 803e 71ff 993e 2ded 5ebe 96d7 f3bd
00000190: 7ae8 913d cf1b 8bbd 05ca 763e 7cbd 83be
000001a0: f4bd a63d e313 f23d 68ac 2f3e 5ad0 ea3d
000001b0: 2763 7c3e c7ac b83d 8a26 683e e6fb 953e
000001c0: 292f 013d 30ad b4bc 6e6f f3bd 7bfd 613d
000001d0: 59ec d73c 7dec 54bd a306 523c 8ae7 48bd
000001e0: f6c7 03bd d225 8ebd 5edf 5e3d 1a70 a23c
000001f0: dbe7 c03d ff5f 38bd dd54 c4bb 6977 debc
00000200: 21f4 adbd cd68 5a3c 5345 7f3e ce13 573e
00000210: 33b3 7ebe a0d0 813e 1d94 e5bd ebae 983e
00000220: 2300 8abe e698 87be 84d3 14be d155 95be
00000230: e037 1dbe cdb6 87be 1396 c8bd e3c0 60bc
00000240: 43c1 8ebd 99e0 573e cb92 2bbd e4f5 94be
00000250: 59c8 c0bd 9a31 833e bd27 1e3e 3712 7f3e
00000260: e7d9 00be 596c 4b3e b335 09be a957 7cbe
00000270: 473c f8bd cae6 033e 66b2 0cbe 9c93 413e
00000280: b5bf 42be bf10 21be 2449 fb3c 143b d93d
00000290: 014f 933b 0776 543c cf26 75be a8ab 1b3d
000002a0: 0052 e1bc ad3e 43bd 7e6a 9dbe 108b 36bd
000002b0: 2229 12be c745 3dbc dc42 25be 4996 3cbe
000002c0: fd72 e5be 42f9 f9bc ed7b b93e bd70 21be
000002d0: 46ae 52be af34 733e 77bb da3e 6ff2 413e
000002e0: 7465 66bd 14f0 313e c24e 6cbe 81fa 7bbe
000002f0: bc53 813e 4200 be3e da93 bebe 075d 183e
00000300: 799e e3bd 0abb bebd 9970 5e3e 7ec3 423e
00000310: ac75 26be eb86 153e 9339 debd 524f 6a3e
00000320: ba67 2dbe d64e 4bbe cd3c 0dbe f859 34be
00000330: 730f 35bd c009 1cbe 0e58 a8bd b465 97bd
00000340: 3ff7 18be 6b74 003e c5cf be3d f52f 3abe
00000350: 103d 1ebe 892d 553e 4917 143e 2e08 4b3e
00000360: 82d9 07be 4761 343e 44e8 11be 77b8 38be
00000370: 4299 023d 7a51 1a3e 7ff3 f6bd c489 3e3e
00000380: 66b6 ea3d 1d56 7dbd 908d 5cbe 73f8 28be
00000390: 7d3c 7e3e 8d62 81be 1c75 8d3d e76b adbe
000003a0: 859b 883e 3e28 4a3e 9327 323e 8260 5d3e
000003b0: 1fb0 fd3d 8386 653e 9a7d a83d 9ff4 d7bc
000003c0: 30dd d13c 7d18 0bbe 2443 6d3d 25f3 483e
000003d0: 3608 6c3d aa0b 45be bc0d 9ebd 8261 4cbe
000003e0: f4f9 d13d 49d2 38be 44fd ad3d 3f5f 273e
000003f0: 1ab9 0d3e ac7f e8bd dcfd ac3d 1e4f 02be
0.24113733 0.11128654 -0.14699508 -0.08049248 0.19686206 -0.19450429 0.23591042 0.07687451
0.21169117 0.10152321 0.21001942 0.23430096 0.37396792 0.21533163 0.08465454 0.16702066
-0.008482288 -0.13620873 0.01954147 0.1421036 0.120857336 -0.12765622 -0.121503934 -0.15363614
0.14707077 -0.09861316 0.11349579 0.11468645 0.21723196 -0.22057295 0.017399084 -0.083055116
-0.22536351 -0.3145529 0.19403562 0.26819095 -0.12866114 0.09869895 -0.27039462 0.16153134
-0.116612546 -0.1375665 -0.19597083 -0.093381345 -0.088187896 -0.1230957 -0.2847517 -0.32315907
-0.16887264 -0.010903427 0.4218903 -0.08653898 -0.13556248 0.20861961 0.3828094 0.16917218
-0.123126745 -0.09648182 -0.0067783413 -0.13538402 0.31790096 0.12188292 -0.1268608 0.09013184
-0.29074553 -0.23433419 0.15399182 0.18941322 -0.03030257 0.009173533 -0.21392165 0.37294766
-0.025082886 -0.033388223 -0.2036207 -0.038394894 -0.23520736 -0.016191516 -0.20285214 -0.24559474
0.026498573 -0.06674481 0.33925936 0.02691626 0.05769748 -0.01570173 -0.040694855 -0.00998013
0.010195679 -0.0021005624 0.023957655 0.04122639 -0.0011495779 0.053580195 0.022665145 -0.028616192
0.25031385 0.300777 -0.21770163 -0.11906354 0.071244195 -0.067924134 0.24100502 -0.25730503
0.081416994 0.11820199 0.17155612 0.11465521 0.24647199 0.0901733 0.22670951 0.29293746
0.031539116 -0.022055238 -0.11886488 0.05517338 0.026357817 -0.051983345 0.012818965 -0.049048938
-0.03217312 -0.069408074 0.05441224 0.019828845 0.09419223 -0.045013424 -0.005991562 -0.027156549
-0.084938295 0.0133306505 0.24928789 0.21003649 -0.24873047 0.2535448 -0.11209891 0.29820952
-0.2695323 -0.2648384 -0.14533812 -0.29167035 -0.15353346 -0.26506653 -0.097942494 -0.013717863
-0.069704555 0.21081771 -0.04188804 -0.2909385 -0.09413213 0.2562378 0.15444846 0.24909292
-0.12583123 0.1986555 -0.13399391 -0.24642815 -0.12120872 0.12881008 -0.13739929 0.18903965
-0.19018443 -0.15729044 0.030674525 0.106069714 0.004495502 0.012967593 -0.23940586 0.0380055
-0.027504921 -0.047667194 -0.3074531 -0.044566214 -0.14273503 -0.011552281 -0.16138786 -0.18416704
-0.44814292 -0.030514363 0.3622736 -0.15765662 -0.20574293 0.23750566 0.4272115 0.18940137
-0.056249097 0.17376739 -0.23076919 -0.24607278 0.25259197 0.37109572 -0.37222177 0.14879237
-0.11114211 -0.093130186 0.2172264 0.19019887 -0.16255826 0.14602248 -0.10850825 0.22881821
-0.169341 -0.19854292 -0.13792725 -0.17612445 -0.044204187 -0.15238094 -0.0821992 -0.07392445
-0.14938067 0.1254441 0.09316973 -0.18182357 -0.15452981 0.20818152 0.14462008 0.19827339
-0.13266566 0.17615233 -0.14248759 -0.18039118 0.03188444 0.15070143 -0.12058162 0.18607241
0.11460571 -0.061849702 -0.21538377 -0.16501026 0.24827762 -0.252705 0.069071025 -0.33871385
0.26681152 0.19741914 0.17397909 0.21618846 0.12387108 0.22414593 0.082270816 -0.026361762
0.025618166 -0.1358356 0.05792536 0.19624002 0.057625018 -0.1924273 -0.077174634 -0.19959071
0.10252753 -0.18048967 0.08495572 0.16344927 0.13840142 -0.113524765 0.08446857 -0.12725493

encoder.fc.bias f4 [16]
00000000: c0b2 3dbe 7c02 513d cd1b 0f3c 7329 b3bd
00000010: bd10 593e 0b53 7b3d dc05 033e b244 3fbe
00000020: c769 943d 9bff 0f3e cc44 a63b 6ac9 bfbd
00000030: 2e4e 73bd 5889 4c3e 416d 3c3d a0fa f53d
-0.18525219 0.05102776 0.008734656 -0.0874814 0.21197791 0.061358493 0.12795204 -0.18678549
0.07246738 0.1406235 0.005074119 -0.093645886 -0.05940073 0.19974267 0.04600263 0.120106936

decoder.attention.attn.weight f4 [16, 48]
00000000: fdae 243e 5fd7 b83d e439 4f3e 21f7 9abc
00000010: e47f 843e 3dca 9d3e d15f dd3e c6a0 ccbe
00000020: fb38 6a3f 8cc1 dc3e 6a89 00bf 1e05 473e
00000030: 8e17 103e 1ad7 2d3f 9b06 973f be92 3abe
00000040: 89fc b5bd 8b56 913e 7e40 763e d745 123f
00000050: 4973 adbd c2f2 243e f78c 573e fc4c a1be
00000060: f810 d6bd b6b3 d2be 4481 673e d2c8 f0bc
00000070: ff1c 693e 473a 53be 27a3 5a3e 30f5 793e
00000080: 659b 343e d3aa c43e 77af a3be a08c f7bd
00000090: 039a acbc 3a42 04bb de31 e8bc 6ead c6bc
000000a0: ad54 98be 9592 0cbd 3324 1a3d 7919 c53d
000000b0: 7fd5 febd 623b cfbd b8c5 093d 7b39 aabb
000000c0: 0f25 d83e 319a 54bf 08bd 37be 8f27 f03e
000000d0: caef 17bf ec1b c6be 12aa 0fbf 80f7 de3e
000000e0: 8816 373d ddee 12bf 8d55 1b3f c688 273e
000000f0: 1a07 123f 4b11 5cbf 2922 a7be 40c5 81be
00000100: f6a5 20bf 25ba dabe 95df 973e 0c16 f23e
00000110: bd77 afbd f6c8 193e 83c6 8ebe d0b3 f73e
00000120: 1927 513c fe34 efbe d55f 40be 2400 c5bc
00000130: 7924 8ebe c51a f23c 3569 b3be 8504 ccbe
00000140: f5fe 493e 20cc 7ebd a283 0ebe a877 0f3e
00000150: 0302 2e3d 837e 00be 36d2 82be 09b7 1ebe
00000160: ed94 1c3e 08a3 d5be d75c 803e fc87 f03d
00000170: 6596 5ebe 59f4 00be d8dc b33c 36a5 f9bc
00000180: 6d54 ae3e f9d5 8b3e a4e4 c5be c348 283d
00000190: 3d0d d53e 43f4 873f a397 9d3f 2f91 aebe
000001a0: 0f9a abbe d320 673e f8bb b2bf ca5c a03e
000001b0: cfd8 6d3e 54de 993f ce45 db3e 7431 6cbe
000001c0: a36a b23d 5fb3 9f3d 3e1a 25bd df3d cdbc
000001d0: 9a27 233d 1490 43bc cfdb 653d 9e7a eabd
000001e0: 3874 bc3c b2f6 973d 362a de3c 794b 79bb
000001f0: 4411 5b3e cc94 dfbd daa3 d53d d7b1 853d
00000200: c21b 08be 5ea9 953e da89 6cbe 8a2d 21bd
00000210: 1101 413d 3897 d1bd aec1 1abe 6c21 b2bc
00000220: 3618 383c 4e08 0ebe de9c ce3d 3eb6 dfbc
00000230: 367e bbbd 8b0c 50be be91 e03b 005b a5bc
00000240: f9c3 9a3e d7d7 c33e d798 a4be 793d 303d
00000250: 084b 2d3f 7e42 863f bed3 3a3f 2477 d3be
00000260: 705f 723d cd6c 053e b441 92bf c5b5 873e
00000270: 9926 1f3e 1c3c 853f 597e 323f 63c3 37be
00000280: d9d9 38be 5d31 03bd b852 473e 28df 0e3e
00000290: 2880 c03d 3240 c3ba 66b2 dcbd 86d7 193d
000002a0: ca18 f23c 9587 e9bc 17c3 a9bd 6828 a43d
000002b0: 405c 09bf f17a 7bbd 67b3 57bd dfa9 bcbc
000002c0: 61df e93d f303 b23e 02a1 05bf 1129 bfbc
000002d0: 88d3 b93d e177 00be a3bd 39be 0627 10be
000002e0: 3c35 edbd 60c4 64bd b9f6 063e 4812 1e3e
000002f0: 791e 17bf dda0 3dbe 8471 103e e437 1fbe
00000300: 0fcf 8d3e ef44 2f3f 5a40 c9be 08d7 383d
00000310: 689a 433f a90b 563f fdfe 123f 6d1c a3be
00000320: 1bd4 063f 3ce7 c03e 6a6f 74bf 02e6 0d3e
00000330: 334e 893e 6c93 6a3f 2a1a 2a3f 79ba 00be
00000340: 8635 ccbe ae81 cabd edde 5b3e ecdc 183e
00000350: f2ca b43d e646 7c3d 02e2 98be 38d7 b93e
00000360: 3f2a 0a3d 9882 b1bd 1037 2dbe 6579 f13d
00000370: d12a 4abf 45cd 4bbd e361 5fbe 888e f4bd
00000380: cd1d e43d 6e60 b63e 92e9 acbe 265d 7fbd
00000390: 6f79 a33c 1289 f0bd 5a5d 62be 0495 0fbe
000003a0: 9003 9bbd f38b 05be f77d a63d 791d 253e
000003b0: db4a 08bf eb13 5abe fa1a 4a3e 6e02 afbd
000003c0: 34ad 1c3f 7346 873e 3703 04bf 3e4e 083d
000003d0: ede7 153e 2672 7f3f de9d 003f 7904 5a3d
000003e0: 8e09 2cbd 0b1f b03d 896c 51bf 0e5b 8c3e
000003f0: b110 1b3f 4b8c 173f d26d 903e fbab 8fbe
0.16082378 0.09025454 0.20236927 -0.018916668 0.25878823 0.30818358 0.43237165 -0.3996641
0.91493195 0.43116415 -0.5020968 0.19435546 0.14071485 0.67906344 1.1798891 -0.1822004
-0.08886058 0.2838634 0.2404804 0.5713782 -0.084692545 0.1610823 0.21049868 -0.31504047
-0.10452455 -0.41152734 0.22607905 -0.029392634 0.22764967 -0.206277 0.213513 0.24409938
0.17637403 0.3841158 -0.31969807 -0.12087369 -0.021069532 -0.0020181076 -0.028344091 -0.02425262
-0.29752102 -0.03431948 0.03763218 0.09623999 -0.12443065 -0.10118748 0.033635825 -0.0051948405
0.42215773 -0.8304778 -0.17943203 0.4690518 -0.59350264 -0.38693178 -0.5611888 0.43548203
0.04469922 -0.57395726 0.60677415 0.16360769 0.57042086 -0.85963887 -0.3264325 -0.25345802
-0.62753236 -0.42720142 0.29662767 0.47282445 -0.0856776 0.15018067 -0.27885827 0.48379374
0.012765669 -0.46720117 -0.18786557 -0.024047919 -0.277622 0.02955378 -0.35041204 -0.39847198
0.19726165 -0.062206388 -0.13917401 0.14010489 0.042482387 -0.1254826 -0.25551003 -0.1549951
0.15291186 -0.41725945 0.2507083 0.11744687 -0.21737058 -0.12593211 0.021955892 -0.030474287
0.34048787 0.27311686 -0.38651 0.041085016 0.41611663 1.0621418 1.2311901 -0.3409514
-0.33515975 0.22571115 -1.3963614 0.31320792 0.23227237 1.2020974 0.42826694 -0.2306574
0.087117456 0.07797884 -0.04030823 -0.025053916 0.03983269 -0.011936206 0.05611783 -0.114491686
0.023004636 0.074201 0.027119737 -0.003803937 0.21393305 -0.109170526 0.10431643 0.06528061
-0.13291839 0.2923078 -0.23099461 -0.03935007 0.047120158 -0.10233921 -0.15112945 -0.021744452
0.011236241 -0.13870355 0.10088514 -0.02730858 -0.09154932 -0.20317285 0.0068533113 -0.020184994
0.3022764 0.3825061 -0.32147858 0.043027375 0.67692614 1.0489042 0.7297934 -0.41301835
0.059173048 0.13029785 -1.1426301 0.26505867 0.15542068 1.0408969 0.6972404 -0.17945628
-0.18051852 -0.0320295 0.19465148 0.13952315 0.09399444 -0.0014896451 -0.10776214 0.037559055
0.029552836 -0.028507033 -0.082891636 0.080155194 -0.5365639 -0.061396543 -0.052661326 -0.02303022
0.11419559 0.34768638 -0.52198803 -0.023335012 0.090735495 -0.1254573 -0.18138747 -0.14077386
-0.11582419 -0.05585134 0.13180055 0.15436661 -0.5903087 -0.18518396 0.14105803 -0.15548664
0.27697036 0.6846456 -0.3930691 0.045126945 0.7640748 0.8361154 0.5742033 -0.31857625
0.526674 0.37676418 -0.95482504 0.13857272 0.26817474 0.916312 0.66446173 -0.12571134
-0.39884585 -0.09888016 0.21471758 0.14928025 0.08827771 0.06159105 -0.2985993 0.3629701
0.033731695 -0.08667487 -0.16915536 0.11790732 -0.7897158 -0.049756307 -0.21814685 -0.11941248
0.111384965 0.35620445 -0.3377195 -0.062344693 0.019955365 -0.11744894 -0.22105923 -0.14021689
-0.07569039 -0.13041668 0.08129495 0.16124524 -0.5323922 -0.2129666 0.19736853 -0.08545385
0.61201787 0.26420936 -0.51567405 0.033277743 0.14639254 0.9978355 0.50240886 0.05322692
-0.0420013 0.08599671 -0.81806237 0.2741322 0.60572344 0.59198445 0.28208786 -0.28060898

decoder.attention.attn.bias f4 [16]
00000000: 6827 97be 309b 04be f2b8 babe f684 abbe
00000010: dfd6 a2be 15d7 98be ba92 243f d758 2b3f
00000020: 657c 9a3e df4b 86be 8c10 8e3e 0d75 e1be
00000030: 3ab2 2e3f 9272 42bc e42b b13e 0987 8dbe
-0.29522252 -0.12949824 -0.36469227 -0.3349988 -0.3180456 -0.29851595 0.64286387 0.66932434
0.3017303 -0.2622976 0.27747 -0.44034615 0.682407 -0.011868136 0.34603798 -0.27642086

decoder.attention.v.weight f4 [1, 16]
00000000: e02d eabe e35b 443f c972 80be 9b3a d0be
00000010: af64 d7be ff65 d0be f4a4 893e 910a c63e
00000020: d56a d73e 696a bcbe 3ee6 213e 21e8 07bf
00000030: a51e 9c3e 5944 36bf 0b5b 933e 89bd d8be
-0.45738125 0.7670271 -0.25087574 -0.40669712 -0.42069003 -0.40702817 0.26883662 0.38679937
0.42073694 -0.36799935 0.15810487 -0.53088576 0.3049213 -0.7119804 0.28780398 -0.42332104
