agl/models/autosave/new-AE-124-16-0.001-B12.pt (torch, 113900 bytes, 21 tensors)

encoder.embedding.weight f4 [8, 124]
00000000: a3a0 6ebc d2eb cebb 07d9 a23b 9703 973c
00000010: 696d c13b f0ef 12ba e760 27bb 1c93 98bb
00000020: 20ac c33b 4120 373c cbf4 763b 7be4 233c
00000030: 0fcc 013c 3c94 c9bc 3924 a5bb d3b6 053c
00000040: f61f 0e3c 70c5 0b3c c0ba edbb 09d4 49bc
00000050: f179 17bc 16bb 0c3b cde3 28ba 40f5 373b
00000060: 0936 59bc 7b58 a5bb 1bbf 073c 4e87 753c
00000070: 253e 31bc ecd0 4fbb 171e 4d3a 1382 aa3c
00000080: 39b6 61bb ab77 d53b 4fd2 f239 065d 22bc
00000090: 6afb 9b3c 5db9 6cbb e114 34bb f98b a0bb
000000a0: e768 1abc 331c 8cbc a0d5 82bb 043b e73b
000000b0: 8ef2 24bc fb2b 073b d08a 9f3c cb86 033c
000000c0: 2a29 a33c 9922 3a3c 7215 ff3a 9834 fc3b
000000d0: ea9d b53b f0cd f93a 61d5 e63b 3a19 9b3c
000000e0: 8f26 2d3c 6204 093b 0463 623c 4931 c4bb
000000f0: f637 9cbc 2c38 0bbc 6218 a33b e196 ba3b
00000100: 620a 7e3b a43a 38bc ae52 41bb ce95 11ba
00000110: 975e 8bbb d928 62bc ab21 613a f8fb b03a
00000120: a644 11bc 0942 21bc dfc0 843a dda8 d33b
00000130: 8f58 5e3a ca3a 0f3c c044 40bb 9ef1 1d3b
00000140: 411b 573c 374a 013c bd41 263c 2e4a a8bc
00000150: 74fe 7aba 29f3 f53b 9392 333c dc2d 603b
00000160: 9c2f dcbb 8349 79bc 2316 6a3c 7009 5dba
00000170: c595 51bb cb9e 5c3c 254e 083c df75 8a3b
00000180: 4a4c 2fbb 5ee2 283c 6e7b d03b 99f8 00bc
00000190: 0255 ab3b 623b 05bc 13b0 c0ba c20c 1d3c
000001a0: 15fc 353b 4ba6 dc3b 62cc 7eba f38c 7f3b
000001b0: fc7c bb39 b1ba 91bb 80b3 703c 7b3f bc3b
000001c0: 245f e2ba 6bfb 163c 1256 08b9 b7ef 6d3b
000001d0: 3969 823c 979a 55b9 9518 cc3b 68b3 8d3a
000001e0: c013 073c 7911 833b d958 23bc 9f46 19bc
000001f0: 05ca ec3b 6a1b 243e 84c8 1ebd 3483 11bd
00000200: a212 43bc 3a14 9dbd f908 943c 6484 b43d
00000210: d0a8 273d 1712 f2bc b123 8ebc fd36 7cbc
00000220: 5103 7f3b e6a9 8cbd 02bd 17bd d5a9 dd3c
00000230: 7842 78bc 1a4c 7a3d b31a 073e 1aed 033c
00000240: e7cf c2bd c40e b23b e2c2 d9bc 564e 0bbb
00000250: 3462 4fbc 2196 d33b e5ff 3e3d 4197 28ba
00000260: 6087 6f3d 83a7 bfbc b42f 80bc 84cf 5b3d
00000270: c75e 053b c648 c83d ad59 97bc d338 b3bb
00000280: 4649 c73c f0e2 7539 0ad1 ba3c ad68 3ebc
00000290: eebb dbbd 3a4f 96bc 45a6 8cbc d9e1 14be
000002a0: 2255 d43b b70b a43c a6d4 8d3b e9b8 103c
000002b0: 74b7 b9bc 58e2 743c 6890 4c3c 9814 083d
000002c0: b2bc 64bc 41d0 203d 10de 23bd bf99 cd3d
000002d0: 3046 ad3d 7645 dfbc 0bf3 98bd bab8 89bd
000002e0: 7b26 0bbb b9da 0abc 1409 d1bc 09fa 5f3c
000002f0: 8444 923d 6e95 153c 9db5 943c 230c 6e3b
00000300: 8c5a 72bd 68b3 0dbd b6ac 983d 1eec 40bc
00000310: f577 2b3d 7104 a83d dbf1 d8bc e806 a83d
00000320: ae56 1dbd e1a8 15bc c28c 813d 5cb0 22bd
00000330: b479 46bc 6c96 ee3d 0626 08bd 5850 2e3e
00000340: b9d8 0d3c 5e3a 73ba e839 59bd ebbb 3cba
00000350: c1c9 c03b 33d3 2d3d 60db 9abd 101d a5bb
00000360: 836d 99ba c733 1f3e a7aa 9f3d 4753 32bd
00000370: 0115 f13c 5036 c6bb 67bb 2cbb 4546 5b3c
00000380: f210 633d 141a 39be 2c97 f4bd 8f90 28bd
00000390: c995 51ba 32f6 12bb 0022 1cbc 7674 8c3c
000003a0: 3668 ba3d 88b2 d9bc 0e67 49bb 0a2c 2cbd
000003b0: 2cf4 553d 0a68 82b9 b0e7 79bc 565e 00bd
000003c0: a5c1 49bc 06e8 5ebc 922b 403d 5940 87bd
000003d0: b9f5 453d 13eb 82bc d34a 483b 670b 19bc
000003e0: e64d e13d 68f7 773d 5f3b 14be d7d1 a13e
000003f0: 6d0a 0cbe 8ee2 32be 5892 dd3e ea67 563e
-0.014564666 -0.006314733 0.0049697193 0.018434329 0.0059029353 -0.00056052115 -0.0025539936 -0.0046562087
0.0059714466 0.0111771235 0.003768253 0.010003204 0.0079221865 -0.024606816 -0.0050397185 0.0081612645
0.008674612 0.0085309595 -0.0072549284 -0.0123186195 -0.009245382 0.0021473817 -0.00064426364 0.0028069764
-0.013257512 -0.005045948 0.008285309 0.014985872 -0.010818039 -0.003171022 0.0007824613 0.020813977
-0.0034440889 0.0065145097 0.0004631453 -0.009909874 0.019040782 -0.0036121227 -0.0027478265 -0.0048994985
-0.009424425 -0.01710329 -0.0039927512 0.0070565958 -0.010067595 0.002062558 0.01947537 0.008027743
0.01991709 0.011360788 0.0019461347 0.0076966994 0.0055425065 0.0019058567 0.0070444797 0.018932927
0.010568275 0.0020907153 0.0138175525 -0.0059873206 -0.019069653 -0.008497279 0.004977272 0.0056942557
0.0038763513 -0.01124445 -0.0029498744 -0.00055536337 -0.0042532193 -0.013803684 0.0008588086 0.0013502827
-0.008866465 -0.009842404 0.0010128281 0.006459339 0.0008481824 0.008742044 -0.0029337853 0.0024100314
0.013129056 0.007891229 0.010147509 -0.020543184 -0.00095746596 0.0075057936 0.010960239 0.0034207022
-0.0067195427 -0.0152152805 0.014287504 -0.0008431887 -0.0031980139 0.013465594 0.008319412 0.004225477
-0.0026748353 0.010307876 0.00636237 -0.00787177 0.0052286396 -0.008131834 -0.0014700912 0.009585561
0.002776866 0.006733691 -0.00097197865 0.0038993924 0.0003576054 -0.004447304 0.014691234 0.005744872
-0.0017270786 0.009215216 -0.00013002034 0.0036306211 0.015919315 -0.00020370852 0.0062285163 0.0010810914
0.008244455 0.0039998856 -0.009969913 -0.009355216 0.007226231 0.16026083 -0.038765445 -0.035525516
-0.011906298 -0.076698735 0.018070685 0.08814314 0.040932477 -0.029549642 -0.017351003 -0.01539397
0.003891189 -0.06868343 -0.037045486 0.027058521 -0.015152566 0.061107732 0.13193779 0.008052135
-0.095123105 0.005433889 -0.026582185 -0.0021256409 -0.012657691 0.0064571057 0.04663076 -0.000643123
0.058478713 -0.023395305 -0.015647747 0.0536647 0.002035068 0.097795054 -0.018475378 -0.0054694205
0.024326932 0.00023449562 0.022804756 -0.011621636 -0.10729204 -0.018348325 -0.017169127 -0.14539279
0.006479875 0.020025117 0.004328328 0.0088331485 -0.022670485 0.014946543 0.012485601 0.033222765
-0.013961004 0.039261106 -0.040006697 0.1003909 0.08460653 -0.027254801 -0.07468232 -0.06724687
-0.0021232653 -0.008474999 -0.025517024 0.013670453 0.071419746 0.009129865 0.018153006 0.0036323152
-0.059168383 -0.034594923 0.07454817 -0.011775045 0.041862447 0.08203972 -0.026482513 0.08204442
-0.038412742 -0.009134502 0.063256755 -0.03971897 -0.012113977 0.116497844 -0.033239387 0.17022836
0.008657628 -0.0009278412 -0.05303374 -0.0007199633 0.005883426 0.042437743 -0.07561374 -0.005038865
-0.0011705611 0.15547095 0.07796221 -0.04353645 0.02942896 -0.006048955 -0.0026356818 0.013383453
0.055436082 -0.18076354 -0.11942896 -0.041153487 -0.0007995037 -0.0022424576 -0.009529591 0.017145377
0.09101908 -0.026574388 -0.0030731591 -0.042034186 0.052234814 -0.00024873047 -0.0152529925 -0.031339966
-0.012314235 -0.013605123 0.046916552 -0.0660407 0.048330043 -0.015981233 0.0030562177 -0.009341097
0.11001186 0.06053868 -0.14475773 0.31605408 -0.13675852 -0.17469236 0.43275714 0.20938078

encoder.rnn.weight_ih_l0 f4 [48, 124]
00000000: 4ae4 c5bc 4eff b9bd 5791 673d 5e02 923e
00000010: 4515 81bc ae25 3c3e e255 10bd 3187 d23c
00000020: f2b8 e93d f5ea 7ebe 2b9b 6d3e 57ba 8a3d
00000030: c428 98bb b214 033d 3576 7d3c 9321 c43c
00000040: 5899 5fbd 262d b4bd 2967 06be 04fc 74bc
00000050: 17e0 c33c 0eb3 2e3e c8fe 95bd 6142 fa3b
00000060: a7c2 223d 7395 2bbe ff27 0fbe be0f 9abd
00000070: 167d 22be 2c90 65bd 9f66 36bb b2bc 323d
00000080: 9717 20bd 60bb 0ebe 653e bd3d 40bf 7f3d
00000090: c817 ef3c 49a9 b7bc 2078 36be a799 9e3c
000000a0: 52dd 15bc b16d 2a3e 0404 a23d e48b ba3d
000000b0: 244b f3bd 66c3 043d 48f7 3cbe 2b89 92bc
000000c0: 3905 7d3e 259b 4b3e fdd2 363d 02ca 12be
000000d0: 1695 023e 38f3 7abd 3c5f 3f3e 7a83 4bbe
000000e0: cbca 59bd bd97 adbd 3e63 24bd 8528 12bd
000000f0: fb6f 28bd 4ed3 b8bd 9aac cb3c 77a9 33be
00000100: f76f 02bb c477 2ebe b1ac 493e 01e0 82be
00000110: 4b12 69bd 5d62 833e e4ed 3a3d dc13 163e
00000120: 4984 0bbd b557 683d 883d 7b3e 70de 973d
00000130: 135b 3bbd a278 8dbd cfe6 2b3d f5fc f0bd
00000140: 59e2 a83d d5fa fbbd 7666 80bd 70f7 cfbd
00000150: 68ea 223d 9148 a43d 71a5 053e 8301 bf3d
00000160: f1b1 b93d 74ca 77bd 1ce1 833b 5843 79bd
00000170: 36db 29bd 8d13 f5bd 894b f8bc a98a 173e
00000180: c09b 22be 01a0 85bd d820 2bbc 4499 2bbe
00000190: f754 26bc 88f9 6c3e 501d fb3d 90b2 d9bd
000001a0: c6a4 2f3d 877f 263d f76a 18be d8af 4ebe
000001b0: 371e 1abe d8dc cd3d dac9 b73d 8c4b cbbd
000001c0: 0059 393e b0af 983c 2f28 0f3e 1789 af3c
000001d0: 2502 b33c ba32 08bd 0ddf e0bd 7f27 b53d
000001e0: 7580 1e3d 8c1a 993e 6116 c4bd cabb 84bc
000001f0: 4fbb 9c3e 19ba 233d d099 efbd 3e69 683e
00000200: 848b f33d f97d 473c 2b51 063e 7679 5abd
00000210: 39cf 93bd 8457 63be 98e0 743e bbea 8b3e
00000220: 25cd 123e b429 773d 345e bcbe 17f9 bbbe
00000230: 0fac 37be b917 21be 7284 9d3d 238c d93e
00000240: 942b 793b e972 0f3e 21f6 23be fc01 64be
00000250: c29d 09be 161c fbbe 5631 a0bd e6a9 433e
00000260: 5448 79be e188 7bbe 1440 84be 138b a9be
00000270: ee19 08be 34a2 233d ba83 963d dd1d 6a3c
00000280: f73e a53d cb9b 663e df40 bfbe e56b 223e
00000290: e311 9e3d f1e6 ae3e 7594 08be dec7 4f3e
000002a0: ecf3 933e 0696 fc3c 4001 40bd ff97 cb3c
000002b0: 8f1e 2d3e 2a37 f13d 8e13 123e 2e3a a53d
000002c0: 0b7c 1d3e 9e3f 773d eb37 983e da55 973d
000002d0: 19c8 bbbd aeec 3ebe 25f4 46be 90e9 67be
000002e0: 3b38 803e cd3e 2cbe d057 d4bd 91e2 ddbe
000002f0: c1fe 32be 342d 33be d5d2 063e ea41 7fbe
00000300: 77d5 f53d d5c8 9d3e dc77 633e 28ef 74bc
00000310: 78c2 893e 044d 72bd ddf3 303e 878d 213e
00000320: fedb 50bc 646d c13d 58eb 503e 1e26 c6be
00000330: 96e3 3f3e 2243 14be 1c9b abbd fef2 743e
00000340: 9f84 fd3d cc1c d43e d152 24be 102f ff3d
00000350: decb fb3d bf20 573d 8ab0 20be faa5 4c3d
00000360: 6c43 cabe 93e6 b03d 718d ce3c 9cd3 a03e
00000370: 1e60 1a3d ea6d fabd cce9 963d 0c38 31be
00000380: 5c9b bb3e 7d0f 27bd 5df1 133e f1bf 98bc
00000390: 25db bcbe 8731 76bd ba5c 02be cbd9 63be
000003a0: 8535 5cbe e431 1ebe 8b92 78be 8379 7fbc
000003b0: 6176 af3d ac2f 7abd 2d58 b9bc f3ca e33c
000003c0: f114 6dbe 1362 8b3e 9988 a1be d9cc e3bd
000003d0: 6445 6a3e 0801 813e f913 28bd 8a9d c0be
000003e0: bbfb e63c 01bd 5fbd fb03 bf3b 399c 473d
000003f0: 07b3 b13c bf70 753c 6f13 f23c ed59 b73d
-0.024156708 -0.09081899 0.05653509 0.2851743 -0.015757212 0.18373749 -0.035238154 0.02569923
0.11412229 -0.24894316 0.23203723 0.06773823 -0.0046435315 0.03200216 0.015470077 0.02394179
-0.0545896 -0.08797674 -0.1312529 -0.014952663 0.023910565 0.17060491 -0.07323986 0.0076373075
0.039736416 -0.16756229 -0.13980101 -0.07522534 -0.15868029 -0.056045696 -0.0027832163 0.043636985
-0.039084997 -0.13938665 0.092404164 0.06243825 0.029186144 -0.022419589 -0.17819262 0.019360377
-0.009147005 0.16643406 0.07910922 0.09108713 -0.11879566 0.03241291 -0.18453705 -0.017887672
0.24709024 0.19883402 0.044634808 -0.14334872 0.12752184 -0.061267108 0.18688673 -0.19874373
-0.053171914 -0.084762074 -0.040133707 -0.035683174 -0.041122418 -0.09024678 0.024862576 -0.17545114
-0.0019903162 -0.17037874 0.19694783 -0.25561526 -0.05690221 0.25660983 0.045637026 0.14656013
-0.034061704 0.05672427 0.24535191 0.074154735 -0.045741152 -0.069077745 0.041968163 -0.11766998
0.082462974 -0.12303702 -0.06269543 -0.10154617 0.03977433 0.080216534 0.13051392 0.0932646
0.09067143 -0.06049581 0.004024638 -0.06085524 -0.04146882 -0.1196662 -0.030309455 0.14798988
-0.15879726 -0.06524659 -0.010444842 -0.16757685 -0.010152093 0.23142064 0.1226145 -0.10629761
0.04288175 0.040648963 -0.14884554 -0.20184267 -0.15050589 0.10051888 0.08974047 -0.09926519
0.18100357 0.018638462 0.13980173 0.021427674 0.021851609 -0.0332515 -0.109800436 0.08845424
0.038696725 0.29903066 -0.09574581 -0.016202826 0.30611655 0.0399724 -0.11699259 0.22696397
0.11891845 0.01217603 0.131169 -0.05333849 -0.07217259 -0.22201353 0.239138 0.27327523
0.14336069 0.060342506 -0.3679062 -0.36713478 -0.17936729 -0.15731706 0.076912776 0.42489728
0.003802036 0.14008678 -0.1601186 -0.22266382 -0.13439086 -0.49044865 -0.0782191 0.1910778
-0.24343997 -0.24563934 -0.25830138 -0.33113918 -0.13291141 0.03994961 0.073493436 0.0142893465
0.0806865 0.22520368 -0.3735418 0.15861471 0.07718255 0.3416057 -0.13337882 0.20291087
0.28897035 0.030833255 -0.046876192 0.02485275 0.16906188 0.117781 0.14265272 0.080677375
0.1537935 0.060363404 0.29730162 0.07389422 -0.09169025 -0.18644974 -0.19429071 -0.22647691
0.250429 -0.16820832 -0.103683114 -0.4333692 -0.17479993 -0.17497712 0.13166364 -0.24927488
0.12003606 0.30817285 0.22213691 -0.014949597 0.2690618 -0.05915548 0.17280526 0.15776645
-0.012747763 0.09444693 0.20402277 -0.38700956 0.18739161 -0.14478734 -0.08379194 0.23920819
0.12378811 0.4142822 -0.16047217 0.12460148 0.12294744 0.052521463 -0.15692344 0.049962975
-0.39504564 0.086377285 0.025213929 0.31411445 0.03768932 -0.12227996 0.07368812 -0.17306536
0.36641967 -0.040786255 0.14447542 -0.018646212 -0.36885944 -0.060105827 -0.12730685 -0.2225105
-0.21504791 -0.1544872 -0.24274652 -0.0155929355 0.08567501 -0.06108062 -0.022625053 0.027806735
-0.2315252 0.27223262 -0.31549528 -0.11123056 0.22878033 0.251961 -0.041034672 -0.37620193
0.028196206 -0.054623608 0.005829332 0.04873297 0.021691812 0.014980494 0.029550282 0.08952699

encoder.rnn.weight_hh_l0 f4 [48, 16]
00000000: bc23 203d 4628 ca3c b4f5 1bbe 410f efbd
00000010: e921 52be 2f3c 903e 5118 bcbe 15c0 963d
00000020: 1907 223e 2031 9a3e 99c5 553e 2679 7d3d
00000030: f46b edbd d585 4a3e 81c3 0e3e e078 16be
00000040: 0c71 a63e b6d1 b13e b203 f8bd 25db 7dbd
00000050: 5621 50be 7697 9abc 0396 713d db82 3e3d
00000060: b064 253f f87c 843d 3110 843e ee4d 923e
00000070: 4a9b 0dbd 6de4 343f bad8 aa3d 8f06 c9be
00000080: 3076 c1bc 4055 243c ee0d 54be 07a7 7cbe
00000090: d269 7fbe 2389 793e ae8e d6be 5c31 7c3e
000000a0: 62e8 0f3d f205 8c3e 9cc6 aa3d fed5 873d
000000b0: 3c77 66be ac7d 3c3e 8c98 c63e 0b54 45bd
000000c0: 98bb 02be 046e f8bc 7458 c9be 2e8d abbe
000000d0: 1874 9dbe 1ec9 173e 394d 17be 5c30 b53e
000000e0: 7a60 f13c 22a2 bf3e adc0 393e 8f52 463e
000000f0: 2eb3 88be 5c90 313e 2c2d 813d 1c12 01bd
00000100: 2b13 18be 9b2a fb3d b175 55be 9325 57be
00000110: 1160 8bbe e46e a23d 2d45 aebd dd9d 5f3e
00000120: a0a5 2dbc 0135 173e 0ce5 683e 5de5 c0bc
00000130: dc9b c8bd 5d3e e83d 96fc 043e bc29 54be
00000140: 216c 82bc 334a d83c 51bf 96be 581e 9cbe
00000150: e387 9ebe 67ee b23e 42e0 30be 66ae af3e
00000160: 7941 733e 5a41 c03e 4183 44be cd6e e6bc
00000170: 0a3c 93be 1222 653e 2a10 d43e 05d4 9e3c
00000180: c839 883e cbd0 f8bd c6d0 12be ca7a 0dbe
00000190: bb23 2dbe e446 573e 7634 90be 5018 563e
000001a0: 4a03 133e f28d 913e 1c9d 123e 254c 7b3e
000001b0: 5148 95be 65ae a03e c2d1 453e 0c1b 65bd
000001c0: 6921 afbc 6220 18bd e2bc 7ebe d1ea 65be
000001d0: 5f5a 6ebe 5c24 6a3e d20a f9be 2e95 8d3e
000001e0: 662e a93d 39de b33e 712c 883e b52c b93e
000001f0: cdc0 84be c4ad 333e 5671 6d3e b78c 823d
00000200: 45bc 653e ba54 a1bd fba3 e33d 730e 233e
00000210: 3f28 063d 94ca 153c c72e 1abf baf6 3cbd
00000220: 2c75 473e 27b9 513e 0b77 003e d466 3c3e
00000230: 960f a1be 4ec3 983d 3d47 743d caf7 91bd
00000240: f5de 08be 53ef 383d 5385 e1be 329d febe
00000250: 202e e7be 2eb1 093f 5f4c c1bd 3f94 ff3e
00000260: 3ea0 13bc cbae db3e dde5 84be 9bd6 aebd
00000270: 7b52 9ebe 3aed 113e 3f3c 2a3f 5463 ec3d
00000280: be50 733e 6595 e6bd b83e 463a f3a1 91bd
00000290: 57b8 113e 6cd5 6dbc 57ae 9a3e 23c8 213d
000002a0: cba0 323e 7743 043d 5d09 de3e 2ac5 543c
000002b0: bde5 903d bbaa 063e 0fd1 1e3d f127 aebe
000002c0: 29a4 e73d f3f4 153e a216 98bd effb 78bd
000002d0: 068f 2fbe f1e2 1f3e cb0f 003d 85eb 5b3d
000002e0: e1cd f83e 27b4 213e 3b6c 0b3e 6659 b83e
000002f0: 7ed3 27bd 0f1d f03e e1f0 f53d a90b 67be
00000300: 3f5a b2bd 55a5 f53d 085e b9be 7490 b1be
00000310: 7e37 9cbe 8097 9f3e cbad 85be deba b13e
00000320: 2833 bc3d 5936 043f d8a9 a83d e4e3 8fbc
00000330: 6a92 c9be ab01 8e3e 4571 cf3e f14f b7bd
00000340: e46f 883d 5008 d4bc 4756 68be 0684 adbe
00000350: 86f1 c5bd f550 323e fcde 2fbe 621c d03e
00000360: d6d5 0f3e a857 953e 8350 453d 6bc1 c63b
00000370: 02bf 9abe 7f16 553e e565 e13d 249c a4bd
00000380: 5a5c b5bd a4bf 4d3e 5896 dabe da08 a5be
00000390: 68f2 afbe 5b71 953e f9b0 363c 0c84 ba3e
000003a0: e914 053e ec1f 2f3f daa9 c23e c09f 1bbc
000003b0: 8906 00bf a071 b23e bc0f c93e d5de b9be
000003c0: 3290 bf3e 2a65 49bd 342d ce3d 7810 a2bd
000003d0: 6475 2c3e a807 5b3e 153d ecbe aff7 b43d
000003e0: 7409 f73d c15a c23d 5a33 17be 5b12 763e
000003f0: b5f5 e8bd dfa3 e1bb 6978 f53d 2c79 963e
0.03909658 0.024677407 -0.15230447 -0.11672831 -0.20520748 0.28170916 -0.36737302 0.073608555
0.1582302 0.30115604 0.20876159 0.061883114 -0.11592856 0.19777615 0.13941766 -0.14694548
0.32508123 0.3473031 -0.1211008 -0.06197657 -0.20325217 -0.01887105 0.058980953 0.046511512
0.6460676 0.064691484 0.25793603 0.2857508 -0.034571923 0.7066105 0.083421186 -0.39262816
-0.023615927 0.010030091 -0.20708439 -0.24673091 -0.24942711 0.2436872 -0.4190573 0.24628204
0.035133727 0.27348286 0.08338663 0.06632613 -0.22506422 0.18407315 0.3878826 -0.048175853
-0.12766874 -0.030325897 -0.39325297 -0.3350615 -0.30752635 0.14822814 -0.14775552 0.35388458
0.029464949 0.37428385 0.18139906 0.19367431 -0.26699203 0.17340225 0.06307444 -0.03151141
-0.14851062 0.12263986 -0.20845677 -0.21010427 -0.2722173 0.07931307 -0.08509288 0.21837564
-0.01059857 0.14766313 0.22743624 -0.023546869 -0.09795353 0.1134002 0.12986979 -0.20719045
-0.0159207 0.026402568 -0.29442838 -0.304919 -0.30963048 0.34947512 -0.17273048 0.34312743
0.23755445 0.3754986 -0.19190694 -0.028129006 -0.28756744 0.22376278 0.41418582 0.019388208
0.26606584 -0.12149199 -0.14337453 -0.13816372 -0.16908161 0.21023136 -0.28165025 0.20907712
0.14356723 0.28428608 0.14317745 0.24540766 -0.29156736 0.31383052 0.19318298 -0.055933997
-0.021378236 -0.037140258 -0.2487674 -0.22452857 -0.23276661 0.22865433 -0.48641068 0.27652878
0.08260803 0.3513048 0.26596406 0.3616692 -0.25928345 0.17546755 0.23187765 0.063744955
0.224351 -0.078774884 0.11115261 0.1592348 0.032753225 0.009142537 -0.60227627 -0.046133734
0.19478291 0.20480786 0.12545411 0.18398601 -0.31457204 0.074591264 0.05963825 -0.0712734
-0.13366301 0.045150112 -0.4404703 -0.49729306 -0.45152378 0.5378598 -0.09438395 0.4991779
-0.009010373 0.42906794 -0.25956622 -0.085370265 -0.30922303 0.14250651 0.6649818 0.11542383
0.2376127 -0.112589635 0.00075624464 -0.071109675 0.14230476 -0.014516216 0.30211136 0.039497506
0.1744415 0.032290902 0.4336652 0.012986461 0.07075069 0.13151066 0.038773593 -0.34014848
0.11310608 0.14644222 -0.07426192 -0.060787138 -0.17144403 0.15613915 0.03126506 0.053691406
0.48594573 0.15791379 0.13615505 0.36005706 -0.04097318 0.4689717 0.12008835 -0.22563042
-0.08708619 0.11994425 -0.36204553 -0.3468052 -0.30511087 0.31170273 -0.26109156 0.3471288
0.09189445 0.5164543 0.0823552 -0.017564721 -0.39369518 0.27735648 0.40516105 -0.089507945
0.066619664 -0.02588287 -0.22689162 -0.33889788 -0.096652076 0.17413695 -0.17174906 0.40646654
0.14046416 0.2916844 0.048172485 0.0060655377 -0.30223852 0.20809363 0.11005763 -0.08037594
-0.08855505 0.20092636 -0.42692828 -0.32233316 -0.3436463 0.29188046 0.011150592 0.3642887
0.12996258 0.68408084 0.3802021 -0.009498537 -0.5000997 0.34852314 0.39269817 -0.3630282
0.374147 -0.049168743 0.100672156 -0.079132974 0.16841656 0.2138964 -0.46140352 0.088363044
0.1206235 0.09489966 -0.14765683 0.2403044 -0.1137499 -0.00688599 0.11985857 0.29389322

encoder.rnn.bias_ih_l0 f4 [48]
00000000: 4fd7 283e 6868 7a3d 41c9 c03d d13b 6a3e
00000010: f06e e53d 92e6 fa3d 0ceb 383e a369 243e
00000020: 4d98 fe3d 544d 073e 7540 213e 68ca f13c
00000030: fa65 7e3e fe80 733e 91a8 b53e a1cb 7c3e
00000040: dbca 0dbf b881 07be e1a0 273e 57bd 133d
00000050: fdae b83d 94e9 e73b 8f8f 3fbd 41ae 393e
00000060: 75c8 d8be 6c1e dd3d c2d6 e7be 75d4 13be
00000070: 261a fe3d 1b67 cdbe 4cd8 8ebc d330 4fbe
00000080: 2960 283e a1a3 5b3d b2e9 4a3c ab3d aebd
00000090: 0d94 0e3d 4b45 e7bc de8e 833d b5ab fa3c
000000a0: 3bd1 e43d 6a84 7c3d 0c02 26bd 46ef dbbd
000000b0: b162 efba dadc 603e 86c9 adbb ad3f 69be
0.16488384 0.061134726 0.09413386 0.2287438 0.112028 0.12251009 0.18058413 0.16055922
0.12431393 0.13213092 0.15747245 0.02951546 0.24843588 0.23779675 0.35480168 0.24687053
-0.5538766 -0.13233078 0.16369964 0.03606924 0.09017751 0.007077405 -0.046767768 0.18132879
-0.42340437 0.10796818 -0.45281035 -0.14436515 0.12407331 -0.40117726 -0.017437123 -0.20233469
0.16442932 0.053622846 0.012384819 -0.08507856 0.03480916 -0.028231284 0.06423734 0.030599454
0.1117272 0.061649717 -0.040529296 -0.10738997 -0.0018263665 0.21959248 -0.0053035645 -0.22778197

encoder.rnn.bias_hh_l0 f4 [48]
00000000: 50d7 283e 6468 7a3d 3fc9 c03d d23b 6a3e
00000010: ea6e e53d 90e6 fa3d 0feb 383e a569 243e
00000020: 4f98 fe3d 504d 073e 7340 213e 68ca f13c
00000030: f765 7e3e 0281 733e 92a8 b53e a2cb 7c3e
00000040: dbca 0dbf bb81 07be dfa0 273e 59bd 133d
00000050: 0baf b83d 3de9 e73b 8f8f 3fbd 43ae 393e
00000060: 77c8 d8be 6c1e dd3d c4d6 e7be 77d4 13be
00000070: 2c1a fe3d 1a67 cdbe 52d8 8ebc d630 4fbe
00000080: f94a 0b3e c6b3 3d3d d871 a7bb f2e6 bebd
00000090: 6991 bf3b 9aaf 8ebc 8ddf 463d 62c5 123d
000000a0: 3cc4 b83d 3362 723d 1dce b1bd 5521 8ebd
000000b0: 2750 f7bc 69e6 883e a022 5a3c 8c79 72be
0.16488385 0.06113471 0.09413385 0.22874382 0.11202796 0.122510076 0.18058418 0.16055925
0.12431394 0.13213086 0.15747242 0.02951546 0.24843584 0.23779681 0.3548017 0.24687055
-0.5538766 -0.13233082 0.16369961 0.036069248 0.09017762 0.0070773647 -0.046767768 0.18132882
-0.42340443 0.10796818 -0.4528104 -0.14436518 0.12407336 -0.40117723 -0.017437134 -0.20233473
0.13602819 0.046314023 -0.005110007 -0.09321393 0.0058461917 -0.017417718 0.04855304 0.03583277
0.09021804 0.05917568 -0.08681891 -0.06939951 -0.030189587 0.2673829 0.013313919 -0.23679179

encoder.rnn.weight_ih_l0_reverse f4 [48, 124]
00000000: 2398 bf3e f6c4 9f3e 0b32 eabe ec69 2e3d
00000010: 4b0e a53e e070 fabd decc 85bd 3bea 2b3e
00000020: c485 c53b f919 2eb9 cafe e63e dd91 e33e
00000030: 3df0 a23e 3c64 6abe e6fc b4be f9ca 96be
00000040: 1621 663d cc52 ce3c 726c ab3e 2b4d da3d
00000050: 6252 95be 3d83 2bbd 49cb c3bd a2b2 8fbe
00000060: 4a9c b2be 37b5 94be e701 00bd d7a8 abbe
00000070: c665 0abe 67f2 cabd d922 dcbe 117a 87be
00000080: 7135 bb3e 7d78 c03e 3089 953e 6634 a53d
00000090: 250e 9ebe 7581 3abe 4d09 ecbe 5997 703e
000000a0: fcc9 96be a24b 9b3e 2fda e0be 15ae 04bc
000000b0: 1d7d d03e b802 613e 9047 5f3e 907c 2e3d
000000c0: 81bf 433e d61e b23e 974b f2be 6a67 adbd
000000d0: 54b2 9b3e 2398 0ebe 23e6 b83e 7025 e73e
000000e0: bef2 663e a7d5 d8be 9b16 5bbe bfb0 11be
000000f0: 9fdf b93e 80e0 1f3d dfc5 a23d d13e 9abe
00000100: 6de5 273d 0ed7 bdbe d669 91bd 0cd7 cfbe
00000110: 331a 0dbd 61f4 c03e 3fb6 6b3e dbd4 403e
00000120: 107b bf3d c4ce 863c 42b8 21be e80c 9b3e
00000130: cc69 c33d cd96 34be d83d 2d3d 2243 92be
00000140: 252f 87be fc9e 253e d266 253e eb03 963e
00000150: 9001 65be 545b a33e dd33 f4be e358 9a3e
00000160: 1d19 acbe 1c88 8e3e 27d5 a4be e9ce febd
00000170: 6e9a b5be ebe3 fd3e 64e3 ca3e cddd 643d
00000180: 8bf1 a5bd a829 9abe 7bf4 ed3e 0b2c b4be
00000190: 392e ab3e 9861 a0be 8c0a 20be 9be9 38bd
000001a0: 982f 093e 2e63 8fbd 2a85 c9be 6218 7bbe
000001b0: 4255 b93c 5997 95be 09cd acbe 4915 b4bc
000001c0: 9851 8d3e ad64 2e3e ae46 4bbe fa2a 40be
000001d0: b98e 36be 5fb1 a33e bfda a8be a745 cfbe
000001e0: 8465 343e a2d0 a43e 563b a53e 317a c4be
000001f0: d071 1c3f 0804 6d3e 0e4d ccbe 1598 ce3e
00000200: 0c5b b83e b55a fdbc 874e 01be 101a e93d
00000210: 6b58 f1bd ebcc 92be 63fe d53e 7606 263f
00000220: 2c0a e53e 430b 7dbe 139c a7be b4ce ffbe
00000230: 56be 39bc e2dd 2f3e cfae 973e 8485 023f
00000240: 799d 7fbe 9f3d ab3d 12dd 39be 4da4 9fbe
00000250: 5d49 ccbe 58a3 c3be 44a8 7cbe 7889 ddbe
00000260: 1f0e 58be 9a32 13be 32a1 29bf 8c93 b1be
00000270: 93b3 993e 288e 3c3e d9c4 c43e d860 833e
00000280: f9aa 8fbe 1f7d 9dbd 3d30 08bf c952 b43e
00000290: 70fe 87be f27b fc3e 8af7 d1be 4515 e83d
000002a0: 4fee 203f 8ad7 9d3e 9230 453e 6eb9 92bc
000002b0: 4516 b43e d081 f63e 14ae c0be c917 7abe
000002c0: 5b45 bf3e 0e2f 4ebe 5eac 1d3f 358d ab3e
000002d0: ebad 713e 9bed bcbe c37b 04be b46a 2dbe
000002e0: 197a 043f 20f9 fcbc 354e 2d3e 1b6a 1cbf
000002f0: 29ea 423d 91c6 f0be c156 3cbd 0fb1 06bf
00000300: 4c08 e5bd 9932 0d3f 3c32 753e 91f5 7d3e
00000310: dd69 da3b 53d8 6a3e c9c5 7fbb 96b4 bc3e
00000320: 716c 31bd 8ca5 60be 45f9 6c3d f4e3 d1be
00000330: d3a7 c8bd 1092 093e 71d7 2e3e 28ad 293e
00000340: bf81 0fbe 598b 083f 7fae e6be f402 c43e
00000350: 9f57 99be 8845 ab3e 4585 a6be 7c0a 29be
00000360: 99fb 20bf a347 b63e 82af aa3e fc8c bc3e
00000370: 23a0 53be a598 d6be 5219 d13e faf3 14bf
00000380: e995 ba3e 69de d2bd 03da e23c a9d5 9ebd
00000390: 210c ea3d 5c26 58bd 9ca0 f4be 20b0 e2be
000003a0: dae3 58ba 4dbc d4be e170 e1be 2898 7d3d
000003b0: 3164 bc3e 39ed 683e 5324 56bd 5e5a 22bd
000003c0: 68c1 cbbe 421a f33e 4eb2 d5be 0455 c5be
000003d0: d5f9 3f3e f853 f53e 609f 123e d286 13bf
000003e0: ea91 92be 4f36 8a3e d18f f23c 2e7a 193d
000003f0: 2acf e5be 9455 98be 3f8c 083e 1920 c23e
0.3742076 0.31204957 -0.45741305 0.042581484 0.32237467 -0.122285604 -0.06533216 0.1678857
0.006027909 -0.00016603609 0.45116264 0.44447222 0.31823912 -0.22889799 -0.35349196 -0.2945173
0.056183897 0.025185965 0.33481175 0.1065925 -0.29164416 -0.041873205 -0.09560258 -0.28065974
-0.34884864 -0.29044506 -0.031251814 -0.33527252 -0.13515386 -0.09909516 -0.42995337 -0.26460317
0.3656421 0.37591925 0.29206228 0.08066635 -0.30870166 -0.18213446 -0.46100846 0.23495235
-0.29450977 0.3033114 -0.4391646 -0.008098145 0.40720454 0.21973693 0.21804643 0.04259926
0.19116022 0.3478915 -0.47323295 -0.0846699 0.3040949 -0.13925223 0.3611308 0.4514575
0.22553536 -0.42350504 -0.21395342 -0.1422758 0.36303422 0.03903246 0.07947897 -0.3012605
0.04099028 -0.37078136 -0.07100265 -0.40593755 -0.034448814 0.37686446 0.2301874 0.18831198
0.09349644 0.016456015 -0.15792945 0.30283284 0.095416635 -0.17635651 0.042295307 -0.28566843
-0.26403156 0.16173929 0.16152504 0.29299864 -0.22363877 0.31905615 -0.4769582 0.3014594
-0.3361291 0.27838218 -0.32193872 -0.12441809 -0.35469383 0.4958795 0.3962661 0.05587559
-0.08102711 -0.30109906 0.46475586 -0.35189852 0.33433703 -0.31324458 -0.15629023 -0.04514466
0.13397062 -0.07001339 -0.3935941 -0.2452102 0.022623662 -0.29217032 -0.3375018 -0.021982806
0.27601314 0.17030592 -0.19851181 -0.18766394 -0.17827882 0.3197126 -0.3297939 -0.40482828
0.1761685 0.32190424 0.32271832 -0.38374475 0.61111164 0.23146069 -0.39902538 0.40350404
0.36006963 -0.030927042 -0.12627612 0.11381924 -0.117844425 -0.28671965 0.41795644 0.6485361
0.44734323 -0.24711327 -0.32736263 -0.4996239 -0.0113368835 0.17174485 0.29625556 0.5098498
-0.24962415 0.08361363 -0.18150738 -0.3118004 -0.39899722 -0.3821056 -0.24673563 -0.43268943
-0.21099137 -0.14374772 -0.6626159 -0.34682882 0.30019817 0.18413603 0.38431433 0.25659823
-0.2806013 -0.076898806 -0.53198606 0.3521941 -0.26561308 0.49313313 -0.4100917 0.11332182
0.6286363 0.30828506 0.1925681 -0.017910685 0.3517324 0.48145914 -0.3763281 -0.24423136
0.37357602 -0.20135137 0.61591136 0.3350617 0.236015 -0.3690003 -0.12937836 -0.16935235
0.51748806 -0.03088051 0.16924365 -0.61099404 0.047586594 -0.47026494 -0.045981172 -0.5261392
-0.11183223 0.5515533 0.23944944 0.24800707 0.006665452 0.22934084 -0.0039027801 0.36856526
-0.04331631 -0.21938151 0.05785491 -0.40994227 -0.09797635 0.13434625 0.17074372 0.1656996
-0.14014338 0.5333763 -0.45055005 0.38283503 -0.29949662 0.33451486 -0.32523552 -0.16507906
-0.6288391 0.3560153 0.33337027 0.36826313 -0.20666556 -0.41913334 0.4083963 -0.5818478
0.36442497 -0.102963276 0.027691847 -0.07755596 0.11428095 -0.052770957 -0.47778785 -0.44274998
-0.00082736986 -0.41549912 -0.44031432 0.061912686 0.3679519 0.22746743 -0.052280735 -0.039636962
-0.39795995 0.4748097 -0.41737598 -0.38541424 0.18747647 0.47915626 0.14318609 -0.57627594
-0.2862695 0.2699456 0.029609593 0.037470035 -0.44884616 -0.2975279 0.1333475 0.37915114

encoder.rnn.weight_hh_l0_reverse f4 [48, 16]
00000000: ef77 db3c fe65 5f3e b473 593e e3f8 5a3e
00000010: 1c10 023e 51a0 f23d c0ec ec3c 86e3 fc3d
00000020: a687 aabd 375e 33be bacd 0bbe e66c a6bc
00000030: e579 1f3e a7e7 f63d 90ce b4be 0f66 ce3c
00000040: 3674 19be ef75 053e 33d6 713d 5047 fd3d
00000050: 472f 8cbd b132 533c 0e03 ce3c 41a9 7e3c
00000060: 3f7a 05be 8432 20be efd3 ddbd aaa9 d6b8
00000070: 80dc a53d f312 cb3d 3735 9fbd 104e b4bd
00000080: 908c 103e a72c 123e 3da2 0dbb 303a 963e
00000090: 895f e4be 67db a2bd 82ab 1a3f 1f92 a63e
000000a0: 6cad 4ebe 620a 6bbe 373a 93be 2eb9 cd3d
000000b0: 5f11 823e db64 48be b87d 5cbe acbe 8ebe
000000c0: 0665 6e3b 75c1 8f3d 868e dc3d 4542 683e
000000d0: 5d67 97be b20f d3bd 8d12 083f 088a 843e
000000e0: 9695 4abe 8c8e d0bd fa7e 73be 842e 8e3e
000000f0: c09a 9c3e 6a09 873d 423a e1be 3548 2fbe
00000100: aafc 28be 604e c33e 8d68 a93d 2979 8d3e
00000110: da95 85be 3fba 153d bc06 743e 5a81 6a3e
00000120: 040b 93be 9902 54be a73a 48be b29e 16be
00000130: 0a71 f53e 489f d73e c57b 08bf 6a01 d1be
00000140: 6c98 29be ed50 0abc a8cf 30be 9d12 993d
00000150: 038c ffb9 be9f bbbc 050b 583e fce0 1b3d
00000160: 2f0e 383d accf 353d eb73 73bd 7481 3dbe
00000170: 7636 dcbd 5771 a23c 458b 44be 564b 3ebd
00000180: 0423 40be 0a6c 713e cd81 093e f671 463e
00000190: c130 683c 2a29 2b3e 8725 0d3e 7e28 763e
000001a0: c3fb 03be 368e 4fbe a767 58be 20ed 53be
000001b0: 1bd6 f5bd 7a0d 2b3f bbc7 2bbf efe7 793d
000001c0: 7357 66bd e5b7 423e 1228 e33d 4936 203e
000001d0: a491 99be a197 31bd 84f2 f13e 95e2 a83e
000001e0: 147e 96be 25f8 37be 3787 6fbe 8db5 bd3e
000001f0: e23e 193f b44c 113e 4a1c c7bd 7bf6 30be
00000200: d19d 90bd 04c8 423e 8fde 723d 92db 323e
00000210: 53f2 b9be b9f4 74bd 9126 f63e d8f3 413e
00000220: 8b6e 95be 9015 17be 66be 14be 2b03 843e
00000230: 21a7 183f 7d01 833c aca7 613d 3b6f 89be
00000240: d54a f9bd 0513 b93d 2b9f 403c 9ba8 893c
00000250: 76e0 bebd a311 adbc 61c8 053e af90 f63d
00000260: c872 e3bd 44ae 893d 0d14 efbc 2418 2e3d
00000270: 67b7 cb3d 3f4e 153e 6a28 13be 78b1 a63b
00000280: 67c9 01be 6005 c53d 50ad e13d 0685 473d
00000290: 3bf4 53bd f3b4 f23c 0beb de3d 8672 ec3d
000002a0: 0c2b 0fbe 8d4c 3f3c 6130 76bd b87f 573d
000002b0: 994f cd3d 6374 4a3e be0e c1bd fe2b 1b3c
000002c0: 8d6a a1be 60fc ee3e 82e7 353e 2cbe 113e
000002d0: 6f91 81be c89e e63d a133 123e aaeb 653e
000002e0: ed3f 5cbe b012 4fbe bcf7 27be 0542 453e
000002f0: 5a58 dfbd 799f 6d3f d9da b5be 38d2 21be
00000300: e1dd f3bd 3ee7 ab3b 9fb0 aabe 5cdc d03d
00000310: 1baf 8fbe a14b 87bd 6067 3e3f 3a72 afbd
00000320: 893b 0d3e 0874 52be d411 293d 41e8 a6be
00000330: 808e 113f 9c4d 513e 04fd dcbe a9c5 0ebe
00000340: b15a 84be 2655 5abd bd27 0bbf b58e 26be
00000350: d5c9 e03c c1f7 14bf 5367 5cbe f23e 66be
00000360: 7c20 153e 288a 9d3d a612 333e 46b1 b8bd
00000370: 1818 9dbe 7bb7 183e dd2e e5bd c8f0 153d
00000380: e18e c53e 6e84 80bd ddb5 0e3f b671 b53e
00000390: b5b6 4f3e cda6 093f 95c3 64bd e6da f03e
000003a0: 17ee 8cbe 584c 22bf 2221 19bf fade 13bd
000003b0: 5088 0fbe 83be b7bd 9ef9 3a3e 0a34 8d3e
000003c0: 1c1e 883d c199 a53e 2570 da3e 11b4 963e
000003d0: 799e b3be 7d80 1cbd 180e e53e 03dc 013f
000003e0: f0cd e6be 57ea 22be 5010 e6be f2e7 2a3f
000003f0: 6eb4 143f 565d 873e fef6 03be 39fe e0be
0.026790587 0.2181625 0.21235543 0.21384005 0.12701458 0.11846984 0.028921485 0.12348084
-0.08326654 -0.17516409 -0.13652697 -0.020315599 0.15573843 0.12055903 -0.35313845 0.02519515
-0.14985737 0.1303327 0.059042167 0.123671174 -0.06844955 0.012890504 0.025147941 0.015543283
-0.13034914 -0.1564427 -0.10831439 -0.000102359176 0.08098698 0.09915724 -0.07773822 -0.08803952
0.1411612 0.14274846 -0.0021611594 0.2934127 -0.44604138 -0.07952004 0.6041795 0.32533357
-0.20183343 -0.2295318 -0.28755352 0.10045086 0.25403878 -0.19569723 -0.21532333 -0.27879846
0.0036376133 0.07019321 0.10769372 0.2268153 -0.29571047 -0.10305728 0.53153306 0.2588656
-0.19783625 -0.10183439 -0.23778906 0.27769864 0.30586815 0.065935925 -0.4398976 -0.17117389
-0.16502634 0.38145733 0.082718946 0.276315 -0.2609089 0.03655457 0.23830694 0.22900906
-0.28719342 -0.20704116 -0.19553624 -0.14708975 0.47937804 0.4211371 -0.5331386 -0.4082139
-0.1656205 -0.008442146 -0.17266715 0.07474253 -0.00048741707 -0.02290332 0.21097954 0.03805636
0.0449354 0.044387504 -0.05943672 -0.18506414 -0.10752575 0.019829435 -0.19193752 -0.046458565
-0.18763357 0.2357637 0.13428421 0.1937941 0.01417178 0.16714922 0.13783847 0.24038884
-0.12889008 -0.20269093 -0.2113329 -0.20695925 -0.12003728 0.6681744 -0.6710164 0.061012205
-0.05623574 0.19015463 0.11091627 0.15645708 -0.29993927 -0.043357495 0.47255337 0.32985368
-0.29393065 -0.17965753 -0.23391424 0.37052575 0.59861577 0.14189416 -0.097221926 -0.17281525
-0.07061351 0.19021612 0.05929428 0.17466572 -0.3631769 -0.0598037 0.480763 0.18940675
-0.291859 -0.14754319 -0.14525756 0.25783667 0.5963002 0.01599192 0.055091545 -0.26842675
-0.12172476 0.09036831 0.011756699 0.01680403 -0.09320156 -0.021126574 0.1306472 0.12039315
-0.11105877 0.06722692 -0.029184366 0.04250349 0.099470906 0.1458063 -0.14370885 0.005087074
-0.12674485 0.09620166 0.11019385 0.048710845 -0.05174659 0.029627299 0.10884675 0.11545281
-0.13981265 0.011675966 -0.06010473 0.052612036 0.10024948 0.1977096 -0.0942664 0.009470938
-0.31526604 0.46676922 0.17764094 0.14232701 -0.2530627 0.11260754 0.14277507 0.2245318
-0.21508761 -0.20221972 -0.16403097 0.19263466 -0.109055236 0.9282146 -0.3551853 -0.15802848
-0.119075544 0.005246072 -0.33337876 0.1019828 -0.28063282 -0.06606222 0.7437649 -0.08566709
0.13792242 -0.20552075 0.041276768 -0.3259907 0.5685806 0.20439762 -0.43161786 -0.13942589
-0.25850442 -0.05330386 -0.5435751 -0.16265376 0.027439991 -0.5819054 -0.2152379 -0.22484949
0.14563173 0.07692367 0.17487583 -0.09018187 -0.30682445 0.14913742 -0.11190579 0.03660658
0.3858557 -0.06275259 0.5574625 0.35438317 0.20284541 0.5377014 -0.055850584 0.47042006
-0.27525398 -0.6339774 -0.5981618 -0.03610132 -0.14016843 -0.08971884 0.18259284 0.27578765
0.06646368 0.32343867 0.42663684 0.29434255 -0.35081843 -0.038208473 0.44737315 0.50726336
-0.45078993 -0.15909706 -0.4493432 0.6676017 0.58087814 0.26438397 -0.12887189 -0.43943956

encoder.rnn.bias_ih_l0_reverse f4 [48]
00000000: aa7b 203d 4737 f6bc 4423 733e 5e5f 6d3e
00000010: 5efe a03c d73f 973d 502e 0c3e 95cb b33d
00000020: 3e90 c63d a9fd 4cbd de9e b6bd d1e8 473e
00000030: caeb 043f 6d1c ff3d ddc0 91bd 4ac0 df3d
00000040: 3f6f b9be f6bf a0be 5eb2 8ebe 5ec9 ebbe
00000050: 6b1e 80bd 9c5d 86be 3ebd 95be e81a 91be
00000060: 69cd 4bbe 290e d8be e867 e8be 46f9 d3be
00000070: d33c 05bf d480 4cbe 8f40 f7be 4f4b 0fbf
00000080: d971 a5bd 916f 54bc a687 6d3d 175c cf3c
00000090: ed6b 50bd d06c 84bc 59df 143e 73fe 7cbd
000000a0: d4b3 c43d af5d d9bb a359 ebbb 82d3 793e
000000b0: 4f71 b13d 2b0b 373c 9df3 9ebe 6fa7 11be
0.039180435 -0.030055655 0.23743922 0.23180911 0.019652542 0.07385223 0.13689542 0.087790646
0.09695481 -0.050046597 -0.0891702 0.19522406 0.51922286 0.12456594 -0.07116864 0.10925348
-0.36217687 -0.31396455 -0.27870458 -0.46052068 -0.06255802 -0.26243293 -0.29245943 -0.2834084
-0.19902577 -0.42198303 -0.45391774 -0.41401118 -0.52045935 -0.19971019 -0.48291442 -0.55974287
-0.08078355 -0.012966053 0.057990693 0.025312467 -0.050884176 -0.016165167 0.14538325 -0.0617661
0.09604612 -0.0066334824 -0.0071823164 0.2439709 0.0866419 0.011172096 -0.31045237 -0.14224027

encoder.rnn.bias_hh_l0_reverse f4 [48]
00000000: a67b 203d 6937 f6bc 4523 733e 5e5f 6d3e
00000010: 58fe a03c d53f 973d 502e 0c3e 94cb b33d
00000020: 4290 c63d acfd 4cbd dc9e b6bd cae8 473e
00000030: c8eb 043f 6b1c ff3d dfc0 91bd 47c0 df3d
00000040: 3d6f b9be f8bf a0be 5cb2 8ebe 5ec9 ebbe
00000050: 6c1e 80bd 9e5d 86be 42bd 95be ea1a 91be
00000060: 6acd 4bbe 2a0e d8be e867 e8be 47f9 d3be
00000070: d43c 05bf ce80 4cbe 8c40 f7be 4e4b 0fbf
00000080: 9eee 18be 89eb 933d cf91 b73c 1ddf 993d
00000090: a142 88bc eea0 e03d e1ca ae3d 5f11 07be
000000a0: f56e 333e 6896 87bd 4b08 a1bd dc84 313e
000000b0: e83e 003e 249b 2c3e eb05 64be 5d50 96be
0.03918042 -0.030055718 0.23743923 0.23180911 0.01965253 0.07385222 0.13689542 0.08779064
0.09695484 -0.050046608 -0.08917019 0.19522396 0.51922274 0.12456592 -0.07116865 0.10925346
-0.3621768 -0.3139646 -0.27870452 -0.46052068 -0.062558025 -0.262433 -0.29245955 -0.28340846
-0.19902578 -0.42198306 -0.45391774 -0.4140112 -0.5204594 -0.1997101 -0.48291433 -0.5597428
-0.14934775 0.07222659 0.022408394 0.075132586 -0.016633334 0.10968195 0.0853479 -0.1319022
0.17522795 -0.066204846 -0.0786291 0.17335838 0.12523997 0.16856056 -0.22267883 -0.29358187

encoder.fc.weight f4 [16, 32]
00000000: 5e9f 783d 31ac 9bbd 50f4 b4bd 2918 45bd
00000010: 1b33 41bd 1b2d 5f3d 5861 c2bd 3aee ad3d
00000020: 678d 8c3d ebfa 683d 07e7 e23d 44bc 923d
00000030: cd3b babd be57 9b3d 07fb a83d 0272 bcbd
00000040: 8036 c63c 3c8b e83d 8271 123e 21b4 283e
00000050: f4e4 1ebd 5d99 093e 55aa dbbc abc1 d03d
00000060: 92a4 5abc fa87 0cbe 26c3 03be 0770 143e
00000070: 6827 e43d ef9b 5d3e 9128 92be deeb 88be
00000080: f0e8 893d fe19 d5bc 57a8 bbbd f4e0 b9bd
00000090: 58ac 4cbd 9d8b 8c3d 1e6a 81bd 93c6 a63d
000000a0: 6919 4a3d fd48 143d 3e26 e33d 1371 f93c
000000b0: b5a4 96bd e2b1 383d e79e 903d d608 8abd
000000c0: 738f 263e 779f 163e b357 9b3e f153 333e
000000d0: 5710 1f3e ab2a 9c3e b815 00bd 6fda 55bd
000000e0: 73f7 a73e 85aa 91be 0ccf 16be a30b 743e
000000f0: 26db 393e 4e80 873d 35b6 81be 5fa2 75be
00000100: 7c14 49be 40d8 663e 624a 053e 2a95 ff3d
00000110: f161 1a3e 69c7 0bbe 5fe8 033e 6d1d 04be
00000120: 0591 04be fff0 07be 82cf c4bd d7f6 0cbe
00000130: 68e1 ff3d 7069 dcbd 2e9d d6bd e4bb 173e
00000140: 7f7f 083e 1e3d 55bd ee55 15bc 442c d53b
00000150: 5776 b03d 8141 e3bb c373 92bd 2496 36bd
00000160: b270 ed3c f2ea 01bc 199b ab3c 02c6 5abc
00000170: 373a 24bd 49f1 85bd e199 413d 5822 163d
00000180: f29e 003e 0cf6 cdbd d331 92bd 702a 843d
00000190: d27c 8c3d 915a 9f3d 6674 543d 283b 8bbd
000001a0: e960 533d 58fe fa3c 17d6 b4bc 8f63 0c3d
000001b0: deb5 06be cad2 433c ec26 f63c 4efc 8abd
000001c0: d75c cabe 19eb 3b3c cba2 103d 9d55 383d
000001d0: eb32 89be 4993 4fbe 21cf 0a3e 9a28 f5bd
000001e0: a104 24be 0cb2 413e fffb ef3d 6941 073d
000001f0: bb05 833e 401a 263e 188a 843e e2e2 91bd
00000200: 0b55 f73c a3a1 83bd bc5f b1bd 43dc 9bbd
00000210: f38f 8abd f0f9 853d b206 afbd cdec b93d
00000220: df3d 503c e813 8d3c 3c05 af3c be22 bc3c
00000230: 7d94 0bbe 530c c83b d04d 163c f821 2ebd
00000240: d1fc d23b 848e c8bd 47fa 2e3e 8120 eb3d
00000250: 03f6 993d 988a 3d3e d795 b83d fe52 093d
00000260: a9d2 003d a591 c6bd 1749 cabd 9eab 1b3e
00000270: b9ff ce3d c847 cbbd 2b5d bd3d b2f8 c6bd
00000280: f867 c43c 1568 763d 54a5 a33c dd23 84bc
00000290: a113 453e 36f3 9a3c 5d32 5fbb 6f0c b23c
000002a0: 5af5 a13d aeba 153d 09cc 93ba 1d8b c23c
000002b0: 251e cc3c f0a5 d53d 0c5f 163d 259c 9abd
000002c0: e35e 193e d36f 4dbe d19c e5bd d50f fabd
000002d0: 3fda 8a3e 5433 1dbe e640 9bbd 0cbe edbd
000002e0: ad05 053e 9c2e c33d ef73 c43d 2204 6dbe
000002f0: f486 47be 11cc a6be 8371 e43d 5505 593e
00000300: b50a 1a3e bc9c 55be a1d5 20be 1650 debd
00000310: 538b 1cbe 1eaa df3d 4569 12be 504c 0e3e
00000320: e4d5 e43d b01e e63d 81b8 d53d 86f9 053e
00000330: 2cdd 13be 3f06 e03d 0e59 a93d 9df8 ecbd
00000340: 3b72 0abe f034 653d 8e0a 173d 1730 4cbc
00000350: 9bb1 bebd bc02 623d 5a8b 7c3d 38cf 5c3d
00000360: 632c 45bc 6492 203c efc9 cebc 3056 9f3c
00000370: 527f 483d a198 a53c 8e3b 4bbc 234c 72bd
00000380: 4b73 fdbd af16 383e a01e 133e a0ac f93d
00000390: bb98 873e b678 e5bd e090 033e a82c c1bd
000003a0: 0989 8ebd a89e 7ebd 13f1 88bd 0061 7ebd
000003b0: 112d 213e c8ae 46bd 4f36 65bd 57c3 b53d
000003c0: 7446 7d3e 0d6f fabd 3b36 afba aa8c d43c
000003d0: d03d c33d 4548 0f3d b61d 0ebd ee61 9bbc
000003e0: 59c9 693d 77c4 2ebd 4353 49bd fc97 703d
000003f0: 7ff5 70bd cc59 45be e5a4 423c f5f8 043d
0.06069886 -0.07601202 -0.088356614 -0.048118744 -0.04716788 0.054486375 -0.09491223 0.08492704
0.06862908 0.05687992 0.11079221 0.07164815 -0.09093437 0.07585095 0.08251005 -0.09201433
0.02419591 0.11354682 0.14301112 0.16474964 -0.038792565 0.1343741 -0.02681462 0.10193189
-0.013344901 -0.13723746 -0.12867412 0.1449586 0.11140329 0.21641515 -0.28546575 -0.26742452
0.067338824 -0.02601337 -0.09162968 -0.090761095 -0.049969047 0.068625666 -0.06319068 0.08143344
0.04934064 0.03620242 0.110912785 0.030449426 -0.07355634 0.045091517 0.07061558 -0.067399666
0.16265659 0.14709269 0.30340347 0.1751249 0.15533577 0.30501303 -0.031270713 -0.052210268
0.32805976 -0.2845041 -0.1472742 0.23832564 0.18150005 0.06616269 -0.25334325 -0.23987721
-0.1963672 0.2254343 0.13016656 0.12479623 0.15076424 -0.13650288 0.12881611 -0.1290185
-0.12945946 -0.13275526 -0.096098915 -0.13766037 0.12494165 -0.10762298 -0.104791984 0.14817768
0.13329886 -0.05206024 -0.0091147255 0.006505521 0.086163215 -0.006935299 -0.07150986 -0.04457678
0.028984401 -0.0079295505 0.02094798 -0.013352873 -0.04009458 -0.06540162 0.04726589 0.036653847
0.12560633 -0.10056695 -0.071384095 0.06453407 0.06859745 0.07780946 0.05186882 -0.067983925
0.051606093 0.030638859 -0.022074742 0.034274634 -0.13155314 0.0119521115 0.030047856 -0.067864046
-0.39523956 0.011469626 0.0353115 0.045003522 -0.2679666 -0.20271029 0.13555576 -0.11970635
-0.16017391 0.18915576 0.11717986 0.033021364 0.2559031 0.16220951 0.25886607 -0.071233526
0.030191919 -0.06427314 -0.08660838 -0.07610371 -0.067657374 0.065418124 -0.08546199 0.09078369
0.012710064 0.017221406 0.0213648 0.022965785 -0.13630863 0.006104985 0.009173825 -0.042512864
0.0064388295 -0.09792808 0.1708766 0.11480809 0.07517626 0.185099 0.09012955 0.033526413
0.0314509 -0.09695748 -0.09877222 0.15202186 0.10107369 -0.099258006 0.09246286 -0.097154036
0.023975357 0.060157854 0.019976296 -0.016130382 0.19245769 0.0189148 -0.0034057118 0.021734444
0.07908125 0.036554985 -0.0011276017 0.023747975 0.024916718 0.10432041 0.036711738 -0.075493135
0.14977603 -0.20062189 -0.11211551 -0.12210051 0.27119634 -0.15351611 -0.07580738 -0.11608514
0.12990446 0.095303744 0.09592425 -0.23146108 -0.19485074 -0.32577565 0.11154463 0.2119344
0.15043147 -0.2086057 -0.15706493 -0.10855119 -0.15287523 0.10921119 -0.1429797 0.13896298
0.11173609 0.11236322 0.10435582 0.13083467 -0.14439839 0.10938691 0.08268939 -0.11570857
-0.13520138 0.05595869 0.0368753 -0.012462637 -0.09311219 0.05517839 0.061656334 0.053908557
-0.012034508 0.009800527 -0.025242774 0.019450277 0.048949547 0.02021438 -0.012404336 -0.05915464
-0.12375506 0.17977403 0.14367151 0.12191129 0.26483712 -0.112046644 0.12848234 -0.09432346
-0.06959731 -0.062163025 -0.06686606 -0.062104225 0.15739848 -0.04850653 -0.055959996 0.08875149
0.24733907 -0.122282125 -0.0013367602 0.02594598 0.09533274 0.03498103 -0.034696303 -0.018967595
0.057076786 -0.042667832 -0.04915167 0.058738694 -0.058827873 -0.19272536 0.011880134 0.032463986

encoder.fc.bias f4 [16]
00000000: 6b80 123d 69fd 753c 4045 89bd 2d93 d6bc
00000010: 4ce3 31bc c842 e43d afb1 6b3d f717 0abc
00000020: c823 acbd ceac ad3c 5106 e73c 4f5b 183d
00000030: 6e1f 5d3d 6a92 a4bd b3ab edbd 3dea 8a3d
0.035767 0.015014031 -0.067026615 -0.026193226 -0.010857414 0.1114555 0.0575425 -0.008428565
-0.08405262 0.021200564 0.028201254 0.037196454 0.05398505 -0.08035739 -0.11605015 0.06782959

decoder.attention.attn.weight f4 [16, 48]
00000000: b7fa bf3e 0ea3 dabd 41f6 62bf d947 6f3e
00000010: 9d6d 593e 7bd8 9b3e bb97 f33e 4edd 72be
00000020: bc45 cfbe 4057 183e 26ee 423e dce9 443f
00000030: f9c4 5b3f c148 8abf 9072 cbbe 6abe bc3e
00000040: bb6b 223e 8411 02be 0ccf dcbd 4a2e f1bd
00000050: 516f eabb 35b2 9f3e 52aa 94be a0a6 233e
00000060: 7512 7a3e 27c2 b43e d5f8 023e e155 9a3e
00000070: 6aa6 48be c6f2 833e 34c4 8f3e 38fc 8fbd
00000080: d147 db3d 3729 953e 1a1d 563d eb19 7d3d
00000090: 37b9 ebbe 8256 863d 9d29 813e b519 8a3d
000000a0: b341 c5bd 65af 4fbd f63b 23bd c264 ba3d
000000b0: 4068 793e a391 273e e99c 53be ffa4 1fbe
000000c0: df31 39bd 818b 97be 56bf 743f f312 15bf
000000d0: 939f 47bf 53ab f13d b923 74bf 65e4 423f
000000e0: 818c b53f e3ff 3d3e 3f98 633e dff8 a6be
000000f0: 8d5b 51be 16cf f43e 610b b3be cca3 e8bd
00000100: dbcb b33d c2cf 9b3d ea9b b13e 0a20 1a3f
00000110: 1113 b33e a33a 58bf 80c3 e13d 642b 1abf
00000120: a531 7dbd 7aac 32bf cca0 6e3e f62b 78be
00000130: ae93 d43e 4608 43bd 8cd7 48bf 0da5 d8be
00000140: 6141 523d 610e 04be 07b6 ba3d efb4 b13d
00000150: 8605 b33e 938b f2bb 2dd9 c4be 198e c53d
00000160: 541d ecbd b812 75bd aa79 37be 0bb5 babe
00000170: 9fd7 e6be f281 adbe 9994 203f b32e fe3d
00000180: 625e 9bbe d5a9 833f 807a 703e 3bb4 4cbe
00000190: 6316 c63e 0bfb fabe 7a02 5e3e bbe9 5ebe
000001a0: a748 f0be 950a 37be 1bf6 17bf d94f 13bf
000001b0: 4bc0 01bf 6c47 8b3e 8ea6 9e3f 2e13 2fbf
000001c0: 23f0 b6bd 94eb eb3c 75d5 043e 2343 e9ba
000001d0: 6a51 f3bd f765 01bd 88a1 f93c e0dc 3ebc
000001e0: c1d1 81be 2965 00be 6402 46be 6fb8 3abe
000001f0: 070e b23d 0482 9abd 9bcf 55bd f5e9 ac3e
00000200: 7ac9 d5bd c34a 66be e91a 84be 6074 30bd
00000210: d106 db3d f6d3 6fbd d5a2 043e 3f20 76be
00000220: f40e 893e 2f84 3e3d ce80 593d f840 a3bd
00000230: a910 e43d 2b24 2cbe 32d1 75be 0a70 e0bc
00000240: 6e69 bc3e 6fae a3be fe48 25bf a289 513e
00000250: 3f19 a13c 9c53 b83e bf1c 983e 4c52 fabd
00000260: bd03 0ebe ffe8 103e 7354 a03e c18c 3a3f
00000270: 400e 3e3f 3868 47bf f241 01bf 88a5 013f
00000280: 91ad 053e 9278 9dbc a0ea 29be 6edc 54be
00000290: 5765 373c cd67 a33e 1fd2 4ebe 5187 523e
000002a0: c12d 903d a040 c53e 70b4 ff3d 1fdf 6d3e
000002b0: 6d08 48be c6ad a23e 465b 7f3e f2b8 03be
000002c0: efcb 8c3d e7fe 063e 3ecd 803d b1dd b63d
000002d0: d90a abbe 417d 003d 2aa9 983e 66f2 803d
000002e0: cee1 27bd eb39 8cbd 804b 01bd 4b64 333e
000002f0: cfe7 2f3e 78c0 9c3d e140 70be 9e8f 12be
00000300: 2740 a8be dcb0 833f 08c9 523e 279f 4dbe
00000310: 3592 cb3e 8692 efbe 2572 7c3e 0aea 61be
00000320: 9191 fabe db74 04be bf6f 0cbf 0313 13bf
00000330: cae8 f1be 10a2 853e 21fb 983f a666 28bf
00000340: 73bb e2bd 68b9 593d 84d2 d83d b4a6 a2bc
00000350: c35f d3bd 87c8 a13c dca1 29bd cebb 083c
00000360: 5a01 9abe 46ff f9bd 614f 47be 93f5 43be
00000370: 22b6 833d 3ccc 54bd d834 75bc 9f43 9d3e
00000380: 1d71 0bbe c58f 80be 34b8 7abe bab8 92bd
00000390: fcfe da3d f5c3 8abd 4adf 273e d0de 86be
000003a0: ac5a 9d3e f65c 083d 4814 703d 5842 bebd
000003b0: e1c9 163e 4498 3abe 3dab 90be 8ab7 59bc
000003c0: ba97 e13e 67a1 a5bd 923d 85bf b5ad 603e
000003d0: 33a5 823e af43 683e f4c0 fe3e 8266 7ebe
000003e0: a861 f4be 6c15 d33d 10da 223e 2045 363f
000003f0: 07bc 6d3f 4a21 a1bf fc7f 86be 10a4 b13e
0.37495968 -0.106756315 -0.88657004 0.23367251 0.2123322 0.304386 0.475767 -0.23717234
-0.4048289 0.14877033 0.19036159 0.7691934 0.8584743 -1.0803453 -0.39735842 0.36864024
0.15861408 -0.12701994 -0.107816786 -0.11776407 -0.007154383 0.3119065 -0.29036194 0.15981531
0.24421103 0.35304376 0.12790234 0.30143645 -0.19594732 0.2577116 0.2807938 -0.07030529
0.10707057 0.29133007 0.052273847 0.061792295 -0.46039745 0.06559469 0.2522706 0.067431845
-0.09631672 -0.05070438 -0.039852105 0.09101249 0.24356174 0.1636415 -0.20665325 -0.15590285
-0.045213576 -0.2959862 0.95604455 -0.5823204 -0.77977866 0.118002556 -0.9536701 0.7612975
1.4183503 0.18554644 0.22226046 -0.3261175 -0.2044508 0.47814244 -0.3496962 -0.11359367
0.08779117 0.07607986 0.34689265 0.6020514 0.34975484 -0.8446447 0.11023617 -0.6022246
-0.061814923 -0.6979443 0.23303527 -0.2423552 0.4151892 -0.047615312 -0.784539 -0.42313424
0.05133188 -0.1289611 0.0911675 0.086770885 0.34965152 -0.0074018924 -0.38446942 0.096462436
-0.115290314 -0.059832305 -0.17917505 -0.3646625 -0.4508638 -0.33888203 0.6272674 0.12411251
-0.30345446 1.0286204 0.2348423 -0.19990627 0.38688955 -0.49019656 0.21680632 -0.21768849
-0.4693043 -0.1787513 -0.593599 -0.5754371 -0.5068404 0.27202928 1.2394578 -0.6838864
-0.08932521 0.028798856 0.12972052 -0.0017796498 -0.11880763 -0.031591382 0.030472532 -0.01164934
-0.25355342 -0.1253859 -0.1933685 -0.18234418 0.08694082 -0.0754433 -0.05219994 0.33772245
-0.10438819 -0.22489457 -0.2580178 -0.043079734 0.106946595 -0.05855175 0.1295274 -0.24035738
0.2676922 0.04651278 0.053101353 -0.07971376 0.1113599 -0.16810672 -0.24005583 -0.027397174
0.36799186 -0.3196902 -0.645645 0.20462659 0.019665359 0.3600129 0.29709432 -0.12222728
-0.13868614 0.14151381 0.3131443 0.72871023 0.74240494 -0.778934 -0.5049125 0.50643206
0.13054492 -0.019222531 -0.16593409 -0.20787212 0.011193595 0.3191513 -0.20197342 0.20559432
0.07039977 0.38525867 0.124855876 0.23229645 -0.19534464 0.31773204 0.24937162 -0.1286352
0.06874835 0.13183175 0.06289147 0.08929003 -0.33406714 0.03136945 0.29816562 0.06296234
-0.04098683 -0.068469845 -0.031566143 0.17518727 0.17178272 0.07653898 -0.2346225 -0.14312598
-0.32861444 1.0288348 0.205845 -0.20080243 0.39759985 -0.46791476 0.24652918 -0.22061935
-0.48939183 -0.12935202 -0.5485801 -0.57450885 -0.47247916 0.26100206 1.1951638 -0.6578163
-0.11070909 0.053155333 0.10587028 -0.01985488 -0.103209995 0.01974894 -0.041414127 0.008345557
-0.30079156 -0.12206893 -0.19463874 -0.19136648 0.064312235 -0.051952586 -0.014966212 0.30715653
-0.13617368 -0.25109687 -0.2448433 -0.0716414 0.10693166 -0.06775657 0.16393772 -0.26341867
0.3073324 0.03329178 0.05861309 -0.09289998 0.14725448 -0.18222147 -0.28255644 -0.013288388
0.4406107 -0.08087426 -1.0409415 0.21941264 0.25516662 0.22682069 0.49756587 -0.24843791
-0.47730756 0.1030682 0.15903497 0.71199226 0.9286503 -1.2588284 -0.2626952 0.34695482

decoder.attention.attn.bias f4 [16]
00000000: 660f 993e d93e 0dbd b27c 90be cb39 ce3e
00000010: e10f 91be 126c 923e 41c9 77be a4da 9b3e
00000020: cbde 4e3d e930 b0be a01e d03e 7b88 91be
00000030: da81 8b3e 7571 9a3e f43f 883e 350d 90be
0.2989456 -0.034483764 -0.28220135 0.40278468 -0.28332427 0.28598076 -0.24197866 0.30440247
0.05050544 -0.34412315 0.40648365 -0.2842444 0.27247506 0.30164686 0.26611292 -0.28135076

decoder.attention.v.weight f4 [1, 16]
00000000: 8d6c b73e b7d3 95bf a01e 89be 3687 c43e
00000010: aaaa 87be e0ac ce3e a8c2 b4be 8c38 b63e
00000020: de0f 91bf 63b1 b2be 8b69 2a3f 6b55 87be
00000030: 4736 8f3e 1e1c 9b3e 1b67 7d3e 4e6a 90be
0.35825005 -1.1705235 -0.26781178 0.38384408 -0.26497394 0.40366268 -0.3530476 0.35590017
-1.1332967 -0.3490096 0.66567296 -0.26432356 0.27971098 0.3029489 0.24746363 -0.28206104
