agl/models/autosave/new-AE-124-16-0.001-C1.pt (torch, 113900 bytes, 21 tensors)

encoder.embedding.weight f4 [8, 124]
-0.0034549423 0.007628184 0.010164238 -0.012879676 0.011500544 0.009062675 0.012032251 0.0050499374
-0.017770533 0.0050082724 -0.019071061 0.020154255 -0.008650189 -0.0008901356 0.017337825 -0.0014182002
0.0012885358 0.0060062003 -0.026989805 0.0029394527 0.0062356014 -0.0027283786 0.008231054 0.003139043
0.01487145 -0.0078012412 0.015519498 0.012185361 0.006625457 -0.015737044 -0.013713767 -0.01742454
-0.0037122231 -0.02569514 0.0070343334 -0.008355694 -0.0028914472 -0.001440012 -0.017276129 -0.00894853
-0.015353718 -0.004760431 0.011482227 -0.015980536 0.0042947168 -0.0064294087 -0.020115985 -0.0047853226
0.0066659115 0.0008821173 -0.0073442375 -0.00028884085 0.00153829 0.011915256 0.008190417 -0.008022738
-0.010233444 0.007933596 0.012190293 -0.0053152163 -0.0069180364 -0.013462452 -0.0018594591 -0.0022495866
-0.0007261457 -0.0076433658 -0.008845752 -0.0035191833 -0.0068850648 0.00096538436 0.013994943 0.010391785
-0.012154046 0.009590668 0.00069855846 0.008427597 -0.019365638 -0.006722578 0.00066277874 0.012272784
0.00692891 0.0151364645 -5.6327193e-05 -0.016619407 -0.00064620096 0.010360212 0.005551978 -0.00019484873
-0.01977711 -0.0029634961 -0.010562038 -0.005925088 -0.0109129725 -0.0049529267 0.013314437 -0.02320377
0.0027801034 -0.0012320079 0.0041832784 -0.0014253494 -0.009883885 0.013186961 0.019997787 0.0019071763
0.0062054466 0.0054667154 -0.0035851367 -0.0009340892 -0.015458295 0.016008805 0.014693482 -0.0035526222
-0.00093457877 0.011067634 -0.011900842 0.013588288 0.022148818 0.016663495 0.0005930954 -0.008964592
-0.0044368994 0.00041913427 0.015879676 0.028475983 -0.040157493 -0.0823079 0.15376216 -0.02430032
0.13568003 -0.15141556 0.1210488 -0.07477439 -0.21367458 0.021586321 0.027674783 0.057158787
-0.120580256 0.09170931 -0.03950418 0.05566689 0.12424271 0.107156366 0.098624125 0.0150613515
-0.08618597 -0.025929512 0.051692292 0.19926804 -0.18914446 0.07619906 -0.08667423 -0.110889874
-0.14384598 0.06812395 0.1324638 -0.07213448 0.011204915 -0.13838619 0.01669219 -0.12725824
-0.16367014 -0.18853411 -0.03748261 0.116607584 -0.07711041 0.051982563 0.10688033 0.06739457
-0.048885778 -0.077044725 0.07190318 -0.15107925 -0.0721062 -0.031067189 0.071363695 -0.15496618
-0.11564829 0.11563426 0.12798683 0.1531311 0.08387675 -0.075429074 -0.12056367 -0.03049395
0.06688615 0.04105861 0.18277556 -0.063569695 -0.040969186 -0.17870383 -0.02269901 -0.026681775
0.19486548 0.02871228 0.17480056 0.119010545 -0.015683167 0.08784248 -0.14412937 0.056455076
0.11071236 -0.023237215 -0.18399732 -0.1607929 -0.11183192 -0.17930436 0.040420767 -0.108795345
-0.18263893 -0.023635402 -0.13209367 0.07049196 -0.025382342 -0.076765105 -0.045853104 0.114442036
-0.06298337 0.16004343 0.10505292 0.031153824 0.061711 -0.16932698 0.034790024 0.017691154
0.15234688 0.05433983 0.13860548 0.13033046 0.0741394 0.14965206 0.008730539 0.1256638
0.1191661 0.14032744 -0.20120552 0.12047368 0.07862237 0.020906026 0.0011446708 0.024310052
0.15187648 -0.044849455 0.17540255 -0.21720545 -0.057596106 -0.13037644 0.0151513815 -0.082956195
-0.24363226 -0.017053397 0.22555621 -0.12272552 0.10385578 -0.16524032 0.3217545 -0.033855043
00000000: 506c 62bb d8f5 f93b e787 263c 4705 53bc
00000010: c76c 3c3c 9d7b 143c eb22 453c f279 a53b
00000020: 8293 91bc 6f1c a43b ea3a 9cbc 891a a53c
00000030: 86b9 0dbc fd57 69ba 0e08 8e3c e7e2 b9ba
00000040: 16e4 a83a a9cf c43b b919 ddbc d5a3 403b
00000050: 0454 cc3b 99ce 32bb 8bdb 063c 67b8 4d3b
00000060: 62a7 733c 8ea1 ffbb 7e45 7e3c 1ca5 473c
00000070: 5d1a d93b f9ea 80bc b5af 60bc e9bd 8ebc
00000080: c548 73bb 9d7e d2bc 4480 e63b 52e6 08bc
00000090: 6f7e 3dbb c9be bcba ab86 8dbc db9c 12bc
000000a0: 298e 7bbc 64fd 9bbb f31f 3c3c 9de9 82bc
000000b0: b2ba 8c3b caad d2bb 47ca a4bc 32ce 9cbb
000000c0: b86d da3b e43d 673a eea7 f0bb 906f 97b9
000000d0: 72a0 c93a 3538 433c 1931 063c cd71 03bc
000000e0: 2daa 27bc eafb 013c cbb9 473c 442b aebb
000000f0: b2b0 e2bb 9e91 5cbc 18b9 f3ba cd6d 13bb
00000100: d05a 3eba 3375 fabb c6ed 10bc 19a2 66bb
00000110: 1c9c e1bb d911 7d3a 0c4b 653c 4e42 2a3c
00000120: c421 47bc 2d22 1d3c 771f 373a e713 0a3c
00000130: b0a4 9ebc 1249 dcbb 54be 2d3a c913 493c
00000140: e90b e33b effe 773c dd40 6cb8 6c25 88bc
00000150: d065 29ba e1bd 293c 5eed b53b 4f50 4cb9
00000160: 9b03 a2bc 3737 42bb 660c 2dbc 3e27 c2bb
00000170: 53cc 32bc 294c a2bb cc24 5a3c d515 bebc
00000180: 6532 363b 537b a1ba e213 893b cad2 baba
00000190: 05f0 21bc 200e 583c 66d2 a33c 38fa f93a
000001a0: 0f57 cb3b 2222 b33b 9df4 6abb aadd 74ba
000001b0: ca44 7dbc e624 833c eebc 703c 1cd3 68bb
000001c0: 85fe 74ba 0655 353c c0fb 42bc 69a1 5e3c
000001d0: 7071 b53c e281 883c f579 1b3a 39e0 12bc
000001e0: 6963 91bb 40bf db39 1816 823c 7746 e93c
000001f0: 2f7c 24bd 0b91 a8bd d473 1d3e 7711 c7bc
00000200: b5ef 0a3e ae0c 1bbe 6fe8 f73d 5123 99bd
00000210: 82cd 5abe ccd5 b03c 3ab6 e23c 551f 6a3d
00000220: c8f2 f6bd 17d2 bb3d 23cf 21bd f702 643d
00000230: f672 fe3d cc74 db3d 72fb c93d e3c3 763c
00000240: 4582 b0bd 216a d4bc 4cbb 533d ec0c 4c3e
00000250: 16af 41be 410e 9c3d 4282 b1bd 3b1a e3bd
00000260: 5c4c 13be 9284 8b3d 97a4 073e 3ebb 93bd
00000270: d294 373c 1cb5 0dbe 0fbe 883c fc4f 02be
00000280: 2599 27be 160f 41be 5e87 19bd f5cf ee3d
00000290: 10ec 9dbd abeb 543d 13e4 da3d 2a06 8a3d
000002a0: 743c 48bd a0c9 9dbd f941 933d 85b4 1abe
000002b0: 6aac 93bd 9e80 febc 2127 923d 74af 1ebe
000002c0: 03d9 ecbd a8d1 ec3d fb0e 033e 66ce 1c3e
000002d0: 93c7 ab3d 8f7a 9abd 16ea f6bd 73ce f9bc
000002e0: 9bfb 883d 132d 283d 8429 3b3e d430 82bd
000002f0: 4ecf 27bd 23fe 36be 46f3 b9bc bd93 dabc
00000300: d18a 473e 0436 eb3c ebfe 323e cdbb f33d
00000310: fc79 80bc c2e6 b33d a696 13be 703d 673d
00000320: 29bd e23d f95b bebc cb69 3cbe e5a6 24be
00000330: 2208 e5bd 909b 37be 3f90 253d 18d0 debd
00000340: b305 3bbe 089f c1bc 9043 07be 175e 903d
00000350: a1ee cfbc 0637 9dbd 77d0 3bbd 9660 ea3d
00000360: 6dfd 80bd 6de2 233e fc25 d73d 4e36 ff3c
00000370: acc4 7c3d 0d64 2dbe fc7f 0e3d 0aed 903c
00000380: d200 1c3e 7193 5e3d 98ee 0d3e 5975 053e
00000390: 66d6 973d 643e 193e 890a 0f3c 03ae 003e
000003a0: 5b0d f43d ffb1 0f3e d208 4ebe e8ba f63d
000003b0: c404 a13d 1d43 ab3c c708 963a e025 c73c
000003c0: 8285 1b3e 10b4 37bd ba9c 333e 1b6b 5ebe
000003d0: e5e9 6bbd 6781 05be 803d 783c f0e4 a9bd
000003e0: bc7a 79be 91b3 8bbc 35f8 663e 8457 fbbd
000003f0: 57b2 d43d c234 29be 01bd a43e 96ab 0abd

encoder.rnn.weight_ih_l0 f4 [48, 124]
-0.009783164 -0.13746725 0.028355043 0.17919017 -0.17965925 0.032644324 0.046765186 0.2701538
-0.034602102 0.14695874 0.15244234 -0.19832301 0.009521268 -0.20938918 -0.1850642 0.05477962
-0.3089485 -0.2625507 -0.3045517 -0.08518391 0.30100584 0.093302086 0.11708625 0.027301077
-0.051105786 -0.2517476 -0.15118064 -0.068254486 0.0964144 -0.250422 -0.14692648 -0.044863105
0.21916893 0.024351459 -0.25324953 0.12383261 0.12828587 -0.024098426 0.0871295 0.031044293
0.03564416 -0.2675355 -0.2769171 -0.29651597 0.3267271 -0.013439889 -0.16857405 0.040169705
0.1509966 0.22497626 -0.28519946 0.21291794 0.21122497 -0.24715893 -0.07239686 -0.04271393
-0.25784057 0.3327975 -0.0077312803 -0.010062588 0.029152974 -0.13987014 0.007569735 0.30789933
0.15816037 -0.06198012 0.29671678 0.21390909 -0.23428455 -0.018511407 -0.14175534 -0.19240692
-0.116030626 0.123442814 -0.018614737 -0.27660963 0.040613405 -0.061993957 3.3566706e-05 0.015261592
0.21603733 -0.01331779 0.045340277 0.241216 0.05096215 0.2554338 0.036833666 0.07440225
-0.12310442 0.21746336 -0.20080042 0.08737402 0.23801386 -0.040345356 -0.0065412414 -0.20697115
0.031377025 0.001363437 -0.22490919 0.20277376 -0.051650193 0.11771187 0.05126743 -0.2215348
-0.19038667 -0.10817617 -0.20387703 -0.0542628 -0.038502432 -0.16792086 0.12393098 0.046777505
-0.29851028 -0.18773136 0.18809791 0.19426253 -0.16853182 0.29480729 -0.01568178 0.14597787
-0.059063204 -0.01705926 -0.10847914 0.26295796 -0.17704384 -0.035003528 0.29165107 -0.09354833
0.21868873 -0.33789313 0.2650475 0.030705292 -0.2969867 0.07886497 0.08516532 0.081499875
-0.43451488 0.11403631 -0.04626864 0.22028954 0.0993333 0.14202051 0.21189505 -0.08956091
-0.15395947 -0.26388747 0.098498695 0.260672 -0.30530697 0.17789908 -0.16608636 -0.27156192
-0.31454194 0.07022647 0.33726308 -0.1149466 -0.06685755 -0.17577164 0.06910562 -0.26287067
-0.30487278 -0.3838932 -0.32348117 0.39416647 -0.35028088 0.12350459 0.11095839 0.086780496
-0.12966833 -0.26121652 0.2657893 -0.27945378 -0.2693108 -0.023407131 0.047338672 -0.22400837
-0.13233536 0.18124045 0.29706416 0.31325704 0.14020236 -0.11537338 -0.293039 -0.08376663
0.341969 0.32389817 0.27993673 -0.039107576 -0.13655557 -0.29050756 -0.07568692 -0.05377872
0.32728717 0.24970017 0.27933258 0.15645678 -0.0105946 0.24389175 -0.25775656 -0.006566445
0.22049297 -0.24610603 -0.34766388 -0.2365922 -0.15134662 -0.22617964 0.18354894 -0.1275742
-0.29821226 -0.008675468 -0.30981758 0.28115615 -0.023446985 -0.10309659 -0.05808545 0.074766085
-0.09091731 0.4103435 0.40961465 0.09188303 0.21970868 -0.24810597 0.16936181 -0.054396212
0.3524427 0.09696581 0.33696765 0.15550107 0.19737035 0.33970657 0.008518572 0.2752834
0.26538682 0.148233 -0.27174488 0.19885804 0.12885977 0.11388342 0.020991951 0.1033631
0.29522252 -0.1031414 0.3063972 -0.21794763 -0.2444815 -0.23992376 0.017318552 -0.029879741
-0.06546816 -0.0013413642 0.026418893 -0.019200029 -0.029413035 0.007035517 0.049874943 -0.12197035
00000000: 9049 20bc 37c4 0cbe d648 e83c a17d 373e
00000010: 98f8 37be 0eb6 053d da8c 3f3d 9951 8a3e
00000020: efba 0dbd 5a7c 163e d819 1c3e 3015 4bbe
00000030: 18ff 1b3c 1e6a 56be 7881 3dbe 9860 603d
00000040: 7f2e 9ebe 0c6d 86be 33ee 9bbe e774 aebd
00000050: 701d 9a3e 2a15 bf3d eaca ef3d 82a6 df3c
00000060: 4d54 51bd 10e5 80be 19cf 1abe 02c9 8bbd
00000070: ea74 c53d 5037 80be e573 16be 60c2 37bd
00000080: d26d 603e b67c c73c eca9 81be f49b fd3d
00000090: 5f5d 033e 106a c5bc f470 b23d 9a50 fe3c
000000a0: 9cff 113d 6afa 88be 14c8 8dbe f1d0 97be
000000b0: c648 a73e fb32 5cbc ad9e 2cbe fd88 243d
000000c0: da9e 1a3e 2d60 663e aa05 92be 2907 5a3e
000000d0: 5c4b 583e 3b17 7dbe ce44 94bd cdf4 2ebd
000000e0: ae03 84be 6f64 aa3e ae56 fdbb 8edd 24bc
000000f0: 38d2 ee3c 1e3a 0fbe 8a0b f83b fba4 9d3e
00000100: cbf4 213e dede 7dbd 43eb 973e fc0a 5b3e
00000110: 4ae8 6fbe 3ca5 97bc 5028 11be 5206 45be
00000120: 77a1 edbd 96cf fc3d ef7d 98bc c79f 8dbe
00000130: 3e5a 263d 60ed 7dbd fac9 0c38 c20b 7a3c
00000140: e438 5d3e dc32 5abc bab6 393d 5401 773e
00000150: b0bd 503d 38c8 823e e6de 163d 3560 983d
00000160: 2c1e fcbd b7ae 5e3e a09e 4dbe 26f1 b23d
00000170: e8b9 733e 2c41 25bd e957 d6bb 3ff0 53be
00000180: 3285 003d 5bb5 b23a 984e 66be eda3 4f3e
00000190: 278f 53bd ec12 f13d ccfd 513d 05da 62be
000001a0: b9f4 42be 788b ddbd 24c5 50be ab42 5ebd
000001b0: bab4 1dbd 72f3 2bbe 87cf fd3d c599 3f3d
000001c0: 57d6 98be a63c 40be bd9c 403e c2ec 463e
000001d0: 9b93 2cbe fbf0 963e 1477 80bc 397b 153e
000001e0: 42ec 71bd dcbf 8bbc 502a debd 6da2 863e
000001f0: fb4a 35be dc5f 0fbd 4a53 953e 4496 bfbd
00000200: f0ef 5f3e 5400 adbe 4eb4 873e aa89 fb3c
00000210: a40e 98be f583 a13d 286b ae3d 68e9 a63d
00000220: bc78 debe de8b e93d 2f84 3dbd 9593 613e
00000230: 426f cb3d d36d 113e 04fb 583e b66b b7bd
00000240: 8da7 1dbe 421c 87be afb9 c93d cd76 853e
00000250: 3251 9cbe 2d2b 363e 8b12 2abe 2a0a 8bbe
00000260: a40b a1be e5d2 8f3d bfad ac3e 1f69 ebbd
00000270: 9cec 88bd 7bfd 33be 3f87 8d3d fc96 86be
00000280: 4918 9cbe a68d c4be 539f a5be 30d0 c93e
00000290: 0458 b3be f9ef fc3d 273e e33d f9b9 b13d
000002a0: c6c7 04be 2cbe 85be 8915 883e 9114 8fbe
000002b0: 1be3 89be 50c0 bfbc 32e6 413d 7362 65be
000002c0: ec82 07be 1997 393e cb18 983e 3a63 a03e
000002d0: 3591 0f3e e148 ecbd 3509 96be d78d abbd
000002e0: 9016 af3e fbd5 a53e de53 8f3e 442f 20bd
000002f0: 39d5 0bbe 68bd 94be be01 9bbd 1347 5cbd
00000300: 2f92 a73e 67b1 7f3e ae04 8f3e 3536 203e
00000310: f994 2dbc c2be 793e abf8 83be 552b d7bb
00000320: e9c8 613e 3803 7cbe 0001 b2be 3a45 72be
00000330: 9cfa 1abe a39b 67be 41f4 3b3e d0a2 02be
00000340: 47af 98be 8d23 0ebc 69a0 9ebe b3f3 8f3e
00000350: e413 c0bc 4e24 d3bd 02eb 6dbd f61e 993d
00000360: db32 babd 8b18 d23e 03b9 d13e 2c2d bc3d
00000370: 50fb 603e 7e0f 7ebe 2f6d 2d3e 90ce 5ebd
00000380: 5f73 b43e 0396 c63d 0687 ac3e ac3b 1f3e
00000390: 741b 4a3e 05ee ad3e 7b91 0b3c f2f1 8c3e
000003a0: c8e0 873e 64ca 173e 2522 8bbe 71a1 4b3e
000003b0: d1f3 033e b63b e93d 50f7 ab3c 08b0 d33d
000003c0: 6827 973e cc3b d3bd 18e0 9c3e aa2d 5fbe
000003d0: 5c59 7abe 93ae 75be a3df 8d3c 5cc6 f4bc
000003e0: 2c14 86bd b7d0 afba 6f6c d83c 6149 9dbc
000003f0: 9bf3 f0bc 328a e63b ab49 4c3d 97cb f9bd

encoder.rnn.weight_hh_l0 f4 [48, 16]
0.2408866 -0.13421889 -0.33009377 -0.45229355 0.10736003 0.25580984 -0.15872964 0.20027533
-0.33435115 0.03799124 -0.14069863 0.060500745 -0.17526288 -0.21128361 -0.19113171 0.3021956
-0.19242434 0.08739421 0.049737953 -0.007293982 -0.08082896 -0.11777223 0.14173853 -0.17965081
0.08744273 -0.11178549 0.10972377 -0.08490036 0.15167873 0.17856872 0.10985796 0.0006271187
0.29143897 -0.33632144 -0.22395591 -0.105093144 0.3470923 0.28474692 -0.30556962 0.30903885
-0.26495412 0.27214128 -0.32072717 0.38133788 -0.32130244 -0.30081737 -0.34039554 0.05694718
0.11902712 0.109065704 -0.10585937 -0.11947585 0.032450523 0.10013057 -0.13037342 0.107192315
-0.092619166 -0.029287405 -0.096267186 -0.076669164 -0.121241786 -0.119258724 -0.12100648 0.11964591
0.12220036 -0.0785102 -0.07302241 -0.09925028 0.11252198 0.0648624 -0.10917898 0.12027952
-0.103729635 0.06003586 -0.10641452 0.050193254 -0.117500894 -0.110567674 -0.10841638 0.051467244
0.2734034 -0.42544183 -0.41420946 -0.019770209 0.3767301 0.5587386 -0.297766 0.3029152
-0.48078266 0.30867347 -0.32907042 0.4039596 -0.31541413 -0.28020355 -0.34670752 -0.034849387
0.18071766 -0.07538052 -0.19400282 -0.21079953 0.12992398 0.24136396 -0.15009679 0.13084643
-0.24770723 0.10245182 -0.13507834 0.029750664 -0.16814864 -0.14085835 -0.1522144 0.21414171
0.17343739 -0.1381178 -0.16056052 -0.21170521 0.15303476 0.11284697 -0.15518714 0.17997691
-0.14896102 0.0960887 -0.16484553 0.104737714 -0.19126174 -0.19671462 -0.18311867 0.11900121
0.288252 -0.27575627 -0.24667305 -0.09318308 0.29249737 0.32327548 -0.28845572 0.30484468
-0.29089716 0.23196262 -0.32838708 0.25002986 -0.31583798 -0.29221928 -0.3283032 0.04501219
0.013272566 0.015736217 0.08772113 0.027568454 -0.031834427 -0.05323901 0.037129253 -0.015336581
0.03913297 -0.009435211 0.03495581 -0.01564769 0.0448804 0.010891372 0.016849918 -0.017805846
0.15171108 -0.05805512 -0.103084244 -0.12587346 0.08780054 0.13608682 -0.12989481 0.13961077
-0.13558708 0.057141576 -0.09842597 0.049335822 -0.12923034 -0.11605529 -0.12385634 0.070611596
-0.19464822 0.08934321 -0.011538987 -0.010700172 -0.09782414 -0.04067208 0.14275552 -0.21072443
0.011640127 -0.096727826 0.09196341 -0.055065513 0.17078094 0.2027798 0.10770575 0.02201945
0.18489389 -0.106124505 -0.18650381 -0.20888418 0.14720397 0.19917582 -0.16978687 0.14940536
-0.1967432 0.11346286 -0.14993127 0.052129623 -0.15837094 -0.17116347 -0.15881321 0.18809913
0.23714143 -0.121700205 -0.30324954 -0.33245924 0.1271471 0.22972512 -0.18753639 0.20716263
-0.27984494 0.07560383 -0.15567058 0.06681616 -0.18136631 -0.23160903 -0.22922973 0.22024769
0.15701725 -0.04152891 -0.20980237 -0.27359 0.080014415 0.20958512 -0.14009981 0.13275547
-0.2018171 0.044818774 -0.1130755 0.009768467 -0.11772654 -0.14438404 -0.1326853 0.21756557
0.1050753 0.1336447 -0.08558886 -0.102782875 0.011353228 0.07620057 -0.1578134 0.13621488
-0.0695788 -0.07239981 -0.0935672 -0.09801277 -0.14583932 -0.14214514 -0.13886866 0.104836434
00000000: faaa 763e ad70 09be 0d02 a9be 0593 e7be
00000010: 93df db3d 82f9 823e 068a 22be fa14 4d3e
00000020: 1330 abbe b49c 1b3d 4d13 10be a1cf 773d
00000030: 1d78 33be bb5a 58be 08b8 43be 62b9 9a3e
00000040: e30a 45be bcfb b23d 06ba 4b3d 5b02 efbb
00000050: a789 a5bd 9132 f1bd e823 113e 62f6 37be
00000060: 2d15 b33d caef e4bd dbb6 e03d 3de0 adbd
00000070: ab51 1b3e b8da 363e 36fd e03d 3965 243a
00000080: 7d37 953e 5332 acbe b354 65be 133b d7bd
00000090: 15b6 b13e 59ca 913e 9f73 9cbe 573a 9e3e
000000a0: 11a8 87be 1a56 8b3e 5a36 a4be b83e c33e
000000b0: c181 a4be bc04 9abe 5348 aebe 7241 693d
000000c0: 7ec4 f33d d75d df3d cccc d8bd c1af f4bd
000000d0: d7ea 043d 4211 cd3d 9c80 05be a587 db3d
000000e0: 1eaf bdbd 24ec efbc bb27 c5bd b904 9dbd
000000f0: 9d4d f8bd eb3d f4bd 3fd2 f7bd ea08 f53d
00000100: 2f44 fa3d f5c9 a0bd c68c 95bd bb43 cbbd
00000110: ed71 e63d 94d6 843d 3b99 dfbd 1c55 f63d
00000120: 3470 d4bd 29e8 753d dbef d9bd 7197 4d3d
00000130: 4fa4 f0bd 4e71 e2bd 6809 debd 51cf 523d
00000140: 88fb 8b3e 83d3 d9be 4313 d4be 22f5 a1bc
00000150: c5e2 c03e 7e09 0f3f c974 98be b317 9b3e
00000160: 2529 f6be 730a 9e3e eb7b a8be cbd3 ce3e
00000170: f67d a1be d776 8fbe a683 b1be 3bbe 0ebd
00000180: 0d0e 393e 1a61 9abd ada8 46be d5db 57be
00000190: cb0a 053e 1d28 773e f9b2 19be 9bfc 053e
000001a0: f7a6 7dbe 43d2 d13d fa51 0abe aab7 f33c
000001b0: 282f 2cbe 2c3d 10be 17de 1bbe f747 5b3e
000001c0: 9299 313e c16e 0dbe fa69 24be 40c9 58be
000001d0: 25b5 1c3e 501c e73d 61e9 1ebe de4b 383e
000001e0: 3d89 18be 27ca c43d 44cd 28be ba80 d63d
000001f0: 1eda 43be 8f6f 49be 7683 3bbe e8b6 f33d
00000200: c495 933e ed2f 8dbe dc97 7cbe c5d6 bebd
00000210: 37c2 953e 5d84 a53e 78b0 93be 9a14 9c3e
00000220: 79f0 94be 9c87 6d3e 5a22 a8be ea03 803e
00000230: 84b5 a1be c49d 95be 5b17 a8be b45e 383d
00000240: 2d75 593c 3de9 803c 23a7 b33d 3dd7 e13c
00000250: d164 02bd 2611 5abd d814 183d 4846 7bbc
00000260: e549 203d 2596 1abc d32d 0f3d 962f 80bc
00000270: 83d4 373d ba71 323c d708 8a3c 91dd 91bc
00000280: 265a 1b3e 35cb 6dbd d51d d3bd f9e4 00be
00000290: c5d0 b33d 585a 0b3e 2503 05be 20f6 0e3e
000002a0: 57d7 0abe 490d 6a3d 8e93 c9bd 5c14 4a3d
000002b0: f554 04be 65ae edbd 65a8 fdbd d09c 903d
000002c0: dd51 47be 93f9 b63d 050e 3dbc c64f 2fbc
000002d0: 0658 c8bd c497 26bd 812e 123e 25c8 57be
000002e0: 3bb6 3e3c 3d19 c6bd 5057 bc3d 608c 61bd
000002f0: 33e1 2e3e 82a5 4f3e d594 dc3d 2262 b43c
00000300: d354 3d3e ce57 d9bd dbfa 3ebe bce5 55be
00000310: a3bc 163e bff4 4b3e 9cdc 2dbe b8fd 183e
00000320: 0d77 49be 375f e83d 9587 19be df85 553d
00000330: fe2b 22be 7a45 2fbe ee9f 22be 0f9d 403e
00000340: 34d5 723e f53d f9bd 8643 9bbe 1938 aabe
00000350: d932 023e 103d 6b3e 8a09 40be 7122 543e
00000360: d647 8fbe 2ed6 9a3d 1c68 1fbe e9d6 883d
00000370: 17b8 39be eb2a 6dbe 33bb 6abe 9c88 613e
00000380: 21c9 203e 381a 2abd 6fd6 56be fd13 8cbe
00000390: 99de a33d 7b9d 563e 5376 0fbe 0df1 073e
000003a0: 24a9 4ebe e493 373d 2194 e7bd ec0b 203c
000003b0: 9d1a f1bd 69d9 13be a8de 07be 82c9 5e3e
000003c0: b831 d73d 28da 083e 3649 afbd d47f d2bd
000003d0: e402 3a3c 0b0f 9c3d d699 21be ea7b 0b3e
000003e0: 547f 8ebd 5a46 94bd 29a0 bfbd ebba c8bd
000003f0: e756 15be 7f8e 11be 9633 0ebe 7cb4 d63d

encoder.rnn.bias_ih_l0 f4 [48]
0.06411977 -0.011281718 0.15394853 0.13047448 0.14615618 0.11025868 0.15731016 0.093643144
0.1717297 -0.061165467 0.12481182 0.0126828225 0.12528682 0.097731546 0.10496151 0.117157966
0.08427246 -0.24565063 -0.3226759 -0.33497155 -0.22918098 -0.289696 -0.04642689 0.084832765
-0.31055328 -0.38979912 -0.12135441 -0.22886758 -0.0046404595 0.055744253 -0.015902609 -0.17735308
0.011026744 0.04466587 -0.14271434 -0.13219795 0.03305399 0.13863608 -0.07008928 0.027183231
-0.13392612 0.021998156 -0.02725485 -0.05405216 -0.055075306 -0.028382283 -0.04024114 0.11118876
00000000: 3a51 833d f4d6 38bc afa4 1d3e 1a9b 053e
00000010: f7a9 153e 4ecf e13d ea15 213e fac7 bf3d
00000020: e9d9 2f3e a488 7abd 579d ff3d 9dcb 4f3c
00000030: 304b 003e 7a27 c83d 0ff6 d63d 84f0 ef3d
00000040: 0a97 ac3d d78b 7bbe c735 a5be 6481 abbe
00000050: 6bae 6abe 0953 94be 1f2a 3ebd cdbc ad3d
00000060: d700 9fbe c093 c7be a988 f8bd 435c 6abe
00000070: ff0e 98bb 1654 643d 3046 82bc 0c9c 35be
00000080: 84a9 343c 8ff3 363d b523 12be e65e 07be
00000090: 9f63 073d 9ef6 0d3e f88a 8fbd 5eaf de3c
000000a0: ee23 09be 7a35 b43c 9045 dfbc cc65 5dbd
000000b0: a596 61bd f681 e8bc e5d3 24bd efb6 e33d

encoder.rnn.bias_hh_l0 f4 [48]
0.06411975 -0.011281763 0.15394853 0.1304745 0.14615619 0.11025872 0.15731016 0.09364315
0.1717297 -0.061165474 0.12481182 0.012682829 0.12528679 0.09773159 0.104961485 0.117157966
0.084272444 -0.2456506 -0.3226759 -0.33497155 -0.22918096 -0.28969604 -0.046426877 0.08483271
-0.3105533 -0.389799 -0.12135443 -0.22886755 -0.0046403995 0.05574426 -0.015902635 -0.17735308
0.041428078 0.06641701 -0.14769052 -0.14664555 0.025426503 0.14529036 -0.062121477 0.03547354
-0.14168772 0.008341716 -0.020544564 -0.07350378 -0.05241813 -0.04992094 -0.044020288 0.11352193
00000000: 3751 833d 25d7 38bc afa4 1d3e 1b9b 053e
00000010: f8a9 153e 53cf e13d ea15 213e fbc7 bf3d
00000020: e9d9 2f3e a688 7abd 579d ff3d a4cb 4f3c
00000030: 2e4b 003e 8027 c83d 0cf6 d63d 84f0 ef3d
00000040: 0897 ac3d d58b 7bbe c735 a5be 6481 abbe
00000050: 6aae 6abe 0a53 94be 1c2a 3ebd c6bc ad3d
00000060: d800 9fbe bc93 c7be ac88 f8bd 415c 6abe
00000070: 7e0e 98bb 1854 643d 3e46 82bc 0c9c 35be
00000080: 7db0 293d a405 883d 2f3c 17be 402a 16be
00000090: 3e4b d03c ffc6 143e 1773 7ebd b44c 113d
000000a0: 9616 11be b1ab 083c 134d a8bc 2689 96bd
000000b0: 65b4 56bd e679 4cbd 9e4e 34bd 307e e83d

encoder.rnn.weight_ih_l0_reverse f4 [48, 124]
-0.06647063 0.28771877 0.12556484 -0.1968869 0.2184832 -0.14865518 0.022536606 -0.44603273
-0.1056184 -0.26370016 -0.28071234 0.32997727 -0.141911 0.16328208 0.21189064 -0.044742335
0.3064633 0.24729206 0.19374973 0.23544323 -0.20539637 -0.029282143 -0.20221305 0.100511335
-0.066877455 0.19886793 0.12199077 -0.037889697 -0.104552254 0.31555614 0.21700223 0.045256555
-0.43384805 -0.126919 0.30614337 -0.06567233 -0.18281092 -0.1216823 -0.1910607 0.12679884
-0.1268558 0.2679374 0.29903346 0.38591164 -0.218445 -0.10671063 0.16042167 -0.0767498
-0.2179095 -0.38133943 0.43417835 -0.23498549 -0.2352776 0.28113997 0.11584328 0.15418097
0.33108795 -0.27531937 0.015445528 0.15061904 0.15218145 0.13757083 0.052391116 -0.3651077
-0.29665986 -0.07190561 -0.28831875 -0.41258875 0.119016044 -0.048651155 0.17180632 0.20149419
0.40152973 -0.15985648 -0.014771371 0.38548127 0.10382343 0.095967434 -0.06062807 -0.086610004
-0.21479768 -0.08976665 0.027045738 -0.26972196 -0.11521766 -0.23218083 -0.11485626 0.035738885
0.28045234 -0.27834857 0.26762488 -0.093423046 -0.3872592 0.12707953 0.10544729 0.4652264
-0.037503712 -0.0788877 0.1724014 -0.3453933 0.20418148 -0.16568987 0.0007530528 0.09540377
0.13766108 0.13667865 0.39416727 0.15655956 0.13414076 0.17189802 -0.16117445 0.03917128
0.24849379 0.40419683 -0.4608411 -0.2881272 0.15066852 -0.2110823 0.12750846 -0.12940234
0.035123736 -0.023857517 0.44324479 -0.38383806 -0.09628 -0.017451849 0.18846796 -0.19204028
0.2848255 -0.070296586 0.03862111 -0.16569342 -0.096902974 -0.1359131 0.032686654 0.15174986
-0.16294362 0.20999014 0.07240374 0.13580243 0.2850482 0.17454663 0.2480883 -0.004561564
-0.19498403 -0.10327631 -0.021659413 0.12288244 -0.12458253 0.21376489 0.033934943 -0.07674334
-0.154543 0.3054954 0.29161748 -0.07330361 -0.27742597 -0.13005298 0.05066293 -0.2246101
-0.27515167 -0.11512365 -0.24977505 0.22829862 -0.2140941 0.24324152 0.29922464 0.3384014
-0.26786762 -0.20384936 0.23391524 -0.012579631 -0.10508783 -0.28102803 -0.0036695788 -0.24042307
-0.22496028 0.26845282 0.17674822 0.106839925 0.23142257 -0.21538907 -0.1333161 0.01806699
0.2563292 0.35426885 0.08573199 -0.254706 -0.20804036 -0.080843784 -0.3156911 -0.08107438
0.15528093 0.15238021 0.21104285 0.22478184 0.080915995 0.0031527425 -0.09811913 0.2189201
0.1491323 -0.10745428 -0.106350385 -0.026351038 -0.2133688 -0.04140638 0.028893596 -0.15839124
-0.09368923 -0.09790628 -0.116339974 0.103028625 -0.00024988787 -0.23643643 0.06442726 -0.02122905
-0.19832748 0.17170389 0.08980336 0.18316558 0.073403426 -0.036822315 0.27387464 -0.1332721
0.14206637 0.04007734 0.029271105 0.06874108 0.29833978 0.17558554 0.15526268 0.1566034
0.05967111 0.06091365 -0.13406962 0.06301598 0.21190877 0.19476159 -0.0049788905 0.048669346
0.1623429 -0.42693686 0.12103021 -0.10367762 -0.062463593 -0.063107 -0.0012211212 -0.09599083
-0.1373457 0.34425953 0.15162873 -0.1979561 0.15382394 -0.19684824 0.07478868 -0.29099163
00000000: c121 88bd e04f 933e 1294 003e b89c 49be
00000010: 0fba 5f3e 1039 18be b09e b83c 675e e4be
00000020: 764e d8bd b503 87be 87b9 8fbe c8f2 a83e
00000030: 1e51 11be 6b33 273e dcf9 583e bd43 37bd
00000040: c2e8 9c3e 213a 7d3e 5466 463e 0818 713e
00000050: 6d53 52be 1be1 efbc f010 4fbe e3d8 cd3d
00000060: 0cf7 88bd 09a4 4b3e 4cd6 f93d 3a32 1bbd
00000070: 7e1f d6bd 9390 a13e d535 5e3e f05e 393d
00000080: 5521 debe 0ef7 01be d3be 9c3e 377f 86bd
00000090: c932 3bbe 9234 f9bd 6ba5 43be 8ed7 013e
000000a0: 7de6 01be 172f 893e ea1a 993e 3696 c53e
000000b0: 0cb0 5fbe 1a8b dabd 9445 243e 002f 9dbd
000000c0: ab23 5fbe ec3e c3be a04c de3e 09a0 70be
000000d0: 9cec 70be 94f1 8f3e 3e3f ed3d 9ee1 1d3e
000000e0: 5c84 a93e a9f6 8cbe 3d0f 7d3c e13b 1a3e
000000f0: 74d5 1b3e 5edf 0c3e 1198 563d 65ef babe
00000100: cde3 97be 4043 93bd 849e 93be d53e d3be
00000110: afbe f33d 6f46 47bd ffed 2f3e 7e54 4e3e
00000120: 4e95 cd3e 6bb1 23be 9f03 72bc cd5d c53e
00000130: 61a1 d43d 938a c43d 2455 78bd 9660 b1bd
00000140: ecf3 5bbe 94d7 b7bd 068f dd3c ff18 8abe
00000150: 3df7 ebbd d0c0 6dbe c239 ebbd f062 123d
00000160: 7397 8f3e b483 8ebe 2106 893e 9554 bfbd
00000170: d646 c6be 2321 023e c0f4 d73d 2832 ee3e
00000180: 7e9d 19bd e08f a1bd fe89 303e 64d7 b0be
00000190: f314 513e 9baa 29be 8568 453a 0d63 c33d
000001a0: 07f7 0c3e 7df5 0b3e 4bd0 c93e 2651 203e
000001b0: 325c 093e 0906 303e ea0a 25be 1072 203d
000001c0: 2875 7e3e e3f2 ce3e 5df3 ebbe 6985 93be
000001d0: d948 1a3e f525 58be 9491 023e 0c82 04be
000001e0: e8dd 0f3d d770 c3bc fbf0 e23e 6c86 c4be
000001f0: 732e c5bd 2ef7 8ebc bffd 403e 35a6 44be
00000200: a6d4 913e a8f7 8fbd 2b31 1e3d 89ab 29be
00000210: 1175 c6bd ce2c 0bbe 71e2 053d 5164 1b3e
00000220: b1da 26be a807 573e 6948 943d cb0f 0b3e
00000230: d6f1 913e 5abc 323e dc0a 7e3e 2c79 95bb
00000240: e5a9 47be 8882 d3bd 156f b1bc caa9 fb3d
00000250: 2025 ffbd 2fe5 5a3e 5eff 0a3d 9d2b 9dbd
00000260: 8540 1ebe e569 9c3e e34e 953e 3420 96bd
00000270: c70a 8ebe 9c2c 05be ef83 4f3d 3100 66be
00000280: aee0 8cbe f3c5 ebbd 08c5 7fbe 1dc7 693e
00000290: 7c3b 5bbe 4e14 793e f933 993e f342 ad3e
000002a0: f225 89be e3bd 50be 7a87 6f3e cc1a 4ebc
000002b0: 4a38 d7bd e8e2 8fbe 517d 70bb 7731 76be
000002c0: fd5b 66be a672 893e 7cfd 343e e4ce da3d
000002d0: 0afa 6c3e f48e 5cbe 0484 08be 3901 943c
000002e0: 953d 833e ba62 b53e 4194 af3d d368 82be
000002f0: 8808 55be 6d91 a5bd 44a2 a1be 530a a6bd
00000300: f701 1f3e 8f09 1c3e 9e1b 583e 362d 663e
00000310: 49b7 a53d 3e9e 4e3b aff2 c8bd 972c 603e
00000320: 23b6 183e fd10 dcbd 3bce d9bd 22de d7bc
00000330: 5a7d 5abe bc99 29bd 43b2 ec3c 5031 22be
00000340: 24e0 bfbd 1683 c8bd a743 eebd ac00 d33d
00000350: 6203 83b9 641c 72be 70f2 833d 8be8 adbc
00000360: 5c16 4bbe 25d3 2f3e d3ea b73d c28f 3b3e
00000370: 8954 963d ffd2 16bd 4c39 8c3e 7b78 08be
00000380: d979 113e 2328 243d f5c9 ef3c 20c8 8c3d
00000390: febf 983e b2cc 333e 2efd 1e3e a45c 203e
000003a0: b269 743d 9780 793d 8c49 09be 860e 813d
000003b0: 9dfe 583e 956f 473e f625 a3bb 8259 473d
000003c0: 383d 263e 7897 dabe b0de f73d ef54 d4bd
000003d0: d3d9 7fbd 3e3e 81bd 070e a0ba d796 c4bd
000003e0: 5aa4 0cbe c942 b03e 9044 1b3e 01b5 4abe
000003f0: 0684 1d3e 9692 49be cf2a 993d dbfc 94be

encoder.rnn.weight_hh_l0_reverse f4 [48, 16]
0.3237291 0.4422213 -0.37192076 0.36699644 0.07322219 0.33395708 -0.49743786 0.20048639
-0.13613163 0.5394619 -0.58782244 0.23311846 -0.34818268 -0.06114282 -0.3270833 0.39077285
0.08694226 0.24197343 -0.069582194 0.09552359 0.08585005 0.028699972 -0.18948491 0.27890173
-0.20855667 0.1139168 -0.12314763 0.2598363 -0.18842418 -0.121469565 0.0054868027 0.11082504
0.43888223 0.4672971 -0.41540506 0.4365633 -0.02779867 0.4174416 -0.5946546 0.248175
-0.061637554 0.7169852 -0.81490797 0.26059523 -0.35656393 0.043702234 -0.40072313 0.5289762
0.4166708 0.3128956 -0.41103783 0.26746643 0.055990256 0.25636134 -0.41053596 0.24195479
-0.14142555 0.51768386 -0.5541173 0.26674747 -0.31132632 -0.092713326 -0.2643286 0.45497668
0.07875572 0.139785 -0.17746232 0.3359027 -0.13625173 0.03267769 -0.15168308 0.07538175
0.047615677 0.11897379 -0.11996637 0.042833056 -0.06912827 0.091120474 -0.12604263 0.1410487
0.17844002 0.52920294 -0.19149116 0.13584308 0.2002371 0.029566184 -0.43884385 0.5549181
-0.4416256 0.31686988 -0.36827448 0.6127882 -0.42458504 -0.2450763 -0.0437532 0.19451514
0.1628044 0.19341297 -0.14973807 0.19838135 0.07423764 0.17129208 -0.19533728 0.18575159
-0.13240719 0.19111492 -0.18638356 0.16721058 -0.17361964 -0.063243575 -0.13346279 0.18334606
0.18892138 0.19834793 -0.184553 0.13161683 0.16751476 0.15792307 -0.21124852 0.18775342
-0.16511822 0.19754425 -0.19177346 0.21348743 -0.17784238 -0.17679185 -0.1503619 0.1995912
0.037636645 0.055795707 -0.003002831 -0.06582764 0.11078276 -0.03000982 -0.09620308 0.03627091
-0.07324658 0.10744872 -0.121516235 0.038216114 -0.07591129 -0.11854545 -0.07413261 0.08216103
0.14888714 0.38531625 -0.11962688 0.19724566 0.12294729 0.18274939 -0.28958386 0.25929514
-0.17178403 0.16927207 -0.14183548 0.2837459 -0.27964038 -0.123341516 -0.12914234 0.18112688
0.10428442 0.22798568 -0.033903103 0.08339676 0.2600727 0.08390858 -0.2247274 0.2609851
-0.22657464 0.13574514 -0.12525266 0.27927604 -0.21439286 -0.25527078 -0.06726722 0.13254243
0.20705445 0.24586156 -0.18002228 0.16960363 0.101748556 0.14962925 -0.22691967 0.20747752
-0.16251703 0.24072362 -0.22552486 0.2231909 -0.21733218 -0.11383548 -0.12193727 0.22062777
0.091812745 0.08388078 -0.11854569 0.08226993 0.068063304 0.039482612 -0.0878014 0.039929196
-0.049240902 0.11357636 -0.11430994 0.030663565 -0.09209609 -0.044011235 -0.14221235 0.115656696
0.114020236 0.14857867 -0.12631609 0.1944778 -0.03465139 0.049080987 -0.1346974 0.034993682
0.0066604028 0.14447735 -0.13169707 0.005118241 -0.07763869 -0.009668893 -0.10044528 0.15273662
0.24552137 0.7356598 -0.2598169 0.12729988 0.20800412 0.10684098 -0.6856136 0.68416065
-0.42816952 0.43938854 -0.56741714 0.73125386 -0.6779657 -0.2452454 -0.09360164 0.28246227
0.28095585 0.39084807 -0.2608073 0.37669396 0.044310685 0.33494726 -0.3909724 0.15810472
-0.061317343 0.4762081 -0.44781372 0.17442971 -0.28241387 -0.038855817 -0.31886387 0.34246674
00000000: d2bf a53e d56a e23e 666c bebe f5e6 bb3e
00000010: 84f5 953d 6cfc aa3e 2db0 febe 4e4c 4d3e
00000020: 1766 0bbe 2d1a 0a3f 887b 16bf 9bb6 6e3e
00000030: 0045 b2be e570 7abd 7677 a7be 6113 c83e
00000040: c90e b23d e2c7 773e 1c81 8ebd dfa1 c33d
00000050: 27d2 af3d 341c eb3c 5508 42be 35cc 8e3e
00000060: e18f 55be 364d e93d d334 fcbd 4309 853e
00000070: 45f2 40be 09c5 f8bd a3ca b33b 3df8 e23d
00000080: 2cb5 e03e 9141 ef3e f9af d4be 3a85 df3e
00000090: 09ba e3bc e8ba d53e 493b 18bf 9621 7e3e
000000a0: a977 7cbd 588c 373f cf9d 50bf bd6c 853e
000000b0: 8c8f b6be 1d01 333d 952b cdbe fc6a 073f
000000c0: e055 d53e da33 a03e 8d73 d2be 5cf1 883e
000000d0: 0a56 653d cb41 833e c531 d2be ffc2 773e
000000e0: dcd1 10be ee86 043f a2da 0dbf 2093 883e
000000f0: 2a66 9fbe 7ce0 bdbd 1456 87be b4f2 e83e
00000100: ae4a a13d cd23 0f3e afb8 35be 70fb ab3e
00000110: 9385 0bbe 0bd9 053d cf52 1bbe bf61 9a3d
00000120: a808 433d 88a8 f33d eeb0 f5bd b771 2f3d
00000130: 1f93 8dbd 5f9d ba3d 5211 01be 126f 103e
00000140: fbb8 363e d879 073f 4216 44be 731a 0b3e
00000150: f40a 4d3e c834 f23c 24b0 e0be 1d0f 0e3f
00000160: c01c e2be c53c a23e 798e bcbe b0df 1c3f
00000170: 3663 d9be 48f5 7abe 8e36 33bd fa2e 473e
00000180: 32b6 263e 0d0e 463e f054 19be 7b24 4b3e
00000190: e709 983d 3167 2f3e 7f06 48be aa35 3e3e
000001a0: c095 07be a1b3 433e 55db 3ebe 4039 2b3e
000001b0: 59c9 31be d985 81bd 78aa 08be 12bf 3b3e
000001c0: 9b74 413e b81b 4b3e 76fb 3cbe 90c6 063e
000001d0: fd88 2b3e 96b6 213e 8851 58be 6f42 403e
000001e0: c014 29be 0a49 4a3e 4360 44be 739c 5a3e
000001f0: 501c 36be ec08 35be 78f8 19be a361 4c3e
00000200: e228 1a3d 0a8a 643d 25cb 44bb a4d0 86bd
00000210: 12e2 e23d 27d7 f5bc 1f06 c5bd ce90 143d
00000220: 4e02 96bd 130e dc3d 81dd f8bd 8088 1c3d
00000230: 6177 9bbd f5c7 f2bd d6d2 97bd 0b44 a83d
00000240: df75 183e 2c48 c53e f0fe f4bd c4fa 493e
00000250: cacb fb3d a822 3b3e 5644 94be 55c2 843e
00000260: 27e8 2fbe a855 2d3e 523d 11be 2547 913e
00000270: 062d 8fbe 7a9a fcbd e43d 04be 5379 393e
00000280: 1293 d53d 1475 693e fbdd 0abd eccb aa3d
00000290: 4028 853e 43d8 ab3d f11e 66be d79f 853e
000002a0: 2f03 68be c600 0b3e 3c42 00be 45fd 8e3e
000002b0: cd89 5bbe dab2 82be 65c3 89bd 34b9 073e
000002c0: 1506 543e 22c3 7b3e c357 38be 93ac 2d3e
000002d0: 8c61 d03d 6938 193e a15d 68be fd74 543e
000002e0: dd6a 26be 4180 763e fdef 66be 288c 643e
000002f0: 548c 5ebe 9322 e9bd 3fba f9bd 3fec 613e
00000300: 5208 bc3d b0c9 ab3d 15c8 f2bd 237d a83d
00000310: c664 8b3d 85b8 213d 38d1 b3bd cc8c 233d
00000320: d4b0 49bd b99a e83d 541b eabd 2832 fb3c
00000330: e09c bcbd 2045 34bd 1da0 11be 6bdd ec3d
00000340: 7183 e93d 0225 183e 0159 01be 3025 473e
00000350: 9eee 0dbd 2509 493d 1dee 09be 8955 0f3d
00000360: 823f da3b dff1 133e 99db 06be ebb6 a73b
00000370: 0901 9fbd 476a 1ebc 41b6 cdbd fd66 1c3e
00000380: f469 7b3e 3354 3c3f b906 85be e65a 023e
00000390: 08ff 543e 72cf da3d 5f84 2fbf 2725 2f3f
000003a0: 0939 dbbe 89f7 e03e 4042 11bf 7433 3b3f
000003b0: 298f 2dbf 9c21 7bbe 37b2 bfbd e59e 903e
000003c0: 72d9 8f3e 3d1d c83e 8988 85be 08de c03e
000003d0: 1f7f 353d 357e ab3e 892d c8be 34e6 213e
000003e0: e527 7bbd 8cd1 f33e d747 e5be b49d 323e
000003f0: 8d98 90be 4727 1fbd 2042 a3be cd57 af3e

encoder.rnn.bias_ih_l0_reverse f4 [48]
-0.019618182 0.24113613 -0.06848361 0.03500019 0.09473164 0.23219638 0.13976716 0.20693202
0.018657317 0.1436955 0.18251197 0.24697839 0.0614229 0.054919966 0.18656585 0.000957868
-0.20247696 -0.18438123 -0.3399903 -0.27312538 -0.22549577 -0.21485339 -0.20245448 -0.17258693
-0.23427685 -0.24322024 -0.27130386 -0.14847708 -0.19745663 -0.2727331 -0.14356898 -0.29803938
0.03574662 0.071459055 -0.1054022 0.02655128 -0.063456856 -0.105026394 -0.09917961 0.13405891
-0.08138003 0.093563475 -0.10823921 0.14126235 -0.079573326 0.0034916126 0.10156815 0.05043262
00000000: 4fb6 a0bc 64ec 763e 2341 8cbd 5c5c 0f3d
00000010: a902 c23d e3c4 6d3e 1f1f 0f3e fde5 533e
00000020: 3bd7 983c ea24 133e 6be4 3a3e e7e7 7c3e
00000030: 9496 7b3d c2f3 603d 1e0b 3f3e 6f19 7b3a
00000040: 1f56 4fbe 6fce 3cbe 3513 aebe 17d7 8bbe
00000050: 5de8 66be 8702 5cbe 3a50 4fbe a1ba 30be
00000060: 45e6 6fbe ba0e 79be 57e8 8abe 600a 18be
00000070: 1232 4abe aca3 8bbe bf03 13be 9e98 98be
00000080: 0c6b 123d 2059 923d 1cdd d7bd 1282 d93c
00000090: abf5 81bd 1418 d7bd ae1e cbbd bd46 093e
000000a0: 93aa a6bd 359e bf3d 85ac ddbd 14a7 103e
000000b0: 57f7 a2bd 8ad3 643b f602 d03d 6f92 4e3d

encoder.rnn.bias_hh_l0_reverse f4 [48]
-0.019618161 0.24113613 -0.06848363 0.03500019 0.0947316 0.2321964 0.13976713 0.20693196
0.018657269 0.14369544 0.18251197 0.2469784 0.061422914 0.054920025 0.18656588 0.00095792505
-0.20247696 -0.18438126 -0.33999032 -0.27312544 -0.22549574 -0.21485339 -0.20245458 -0.17258689
-0.23427686 -0.24322017 -0.2713038 -0.14847708 -0.19745667 -0.2727331 -0.14356892 -0.29803935
0.015264331 0.114850014 -0.016928578 -0.041129086 -0.0058580167 -0.087110244 -0.13891873 0.16292103
-0.1304282 0.14517355 -0.15714164 0.1591186 -0.100873955 -0.025585754 0.09857163 0.040390015
00000000: 44b6 a0bc 64ec 763e 2541 8cbd 5c5c 0f3d
00000010: a402 c23d e5c4 6d3e 1d1f 0f3e f9e5 533e
00000020: 21d7 983c e624 133e 6be4 3a3e e8e7 7c3e
00000030: 9896 7b3d d2f3 603d 200b 3f3e 431d 7b3a
00000040: 1f56 4fbe 71ce 3cbe 3613 aebe 19d7 8bbe
00000050: 5be8 66be 8702 5cbe 4150 4fbe 9eba 30be
00000060: 46e6 6fbe b50e 79be 55e8 8abe 600a 18be
00000070: 1532 4abe aca3 8bbe bb03 13be 9d98 98be
00000080: 3f17 7a3c 7c36 eb3d cdad 8abc f976 28bd
00000090: 9bf4 bfbb db66 b2bd b640 0ebe c5d4 263e
000000a0: f88e 05be 60a8 143e bde9 20be fcef 223e
000000b0: 0197 cebd 3799 d1bc ecdf c93d 0070 253d

encoder.fc.weight f4 [16, 32]
-0.21893044 -0.31907463 0.25831506 0.30364642 0.3794464 -0.2787208 0.0939018 -0.19514987
0.2984059 0.35452828 -0.19818956 0.319077 0.07981084 0.21548875 0.04886339 -0.28298107
0.28236568 -0.013238061 -0.27107695 0.251114 -0.21163239 0.24259105 -0.029894387 -0.108975485
0.16406284 0.16122125 -0.100417666 -0.10390829 0.05190673 0.18838722 -0.27158028 0.2466909
0.11743664 0.03966947 -0.039447535 -0.05044592 0.0663922 0.028107913 -0.12325981 0.14913243
-0.033512652 -0.039991155 -0.13870093 -0.078532144 -0.15976454 -0.121924505 -0.14938276 0.060270302
0.10347312 0.011497396 -0.112872794 0.051545896 0.03928186 0.10435206 -0.018646384 0.0030788486
-0.0103482045 0.014047293 0.0037996378 0.034234807 -0.023908174 0.007542336 -0.15422171 0.042153794
-0.13707411 -0.07997152 0.10065804 0.08179018 -0.08814255 -0.10215876 0.1944657 -0.1533294
0.092969075 0.039253406 0.13184614 0.07245357 0.18940268 0.16353437 0.20495954 -0.09957119
-0.074539214 -0.040674664 0.22324008 -0.05021507 -0.19170943 -0.065238625 0.033487003 -0.051625438
0.061369147 -0.0792089 0.05462475 -0.098573044 0.068255864 0.115547664 0.15454672 0.015654922
-0.052150123 0.06383805 -0.094108336 -0.101255886 0.11520558 0.09098111 -0.10281655 0.03794248
-0.11690177 -0.076094486 -0.09256585 -0.06497735 -0.08376586 0.023990607 -0.024318034 0.12637131
0.12675992 0.040113308 -0.10805633 -0.06454625 0.013708947 0.14118974 -0.063944586 0.0669976
-0.0468168 0.057990413 -0.0729197 0.04871393 -0.04810216 -0.03193392 -0.16162644 0.09842807
0.25275895 0.05821097 -0.069001004 -0.06023035 0.23630874 0.051707074 -0.11558345 0.2320558
-0.06782311 -0.08371626 -0.29428554 -0.08160551 -0.18130161 -0.24985582 -0.21114373 0.068648554
-0.017626544 0.019670092 0.02988302 0.014012548 -0.004725429 -0.04760954 -0.02632794 0.020322371
-0.018720005 0.024215782 -0.030346554 0.028636618 -0.040439356 -0.028984947 0.05561207 -0.020063113
0.14160822 0.00012868081 -0.027085114 -0.04604316 0.15708497 0.03268536 -0.008668139 0.07795293
-0.0099288635 0.060842894 -0.1123941 0.014208192 -0.06252664 -0.09662909 -0.07843519 0.024986913
-0.097012386 -0.00046823738 0.18460569 0.003978575 -0.002282152 -0.24112009 0.02770501 0.00048534357
-0.016589688 -0.058260214 0.02609136 0.023911955 0.010717735 -0.0159604 0.29587182 -0.11176082
-0.122635946 -0.096336715 0.07246261 0.07028905 0.10646249 -0.08972477 0.0182564 -0.06381547
0.065282345 0.107561916 -0.050255556 0.07842852 0.039407942 0.099457614 0.0077062137 -0.07264911
0.051835317 -0.017636662 -0.03044373 0.09415866 -0.11583576 0.08928535 0.044896483 -0.059042897
0.03251843 0.02186988 0.0050761467 -0.056918517 0.028721852 0.088765465 -0.022005018 0.07709916
-0.14885414 -0.13487707 0.13367984 0.1358155 -0.013568066 -0.1375237 0.14683332 -0.1402152
0.13781084 0.12701891 0.099298164 0.10609602 0.18105581 0.16248555 0.15732989 -0.13629955
-0.10237255 -0.14777909 0.10531023 -0.023661235 -0.10474009 -0.049505286 0.1545597 -0.13516593
0.14449899 -0.18633595 0.16124028 -0.14580995 0.14049962 0.11724904 0.05200923 -0.093323044
00000000: 4d2f 60be c05d a3be df41 843e 8b77 9b3e
00000010: cc46 c23e 7eb4 8ebe 964f c03d 5ed5 47be
00000020: a8c8 983e bb84 b53e 34f2 4abe 0f5e a33e
00000030: de73 a33d 15a9 5c3e fa24 483d e5e2 90be
00000040: 3c92 903e 74e4 58bc 99ca 8abe 0492 803e
00000050: 29b6 58be ca69 783e 13e5 f4bc 8a2e dfbd
00000060: 1700 283e 2f17 253e c7a7 cdbd dfcd d4bd
00000070: 279c 543d 94e8 403e 920c 8bbe 8a9c 7c3e
00000080: 9f82 f03d 747c 223d bd93 21bd 62a0 4ebd
00000090: a2f8 873d 9142 e63c a46f fcbd 2cb6 183e
000000a0: 9044 09bd c4cd 23bd 9e07 0ebe 76d5 a0bd
000000b0: 5199 23be 8eb3 f9bd cbf7 18be fedd 763d
000000c0: b7e9 d33d 935f 3c3c da29 e7bd ca21 533d
000000d0: 04e6 203d 88b6 d53d 4dc0 98bc 82c6 493b
000000e0: 848b 29bc 9e26 663c 5803 793b cc39 0c3d
000000f0: 13db c3bc b325 f73b 4cec 1dbe 75a9 2c3d
00000100: 285d 0cbe 1cc8 a3bd cd25 ce3d 9c81 a73d
00000110: 1584 b4bd 9d38 d1bd 0422 473e 6202 1dbe
00000120: 9266 be3d 2ec8 203d ad02 073e 8a62 943d
00000130: c7f2 413e 8e75 273e eae0 513e fbeb cbbd
00000140: 04a8 98bd 7a9a 26bd 0c99 643e 51ae 4dbd
00000150: 7a4f 44be d49b 85bd ab29 093d 3275 53bd
00000160: 375e 7b3d 4738 a2bd 34be 5f3d aae0 c9bd
00000170: bbc9 8b3d 41a4 ec3d 7f41 1e3e c03e 803c
00000180: 5e9b 55bd 86bd 823d dfbb c0bd 3f5f cfbd
00000190: e7f0 eb3d 4e54 ba3d 7c91 d2bd 9369 1b3d
000001a0: 326a efbd 6dd7 9bbd 2a93 bdbd d812 85bd
000001b0: 6f8d abbd f387 c43c 9d36 c7bc 7b67 013e
000001c0: 5acd 013e da4d 243d a34c ddbd d330 84bd
000001d0: 7e9b 603c 0b94 103e 61f5 82bd 0a36 893d
000001e0: f9c2 3fbd 5b87 6d3d ec56 95bd 4288 473d
000001f0: c506 45bd 24cd 02bd 6781 25be a894 c93d
00000200: 9f69 813e a06e 6e3d 6650 8dbd 19b4 76bd
00000210: ebfa 713e ccca 533d 04b7 ecbd 09a0 6d3e
00000220: d8e6 8abd 6e73 abbd 98ac 96be ca20 a7bd
00000230: 21a7 39be 34da 7fbe 1036 58be 9d97 8c3d
00000240: 8b65 90bc 2c23 a13c 3ccd f43c e394 653c
00000250: c6d7 9abb 3902 43bd b1ad d7bc 1a7b a63c
00000260: b25a 99bc 2d60 c63c 5699 f8bc 5797 ea3c
00000270: bda3 25bd d771 edbc 7bc9 633d 665b a4bc
00000280: bf01 113e 7eee 0639 9ae1 ddbc c197 3cbd
00000290: e2da 203e 16e1 053d cf04 0ebc c9a5 9f3d
000002a0: acac 22bc 6636 793d e12e e6bd 7ac9 683c
000002b0: f80d 80bd 79e5 c5bd a1a2 a0bd 5bb1 cc3c
000002c0: 6eae c6bd c27d f5b9 4609 3d3e b55e 823b
000002d0: 2890 15bb 2fe8 76be 9ef5 e23c b675 fe39
000002e0: 19e7 87bc 43a2 6ebd 8cbd d53c 01e3 c33c
000002f0: 7099 2f3c 63bf 82bc 837c 973e dbe2 e4bd
00000300: 8e28 fbbd 2f4c c5bd 4767 943d b5f3 8f3d
00000310: 0209 da3d 9fc1 b7bd 728e 953c afb1 82bd
00000320: c0b2 853d 6c49 dc3d c5d8 4dbd 229f a03d
00000330: 396a 213d 6fb0 cb3d 6884 fc3b 0ec9 94bd
00000340: 4551 543d c37a 90bc 2165 f9bc 41d6 c03d
00000350: 4d3b edbd 3ddb b63d 60e5 373d f7d6 71bd
00000360: 0c32 053d 7628 b33c ce55 a63b 6423 69bd
00000370: 174a eb3c abca b53d de43 b4bc 2ae6 9d3d
00000380: 386d 18be 371d 0abe 5ee3 083e 3813 0b3e
00000390: 984c 5ebc 03d3 0cbe 795b 163e 9394 0fbe
000003a0: 491e 0d3e 3f11 023e d65c cb3d df48 d93d
000003b0: b266 393e 9d62 263e 161b 213e 1c92 0bbe
000003c0: b3a8 d1bd 6753 17be e4ac d73d 35d5 c1bc
000003d0: f981 d6bd 0ec6 4abd e644 1e3e f068 0abe
000003e0: 8bf7 133e dace 3ebe 2c1c 253e 344f 15be
000003f0: 22df 0f3e 4420 f03d a107 553d 2720 bfbd

encoder.fc.bias f4 [16]
-0.1888473 0.027847579 -0.041551296 0.05027668 0.041838508 0.05040038 -0.0643346 -0.0955564
-0.05643455 0.04659945 0.022356277 -0.07554373 0.051532663 0.03760386 0.09880848 0.08680948
00000000: 3061 41be 9b20 e43c b131 2abd ecee 4d3d
00000010: db5e 2b3d a170 4e3d dcc1 83bd 13b3 c3bd
00000020: ea27 67bd 11df 3e3d 8324 b73c acb6 9abd
00000030: ea13 533d 8106 1a3d 1a5c ca3d 2bc9 b13d

decoder.attention.attn.weight f4 [16, 48]
0.0079894895 -0.2567518 0.4405057 -0.13313998 0.03443872 0.12397845 -0.25519943 0.5080555
-0.2457784 -0.66948456 0.18102564 0.6897017 -0.27271464 -0.28270915 0.15416352 -0.16722982
0.20029017 -0.045904204 -0.065546885 0.031770036 -0.007929169 0.13661812 0.113226786 0.032656886
-0.08306272 0.08541512 0.032211028 0.06778159 0.06911306 -0.08673807 0.028321669 0.0025774748
0.044796485 -0.013514393 -0.02713952 0.23609981 -0.39011613 0.16385716 -0.033628188 -0.023044633
0.14571299 0.03667495 -0.043336578 -0.057112757 0.011218667 0.24797514 -0.15325041 0.047287337
-0.00084573234 0.21799633 -0.47095853 0.12225612 -0.05551399 -0.14126544 0.24618956 -0.51276714
0.25393042 0.6855761 -0.1667243 -0.6940697 0.30625036 0.27297145 -0.20690504 0.14521413
-0.18935902 0.054816995 0.057989556 -0.026093064 0.0017421218 -0.14097701 -0.09491112 -0.030222803
0.060448218 -0.079244345 -0.030171227 -0.03902175 -0.04518314 0.05838879 -0.037257195 0.021936074
-0.0822634 0.0009216171 0.06674956 -0.27682543 0.3823757 -0.1383762 0.04027892 0.018149512
-0.15005365 -0.023006741 0.039460935 0.05747301 -0.006156454 -0.2718897 0.14743042 -0.044255104
0.038599074 -0.24633192 0.5439808 -0.2003684 0.10805556 0.24404056 -0.25684643 0.49525398
-0.27560502 -0.76378375 0.17147155 0.67368084 -0.39612308 -0.40686238 0.22254881 -0.086918645
0.16628742 -0.067611694 -0.0615361 0.03097462 -0.046072796 0.13333663 0.1654434 -0.025606098
-0.05317226 0.07133111 0.0657251 0.04826107 0.12359831 -0.044492528 0.100557104 -0.0018636246
0.08016864 -0.0039211167 -0.092373565 0.32386038 -0.39933035 0.15049265 -0.040772602 -0.04164844
0.14963843 0.05333743 -0.05452371 -0.068655774 -0.014468316 0.29027155 -0.17941374 0.07964825
-0.47013924 0.27157164 -0.76935965 1.4730492 -0.11973752 -0.8402125 0.20639531 -0.47752604
0.17891207 0.98190856 0.15806504 -0.38078332 0.98164594 -0.21739481 0.3953038 0.009617003
0.09635382 0.027413785 -0.044505052 -0.014919644 0.04219762 0.16050184 -0.15383649 0.112152524
-0.06180924 -0.047625076 -0.10487037 -0.03087862 -0.14381182 -0.0767826 -0.122355916 0.020763341
-0.26046717 -0.27896047 0.26932698 -0.2635473 0.1391043 -0.43239313 0.20628464 -0.11922857
-0.15192442 -0.17553392 0.15332869 -0.111181326 0.089826 -0.11319498 0.4807974 -0.19455943
-0.063422024 0.2224767 -0.52202094 0.19804265 -0.09784738 -0.19206218 0.2600628 -0.5102034
0.24363299 0.6970712 -0.1640533 -0.693915 0.3281664 0.37787116 -0.11376223 0.07632607
-0.14958104 0.056728 0.06181902 -0.034379017 0.017748425 -0.15326592 -0.15351179 0.06771855
0.07778835 -0.08977026 -0.060434252 -0.03593311 -0.12943338 0.0010083042 -0.096270844 0.023660626
-0.06012997 0.02094908 0.061441954 -0.2700045 0.4034549 -0.14820297 0.016381748 0.021890493
-0.14946426 -0.026987247 0.043687016 0.0830344 -0.0135937305 -0.29151645 0.13504486 -0.039921954
0.07372281 0.20194691 -0.39753821 0.11195407 -0.0039717504 -0.09072972 0.2485813 -0.4851244
0.23520382 0.6051027 -0.18436645 -0.66308075 0.21380731 0.1814069 -0.20879114 0.18063474
00000000: 59e6 023c f974 83be f789 e13e d955 08be
00000010: 9e0f 0d3d 6ae8 fd3d 80a9 82be ed0f 023f
00000020: 55ad 7bbe 5763 2bbf c95e 393e 4a90 303f
00000030: 41a1 8bbe 41bf 90be 0bdd 1d3e 4b3e 2bbe
00000040: de18 4d3e 0c06 3cbd 723d 86bd 4c21 023d
00000050: 58e9 01bc 9fe5 0b3e 72e3 e73d 3ac3 053d
00000060: ca1c aabd 1fee ae3d b6ef 033d 13d1 8a3d
00000070: 268b 8d3d bba3 b1bd d802 e83c daea 283b
00000080: 857c 373d 796b 5dbc b353 debc 26c4 713e
00000090: 4dbd c7be 2cca 273e b6bd 09bd 19c8 bcbc
000000a0: c935 153e 7938 163d b281 31bd 11ef 69bd
000000b0: 80ce 373c 32ed 7d3e aded 1cbe 5eb0 413d
000000c0: 23b4 5dba 6e3a 5f3e 7a21 f1be 6b61 fa3d
000000d0: a362 63bd e3a7 10be 1e19 7c3e b544 03bf
000000e0: 2b03 823e ea81 2f3f c6b9 2abe 8dae 31bf
000000f0: d9cc 9c3e eac2 8b3e eade 53be 03b3 143e
00000100: 55e7 41be c987 603d 7586 6d3d 1fc1 d5bc
00000110: e857 e43a 475c 10be c360 c2bd d095 f7bc
00000120: 8d98 773d dc4a a2bd a629 f7bc 45d5 1fbd
00000130: f511 39bd 1529 6f3d 009b 18bd 48b3 b33c
00000140: b779 a8bd ad98 713a feb3 883d 10bc 8dbe
00000150: bfc6 c33e 7eb2 0dbe 82fb 243d 49ae 943c
00000160: aaa7 19be a278 bcbc caa1 213d d268 6b3d
00000170: 14bc c9bb 2035 8bbe 00f8 163e d744 35bd
00000180: 101a 1e3d 6f3e 7cbe 5342 0b3f 602d 4dbe
00000190: 3c4c dd3d c5e5 793e 6081 83be ee91 fd3e
000001a0: 1a1c 8dbe 5587 43bf 3d96 2f3e 5976 2c3f
000001b0: a5d0 cabe 4450 d0be d6e3 633e 6702 b2bd
000001c0: 4047 2a3e 0078 8abd 470d 7cbd 7cbe fd3c
000001d0: d4b6 3cbd 6689 083e ff69 293e e1c3 d1bc
000001e0: 28cb 59bd 0c16 923d e29a 863d 66ad 453d
000001f0: 1c21 fd3d cc3d 36bd e2f0 cd3d dd44 f4ba
00000200: 752f a43d b67c 80bb 5a2e bdbd 07d1 a53e
00000210: 0775 ccbe bf1a 1a3e 2c01 27bd 8e97 2abd
00000220: d13a 193e 5978 5a3d 4154 5fbd 669b 8cbd
00000230: 840c 6dbc 799e 943e 3cb8 37be 9f1e a33d
00000240: 17b6 f0be 700b 8b3e c1f4 44bf e08c bc3f
00000250: f238 f5bd 2b18 57bf 4b59 533e 4b7e f4be
00000260: ba34 373e 5c5e 7b3f cddb 213e 08f6 c2be
00000270: 264d 7b3f bf9c 5ebe 4265 ca3e a290 1d3c
00000280: 2755 c53d e092 e03c ee4a 36bd 8671 74bc
00000290: 69d7 2c3d 985a 243e 5087 1dbe 39b0 e53d
000002a0: b02b 7dbd 8312 43bd 47c6 d6bd 29f5 fcbc
000002b0: 6843 13be 3240 9dbd bd95 fabd e217 aa3c
000002c0: f45b 85be e8d3 8ebe 3ae5 893e acef 86be
000002d0: 5c71 0e3e a262 ddbe 483c 533e 1c2e f4bd
000002e0: 1392 1bbe 2abf 33be 3202 1d3e 09b3 e3bd
000002f0: b2f6 b73d c5d2 e7bd 142b f63e 963a 47be
00000300: 68e3 81bd efd0 633e 2aa3 05bf b1cb 4a3e
00000310: 3564 c8bd f3ab 44be f426 853e b19c 02bf
00000320: ed7a 793e 4273 323f 97fd 27be 6aa4 31bf
00000330: 6d05 a83e 5478 c13e 2cfc e8bd d850 9c3d
00000340: c62b 19be 9f5b 683d f135 7d3d 03d1 0cbd
00000350: 2565 913c bef1 1cbe 3232 1dbe 06b0 8a3d
00000360: 804f 9f3d 78d9 b7bd e889 77bd 992e 13bd
00000370: 2f8a 04be 1329 843a a629 c5bd eed3 c13c
00000380: d84a 76bd 689d ab3c 8faa 7b3d 083e 8abe
00000390: a491 ce3e 85c2 17be 0433 863c b153 b33c
000003a0: 290d 19be 5c14 ddbc 28f1 323d f10d aa3d
000003b0: 3db8 5ebc a541 95be 3349 0a3e 3485 23bd
000003c0: fcfb 963d 2ccb 4e3e 218a cbbe 2d48 e53d
000003d0: 7525 82bb 81d0 b9bd 198c 7e3e 3a62 f8be
000003e0: 45d9 703e 03e8 1a3f 8fca 3cbe a9bf 29bf
000003f0: 4ef0 5a3e bbc2 393e 58cd 55be 50f8 383e

decoder.attention.attn.bias f4 [16]
0.3385841 -0.32956252 0.33671865 -0.31147802 -0.33149904 -0.3207943 -0.32921034 -0.3614347
0.28245866 0.3204677 0.33898348 0.27887246 -0.28605923 0.12542391 0.3330743 0.3633228
00000000: e55a ad3e 6bbc a8be 6366 ac3e 0c7a 9fbe
00000010: 3eba a9be 273f a4be 428e a8be f80d b9be
00000020: 6c9e 903e 5814 a43e 3e8f ad3e 5fc8 8e3e
00000030: 5b76 92be 206f 003e b788 aa3e 7205 ba3e

decoder.attention.v.weight f4 [1, 16]
0.17044353 -0.17722777 0.21002145 0.9105312 -0.1900773 -0.15629639 -0.23881675 -0.67949015
0.14076366 0.22443289 0.21150137 -0.942357 -0.15586434 0.3165503 0.19166526 0.31427518
00000000: c088 2e3e 327b 35be dd0f 573e 9318 693f
00000010: a0a3 42be 290c 20be 618c 74be 11f3 2dbf
00000020: 5924 103e bcd1 653e d193 583e 4f3e 71bf
00000030: e79a 1fbe e212 a23e e643 443e ade8 a03e
