agl/models/autosave/new-AE-124-16-0.001.pt (torch, 113900 bytes, 21 tensors)

encoder.embedding.weight f4 [8, 124]
0.0032165486 -0.028567987 -0.0037810947 0.0018194293 -0.012602922 0.0017162481 -0.0082371095 -0.010495756
0.0049699177 0.002561956 -0.0003888598 -0.011162368 0.004569716 -0.00823263 -0.0011080628 -0.0068768524
0.008069641 0.0007331409 -0.007793535 0.019006249 0.006793188 -0.0016584562 0.008364495 0.0025653238
-0.0070528206 0.010505869 -0.002578924 -0.004496842 -0.020541769 0.01591214 0.0021191426 0.010724736
0.005184232 -0.0015033601 0.0013973236 0.0028534632 0.009504826 0.002166725 0.014612603 -0.019205494
0.008198757 0.00013231096 -0.011763869 0.010316142 -0.006602033 0.00083101104 0.010253792 -0.010048709
0.0050974363 0.012908871 0.0031049922 -0.0102935955 -0.0036268635 0.004830939 0.010883358 -0.018201703
0.0021853237 0.0040323124 0.016382603 -0.00618607 -0.0028915443 0.00049324875 0.005908774 0.0015047269
-0.017915081 -0.012064117 0.004902348 0.01367649 0.012218958 -0.0018827325 -0.0037606263 0.012387987
-0.0026431312 0.0059572854 0.011041088 -0.009825585 0.0105830785 -0.01901276 0.012912415 0.0058954004
-0.0023776044 -0.0046085306 -0.0033702606 -0.0077957367 -0.01892774 0.0021607918 0.010348329 -0.0007038261
-0.012136196 0.009788256 0.015397593 0.009336832 0.003343113 -0.0022660268 -0.003406576 0.0114415465
-0.015920345 0.00045725764 0.019564204 0.008447679 0.0022278854 0.01633623 -0.0059834574 -0.0062069963
-0.014460037 -0.011544381 0.007044574 0.010810252 -0.0032516783 0.004892707 0.004884667 -0.0060582277
0.003905108 -0.0054224217 0.021655673 0.018455219 -0.0067095477 -8.790476e-05 0.0045757685 0.009653687
0.00113214 0.0057355305 0.008008754 0.013013654 -0.05644238 -0.06863892 0.052411072 0.24508862
-0.19224252 -0.09498877 -0.23592041 -0.13689584 -0.1927882 0.18286154 -0.11049819 0.037219502
-0.119347945 -0.1591652 0.16581416 0.216231 0.02332482 0.080235735 0.059981026 -0.20259063
0.03190019 -0.22137673 0.22482468 -0.13646865 0.0665786 -0.080660515 0.13912345 -0.13652878
0.0131769935 -0.1396501 -0.09579881 0.12882921 -0.04851539 -0.05608858 0.19721259 0.07914955
0.12267629 -0.2122653 0.09723036 0.04294805 0.090165175 -0.11847278 0.15316142 0.089798845
0.156135 -0.026713584 -0.1261334 0.05627943 0.18530321 -0.14582528 0.10523552 -0.066994734
-0.044253558 0.03127469 0.102106325 0.05191327 0.10471477 -0.18564755 0.104428925 0.0080394475
0.0012932923 -0.0675006 0.19800714 0.16413386 0.011800364 -0.08877533 0.19762045 0.15443814
-0.1592199 0.053851727 -0.031916514 0.09277055 -0.08729501 -0.07445094 0.13887691 -0.17612948
-0.09294154 -0.08927114 0.11472672 -0.037794497 0.19873883 0.18317406 -0.15383613 0.10594538
0.18898265 0.13845322 0.17147449 -0.10247285 -0.21106005 -0.07698598 0.06721016 0.16342302
0.12614201 -0.067457184 -0.12088657 -0.10365946 -0.152967 -0.12903953 0.12393575 -0.20429541
-0.063941784 0.14412439 -0.11878604 0.1783168 -0.18800013 -0.17091285 -0.15957554 -0.17316256
-0.14928666 -0.20226407 -0.09930083 0.16516872 0.040194895 -0.036468703 0.2320391 0.14556588
-0.10424219 -0.0029766266 0.13782534 -0.1101763 -0.13591814 -0.06394793 -0.046356667 0.24941829
-0.018019905 -0.04590829 0.02737528 0.3104621 -0.20324798 -0.22716704 -0.18833616 -0.33802804
00000000: bbcc 523b 6907 eabc 3ecc 77bb eb79 ee3a
00000010: 7c7c 4ebc bbf3 e03a f1f4 06bc 64f6 2bbc
00000020: b1da a23b 7de6 273b e1df cbb9 5de2 36bc
00000030: 8ebd 953b 27e2 06bc 6b3c 91ba 3857 e1bb
00000040: 8736 043c 4130 403a e960 ffbb feb2 9b3c
00000050: 6499 de3b 8e60 d9ba 3c0b 093c fe1e 283b
00000060: 591b e7bb cf20 2c3c 2a03 29bb 3f5a 93bb
00000070: 3647 a8bc 2d5a 823c 50e1 0a3b ceb6 2f3c
00000080: 7de0 a93b 650c c5ba 6626 b73a 2b01 3b3b
00000090: 21ba 1b3c 9dff 0d3b b369 6f3c d754 9dbc
000000a0: 1454 063c f4bc 0a39 3ebd 40bc 0905 293c
000000b0: de55 d8bb 35d8 593a 85ff 273c 57a3 24bc
000000c0: 6508 a73b bb7f 533c 207d 4b3b 78a6 28bc
000000d0: acb0 6dbb db4c 9e3b 1d50 323c bd1b 95bc
000000e0: a637 0f3b 7d21 843b cf34 863c 84b4 cabb
000000f0: 1080 3dbb 5d4d 013a 649e c13b 423a c53a
00000100: a6c2 92bc 93a8 45bc e0a3 a03b 5b13 603c
00000110: 0632 483c 05c6 f6ba d774 76bb fcf6 4a3c
00000120: 6238 2dbb 5535 c33b aee5 343c 7efb 20bc
00000130: a664 2d3c a6c0 9bbc 988e 533c 342e c13b
00000140: 95d1 1bbb 2803 97bb 97df 5cbb 6173 ffbb
00000150: 590e 9bbc 129c 0d3b 0a8c 293c f880 38ba
00000160: e5d6 46bc ec5e 203c 3046 7c3c 83f9 183c
00000170: 2118 5b3b 9f81 14bb dd40 5fbb 5375 3b3c
00000180: 626b 82bc 15bc ef39 1c45 a03c 2268 0a3c
00000190: b701 123b 8fd3 853c e110 c4bb 0f64 cbbb
000001a0: cbe9 6cbc a524 3dbc 2bd6 e63b 7c1d 313c
000001b0: 1c1a 55bb 0053 a03b 8f0f a03b 1984 c6bb
000001c0: d7ec 7f3b 92ae b1bb 3d67 b13c 662f 973c
000001d0: c4db dbbb 8259 b8b8 54f0 953b 7f2a 1e3c
000001e0: 5164 943a 1ef1 bb3b 2637 033c 3937 553c
000001f0: 2030 67bd 9092 8cbd feac 563d 83f8 7a3e
00000200: 39db 44be 7989 c2bd 1f95 71be 6c2e 0cbe
00000210: 456a 45be 0e40 3b3e e04c e2bd 7a73 183d
00000220: b26c f4bd 34fc 22be 30cb 293e a96b 5d3e
00000230: b113 bf3c a252 a43d aaae 753d eb73 4fbe
00000240: c6a9 023d 95b0 62be 7138 663e 70be 0bbe
00000250: 5c5a 883d 5731 a5bd 6176 0e3e 33ce 0bbe
00000260: 51e4 573c 7000 0fbe 2b32 c4bd ceeb 033e
00000270: 13b8 46bd 24bd 65bd 19f2 493e 2919 a23d
00000280: b53d fb3d 135c 59be b620 c73d 4bea 2f3d
00000290: 85a8 b83d dba1 f2bd 59d6 1c3e 75e8 b73d
000002a0: dae1 1f3e 72d6 dabc 1d29 01be 4285 663d
000002b0: 20c0 3d3e 3953 15be b885 d73d 8934 89bd
000002c0: 3843 35bd e419 003d 1f1d d13d 02a3 543d
000002d0: b374 d63d 641a 3ebe d5de d53d e3b7 033c
000002e0: b083 a93a c13d 8abd 62c2 4a3e b512 283e
000002f0: 5056 413c d7cf b5bd 045d 4a3e 0825 1e3e
00000300: 8b0a 23be a193 5c3d e4ba 02bd 7cfe bd3d
00000310: bac7 b2bd bc79 98bd c035 0e3e 495b 34be
00000320: 2258 bebd cad3 b6bd d8f5 ea3d 67ce 1abd
00000330: 3182 4b3e fb91 3b3e 3887 1dbe e4f9 d83d
00000340: ab84 413e aec6 0d3e 0297 2f3e 49dd d1bd
00000350: 2020 58be d3aa 9dbd 7ba5 893d 5d58 273e
00000360: 5f2b 013e fe26 8abd 6193 f7bd 694b d4bd
00000370: 62a3 1cbe f022 04be 07d2 fd3d d132 51be
00000380: e9f3 82bd 5895 133e 1846 f3bd ae98 363e
00000390: 1b83 40be c703 2fbe c567 23be 8751 31be
000003a0: 9ade 18be 501e 4fbe 3c5e cbbd fd21 293e
000003b0: 67a3 243d 3560 15bd a89b 6d3e 390f 153e
000003c0: ee7c d5bd 8213 43bb 1622 0d3e 1da4 e1bd
000003d0: 202e 0bbe 22f7 82bd 7de0 3dbd 8267 7f3e
000003e0: 7b9e 93bc 550a 3cbd 2042 e03c e3f4 9e3e
000003f0: 3d20 50be 7a9e 68be 32db 40be 0312 adbe

encoder.rnn.weight_ih_l0 f4 [48, 124]
0.21688789 0.13888906 0.17259736 0.1292262 -0.073299706 -0.14201416 -0.023718078 -0.27708095
-0.034859665 0.18830855 0.10985336 -0.098305024 -0.25981683 0.17323522 0.20985715 0.12959065
0.28204167 0.16747484 -0.12790725 -0.08077612 -0.2442746 -0.035032157 0.04367632 0.041954644
-0.20241256 0.07990797 0.1396169 -0.13165057 0.22318141 -0.20176634 0.06406727 0.17812505
-0.19415706 0.050638065 -0.017627528 0.20088018 0.10003279 -0.07188641 -0.15027444 0.24590106
-0.1274846 0.114525944 -0.12345814 -0.1765267 0.1967836 0.16833857 0.08267235 -0.18389775
-0.021009602 -0.05837291 -0.08145341 0.29540217 -0.005435566 -0.23205383 0.08642459 -0.08150065
0.24550703 -0.008742754 0.18058668 0.13650173 -0.13156754 -0.20241454 -0.062269032 0.17887704
-0.025305135 0.03539061 0.1852972 -0.12148939 -0.30432782 -0.19568826 0.16311255 0.20908298
0.180325 0.1790462 0.0023361987 -0.1455025 0.054500792 0.1893297 -0.07605733 -0.22109313
0.117722206 0.19586524 -0.20032588 -0.083758675 -0.05698362 -0.1288119 0.055918787 -0.1765496
-0.15083705 -0.05635297 -0.08497573 -0.014148867 -0.042278145 0.10487995 0.09629276 -0.110626005
-0.1992106 -0.25506046 -0.01574093 -0.10081115 0.027223334 0.21413732 -0.2067217 0.03323013
-0.09535247 -0.037592273 0.10081406 -0.0285702 -0.03448497 -0.1282214 0.037641928 0.23828107
-0.09049829 0.17453769 0.043145366 0.22836743 0.1365065 -0.105104476 0.14537351 -0.120033965
-0.27109843 -0.1479326 0.21020138 0.04266738 0.21035527 0.16569974 0.24881579 0.21301194
-0.20566754 -0.24776591 -0.19606684 -0.2828534 0.016467089 0.2664502 0.08807863 -0.06688731
-0.31273177 0.21122572 0.30387023 0.25578183 0.34756997 0.30659685 -0.13720694 -0.26971093
-0.18585564 -0.18118763 0.20045877 -0.19440672 -0.15813202 0.10591469 0.27050865 -0.2087654
0.25203854 -0.31258693 -0.06560159 0.25121003 -0.22851723 0.012527785 0.12390925 0.29336098
0.28213507 -0.26425567 -0.15101425 0.30974948 -0.14498644 0.13256742 0.07521297 -0.17835554
0.25902316 0.17987478 0.0033368045 -0.1641068 0.05248613 -0.11711101 0.105766125 0.28162926
-0.04369626 -0.23219274 0.28813407 -0.056568317 0.2843362 -0.23495057 0.26056814 0.18711093
-0.14963071 -0.27598023 0.104598664 0.31167 0.04288411 0.0731293 0.25727654 -0.16682777
-0.30815697 -0.2808593 0.2156324 0.2834614 0.20300552 0.17876853 0.18196015 -0.23660217
-0.08852913 0.14472042 0.042473316 -0.27609223 0.24434021 0.24407858 -0.28432024 -0.07339201
0.091603056 -0.03920366 0.20080099 -0.30691078 -0.20525481 -0.09338029 -0.08541608 0.22794308
0.1425411 0.19606 0.10492881 -0.2494339 -0.25317043 -0.32802537 0.037891295 -0.22757131
0.023724932 0.27974534 -0.25817582 0.19242264 -0.20072892 -0.09250111 -0.0037854866 -0.2363884
-0.22939146 -0.25161785 -0.09504577 0.2779867 -0.049333733 0.17583153 0.1536296 0.2604541
0.10243433 -0.1413087 0.2525626 -0.26910847 -0.3055449 -0.28178152 0.2186541 0.14969034
0.13745429 0.06406832 0.059562292 -0.0016504248 -0.004038752 -0.044573437 0.06797031 -0.08422573
00000000: dc17 5e3e ef38 0e3e 5dbd 303e df53 043e
00000010: 281e 96bd 296c 11be 6a4c c2bc 8edd 8dbe
00000020: 02c9 0ebd f5d3 403e ccfa e03d 2554 c9bd
00000030: b606 85be 9364 313e cbe4 563e 69b3 043e
00000040: c467 903e 867e 2b3e 1efa 02be f36d a5bd
00000050: 1f23 7abe e17d 0fbd f1e5 323d a2d8 2b3d
00000060: 3d45 4fbe caa6 a33d bcf7 0e3e 68cf 06be
00000070: ab89 643e d69b 4ebe b335 833d 6a66 363e
00000080: 1cd1 46be dc69 4f3d 9b67 90bc 89b3 4d3e
00000090: fedd cc3d 2f39 93bd 8be1 19be 7dcd 7b3e
000000a0: 538b 02be 948c ea3d 9fd7 fcbd 6ac3 34be
000000b0: a481 493e f260 2c3e 1f50 a93d b14f 3cbe
000000c0: 541c acbc 6f18 6fbd 0cd1 a6bd f43e 973e
000000d0: d51c b2bb 859f 6dbe 60ff b03d d0e9 a6bd
000000e0: 3266 7b3e c53d 0fbc b7eb 383e 1cc7 0b3e
000000f0: a4b9 06be c245 4fbe d00d 7fbd 8b2b 373e
00000100: b74c cfbc bff5 103d 8dbe 3d3e 6ecf f8bd
00000110: dbd0 9bbe 8162 48be fa06 273e d919 563e
00000120: 1ea7 383e e357 373e e91a 193b 9bfe 14be
00000130: 393c 5f3d a5df 413e f2c3 9bbd 3d66 62be
00000140: 5718 f13d e690 483e 3a22 4dbe ab89 abbd
00000150: a867 69bd 44e7 03be 190b 653d 6bc9 34be
00000160: 0775 1abe 5fd2 66bd c107 aebd a6d0 67bc
00000170: d92b 2dbd 4dcb d63d 2335 c53d e38f e2bd
00000180: ddfd 4bbe 4997 82be 1ff3 80bc 1476 cebd
00000190: 7803 df3c d046 5b3e daae 53be 511c 083d
000001a0: 2848 c3bd 5bfa 19bd 9a77 ce3d 0d0c eabc
000001b0: 1d40 0dbd 784c 03be 6c2e 1a3d f4ff 733e
000001c0: 2b57 b9bd 02ba 323e 32b9 303d 27d9 693e
000001d0: 5cc8 0b3e 0441 d7bd cbdc 143e 5ed4 f5bd
000001e0: 6acd 8abe a57b 17be 083f 573e fec3 2e3d
000001f0: 5f67 573e 31ad 293e 91c9 7e3e cd1f 5a3e
00000200: 839a 52be 59b6 7dbe bfc5 48be 29d2 90be
00000210: fde5 863c 296c 883e 9262 b43d 37fc 88bd
00000220: 611e a0be 8e4b 583e e194 9b3e d6f5 823e
00000230: b1f4 b13e 43fa 9c3e fa7f 0cbe 8d17 8abe
00000240: f150 3ebe 4089 39be 1045 4d3e 8e12 47be
00000250: 5ced 21be cde9 d83d 1c80 8a3e 99c6 55be
00000260: 320b 813e 650b a0be 205a 86bd 9a9e 803e
00000270: 6c00 6abe 5741 4d3c 22c4 fd3d 6933 963e
00000280: 0274 903e 854c 87be 7ba3 1abe 7c97 9e3e
00000290: 5377 14be c1bf 073e 4209 9a3d d6a2 36be
000002a0: af9e 843e 1831 383e 4aae 5a3b 9d0b 28be
000002b0: b2fb 563d e6d7 efbd e99b d83d b631 903e
000002c0: d9fa 32bd efc3 6dbe 4f86 933e 2eb4 67bd
000002d0: 8494 913e e296 70be 3069 853e 029a 3f3e
000002e0: cb38 19be 484d 8dbe d337 d63d 3693 9f3e
000002f0: 40a7 2f3d d0c4 953d c0b9 833e e6d4 2abe
00000300: c0c6 9dbe cacc 8fbe bdce 5c3e da21 913e
00000310: aee0 4f3e 190f 373e c353 3a3e d747 72be
00000320: c34e b5bd 9731 143e 80f8 2d3d f65b 8dbe
00000330: 5234 7a3e bcef 793e 6c92 91be 8d4e 96bd
00000340: 629a bb3d 0494 20bd c69e 4d3e 6923 9dbe
00000350: 512e 52be 2a3e bfbd a0ee aebd e969 693e
00000360: 4bf6 113e f4c3 483e eae4 d63d 9a6b 7fbe
00000370: 8e9f 81be f1f2 a7be e733 1b3d 7408 69be
00000380: ca5a c23c c83a 8f3e 9f2f 84be 710a 453e
00000390: e28b 4dbe 3971 bdbd ed15 78bb cd0f 72be
000003a0: 98e5 6abe 0ed4 80be 5ba7 c2bd 4654 8e3e
000003b0: 2b12 4abd 2e0d 343e 1451 1d3e 3d5a 853e
000003c0: 17c9 d13d 3ab3 10be e34f 813e 96c8 89be
000003d0: 6270 9cbe ab45 90be dce6 5f3e 6d48 193e
000003e0: d1c0 0c3e 4036 833d 97f7 733d 1153 d8ba
000003f0: 8257 84bb a392 36bd 0534 8b3d 8a7e acbd

encoder.rnn.weight_hh_l0 f4 [48, 16]
0.03180156 0.06228316 -0.081565194 0.008294589 -0.26095954 0.30773944 0.04872547 0.1407256
-0.5363694 0.083806425 0.5598055 -0.4639733 -0.12608482 -0.20194915 0.057832453 0.054694094
0.112492576 0.110753134 -0.16521516 -0.03749365 -0.35336867 0.34118655 0.12390332 0.18932538
-0.39587864 0.12238853 0.526426 -0.45710385 -0.18901621 -0.26814786 0.1122531 0.11330096
0.00016168799 0.058327224 -0.053779956 0.03666809 -0.3305963 0.3829744 0.023258206 0.21060108
-0.7081533 0.023686716 0.6378005 -0.5493752 -0.2021468 -0.27014914 0.040856615 0.02010425
0.075162336 0.048359666 -0.041427847 -0.047681145 -0.07148274 0.08789545 0.07001777 0.014670236
-0.23020642 0.070711836 0.17450278 -0.14826947 -0.018958077 -0.045892768 0.07341334 0.056121465
0.12901685 0.101703085 -0.32645062 -0.024904685 0.0018925207 -0.019728877 0.08125701 0.0021388014
-0.012005144 0.24586141 -0.023196202 0.031003326 -0.031722218 0.020745885 0.07614556 0.11130527
0.14731607 0.111714944 -0.33403394 -0.008837531 -0.039173808 0.024364686 0.103932366 0.037610285
-0.023274817 0.28982812 0.033095703 -0.016542723 -0.08078227 -0.014346 0.11625657 0.1406341
0.16472426 0.12570758 -0.18149626 -0.15594909 -0.24183363 0.23150793 0.15773922 0.06779749
-0.25494528 0.15555769 0.32671174 -0.2742338 -0.074284695 -0.18731415 0.12555715 0.12366942
0.11367727 0.05535731 -0.26743615 -0.090849765 0.057096 -0.05453523 0.041113224 -0.069030635
0.04435614 0.1834715 -0.059644543 0.09593303 0.044650685 0.062022936 0.051528037 0.07856877
0.16764885 0.21285182 -0.3856803 0.051128276 -0.060879473 0.02276343 0.18031923 0.033528052
-0.10013509 0.3297613 0.09961372 -0.045388803 -0.06334699 -0.060970493 0.18932183 0.2241183
-0.006613459 0.062149193 -0.022290494 0.03705194 -0.3297976 0.35478437 0.027006887 0.21281686
-0.61624914 0.008106968 0.5799242 -0.51900244 -0.21855907 -0.2841806 0.051992368 0.03226615
0.18993963 0.19864057 -0.40011004 0.019304076 -0.04023467 0.034790784 0.16363691 -0.0023398574
-0.06445787 0.3363642 0.046654962 -0.023463933 -0.057609767 -0.021555677 0.16048017 0.20304547
0.15990017 0.21992522 -0.3006854 0.05690008 -0.13280639 0.10475708 0.17378333 0.12803286
-0.12288068 0.30683035 0.12730575 -0.08872186 -0.16365823 -0.10050369 0.18519409 0.1928919
0.0141265225 0.04080549 -0.08108283 -0.0073276237 0.05050964 -0.02701152 0.029146267 -0.06942273
0.036920827 0.072873674 -0.094389185 0.06852082 -0.00011824831 0.08304421 0.026810676 0.048481293
0.088436365 0.05995638 -0.2641884 -0.0022510935 0.023128096 0.00041154583 0.014512389 0.0018420933
0.012606604 0.18723439 -0.0147345485 0.031911977 -0.02519061 0.017713718 0.033894524 0.06519689
0.12647307 0.12551332 -0.20884746 -0.06563397 -0.3142535 0.3334177 0.13496605 0.13486643
-0.37345535 0.17380038 0.524601 -0.42260084 -0.16167614 -0.25125152 0.12215865 0.10971687
0.06901454 0.07234644 -0.111216284 0.028290778 -0.3700042 0.40760517 0.04471675 0.2260831
-0.6251504 0.09311257 0.74718034 -0.6081221 -0.2203428 -0.3111626 0.07723436 0.075588174
00000000: 5a42 023d a01c 7f3d a70b a7bd 07e6 073c
00000010: 7d9c 85be 0690 9d3e 5c94 473d 5f1a 103e
00000020: 814f 09bf b4a2 ab3d 6a4f 0f3f e98d edbe
00000030: 611c 01be c2cb 4ebe b9e1 6c3d ea06 603d
00000040: 8262 e63d 8ad2 e23d 2a2e 29be f192 19bd
00000050: bdec b4be 01b0 ae3e 06c1 fd3d 83de 413e
00000060: 9bb0 cabe d6a6 fa3d dbc3 063f 8409 eabe
00000070: 778d 41be ad4a 89be f4e4 e53d 550a e83d
00000080: ca8a 2939 87e8 6e3d 5f48 5cbd 4731 163d
00000090: eb43 a9be 3815 c43e fe87 be3c cfa7 573e
000000a0: 8949 35bf a50a c23c e546 233f daa3 0cbf
000000b0: 92ff 4ebe fd50 8abe 4459 273d abb1 a43c
000000c0: b6ee 993d c914 463d 3fb0 29bd 4e4d 43bd
000000d0: 8b65 92bd 8802 b43d 7a65 8f3d 6e5b 703c
000000e0: 3bbb 6bbe 5ed1 903d dbb0 323e f4d3 17be
000000f0: f84d 9bbc 0efa 3bbd bc59 963d 9fdf 653d
00000100: fe1c 043e b549 d03d 8924 a7be e904 ccbc
00000110: 750e f83a 749e a1bc 136a a63d 222b 0c3b
00000120: 39b1 44bc 18c3 7b3e f605 bebc b0fa fd3c
00000130: 28ef 01bd 46f3 a93c 34f2 9b3d 04f4 e33d
00000140: 06da 163e ceca e43d 7f06 abbe 4bcb 10bc
00000150: b774 20bd 7398 c73c 7eda d43d 3e0d 1a3d
00000160: d4aa bebc 5a64 943e 5c8f 073d 9b84 87bc
00000170: 2d71 a5bd 7c0b 6bbc ed17 ee3d 6302 103e
00000180: 7aad 283e 7db9 003e 28da 39be 1eb1 1fbe
00000190: 3ca3 77be 6a10 6d3e 6486 213e 69d9 8a3d
000001a0: 3088 82be 844a 1f3e c346 a73e 5f68 8cbe
000001b0: 9322 98bd 48cf 3fbe 0e92 003e 6546 fd3d
000001c0: a1cf e83d 59be 623d 64ed 88be 710f babd
000001d0: 7fdd 693d 5560 5fbd 5766 283d ef5f 8dbd
000001e0: c9ae 353d f4df 3b3e d64d 74bd 8978 c43d
000001f0: a3e3 363d c30b 7e3d 100f 533d aae8 a03d
00000200: 24ac 2b3e d4f5 593e e377 c5be e26b 513d
00000210: c15c 79bd 5f7a ba3c 9ba5 383e b654 093d
00000220: a013 cdbd 79d6 a83e 4702 cc3d 9ce9 39bd
00000230: 11bc 81bd 32bc 79bd 95dd 413e 457f 653e
00000240: b7b5 d8bb 2790 7e3d 8e9a b6bc c6c3 173d
00000250: 3bdb a8be 4ca6 b53e 8c3d dd3c aaec 593e
00000260: 81c2 1dbf 17d3 043c ea75 143f 58dd 04bf
00000270: f3cd 5fbe 1f80 91be f3f5 543d 8329 043d
00000280: 897f 423e 6f68 4b3e 39db ccbe 9523 9e3c
00000290: 1ccd 24bd c880 0e3d 6f90 273e 4b58 19bb
000002a0: 7d02 84bd ee37 ac3e 4619 3f3d 6f37 c0bc
000002b0: 38f8 6bbd 8895 b0bc ea54 243e 27eb 4f3e
000002c0: dfbc 233e 1434 613e 70f3 99be 0f10 693d
000002d0: 66fe 07be e18a d63d 42f4 313e 0c1b 033e
000002e0: dea8 fbbd de18 9d3e 705c 023e ceb3 b5bd
000002f0: 0696 27be e1d4 cdbd 85a3 3d3e 7485 453e
00000300: ee72 673c a823 273d c10e a6bd 901c f0bb
00000310: 32e3 4e3d 4347 ddbc 27c4 ee3c 812d 8ebd
00000320: 4b3a 173d cb3e 953d 1e4f c1bd a554 8c3d
00000330: 14fc f7b8 1513 aa3d 10a2 db3c 5294 463d
00000340: 201e b53d d294 753d b443 87be 1587 13bb
00000350: 2277 bd3c bfc4 d739 5fc5 6d3c 6572 f13a
00000360: ee8b 4e3c 5fba 3f3e 2d69 71bc 22b6 023d
00000370: 8a5c cebc 5c1c 913c fcd4 0a3d f285 853d
00000380: 2882 013e 9086 003e 1cdc 55be 1a6b 86bd
00000390: d6e5 a0be bab5 aa3e 8a34 0a3e 6d1a 0a3e
000003a0: 8a35 bfbe baf8 313e 404c 063f 235f d8be
000003b0: 6e8e 25be 0aa4 80be 502e fa3d 3db3 e03d
000003c0: 7f57 8d3d 5f2a 943d 5dc5 e3bd 10c2 e73c
000003d0: 3171 bdbe a0b1 d03e e928 373d 5482 673e
000003e0: db09 20bf ceb1 be3d 3647 3f3f e4ad 1bbf
000003f0: 8ba1 61be b450 9fbe 0c2d 9e3d f9cd 9a3d

encoder.rnn.bias_ih_l0 f4 [48]
0.005573015 0.10580263 0.04534447 0.09454295 0.038225595 0.055971414 0.17501941 0.0030728686
0.054861434 0.058617696 0.063783646 0.114468634 0.039897673 0.011248259 0.07853466 0.017438848
-0.12895167 -0.20250238 -0.005396223 -0.28417227 -0.33447808 -0.2960107 -0.17961545 -0.28866625
-0.31977323 -0.06939261 -0.42733184 -0.34049043 -0.31671438 -0.34709743 -0.14035797 -0.067532435
0.0018916408 0.09925729 -0.013561835 0.00048730976 -0.07465968 0.09622038 0.10294532 0.030676408
-0.1416905 0.030438332 0.10082924 -0.123924255 -0.02957347 -0.06489093 0.07800144 0.02811671
00000000: d79d b63b 0daf d83d 1fbb 393d bc9f c13d
00000010: 7192 1c3d 4842 653d 4a38 333e 2e62 493b
00000020: 62b6 603d 1c19 703d 00a1 823d 886e ea3d
00000030: be6b 233d 9e4a 383c c8d6 a03d eadb 8e3c
00000040: e80b 04be c95c 4fbe cdd2 b0bb 077f 91be
00000050: b640 abbe b78e 97be 1ded 37be 10cc 93be
00000060: 51b9 a3be b61d 8ebd 3dcb dabe c354 aebe
00000070: 6328 a2be c1b6 b1be 00ba 0fbe 724e 8abd
00000080: eff0 f73a 6847 cb3d 7532 5ebc 9c7d ff39
00000090: 2de7 98bd 310f c53d ffd4 d23d 174d fb3c
000000a0: 5017 11be cf59 f93c 907f ce3d 00cc fdbd
000000b0: 1044 f2bc 89e5 84bd 38bf 9f3d 0455 e63c

encoder.rnn.bias_hh_l0 f4 [48]
0.0055730166 0.1058026 0.045344412 0.09454296 0.03822563 0.05597145 0.17501941 0.0030728667
0.054861464 0.05861771 0.06378362 0.114468604 0.039897695 0.011248249 0.07853465 0.017438848
-0.12895165 -0.20250241 -0.0053962087 -0.2841722 -0.33447805 -0.29601064 -0.17961548 -0.28866625
-0.3197731 -0.06939253 -0.42733184 -0.3404904 -0.31671435 -0.34709737 -0.140358 -0.06753245
-0.007767733 0.076614425 -0.017345497 0.019387566 -0.07898956 0.10074891 0.088265985 0.04508426
-0.13650894 0.019276034 0.10356933 -0.13251744 -0.04069994 -0.07408302 0.069143966 0.036039192
00000000: da9d b63b 09af d83d 10bb 393d bd9f c13d
00000010: 7a92 1c3d 5242 653d 4a38 333e 2662 493b
00000020: 6ab6 603d 2019 703d fda0 823d 846e ea3d
00000030: c46b 233d 934a 383c c6d6 a03d eadb 8e3c
00000040: e70b 04be cb5c 4fbe aed2 b0bb 057f 91be
00000050: b540 abbe b58e 97be 1fed 37be 10cc 93be
00000060: 4db9 a3be ac1d 8ebd 3dcb dabe c254 aebe
00000070: 6228 a2be bfb6 b1be 02ba 0fbe 744e 8abd
00000080: 7888 febb 06e8 9c3d 2518 8ebc acd2 9e3c
00000090: 47c5 a1bd 7255 ce3d ccc4 b43d 46aa 383d
000000a0: 00c9 0bbe c6e8 9d3c 281c d43d a7b2 07be
000000b0: fbb4 26bd d7b8 97bd 5a9b 8d3d d59d 133d

encoder.rnn.weight_ih_l0_reverse f4 [48, 124]
-0.14732741 -0.13241552 -0.15237433 -0.018828128 -0.06721355 0.003234795 -0.008433509 -0.043250564
-0.11754924 -0.12084314 -0.13192214 -0.03154273 0.11789111 -0.18567552 0.036239505 0.040107746
-0.15049045 -0.058208644 0.23604573 -0.049315624 0.10817519 -0.10877474 0.033940338 -0.074704915
0.12909274 -0.25494322 -0.07290721 0.07219878 -0.094868325 0.024477601 -0.13993694 -0.05074988
0.1813268 -0.18556838 0.017063016 -0.022848256 0.05744663 -0.046817213 0.1492305 -0.12551938
0.1919376 -0.31117967 0.080741696 0.2896649 -0.0014069706 -0.13434838 -0.03862122 0.18813767
0.009308637 -0.16731079 0.120502055 -0.21584909 -0.049465373 0.154798 0.13406596 0.13238287
-0.075946465 -0.06496786 -0.1483834 -0.092648104 0.28776327 0.069011636 0.03344397 0.007915782
-0.066794485 -0.008234346 0.06413842 0.25534686 0.073216826 0.28403863 -0.031747937 -0.18377538
-0.14421189 -0.26486856 -0.023736564 -0.049399383 0.10096401 -0.22696869 0.084012106 0.064039834
0.0746102 -0.06783617 -0.09268357 0.25740778 0.19134088 0.19965792 0.054200433 -0.01732205
-0.03798197 0.123354524 0.086769834 0.025414063 0.08087988 -0.10537371 -0.19180068 -0.1128709
-0.004466072 -0.012384393 0.07568698 -0.08786613 -0.24141218 -0.013217604 0.109671354 0.039581645
0.011066518 0.03192048 -0.18041357 -0.14609535 -0.14174639 -0.048201438 -0.24052276 -0.0032128852
-0.021049114 -0.25282785 -0.013685822 -0.044162452 -0.15268426 0.06317696 0.053775363 0.0047365148
0.059694566 0.051305074 -0.13530663 0.05141174 -0.18993415 -0.14362684 -0.16493045 0.049450774
-0.12368788 0.0019556382 -0.06212392 -0.012666693 -0.1243428 -0.017748136 -0.1891251 0.27893165
0.107465215 -0.13720722 0.04171809 0.056990046 -0.14393747 0.013830924 0.17799135 -0.090876356
0.22853513 -0.111781485 0.05216241 -0.10084922 0.2759632 -0.2294639 -0.029834589 0.016544634
-0.17105886 -0.012080662 -0.2056326 -0.007493578 0.16395745 -0.19906664 0.11169877 -0.056035377
0.11306411 -0.095227115 0.19361976 -0.1328348 0.23860045 -0.19281368 0.22034237 0.2023472
-0.02151912 -0.16896062 -0.09907445 0.17507401 0.11963785 -0.13316548 0.18420342 -0.17975907
-0.1432818 0.16479786 0.07710439 0.25662985 -0.07900296 -0.09892863 -0.11323101 -0.15980323
0.24892488 -0.035027046 0.16389695 0.054936472 0.21038584 -0.16055027 0.07332676 0.16961837
-0.018270042 0.2045419 -0.17371447 -0.12552421 -0.17895181 -0.3371528 0.14539906 -0.031021861
-0.2456124 -0.23047757 0.23639776 0.010760318 0.05574725 -0.058481626 -0.0109532885 0.24177153
0.23776805 0.17866015 0.14645426 -0.04945362 -0.054825056 -0.09683149 0.15253656 0.10659193
0.1252655 -0.19857645 -0.21767306 -0.11187913 -0.0604309 -0.044802032 0.12262874 -0.16408928
-0.24409416 -0.0038343323 0.15588829 0.11275322 -0.16275196 -0.16753274 -0.24548829 -0.0755606
-0.15632325 0.0069852313 -0.15153918 0.017630376 0.25364342 -0.24436374 0.07567291 0.013637643
-0.17972225 0.2300895 0.0061754487 -0.09272639 0.012843834 0.069723666 -0.2251781 0.12312656
-0.16098954 -0.04442646 -0.11024744 0.07478346 -0.14459848 -0.058508456 -0.071137324 -0.099863075
00000000: ffdc 16be ef97 07be 0408 1cbe 723d 9abc
00000010: 42a7 89bd dbfe 533b b32c 0abc 8127 31bd
00000020: a8bd f0bd 9c7c f7bd 9916 07be f332 01bd
00000030: e570 f13d b921 3ebe e06f 143d 0548 243d
00000040: 2b1a 1abe 306c 6ebd f9b5 713e 2eff 49bd
00000050: f48a dd3d 4ac5 debd 0605 0b3d e4fe 98bd
00000060: e330 043e eb87 82be 6050 95bd f4dc 933d
00000070: 534a c2bd 4085 c83c a14b 0fbe 1bdf 4fbd
00000080: bcad 393e a305 3ebe bdc7 8b3c 442c bbbc
00000090: 284d 6b3d 68c3 3fbd e1cf 183e 2788 00be
000000a0: 4a8b 443e f152 9fbe e75b a53d f54e 943e
000000b0: 196a b8ba 9f92 09be 4931 1ebd 29a7 403e
000000c0: 4183 183c 8553 2bbe c8c9 f63d 8b07 5dbe
000000d0: 349c 4abd 5e83 1e3e 9648 093e 608f 073e
000000e0: d289 9bbd df0d 85bd d1f1 17be 4abe bdbd
000000f0: b555 933e f955 8d3d 8bfc 083d 32b1 013c
00000100: 8ccb 88bd 5ae9 06bc 015b 833d d3bc 823e
00000110: b4f2 953d 836d 913e 200a 02bd 9d2f 3cbe
00000120: 48ac 13be da9c 87be 2f73 c2bc 0257 4abd
00000130: 38c6 ce3d 7b6a 68be 8a0e ac3d 5127 833d
00000140: 3ccd 983d b1ed 8abd e2d0 bdbd f4ca 833e
00000150: ddee 433e 2073 4c3e 4601 5e3d f9e6 8dbc
00000160: fb92 1bbd 4ca1 fc3d 62b4 b13d 2731 d03c
00000170: 5aa4 a53d 2cce d7bd 6667 44be dc28 e7bd
00000180: 2158 92bb e9e7 4abc c601 9b3d 28f3 b3bd
00000190: c134 77be a68e 58bc 609b e03d 5d20 223d
000001a0: 5750 353c 0dbf 023d 56be 38be 059a 15be
000001b0: f725 11be df6e 45bd 994b 76be 458f 52bb
000001c0: 316f acbc a772 81be 7f3a 60bc b0e3 34bd
000001d0: 4359 1cbe ec62 813d 8e43 5c3d c434 9b3b
000001e0: 4a82 743d 4525 523d d28d 0abe 1e95 523d
000001f0: 197e 42be ea12 13be 87e3 28be e58c 4a3d
00000200: 1250 fdbd 2a2a 003b a775 7ebd f687 4fbc
00000210: 70a7 febd 8a64 91bc 03aa 41be 21d0 8e3e
00000220: b916 dc3d 0d80 0cbe 97e0 2a3d 656e 693d
00000230: 5864 13be 1a9b 623c 5d43 363e 621d babd
00000240: 1d05 6a3e b1ed e4bd 40a8 553d 098a cebd
00000250: 0c4b 8d3e 96f8 6abe ab67 f4bc 9d88 873c
00000260: 0e2a 2fbe f8ed 45bc 5a91 52be b08c f5bb
00000270: 76e4 273e 20d8 4bbe 53c2 e43d 5a85 65bd
00000280: 288e e73d 6f06 c3bd 4244 463e d905 08be
00000290: ad53 743e f370 45be 6ea1 613e 1b34 4f3e
000002a0: de48 b0bc 0304 2dbe 8ce7 cabd 9a46 333e
000002b0: b004 f53d 885c 08be d29f 3c3e c312 38be
000002c0: 77b8 12be c5c0 283e e8e8 9d3d fd64 833e
000002d0: 4ecc a1bd 189b cabd a9e5 e7bd 75a3 23be
000002e0: 2ae6 7e3e 8578 0fbd 9ad4 273e 1105 613d
000002f0: 636f 573e 4a67 24be 572c 963d 70b0 2d3e
00000300: 0eab 95bc 6f73 513e 35e2 31be 6b89 00be
00000310: 253f 37be 4b9f acbe 7ee3 143e 8f21 febc
00000320: d181 7bbe 5002 6cbe 4112 723e 0b4c 303c
00000330: 3a57 643d 6e8a 6fbd 6c75 33bc f592 773e
00000340: 7879 733e b0f2 363e 1bf8 153e e18f 4abd
00000350: 3d90 60bd 974f c6bd 8b32 1c3e df4c da3d
00000360: 9945 003e a057 4bbe b0e5 5ebe e320 e5bd
00000370: 6486 77bd 5682 37bd c724 fb3d 0507 28be
00000380: d2f3 79be 6c49 7bbb 2ea1 1f3e 29eb e63d
00000390: 73a8 26be b48d 2bbe 4861 7bbe 84bf 9abd
000003a0: 3413 20be 5ee4 e43b 162d 1bbe 946d 903c
000003b0: 8ddd 813e 7d3a 7abe 66fa 9a3d 6c70 5f3c
000003c0: 1c09 38be 959c 6b3e 6b5b ca3b 55e7 bdbd
000003d0: f26e 523c 48cb 8e3d 1695 66be c729 fc3d
000003e0: 71da 24be 85f8 35bd 69c9 e1bd 1228 993d
000003f0: a011 14be 90a6 6fbd 72b0 91bd 0385 ccbd

encoder.rnn.weight_hh_l0_reverse f4 [48, 16]
0.069872044 0.41707024 -0.21634154 -0.55543506 -0.32168546 0.54135096 -0.04812679 0.8639015
-0.38388628 0.76240104 -0.22254239 -0.28145534 -0.072091386 0.10066769 0.06784751 0.48000017
0.11794995 0.15469112 -0.17909099 -0.23776907 -0.34297407 0.22474836 -0.14904554 0.38129604
-0.15154383 0.35013792 -0.10587581 -0.18429719 -0.14456216 -0.06132216 0.16063933 0.3342644
0.3262998 0.6075629 -0.3781196 -0.505633 -0.28972185 0.52081794 -0.27157015 0.31380334
-0.5789336 0.2984594 -0.05797167 -0.13169262 -0.33309832 -0.08775842 0.24341467 0.2539556
0.22498102 0.13116768 -0.19776346 -0.09238501 0.052059658 0.0938849 -0.29633424 -0.011234882
-0.12976907 -0.01656532 0.17224766 0.12663294 -0.19408211 -0.28662065 0.34436625 -0.038984057
0.046346862 0.031468537 -0.01999931 -0.038143683 -0.2255187 0.02078926 0.016485548 0.1124481
-0.030277524 0.10917065 -0.34831914 -0.27535596 -0.054211024 0.089742534 -0.06849686 0.17675686
0.025609365 0.12003034 -0.07535816 -0.16522115 -0.2959495 0.11190362 -0.0060769534 0.3291633
-0.10008916 0.3536228 -0.23212129 -0.2824619 -0.03229716 0.010634777 -0.022451926 0.32782304
-0.088968895 0.16167617 0.005360883 -0.3382216 -0.30104253 0.34160858 0.10604326 0.7032827
-0.17142488 0.7169341 -0.32800096 -0.35968742 0.11292846 0.1963548 -0.107247524 0.49338514
0.16551869 0.2207286 -0.2036644 -0.17193928 -0.29488787 0.18858959 -0.057073742 0.18127263
-0.19541663 0.21322104 -0.221309 -0.21716306 -0.15393911 0.09654227 -0.024291644 0.26284587
0.1966109 0.291052 -0.24999554 -0.35293794 -0.29719833 0.36527863 -0.1896661 0.39647752
-0.26499933 0.3512742 -0.04243337 -0.12822601 -0.20925798 -0.072419144 0.18821546 0.32097706
0.13498306 0.1767791 -0.16622949 -0.18321514 -0.27872735 0.20438075 -0.05209818 0.20147441
-0.18027736 0.20936605 -0.22159995 -0.21625526 -0.13548997 0.07670961 -0.041703127 0.2548623
-0.087119736 0.006336993 0.06840351 0.0021937725 -0.084886104 0.037442137 0.09611294 0.102752715
0.01509487 0.0887921 -0.056003474 -0.02219566 0.051180664 -0.032421067 -0.05247324 0.07815135
0.008994723 0.019249275 0.044014275 -0.03089472 -0.11023522 -0.015511003 0.059351742 0.06671273
-0.019651044 0.09763529 -0.126187 -0.10731194 -0.027490988 -0.00567704 -0.12376866 0.09595793
0.07292471 0.33545327 -0.2036664 -0.46166387 -0.46402684 0.47773635 -0.05838359 0.7714617
-0.3090691 0.7487501 -0.25759804 -0.3719824 -0.09163576 0.1106136 0.08491451 0.56636477
-0.16137668 0.044764005 0.03536973 -0.005244502 0.017601274 0.009522475 0.1431283 0.12978585
-0.0038991333 0.12184384 -0.07877746 -0.02527868 0.13625722 -0.009291108 -0.12829444 0.010260066
0.1869712 0.63888955 -0.3363419 -0.83789176 -0.45079717 0.90857637 -0.1674711 0.81734097
-0.62052244 0.6865431 -0.13287395 -0.19896609 -0.19681449 0.016094727 0.18259831 0.49884853
0.1382397 0.1384899 -0.1189626 -0.15457796 -0.41504014 0.19582187 -0.075570434 0.13541774
-0.14069335 0.16771497 -0.46137664 -0.3604263 -0.11623044 0.12185845 0.017747037 0.24895805
00000000: 1319 8f3d 3b8a d53e a388 5dbe fe30 0ebf
00000010: f5b3 a4be fa95 0a3f 9920 45bd a628 5d3f
00000020: be8c c4be b72c 433f 27e2 63be ea1a 90be
00000030: a6a4 93bd dd2a ce3d a3f3 8a3d 95c2 f53e
00000040: be8f f13d 5967 1e3e a163 37be bc79 73be
00000050: 4c9a afbe 6f24 663e 659f 18be 3c39 c33e
00000060: 4e2e 1bbe 4745 b33e 6bd5 d8bd 67b8 3cbe
00000070: 1a08 14be f22c 7bbd a37e 243e b424 ab3e
00000080: c410 a73e 3e89 1b3f e498 c1be 2a71 01bf
00000090: 6c56 94be 5354 053f 3e0b 8bbe d5aa a03e
000000a0: fe34 14bf accf 983e b473 6dbd 6eda 06be
000000b0: dd8b aabe b0ba b3bd b241 793e 7806 823e
000000c0: 6d61 663e d250 063e 8182 4abe 5a34 bdbd
000000d0: 823c 553d ba46 c03d 1fb9 97be 8312 38bc
000000e0: 2fe2 04be feb3 87bc b161 303e 11ac 013e
000000f0: 76bd 46be f1bf 92be c650 b03e bfad 1fbd
00000100: 35d6 3d3d 27e5 003d 98d5 a3bc 8d3c 1cbd
00000110: 60ee 66be 3d4e aa3c b30c 873c 304b e63d
00000120: 9208 f8bc dd94 df3d e356 b2be 75fb 8cbe
00000130: 610c 5ebd efca b73d 1548 8cbd c0ff 343e
00000140: bbca d13c 78d2 f53d 6155 9abd bc2f 29be
00000150: b186 97be ba2d e53d 2e21 c7bb 1888 a83e
00000160: 8cfb ccbd 0c0e b53e 34b1 6dbe d99e 90be
00000170: 074a 04bd 7d3d 2e3c 1aed b7bc 6cd8 a73e
00000180: 5335 b6bd 708e 253e 59aa af3b 622b adbe
00000190: 3f22 9abe 52e7 ae3e 352d d93d 560a 343f
000001a0: 018a 2fbe fe88 373f beef a7be f328 b8be
000001b0: 0947 e73d 3c11 493e 97a4 dbbd fa9c fc3e
000001c0: bb7d 293e ae06 623e 678d 50be da10 30be
000001d0: 8bfb 96be a11d 413e 28c6 69bd 889f 393e
000001e0: 4c1b 48be 9e56 5a3e d49e 62be fe5f 5ebe
000001f0: 37a2 1dbe f4b7 c53d 45ff c6bc bc93 863e
00000200: 5e54 493e c504 953e d5fe 7fbe 48b4 b4be
00000210: 612a 98be cd05 bb3e d537 42be 1aff ca3e
00000220: fead 87be 36da b33e 9dce 2dbd ae4d 03be
00000230: b947 56be 7d50 94bd 8ebb 403e 1b57 a43e
00000240: 0039 0a3e 9505 353e 1038 2abe c09c 3bbe
00000250: 5ab5 8ebe 3049 513e e764 55bd 4f4f 4e3e
00000260: a19a 38be 0e64 563e 19eb 62be 0572 5dbe
00000270: e2bd 0abe ee19 9d3d e6d0 2abd 507d 823e
00000280: d56b b2bd 8da6 cf3b 2417 8c3d 65c5 0f3b
00000290: c4d8 adbd ed5c 193d dcd6 c43d 0470 d23d
000002a0: 7950 773c a2d8 b53d e663 65bd acd3 b5bc
000002b0: d1a2 513d f4cb 04bd 2eee 56bd d10d a03d
000002c0: 9a5e 133c a8b0 9d3c 5048 343d ed16 fdbc
000002d0: 01c3 e1bd dd21 7ebc d01a 733d afa0 883d
000002e0: 3afb a0bc 03f5 c73d 2a37 01be 5dc6 dbbd
000002f0: c834 e1bc 7706 babb 6c7a fdbd 9785 c43d
00000300: 8d59 953d 88c0 ab3e ed8d 50be 355f ecbe
00000310: ed94 edbe dc99 f43e a223 6fbd 847e 453f
00000320: 4e3e 9ebe 16ae 3f3f e4e3 83be 7a74 bebe
00000330: 88ab bbbd 6289 e23d a9e7 ad3d 48fd 103f
00000340: ee3f 25be 765a 373d dadf 103d 12da abbb
00000350: 8c30 903c 2804 1c3c 3a90 123e 95e6 043e
00000360: 9a88 7fbb 4389 f93d 1456 a1bd 3c15 cfbc
00000370: 0387 0b3e bb39 18bc 9e5f 03be d619 283c
00000380: 6175 3f3e 448e 233f 0135 acbe 1380 56bf
00000390: e3ce e6be 7698 683f 8b7d 2bbe 423d 513f
000003a0: 8fda 1ebf 4ac1 2f3f 1c10 08be c4bd 4bbe
000003b0: bd89 49be 17d9 833c 0dfb 3a3e 1369 ff3e
000003c0: b58e 0d3e 4cd0 0d3e aaa2 f3bd af49 1ebe
000003d0: 2480 d4be 8785 483e acc4 9abd f3aa 0a3e
000003e0: eb11 10be 79bd 2b3e 8f39 ecbe cc89 b8be
000003f0: 3a0a eebd ec90 f93d 3c62 913c dcee 7e3e

encoder.rnn.bias_ih_l0_reverse f4 [48]
0.14036447 0.12130681 -0.021211142 -0.04299313 0.17642075 0.23779126 0.22504187 0.22413999
0.080509 0.23186618 0.19413224 0.1106588 0.16081904 0.23529041 0.018149832 0.17058505
-0.2574684 -0.2503703 -0.34013543 -0.2254572 -0.28701666 -0.14724472 -0.23484398 -0.13613278
-0.25293332 -0.14171879 -0.18795843 -0.24291599 -0.26876053 -0.13956043 -0.3252924 -0.19594525
0.0180925 0.09723161 -0.107079946 -0.1067344 0.024129387 0.091552615 0.054859217 0.11399526
-0.11226805 0.12371355 0.0062338375 -0.035572175 0.0033719456 -0.01591146 0.10962802 0.04567664
00000000: b4bb 0f3e b46f f83d fdc2 adbc 9019 30bd
00000010: a4a7 343e 8d7f 733e 6071 663e f484 653e
00000020: e7e1 a43d 546e 6d3e 9aca 463e 15a1 e23d
00000030: bfad 243e f8ef 703e f5ae 943c d9ad 2e3e
00000040: e6d2 83be 8930 80be 3b26 aebe 41de 66be
00000050: d9f3 92be 52c7 16be f17a 70be 6466 0bbe
00000060: 7a80 81be bb1e 11be 2d78 40be f8be 78be
00000070: fb9a 89be eee8 0ebe ba8c a6be dfa5 48be
00000080: b936 943c 5e21 c73d bb4c dbbd 9197 dabd
00000090: feaa c53c f07f bb3d 0fb4 603d 5976 e93d
000000a0: cbec e5bd 885d fd3d 3845 cc3b 21b4 11bd
000000b0: dcfb 5c3b c058 82bc a884 e03d 6e17 3b3d

encoder.rnn.bias_hh_l0_reverse f4 [48]
0.14036448 0.12130682 -0.021211138 -0.0429931 0.17642061 0.2377912 0.22504194 0.22414002
0.08050902 0.2318661 0.19413231 0.110658735 0.16081902 0.23529042 0.018149842 0.17058507
-0.25746852 -0.25037035 -0.34013546 -0.22545718 -0.28701663 -0.14724477 -0.23484398 -0.13613285
-0.2529333 -0.14171875 -0.18795839 -0.24291594 -0.26876056 -0.13956046 -0.32529244 -0.1959453
0.0046848105 0.122927494 -0.071677096 -0.11865365 0.0054578544 0.14279214 0.056087457 0.15142164
-0.12118301 0.16022328 -0.022075431 -0.077149965 0.00082303357 0.024682017 -0.030927353 0.07764924
00000000: b5bb 0f3e b66f f83d fbc2 adbc 8819 30bd
00000010: 9ba7 343e 897f 733e 6571 663e f684 653e
00000020: eae1 a43d 4f6e 6d3e 9fca 463e 0ca1 e23d
00000030: bead 243e f9ef 703e faae 943c daad 2e3e
00000040: ead2 83be 8b30 80be 3c26 aebe 3fde 66be
00000050: d8f3 92be 55c7 16be f17a 70be 6966 0bbe
00000060: 7980 81be b81e 11be 2a78 40be f5be 78be
00000070: fc9a 89be f0e8 0ebe bb8c a6be e2a5 48be
00000080: 0a83 993b 69c1 fb3d 71cb 92bd af00 f3bd
00000090: cdd7 b23b 1a38 123e f6bb 653d 460e 1b3e
000000a0: cc2e f8bd 9211 243e 89d7 b4bc cd00 9ebd
000000b0: d9c0 573a f131 ca3c 5c5b fdbc 9106 9f3d

encoder.fc.weight f4 [16, 32]
-0.1512196 -0.18007655 0.13156012 -0.13312314 0.22001813 -0.22566676 -0.16031267 -0.22826646
0.19828713 -0.16358185 -0.200807 0.19788079 0.22795603 0.20097722 -0.1868567 -0.21916571
0.005054931 -0.20614003 0.10532082 0.22560513 0.11393342 -0.18881421 -0.03502072 -0.19273028
0.15087564 -0.19554369 0.12756903 0.16152477 0.009800947 -0.087651014 -0.0066898745 -0.14521776
0.0771339 0.030692462 -0.04844187 0.026561558 -0.0050293203 -0.01939345 0.03872385 0.0010954718
0.0075443164 0.054296616 0.005083178 0.020533804 0.008378592 -0.009311906 0.020032406 0.027551645
0.24143788 0.10246164 -0.049738713 -0.064340815 -0.0107037 0.07073087 -0.22680928 0.008401939
-0.1056639 0.018527534 0.012486416 0.017143702 -0.231001 -0.010325539 0.2106374 0.039178923
0.14199185 0.22362733 -0.20288967 0.039566487 -0.08923438 0.08425128 0.213232 0.104951315
-0.09679324 0.2006503 0.08271233 -0.0989638 -0.1033747 -0.09546829 0.2682245 0.22743985
-0.10629493 0.033294544 0.02620879 -0.06973391 -0.048683237 0.06198369 0.12231817 0.08420808
-0.019614482 0.07064114 -0.085196346 -0.08547925 0.09924827 0.10154421 -0.113044225 0.06517188
-0.053923815 -0.1330593 0.11006384 -0.104450785 0.13386086 -0.1350966 -0.12335135 -0.12929843
0.11474953 -0.11707554 -0.12902966 0.12177722 0.116316244 0.1225838 -0.1446316 -0.1374608
0.047631983 -0.094592 0.051875573 0.11960606 0.09219352 -0.086682715 -0.051631227 -0.103964746
0.0741352 -0.12393291 0.09209532 0.101917095 -0.035741664 -0.09490084 0.06148572 -0.08610789
0.22932883 0.1193089 -0.21401429 0.050578006 -0.13843533 0.1421523 0.07628199 0.15201338
-0.13850974 0.16899475 0.14449088 -0.14948994 -0.16164479 -0.13905838 0.11024071 0.18341464
-0.046568707 0.10293468 -0.027818067 -0.15582822 -0.043346025 0.11283226 0.037438832 0.0930994
-0.09152528 0.112906925 -0.08166181 -0.10711569 0.03259843 0.06479752 -0.0045337914 0.066223666
0.06605702 0.15279795 -0.13030832 0.09094161 -0.16099283 0.17018706 0.14096974 0.16435248
-0.17849503 0.13807696 0.17447929 -0.17386173 -0.16669585 -0.16921099 0.1414873 0.13775422
-0.023779295 0.12835905 -0.09295048 -0.12917706 -0.11644202 0.1350497 0.016684065 0.12096086
-0.111619875 0.14490369 -0.13947856 -0.13281335 -0.009823612 0.15332219 -0.008710227 0.11574853
-0.03935136 -0.09040163 0.025390197 0.0032503149 0.08402437 -0.099867076 -0.09192948 -0.07989776
0.08725668 -0.08441519 -0.074982114 0.08675089 0.090383075 0.090948306 -0.094022326 -0.07551513
0.47613916 0.10822981 -0.28322837 -0.018370725 -0.07299714 0.063315496 -0.4432673 0.023388118
-0.1800018 0.021398442 0.015510249 0.040048834 -0.46989813 -0.052728653 0.41564688 0.06470898
-0.10383382 0.024960304 0.07461886 0.0069355317 -0.03517692 0.022156974 0.0700706 0.034308344
-0.03964358 -0.049917974 0.0566771 -0.06859201 -0.033750996 -0.036415838 0.031938512 -0.067418694
-0.43394965 -0.288879 0.30964553 0.1849244 0.069310665 -0.1712793 0.43269378 -0.09162803
0.27846184 -0.120954506 -0.0831132 -0.035667628 0.3708754 0.27965757 -0.40214878 -0.1490616
00000000: 50d9 1abe fd65 38be b2b7 063e 6f51 08be
00000010: 6f4c 613e 3015 67be 0129 24be afbe 69be
00000020: c80b 4b3e 0082 27be 5aa0 4dbe 43a1 4a3e
00000030: 4e6d 693e f9cc 4d3e 5d57 3fbe fa6c 60be
00000040: d6a3 a53b 5f16 53be 71b2 d73d 0805 673e
00000050: ed55 e93d 8358 41be e371 0fbd 165b 45be
00000060: 257f 1a3e 9b3c 48be 75a1 023e c066 253e
00000070: 2794 203c 6082 b3bd bc36 dbbb f7b3 14be
00000080: 61f8 9d3d c26e fb3c fb6a 46bd a097 d93c
00000090: ffcc a4bb 03df 9ebc e69c 1e3d ef95 8f3a
000000a0: 5036 f73b 2166 5e3d ca90 a63b 8236 a83c
000000b0: 5d46 093c f790 18bc 001b a43c fdb3 e13c
000000c0: 7e3b 773e 69d7 d13d d2ba 4bbd 1ec5 83bd
000000d0: 925e 2fbc 59db 903d b140 68be 49a8 093c
000000e0: 5166 d8bd 0ec7 973c d393 4c3c f370 8c3c
000000f0: 878b 6cbe 732c 29bc 55b1 573e 147a 203d
00000100: 5066 113e 90fe 643e 4fc2 4fbe 7810 223d
00000110: 84c0 b6bd ef8b ac3d 7d59 5a3e b7f0 d63d
00000120: 893b c6bd 4677 4d3e 1565 a93d 88ad cabd
00000130: 1db6 d3bd e184 c3bd b954 893e fee5 683e
00000140: 28b1 d9bd dc5f 083d d1b3 d63c a7d0 8ebd
00000150: 1368 47bd 9ce2 7d3d f381 fa3d 4975 ac3d
00000160: 8dae a0bc 4dac 903d 6c7b aebd bf0f afbd
00000170: ad42 cb3d 69f6 cf3d bb83 e7bd d678 853d
00000180: 38df 5cbd b240 08be 2769 e13d 4bea d5bd
00000190: d212 093e c356 0abe a29f fcbd cf66 04be
000001a0: cd01 eb3d 4dc5 efbd 5a20 04be 5666 f93d
000001b0: 3637 ee3d 370d fb3d 4e1a 14be 86c2 0cbe
000001c0: c119 433d 73b9 c1bd 7b7b 543d 06f4 f43d
000001d0: f5cf bc3d b586 b1bd 447b 53bd 78eb d4bd
000001e0: 32d4 973d 8ad0 fdbd 799c bc3d e9b9 d03d
000001f0: da65 12bd 5f5b c2bd 73d8 7b3d 5559 b0bd
00000200: 2dd5 6a3e 3958 f43d 9026 5bbe e22a 4f3d
00000210: fec1 0dbe 5f90 113e bb39 9c3d 65a9 1b3e
00000220: 7fd5 0dbe f60c 2d3e 6bf5 133e e413 19be
00000230: 3686 25be 5265 0ebe e2c5 e13d 0cd1 3b3e
00000240: d4be 3ebd 6bcf d23d b7e2 e3bc 6f91 1fbe
00000250: 9a8b 31bd 9a14 e73d 7659 193d e6aa be3d
00000260: 9b71 bbbd bf3b e73d 4f3e a7bd 795f dbbd
00000270: ee85 053d 90b4 843d 3390 94bb 46a0 873d
00000280: e748 873d 1177 1c3e 8b6f 05be 983f ba3d
00000290: 4edb 24be 8445 2e3e 5f5a 103e 044c 283e
000002a0: 67c7 36be 0c64 0d3e b3aa 323e cf08 32be
000002b0: 51b2 2abe a545 2dbe 0ce2 103e 710f 0d3e
000002c0: cccc c2bc 8e70 033e d25c bebd fe46 04be
000002d0: 2779 eebd 784a 0a3e 05ad 883c 54ba f73d
000002e0: f698 e4bd a261 143e 78d3 0ebe 3900 08be
000002f0: 37f3 20bc 7e00 1d3e 57b5 0ebc 910d ed3d
00000300: e42e 21bd 7d24 b9bd 1aff cf3c 3c03 553b
00000310: f814 ac3d 1c87 ccbd 8645 bcbd 70a1 a3bd
00000320: a1b3 b23d dfe1 acbd 3990 99bd 73aa b13d
00000330: c31a b93d 1b43 ba3d c78e c0bd ada7 9abd
00000340: 83c8 f33e 97a7 dd3d 4f03 91be 347e 96bc
00000350: 867f 95bd 8eab 813d eef3 e2be 7098 bf3c
00000360: 6452 38be c94b af3c b31e 7e3c 3f0a 243d
00000370: 7d96 f0be 00fa 57bd abcf d43e 2486 843d
00000380: d3a6 d4bd 8d79 cc3c c6d1 983d 7543 e33b
00000390: ad15 10bd 8b82 b53c 2d81 8f3d e886 0c3d
000003a0: 4e61 22bd ca76 4cbd 3f26 683d f879 8cbd
000003b0: 7c3e 0abd c628 15bd f5d1 023d d012 8abd
000003c0: a62e debe f3e7 93be dc89 9e3e d25c 3d3e
000003d0: c0f2 8d3d d763 2fbe 0a8a dd3e 7aa7 bbbd
000003e0: 8d92 8e3e ffb6 f7bd 4137 aabd 3818 12bd
000003f0: 61e3 bd3e 472f 8f3e 72e6 cdbe 9ba3 18be

encoder.fc.bias f4 [16]
-0.13969608 -0.01421134 0.06986195 -0.09638322 0.107756354 0.11976192 -0.106170595 0.03788517
0.015599882 0.08781679 -0.111315385 -0.071872115 -0.014147041 0.08561564 0.028898062 0.11314891
00000000: 7d0c 0fbe aed6 68bc c813 8f3d 9164 c5bd
00000010: 5daf dc3d bd45 f53d f86f d9bd 7b2d 1b3d
00000020: a696 7f3c 4ad9 b33d 52f9 e3bd b031 93bd
00000030: fec8 67bc 4157 af3d a1bb ec3c 9eba e73d

decoder.attention.attn.weight f4 [16, 48]
0.3008408 -1.0947688 -0.10953529 0.17951608 -0.44544092 -0.54783374 -0.78699964 -0.24142756
-0.38053867 -0.583159 0.534419 0.085318126 0.39916015 -0.71461105 -0.6889685 0.30984578
-0.29236278 -0.33967698 0.4165673 0.12318536 -0.041794993 0.06308505 -0.32745534 0.059708066
0.044697348 -0.39436972 -0.048429888 -0.038842756 -0.059823025 -0.057197466 -0.32726434 -0.3485554
0.11679411 0.00058169966 -0.013823494 -0.0075022373 0.12240623 -0.16554324 -0.105079174 0.011721027
0.020087248 0.015760321 -0.075077005 -0.067811385 -0.08775041 0.16852184 0.07197722 -0.063774355
0.17999014 0.522954 -0.3026827 0.26231647 -0.02891972 0.14523517 0.50102305 -0.20363428
0.3273627 0.820364 -0.5601963 0.37983686 0.013664761 0.5369994 0.8591312 -0.3851443
0.10594389 0.0672985 -0.09627953 0.020188449 -0.00600492 -0.010294168 0.06381548 0.018964475
-0.015411838 0.07205616 0.0072011296 0.006856323 0.0004479743 -0.019579412 0.086512975 0.11005636
-0.15265635 -0.05833983 0.03136219 0.062161546 -0.10124206 0.0017184688 0.20050916 0.11303345
0.076745 0.07670868 -0.2653683 -0.17351878 0.09656893 0.18198512 -0.25862068 0.09061803
0.1438319 0.88199145 -0.28992954 0.26019526 -0.079486735 0.052413434 0.37466004 -0.12255314
0.3160348 0.6729705 -0.685182 0.37621954 0.07107271 0.43128937 0.61755764 -0.3502313
0.12843606 0.06703884 -0.14612594 -0.0135678835 0.01787261 -0.020446686 0.059986096 -0.014861811
0.0036098377 0.12296456 -0.009562675 0.019651819 0.017485818 -0.0014181794 0.09701947 0.14667079
-0.106617235 -0.05947727 0.028838465 0.045978885 -0.056383874 -0.01202721 0.12740108 0.062187277
0.08079775 0.06107137 -0.23796946 -0.14812973 0.09892235 0.1208043 -0.17632739 0.061345775
-0.11284163 0.63139296 0.06524576 -0.1545436 0.3134014 0.42373052 0.3493526 0.30066785
0.33123252 0.18916203 -0.45509276 -0.030476343 -0.23384668 0.5072757 0.5045213 -0.008050598
0.28962412 0.37332198 -0.43142223 -0.121376134 0.025146214 -0.04121607 0.32388443 -0.056186758
-0.044708136 0.42145792 -0.01061148 0.011615585 0.03949618 0.036913797 0.31425127 0.37963897
-0.1366054 -0.049048387 0.07203933 0.08156973 -0.022811966 -0.019530565 0.17163034 -0.06887116
0.02039001 -0.04700135 0.09184525 0.082891814 0.11893753 -0.10170905 -0.1453115 -0.023218771
0.27936548 0.19172004 -0.44530514 0.36556444 -0.23615077 0.043837406 0.51661986 -0.20812836
0.7902078 0.62395144 -0.7215313 0.45146763 0.15509002 0.37796253 1.06004 -0.33285013
0.116220824 -0.008428716 -0.25387558 0.016521143 -0.0241865 0.045436464 -0.10366698 0.044992257
-0.03826517 0.2481686 0.05132204 -0.022432366 -0.030770667 -0.05002068 -0.07358692 0.07410942
0.20733646 0.1584789 -0.042358387 -0.094050765 -0.11739773 0.21481255 -0.19139284 0.08435633
-0.17671336 0.015773918 -0.07596649 -0.043220904 -0.17396754 0.044359338 0.09991518 0.030317351
0.12488282 0.7115434 -0.30627334 0.22361156 -0.07741141 0.09864818 0.4354809 -0.2148143
0.29161826 0.73526067 -0.6394162 0.40966678 0.025437975 0.4860679 0.74891937 -0.35501677
00000000: ce07 9a3e 6221 8cbf 0a54 e0bd 10d3 373e
00000010: d510 e4be d53e 0cbf cf78 49bf c938 77be
00000020: f7d5 c2be e949 15bf afcf 083f 45bb ae3d
00000030: b85e cc3e c0f0 36bf 3d60 30bf 1ba4 9e3e
00000040: 93b0 95be 24ea adbe 4f48 d53e 9b48 fc3d
00000050: 3a31 2bbd bc32 813d 3aa8 a7be 7290 743d
00000060: 9114 373d d4ea c9be 6b5e 46bd 9519 1fbd
00000070: fd08 75bd e447 6abd 318f a7be da75 b2be
00000080: c031 ef3d 347d 183a f07b 62bc 54d5 f5bb
00000090: 1eb0 fa3d 2b84 29be c033 d7bd 8d09 403c
000000a0: 038e a43c ca1b 813c f9c1 99bd b2e0 8abd
000000b0: 7db6 b3bd fd90 2c3e cb68 933d 219c 82bd
000000c0: 564f 383e 50e0 053f 3af9 9abe 584e 863e
000000d0: 0ce9 ecbc 87b8 143e 0c43 003f 8185 50be
000000e0: 159c a73e 6003 523f 0669 0fbf fa79 c23e
000000f0: 29e2 5f3c cb78 093f 06f0 5b3f a231 c5be
00000100: 1cf9 d83d ccd3 893d 342e c5bd 3f62 a53c
00000110: ecc4 c4bb dfa8 28bc b1b1 823d 635b 9b3c
00000120: ef81 7cbc 2e92 933d 74f7 eb3b 02ab e03b
00000130: 18de ea39 0165 a0bc b72d b13d 3b65 e13d
00000140: f251 1cbe bff5 6ebd a475 003d 1b9d 7e3d
00000150: ff57 cfbd 3f3e e13a 4652 4d3e 157e e73d
00000160: 7c2c 9d3d 7119 9d3d 5bde 87be e8ae 31be
00000170: eec5 c53d 4f5a 3a3e ee69 84be f295 b93d
00000180: ab48 133e 31ca 613f a571 94be 5038 853e
00000190: f1c9 a2bd 78af 563d 71d3 bf3e 24fd fabd
000001a0: 50cf a13e cb47 2c3f 1668 2fbf d99f c03e
000001b0: 928e 913d f6d1 dc3e 4218 1e3f 8451 b3be
000001c0: be84 033e a94b 893d 0aa2 15be d44b 5ebc
000001d0: 9469 923c cf7f a7bc fbb3 753d f47e 73bc
000001e0: 0793 6c3b d8d4 fb3d c4ac 1cbc dafc a03c
000001f0: 6b3e 8f3c 34e2 b9ba 25b2 c63d de30 163e
00000200: 235a dabd 709e 73bd a53e ec3c 5b54 3c3d
00000210: c7f2 66bd c60d 45bc 6e75 023e 16b8 7e3d
00000220: 4a79 a53d f925 7a3d 44ae 73be 52af 17be
00000230: cd97 ca3d 3f68 f73d 2b8f 34be b545 7b3d
00000240: 8319 e7bd f8a2 213f 929f 853d ad40 1ebe
00000250: 2676 a03e 35f3 d83e 58de b23e 23f1 993e
00000260: 4f97 a93e b1b3 413e eb01 e9be 86a9 f9bc
00000270: 8175 6fbe d2dc 013f 4f28 013f a8e6 03bc
00000280: 9d49 943e 0f24 bf3e 60e3 dcbe 0d94 f8bd
00000290: 6fff cd3c 2fd2 28bd 2ed4 a53e 1624 66bd
000002a0: e11f 37bd 55c9 d73e c6db 2dbc 4b4f 3e3c
000002b0: bfc6 213d ec32 173d 8be5 a03e 0a60 c23e
000002c0: 49e2 0bbe f6e6 48bd 5b89 933d 080e a73d
000002d0: 29e0 babc 90fe 9fbc ddbf 2f3e 530c 8dbd
000002e0: f308 a73c 7d84 40bd 5d19 bc3d 2fc3 a93d
000002f0: 8595 f33d d64c d0bd 8acc 14be 4b35 bebc
00000300: fe08 8f3e 4252 443e 09ff e3be 432b bb3e
00000310: 82d1 71be da8e 333d 3341 043f 9a1f 55be
00000320: 0f4b 4a3f 48bb 1f3f 46b6 38bf c426 e73e
00000330: ebcf 1e3e 4e84 c13e 64af 873f 556b aabe
00000340: 2f05 ee3d 9918 0abc fbfb 81be 5957 873c
00000350: c422 c6bc 961b 3a3d 5b4f d4bd cd49 383d
00000360: f0bb 1cbd e91f 7e3e 0f37 523d 15c4 b7bc
00000370: c412 fcbc 7ce2 4cbd bdb4 96bd aec6 973d
00000380: 0250 543e 4b48 223e fd7f 2dbd b09d c0bd
00000390: 396e f0bd d2f7 5b3e 7cfc 43be 03c3 ac3d
000003a0: 59f4 34be 4e38 813c 5294 9bbd 6708 31bd
000003b0: 8c24 32be 23b2 353d 54a0 cc3d 185c f83c
000003c0: 90c2 ff3d b527 363f dccf 9cbe 6efa 643e
000003d0: e089 9ebd 0f08 ca3d 5af7 de3e 48f8 5bbe
000003e0: fd4e 953e 0b3a 3c3f c8b0 23bf d8bf d13e
000003f0: 4d63 d03c e4dd f83e 2eb9 3f3f c2c4 b5be

decoder.attention.attn.bias f4 [16]
0.037070125 -0.3481148 -0.29967514 -0.077210575 -0.3807496 -0.29431477 0.24343327 -0.11938653
0.38562712 -0.34091002 0.33591807 -0.39323965 0.32536536 -0.37409863 0.31910163 -0.34330127
00000000: d8d6 173d 1a3c b2be 056f 99be 9420 9ebd
00000010: 9df1 c2be 6db0 96be 9246 793e ed80 f4bd
00000020: eb70 c53e c28b aebe 74fd ab3e b556 c9be
00000030: 4a96 a63e db89 bfbe 4a61 a33e 2fc5 afbe

decoder.attention.v.weight f4 [1, 16]
-0.5019521 -0.2015774 -0.1858535 0.31351537 0.17255196 -0.20553708 0.25783223 -0.8267913
0.1723414 -0.18385884 0.18378124 -0.18961696 0.20152238 -0.20102224 0.20195685 -0.20815204
00000000: ef7f 00bf 4e6a 4ebe 6150 3ebe 1685 a03e
00000010: 76b1 303e 5078 52be 9602 843e 98a8 53bf
00000020: 447a 303e 7e45 3cbe 2631 3c3e f32a 42be
00000030: e25b 4e3e c6d8 4dbe c7cd 4e3e cf25 55be
