agl/models/autosave/new-AE-124-16-0.001-B2.pt (torch, 113900 bytes, 21 tensors)

encoder.embedding.weight f4 [8, 124]
0.006287132 -0.009435147 0.020414561 -0.002754018 -0.034444056 0.01857534 0.011771156 0.0014323195
0.017927252 0.0022516595 0.009742222 -0.0067827534 -0.020811494 0.009941217 0.0032348004 0.005421104
0.0054201805 0.0040027592 0.005504741 0.018219419 0.007916612 0.0033977192 -0.0025531896 -0.009536718
-0.00021412603 0.0053664017 0.0032609194 -0.0031965924 -0.015610606 0.0004611999 -0.014439876 0.0122025795
0.013264995 -0.006763537 -0.0002789142 0.0031946744 0.0037415274 -0.014343235 0.0037429295 -0.018840738
0.0030906515 -0.01673484 -0.0093131 0.0034126525 -0.0030040964 0.0031072341 -0.0072465637 0.0030973363
-0.010089135 -0.0052733645 0.0052822954 -0.002619799 -0.0039454666 -0.005400848 -0.01141092 0.01443697
-0.0057442635 -0.007075493 -0.011014438 0.014139944 -0.015199139 0.012265827 -0.0020216575 -0.0108484905
-0.013759294 -0.0009791332 -0.014257272 0.020225585 0.00785503 -0.017261615 0.0067165215 -0.0013029668
-0.0058705667 -0.009233961 0.0068516014 0.0003017348 -0.010843461 -0.013343604 0.016490879 0.003743944
-0.01121065 -0.009741916 -0.016546926 0.009667842 0.019084955 -0.005304299 0.0030042932 0.0065141837
-0.0014073626 -0.00046743546 -0.0075957817 0.0062274467 -0.018596936 0.0038012068 -0.019677205 0.009438052
-0.0021874995 -0.014669276 0.005119469 -0.0029201177 -0.008711474 -0.0061420044 -0.021869397 -0.008353442
0.009572068 -0.01066984 -0.00050405413 -0.014495126 0.004635181 0.009442669 0.004530636 0.0050465623
0.0056214184 0.0020965273 0.0046513784 0.0022499585 0.0052920906 -0.0055994433 -0.016232561 0.0052632075
-0.006251381 0.012891303 0.007955191 0.0151610635 0.18899633 0.15446529 -0.080752075 -0.08764403
0.13790096 -0.12762529 -0.006715938 0.14296946 -0.15159641 -0.05910695 0.2141948 0.022700524
-0.17009524 -0.026032075 -0.08667626 -0.12992597 -0.12998159 -0.050767567 0.1177999 0.044826675
0.11987921 0.046482127 -0.108479574 -0.108214065 0.23292272 0.05776447 0.090188295 -0.08408383
-0.10723195 -0.075606056 0.2025037 -0.05872484 -0.20900624 0.18694398 0.08175444 -0.064094625
-0.15653603 0.14392486 0.056610048 0.037094824 -0.16865505 0.12900366 -0.033987924 0.04791011
0.0037616333 0.0986203 -0.094157174 0.012874175 0.11245113 -0.06270279 0.09403774 0.036675125
-0.19565912 0.06831915 0.14725488 -0.08121622 -0.04557867 0.031496428 0.017543048 0.05804732
-0.13164659 0.070040375 0.11837786 0.0986511 0.08717613 -0.11375646 0.098952286 0.0027303018
0.08777958 0.15074112 0.14606401 0.08901861 0.08943821 -0.15715204 -0.049119636 0.03123158
-0.02364226 0.075793885 -0.01653661 -0.13452749 0.004823843 0.13870142 0.058574148 -0.12010763
-0.21675608 0.003218086 0.054975677 -0.1621008 0.15448816 -0.07420548 0.039104853 0.11152028
-0.14810237 -0.12867495 0.07067928 0.049135283 0.12897961 0.07482394 0.129623 -0.09582782
-0.10757666 0.03923508 0.11680574 0.20844066 0.10937164 -0.039673135 -0.15777291 -0.0618447
-0.09024045 -0.119427465 -0.044779647 -0.10938229 0.1743215 -0.06552042 0.20009694 -0.1092706
0.14650685 0.05425148 -0.0947341 0.03826729 -0.13464664 0.11265369 -0.1522843 0.08072173
0.0740951 0.075892866 -0.026960539 -0.18975486 0.09557399 -0.16721319 -0.16200142 0.15662423
00000000: 4904 ce3b e095 1abc 703c a73c c17c 34bb
00000010: 3615 0dbd 502b 983c cfdb 403c abbc bb3a
00000020: 2cdc 923c 9490 133b d79d 1f3c dc41 debb
00000030: de7c aabc 7ce0 223c f2fe 533b 84a3 b13b
00000040: c59b b13b 9429 833b 1d61 b43b e440 953c
00000050: adb4 013c 45ac 5e3b 6a53 27bb e53f 1cbc
00000060: 0587 60b9 a4d8 af3b 26b5 553b ec7d 51bb
00000070: a1c3 7fbc 34cd f139 3b95 6cbc 54ed 473c
00000080: 6c55 593c a9a0 ddbb 3b3b 92b9 be5d 513b
00000090: 6a34 753b e3ff 6abc f04b 753b e457 9abc
000000a0: 878c 4a3b 8117 89bc f995 18bc cfa6 5f3b
000000b0: 60e0 44bb bda2 4b3b 9574 edbb aefc 4a3b
000000c0: e64c 25bc 30cc acbb 1b17 ad3b efb0 2bbb
000000d0: f948 81bb 99f9 b0bb def4 3abc 0b89 6c3c
000000e0: 603a bcbb 8ad9 e7bb e775 34bc 39ab 673c
000000f0: cf05 79bc 9bf6 483c c97d 04bb debd 31bc
00000100: a96e 61bc 4256 80ba 5597 69bc 20b0 a53c
00000110: 62b2 003c 3b68 8dbc 4416 dc3b 50c8 aaba
00000120: e25d c0bb 0a4a 17bc 6683 e03b 2932 9e39
00000130: c6a8 31bc 229f 5abc e117 873c f55c 753b
00000140: e0ac 37bc 8f9c 1fbc 6b8d 87bc de65 1e3c
00000150: 0d58 9c3c afcf adbb ade3 443b ef74 d53b
00000160: 4177 b8ba 2012 f5b9 09e6 f8bb 9c0f cc3b
00000170: 9a58 98bc ab1d 793b 1732 a1bc 0fa2 1a3c
00000180: 275c 0fbb 6757 70bc 38c1 a73b 725f 3fbb
00000190: 92ba 0ebc de42 c9bb 7327 b3bc e0dc 08bc
000001a0: 2ad4 1c3c 8dd0 2ebc 8022 04ba f77c 6dbc
000001b0: b7e2 973b 6db5 1a3c bb75 943b a25d a53b
000001c0: e033 b83b e465 093b 976a 983b 0a74 133b
000001d0: 4669 ad3b 897b b7bb 26fa 84bc fc76 ac3b
000001e0: 62d8 ccbb 0b36 533c 7d56 023c 1c66 783c
000001f0: 4188 413e 262c 1e3e 5861 a5bd b77e b3bd
00000200: e935 0d3e 34b0 02be 5f11 dcbb 9666 123e
00000210: 173c 1bbe 211a 72bd e255 5b3e 73f6 b93c
00000220: 722d 2ebe 3841 d5bc 5383 b1bd 500b 05be
00000230: e519 05be a7f1 4fbd 1341 f13d 2d9c 373d
00000240: 3b83 f53d 0b64 3e3d 8a2a debd 569f ddbd
00000250: 4b83 6e3e 709a 6c3d a4b4 b83d 2534 acbd
00000260: 6d9c dbbd 59d7 9abd 215d 4f3e 7589 70bd
00000270: bb05 56be 3e6e 3f3e df6e a73d 0b44 83bd
00000280: fb4a 20be 0a61 133e f0df 673d bef0 173d
00000290: e9b3 2cbe 8919 043e ec36 0bbd 643d 443d
000002a0: bc85 763b 71f9 c93d 7ad5 c0bd 34ee 523c
000002b0: c74c e63d 526a 80bd dc96 c03d a838 163d
000002c0: dd5a 48be e9ea 8b3d fcc9 163e b154 a6bd
000002d0: b3b0 3abd 6602 013d 70b6 8f3c 07c3 6d3d
000002e0: 5dce 06be 5471 8f3d 1770 f23d 9709 ca3d
000002f0: 6689 b23d 26f9 e8bd 7fa7 ca3d ddee 323b
00000300: c8c5 b33d e15b 1a3e ce91 153e 644f b63d
00000310: 612b b73d 77ec 20be ac31 49bd 5fd9 ff3c
00000320: 6aad c1bc d339 9b3d c977 87bc 93c1 09be
00000330: 5411 9e3b bf07 0e3e 72eb 6f3d fdfa f5bd
00000340: 4ef5 5dbe 86e6 523b 2d2e 613d c1fd 25be
00000350: 2532 1e3e 0bf9 97bd 692c 203d bf64 e43d
00000360: 26a8 17be 5ec3 03be 4cc0 903d 1442 493d
00000370: 3b13 043e 4b3d 993d e4bb 043e 6041 c4bd
00000380: 2751 dcbd f7b4 203d d937 ef3d 7871 553e
00000390: 3dfe df3d 4c80 22bd 398f 21be de50 7dbd
000003a0: fccf b8bd 6396 f4bd dd6a 37bd d203 e0bd
000003b0: 5681 323e 922f 86bd 36e6 4c3e 44c9 dfbd
000003c0: e405 163e cd36 5e3d f403 c2bd 29be 1c3d
000003d0: cfe0 09be fab6 e63d 6af0 1bbe 6f51 a53d
000003e0: 2cbf 973d b86d 9b3d 59dc dcbc 194f 42be
000003f0: 4cbc c33d ef39 2bbe b3e3 25be 1a62 203e

encoder.rnn.weight_ih_l0 f4 [48, 124]
0.21995558 0.24304207 -0.024661073 -0.041711207 0.09574252 -0.18143089 0.045318097 0.15350632
-0.24181132 -0.20887052 0.20900714 0.23953718 -0.2604754 -0.118428476 -0.23448099 -0.1856767
-0.21055192 -0.14140637 0.26522753 0.16100502 0.30257052 0.123740755 -0.19365537 -0.14997363
0.19140998 0.17571107 -0.008195964 -0.16536431 -0.19835496 -0.01682923 0.26629654 -0.042025097
-0.17771251 0.21948415 0.21932214 -0.07333656 -0.04421356 0.32520863 0.062108714 0.1215376
-0.257033 0.22633179 -0.016346607 0.1403443 0.21027596 0.29683155 -0.0676673 0.04236941
-0.011472693 0.022779122 -0.011246048 0.1287546 -0.19848901 0.27394766 0.24027178 -0.32594
-0.19659775 0.20706664 0.06421227 0.27882016 -0.23517832 0.20305979 0.058490615 0.19528782
0.08035759 -0.119470745 0.20602882 -0.11294902 0.37663347 0.14054538 0.12470145 0.196702
0.13213974 -0.16035472 -0.2541231 0.24476227 -0.2297682 0.067137875 -0.15078278 -0.14606984
0.13536902 0.33002463 0.054008015 -0.2532743 -0.17575784 0.099346526 0.2434709 -0.1671889
0.16576451 -0.17766912 0.08384998 0.33148518 -0.14852847 -0.15081874 0.24364115 -0.13339716
-0.073234774 0.15568312 0.12775601 -0.033433888 -0.23878789 0.03706694 0.35295954 0.40624824
0.09218485 -0.109380126 -0.2567402 -0.06574375 -0.20607597 -0.22567245 -0.11031907 -0.24831408
0.13968718 -0.19882023 0.26509947 -0.1397582 0.2546047 0.16362022 -0.19868267 0.13133354
-0.113940254 0.17638119 -0.2284936 0.15843877 -0.007784379 0.21662618 -0.017013714 -0.17099907
0.102287866 -0.20194243 -0.06309361 0.08438858 -0.13648194 -0.15187384 0.03915353 0.16836427
0.0023095403 -0.21752816 -0.05371815 0.0049768207 -0.15473315 -0.098624505 0.01980923 0.16099882
0.05176998 0.06029854 -0.15314634 -0.16192217 -0.015175777 0.18804178 0.035379928 -0.049775332
-0.053425733 0.11141202 0.2043328 -0.16900526 -0.10849301 0.1765317 -0.18421502 -0.16019388
-0.16726673 0.1932086 0.05450731 0.1656228 -0.20056722 0.16279425 -0.11800557 0.08470786
0.0737857 0.092854194 0.016752928 -0.0927485 0.21837878 0.13243489 0.09883897 -0.08433891
-0.1186218 0.12967043 0.06016673 -0.15472339 0.22418886 0.086181015 -0.10740398 0.20454904
-0.12804341 0.14565146 0.12929615 0.12172784 0.14361909 0.017671354 0.10302432 0.00793302
0.13494362 0.057964418 0.054512706 0.263899 0.13147952 -0.06552249 -0.1110623 0.19214164
0.072007455 0.009026401 -0.12539299 -0.048188932 0.043806285 0.07170899 0.079106785 -0.061773818
-0.14935099 -0.13731334 0.02358592 0.04423556 0.027330259 -0.16445655 -0.019303817 0.15772673
-0.13374312 -0.16232306 0.11367761 0.045587312 0.16527978 -0.15140653 0.23417778 -0.22012264
-0.040423647 0.07646843 0.13461602 0.21302855 -0.029199157 0.033428304 -0.06822943 0.07421674
0.08362238 -0.08863639 -0.012584729 -0.19309364 0.062298644 0.039035477 -0.21787994 -0.203288
0.1088179 0.038723126 0.07245781 0.13743003 -0.00085384387 0.1293961 -0.13490558 -0.023702206
-0.009288661 0.17772038 -0.18925533 -0.10834569 0.1726959 -0.09072083 -0.007888951 0.081619345
00000000: 093c 613e 05e0 783e 0506 cabc 5fd9 2abd
00000010: a814 c43d 05c9 39be 789f 393d c330 1d3e
00000020: 639d 77be 27e2 55be f805 563e 3c49 753e
00000030: 085d 85be a18a f2bd c91b 70be 0822 3ebe
00000040: ec9a 57be d5cc 10be e7cb 873e 80de 243e
00000050: 86ea 9a3e cb6b fd3d 984d 46be b092 19be
00000060: fa00 443e 9aed 333e 5d48 06bc 4355 29be
00000070: 901d 4bbe 74dd 89bc 0558 883e 8222 2cbd
00000080: 45fa 35be 74c0 603e fc95 603e 7a31 96bd
00000090: 4719 35bd bf81 a63e b565 7e3d b5e8 f83d
000000a0: d499 83be 85c3 673e 52e9 85bc 6bb6 0f3e
000000b0: 9552 573e 4efa 973e 2795 8abd 8c8b 2d3d
000000c0: f6f7 3bbc 489b ba3c 5841 38bc 3fd8 033e
000000d0: b440 4bbe de42 8c3e ce09 763e 9ce1 a6be
000000e0: ec50 49be 4709 543e b981 833d 84c1 8e3e
000000f0: 96d2 70be e8ee 4f3e db93 6f3d 88f9 473e
00000100: 8592 a43d 14ad f4bd 38f9 523e d151 e7bd
00000110: 1ad6 c03e 21eb 0f3e 7963 ff3d 406c 493e
00000120: a44f 073e 0734 24be 6c1c 82be f6a2 7a3e
00000130: 5b48 6bbe 957f 893d cd66 1abe 5593 15be
00000140: 2d9e 0a3e fdf8 a83e 8237 5d3d 2bad 81be
00000150: ddf9 33be 3176 cb3d 7050 793e 9133 2bbe
00000160: 2cbe 293e e5ee 35be 8ab9 ab3d 6db8 a93e
00000170: d917 18be 3a70 1abe 117d 793e 4499 08be
00000180: 1dfc 95bd 656b 1f3e 79d2 023e f9f1 08bd
00000190: d084 74be 81d3 173d 1db7 b43e c5ff cf3e
000001a0: 69cb bc3d b002 e0bd 7473 83be a9a4 86bd
000001b0: 9405 53be ae16 67be f7ee e1bd 0c46 7ebe
000001c0: 280a 0f3e 8897 4bbe 1ebb 873e c61c 0fbe
000001d0: 8c5b 823e 0f8c 273e 7873 4bbe 4d7c 063e
000001e0: 8259 e9bd 459d 343e 3afa 69be c63d 223e
000001f0: 1b14 ffbb 41d3 5d3e 5860 8bbc 611a 2fbe
00000200: 4d7c d13d ffc9 4ebe 3937 81bd ebd3 ac3d
00000210: ecc1 0bbe d184 1bbe 745f 203d af67 2c3e
00000220: a85b 173b b4bf 5ebe 9007 5cbd 9914 a33b
00000230: 5e72 1ebe a5fb c9bd f746 a23c e0dc 243e
00000240: c20c 543d 9afb 763d 65d2 1cbe edce 25be
00000250: d2a3 78bc 068e 403e 8bea 103d 38e1 4bbd
00000260: f1d4 5abd fc2b e43d 9e3c 513e b70f 2dbe
00000270: 9531 debd bac4 343e dda2 3cbe dd09 24be
00000280: f847 2bbe 7ad8 453e 0f43 5f3d 0699 293e
00000290: 7e61 4dbe 89b3 263e e7ac f1bd 517b ad3d
000002a0: f51c 973d 572a be3d 703d 893c edf2 bdbd
000002b0: b09e 5f3e 039d 073e 166c ca3d e1b9 acbd
000002c0: fcef f2bd 53c8 043e 6471 763d cf6f 1ebe
000002d0: c491 653e ac7f b03d 9ef6 dbbd 4e75 513e
000002e0: d01d 03be a825 153e 3666 043e 724c f93d
000002f0: e210 133e 84c3 903c 6afe d23d 7ff9 013c
00000300: a92e 0a3e 196c 6d3d b748 5f3d c51d 873e
00000310: 91a2 063e a830 86bd a274 e3bd c7c0 443e
00000320: a578 933d 78e3 133c 0567 00be c261 45bd
00000330: 386e 333d 2adc 923d bd02 a23d 8b06 7dbd
00000340: 77ef 18be de9b 0cbe 4237 c13c 5930 353d
00000350: b5e3 df3c 4c67 28be 0a23 9ebc 1e83 213e
00000360: f5f3 08be 0438 26be cfcf e83d c3b9 3a3d
00000370: 1a3f 293e 500a 1bbe 4dcc 6f3e d467 61be
00000380: 4493 25bd 7b9b 9c3d c8d8 093e 2824 5a3e
00000390: 1233 efbc 1eec 083d dfbb 8bbd f2fe 973d
000003a0: 3642 ab3d ff86 b5bd 2e30 4ebc 57ba 45be
000003b0: dd2c 7f3d aae3 1f3d eb1b 5fbe bb2a 50be
000003c0: ebdb de3d 249c 1e3d c364 943d 75ba 0c3e
000003d0: 7ed4 5fba 6980 043e b024 0abe 212b c2bc
000003e0: 782f 18bc 55fc 353e 26cc 41be 58e4 ddbd
000003f0: 32d7 303e d8cb b9bd a940 01bc 0b28 a73d

encoder.rnn.weight_hh_l0 f4 [48, 16]
-0.3053353 0.11446212 -0.14680305 -0.24031943 -0.16672239 -0.0060619395 -0.22381584 0.066843264
-0.16878068 0.007147782 -0.34774342 -0.24782296 0.028502462 0.2173371 -0.16144407 0.14136037
-0.044835176 0.10515168 -0.22559442 0.061743528 0.04093267 -0.425856 -0.081727594 -0.33517274
0.14712721 0.21841776 0.15203892 -0.094291344 0.03688598 -0.38232476 -0.06845937 0.2542674
0.16506918 0.21463789 -0.30727175 0.23380823 0.036962707 -0.66848534 0.07313745 -0.47660616
0.26258102 0.25367096 0.40752375 0.09490866 0.19553827 -0.49395213 0.041745212 0.3226704
0.0029940193 -0.20403376 0.15327494 0.0040803864 0.026747314 0.1043464 -0.04294596 0.09250358
-0.050711695 -0.19793041 -0.018892556 -0.0005904013 -0.15391275 0.04708912 0.0022722804 -0.16301821
-0.02185461 -0.006925965 -0.16261403 0.006244075 -0.037562624 -0.25295508 -0.050374303 -0.24259913
0.04379987 0.023582235 0.01511195 -0.031891067 0.050164305 -0.06917727 -0.051130395 0.15036626
-0.13670507 0.24779297 -0.24122502 -0.13709487 -0.1856465 -0.19505909 -0.20088641 -0.16146323
-0.11807842 0.27443787 -0.11423296 -0.15940426 0.19537033 0.0009377899 -0.20282207 0.23004013
0.033020098 -0.08072729 0.027177213 0.049489062 -0.002468765 0.08426308 0.036686756 -0.059429698
0.08240576 -0.033608954 -4.3640714e-05 0.01433201 0.026910527 -0.06997738 -0.042868733 -0.043251265
0.020308102 0.07107269 -0.16863936 0.13621075 0.080138005 -0.1339361 0.10810492 -0.18651827
0.20754038 0.15131144 0.038726263 0.014242252 0.08587322 -0.16435818 0.019730166 0.18653375
0.08170929 -0.30145928 0.24846026 0.029517772 0.07490628 0.16100328 0.037296183 0.07375465
0.028181192 -0.27630344 0.049214013 0.073091984 -0.22817627 0.022611672 0.08132141 -0.24103983
0.04708964 -0.08550292 -0.04902982 0.1503054 0.12701559 -0.20562336 -0.010750204 -0.17797928
0.19283919 0.005315074 0.2781592 -0.027844422 -0.09181279 -0.38493684 -0.014338869 0.053505722
-0.17180647 0.15177733 -0.105321825 -0.17200236 -0.103741944 -0.054094046 -0.1836222 -0.008079388
-0.16717464 0.12762141 -0.25537375 -0.09025941 0.021053094 0.22387317 -0.044227704 0.10520394
-0.03279188 0.04705512 -0.20770264 -0.05396017 -0.03699216 -0.19434905 -0.052230153 -0.12335923
-0.048093542 0.054350197 -0.052436918 -0.040435616 0.04799489 0.028833456 -0.041043904 0.1898167
0.050939452 0.054985367 -0.15898444 0.12220133 0.05446016 -0.30310658 0.025691165 -0.32525253
0.14869268 0.21273363 0.18253335 0.07846208 0.05348461 -0.23181033 0.017308783 0.18726833
0.0076013505 0.054780662 -0.06368298 0.017838966 0.081371896 0.019239573 0.041938446 -0.009700593
0.008368717 0.060183365 -0.04593633 0.059729487 0.01779349 0.03211171 0.0712634 0.050183356
-0.078664 0.17367567 -0.26299748 -0.045662563 -0.10875351 -0.37695023 -0.11401281 -0.30286306
-0.035450928 0.20348 -0.026435254 -0.08996306 0.17756616 -0.01555383 -0.12982175 0.28012308
0.04345352 0.20835318 -0.3205677 0.17486186 0.0037640752 -0.66256756 0.0031081336 -0.4627136
0.22331196 0.2744643 0.32896137 0.011896618 0.20462605 -0.45252213 -0.007414941 0.33077446
00000000: e954 9cbe 1e6b ea3d 8a53 16be 4c16 76be
00000010: 46b9 2abe 3ca3 c6bb fb2f 65be 1fe5 883d
00000020: d8d4 2cbe f137 ea3b 6d0b b2be 4dc5 7dbe
00000030: ff7d e93c 9e8d 5e3e 9851 25be c6c0 103e
00000040: 17a5 37bd c459 d73d 3902 67be c8e6 7c3d
00000050: 04a9 273d cc09 dabe cc60 a7bd c39b abbe
00000060: 84a8 163e e8a8 5f3e 17b0 1b3e d21b c1bd
00000070: c115 173d 12c0 c3be 6d34 8cbd 562f 823e
00000080: e507 293e 09ca 5b3e b952 9dbe 6d6b 6f3e
00000090: 3566 173d db21 2bbf 16c9 953d b905 f4be
000000a0: 0571 863e 29e1 813e f4a6 d03e 795f c23d
000000b0: 2f3b 483e 4be7 fcbe 07fd 2a3d 0e35 a53e
000000c0: 4f37 443b 3aee 50be 1bf4 1c3e c3b4 853b
000000d0: 2f1d db3c 91b3 d53d 1ae8 2fbd 8472 bd3d
000000e0: 11b7 4fbd 45ae 4abe 90c4 9abc 29c5 1aba
000000f0: 4e9b 1dbe 85e0 403d 8aea 143b 3fee 26be
00000100: 7008 b3bc 35f3 e2bb 4b84 26be 199b cc3b
00000110: 44db 19bd 5483 81be 4955 4ebd e86b 78be
00000120: 7e67 333d 882f c13c 1d98 773c 35a0 02bd
00000130: 1679 4d3d d0ac 8dbd 1b6e 51bd 9df9 193e
00000140: 6afc 0bbe 71bd 7d3e b103 77be 9962 0cbe
00000150: 1e1a 3ebe 92bd 47be 2bb5 4dbe 9e56 25be
00000160: 19d3 f1bd 1f83 8c3e f8f2 e9bd df3a 23be
00000170: 290f 483e 04d6 753a 97b0 4fbe a48f 6b3e
00000180: 1540 073d 5954 a5bd bfa2 de3c 0bb5 4a3d
00000190: 01cb 21bb 1f92 ac3d da44 163d 8e6c 73bd
000001a0: 5ac4 a83d 8ba9 09bd dc0a 37b8 cfd0 6a3c
000001b0: 7773 dc3c 4d50 8fbd 2097 2fbd 3d28 31bd
000001c0: 2d5d a63c 8f8e 913d ccaf 2cbe d57a 0b3e
000001d0: 651f a43d 8c26 09be 1d66 dd3d a5fe 3ebe
000001e0: 7785 543e 63f1 1a3e 6e9f 1e3d 5658 693c
000001f0: 4cde af3d 834d 28be 28a1 a13c b402 3f3e
00000200: 3357 a73d df58 9abe 5e6c 7e3e 41cf f13c
00000210: 7768 993d 0bde 243e e2c3 183d ae0c 973d
00000220: 3edc e63c a577 8dbe a294 493d 40b1 953d
00000230: 0aa7 69be 1d3c b93c d78b a63d 25d3 76be
00000240: 11e1 403d 281c afbd 7ed3 48bd a9e9 193e
00000250: 6010 023e ee8e 52be a021 30bc 3340 36be
00000260: a377 453e 132a ae3b e26a 8e3e fc19 e4bc
00000270: 5808 bcbd 7116 c5be 93ed 6abc d128 5b3d
00000280: 09ee 2fbe 846b 1b3e f8b2 d7bd 6321 30be
00000290: a876 d4bd b891 5dbd 7507 3cbe 695f 04bc
000002a0: d42f 2bbe 30af 023e 59c0 82be edd9 b8bd
000002b0: 8a77 ac3c 023f 653e 1c28 35bd 2a75 d73d
000002c0: c750 06bd dfbc 403d 00b0 54be 5705 5dbd
000002d0: 1785 17bd 7003 47be 49ef 55bd c4a3 fcbd
000002e0: bcfd 44bd 509e 5e3d 18c8 56bd d19f 25bd
000002f0: 4a96 443d 2434 ec3c a71d 28bd 4f5f 423e
00000300: e3a5 503d 5638 613d d1cc 22be b144 fa3d
00000310: 9e11 5f3d c930 9bbe 4776 d23c 8087 a6be
00000320: e542 183e d8d6 593e 06ea 3a3e bab0 a03d
00000330: ae12 5b3d b05f 6dbe 26cb 8d3c 45c3 3f3e
00000340: c014 f93b b061 603d 396c 82bd 0623 923c
00000350: 4fa6 a63d 4f9c 9d3c a6c7 2b3d 3cef 1ebc
00000360: f11c 093c d582 763d bc27 3cbd e8a6 743d
00000370: a7c3 913c 9287 033d 8cf2 913d 108d 4d3d
00000380: 971a a1bd 09d8 313e 9ba7 86be ab08 3bbd
00000390: 29ba debd 9fff c0be 8c7f e9bd de10 9bbe
000003a0: fe34 11bd 105d 503e bf8e d8bc 8e3e b8bd
000003b0: e7d3 353e 7ed5 7ebc feef 04be 4b6c 8f3e
000003c0: 51fc 313d 895a 553e 7321 a4be fd0e 333e
000003d0: b4ae 763b 079e 29bf d4b1 4b3b cce8 ecbe
000003e0: e4ab 643e 9686 8c3e a06d a83e 08ea 423c
000003f0: 7e89 513e fbb0 e7be 09f9 f2bb 455b a93e

encoder.rnn.bias_ih_l0 f4 [48]
0.019066248 0.42618927 0.26980254 -0.045965426 0.0087257065 0.13518783 -0.17121734 0.16308504
-0.07437599 0.28313166 0.09328305 -0.05971288 0.20880498 0.015570772 0.043149803 0.27254233
-0.57103556 -0.12339668 -0.17155826 -0.2335605 -0.08557912 -0.4308355 -0.092471674 -0.3151857
-0.21448626 -0.27021533 -0.65252495 -0.29279384 -0.10720735 -0.44817135 -0.07653532 -0.0972588
-0.006745598 0.10293469 -0.17841153 0.03569628 -0.01852595 -0.18960358 -0.030255714 -0.11234584
0.05266282 0.075013384 0.03760582 -0.002704361 -0.035605207 -0.09259893 -0.06945877 0.20121633
00000000: d230 9c3c 7b35 da3e 8f23 8a3e 3e46 3cbd
00000010: 44f6 0e3c ae6e 0a3e 9953 2fbe c4ff 263e
00000020: 7052 98bd a2f6 903e 2f0b bf3d 7e95 74bd
00000030: f9d0 553e 8d1c 7f3c d9bd 303d ab8a 8b3e
00000040: 632f 12bf 66b7 fcbd f8ac 2fbe 7c2a 6fbe
00000050: 1b44 afbd 7896 dcbe ca61 bdbd 0560 a1be
00000060: 49a2 5bbe aa59 8abe e00b 27bf 13e9 95be
00000070: 878f dbbd b776 e5be 8dbe 9cbd 9f2f c7bd
00000080: 2d0a ddbb 6ccf d23d 83b1 36be 4336 123d
00000090: bcc3 97bc 7127 42be d5da f7bc 9315 e6bd
000000a0: f8b4 573d 9ea0 993d 8f08 1a3d a63b 31bb
000000b0: c4d6 11bd 82a4 bdbd 6640 8ebd a70b 4e3e

encoder.rnn.bias_hh_l0 f4 [48]
0.019066244 0.42618933 0.26980257 -0.04596544 0.008725709 0.13518786 -0.17121734 0.16308512
-0.074376 0.28313166 0.09328303 -0.059712857 0.20880498 0.015570794 0.04314979 0.27254236
-0.5710355 -0.123396665 -0.17155826 -0.23356047 -0.08557913 -0.43083543 -0.09247173 -0.31518573
-0.21448626 -0.27021533 -0.6525249 -0.2927938 -0.10720733 -0.44817138 -0.07653535 -0.09725885
0.050254986 0.093866654 -0.14377704 0.06468541 -0.0027895998 -0.18627024 0.0018757901 -0.13586923
0.07360261 0.07595622 0.08706681 0.0475011 -0.03322712 -0.12933065 -0.032838963 0.16551857
00000000: d030 9c3c 7d35 da3e 9023 8a3e 4246 3cbd
00000010: 47f6 0e3c b06e 0a3e 9953 2fbe c9ff 263e
00000020: 7252 98bd a2f6 903e 2c0b bf3d 7895 74bd
00000030: f9d0 553e a51c 7f3c d6bd 303d ac8a 8b3e
00000040: 622f 12bf 64b7 fcbd f8ac 2fbe 7a2a 6fbe
00000050: 1c44 afbd 7696 dcbe d261 bdbd 0660 a1be
00000060: 49a2 5bbe aa59 8abe df0b 27bf 12e9 95be
00000070: 848f dbbd b876 e5be 91be 9cbd a62f c7bd
00000080: 2cd8 4d3d 293d c03d 4a3a 13be c979 843d
00000090: b8d1 36bb a0bd 3ebe 12dd f53a 4e21 0bbe
000000a0: f7bc 963d ef8e 9b3d 1550 b23d 8390 423d
000000b0: 2919 08bd 416f 04be 2682 06bd b37d 293e

encoder.rnn.weight_ih_l0_reverse f4 [48, 124]
0.113680676 0.17581522 0.19554801 -0.27275792 0.2682919 -0.21926603 -0.30429822 0.061450817
-0.19977899 -0.2781244 0.18341047 -0.021520182 -0.09554331 -0.18860012 0.11711514 0.104682304
0.05738927 0.032877702 0.18418698 -0.16561499 0.3129789 -0.03927334 -0.20827772 -0.23602416
0.15993027 0.24522819 0.31368968 -0.24031262 0.047734424 0.13662536 0.21037894 -0.30029413
-0.26715723 0.03346157 -0.18956436 -0.27140635 -0.28709915 0.086315215 0.24283974 0.28951547
0.016109409 0.31822518 -0.29775763 0.22103617 0.2549977 0.2725633 -0.15439968 -0.3232717
0.29628855 0.17498873 0.31176415 -0.091697805 -0.24419507 -0.11713214 0.36269552 -0.017438173
0.26024684 0.2949292 -0.19568539 0.192475 -0.035238843 0.062114853 0.17866425 0.28787747
0.32141498 -0.20043321 0.10373064 0.14821832 -0.05699188 0.28085098 0.23260629 0.2971464
0.27780026 -0.2681579 0.07750255 0.34109727 0.2446695 0.178705 -0.026449801 -0.23993178
0.26365703 0.29197505 0.294282 -0.20874219 -0.2847601 -0.2729157 -0.07073903 0.15138906
0.14465904 -0.0133223655 -0.14887492 0.33604804 -0.24177486 -0.26724952 0.33324397 0.261384
0.23541266 -0.20096867 0.27992943 -0.4302294 -0.318601 0.24663709 0.1557308 0.19964154
0.13588646 -0.28034237 -0.059917886 0.26498628 0.2857686 -0.2037489 -0.18095244 -0.304352
0.27070123 0.1774144 -0.09995605 -0.28539175 0.33999303 0.13082328 0.17945108 0.1649424
0.1580171 0.1806997 -0.33748096 -0.14145309 -0.040158365 0.08976989 0.25251776 -0.27300355
0.22230865 -0.22565041 -0.34159246 0.020133464 -0.09854236 -0.3275846 0.20997618 -0.1338325
-0.10497116 -0.1352992 0.26056358 0.21709353 0.112558775 -0.027643805 0.10205337 -0.1693676
0.26708534 -0.059828658 -0.1561853 -0.20661989 0.0882091 0.28023767 0.34273812 -0.1535868
0.09205007 0.16851716 0.11248672 -0.34303373 -0.1352219 0.034552485 -0.24985936 -0.17713588
-0.117328644 -0.026165126 0.33376902 0.3621523 0.012877053 0.33081266 -0.31443578 0.17596868
0.3009942 0.21409594 -0.12330751 -0.37383294 0.31329358 0.25225207 0.39639086 -0.20693423
-0.21976726 -0.21522622 0.22254118 0.043741252 0.3606778 0.2682849 -0.20829901 0.06631086
0.10416664 0.031757027 0.14015257 0.36976093 0.37784532 -0.17714994 -0.026128614 0.18087642
-0.25829253 0.24852653 0.16291726 0.31124586 0.329631 -0.30186474 0.25757465 0.35527724
0.29776677 0.23675147 0.12443835 -0.17582944 0.36305285 0.2539401 0.33887255 -0.099540725
-0.21618478 -0.37490442 -0.1842731 0.19716142 0.13093281 0.027075212 -0.31097952 0.36267963
-0.19114581 -0.32813853 0.36073935 0.35701463 0.29913276 -0.2636272 0.24969767 -0.39600104
-0.27359405 0.33212286 -0.010590809 0.08574399 0.06801572 -0.3705118 -0.018146986 0.29812753
0.282798 -0.22611809 -0.1580963 -0.29998165 0.34679285 0.27901548 -0.13040027 -0.22790903
0.34358314 0.066227764 0.2379136 0.28252485 0.23174281 0.2145294 -0.3326839 -0.22219174
0.06917683 0.13337244 0.20665175 -0.27022755 0.26497135 -0.21993662 -0.28915092 0.032140214
00000000: 6ad1 e83d e808 343e bd3d 483e eda6 8bbe
00000010: 8e5d 893e 4687 60be facc 9bbe dab3 7b3d
00000020: dd92 4cbe 5266 8ebe f4cf 3b3e 184b b0bc
00000030: 36ac c3bd 6420 41be 10da ef3d ad63 d63d
00000040: 0311 6b3d c5aa 063d 839b 3c3e fa96 29be
00000050: c53e a03e 15dd 20bd c146 55be 51b0 71be
00000060: c3c4 233e 191d 7b3e ef9b a03e 8314 76be
00000070: 2c85 433d 85e7 0b3e 946d 573e 27c0 99be
00000080: d5c8 88be 000f 093d 291d 42be c6f5 8abe
00000090: a9fe 92be 08c6 b03d fbaa 783e 5f3b 943e
000000a0: e1f7 833c 69ee a23e b073 98be 4e57 623e
000000b0: 0f8f 823e 6b8d 8b3e f31a 1ebe de83 a5be
000000c0: 22b3 973e 3f30 333e 8d9f 9f3e 0fcc bbbd
000000d0: 460e 7abe fae2 efbd 3ab3 b93e 80da 8ebc
000000e0: 133f 853e f600 973e c061 48be 2b18 453e
000000f0: 9b56 10bd 256c 7e3d c3f3 363e ad64 933e
00000100: 8190 a43e 5d3e 4dbe bb70 d43d 8bc6 173e
00000110: 5170 69bd b3cb 8f3e 5830 6e3e 9323 983e
00000120: d63b 8e3e fe4b 89be a8b9 9e3d 4da4 ae3e
00000130: a48a 7a3e 72fe 363e 41ad d8bc adb0 75be
00000140: 0efe 863e c17d 953e 21ac 963e 83c0 55be
00000150: 13cc 91be 9bbb 8bbe a0df 90bd bc05 1b3e
00000160: 8021 143e 0d46 5abc ab72 18be 7d0e ac3e
00000170: d493 77be eed4 88be f49e aa3e 20d4 853e
00000180: 0410 713e bbca 4dbe e952 8f3e 0747 dcbe
00000190: ac1f a3be 6f8e 7c3e e577 1f3e d56e 4c3e
000001a0: d225 0b3e 0989 8fbe 756c 75bd 48ac 873e
000001b0: 4350 923e 8da3 50be 994b 39be 06d4 9bbe
000001c0: 5a99 8a3e 1fac 353e c2b5 ccbd de1e 92be
000001d0: 9113 ae3e 8af6 053e 06c2 373e a9e6 283e
000001e0: 3ccf 213e 5809 393e 4eca acbe 14d9 10be
000001f0: 197d 24bd 47d9 b73d 024a 813e 1fc7 8bbe
00000200: e1a4 633e e710 67be 35e5 aebe efee a43c
00000210: 94d0 c9bd 2bb9 a7be ff03 573e 630b 09be
00000220: 1ffb d6bd e08b 0abe 9768 853e c44d 5e3e
00000230: 3785 e63d 4375 e2bc 5b01 d13d b36e 2dbe
00000240: 69bf 883e e50e 75bd 0aef 1fbe 2a94 53be
00000250: f9a6 b43d 507b 8f3e 5f7b af3e dc45 1dbe
00000260: bf84 bc3d c38f 2c3e 705f e63d 1ea2 afbe
00000270: 9c77 0abe e886 0d3d 22db 7fbe 1c63 35be
00000280: 004a f0bd 3f58 d6bc c6e3 aa3e 076c b93e
00000290: 46fa 523c 4760 a93e bafd a0be 2231 343e
000002a0: e91b 9a3e f73b 5b3e a688 fcbd 0867 bfbe
000002b0: 0468 a03e 2f27 813e bef3 ca3e 91e6 53be
000002c0: ab0a 61be 4364 5cbe d6e1 633e 072a 333d
000002d0: c3aa b83e a35c 893e 564c 55be fdcd 873d
000002e0: 5255 d53d a813 023d 2884 0f3e 4e51 bd3e
000002f0: f174 c13e cb66 35be ad0b d6bc ab37 393e
00000300: eb3e 84be bd7d 7e3e c8d3 263e 9e5b 9f3e
00000310: 65c5 a83e 048e 9abe d3e0 833e e6e6 b53e
00000320: e374 983e fa6e 723e 89d9 fe3d a20c 34be
00000330: 10e2 b93e 7004 823e b480 ad3e 02dc cbbd
00000340: 8b5f 5dbe 79f3 bfbe 16b2 3cbe afe4 493e
00000350: 4013 063e d6cc dd3c b538 9fbe 25b1 b93e
00000360: babb 43be c601 a8be d4b2 b83e 9fca b63e
00000370: ee27 993e 25fa 86be bfb0 7f3e a6c0 cabe
00000380: 8514 8cbe 020c aa3e 1385 2dbc 8c9a af3d
00000390: d34b 8b3d b9b3 bdbe fda8 94bc 2ca4 983e
000003a0: e6ca 903e 808b 67be ffe3 21be 3297 99be
000003b0: d58e b13e 1edb 8e3e a687 05be fc60 69be
000003c0: 21ea af3e 6ca2 873d 9f9f 733e 19a7 903e
000003d0: fd4d 6d3e 98ad 5b3e 8b55 aabe 3b86 63be
000003e0: 95ac 8d3d c992 083e 849c 533e 445b 8abe
000003f0: 53aa 873e 1137 61be 970b 94be 75a5 033d

encoder.rnn.weight_hh_l0_reverse f4 [48, 16]
0.0641226 0.04480664 0.026250614 0.08539364 0.020516532 -0.06642782 0.055145945 0.05175589
-0.07007574 -0.052991815 -0.078281544 -0.013267224 0.037746638 -0.053096626 0.09711506 -0.048518628
0.116488494 0.06647121 0.13319823 0.08688908 0.013476732 0.044209212 0.057560142 0.107844025
0.027241299 -0.064140975 -0.006091324 0.029250827 0.10989057 -0.05267598 0.115777574 0.002513092
0.008472057 0.019792875 0.015506489 0.110716596 0.052431587 -0.0531149 0.058564335 0.114373654
-0.090427 -0.111133896 -0.07212981 -0.017522298 0.030147867 -0.054100905 0.13622884 -0.06317266
0.22257619 -0.0131089855 0.21529645 0.21353972 0.31172377 -0.25174156 0.2446297 0.2593993
0.16710036 -0.26291278 -0.2698796 -0.2041197 0.26552072 -0.19492634 0.28523946 -0.26851308
0.43504435 0.12906142 0.44821945 0.18840571 0.16605191 -0.15196821 0.15957426 0.19648242
0.029450322 -0.15648776 -0.17787664 -0.3658624 0.5389849 -0.28347373 0.41894984 -0.1666259
0.398181 0.19252801 0.40365463 0.24087483 0.35030705 -0.074279666 0.27262327 0.56844664
-0.072187416 -0.35727194 -0.13012524 -0.5623783 0.62826467 -0.6668643 0.5963065 -0.42825362
0.26925984 0.05011347 0.3020559 0.14351901 0.21134059 -0.15293837 0.15311413 0.27086657
0.09666318 -0.18358827 -0.17994526 -0.22034778 0.32227156 -0.19818226 0.3408324 -0.22535165
0.4394637 0.20550561 0.4536972 0.26655924 0.1947416 -0.250999 0.27777025 0.033426635
0.03712768 -0.19094245 -0.26149517 -0.33161005 0.43298027 -0.26518568 0.26438022 -0.1293468
0.17357159 0.07734687 0.184589 0.22444925 0.4808752 0.050433315 0.2904943 0.7780425
-0.018769575 -0.43256634 -0.034122452 -0.8693892 0.4695759 -0.8010576 0.37678948 -0.6403757
0.2299664 -0.010974103 0.22726047 0.22071569 0.20739447 -0.19468045 0.21799101 0.2725163
0.14564666 -0.22556917 -0.20249248 -0.23257513 0.25430024 -0.20890805 0.26806173 -0.23219456
0.3994926 0.16249497 0.39557937 0.21157189 0.29824623 -0.19051147 0.20336086 0.45688316
0.023483941 -0.28079802 -0.20124704 -0.34965345 0.4970882 -0.3610075 0.5504042 -0.3427427
0.19356261 0.29486662 0.1298899 0.25197732 0.2577854 -0.2127867 0.25497806 0.3652464
-0.105214745 -0.26566046 -0.25148705 -0.107426785 0.15048906 -0.1873875 0.4032572 -0.26670757
0.078488804 0.22007774 0.06056588 0.14411807 0.11106771 -0.089116804 0.12544374 0.16704577
-0.40427065 -0.13089691 -0.11821846 -0.030083362 0.0009585293 -0.10374199 0.18778747 -0.11319169
0.19572188 0.23455085 0.17245294 0.30488834 0.2463728 -0.2416241 0.2712367 0.25207636
-0.03485596 -0.22970654 -0.27663773 -0.1838109 0.1428618 -0.19260372 0.29860148 -0.23723398
0.34269437 0.30276442 0.3500364 0.11154733 0.10676039 -0.049662177 0.13025723 0.1501741
-0.30196986 -0.12843952 -0.106420025 -0.19582115 0.27111053 -0.21376261 0.2767179 -0.13375612
0.4015347 0.20171584 0.40661076 0.26859856 0.24095932 -0.23049805 0.2555078 0.23223124
0.049261376 -0.23265262 -0.27802226 -0.4130618 0.44873264 -0.36424473 0.37817746 -0.18698719
00000000: b652 833d 2b87 373d 870b d73c dce2 ae3d
00000010: 4912 a83c 4f0b 88bd b7e0 613d fcfd 533d
00000020: df83 8fbd f20d 59bd 1352 a0bd c55e 59bc
00000030: 389c 1a3d d97b 59bd 43e4 c63d 78bb 46bd
00000040: 8591 ee3d 0f22 883d 1e65 083e e7f2 b13d
00000050: 83cd 5c3c b814 353d 2fc4 6b3d 54dd dc3d
00000060: 2529 df3c 585c 83bd bb99 c7bb 6e9f ef3c
00000070: 4f0e e13d c5c2 57bd cb1c ed3d b0b2 243b
00000080: 62ce 0a3c ab24 a23c ee0e 7e3c 62bf e23d
00000090: 81c2 563d 028f 59bd 28e1 6f3d bc3c ea3d
000000a0: ca31 b9bd 2b9a e3bd cbb8 93bd ec8a 8fbc
000000b0: a9f8 f63c e998 5dbd 937f 0b3e ab60 81bd
000000c0: 03eb 633e 12c7 56bc ac76 5c3e 28aa 5a3e
000000d0: 429a 9f3e 45e4 80be 3580 7a3e fccf 843e
000000e0: 5b1c 2b3e 819c 86be a92d 8abe c104 51be
000000f0: 55f2 873e c59a 47be e80a 923e 8c7a 89be
00000100: 22be de3e ad28 043e 057d e53e 6ded 403e
00000110: 8309 2a3e 8e9d 1bbe 6f67 233e b032 493e
00000120: cd41 f13c 543e 20be 4b25 36be 5152 bbbe
00000130: eafa 093f 7823 91be 9880 d63e fb9f 2abe
00000140: 61de cb3e 1026 453e d2ab ce3e e4a7 763e
00000150: 725b b33e f01f 98bd 4795 8b3e b885 113f
00000160: ffd6 93bd 59ec b6be 8d3f 05be 06f8 0fbf
00000170: f4d5 203f 9eb7 2abf 8ba7 183f 0f44 dbbe
00000180: 6ddc 893e c843 4d3d 12a7 9a3e a6f6 123e
00000190: ab69 583e e09b 1cbe f3c9 1c3e 06af 8a3e
000001a0: 58f7 c53d 90fe 3bbe 9243 38be d9a2 61be
000001b0: c700 a53e 4af0 4abe 9681 ae3e 95c2 66be
000001c0: 6301 e13e 1070 523e 004b e83e 747a 883e
000001d0: 586a 473e f182 80be e737 8e3e 5eea 083d
000001e0: 3213 183d 6b86 43be b2e2 85be cbc8 a9be
000001f0: 97af dd3e 6bc6 87be d85c 873e 7d73 04be
00000200: c0bc 313e 0968 9e3d e604 3d3e 06d6 653e
00000210: 4635 f63e 2a93 4e3d abbb 943e cb2d 473f
00000220: a7c2 99bc 5679 ddbe fcc3 0bbd 4a90 5ebf
00000230: 416c f03e 1c12 4dbf 8dea c03e a9ef 23bf
00000240: 507c 6b3e b9cc 33bc f8b6 683e 4b03 623e
00000250: 375f 543e 505a 47be 0939 5f3e 4287 8b3e
00000260: 6624 153e 9bfb 66be 305a 4fbe 2d28 6ebe
00000270: a433 823e feeb 55be 633f 893e 69c4 6dbe
00000280: 4b8a cc3e 1565 263e 6189 ca3e 4da6 583e
00000290: bbb3 983e 7015 43be d43d 503e 97ec e93e
000002a0: 6561 c03c c2c4 8fbe b413 4ebe c705 b3be
000002b0: 5882 fe3e fad5 b8be 4ae7 0c3f f97b afbe
000002c0: 4735 463e c2f8 963e dc01 053e 2c03 813e
000002d0: 73fc 833e c2e4 59be 7c8c 823e 9301 bb3e
000002e0: d47a d7bd a604 88be e9c2 80be 9302 dcbd
000002f0: ce19 1a3e 82e2 3fbe ba77 ce3e e58d 88be
00000300: bdbe a03d 0f5c 613e ee13 783d b093 133e
00000310: 7877 e33d df82 b6bd 5374 003e 0c0e 2b3e
00000320: 90fc cebe d709 06be 851c f2bd 6271 f6bc
00000330: d045 7b3a ae76 d4bd 5c4b 403e 0bd1 e7bd
00000340: 516b 483e 192e 703e 8197 303e 531a 9c3e
00000350: 2749 7c3e 4f6c 77be 89df 8a3e 2710 813e
00000360: 20c5 0ebd 3138 6bbe 76a3 8dbe ed38 3cbe
00000370: 5d4a 123e e939 45be 4be2 983e 77ed 72be
00000380: a375 af3e f003 9b3e f937 b33e ed72 e43d
00000390: 31a5 da3d 916a 4bbd 2762 053e 3dc7 193e
000003a0: cb9b 9abe a685 03be bef2 d9bd 5785 48be
000003b0: 00cf 8a3e 96e4 5abe f8ad 8d3e 5df7 08be
000003c0: f595 cd3e 998e 4e3e 492f d03e c085 893e
000003d0: 0abe 763e ae07 6cbe ebd1 823e 07ce 6d3e
000003e0: 4cc6 493d 7d3c 6ebe ef58 8ebe d67c d3be
000003f0: 49c0 e53e 497e babe 7aa0 c13e 9279 3fbe

encoder.rnn.bias_ih_l0_reverse f4 [48]
0.16543676 0.17820422 0.16168644 -0.049631447 0.040953487 0.18563613 -0.00552103 0.009545128
0.096712835 -0.00398175 0.092848286 0.14872313 0.1987752 0.08139182 0.1931363 0.025800172
-0.24169585 -0.28031212 -0.19864409 -0.22985186 -0.19718333 -0.19456388 -0.26900652 -0.19372344
-0.15825461 -0.2658685 -0.21462774 -0.22915022 -0.17928566 -0.22528586 -0.19485652 -0.16157524
-0.08023645 0.043346565 -0.04557417 0.045404445 0.10849623 -0.005574471 0.06872612 0.11655933
0.023353197 -0.14795661 -0.0024945533 -0.07870904 0.032734185 -0.11005802 0.034480784 -0.07564176
00000000: 4168 293e 2b7b 363e 2191 253e 584a 4bbd
00000010: d8be 273d 6617 3e3e c2e9 b4bb 2b63 1c3c
00000020: 6111 c63d 5779 82bb 3e27 be3d e04a 183e
00000030: ba8b 4b3e c1b0 a63d 86c5 453e e25a d33c
00000040: 1e7f 77be 1285 8fbe 5b69 4bbe 495e 6bbe
00000050: 6dea 49be c13b 47be 39bb 89be 705f 46be
00000060: 7f0d 22be eb1f 88be 60c7 5bbe 5ba6 6abe
00000070: a996 37be 56b1 66be 7888 47be fb73 25be
00000080: 0253 a4bd 2b8c 313d fbab 3abd 03fa 393d
00000090: 4533 de3d 0daa b6bb 48c0 8c3d a8b6 ee3d
000000a0: 344f bf3c f081 17be a97b 23bb 3532 a1bd
000000b0: 4814 063d 1966 e1bd b93b 0d3d 11ea 9abd

encoder.rnn.bias_hh_l0_reverse f4 [48]
0.1654368 0.17820421 0.1616864 -0.04963144 0.040953487 0.18563615 -0.0055209985 0.009545119
0.09671285 -0.003981737 0.092848286 0.1487232 0.19877525 0.0813918 0.19313632 0.025800169
-0.24169591 -0.2803121 -0.19864398 -0.22985178 -0.19718333 -0.1945639 -0.26900652 -0.19372341
-0.1582546 -0.2658686 -0.2146278 -0.22915025 -0.17928566 -0.22528587 -0.19485652 -0.16157527
-0.061172057 0.08170331 -0.01897016 0.02380465 0.06611292 0.040429857 0.03319678 0.09552078
-0.06575127 -0.13522829 0.024900926 -0.13655019 0.073494785 -0.15364544 0.04023168 -0.07533083
00000000: 4468 293e 2a7b 363e 1f91 253e 564a 4bbd
00000010: d8be 273d 6717 3e3e 7ee9 b4bb 2163 1c3c
00000020: 6311 c63d 3b79 82bb 3e27 be3d e54a 183e
00000030: bd8b 4b3e beb0 a63d 87c5 453e e05a d33c
00000040: 227f 77be 1185 8fbe 5469 4bbe 445e 6bbe
00000050: 6dea 49be c23b 47be 39bb 89be 6e5f 46be
00000060: 7e0d 22be ee1f 88be 64c7 5bbe 5da6 6abe
00000070: a996 37be 57b1 66be 7888 47be fd73 25be
00000080: 8d8f 7abd 1154 a73d 4f67 9bbc f801 c33c
00000090: 3666 873d c799 253d 59f9 073d 66a0 c33d
000000a0: 9aa8 86bd 4979 0abe 07fd cb3c d0d3 0bbe
000000b0: 6f84 963d 3b55 1dbe f9c9 243d 0d47 9abd

encoder.fc.weight f4 [16, 32]
-0.07288345 -0.2995084 0.22000107 -0.06402109 -0.017206345 0.109747216 -0.0070463647 0.104288355
-0.0950785 -0.27800238 -0.09010422 -0.044297148 -0.19812769 0.073812336 0.06952081 -0.19860733
-0.06043128 0.015170947 -0.048258804 -0.06721646 -0.031407963 0.07214443 -0.039861113 -0.0412072
-0.12080463 0.062940575 0.050793193 0.06612738 -0.071374804 0.03989531 -0.076159924 0.013347577
0.11343338 0.15223558 -0.16033174 0.1323121 0.086239204 -0.12030406 0.1000998 -0.13759045
0.1236957 0.13442805 0.12556534 0.11104224 0.031107979 -0.13369259 0.09639153 0.1270161
0.13730133 0.082802564 0.15021984 0.09573763 0.09724466 -0.088228285 0.09225144 0.09625813
0.029791279 -0.11107456 -0.07335047 -0.13353091 0.16669218 -0.14883815 0.18168965 -0.07278538
-0.12109326 -0.22578616 0.18893845 -0.109149516 -0.050347593 0.13999501 -0.070412986 0.12958167
-0.14516498 -0.19934128 -0.13264357 -0.09147813 -0.16456492 0.12335723 0.007034473 -0.16758347
-0.080901176 -0.08396848 -0.06702719 -0.0834352 -0.09169604 0.07709394 -0.077154055 -0.074703574
-0.011520542 0.101192765 0.025696559 0.12928386 -0.1103278 0.08245689 -0.102956675 0.06423045
-0.050668705 -0.07485179 0.038468584 -0.07661309 -0.049655773 0.077842295 -0.042284116 0.09554365
-0.0726689 -0.09423517 -0.061074402 -0.047453016 -0.013433648 0.07929504 -0.06901172 -0.06822776
0.2460142 0.23944351 0.24248724 0.11976243 0.15584315 -0.40339512 0.09568948 0.12057836
-0.019693077 -0.12324778 -0.34311068 -0.16119689 0.17179793 -0.118519604 0.21175171 -0.17104019
-0.1482913 -0.180812 0.13752557 -0.14335124 -0.11512173 0.14467531 -0.12076957 0.13831505
-0.13659066 -0.19386041 -0.15382902 -0.13046803 -0.10560042 0.14068927 -0.09948988 -0.15224768
-0.14391224 -0.10993754 -0.17947698 -0.09661502 -0.113659106 0.073083326 -0.12069275 -0.12113974
0.036203798 0.14295241 0.0586283 0.15829399 -0.20236391 0.15323257 -0.17053266 0.099689305
0.11935378 0.13917345 -0.15656742 0.097679205 0.092832476 -0.09928619 0.0974863 -0.07378435
0.089872666 0.15369093 0.08947089 0.11086912 0.17761445 -0.084173515 0.026812721 0.13344958
0.041285027 -0.021738436 0.028414099 0.17186826 0.19204119 -0.4383022 0.17287226 0.15952359
0.23468192 -0.17058572 -0.38733324 -0.06948053 0.026771633 -0.13499767 0.08252438 -0.19111168
-0.003117297 -0.008887297 0.002115047 -0.025924474 -0.004185727 -0.019463826 0.0012216314 -0.022140943
-0.0126181925 -0.0035632828 -0.011949786 0.0019255325 0.024934303 -0.01220843 0.0429537 0.0110176215
-0.02016789 0.004616998 0.036925383 -0.052260723 -0.0805158 0.38356844 -0.060459446 -0.03670307
-0.21510504 0.030021852 0.2719664 -0.03809812 0.11063999 -0.018867558 -0.003184381 0.06103984
-0.15293981 -0.1637636 0.16178559 -0.16514893 -0.13169867 0.15475836 -0.16097935 0.15587457
-0.17162532 -0.18846469 -0.16461426 -0.16142902 -0.09356678 0.1626642 -0.13170001 -0.16593565
-0.0042386716 -0.12535769 -0.043477528 -0.20505975 -0.15668419 0.065699965 -0.18525353 -0.15181807
0.047474302 0.22369578 0.06591336 0.14191487 -0.100759864 0.18194655 -0.011510729 0.103691444
00000000: eb43 95bd 2a59 99be f647 613e 7d1d 83bd
00000010: 52f4 8cbc 26c3 e03d 31e5 e6bb 2295 d53d
00000020: 84b8 c2bd 5456 8ebe 9088 b8bd ed70 35bd
00000030: fce1 4abe ec2a 973d ed60 8e3d b85f 4bbe
00000040: ca86 77bd 908f 783c 06ab 45bd c9a8 89bd
00000050: a3a5 00bd 75c0 933d 6845 23bd e2c8 28bd
00000060: 6b68 f7bd fde6 803d 860c 503d cb6d 873d
00000070: f42c 92bd 4469 233d bcf9 9bbd ccaf 5a3c
00000080: c34f e83d a5e3 1b3e 012e 24be d37c 073e
00000090: 2e9e b03d fa61 f6bd 2001 cd3d 83e4 0cbe
000000a0: 2c54 fd3d 82a7 093e 3394 003e 1d6a e33d
000000b0: 29d6 fe3c b6e6 08be ec68 c53d 8210 023e
000000c0: b898 0c3e 6494 a93d 3bd3 193e 1712 c43d
000000d0: 3528 c73d 08b1 b4bd 53ee bc3d fc22 c53d
000000e0: d70c f43c 0f7b e3bd c538 96bd 54bc 08be
000000f0: 5bb1 2a3e 0769 18be da0c 3a3e 8010 95bd
00000100: beff f7bd 7d34 67be 1579 413e c889 dfbd
00000110: 4739 4ebd da5a 0f3e af34 90bd 0fb1 043e
00000120: 21a6 14be 1f20 4cbe b7d3 07be e358 bbbd
00000130: b583 28be b7a2 fc3d 7081 e63b 009b 2bbe
00000140: 84af a5bd abf7 abbd 8d45 89bd 13e0 aabd
00000150: 22cb bbbd 6de3 9d3d f202 9ebd 30fe 98bd
00000160: a8c0 3cbc 273e cf3d 9781 d23c fd62 043e
00000170: 8bf3 e1bd 28df a83d f3da d2bd 418b 833d
00000180: fd89 4fbd e54b 99bd 3c91 1d3d 53e7 9cbd
00000190: da63 4bbd c86b 9f3d 1c32 2dbd 64ac c33d
000001a0: 6fd3 94bd 5efe c0bd 2729 7abd 185e 42bd
000001b0: ce18 5cbc 7065 a23d 0456 8dbd ffba 8bbd
000001c0: 25eb 7b3e ae30 753e 934e 783e 0146 f53d
000001d0: 5995 1f3e ce89 cebe d9f8 c33d caf1 f63d
000001e0: 6053 a1bc 5569 fcbd 34ac afbe cc10 25be
000001f0: cceb 2f3e 68ba f2bd 71d5 583e 2925 2fbe
00000200: add9 17be c826 39be 81d3 0c3e abca 12be
00000210: f1c4 ebbd c425 143e 0956 f7bd 76a2 0d3e
00000220: 6cde 0bbe 5883 46be 5b85 1dbe 6999 05be
00000230: 0845 d8bd d910 103e 5ac1 cbbd d1e6 1bbe
00000240: bb5d 13be ef26 e1bd d0c8 37be 18de c5bd
00000250: 1bc6 e8bd b6ac 953d c32d f7bd 1d18 f8bd
00000260: 6f4a 143d 1e62 123e 3a24 703d d217 223e
00000270: 7c38 4fbe 00e9 1c3e 1da0 2ebe e829 cc3d
00000280: c16f f43d 7c83 0e3e 3653 20be 090c c83d
00000290: f41e be3d 8f56 cbbd e6a6 c73d 401c 97bd
000002a0: 290f b83d 2861 1d3e 843c b73d 590f e33d
000002b0: 90e0 353e 2a63 acbd 5aa6 db3c 02a7 083e
000002c0: 7d1a 293d ce14 b2bc afc4 e83c 3cfe 2f3e
000002d0: 72a6 443e 2569 e0be 6d05 313e 275a 233e
000002e0: 7550 703e 06ae 2ebe 8b50 c6be cf4b 8ebd
000002f0: 2f50 db3c d43c 0abe 8b02 a93d c8b2 43be
00000300: 914b 4cbb 069c 11bc 9a9c 0a3b 905f d4bc
00000310: 6c28 89bb 9a72 9fbc 261f a03a ec60 b5bc
00000320: 89bc 4ebc f785 69bb 09c9 43bc 2662 fc3a
00000330: 0643 cc3c de05 48bc 38f0 2f3d 4183 343c
00000340: 2137 a5bc 304a 973b 123f 173d 570f 56bd
00000350: 78e5 a4bd 1563 c43e 53a4 77bd f555 16bd
00000360: 7f44 5cbe 63f0 f53c 2e3f 8b3e c60c 1cbd
00000370: 3897 e23d 2390 9abc 0cb1 50bb e904 7a3d
00000380: 419c 1cbe a5b1 27be 1fab 253e cd1c 29be
00000390: 04dc 06be fa78 1e3e c5d7 24be 959d 1f3e
000003a0: 8cbe 2fbe e3fc 40be a490 28be a64d 25be
000003b0: f19f bfbd 7291 263e 5edc 06be 09eb 29be
000003c0: 8ee4 8abb c45d 00be 7e15 32bd 2ffb 51be
000003d0: d271 20be b48d 863d 1ab3 3dbe 3276 1bbe
000003e0: 6a74 423d 8210 653e 95fd 863d 2252 113e
000003f0: 305b cebd 3250 3a3e 7f97 3cbc 2e5c d43d

encoder.fc.bias f4 [16]
-0.06712225 0.10308993 -0.10124291 -0.06590496 -0.12541327 0.029677149 0.023783576 -0.14390603
0.08336765 -0.049319938 0.01872548 0.083343014 0.12994534 0.097710654 0.054270905 -0.12894566
00000000: 6477 89bd d020 d33d 7158 cfbd 2ef9 86bd
00000010: 566c 00be 7e1d f33c c6d5 c23c 1a5c 13be
00000020: a9bc aa3d b403 4abd 2e66 993c beaf aa3d
00000030: 6410 053e 861c c83d 2b4b 5e3d 550a 04be

decoder.attention.attn.weight f4 [16, 48]
-0.48138577 0.5137484 -0.5537048 -0.120589204 -0.44790277 0.51970106 -0.19253565 -0.29912105
0.086138204 0.02790851 0.47419462 0.39746615 0.50554687 0.33564764 -0.37354496 -0.62103146
0.10209698 -0.2634628 0.29442894 0.08076131 0.15704265 0.005885151 0.09635509 0.0304179
0.054678842 -0.27705815 0.093671344 0.14021651 -0.48516622 -0.058828644 0.28357822 -0.26994067
0.16537505 -0.00987458 0.14042154 0.0040288605 0.09310585 0.042536654 0.010653676 0.13796097
-0.08114956 -0.08306933 0.058026 -0.11238182 0.13413619 -0.12349455 0.2099385 -0.1425156
-0.47738853 0.5254825 -0.56234705 -0.1269804 -0.4476976 0.5403192 -0.20527251 -0.3295105
0.08078904 -0.00036916276 0.44921032 0.41511714 0.50740826 0.33572775 -0.3569859 -0.59996456
0.12160509 -0.3034061 0.3125279 0.07802418 0.18781516 0.010975624 0.11883553 0.024845831
0.059281394 -0.2864674 0.08910417 0.12065962 -0.48404408 -0.056194764 0.31687006 -0.28685853
0.14970453 -0.017982377 0.1418351 0.01579304 0.08620238 0.06067817 0.0235449 0.14228569
-0.065632746 -0.08955327 0.04410477 -0.12912516 0.12986775 -0.122416764 0.22384174 -0.1600768
-0.38065842 0.48445362 -0.48945048 -0.29269558 -0.47616667 0.3952458 -0.3968145 -0.44980127
0.21059448 -0.090066046 0.7721855 0.4016903 0.54466033 0.37712413 -0.5061617 -0.8062787
0.06591294 -0.17694509 0.2629839 0.06193433 0.09010696 -0.030472666 0.069693886 -0.21483587
0.09980326 -0.004518913 0.0375974 0.07534191 -0.4172595 -0.11152491 0.16293614 -0.2316417
0.0379489 0.14248383 0.010770133 -0.02203548 0.10002942 0.20167999 -0.030367162 0.1264041
-0.37166345 -0.067277186 0.14283603 -0.13685822 0.008281043 -0.09825795 0.05334213 -0.16418155
0.46214712 -0.38635942 0.5403531 0.13419007 0.34971288 -0.7053154 0.20896691 0.2635258
-0.09176771 0.0021946758 -0.48084956 -0.4182924 -0.5001669 -0.3583068 0.019860322 0.45365465
-0.06397528 0.2753757 -0.31653446 -0.05299167 -0.14800264 -0.02170637 -0.059514385 -0.030115163
-0.037320673 0.28049195 -0.059102766 -0.09356435 0.53753453 0.026526533 -0.23690613 0.28534672
-0.05143905 0.06673101 -0.044298828 -0.0025041918 -0.07238364 -0.01093208 -0.008321098 -0.101373576
-0.058120765 0.05125719 -0.040403914 0.11045146 -0.06298296 0.11134427 -0.17433803 0.133481
0.49584937 -0.5399634 0.5497617 0.12686568 0.44023645 -0.51038814 0.19921523 0.3209155
-0.10463909 -0.014560076 -0.45599312 -0.39819744 -0.49870756 -0.34349138 0.3801822 0.61076134
-0.114861056 0.30362 -0.30493185 -0.097801186 -0.17648269 -0.026687501 -0.11780561 -0.027997175
-0.064288415 0.28018624 -0.085247405 -0.12434859 0.48682702 0.047762122 -0.31342453 0.27605873
-0.14075321 -0.012708465 -0.13428903 -0.02093107 -0.08885437 -0.044482842 -0.030705236 -0.13945457
0.081854954 0.08474044 -0.029104901 0.10783036 -0.13530302 0.12666818 -0.20937257 0.13894106
0.10105315 -0.28462863 -0.09169991 -0.35033622 0.4049736 0.38763857 -0.29898447 0.5200454
-0.30033773 0.0566004 0.048309 -0.37684298 -0.2582907 -0.38269946 0.06878504 0.396207
00000000: 3278 f6be 0485 033f 99bf 0dbf 79f7 f6bd
00000010: 8353 e5be 210b 053f 1128 45be 6526 99be
00000020: 3a69 b03d 63a0 e43c a3c9 f23e af80 cb3e
00000030: 856b 013f 02da ab3e 4941 bfbe ebfb 1ebf
00000040: 3918 d13d 99e4 86be 64bf 963e 3066 a53d
00000050: cacf 203e 3ad8 c03b d155 c53d f62e f93c
00000060: ecf6 5f3d 91da 8dbe c3d6 bf3d eb94 0f3e
00000070: b567 f8be 4ef6 70bd 2a31 913e aa35 8abe
00000080: 1458 293e fec8 21bc aaca 0f3e 8804 843b
00000090: 48ae be3d ea3a 2e3d c28c 2e3c a445 0d3e
000000a0: be31 a6bd 4120 aabd acac 6d3d 7128 e6bd
000000b0: ff5a 093e b6ea fcbd 1efa 563e 9cef 11be
000000c0: 456c f4be 0586 063f faf5 0fbf 2607 02be
000000d0: 9f38 e5be 5c52 0a3f f532 52be 9ab5 a8be
000000e0: b974 a53d 308c c1b9 e5fe e53e 3c8a d43e
000000f0: 82e5 013f 82e4 ab3e dbc6 b6be 4797 19bf
00000100: 170c f93d 0b58 9bbe a803 a03e 24cb 9f3d
00000110: 9e52 403e 1bd3 333c 0b60 f33d 7c89 cb3c
00000120: 0cd1 723d dbab 92be 3f7c b63d 641c f73d
00000130: a0d4 f7be 7b2c 66bd cb3c a23e 1fdf 92be
00000140: 254c 193e c74f 93bc 383d 113e 6860 813c
00000150: e08a b03d ac89 783d 3ce1 c03c 57b3 113e
00000160: 766a 86bd b467 b7bd 34a7 343d 6339 04be
00000170: 0dfc 043e a4b5 fabd c536 653e 2ceb 23be
00000180: a9e5 c2be 4e0a f83e 4199 fabe 32dc 95be
00000190: 1ecc f3be a85d ca3e 452b cbbe 5a4c e6be
000001a0: 14a6 573e 8c74 b8bd f3ad 453f 5aaa cd3e
000001b0: dc6e 0b3f 6a16 c13e d093 01bf 4868 4ebf
000001c0: 5dfd 863d 1831 35be d3a5 863e daae 7d3d
000001d0: ff89 b83d d0a1 f9bc abbb 8e3d effd 5bbe
000001e0: a765 cc3d 6413 94bb bbff 193d dc4c 9a3d
000001f0: 0aa3 d5be 2c67 e4bd bbd8 263e 7b33 6dbe
00000200: 4e70 1b3d 48e7 113e 3675 303c c083 b4bc
00000210: 39dc cc3d 3385 4e3e 8ec4 f8bc 1470 013e
00000220: ac4a bebe 9fc8 89bd 9c43 123e 9024 0cbe
00000230: 36ad 073c 773b c9bd 477d 5a3d 351f 28be
00000240: 8c9e ec3e e7d0 c5be 9554 0a3f 1f69 093e
00000250: 910d b33e 8d8f 34bf 6cfb 553e dbec 863e
00000260: b6f0 bbbd 8dd4 0f3b ea31 f6be 6c2a d6be
00000270: f00a 00bf fd73 b7be 1db2 a23c 6c45 e83e
00000280: 7905 83bd 0bfe 8c3e ce10 a2be cb0d 59bd
00000290: 018e 17be 8fd1 b1bc 5bc5 73bd 13b4 f6bc
000002a0: 90dd 18bd a49c 8f3e be15 72bd aa9e bfbd
000002b0: dd9b 093f 2c4e d93c 8597 72be f718 923e
000002c0: c1b1 52bd 45aa 883d b072 35bd 5e1d 24bb
000002d0: e03d 94bd 781c 33bc 3755 08bc f39c cfbd
000002e0: 0a10 6ebd 0ff3 513d 937e 25bd 6034 e23d
000002f0: 36fd 80bd 7708 e43d ab85 32be 3eaf 083e
00000300: f8df fd3e 0b3b 0abf 2fbd 0c3f 14e9 013e
00000310: ac66 e13e cca8 02bf 14ff 4b3e 094f a43e
00000320: 054d d6bd 638d 6ebc ee77 e9be 89e0 cbbe
00000330: 9956 ffbe 1ade afbe 3ea7 c23e db5a 1c3f
00000340: 463c ebbd 1574 9b3e 0720 9cbe fd4b c8bd
00000350: e1b7 34be bf9f dabc 1144 f1bd 555a e5bc
00000360: a5a9 83bd 9274 8f3e 3196 aebd 79aa febd
00000370: 6441 f93e 37a2 433d 2e79 a0be 9257 8d3e
00000380: 9c21 10be 2a37 50bc 1083 09be a377 abbc
00000390: 48f9 b5bd a433 36bd 8c89 fbbc 2ecd 0ebe
000003a0: 92a3 a73d 658c ad3d 676d eebc 2ad6 dc3d
000003b0: e08c 0abe 4eb5 013e c365 56be 9146 0e3e
000003c0: f4f4 ce3d d8ba 91be 2acd bbbd 455f b3be
000003d0: b358 cf3e 9078 c63e 7e14 99be b221 053f
000003e0: dec5 99be d2d5 673d a8df 453d 90f1 c0be
000003f0: ae3e 84be 2ff1 c3be 2cdf 8c3d a5db ca3e

decoder.attention.attn.bias f4 [16]
0.28022534 0.29394403 0.17386623 -0.33638498 -0.2855301 -0.28966534 -0.038725004 0.28168982
-0.27233142 -0.30845174 -0.54251266 -0.2618861 0.2995112 -0.33569178 -0.2719074 0.2691992
00000000: b279 8f3e d57f 963e fd09 323e a73a acbe
00000010: 0031 92be 044f 94be 1c9e 1ebd a639 903e
00000020: 066f 8bbe 63ed 9dbe 1ce2 0abf ef15 86be
00000030: 8859 993e cbdf abbe 7237 8bbe 7ad4 893e

decoder.attention.v.weight f4 [1, 16]
-0.23223022 -0.23039046 -0.19977947 0.2083305 0.22636716 -0.5798848 0.14682499 -0.21667033
0.20916148 0.21399017 -0.59845346 0.21223065 -0.20463283 0.21413994 0.23813708 -0.20761965
00000000: c2cd 6dbe 7aeb 6bbe fd92 4cbe 9754 553e
00000010: cbcc 673e 5573 14bf 4a59 163e d4de 5dbe
00000020: 6d2e 563e 3d20 5b3e 3f34 19bf fe52 593e
00000030: 458b 51be 8047 5b3e 35da 733e 3f9a 54be
