agl/models/autosave/new-AE-48-16-0.001.pt (torch, 62828 bytes, 21 tensors)

encoder.embedding.weight f4 [8, 48]
00000000: 263d 1b3a 3e14 5a3c 9ef5 833b ef5f 40bc
00000010: 549f 163b 3703 c839 939a c43a 8f3b 793b
00000020: 9e93 253c 2e65 5a3c db97 293a 1c35 22bc
00000030: fb0b 923c 27ca d5ba dd99 70bc 8d0a 443c
00000040: 194a 1ebc 9372 10bc 2c96 7b3c e198 dfba
00000050: 2331 f03a e23e c2bc 069f 11bc d36d 2d3c
00000060: 7e79 2e3c 9a0e 0abb f442 37bc 923f be3c
00000070: 57a9 36bc 1825 b63b b50d 353b b59a 11bc
00000080: a0e8 8fbb 69cc 75bc 4ce8 5039 708f 863c
00000090: 427b 2d3b 8fd7 ed3b 6106 62bc 1c03 423c
000000a0: fc78 08ba 37f4 383c ca2b 463c db4c 803c
000000b0: 50dc 1f3b 592c 34bc 4f28 3fbb 569c 943c
000000c0: b079 1cbe 8beb 22be 79a8 b13e d6a1 6b3e
000000d0: af78 c1be 0165 c53e 8b10 923e c2a1 8c3e
000000e0: d332 583e 8857 b0be aa57 80be 6265 c1bd
000000f0: 7e0b 93be 84bf 6dbe 5582 c7bd ee28 9b3e
00000100: dec9 a1be ad5a 2f3e 9c00 513e c0c3 873e
00000110: 0cf0 39be 46e1 c93e f4bb abbe fb10 06be
00000120: 77f9 b8be 7d64 9c3e 1b2e 653d d3b6 a2be
00000130: 520a 93be b345 b43e 4e09 b83e 881a ab3e
00000140: 2021 8e3e db00 a63e b630 a53e e800 bd3e
00000150: a4df db3e 5002 8abe 1e07 993e 6c20 973e
00000160: 9119 d5bd ef49 95be bb4d 913e d9f0 bb3e
00000170: 902d ad3e 1c63 8a3e 5aac acbe a109 abbe
00000180: d998 94bb 2339 823c fe45 c5bc 7e18 5c3c
00000190: ffda bb3c 13f4 d93c 239a b2bc 3783 6bbc
000001a0: e6cd f13b fdab a83c 23d3 a63c b6e4 213c
000001b0: c3b9 d93c 2045 653d 1b30 163d 2180 1cbd
000001c0: 5f5f 343d 9390 41bd 918a bebc d457 38bc
000001d0: 8bef 393d 451a 86bc b2b4 2b3c 1340 683d
000001e0: 3206 fc3c 667b e4bc 291d 153d 5fb0 f53b
000001f0: 8fd4 bb3c 71a5 b1bc 0b69 57bd 0a51 aa3c
00000200: 0160 223c e541 c5bc d9f6 9fbc b942 c03b
00000210: 5bb6 00bd 2e26 c0bc 472e 9b3c 3ed2 bbbc
00000220: 27f3 143d afa5 5e3c a83d 8dbb dfd2 7abc
00000230: b90b 933b de78 a0bc 8b08 debc aedf b73c
00000240: c650 b6bd 946b 0e3c 3fae d5bd 920f 72bd
00000250: 80ce c43e cd8b c33c c642 4ebe e3c2 52be
00000260: e94a 173c 25da 9e3e fedb 623e 511b febc
00000270: a766 a23e 09f7 dbbc 187b 0abd eab9 c2bd
00000280: 908f 683e 88d5 203d cadf b3bb 4962 c5bd
00000290: 1878 1cbd 4ee1 20be 06e4 293e 18f8 6dbd
000002a0: 713f c13c 19d2 71be f412 533c c043 8f3e
000002b0: 246f 303d 039d 87be 21a6 2bbe ef79 c43d
000002c0: 3498 a13d 1c2a 91be 9875 22bd 3dce acbe
000002d0: 6a02 b8be bf98 0c3e 209d 9dbe 6e1d b2be
000002e0: 12ed 7cbd d40f 283d 5c71 293b 7c06 8ebe
000002f0: 3314 d4bb e041 41be 4826 25bd f802 943e
00000300: c9e6 cbbc dff8 dc3c 3cd5 21bd 5caa 20bd
00000310: acc1 313c 5428 f53c 4520 e9bb 83e1 70bc
00000320: e464 6bbb 3dc2 733c 5f54 7f3d 9d4e 2d3d
00000330: b4f3 dcbb 9123 183d 4549 893d fcea 2fbd
00000340: ce2b eabb f703 2f3c 07df 5fbc 01ae 31bc
00000350: 3441 983c c2f4 edbc 2142 483d a45a 7e3d
00000360: ce6a 123d 478f 23bd 2453 3d3d cdaa 8b3b
00000370: e569 923c 0659 5bbc 7c0c cd3a 6c9f ee3c
00000380: ffaa 343c 50eb 47bb 41be f53a ca9c 84bc
00000390: 2fb8 eab9 c22e ed3c fc79 debc 6ab1 a43c
000003a0: be15 983c d74c 563c f164 81bb de2b adbc
000003b0: ef29 99bb 21f8 1c3c 58f0 8fbb c56e ac3c
000003c0: 0de4 173e 0cf8 bc3e 0dff 65be c810 9bbe
000003d0: 2a7c 05be 2716 ef3c f5cc 60be fd6a 3cbe
000003e0: 11a4 5abe 1631 533c 7b6b 503d b533 da3e
000003f0: bda1 423d cf24 a83e 5ea1 af3e 6338 6bbe
0.00059218926 0.01331049 0.0040270826 -0.011741622 0.002298315 0.00038149368 0.001499968 0.0038029884
0.010105995 0.013329787 0.00064694666 -0.009900358 0.017827978 -0.0016310856 -0.014685121 0.011965406
-0.009661221 -0.008816379 0.015355628 -0.0017059111 0.0018325191 -0.023711625 -0.008888012 0.010585266
0.010649083 -0.0021065832 -0.011185396 0.023223672 -0.011148772 0.005558621 0.0027626578 -0.008886983
-0.0043917447 -0.015002348 0.00019922963 0.016425818 0.0026471172 0.0072583626 -0.013795466 0.011841562
-0.00052060164 0.011288694 0.012095401 0.015661648 0.002439279 -0.010996901 -0.0029168313 0.018140953
-0.15280795 -0.15910165 0.34698847 0.23010954 -0.37787387 0.38553622 0.28528246 0.2746716
0.21113138 -0.3444178 -0.25066882 -0.09443165 -0.28719705 -0.23217589 -0.09741656 0.30304664
-0.31599325 0.17124434 0.20410389 0.26516533 -0.18157977 0.39429682 -0.33541834 -0.13092415
-0.36127827 0.30545416 0.055952173 -0.3178011 -0.2871881 0.35209426 0.359446 0.3341868
0.27759647 0.32422528 0.32263726 0.36914754 0.42944062 -0.2695489 0.29888242 0.29516923
-0.10405267 -0.2915797 0.28379616 0.3670719 0.33823824 0.2702874 -0.33725244 -0.33405784
-0.0045348224 0.015896386 -0.024081226 0.013433574 0.022931574 0.026605641 -0.021802014 -0.014374546
0.0073792813 0.020589823 0.02036435 0.009881189 0.026577836 0.055974126 0.03666697 -0.03820813
0.044036265 -0.047257017 -0.023259433 -0.011251409 0.04539446 -0.016369948 0.010480093 0.05670173
0.030764673 -0.027890872 0.036404762 0.0074978317 0.022928504 -0.021685334 -0.05259041 0.020790596
0.009910584 -0.024079273 -0.019526886 0.005867329 -0.031423908 -0.023455705 0.018942965 -0.0229274
0.0363647 0.013589307 -0.0043103285 -0.015309065 0.0044874814 -0.019588884 -0.027103683 0.022445526
-0.08902125 0.008692641 -0.104336254 -0.05909688 0.38438797 0.023870373 -0.2014266 -0.20582156
0.009234169 0.31025806 0.22154233 -0.031018885 0.31718943 -0.026851194 -0.033808798 -0.095081165
0.22711015 0.03926614 -0.005489324 -0.09637887 -0.038200468 -0.15710947 0.1659089 -0.05809793
0.023589822 -0.23615302 0.012882937 0.27981377 0.043074742 -0.26486978 -0.16762592 0.095935695
0.078903586 -0.2835244 -0.039662927 -0.33751097 -0.35939342 0.13730143 -0.3078394 -0.34788078
-0.061749525 0.04103072 0.002585492 -0.27739322 -0.0064721345 -0.18872786 -0.04031971 0.28908515
-0.02489032 0.02697414 -0.039509997 -0.039224967 0.010849398 0.029926457 -0.0071144425 -0.014702204
-0.003591829 0.014877853 0.062336322 0.0423113 -0.006742919 0.037143294 0.06703428 -0.042948708
-0.007146335 0.010682098 -0.013664014 -0.010844708 0.018585779 -0.029047374 0.04889119 0.06209816
0.035746388 -0.03993156 0.046221867 0.0042623044 0.01787276 -0.013387924 0.001564398 0.029128753
0.011027097 -0.0030505247 0.0018748717 -0.016188044 -0.00044769185 0.02895296 -0.027157776 0.020104129
0.018565055 0.0130798435 -0.0039488007 -0.021139082 -0.0046741883 0.009580643 -0.004392665 0.021048913
0.14833088 0.36907995 -0.22460575 -0.3028624 -0.13035646 0.029185368 -0.21953185 -0.18400188
-0.21351649 0.012890121 0.05088375 0.42617574 0.047517527 0.32840583 0.343028 -0.22970729

encoder.rnn.weight_ih_l0 f4 [48, 48]
00000000: b3e4 423e e408 ca3d 1b6b 27be 82bc 66bd
00000010: d901 083e 0a4a aebe fc45 cbbd c064 90bd
00000020: 1816 27be ffea 913e a5fb cb3d a185 c83d
00000030: 6c08 4d3e a944 453d 74e8 313d 1f83 c3bd
00000040: a0e1 843d dcb3 5bbc 5b67 563c 7fd5 e2bd
00000050: 2cea e63d fe54 34be 2bf7 b23d 4d5f a73c
00000060: 837d 71bc b9da 3ebe 245f 5a3c cc74 553e
00000070: fe30 77bc 98d7 1cbe 1d16 51be 621b 88be
00000080: 31ad 85be 2367 3cbe 7011 13bc 0a69 14be
00000090: 87c6 2ebe 2122 103e 1794 0abe aea9 dfbd
000000a0: 28df d6b9 128a b4bc 9ab7 15be 0e3f 62be
000000b0: 6bef a8bb a68b d5bd 4a2a 3e3e 6d55 bb3d
000000c0: a1a7 a43e 43dd 1d3e 3791 05be d004 b8bd
000000d0: 641c ccbb 52d7 95be 6a87 f1bc ad23 5f3d
000000e0: 445a 7ebe 0c98 033e 6fe7 093d 65a1 983e
000000f0: c2e6 db3c 3e4f ed3d 8297 203e 2708 8cbd
00000100: 285e 4dbd 730f 36be 828e 01bd 82cf a5bd
00000110: 9a37 8a3e 2812 71bd 7a4a 18bc 74bb 2c3e
00000120: 7122 e53d 1ac1 a4bd d419 0b3d 1503 e83d
00000130: 5ae5 133d 251b ad3b 5406 07be a3c2 c7be
00000140: f8cc b9be 9bd5 a5bc b5a6 6abd 90bc 9abb
00000150: f9da 0d3c 34c2 9b3d 27f9 273d 6cd2 5c3d
00000160: 016e fd3d dbe0 323d c602 51be 8e83 aebd
00000170: 1490 98bd 013d 20bd 85be bd3e f5a1 38bd
00000180: d040 dc3d bfbf 8c3c 3951 27be a9ed 90bd
00000190: 67d2 2d3e a767 9ebe 03c5 c9bd 4faa b1bd
000001a0: df6a d8bd 56ea ab3e 9410 ef3d a219 a33b
000001b0: 37c8 823e 99b0 7fbd f9e1 27bd 7cee 0cbe
000001c0: 40ee 6b3d 3605 e83c 31bd 1f3d 9636 edbd
000001d0: 99a9 643d 3636 2fbe 679e a33d dd64 cdbd
000001e0: 8ec0 f6bc f35b 5dbe b585 8dbc 52f7 733e
000001f0: 7e8e aabc 1ca7 36be 6e55 5cbe e0b8 1ebe
00000200: c4ce 04be a815 3bbe 6848 13bc b753 40be
00000210: d6d7 50be 4cd5 1c3e 774f d3bd 0a97 d1bd
00000220: 0c4c b3bd dc22 c1bb b899 f1bd 5d81 80be
00000230: 1035 063d 2b04 f9bd bfe9 c13d c191 d23d
00000240: c570 66be b5f0 9cbe 8fef be3e 8363 8e3e
00000250: eb34 98be 0e13 963e 208a a73e 9f84 fc3e
00000260: 7566 b53e d47b c3be e42c c7be d5b9 3abe
00000270: a038 acbe edb8 83be fe9b a0bd 93ce 993e
00000280: fce4 cdbe a16f 973e d217 9a3e db1b d73e
00000290: c7d7 35be 0a38 953e 3d54 ccbe 128c 9dbe
000002a0: 7b61 61be cfa5 e43e 2eb6 94be 28d7 32be
000002b0: 2e4c a5be 3e92 d43e e880 9b3e d119 153e
000002c0: 3a2b 733e 7851 e53e 83ae 973e 320d 003f
000002d0: 9ed8 8c3e df45 74be 7914 b93e 250f bd3e
000002e0: 0ee5 f6bd 5e69 82be 0f34 973e 7acd dc3e
000002f0: a23e bf3e 7a1a c53e 116a 7dbe 8eca dcbe
00000300: 3f36 b33e a3ee 583e 876a e4bd 692b 4abd
00000310: bedd bf3b 8231 b2be d3dc 05bd 3950 073d
00000320: 66a8 80be 7f9a 1d3e bcc1 e3bc 376d a13e
00000330: 243b e73c 27df 343e 1549 493e 0950 52bd
00000340: 0e59 99bc e86c 22be e02f eabd 13d2 66bd
00000350: a64f 903e 7362 cfbd 81c1 8b3d e5b9 503e
00000360: 10c0 7f3d 1762 b8bd 659a 313d 9dc2 153e
00000370: 2949 bb3d f31a 83bb cc0f 24be b628 ccbe
00000380: 746b d6be d5b4 62bd 7a5e 0dbd 45a2 13bc
00000390: d04d c9ba 84b5 653d 5898 f9bc e1fc f33c
000003a0: a8ca 043e 21ae 043d 689e 68be 4ca2 f5bd
000003b0: 19e8 83bd b788 12bd 2ff8 a93e db27 eebc
000003c0: 5011 893c 706e 373e 0613 41be 0438 49be
000003d0: b44d 1e3e 54a4 ff3d 4867 3bbe 8427 67be
000003e0: f8bf c6bd 00a9 fdbb 1fb6 383e b1df 923e
000003f0: 33da 4d3e 71ab 4d3e daa2 8d3e 8886 c9bd
0.19032554 0.09864977 -0.16349451 -0.05633212 0.13281955 -0.34040862 -0.09925458 -0.070504665
-0.16317022 0.284996 0.09960107 0.09791113 0.20022744 0.048161183 0.043434575 -0.09546494
0.06488347 -0.013409581 0.013086165 -0.110758774 0.112751335 -0.17610547 0.0873855 0.020431185
-0.014739397 -0.18638124 0.013328347 0.20845336 -0.015087364 -0.15316617 -0.20418592 -0.2658339
-0.26108697 -0.18398719 -0.008976325 -0.14493194 -0.1706792 0.14075519 -0.13533054 -0.10921036
-0.00040983525 -0.022038493 -0.1462082 -0.22094366 -0.005155494 -0.104270265 0.1857082 0.09147153
0.3215914 0.15416436 -0.13043676 -0.08985293 -0.0062289704 -0.2926584 -0.029483516 0.054477382
-0.24839121 0.1285097 0.033667978 0.29810634 0.026843432 0.1158738 0.15682796 -0.068374924
-0.050138623 -0.17779331 -0.031630047 -0.080962196 0.26995546 -0.058855206 -0.0092951 0.16868383
0.1118821 -0.08044644 0.03396018 0.11328713 0.0361074 0.005282777 -0.13186008 -0.39015684
-0.3628919 -0.020243457 -0.05728789 -0.0047221854 0.008658164 0.07605401 0.041009095 0.05391161
0.12374497 0.04367147 -0.20411214 -0.08521186 -0.07449356 -0.039120678 0.37059417 -0.04507633
0.107545495 0.017181275 -0.16339578 -0.0707658 0.16974793 -0.30938455 -0.0985203 -0.08675062
-0.10567259 0.33577222 0.11673084 0.004977421 0.25543377 -0.062424276 -0.04098699 -0.1376285
0.05760026 0.028322797 0.038998786 -0.11582677 0.055825803 -0.17110524 0.07989197 -0.10029004
-0.030121114 -0.21617107 -0.01727567 0.23824814 -0.020819899 -0.17837185 -0.21516964 -0.15500212
-0.129695 -0.1826998 -0.008989431 -0.18781935 -0.20394835 0.15315741 -0.10317891 -0.102338865
-0.08754739 -0.005894048 -0.11796898 -0.25098696 0.032765448 -0.12158998 0.09468412 0.102817066
-0.22503956 -0.30652395 0.37292144 0.27810296 -0.29727873 0.29311413 0.3272257 0.49319932
0.3542973 -0.3818041 -0.38901436 -0.18234952 -0.3363695 -0.25727025 -0.07842253 0.30040416
-0.40213764 0.29577354 0.30096298 0.4201344 -0.17758094 0.29144317 -0.3990802 -0.30770928
-0.22009842 0.44657752 -0.29045242 -0.17464888 -0.32284683 0.41517824 0.30371785 0.1456063
0.23746958 0.44788718 0.2962533 0.50020134 0.27509016 -0.23854779 0.36148432 0.36925617
-0.120554075 -0.25471014 0.29531905 0.43125516 0.37352473 0.38496763 -0.24747492 -0.43123287
0.35002324 0.21184783 -0.11153131 -0.049357805 0.005855291 -0.34803396 -0.032681298 0.03303549
-0.25128478 0.15390967 -0.02780234 0.31528637 0.028226443 0.17663251 0.19656785 -0.05134586
-0.018719222 -0.15861857 -0.11434913 -0.056352686 0.28185767 -0.101261996 0.06824017 0.20383413
0.062439024 -0.09003084 0.043360133 0.1462502 0.091448136 -0.0040010153 -0.16021651 -0.3987481
-0.41878855 -0.055348236 -0.034513928 -0.009010856 -0.0015358273 0.05608131 -0.030468151 0.029783668
0.12967932 0.032392625 -0.22716677 -0.11993846 -0.064407535 -0.035774913 0.33197162 -0.029071739
0.016731888 0.17913222 -0.18854913 -0.19650275 0.15459329 0.12482515 -0.18301117 -0.22573668
-0.09704584 -0.0077410936 0.18038224 0.28686288 0.20102768 0.20084931 0.27663308 -0.09840113

encoder.rnn.weight_hh_l0 f4 [48, 16]
00000000: bdbb 8b3e 6904 a43e e788 91be bd05 5abe
00000010: 4c8a 5ebe 7696 a3be e65e 6b3e a60a 51be
00000020: 9efb 82be 7045 993e bf66 4e3e b89b a0be
00000030: d774 573e 81d0 a2be e282 523e a761 a93e
00000040: 7876 bb3e ce6a ba3e e297 c1be 500a 9dbe
00000050: a357 a4be 19f9 b9be 43d4 aa3e 163f 9dbe
00000060: 7c2e b3be e3ce c53e ca37 893e 065f babe
00000070: f7b4 9a3e 71e3 cabe 72c3 933e 827e c23e
00000080: bf61 b73e 34a9 f33e 4313 dcbe b7bf 90be
00000090: 7cb7 8dbe 6dcb d8be 51ea 9c3e 78d0 81be
000000a0: e600 a7be 2f6e 043f a5f1 743e fcee e1be
000000b0: bff7 733e e0c5 eebe 58c8 8b3e dd6a 033f
000000c0: 7f52 233e 6789 453c 7a7b d1bc e28b a53d
000000d0: c483 aabe 58fa df3e 2e67 913e de19 cebe
000000e0: 41fd aa3e b70e 26bd 2016 a33e ef5c 57bd
000000f0: 88cd a23e e7a8 d1bc 449c 8f3e c4c2 24bd
00000100: af4a 6e3e 07fd 743e bddc 6ebe aa25 22be
00000110: ecb6 72be a85a 6cbe 84b2 743e e3ba 51be
00000120: fb9d 63be 96ed 793e b06d 553e 2af3 74be
00000130: dee6 643e c255 8bbe b69e 673e 1b01 4f3e
00000140: 2ba0 933e b233 853e 9618 b9be 947c 2b3d
00000150: fe25 8bbe 5bd6 aebd 6f56 643e ba76 72be
00000160: 6c9f 13bd b4da a83e 52b8 983e 5f61 74be
00000170: bac7 9d3e 6af2 86be e501 8b3e ba57 a73e
00000180: 905a 9e3e 0751 943e d904 91be 0566 63be
00000190: 929c 90be f06a 92be 24b7 923e e089 80be
000001a0: 70d0 89be 0f5f 773e d33b 893e ddd0 98be
000001b0: 4cb8 883e 63fd 91be 60b1 8b3e e776 883e
000001c0: 6e22 ad3e 89ea 683e a5c0 8ebe dfca 68be
000001d0: 0589 b1be 4c12 85be 9f31 a43e da33 94be
000001e0: 5400 a9be 6908 4a3e 723e b43e 8268 90be
000001f0: 6934 ad3e 2df0 84be 234d ad3e ba26 553e
00000200: 8474 e43e 3949 983e 7cb1 9ebe b777 37be
00000210: 9ba5 fcbe 933d 05be 39e6 f53e 15bb 10bf
00000220: b401 0cbe 96c1 723e 871e 083f 0b3f a7be
00000230: 86bf 063f 4d8b a4be 7128 023f 5209 673e
00000240: 8af5 b83e 2a18 a13e b9de b4be b584 9ebe
00000250: 3823 b0be 7e35 a4be 5ec9 a93e 3ad0 a0be
00000260: 65a0 babe 9a4d 9c3e 6c0e ad3e 3d85 a6be
00000270: ccb8 b63e 6a61 9fbe 3e81 b33e 80b4 a23e
00000280: bd94 713e 9a06 9e3e 9875 95be e07e 33be
00000290: 7793 4bbe 3495 86be d9d6 613e 1d92 5cbe
000002a0: 9f0a 57be e3d3 ab3e 0028 423e 9870 92be
000002b0: 9ce8 373e b8e9 9fbe 14c1 553e 4098 9f3e
000002c0: 0ea0 b43e a7fa a83e 197d aebe c49d 8cbe
000002d0: 77ab a2be 66e1 adbe c1ad a43e fd62 90be
000002e0: 9847 a7be bff7 a53e 0a1a 913e 0286 b0be
000002f0: 99b2 993e 4724 babe 476f 8f3e f94b ac3e
00000300: a637 553e 74d5 993e c339 81be 9628 17be
00000310: 78c1 15be 1cf4 75be 3a66 343e c8f2 1cbe
00000320: efdf 3bbe 4c3f ac3e 3b37 003e 6ae8 92be
00000330: 225f 143e cc4a a1be 3845 2e3e a057 b23e
00000340: 64f3 b53e 321a b23e be3e c6be a663 94be
00000350: 3a79 99be 6c53 b8be bc57 a03e 5b52 96be
00000360: dc1b b0be f310 bb3e a335 993e 5ef3 bebe
00000370: b545 8d3e 27eb bebe 7b2e 973e 47a7 be3e
00000380: 68d7 7d3e 3249 933e 807f 8abe a903 4fbe
00000390: 0747 77be a23e 80be 2856 673e c192 64be
000003a0: d8fa 78be 136b 953e bd77 503e a7a9 8ebe
000003b0: f8ac 5c3e 6db7 98be 739d 753e db25 923e
000003c0: 0d33 b33e 23a7 9e3e 6252 aebe 97c1 97be
000003d0: 54a3 a9be 332f 97be 6480 ab3e 4717 97be
000003e0: b082 b0be 1c77 853e 7e4e b73e 3f3f a4be
000003f0: 9e28 b73e 9852 9cbe 6d0f bd3e db83 913e
0.2729167 0.32034615 -0.2842476 -0.21291251 -0.21732444 -0.3195073 0.2298542 -0.20414218
-0.25582594 0.2993579 0.20156382 -0.31368804 0.21040665 -0.317997 0.2055774 0.33082315
0.36613822 0.3640961 -0.3781119 -0.3067193 -0.32098112 -0.3632286 0.33365068 -0.30712193
-0.34996402 0.38634405 0.26800376 -0.36400622 0.3021619 -0.3962665 0.2886005 0.37987143
0.35816762 0.4759003 -0.42983446 -0.28271267 -0.2767905 -0.42342702 0.3064752 -0.25354362
-0.32617873 0.51730627 0.23920305 -0.44127643 0.23824976 -0.46635342 0.27301288 0.51334935
0.15949439 0.012056685 -0.025571574 0.08083321 -0.33303654 0.43745685 0.28399032 -0.4025411
0.33396342 -0.040541377 0.31852818 -0.052578863 0.31797433 -0.025593234 0.2804891 -0.040224805
0.23270677 0.23924647 -0.23326392 -0.1583468 -0.23702592 -0.23081458 0.23896223 -0.20481448
-0.22228234 0.24407038 0.20842624 -0.23920885 0.22353694 -0.27213866 0.22619137 0.20215265
0.28833136 0.26016003 -0.3615157 0.041866854 -0.27177423 -0.08536979 0.22298597 -0.23678103
-0.03604071 0.32979357 0.29828125 -0.23865269 0.30816442 -0.26356822 0.27149883 0.32684118
0.3092847 0.2896807 -0.2832401 -0.22206886 -0.28244454 -0.28597212 0.2865535 -0.2510519
-0.26916838 0.24157356 0.26803455 -0.2984685 0.26703107 -0.2851363 0.27283764 0.26653215
0.3381533 0.22745718 -0.2788135 -0.22733639 -0.3467485 -0.25990522 0.32069108 -0.2894581
-0.33008063 0.1972977 0.35203892 -0.28204733 0.33829048 -0.2596449 0.33847913 0.20815554
0.44620144 0.29743364 -0.30994785 -0.17916761 -0.49345097 -0.1301177 0.48027208 -0.56535465
-0.13672525 0.2370666 0.5317158 -0.32665285 0.5263599 -0.32137528 0.5084296 0.22562149
0.3612483 0.31463748 -0.35326174 -0.30960622 -0.3440187 -0.3207206 0.33161443 -0.31408864
-0.36450496 0.30527955 0.33800066 -0.32523528 0.35687864 -0.3112901 0.3505954 0.31778336
0.23591895 0.30864412 -0.2919128 -0.17528868 -0.19880472 -0.26285708 0.22054614 -0.21540113
-0.21000145 0.33560094 0.18960571 -0.28601527 0.17959827 -0.31233 0.20874435 0.31170845
0.35278362 0.33003733 -0.34079817 -0.27464116 -0.31771442 -0.33961028 0.32163814 -0.28200522
-0.3267181 0.32415578 0.2834018 -0.3447724 0.30019072 -0.36355802 0.28014585 0.33651713
0.2082201 0.30045664 -0.2523938 -0.14761576 -0.14624584 -0.24018902 0.17617121 -0.15326989
-0.18347143 0.33642042 0.12521069 -0.28692943 0.14489415 -0.31502378 0.17018592 0.34832478
0.35537255 0.3478561 -0.38719743 -0.28982276 -0.299753 -0.36001146 0.31316936 -0.29359707
-0.34396255 0.3653637 0.29923734 -0.3729505 0.27592245 -0.37288782 0.2952765 0.37236997
0.24789202 0.2876678 -0.270504 -0.2021624 -0.24148189 -0.25047785 0.2259146 -0.22321607
-0.2431444 0.29183254 0.20358177 -0.2786381 0.21550357 -0.29827443 0.23985843 0.28544506
0.34999886 0.3098689 -0.34047228 -0.29639885 -0.33132422 -0.29528198 0.33496392 -0.29509947
-0.34474707 0.26067436 0.35802072 -0.32079503 0.35773176 -0.30531764 0.3692583 0.2842091

encoder.rnn.bias_ih_l0 f4 [48]
00000000: a6d4 5f3e b7f4 0b3e 2f26 543e d7b3 6dbe
00000010: 0f16 7f3e 6ef0 e33d 39a1 5d3e 43ad 2a3e
00000020: 7e55 a43c f1d7 803c 4e2c 953e 4d4b 0b3e
00000030: 5610 a53e c60b 183e 6b76 843e cb14 d7bc
00000040: a31d 04bf 2eee 10bf 331a 1cbf 9c30 efbe
00000050: 99e4 f2be a4d7 0bbf 4772 00bf 2824 f2be
00000060: 3149 fabe 8f43 15bf a3de dbbe 875b 10bf
00000070: b2df ddbe a7ca 0fbf 8c77 e9be 55fb 04bf
00000080: fca0 7f3d 7d05 5d3e 6ced 14be 21e7 93bd
00000090: 68c5 9bbd 9f77 eebc 55a6 0c3e 1607 f2bd
000000a0: cfa0 d03c 38f1 6f3e 1976 403d 7e39 2cbe
000000b0: 18b9 c63b 38d8 45be f049 ad3d bea9 423e
0.21858463 0.1366757 0.20717691 -0.23213135 0.24910758 0.11129843 0.21643533 0.16667657
0.020060297 0.015727969 0.29135364 0.13602944 0.32239026 0.14848241 0.25871596 -0.026255032
-0.5160772 -0.56613433 -0.60977477 -0.46716774 -0.4744003 -0.54625916 -0.50174373 -0.4729321
-0.48883966 -0.5830621 -0.42943296 -0.5638966 -0.43334728 -0.561686 -0.4559902 -0.51946
0.062409386 0.21584125 -0.14543694 -0.07221819 -0.07606012 -0.029109774 0.13735326 -0.11817758
0.025467305 0.23431861 0.046987627 -0.16818807 0.0060645454 -0.19320762 0.08461368 0.19010064

encoder.rnn.bias_hh_l0 f4 [48]
00000000: a6d4 5f3e b6f4 0b3e 2926 543e d5b3 6dbe
00000010: 0f16 7f3e 6ef0 e33d 36a1 5d3e 3ead 2a3e
00000020: 8755 a43c 05d8 803c 4f2c 953e 4d4b 0b3e
00000030: 5710 a53e c30b 183e 6d76 843e c914 d7bc
00000040: a31d 04bf 31ee 10bf 301a 1cbf 9d30 efbe
00000050: 98e4 f2be a2d7 0bbf 4772 00bf 2b24 f2be
00000060: 3349 fabe 9143 15bf a4de dbbe 855b 10bf
00000070: b4df ddbe a7ca 0fbf 8f77 e9be 56fb 04bf
00000080: 7e07 bb3d d722 443e e211 77bd 7044 153d
00000090: 8a95 13be bffc 1b3d 8c97 463e 34a0 2cbe
000000a0: d1b4 6e3d 8c22 123e d42b 013e 6d46 30be
000000b0: b831 a93d ee86 38be 96e5 1f3e b0b5 d53d
0.21858463 0.13667569 0.20717682 -0.23213132 0.24910758 0.11129843 0.21643528 0.16667649
0.020060314 0.015728006 0.29135367 0.13602944 0.3223903 0.14848237 0.25871602 -0.026255028
-0.5160772 -0.5661345 -0.6097746 -0.46716776 -0.47440028 -0.54625905 -0.50174373 -0.4729322
-0.48883972 -0.58306223 -0.429433 -0.5638965 -0.43334734 -0.561686 -0.45599028 -0.5194601
0.091322884 0.19153915 -0.06031979 0.03644222 -0.14412513 0.038082834 0.19393748 -0.16857988
0.05827791 0.14270991 0.12614375 -0.17214365 0.08261436 -0.18020222 0.15614924 0.10435045

encoder.rnn.weight_ih_l0_reverse f4 [48, 48]
00000000: 1a64 243e f1f1 9c3c 5fb0 aabc 9c73 61bc
00000010: 2424 a3bb 4b53 3bbe 2ef2 653c fd50 283d
00000020: 77ad f6bc 626a 29bd 8146 7dbd 3599 9f3c
00000030: dbfd 0fbd b45b 9ebb 6eb6 9c3c 5a8f b0bc
00000040: b7ad 42bd e06e c4bc 9642 abbb d75a 213d
00000050: 4d2c 943d 6d47 153c aef8 43bd 5104 8f3d
00000060: 9e17 c1bc 402d 7e3c 2e52 cbbc b958 f73c
00000070: 7695 e23c 07b9 8cbc c2f5 9dbc 9ea0 4bbe
00000080: 89f9 3abe cc8a 383c c7b4 813c 3999 143d
00000090: 3462 3f3b 6750 26bd 71ea 9b3c e0c1 073b
000000a0: e368 403d 9559 62bb 262c f4bd 32ae 2cbc
000000b0: a0c2 f33a a516 4a3d 20a8 0a3e 3671 21bd
000000c0: 3a75 a43d f59e 4d3e 7a56 35be cb53 21be
000000d0: 0837 fe3d 099d 0dbd d265 2bbe b39f acbd
000000e0: fc9f d7bd 189d 0b3e db17 243e 7fcf fe3d
000000f0: e556 1b3e c005 f63d 62e1 1a3e b9a7 27be
00000100: c9e2 a73d a3ef 0abe dfb7 06be 5c75 39be
00000110: e347 fe3d f3b6 c6bd d766 1d3e 591e 103e
00000120: 6335 b83d eee6 ecbd e95e 3d3e deb9 a83d
00000130: 66ad 183e 7330 1dbe 65f0 f7bd f6b5 9dbd
00000140: 2c88 f7bd 78cc 14be c631 dcbd 1c93 38be
00000150: 19b0 03be 220c 0a3e 7c30 f1bd 5002 c2bd
00000160: 357e c33d a584 183e afdd cfbd 36e8 dabd
00000170: 3f16 f6bd 3c2d 2bbe 8a7b 233d ae95 ed3d
00000180: c23d 033e 5135 ab3c 39ae 1abd 8e19 aebb
00000190: 306e 173d 6f12 25be 2a02 be3b 0abc 3ebb
000001a0: 6cf2 ccbc 7f62 9d3b e860 cdbc d6e7 b63c
000001b0: e8b8 2fbb c0d7 b3b9 d52e f63c d845 86bd
000001c0: cbd2 c43a a94a f7bc e4b8 10bc 8405 f73b
000001d0: 44c4 933d eef7 b9bc 37ad d7bb 88d7 af3d
000001e0: ca22 a83b c796 4abc c5e3 c83a 3ee7 473d
000001f0: 15d4 903c faf3 2abd 6bc0 95bd 60cd 36be
00000200: c964 29be ad6c c8bc 7b8e 82bc 6dcd 07bd
00000210: e7ce 9ebc 8a74 88bc d2c0 473a 10cb 14bc
00000220: a9bd 273d 0316 78bb 75c9 ebbd 2b13 7bbd
00000230: 4964 2cbd e670 8c3b 9e3a c73d e319 debb
00000240: a0c5 843d ff8e 3f3d 27c4 80bd 6c2e 51bd
00000250: 891e 873d d83b b1bd 58e3 f6bc c550 89bc
00000260: 03be 33bd 0423 92bb e6bc ebbb a907 803c
00000270: 250f 273d c37d 913c 51b0 193d aca3 9fbd
00000280: 4652 103d 19ee 07bd 646a 40bd ce74 22bd
00000290: 38a0 583d 8cbd 9dbc 13d7 e03b a011 9d3d
000002a0: 2c25 70bc 5d96 4ebd 1a7a 353d c32a a73d
000002b0: a918 0b3d f974 6cbd f82d a3bd 7dfc 0bbe
000002c0: da8b 09be 58b8 57bd f581 0bbd d451 80bd
000002d0: 1870 89bd 5420 243c 9d06 6fbc 36b3 87bd
000002e0: c02a 7c3d d1c5 6f3c 0a56 c7bd a919 a6bd
000002f0: 9be7 e4bc 0327 cabc 146e 883d 04fa d83c
00000300: e8ea 90bb ae59 d33d a1fd d2bd b939 ccbd
00000310: d612 493d 32dc 443d 13c4 babd 885a 3bbd
00000320: 1514 44bd 1470 b73d f568 a73d 9960 943d
00000330: e5a5 843d 456f 2c3d f592 b83d 8140 05be
00000340: 899e 093d 9682 9bbd c458 dabd f310 b5bd
00000350: 6d39 873d 2766 4abd feda 433d e8ee a93d
00000360: 5836 3a3d 9e9d 65bd 7f14 123e 5a18 0a3d
00000370: 7497 b63d c89f a3bd 2bb4 92bd 6dd9 1cbd
00000380: f6d0 9ebd b4ba b3bd 97f6 74bd 806e e4bd
00000390: e12e 81bd 2829 bd3d a7bb b2bc 2d49 42bd
000003a0: a7f4 873d 09b6 8b3d dd12 54bd 7290 a2bd
000003b0: 308a 73bd 0a03 a4bd c5db 04bd 409b 733d
000003c0: 28b9 b43d ef13 173d a015 88bd ad53 84bd
000003d0: a59f fb3c c85c 1fbd b329 a8bc 2b31 773b
000003e0: a6ff 52bd eae2 743c f6cf 4b3c eaf1 443d
000003f0: 1803 983c 7c06 053c 5af6 073d e5ee a4bd
0.1605381 0.019158335 -0.020836053 -0.013760474 -0.0049786735 -0.18293492 0.014034791 0.04109286
-0.030112011 -0.04136122 -0.061834816 0.019482234 -0.035154205 -0.004832709 0.019129958 -0.02155273
-0.04752895 -0.02397865 -0.0052264435 0.039393272 0.07235012 0.0091112675 -0.04784458 0.06983245
-0.023570832 0.015513718 -0.02481946 0.030193673 0.02765916 -0.017178072 -0.019282226 -0.1988549
-0.18259253 0.0112635605 0.015833272 0.036278937 0.002920282 -0.04060402 0.019032689 0.0020714924
0.046975028 -0.0034538258 -0.11922483 -0.010539578 0.0018597431 0.049338 0.13540697 -0.039414607
0.08030172 0.20080169 -0.1770877 -0.1575462 0.1241284 -0.03457359 -0.1673806 -0.08428898
-0.105285615 0.13634145 0.16024725 0.124419205 0.15169866 0.120128155 0.15125039 -0.16372575
0.08197553 -0.13567977 -0.13156079 -0.18111175 0.12416055 -0.097028635 0.15371262 0.14074077
0.08994558 -0.11567484 0.18493237 0.08238576 0.14909896 -0.15350513 -0.121063985 -0.07700722
-0.120865196 -0.14531124 -0.10751681 -0.18024868 -0.12860145 0.13481191 -0.11776826 -0.09473097
0.095455565 0.1489435 -0.10149705 -0.10688822 -0.12015962 -0.16716474 0.039912738 0.11600815
0.12816527 0.020899447 -0.037763808 -0.005313105 0.036970317 -0.16120313 0.005798598 -0.002910378
-0.02501794 0.0048030014 -0.025070623 0.022327345 -0.0026813094 -0.00034302287 0.030051628 -0.065562904
0.0015016434 -0.030186968 -0.008833144 0.0075384993 0.07215169 -0.02270123 -0.006581928 0.08586031
0.0051311003 -0.01236505 0.001532667 0.048804514 0.017679254 -0.04173658 -0.073120914 -0.17851782
-0.16542353 -0.024465883 -0.01593708 -0.033154894 -0.019385768 -0.016657133 0.000761998 -0.009081617
0.04095236 -0.0037854917 -0.11513034 -0.061297577 -0.042087827 0.0042859195 0.09727977 -0.0067779883
0.064830065 0.04676723 -0.06287413 -0.051069662 0.06597621 -0.086539924 -0.030137703 -0.016762147
-0.04388238 -0.0044597406 -0.0071941493 0.015628653 0.040785927 0.017760163 0.037521664 -0.0779489
0.035234712 -0.033186052 -0.046976462 -0.039662175 0.05288717 -0.019255422 0.0068615763 0.07669377
-0.0146573 -0.050436366 0.0443059 0.08162453 0.033959065 -0.05772874 -0.07967752 -0.13670535
-0.13432255 -0.05266604 -0.034059484 -0.062656075 -0.06710833 0.010017473 -0.014588979 -0.06625979
0.061564207 0.014634565 -0.097332075 -0.08110363 -0.02794247 -0.024676805 0.06661621 0.026486404
-0.0044225343 0.103198394 -0.10302282 -0.09971947 0.04909023 0.048061557 -0.091194294 -0.045740634
-0.047870714 0.08956924 0.08174316 0.07244987 0.06476954 0.042098302 0.09012405 -0.13012888
0.033598457 -0.07593267 -0.10661462 -0.088411234 0.0660275 -0.049413826 0.04781627 0.08297521
0.045461982 -0.05605852 0.14265631 0.03371463 0.08915606 -0.0798946 -0.071632706 -0.03829329
-0.077547 -0.08775845 -0.05980548 -0.11153889 -0.063077696 0.092363656 -0.021817995 -0.047433067
0.066384606 0.0682183 -0.051775802 -0.07937707 -0.059457958 -0.08008392 -0.03243615 0.05947423
0.08824378 0.036884245 -0.0664475 -0.064612724 0.030715773 -0.038906842 -0.020527696 0.0037718515
-0.051513337 0.014946679 0.0124397185 0.04808227 0.018556163 0.008119222 0.033193924 -0.08053378

encoder.rnn.weight_hh_l0_reverse f4 [48, 16]
00000000: 5edd 6b3e 0674 1e3e 8572 4f3e 0972 41be
00000010: 956b 22be 89fe 30be c092 183e bb7f 943e
00000020: 5cbf 5c3e f20e 49be 030e 50be b41f 43be
00000030: 02ea 17be 0c05 38be 7516 473e afdf 75be
00000040: 961a 2c3e c6c6 843e 6ca5 413e 94b1 3ebe
00000050: 2e79 87be 9bc6 4bbe 9464 8a3e b247 063e
00000060: 2673 203e 2d24 4fbe 6f91 58be a342 61be
00000070: 5be3 72be 63e0 5ebe b08c 3f3e c3e4 17be
00000080: 2461 503e 502b 243e 1113 353e 99b1 32be
00000090: 8059 21be 88c9 39be bf30 163e a03c 793e
000000a0: b58d 413e eaee 30be c6fd 43be 3cf1 30be
000000b0: bbc4 18be d164 2fbe 9fa9 363e 8f2f 4fbe
000000c0: 61d8 3a3e a46c 143e e5a2 463e 04fb 3fbe
000000d0: 1f06 13be 0690 4ebe e97a 243e 89ae 543e
000000e0: 5d50 393e 6eff 46be d9f1 4ebe 7f6e 37be
000000f0: 2d61 2bbe 3f11 34be 5e3a 2e3e d355 58be
00000100: 55b7 463e c897 483e bce6 453e ad5e 60be
00000110: 7050 57be f71a 69be 26b2 723e 49ed 2c3e
00000120: 5e58 363e 706d 50be e19a 51be f1e3 41be
00000130: 2764 63be 6ad7 4ebe f129 5a3e 408b 41be
00000140: ff66 2f3e 775c 203e afb9 2c3e da3f 2fbe
00000150: 1fc0 2abe 2ac6 2cbe e397 373e 386c 2d3e
00000160: c1e8 2a3e 8102 38be 9f11 4cbe 7182 2cbe
00000170: ac5b 31be a7d8 31be 61eb 2d3e 90ad 38be
00000180: 6268 343e 17b0 6c3e e625 5c3e d9ed 4dbe
00000190: 3d6a 63be 6aec 6fbe d02e 863e ebd2 3c3e
000001a0: 541b 243e 7db6 67be a816 53be 1b91 68be
000001b0: 5605 6bbe b1a9 57be 20a1 463e c424 26be
000001c0: 9582 5c3e cba0 b13d 63b4 2d3e 9070 1dbe
000001d0: afe6 9bbd 4aca 05be c52b c13d 1d03 af3e
000001e0: 2db6 3f3e 21dc 0cbe ef77 26be 0d9f 04be
000001f0: 8460 ecbd c3c6 d4bd d54e 1b3e 0753 77be
00000200: 3ba3 703e 48d6 393e 0f19 663e dfc3 65be
00000210: b4cb 4dbe db2a 62be 8244 303e 6e9a 803e
00000220: 17d6 663e 8b28 5cbe a8b4 70be ce3e 65be
00000230: 0180 4bbe 0cb3 56be bd61 713e eed2 6abe
00000240: 3701 443e b613 0e3e 18ce 443e 2c0b 3bbe
00000250: 2a1d 1cbe 74e8 3cbe 9307 2f3e a05a 443e
00000260: 6fc8 3e3e fd01 41be 7327 32be df25 47be
00000270: 0bd9 17be d76a 31be a4ae 313e 8337 20be
00000280: c4e8 333e 1023 1f3e 5337 443e 3694 36be
00000290: bf02 2bbe b7cf 41be 4725 363e 9460 483e
000002a0: 6b8a 373e b2ce 39be 37f7 49be 09d9 33be
000002b0: 027d 35be 62d7 2cbe e26c 333e 191c 43be
000002c0: d101 3a3e 3f25 163e ef81 4f3e 5c12 3dbe
000002d0: e540 32be 3dfb 36be e41a 273e cc3f 553e
000002e0: 570f 4f3e feed 25be 78d0 40be 4aac 33be
000002f0: 7365 29be 4ef6 30be ce29 403e c90b 3bbe
00000300: e3d1 3b3e 7443 393e e48b 463e c765 4bbe
00000310: 575e 4bbe 4a23 64be abfb 453e 1122 3c3e
00000320: b900 3d3e 5010 5dbe f891 54be 35d2 4cbe
00000330: 57ea 46be 0d3f 44be 0bf3 3f3e e63f 30be
00000340: bb54 393e 358f 4d3e 3c08 533e 1d47 47be
00000350: 4b60 3cbe cdc7 5fbe 017f 6e3e 7a8d 2a3e
00000360: 02f8 473e 6dfe 44be 19bf 49be 95a7 60be
00000370: 0ee4 44be e4ea 50be 78be 4e3e c6d3 3ebe
00000380: 4506 513e fb09 333e 22a9 4a3e 5f02 48be
00000390: 3039 38be 912f 39be 4e34 353e edf8 403e
000003a0: 9ea6 373e 3500 48be 917f 42be d61a 42be
000003b0: aaaf 39be a894 27be 7207 5a3e a566 50be
000003c0: 1009 6b3e 2c22 2a3e 656c 4c3e 3b49 4fbe
000003d0: 5395 3ebe b254 45be a8f6 363e cc7b 803e
000003e0: 75f5 693e 6467 51be 5d32 53be b83c 48be
000003f0: 14f2 35be 5bb1 48be 8cf9 553e 8949 73be
0.23033664 0.15473947 0.2025853 -0.18891157 -0.15861352 -0.17284597 0.1489973 0.290037
0.21557373 -0.19634607 -0.20317845 -0.19055063 -0.1483536 -0.17970675 0.1944216 -0.2401111
0.16807017 0.25932902 0.1891076 -0.18622428 -0.2645964 -0.1989998 0.2702986 0.13113287
0.15668926 -0.20228644 -0.21149229 -0.21998076 -0.23719542 -0.21765284 0.18706012 -0.1483336
0.20349556 0.16032147 0.17683055 -0.1745056 -0.15756798 -0.18143284 0.14667033 0.24339533
0.18901713 -0.17278638 -0.19139776 -0.17279524 -0.14918797 -0.17128302 0.17838143 -0.20232986
0.18246605 0.14494568 0.19398077 -0.18748099 -0.14357804 -0.20172128 0.16062512 0.20769705
0.18097062 -0.19433376 -0.20209445 -0.17913245 -0.16736288 -0.17584704 0.17014453 -0.2112649
0.19405873 0.1958915 0.193263 -0.21911116 -0.21026778 -0.22764193 0.2370077 0.16887392
0.17807147 -0.20354247 -0.20469238 -0.18934609 -0.22206174 -0.20199361 0.21305062 -0.18900776
0.17129134 0.15660273 0.16867708 -0.17114201 -0.16674851 -0.16872469 0.17929034 0.16935813
0.16690351 -0.17969705 -0.19928597 -0.16846634 -0.17320126 -0.17367803 0.16984321 -0.18034959
0.17617944 0.23114048 0.21498832 -0.20110263 -0.22208495 -0.23430029 0.2620759 0.18439834
0.1602605 -0.22628208 -0.20614111 -0.22711603 -0.22951254 -0.21060826 0.19397402 -0.16224962
0.21534188 0.08673247 0.16963343 -0.1537497 -0.07612359 -0.13065448 0.094321765 0.34182063
0.18721838 -0.13755848 -0.16256689 -0.12951298 -0.115418464 -0.10389473 0.15166791 -0.24152766
0.23499767 0.18148148 0.22470497 -0.22438 -0.20097238 -0.2208666 0.17213634 0.2511782
0.22542606 -0.21499841 -0.23506415 -0.2238724 -0.19873048 -0.20966738 0.2357244 -0.22932026
0.19141088 0.13874707 0.19219244 -0.1826598 -0.152455 -0.18448049 0.17092733 0.19175196
0.18631147 -0.18848415 -0.17397861 -0.1944804 -0.14828889 -0.17325912 0.17351776 -0.15646176
0.17569262 0.15540719 0.1916173 -0.17829975 -0.16700266 -0.18926893 0.17787658 0.19568092
0.17923896 -0.18145254 -0.19723211 -0.17563261 -0.17723468 -0.16879037 0.17522004 -0.19053687
0.18164755 0.14662646 0.2026441 -0.18464035 -0.17407568 -0.17869277 0.16318852 0.20825118
0.20220695 -0.16204068 -0.18829525 -0.17546192 -0.16542606 -0.17281458 0.18765947 -0.18266214
0.18341784 0.18092138 0.19389302 -0.19863044 -0.19860207 -0.22279087 0.19334285 0.1837237
0.18457307 -0.21588254 -0.20758808 -0.20002063 -0.19425331 -0.19164677 0.18745057 -0.17211875
0.18098728 0.2007416 0.2060861 -0.19460721 -0.18396108 -0.21853562 0.23290636 0.16655532
0.19528201 -0.1923768 -0.19701804 -0.21938927 -0.19227621 -0.20402104 0.20189846 -0.18635473
0.20412548 0.17484276 0.19791082 -0.19532155 -0.17990565 -0.18084551 0.17695734 0.18844958
0.17934653 -0.19531329 -0.18993975 -0.1895555 -0.18133417 -0.16365302 0.21291903 -0.20351656
0.22952676 0.16614598 0.19963224 -0.20242779 -0.1861165 -0.1927059 0.1786753 0.2509445
0.2284754 -0.20449597 -0.20624681 -0.19554412 -0.17768127 -0.19598906 0.20895976 -0.2375852

encoder.rnn.bias_ih_l0_reverse f4 [48]
00000000: 2b37 023e 6e91 8f3c 8288 f13d 1aec e63d
00000010: 8118 5f3d ebb5 a03d 7e9c 0b3d 4ea6 f13d
00000020: a560 1a3e ec04 bf3d 1f01 e53d ace8 af3d
00000030: 236f 973d 0605 9f3d f400 eb3d 8a6c 153e
00000040: 9b03 553d d38d bd3d b0ac 8c3d a87b 893d
00000050: 2161 8a3d e7eb af3d 4cde b43d 3c06 c9bd
00000060: 52c6 333d 9241 a93d e4ec 903d 2c6f ab3d
00000070: 3a07 6d3d 3c55 8b3d 2913 753d b8a5 a53c
00000080: d5d4 563d 2b98 8cbc d265 483d bd3c 48bd
00000090: 62af 3cbc 7008 f8bc 63be 92bb 0463 643d
000000a0: f9fd 803d 8a04 1dbd 136c 4ebd 730f 11bd
000000b0: a8a5 f0bc 67a5 f9bc 069d 493d 31fa 7dbd
0.12716357 0.017525401 0.11793615 0.112755015 0.054466728 0.07847198 0.03408479 0.11799298
0.1507593 0.09327111 0.111818545 0.085893005 0.073942445 0.0776463 0.11474791 0.14592186
0.05200539 0.092555664 0.06868875 0.06713039 0.06756807 0.08589917 0.08831462 -0.09815642
0.043890305 0.0826446 0.07076433 0.08370814 0.05786822 0.068033665 0.059832726 0.020220622
0.052449066 -0.017162403 0.04892523 -0.04888605 -0.011516424 -0.03027746 -0.0044782623 0.05575849
0.062984414 -0.038334407 -0.050396036 -0.035415124 -0.029375866 -0.030474378 0.049222015 -0.06200618

encoder.rnn.bias_hh_l0_reverse f4 [48]
00000000: 2b37 023e 6c91 8f3c 7d88 f13d 15ec e63d
00000010: 7f18 5f3d e6b5 a03d 849c 0b3d 4aa6 f13d
00000020: a760 1a3e ea04 bf3d 1a01 e53d a4e8 af3d
00000030: 256f 973d 0805 9f3d f000 eb3d 8a6c 153e
00000040: 9403 553d cf8d bd3d b2ac 8c3d a47b 893d
00000050: 1d61 8a3d e8eb af3d 4bde b43d 3a06 c9bd
00000060: 58c6 333d 9841 a93d e4ec 903d 2c6f ab3d
00000070: 3d07 6d3d 3c55 8b3d 2513 753d bea5 a53c
00000080: dd04 6a3d 2244 083b 8b6f 553d 54e4 54bd
00000090: ab67 b5bc a2d4 0abd b5b3 2c3c 2395 8e3d
000000a0: 6e87 8d3d d1d3 29bd be12 5dbd caa8 22bd
000000b0: 0ada 14bd 7463 1abd c6d5 583d 5a9e 8dbd
0.12716357 0.017525397 0.11793611 0.11275498 0.05446672 0.078471944 0.03408481 0.11799295
0.15075932 0.09327109 0.11181851 0.085892946 0.07394246 0.077646315 0.11474788 0.14592186
0.052005365 0.092555635 0.068688765 0.06713036 0.06756804 0.085899174 0.088314615 -0.09815641
0.043890327 0.08264464 0.07076433 0.08370814 0.05786823 0.068033665 0.05983271 0.020220634
0.057133544 0.0020792563 0.05210833 -0.051975563 -0.02214416 -0.03389419 0.010540892 0.06962039
0.06910597 -0.04146177 -0.053972952 -0.03971175 -0.03634075 -0.037692502 0.052938245 -0.06914969

encoder.fc.weight f4 [16, 32]
00000000: 0666 883e 0591 8b3e b8a1 91be 4418 1a3e
00000010: 1788 8dbe 01ab f8be 08ec 873e 11dd 92be
00000020: 0031 2fbf 9f52 813e 40a4 943e 96a5 8cbe
00000030: 847b 9c3e e373 8dbe 8c8f 843e 0ca8 8f3e
00000040: b341 7cbe 05ff 0e3d dd22 88be b206 7a3e
00000050: cd54 593e f20a 963e 3a0e 47be 06d2 83be
00000060: 7f51 84be 9625 8f3e cc43 893e 757c 923e
00000070: 270c 803e 5cf2 7b3e 07eb 85be 5174 803e
00000080: 8183 103d 920f f53c 92ad 3fbd 2839 eebc
00000090: 0c5e 68bc aa4a 9f3d 59fc 0b3d 09f1 d6bc
000000a0: 932c 3f3e 034d b13a 6e5a 3f3d d77d 21bd
000000b0: 47f2 783d faac 45bd e623 3b3d 3ac1 11bc
000000c0: 3878 35be b9f1 35be 9de3 4bbe bedf 473e
000000d0: 83b8 4d3e 610d 533e 8d0a 57be b9ac 27be
000000e0: ddbc 2ebe e975 493e a42c 433e a3e7 573e
000000f0: e78c 3d3e 8072 613e a97c 3dbe 7367 1f3e
00000100: 1729 643d 5f14 773d 6617 82bd 72a2 e1bc
00000110: 578b 46bd 3fb6 24bc c0aa 3f3d 8a33 31bd
00000120: 7e17 423c 8a74 553d d042 6b3d 6895 84bd
00000130: baa4 983d 9e32 53bd 3f58 503d d2a4 303d
00000140: 4256 d9bb bee1 aa3c 302c b4b7 fddb 8b3c
00000150: 69bb 07bc 5808 d43a acff c13b db26 e73c
00000160: d574 d8bc e85e 313c 2dac e83c c2c5 c23c
00000170: 0c48 5e3c d16c 293d 1690 f3bc f184 bb3c
00000180: 9d9a 043e b887 873d 9afc bfbd d1e9 d7bc
00000190: 9f80 2ebe 7b12 08be c0a7 003e a04c 28be
000001a0: 1c74 51be c14f a13d 903d 2e3e 1a5b bdbd
000001b0: f9b9 423e 2a38 b6bd 5da0 2d3e f6a2 e83d
000001c0: 11dd 1cbb 3bb1 163e 9e9a 483c 2aa0 cbbb
000001d0: 4d70 d6bd a533 9fbd d13f 0b3e 6063 eebc
000001e0: c85e 9dbc 281f 3dbd e04d f9bc 81a3 9abd
000001f0: 6111 70bd 4df1 89bd 36d9 1a3d 9c71 663c
00000200: 3ae5 4f3e ef8a 1b3e 739d 2abe 83bc ae3d
00000210: 9767 64be 20eb a8be 1c26 5d3e 7312 81be
00000220: 55b6 f5be 891d 1a3e e70d 783e ad36 2cbe
00000230: 4eb9 883e bf2d 32be 15fc 7f3e d380 5e3e
00000240: 0389 d2bd 7cf9 ea3c b568 cdbd 6648 023e
00000250: a117 7e3d b2ac 993d e4a8 dbba 2692 d3bd
00000260: e193 08be 1776 b43d d549 ce3d 3ba0 8d3d
00000270: b339 a63d 3dfd af3d 12a9 e2bd e41b ea3d
00000280: ea55 e8bc 1c3f 64bd bd7b bd3c c061 c4bb
00000290: 58a9 c63c fd73 abbd 2618 bebc ca58 5b3c
000002a0: 86d9 3bbe 33bd ec3b 902c 96bc 119e cf3c
000002b0: 20aa a3bc aa56 ce3c 80c4 9fbc de66 583b
000002c0: ac81 2d3e 3944 4e3e b385 2f3e 8256 2fbe
000002d0: 9178 60be 9550 6bbe 2662 643e 77ce 0e3e
000002e0: a3ee 1d3e 21dd 4fbe d0c7 3abe 16b4 56be
000002f0: d980 42be 6ae3 4ebe e330 393e 291e 1ebe
00000300: abca 4e3c 2ae0 f13c 73d0 36bd 5fe6 b3bd
00000310: 185b 02bd bf0d f83d a2cf b63c ce76 06bd
00000320: 9798 7f3e 840c febc d4a6 293d 4e17 adbc
00000330: 57e2 1f3d d8e2 0bbd 5a76 f33c c805 13bd
00000340: 571d 6ebe 1107 8ebe 3ff2 81be 0a09 793e
00000350: 35a5 8f3e 83dc 9e3e b749 96be e7dc 4abe
00000360: 82e0 83be 985f 903e 210a 883e 8b31 913e
00000370: a5b6 8e3e 1d34 923e 770b 8bbe af83 5e3e
00000380: 8b3f e63d f758 a43d 7b39 d4bd 8daf 15bd
00000390: 888e 11be f520 cebc a2f6 fb3d 798c e7bd
000003a0: 4a57 753a 0a41 9f3d 95bb 003e d1c1 c9bd
000003b0: f763 ed3d 9104 d0bd ad3a e83d 0711 823d
000003c0: 4b75 89bb c335 573d e377 58bc a476 ee3c
000003d0: b809 8f3c cf4d 373d 2e5f 0ebb 2bc9 fa3c
000003e0: 8f7c 8fbc 2b28 343c 335e 013d 1309 763c
000003f0: d559 9c3c 055f 393d 8a5b 32bd f3e5 16bc
0.26640338 0.2725908 -0.28443694 0.15048319 -0.2764289 -0.48567966 0.26547265 -0.28684285
-0.68434143 0.25258347 0.29031563 -0.27470082 0.30562985 -0.27627477 0.25890768 0.28057897
-0.24634437 0.034911174 -0.265891 0.24416617 0.21223755 0.29305226 -0.19439021 -0.25746173
-0.25843427 0.27958363 0.26809537 0.28610578 0.25009272 0.24604172 -0.26155874 0.25088742
0.035281662 0.029914651 -0.04679639 -0.029079989 -0.014182579 0.07777913 0.034176204 -0.026237981
0.18669347 0.001352698 0.0467171 -0.03942665 0.06077793 -0.048260666 0.045688532 -0.008896166
-0.17721641 -0.17767991 -0.19911046 0.19518945 0.20089917 0.20610572 -0.21000119 -0.16374482
-0.17064233 0.19673885 0.19059998 0.21084456 0.18510781 0.22016335 -0.18504585 0.15566806
0.05570325 0.06032216 -0.06352119 -0.02754328 -0.04847273 -0.0100532165 0.0467937 -0.043262042
0.011846421 0.052113093 0.057436764 -0.064738095 0.07453294 -0.051561944 0.050865408 0.043125935
-0.006632597 0.020859595 -2.1478249e-05 0.017072672 -0.008284428 0.0016176803 0.005920371 0.02821677
-0.026422897 0.01082585 0.028402412 0.023775939 0.013566982 0.04136354 -0.029731791 0.02289054
0.12949605 0.06617683 -0.09374352 -0.02635661 -0.17041253 -0.132883 0.12563992 -0.1643548
-0.20454448 0.0787654 0.17015672 -0.09245892 0.19016255 -0.08897431 0.16955705 0.11359207
-0.0023935477 0.14716046 0.012243895 -0.0062141614 -0.104706384 -0.07773522 0.13598563 -0.02910012
-0.019210234 -0.04617229 -0.030432642 -0.07550717 -0.058610324 -0.067354776 0.037804805 0.0140651725
0.20302287 0.15189718 -0.16661625 0.085320495 -0.22305141 -0.32991886 0.21596569 -0.25209388
-0.4799067 0.1505033 0.24224053 -0.16817732 0.26703876 -0.17400263 0.24998505 0.2172883
-0.10280039 0.028683417 -0.10029737 0.1272293 0.062034253 0.07503642 -0.0016758707 -0.1033061
-0.13337661 0.08811586 0.10072676 0.06915327 0.08116474 0.08593223 -0.11067404 0.11431101
-0.02836128 -0.05572425 0.023130292 -0.005993098 0.024250671 -0.083717324 -0.023204874 0.013387868
-0.18344697 0.0072247027 -0.018331796 0.025343927 -0.019978583 0.025187809 -0.019502878 0.0033020298
0.16943997 0.20143212 0.17140846 -0.17122844 -0.21920992 -0.22979958 0.22303066 0.13945948
0.15423064 -0.20299198 -0.18240285 -0.20967135 -0.18994464 -0.20203939 0.18085055 -0.15441193
0.012621562 0.029525835 -0.044632386 -0.08784174 -0.031825155 0.12111997 0.022315804 -0.032828145
0.24960552 -0.031011827 0.041418865 -0.021129277 0.039034214 -0.034151882 0.02971952 -0.035894185
-0.2325338 -0.27739766 -0.25380132 0.24319854 0.2805573 0.31027612 -0.29353115 -0.1981083
-0.25757223 0.28197932 0.26570228 0.2835811 0.27873722 0.28555384 -0.27157184 0.21729921
0.112425886 0.08024781 -0.10362526 -0.03654437 -0.14214528 -0.0251622 0.12302901 -0.1130609
0.00093590154 0.07776077 0.12571557 -0.09851421 0.115913324 -0.10157121 0.113393165 0.06350904
-0.0041948906 0.052541506 -0.013212177 0.029109307 0.017460689 0.04475194 -0.0021724212 0.030613502
-0.017515449 0.010995905 0.031583976 0.015016812 0.019085804 0.045256633 -0.04354433 -0.009210098

encoder.fc.bias f4 [16]
00000000: 5d5e 14bd 6d7f 39bc f44f 593c 93c9 4ebe
00000010: ef96 59be e75e 60bc 9dfd 27bc 0989 843c
00000020: b607 d4bc 43f5 303d d227 a2bd e937 fd3c
00000030: a396 febc 294a 1d3d b364 783d b12c 623d
-0.036222804 -0.011321885 0.013263691 -0.20194082 -0.21248983 -0.0136945015 -0.010253337 0.016178625
-0.025882583 0.04320265 -0.07917751 0.03091045 -0.031077689 0.038400803 0.06064291 0.055218402

decoder.attention.attn.weight f4 [16, 48]
00000000: 643a 033f 4f70 a13e 1511 19be 8ac8 57be
00000010: f079 febe c52d c0be c121 8d3e 8747 23be
00000020: 0134 23be 6bd7 de3e e940 2d3e c339 313f
00000030: 6ff6 d3be e894 ba3e c457 25be 352a ec3e
00000040: f79b 4d3e 90fe 433e f80e 35be 3ac7 b6be
00000050: a295 63be a51a 65be 9db2 833e fa3f 8dbe
00000060: 06ca 43be 1db9 353e d292 4d3e c093 4ebe
00000070: 9f43 593e 9f0e 52be eeb1 633e d572 313e
00000080: 8803 413e 7870 893e c63d 4d3e a76a 69be
00000090: 4ac9 7abe ff7c 43be 6721 6c3e b150 a83d
000000a0: 9c6a 4b3e 06d7 73be ed60 4dbe fc2a 71be
000000b0: b6e0 6dbe 5dbd 5bbe 2212 4f3e c68f 3bbe
000000c0: 6dda d33e a11f a73e 60ae 22be 53d9 5cbe
000000d0: f320 ffbe 3418 c1be 8ec7 9f3e 00a7 35be
000000e0: 8ab8 26be d536 e13e 3b1b 3a3e b9a4 1a3f
000000f0: 09bf debe d373 c93e 9e90 1abe b85d e63e
00000100: 2d49 433e 5111 453e 5100 28be 5723 aebe
00000110: 0a98 41be 5ef9 86be ac1a 733e 7ff9 77be
00000120: 16f2 55be 8dc3 1a3e 412b 3c3e a502 3abe
00000130: e987 183e aebe 42be 138a 3b3e 69ec 2a3e
00000140: 01ac 503e 3aff 803e c6f7 623e ea21 6fbe
00000150: c4f2 77be bc16 41be a368 723e b936 ec3d
00000160: 5169 513e f31e 5dbe 7dac 33be eb76 5bbe
00000170: 2018 67be 4d4e 5ebe 4ff0 6c3e abf4 47be
00000180: 1ecd c03d 19c8 c83e f77e 02be 8073 b0be
00000190: 6cad 06bf 6153 d0be c810 b63e 170c 37be
000001a0: 24e8 1fbe a207 1a3f 00a0 323e 1066 093f
000001b0: ef2b 09bf cd3e 113f 5dfc 32be d016 233f
000001c0: bcfe bf3d e7b9 313e d6ac c0bd 1706 95be
000001d0: 0289 a5bd 95ef edbe 653a 303e def8 10be
000001e0: 920a 4fbe 7def 2c3e 24fe 5e3d fdd1 15be
000001f0: bc18 903d e61d 16be fe02 c63d 8fa4 223e
00000200: b2d8 9c3e df1d 713e 3d7b 933e 7729 84be
00000210: b245 80be e957 83be a461 6e3e 2d94 b33e
00000220: ddb8 883e bf57 76be b02f 88be 3bb7 80be
00000230: 16f8 6abe cc37 7dbe 2ff9 753e b733 99be
00000240: 1d22 34be 002b e6be 8d57 e63d 6c75 9e3e
00000250: b8d6 223e 1d96 ec3e f93e b9be 8eaa 093e
00000260: 2b46 ed3d a394 48bf 25a6 17be 3c0e 49bf
00000270: 5e8d 183f c855 35bf 1e50 d03d 0a50 42bf
00000280: 56d5 8cbd 07f1 a0bd 37cd 193b 53a5 163e
00000290: 50db dd3d a5d1 b13e 94f4 1cbe 8581 e03d
000002a0: cf28 213e 7567 1dbd 0b2d c0bd 42b4 843d
000002b0: c0da d6bd 847f 7c3d 3b9f bebd a9a9 babc
000002c0: b961 dcbe cd97 d0be e3be cabe ec5b ba3e
000002d0: f462 c63e fae3 ce3e 2c64 cfbe 5b77 e9be
000002e0: a8a7 c3be b39f c03e bd2f c63e 9ee4 bf3e
000002f0: 1d00 b63e 8e00 b63e 7834 b9be cc7b d43e
00000300: aa20 603c a41f d23e 4995 3fbc b8de bbbe
00000310: 4868 b63e a0e1 8fbe 7488 a93d f714 0abd
00000320: 7323 323e d47c 0a3f 4afe ab3b c70f 2d3f
00000330: 7905 ecbe 6e8c 223f 01be 04bd 4b20 1a3f
00000340: a602 b4be 887b 55be 9dba bb3e 82e0 413f
00000350: 818d 853e 037a a43e 12bd 02be 47e3 a8ba
00000360: feb9 373f d4ab 49be adb0 8abe 3159 7e3e
00000370: fde4 a3be 06b7 713e 412e 8bbe a440 70be
00000380: 9f21 e13e 71e4 063e 97c5 b33e 71f8 95be
00000390: 28ea 15be 1a89 75be 37f8 e23d 07f7 383f
000003a0: f13e b63e 6068 8abe b152 a2be c18f 60be
000003b0: ad89 40be 3757 2fbe 094f 8d3e 0836 e0be
000003c0: a466 b3be eb27 48be 79c7 c23d efd3 72bd
000003d0: ca20 69bf f5e0 d13d ce4d 76bd 1fa8 c83d
000003e0: 1904 263e 36b1 58be 0bd0 efbd 58d2 bdbe
000003f0: 1750 273e 4de1 55be 03c9 e53d bc09 35be
0.5126097 0.31530997 -0.14947923 -0.21072593 -0.49702406 -0.3753492 0.27564815 -0.15945254
-0.15937807 0.43523726 0.16919293 0.6922876 -0.4139895 0.3644173 -0.16146761 0.4612595
0.20079027 0.19140077 -0.17681491 -0.35698873 -0.22225049 -0.22373445 0.2572221 -0.27587873
-0.19120035 0.17746396 0.20075539 -0.2017355 0.21217202 -0.2051339 0.22235844 0.17328961
0.18849003 0.2684362 0.20043096 -0.22794591 -0.24490848 -0.19090651 0.23059617 0.08218516
0.19864887 -0.23812494 -0.20056506 -0.23551553 -0.23230252 -0.21458955 0.20221761 -0.18316564
0.41377583 0.32641318 -0.15886831 -0.21567278 -0.49829826 -0.37713778 0.31206936 -0.17739487
-0.16281334 0.43987146 0.1817445 0.60407597 -0.43505123 0.3934618 -0.1509423 0.44993377
0.19070883 0.19244887 -0.1640637 -0.34011337 -0.18905655 -0.26362127 0.23740643 -0.24216269
-0.2089313 0.15113659 0.18375875 -0.18165071 0.14895596 -0.19018051 0.1831439 0.16691746
0.20378114 0.25194722 0.2216483 -0.23352781 -0.24213701 -0.18856329 0.23672728 0.11533875
0.20450331 -0.21593837 -0.17546268 -0.21432082 -0.22567797 -0.21709557 0.23138545 -0.19526927
0.09414123 0.39215162 -0.12743746 -0.3446312 -0.5260837 -0.40688613 0.35559678 -0.17875706
-0.15615898 0.60167897 0.17443848 0.5367136 -0.5358266 0.5673645 -0.17479081 0.63706684
0.093747586 0.17356072 -0.09407966 -0.2910621 -0.08082773 -0.4647185 0.17209776 -0.14157435
-0.20218876 0.16888233 0.054441586 -0.14630885 0.07035968 -0.14659843 0.096685395 0.15883087
0.30634075 0.23546551 0.2880496 -0.25812885 -0.25053173 -0.25653008 0.23279434 0.35073987
0.2670354 -0.2405691 -0.26598883 -0.25139794 -0.229462 -0.24728316 0.24020837 -0.29922268
-0.17591138 -0.4495468 0.11247168 0.3094896 0.15902221 0.46208277 -0.36180857 0.13443968
0.11585649 -0.783518 -0.14809473 -0.78537345 0.5959071 -0.70834017 0.10171531 -0.7590338
-0.06876628 -0.07858472 0.0023468265 0.14711504 0.10832846 0.3473026 -0.15327674 0.10962204
0.15738223 -0.038428742 -0.09383591 0.06479694 -0.10490942 0.061645046 -0.093077146 -0.022785978
-0.43043306 -0.40740815 -0.3959876 0.36398256 0.3874737 0.40408307 -0.40506113 -0.45598873
-0.3821385 0.3762184 0.38708296 0.3747911 0.3554696 0.35547298 -0.36172843 0.415007
0.013679663 0.41039765 -0.011693307 -0.36693358 0.35626435 -0.28101826 0.082779795 -0.0337114
0.17396335 0.5409672 0.0052488195 0.676022 -0.46097925 0.6349553 -0.032407764 0.60205525
-0.3515827 -0.20847905 0.36665812 0.75733197 0.2608452 0.32124338 -0.12767437 -0.0012885117
0.71768177 -0.19694453 -0.27087918 0.24838711 -0.32010642 0.23604974 -0.27183726 -0.23462158
0.43970963 0.13173081 0.35111687 -0.29291108 -0.14640105 -0.23978081 0.110824995 0.72251934
0.35594895 -0.27032757 -0.31703714 -0.21929838 -0.18802519 -0.17123114 0.27599362 -0.43791223
-0.35039246 -0.19546477 0.09510703 -0.059284147 -0.9106566 0.10247985 -0.060132794 0.097976916
0.162125 -0.2116135 -0.11709603 -0.37074542 0.16339146 -0.20886727 0.112199806 -0.17679495

decoder.attention.attn.bias f4 [16]
00000000: 6a85 29be 2e3b 3bbe 8667 36be 411c f83d
00000010: 5811 2fbd 7dfe d03d 0a7b 3e3e fda3 34be
00000020: 39a9 293e eea3 263e 8efa 2c3e 9b2c 573e
00000030: f615 283e 13e7 2b3e 3492 39bd 80ca 3b3e
-0.165548 -0.18284294 -0.17812929 0.12114764 -0.04274115 0.1020479 0.18601623 -0.17640682
0.1656846 0.16273472 0.16892454 0.2101311 0.16414627 0.16787367 -0.045305446 0.18338966

decoder.attention.v.weight f4 [1, 16]
00000000: 4ff6 0d3f ab14 0e3f 4f6f 243f c264 61bf
00000010: 1072 8e3f 1a5b 79bf 976d 0fbf 587b 273f
00000020: fca7 13bf 3c84 16bf 40f9 15bf 5e33 09bf
00000030: 1614 13bf 9a69 12bf b14d 8d3f d35f 22bf
0.5545396 0.55500287 0.64232343 -0.8804437 1.1128559 -0.97404635 -0.56026596 0.6542258
-0.576782 -0.58795524 -0.5858345 -0.53594005 -0.57452524 -0.57192385 1.1039335 -0.63427466
