agl/models/autosave/new-AE-48-24-0.001.pt (torch, 103404 bytes, 21 tensors)

encoder.embedding.weight f4 [8, 48]
000000 80 96 d9 bb cd 9c 4a bb d0 d9 0f b9 6b 39 1e bc
       -0.0066402555 -0.0030916214 -0.00013718684 -0.009657244
000010 73 93 f4 3b 20 9d 02 3c f2 f4 a0 3b 80 5b 5c bc
       0.0074638664 0.007972032 0.0049120123 -0.01344955
000020 1a 86 8b 39 47 55 e7 bb 5c 7f 70 3a 87 c8 fd ba
       0.0002661206 -0.0070597264 0.00091742515 -0.001936213
000030 2f 84 3c b9 72 54 f8 3b 54 ff bb 3b bc 41 4f 3a
       -0.0001797832 0.007578426 0.0057372246 0.00079062185
000040 fb fe b0 3b 6c 7c db 3b 06 a0 34 bb 54 3c 62 3c
       0.00540149 0.006698182 -0.0027561202 0.013808329
000050 4f d9 0c 3c 8e 35 a6 bb 30 30 04 bb 12 49 a3 ba
       0.008596732 -0.005072302 -0.0020170324 -0.001245769
000060 a6 5a be 3b fd 72 68 ba 47 12 b5 3b 79 a3 00 3c
       0.005809146 -0.0008867232 0.0055258605 0.007851475
000070 80 0f e5 bb ac 39 4e bc 3b 50 a9 bb 98 bb f8 3b
       -0.006990373 -0.012586992 -0.005167035 0.0075907223
000080 e0 f9 fe b9 c0 5b 14 3c 44 5e 8f bc 7d 54 82 3c
       -0.00048632827 0.009055078 -0.017501004 0.015909428
000090 4e b5 f3 3b 4c 55 16 bc e2 38 ab ba c0 a5 04 3c
       0.0074373847 -0.00917561 -0.0013063217 0.0080961585
0000a0 bd b9 02 bc 40 99 f5 3b 50 d8 3e 39 17 51 8f bb
       -0.007978854 0.0074950755 0.00018200395 -0.0043736803
0000b0 cb 4b 76 bc 6d 0d 8c 3c 3a 80 8b 3a 59 86 34 bc
       -0.015032719 0.017096246 0.0010643073 -0.011018359
0000c0 f1 e6 6a be 1d ec 45 be 98 15 0f be 9b 89 1d 3e
       -0.2293966 -0.19328351 -0.13973081 0.15384524
0000d0 02 cc 23 3e 1f b6 f3 bd fc b6 4b be 7f aa 58 be
       0.15995792 -0.11899971 -0.19894022 -0.21158789
0000e0 ba f4 36 be 7b c2 99 3d 0a df fb 3d c9 ac 65 be
       -0.17866793 0.07507797 0.12298401 -0.22429194
0000f0 51 c0 4c be f4 ec 9c 3e 66 c3 15 be f5 1f 45 3e
       -0.19995238 0.3064953 -0.1462532 0.19250472
000100 8c cf 50 be 8e e1 c8 3c 14 7f 3f be ca 8a 63 3e
       -0.20391673 0.024521615 -0.1870082 0.22220913
000110 d9 bf 38 be d8 b1 15 be 3a 11 54 3e fc ba 73 3e
       -0.18041934 -0.14618623 0.20709696 0.23801798
000120 34 81 d6 3d 2d 9d 4c 3e 50 90 db bd 28 f3 79 bc
       0.10473862 0.19981833 -0.10720885 -0.015255727
000130 77 f4 57 be dd 64 93 3e b4 7e 5b 3e 56 90 2b 3e
       -0.2108935 0.2878789 0.21435052 0.16754279
000140 b8 d3 7d 3e a1 9a 6b 3e e4 c5 33 3e 09 59 40 be
       0.24787796 0.23008205 0.17555958 -0.18783964
000150 03 cd 1b be cf 04 ba 3d 02 0a 5b be ea 92 68 bd
       -0.15214925 0.090829484 -0.21390536 -0.056780733
000160 a2 06 50 be 1a b2 40 3e 76 fd 36 3e 7a c8 74 be
       -0.2031503 0.1881794 0.17870125 -0.239046
000170 04 20 0f be 99 93 3f 3e 26 3c 26 3e d9 35 31 3e
       -0.13977057 0.18708648 0.16233882 0.17305698
000180 09 e0 9d bc 27 18 b1 bc 75 63 90 bc d2 b5 55 3d
       -0.019271867 -0.021617962 -0.01762555 0.05217535
000190 a2 4e 2a 3d 20 93 92 bd 78 9e a7 bd 7c 76 9c bc
       0.041578896 -0.07156968 -0.081845224 -0.019099467
0001a0 c2 37 5a bd 45 aa 19 3c b6 8d b7 3c d2 23 14 bd
       -0.05327583 0.009378974 0.02240644 -0.036166973
0001b0 c6 7c 56 bd df 70 8a 3d 39 99 cf bc be e0 0e 3d
       -0.052365087 0.0675981 -0.025341617 0.0348823
0001c0 0b b1 be bc 47 48 d7 3c 42 73 86 bd 55 8a f2 3c
       -0.02327778 0.026279582 -0.065649524 0.029606977
0001d0 48 56 21 bd 2d 97 7d bd 82 63 60 3d a8 b5 3e 3d
       -0.039388925 -0.06191175 0.054782398 0.04655996
0001e0 10 9a 12 bc 7c 78 ae 3c e6 6c ad bc 78 06 09 3d
       -0.008947864 0.021297686 -0.02117009 0.033453435
0001f0 32 a1 e5 bc bd 60 80 3d de e8 65 3d b6 3c bf 3b
       -0.028030965 0.06268451 0.056130283 0.0058360947
000200 ed e7 b9 3c 5e 7e 89 3d f6 01 ff b9 e0 99 ac bc
       0.022693599 0.06713556 -0.0004863885 -0.021069467
000210 76 fe e1 bc 7c 23 c7 3c 27 59 18 bb 1a fe 45 bd
       -0.027587157 0.024308912 -0.0023246498 -0.048338033
000220 23 64 54 bd 70 9b 12 3d ed 9c 3b 3b c1 20 ee bc
       -0.05185331 0.035792768 0.002862747 -0.029068353
000230 60 65 d4 bc a4 3c e7 3c aa 1d 40 3d a4 49 9a 3d
       -0.025927246 0.028227158 0.04690329 0.07533577
000240 a2 5e 59 3d 3d fc fd 3d c5 08 00 3e bb 60 db bc
       0.053068765 0.12401626 0.12503345 -0.026779523
000250 fb 57 e3 bd 92 ef 35 3e b6 25 e5 3d c4 8b e9 bc
       -0.11100765 0.1776717 0.111888334 -0.028509028
000260 94 5b d0 3d f9 e1 56 be c9 dd 7e be 7f 23 12 3d
       0.10173717 -0.20984639 -0.24889292 0.035678383
000270 8f 69 88 3d f6 d2 2a bc 98 1f 26 3d d9 7b 78 bd
       0.06660759 -0.010426274 0.040557474 -0.060664985
000280 47 20 d1 3d d6 0c 03 be 5a 86 c5 3d b7 f9 bb bd
       0.102112345 -0.12797865 0.09644766 -0.09178489
000290 6e d4 01 3e c9 6b e8 3d 44 96 ee bd 20 3d 2a be
       0.12678692 0.113486834 -0.11649755 -0.1662488
0002a0 b2 c0 96 be c5 f8 26 be 09 c2 0f 3e b7 2e 8b bd
       -0.2944389 -0.16305836 0.14038862 -0.067960195
0002b0 8c 1d 88 3d b7 fc 47 be c1 1c f7 3a d4 ba b4 bd
       0.066462606 -0.19529997 0.0018853174 -0.08824697
0002c0 1f 21 02 be 30 af 4e be b7 f2 9f bd 88 44 fe 3c
       -0.12707947 -0.20184016 -0.07809966 0.031038538
0002d0 5d 0a 3f 3d 95 9f fb bd 2a 2f f7 3d d7 7d 03 3e
       0.046640743 -0.12286297 0.12069543 0.12840973
0002e0 ee 2a 54 3d 8c c9 93 bd 00 34 02 be 72 e0 48 3e
       0.051798753 -0.072161764 -0.12715149 0.19616869
0002f0 f7 ef 1f 3e 99 9a 56 3d 31 85 70 be 6c 93 ab bd
       0.15618883 0.05239353 -0.23488308 -0.08377728
000300 b3 50 8b bd 55 3d 46 bc a0 4e c7 bc 23 43 27 3d
       -0.068025015 -0.012099584 -0.024329484 0.04083551
000310 70 57 5d 3d 8d 61 26 bd c1 ea 87 bc 83 4c 85 bd
       0.054038465 -0.040620375 -0.016591432 -0.06508734
000320 55 b9 11 bd 14 4d ca 3c e3 a9 48 3d 23 05 b3 bc
       -0.035577137 0.024694957 0.04899014 -0.021853035
000330 52 4a 0d 3a 7b c4 39 bc 75 c3 6d 3d 2a 28 e2 3c
       0.0005389798 -0.0113383485 0.05804773 0.027607042
000340 28 1c 83 3d 4d 5f 38 3c a3 8c 27 3c 7f 2f 91 bb
       0.06401855 0.01125319 0.0102264015 -0.004430711
000350 90 28 e6 bc a0 de eb bb fd 21 f5 3c a9 3d 32 3c
       -0.028095514 -0.00719817 0.029923433 0.010878959
000360 ca e4 86 3c ab 4f ce 3c f1 4f 8e bc 4d 0a 1f bc
       0.016466517 0.025184473 -0.017372103 -0.009707046
000370 eb 0a 43 bd ab 8e ca bb f6 75 c6 3c 84 bb 2d 3a
       -0.047617834 -0.006181558 0.02422617 0.0006627368
000380 ee e8 f2 3c dd da e7 3c 77 67 43 bd 4c c0 ff bc
       0.029652085 0.028302604 -0.047706094 -0.031219624
000390 e6 30 b1 3c 09 2a 94 3c 13 2c c9 bc df fd 8d bc
       0.021629762 0.01808645 -0.024557149 -0.01733297
0003a0 8f 80 4a bc 4f 46 4f 3d 65 d1 d2 bb 67 ac 88 3b
       -0.012359752 0.05060416 -0.006433653 0.0041709426
0003b0 43 e4 f5 bc d6 20 31 ba ae b1 d4 bb 0d 79 8a 3d
       -0.03001607 -0.0006756907 -0.0064909076 0.0676137
0003c0 e3 48 93 3e fa 0e c4 3e 07 8a b6 3e 49 ab 7b be
       0.28766546 0.38292676 0.35652182 -0.24577059
0003d0 16 30 a4 be 80 2a 7b 3e 48 cd a8 3e 92 0f e5 3e
       -0.32067937 0.24527931 0.32969117 0.44738442
0003e0 52 4e 62 3e c3 c3 63 3e cf 59 0b be 2d 92 cf 3e
       0.2210019 0.22242646 -0.13608478 0.4054121
0003f0 19 0e cf 3e 0f c9 5f be 73 b0 c5 3e 23 93 d3 be
       0.40440443 -0.21854042 0.38611183 -0.41323194

encoder.rnn.weight_ih_l0 f4 [72, 48]
000000 da 93 ed 3d 16 67 89 bd 14 34 f3 bd 37 40 02 be
       0.11600466 -0.06709115 -0.118751675 -0.12719809
000010 a2 a2 01 bd e2 df be bd 5b c3 d9 bd 68 3d d7 bc
       -0.03164924 -0.09320046 -0.10632964 -0.026274398
000020 9a d0 da 3b b8 41 f0 bd a5 e5 94 3d a6 b9 57 bd
       0.0066776993 -0.11731285 0.07270364 -0.052667283
000030 99 ac d0 3c 27 9e 11 be 4c 87 a8 3c 87 3f 27 3e
       0.025472926 -0.14220487 0.020572327 0.16332828
000040 2d 2d 47 3d fd 63 bc bd e5 6b 67 bd e3 d5 b0 3d
       0.048627067 -0.09198759 -0.05649938 0.08634546
000050 76 f6 9d 3d 0e 5b e6 bd ab 06 c3 3d 21 bc 66 3d
       0.07713024 -0.11247836 0.09522756 0.056331757
000060 8a c4 a7 3d 7b a1 55 3d 52 95 14 3e 36 5e 03 bd
       0.08191784 0.052155953 0.14510086 -0.03207227
000070 77 32 a8 bd 16 fb 33 3e 67 f6 b5 3c df c5 6d bd
       -0.082127504 0.1757625 0.02221222 -0.058050033
000080 23 74 0a 3d 22 40 05 3e 0a 8a 11 be 32 24 60 3e
       0.033802163 0.13012746 -0.14212814 0.21888807
000090 03 6c 57 bd 4a 1d d6 bc 55 37 ab 3d 3a 2b bc 3d
       -0.052593242 -0.026137013 0.08360163 0.09187932
0000a0 ff b0 e7 bd 91 52 cd 3d 23 45 49 bb 1a 30 12 be
       -0.11313056 0.10025514 -0.0030711375 -0.14276162
0000b0 b6 7e d1 bd f1 15 e3 bd e3 d9 08 bd 95 ab 0d 3e
       -0.10229246 -0.11088169 -0.033410918 0.13834985
0000c0 ad 0f 8f 3e a2 55 8a 3e bf be 2c 3e 9e ed 57 be
       0.27941647 0.27018458 0.16869639 -0.21086738
0000d0 c3 a9 76 be 44 13 89 3e 55 5d 51 3e 3c ad a3 3d
       -0.24088196 0.2677251 0.2044576 0.07992026
0000e0 24 34 8b 3e 7b f9 ad be c6 4d 6b be fa d5 f0 3d
       0.27188218 -0.339794 -0.22978887 0.11759563
0000f0 05 e0 40 3e 2a a3 ac be 92 9d 3e 3e 49 22 bf bd
       0.18835457 -0.33718234 0.18614796 -0.09332711
000100 59 fe 34 3e b0 47 97 be 3d 7e 47 3e f4 98 d5 bd
       0.17675151 -0.2954688 0.1948175 -0.10429564
000110 2f 71 74 3e fd 96 7c 3e e6 35 29 be 0c 09 68 be
       0.23871301 0.24666972 -0.16524467 -0.22659701
000120 93 be 9d be e4 77 88 be 63 8d bd 3e 6d 96 6b be
       -0.3080946 -0.2665397 0.37021932 -0.23006602
000130 45 4e 21 3e e9 6b cd bd 6f f0 eb bd c2 b1 1a be
       0.15752514 -0.10030348 -0.115204684 -0.15106872
000140 4a e5 2d be a7 d2 5b be 96 9e b0 bd 05 6c a7 3e
       -0.16981998 -0.21467076 -0.08623998 0.326996
000150 d6 a0 1e 3e d6 62 81 be e2 f9 81 3e 45 d2 b1 3e
       0.15491042 -0.25270718 0.25385958 0.34730735
000160 e7 5d 3d 3e 7d af 08 be 1d 16 5b be f5 9a 7b 3e
       0.18492852 -0.13348193 -0.21395154 0.2457083
000170 05 ae 2a 3e e5 04 e8 bd 2b 89 a8 be b3 e2 ca bd
       0.16667946 -0.113290586 -0.3291715 -0.09906521
000180 52 b9 3f 3d 37 37 3b 3e db 81 80 3e 37 cf b3 bc
       0.046807595 0.18282782 0.25099072 -0.021949394
000190 5f a5 a6 bd 0b d8 6d 3e fd ff 54 3e 20 c6 2b 3e
       -0.08137011 0.23226945 0.20800777 0.16774797
0001a0 ed 56 ac 3c b5 47 11 bd 1c 45 19 be a9 f7 5a 3e
       0.021037543 -0.035468776 -0.1496777 0.21383537
0001b0 83 56 8f 3e 4a be 85 bd 19 93 be 3e 41 f7 2d be
       0.2799569 -0.065304354 0.37221602 -0.16988851
0001c0 ac 12 ba 3e b0 55 93 3d 68 57 91 3e bf 5b 24 be
       0.3634237 0.07194078 0.28386998 -0.16050623
0001d0 af 84 06 3e 4f 33 8b 3e 08 18 56 be 15 39 34 be
       0.13136552 0.27187583 -0.20907605 -0.175999
0001e0 6f 53 d9 bd 98 e2 4c be 89 1c 8a 3d 2b e7 05 3e
       -0.10611617 -0.20008314 0.06743724 0.13076465
0001f0 ec 3e 91 3e 83 19 a2 bd 90 77 2e be 86 a4 9d be
       0.28368318 -0.07915022 -0.17037797 -0.30789584
000200 10 82 a4 bd 8d 8b 57 be 94 d3 58 be 92 06 ac 3d
       -0.0803262 -0.21049328 -0.2117446 0.08399691
000210 df 85 4b 3e 8b f1 ab bd 04 ab 96 3d 3e ea 73 bd
       0.19875287 -0.0839568 0.073568374 -0.059549563
000220 2e 5d 27 3e cd 24 28 bd 57 14 84 be e7 1a 54 3e
       0.16344139 -0.04105072 -0.25796768 0.20713387
000230 8b f5 50 3e 68 64 5b be 80 54 47 be b3 c8 52 be
       0.20406167 -0.2142502 -0.19465828 -0.20584373
000240 0f 87 eb 3a fb e5 a5 bd 5c d4 53 bc b5 fb c4 3c
       0.0017969328 -0.08100506 -0.012929048 0.024045805
000250 19 3f a3 3c 02 d7 15 bd fa fc a6 bc 22 9e 8f bd
       0.019927548 -0.036582 -0.0203843 -0.07012583
000260 09 25 02 be 41 81 1b 3d 56 e0 d0 3d ca 06 ef 3b
       -0.1270944 0.037965063 0.10199039 0.0072945105
000270 e3 da ec 3d d1 33 bb 3c 9b ef 14 3e b3 82 d0 3d
       0.11565187 0.022851856 0.14544527 0.10181179
000280 f8 45 27 3e fe 57 88 3d 95 f1 80 3d bb 9c 9e 3b
       0.16335285 0.06657408 0.06296078 0.004840461
000290 ce 76 88 bc 29 9c 6f 3c 80 73 4c 3c f0 a8 5c 3d
       -0.016658213 0.014624634 0.012478709 0.05387205
0002a0 77 a1 e7 3d 53 d9 a6 3d b4 09 f6 ba 58 b1 ac 3d
       0.11310094 0.0814692 -0.0018771202 0.08432263
0002b0 da ef 86 3d 45 fc 58 3e 86 cc 8f 3d 3f ab 52 be
       0.06588717 0.21189983 0.070214316 -0.20573138
0002c0 6a 99 eb 3d af d4 54 3d e7 a9 7a be 40 05 db 3b
       0.11503871 0.051960643 -0.24478875 0.0066839755
0002d0 2b 05 2e 3c b2 60 82 3d c6 a4 2f bd 9f 65 6e bd
       0.010621349 0.063660994 -0.04288175 -0.058202382
0002e0 69 07 dc bd 9c 08 0b 3e 57 f5 82 bc 8d 70 0d bd
       -0.10743601 0.13577503 -0.015986128 -0.034531165
0002f0 e1 5f 9b bd 39 86 8a bc 0a e0 43 3d 18 60 87 3d
       -0.07586647 -0.016909705 0.047821082 0.06610125
000300 99 0a 7b 3e 31 09 39 bc 62 06 cc bd 8b e0 73 be
       0.24515761 -0.011293695 -0.09962155 -0.23816125
000310 db 8c 06 be 51 96 19 bd c5 30 52 bd 65 85 e9 3d
       -0.1313967 -0.03749687 -0.05131604 0.11402396
000320 71 33 19 3e 01 e4 8c be 90 5c 29 3d 15 f3 4e 3d
       0.1496103 -0.27517703 0.04134804 0.05052479
000330 8a 50 50 bc 34 dc b0 be e6 64 59 bd af 09 94 3d
       -0.0127145145 -0.34543002 -0.05307474 0.072284095
000340 6b 69 06 bd 52 45 53 be 91 16 1f bd 5a 07 cf 3d
       -0.03281538 -0.20631912 -0.03883988 0.10108824
000350 44 29 22 3e 85 cf c6 bd f0 f3 11 3e f9 65 09 3d
       0.15836054 -0.0970755 0.14253211 0.033544514
000360 75 4f 22 3d 06 8f ce bb 5f dd 87 3e e8 a8 72 be
       0.039626557 -0.006303671 0.2653608 -0.23697245
000370 da a9 da bd d0 9c 2a 3e 13 9d d6 bd 13 e8 e6 3d
       -0.10676928 0.16661382 -0.10479178 0.112747334
000380 d0 11 a4 bc b7 b5 0e 3e 92 a6 ab 3d 0e 31 c7 3e
       -0.020028025 0.13936506 0.0838138 0.38904613
000390 f8 f9 45 bd 95 55 b3 bd 92 02 1c 3e 24 91 7a 3e
       -0.048334092 -0.08756558 0.15235355 0.24469429
0003a0 ea 26 4d 3c b9 cf a7 bb e7 b5 43 bd b3 f1 b1 bd
       0.012521485 -0.005121198 -0.047780897 -0.086886786
0003b0 5e 86 93 bd 54 73 8e be 3c dd bb bd d5 f8 c0 3d
       -0.07203363 -0.27822363 -0.091730565 0.09422461
0003c0 50 0a 71 3e 5e 1a e8 3d aa 3f ca 3d b2 dc 57 be
       0.2353909 0.11333154 0.09875424 -0.21080282
0003d0 64 8c 3e be f9 e9 17 3e f3 2d c6 3d f8 e2 78 3d
       -0.18608242 0.14835347 0.09676733 0.06076333
0003e0 3d 4a 10 3e f7 20 59 be 72 41 1b be 59 73 e7 3d
       0.1409082 -0.21203981 -0.15161684 0.11301298
0003f0 c9 70 52 3e 6e d9 66 be 5d 9a 0f 3e 77 1e 82 bd
       0.20550837 -0.2254388 0.14023729 -0.06353467

encoder.rnn.weight_hh_l0 f4 [72, 24]
000000 49 c0 66 be 8e 21 55 be 55 b7 53 be fc 96 50 be
       -0.22534288 -0.20813581 -0.20675404 -0.20370096
000010 1b 55 66 be ba 70 55 be 34 94 81 be 0b e2 66 3e
       -0.22493403 -0.20843783 -0.25308383 0.22547166
000020 f3 47 a4 be e8 df a9 3e 43 49 b5 3e e7 65 6c be
       -0.32086143 0.3317864 0.35407457 -0.23085748
000030 73 65 48 be 6b d1 8f be a4 f7 64 3e 3b 5b 89 be
       -0.1956995 -0.2808946 0.22360092 -0.26827416
000040 28 a2 93 be e2 08 46 3e 6d 6b a9 be ef 4d 6a be
       -0.28834653 0.19339326 -0.33089772 -0.22881292
000050 d1 68 7e be 42 64 7e 3e 3f 84 6c be af 21 76 be
       -0.24844672 0.24842933 -0.23097323 -0.24036287
000060 b0 06 51 be c7 e6 ca 3c 8b 85 ef bb 3a 27 89 be
       -0.20412707 0.024768246 -0.0073096207 -0.2678774
000070 ef b3 84 bc 48 94 70 bc 79 a3 0a be 39 36 55 3e
       -0.01619908 -0.0146837905 -0.13538922 0.20821466
000080 42 a9 b6 be 80 49 a2 3e 1c 51 a9 3e 55 2c a0 bd
       -0.35676008 0.316967 0.33069694 -0.07820956
000090 c1 1a 92 bb c3 0f b7 be f2 a0 e6 3d bc 63 d1 bd
       -0.0044587557 -0.35754213 0.11261167 -0.10224101
0000a0 7b b8 8d be 3d a6 6b 3c 9d 1f aa be 5e 85 2e be
       -0.2767981 0.014382896 -0.33227244 -0.17043063
0000b0 80 c6 91 be 8c b3 13 3e 17 60 38 bd 12 b8 6d be
       -0.28471756 0.1442396 -0.045013513 -0.23214749
0000c0 88 78 93 be fd af 73 be d9 15 8c be 14 0e 77 be
       -0.28802896 -0.23797603 -0.27360418 -0.24126464
0000d0 b0 81 91 be 7c 4e 8a be 1f 52 ae be 3f 48 84 3e
       -0.28419256 -0.27013004 -0.34047028 0.2583637
0000e0 c2 1a 4c be c7 8e 7d 3e 62 6d 6d 3e d0 79 8c be
       -0.19932082 0.24761496 0.23186257 -0.27436686
0000f0 67 e3 98 be d0 f4 28 be fd 04 a1 3e 26 87 ac be
       -0.29860994 -0.16499639 0.31449118 -0.3369686
000100 dc 2d 64 be 6a 79 76 3e 2e bd 4c be 6f 33 8f be
       -0.22283119 0.24069753 -0.19994041 -0.27968928
000110 55 05 64 be 28 69 ab 3e d3 c3 96 be e6 bc a3 be
       -0.22267659 0.33478665 -0.29446277 -0.31980056
000120 db 15 a5 be d3 9e 93 be 68 88 a3 be 7e f4 87 be
       -0.32243237 -0.2883211 -0.31940007 -0.2655372
000130 bd 95 9a be 2a 6d a4 be f2 2a aa be 03 9f 98 3e
       -0.30192366 -0.32114536 -0.3323589 0.29808816
000140 c4 8d 76 be fe e4 8c 3e ce 54 87 3e 98 43 9d be
       -0.24077517 0.27518457 0.26431888 -0.30715632
000150 50 ed a3 be a8 3d 66 be 57 0d aa 3e 4f b2 b1 be
       -0.32016993 -0.22484457 0.33213302 -0.3470635
000160 50 e2 87 be 4f c3 99 3e d6 90 78 be 63 cf 99 be
       -0.2653985 0.3003182 -0.24274 -0.30041036
000170 32 9b 87 be 0b 3e a7 3e e3 78 a7 be 68 9e ac be
       -0.26485592 0.32664523 -0.32709417 -0.33714604
000180 db b7 67 be c7 82 10 be 90 0e 18 be 1e 09 42 be
       -0.22628729 -0.14112388 -0.14849305 -0.1894879
000190 4a 3f 33 be ed 30 33 be 2b 99 69 be 22 7b 67 3e
       -0.17504612 -0.17499132 -0.22812335 0.22605565
0001a0 76 7c 98 be 12 ca 96 3e 54 c6 95 3e c3 b9 6b be
       -0.29782456 0.29451042 0.29252875 -0.23020081
0001b0 ed 9e 37 be 4f 81 87 be 0b 55 4f 3e e5 01 6f be
       -0.17931719 -0.26465842 0.20247285 -0.23340566
0001c0 d3 05 6c be d6 33 13 3e f0 0b 87 be 0c 16 6a be
       -0.23049097 0.14375243 -0.26376295 -0.22859973
0001d0 e5 ed 40 be bd 0d 80 3e 34 8a 43 be 44 b3 5a be
       -0.1884075 0.2501048 -0.19095689 -0.21357447
0001e0 b8 30 e9 bd eb d0 98 3d a3 fe cf 3c 01 5b 29 be
       -0.113862455 0.07461723 0.025389975 -0.16538621
0001f0 2f 73 83 3d 7c e0 f4 3c f7 be 84 bd 92 ac d1 3d
       0.06418454 0.029892199 -0.06481736 0.10237993
000200 91 f7 86 be 25 32 40 3e d8 cc 72 3e 46 5f b7 bc
       -0.26360753 0.18769129 0.23710954 -0.022384297
000210 c9 94 2e 3d 4f d3 7a be 21 e9 28 3d 41 a1 0e bd
       0.04262236 -0.2449467 0.041237954 -0.034821752
000220 e9 c1 1f be 53 37 44 bd c0 85 5a be ee de c4 bd
       -0.15601315 -0.047904324 -0.21340084 -0.09612833
000230 7d 7b 26 be bc 34 ae 3d 5d 8c 2b 3b e1 c0 07 be
       -0.16258045 0.08506152 0.0026176192 -0.13257171
000240 70 74 63 be bc 13 c5 bd 8c 69 12 be 1c c6 7a be
       -0.22212386 -0.09622905 -0.14298075 -0.24489635
000250 28 c9 03 be de a8 17 be 8e d6 4b be e9 99 59 3e
       -0.12869704 -0.14810511 -0.19906065 0.21250118
000260 52 1f b5 be b9 9e af 3e dd 7f b9 3e 76 f0 2a be
       -0.35375458 0.34300783 0.36230364 -0.16693291
000270 b7 19 2b be 96 8e ad be 5b 78 12 3e 71 c2 46 be
       -0.16709028 -0.33897847 0.14303724 -0.19410111
000280 df 3e 81 be 5a 1b fc 3d f0 a9 b1 be 22 44 52 be
       -0.2524328 0.123099044 -0.34699965 -0.20533803
000290 3f c3 7a be 5b b3 4b 3e 1e 6c 2d be 10 a4 49 be
       -0.24488543 0.19892637 -0.16935775 -0.19691491
0002a0 99 fc 95 bd a2 e2 1f bd 47 d6 a0 bd 4f 4f 16 be
       -0.0732357 -0.039034493 -0.0785337 -0.14678691
0002b0 92 3d dc bc d3 ba 19 bd 90 09 51 bd 1e 34 0f 3e
       -0.026884828 -0.037531685 -0.05103451 0.13984725
0002c0 4a d3 9a be 1b fa 49 3e 11 a8 65 3e b9 07 d2 bd
       -0.30239326 0.19724314 0.22427393 -0.10255379
0002d0 29 c8 06 bd a4 cc ad be ff f4 09 bd b8 e0 86 bd
       -0.03290573 -0.3394519 -0.033680912 -0.065858305
0002e0 31 ff 2b be a1 8d d6 3d ae fc 78 be 82 ae e6 bd
       -0.16796567 0.10476232 -0.2431514 -0.112637535
0002f0 76 c6 34 be 4d ea 19 3d f6 b1 47 bd 51 10 40 bd
       -0.17653832 0.037576962 -0.0487537 -0.04689056
000300 6d 68 98 be 9f d2 42 be 7e b8 59 be b4 71 a5 be
       -0.2976717 -0.19025658 -0.21261784 -0.3231331
000310 7b 73 59 be 58 70 59 be 04 a5 6c be 8e cd 9d 3e
       -0.21235459 -0.21234262 -0.23109823 0.30820888
000320 62 74 b0 be 29 c6 b1 3e 0b 5e b2 3e bb 04 7e be
       -0.34463793 0.34721497 0.34837374 -0.24806492
000330 2c 3c 4c be 1a d1 bf be 06 1b 79 3e 7c 3d 77 be
       -0.19944829 -0.3746422 0.24326715 -0.24144548
000340 39 c8 af be 1b fd 64 3e 32 4d b4 be c1 ab 95 be
       -0.34332445 0.22362177 -0.35215145 -0.292326
000350 7d 8b a8 be 14 df 86 3e 66 c4 54 be 54 e8 8b be
       -0.3291892 0.2634207 -0.20778045 -0.2732569
000360 7f b2 95 be 2f fd 73 be 47 0b 87 be 57 d4 9e be
       -0.29237744 -0.2382705 -0.2637579 -0.31021377
000370 21 ba 81 be 71 04 86 be 0e 80 8b be 52 9e 9e 3e
       -0.25337318 -0.26175264 -0.27246135 0.30980164
000380 ce 53 8d be db 44 99 3e 85 9d 9a 3e 76 34 8d be
       -0.27603 0.29935345 0.30198303 -0.27579087
000390 16 96 85 be 54 3a 87 be 7d 08 8f 3e 9e 8c 92 be
       -0.2609107 -0.26411688 0.27936164 -0.28622907
0003a0 2f 52 93 be ba 16 8b 3e 47 9d 8f be 45 61 8d be
       -0.2877364 0.27165776 -0.2804968 -0.27613273
0003b0 64 a8 93 be 80 62 87 3e 17 19 85 be 99 36 9b be
       -0.2883941 0.26442337 -0.25995705 -0.30315092
0003c0 5e 73 94 be 01 62 7f be 57 75 87 be c0 25 9e be
       -0.28994268 -0.2493973 -0.2645671 -0.30888176
0003d0 3d 39 84 be 26 ff 7b be 92 77 9b be 4b f2 9e 3e
       -0.2582492 -0.2460905 -0.30364662 0.3104423
0003e0 e3 43 9a be 70 70 a2 3e 3c e6 9d 3e 84 53 93 be
       -0.30129918 0.31726408 0.30839717 -0.28774655
0003f0 4a 9a 8a be b4 2f 94 be ad 18 92 3e 1e 8f 90 be
       -0.27070838 -0.28942645 0.2853445 -0.2823419

encoder.rnn.bias_ih_l0 f4 [72]
000000 3e ac b2 3d 57 29 a4 3e ee 5d 91 3d 2f b3 f1 bb
       0.08724259 0.3206279 0.07097994 -0.0073760967
000010 5e 1b 1e 3e f4 2f a5 3e 6d 87 16 3e 0d 23 08 3e
       0.15440127 0.32263148 0.14700098 0.13294621
000020 0c c9 95 3d 01 bb 26 3d c6 77 05 3d 68 2b 78 3d
       0.07313737 0.040705685 0.032584928 0.06058827
000030 5e 00 18 3e 37 f6 2b 3e 63 5c e3 3c d9 aa 26 3e
       0.1484389 0.16793142 0.027754014 0.1627611
000040 8d 95 59 3d d9 d8 47 3e f3 9e 76 3d df 4e 89 3b
       0.05312114 0.19516315 0.06021018 0.0041903104
000050 cc a4 77 3c d4 48 f3 3d 9a 47 93 3e d4 38 0a 3e
       0.015114974 0.11879125 0.28765565 0.1349824
000060 df af 0a bf ab 36 ce be af 3d d7 be b3 05 11 bf
       -0.5417461 -0.40276083 -0.42039248 -0.5664932
000070 cb ba ef be 4b 92 20 bf a3 77 1b bf cd 9e 84 be
       -0.468222 -0.62723225 -0.60729426 -0.25902405
000080 e2 47 d6 be 95 0a 03 bf 33 4f fd be bd f7 e0 be
       -0.41851717 -0.5118802 -0.49474487 -0.4393901
000090 57 55 ef be 19 1e a9 be d2 ae 7f be 1d 96 00 bf
       -0.46744797 -0.33030775 -0.24969032 -0.50229055
0000a0 4e e5 01 bf e6 5c a5 be 79 88 f0 be 8e ae 0b bf
       -0.50740516 -0.32297438 -0.4697912 -0.54563224
0000b0 a2 54 07 bf 4b 85 1a bf 1e f8 19 bf a4 81 21 bf
       -0.52863514 -0.6035964 -0.6014422 -0.6308844
0000c0 5d ff 53 bd b2 8a 63 3d 3e b2 2e bd c1 b5 27 be
       -0.051757205 0.055552192 -0.042650454 -0.16377927
0000d0 84 cd 17 3c d4 f2 d5 3d ba c1 25 bc 9d b6 c8 3c
       0.009265307 0.104467064 -0.010116989 0.02450114
0000e0 f1 8a 92 be 0e 75 48 3e 60 ef 6b 3e a0 fe f0 bd
       -0.2862163 0.19575903 0.23040533 -0.11767316
0000f0 41 47 9b 3c 1f f7 98 be d5 c1 11 bd e0 70 6b 3c
       0.018954875 -0.29876038 -0.035585243 0.014370173
000100 94 9f 43 be e8 76 7c 3d 73 27 7d be 75 0e 9d bd
       -0.19103843 0.061636835 -0.2472208 -0.07668773
000110 40 5d 40 be 2c d9 c9 3c d4 e7 a5 3d 08 4b 89 bd
       -0.18785572 0.024639688 0.08100858 -0.06703764

encoder.rnn.bias_hh_l0 f4 [72]
000000 42 ac b2 3d 58 29 a4 3e ed 5d 91 3d 2f b3 f1 bb
       0.08724262 0.32062793 0.07097993 -0.0073760967
000010 5d 1b 1e 3e f3 2f a5 3e 71 87 16 3e 0e 23 08 3e
       0.15440126 0.32263145 0.14700104 0.13294622
000020 0d c9 95 3d 06 bb 26 3d c5 77 05 3d 72 2b 78 3d
       0.07313738 0.040705703 0.032584924 0.060588308
000030 63 00 18 3e 37 f6 2b 3e 72 5c e3 3c da aa 26 3e
       0.14843898 0.16793142 0.027754042 0.16276112
000040 99 95 59 3d d6 d8 47 3e e9 9e 76 3d e8 4e 89 3b
       0.053121183 0.1951631 0.060210142 0.0041903146
000050 a2 a4 77 3c d4 48 f3 3d 9a 47 93 3e d7 38 0a 3e
       0.015114935 0.11879125 0.28765565 0.13498245
000060 de af 0a bf ab 36 ce be ac 3d d7 be b3 05 11 bf
       -0.541746 -0.40276083 -0.4203924 -0.5664932
000070 cc ba ef be 4b 92 20 bf a7 77 1b bf cd 9e 84 be
       -0.46822202 -0.62723225 -0.6072945 -0.25902405
000080 e2 47 d6 be 93 0a 03 bf 32 4f fd be bd f7 e0 be
       -0.41851717 -0.5118801 -0.49474484 -0.4393901
000090 54 55 ef be 19 1e a9 be d2 ae 7f be 1c 96 00 bf
       -0.46744788 -0.33030775 -0.24969032 -0.5022905
0000a0 4f e5 01 bf e5 5c a5 be 77 88 f0 be 8d ae 0b bf
       -0.5074052 -0.32297435 -0.46979114 -0.5456322
0000b0 a4 54 07 bf 4c 85 1a bf 1d f8 19 bf a3 81 21 bf
       -0.52863526 -0.60359645 -0.60144216 -0.63088435
0000c0 ae 24 66 bd 68 48 a4 3c 42 db c7 bd 2d 47 b1 bd
       -0.056187324 0.020054057 -0.09758617 -0.08656154
0000d0 71 f1 ed bc 50 d6 81 3d 66 b4 f0 bc f9 94 f1 3c
       -0.029045792 0.06339705 -0.029382896 0.029489981
0000e0 68 25 12 be 11 4e e2 3d 3a 46 f3 3d 2d 50 dc bd
       -0.14272082 0.11050046 0.11878629 -0.1075748
0000f0 18 de ba bc 21 db 33 be 5b e7 61 bd b6 53 38 bd
       -0.02281098 -0.1756406 -0.05515228 -0.045001708
000100 f0 54 ec bd ab a3 bf 3d 55 88 04 be 43 66 93 bd
       -0.11539638 0.09357389 -0.12942632 -0.07197239
000110 ab 84 d4 bd 5e 37 ff 3c 84 67 32 3d 02 c4 e0 bc
       -0.10376867 0.03115433 0.04355575 -0.027437214

encoder.rnn.weight_ih_l0_reverse f4 [72, 48]
000000 66 79 0b 3d 24 6a 22 3e b7 7b cd 3d 58 fd 84 bd
       0.03405132 0.15860802 0.10033362 -0.06493634
000010 2f 93 76 bd 36 22 64 3d fd 80 93 3d 69 bb 9b 3d
       -0.06019896 0.05569669 0.07202337 0.07604105
000020 2e a5 2a 3d b1 18 84 3d 1b b4 f7 bc f3 b1 9a 3d
       0.041661434 0.06450022 -0.030237248 0.07553472
000030 64 ec a0 3d 9d 82 78 3c 94 a7 ed 3d 96 8d b7 bd
       0.07857588 0.015167859 0.116042286 -0.08962552
000040 91 a0 b5 3d 6e af 94 3d 4e 3e bb 3d da cb ee bd
       0.08868516 0.07260023 0.09142743 -0.11659975
000050 94 32 1f bd 64 19 f1 3d a7 ed d8 bd 89 ac 93 bd
       -0.038866594 0.11772421 -0.105922036 -0.07210643
000060 95 8b 86 bc 92 e5 3c 3b bf b5 08 bd 1c 0b 06 3d
       -0.01642398 0.0028823358 -0.03337645 0.03272544
000070 85 ba fd 3d de c8 82 bd 8c 2c ba bd ff a8 d9 bd
       0.123890914 -0.063859686 -0.09090528 -0.106279366
000080 32 b2 5c bd 3f ed df bc 78 e7 13 be f4 2b b9 3c
       -0.053880878 -0.027334807 -0.14443767 0.022603966
000090 56 42 f0 3d a0 90 67 3c 30 78 4a 3d 73 78 82 bd
       0.117314026 0.014133602 0.049431026 -0.0637063
0000a0 31 ca a4 3d 2e b5 a5 bd f0 ce b0 bd 63 b2 92 3d
       0.080463775 -0.08091198 -0.0863322 0.07162931
0000b0 8f d9 81 3d 34 18 20 be da 57 88 3c eb 70 1e be
       0.06340324 -0.15634233 0.016643453 -0.15472762
0000c0 40 9e ca 3c c2 d9 81 3d 14 27 1d 3c 74 c9 8f bc
       0.024733663 0.06340362 0.0095918365 -0.017552115
0000d0 b1 27 21 bd 63 b5 d1 bb c6 41 0e 3c 9a 7d 67 3d
       -0.039344493 -0.006399797 0.008682674 0.056516267
0000e0 06 c4 72 3d 7d 29 09 3d f0 7b 1e bb 1b 66 18 3d
       0.059268974 0.033486832 -0.002418276 0.03720675
0000f0 c7 fb 4c 3c e4 78 e8 bc 17 06 1a 3d 31 31 39 bd
       0.0125112 -0.028377958 0.037603464 -0.04521293
000100 84 5d eb bb b3 39 8b 3c b8 50 12 ba ab 27 7a bc
       -0.007182779 0.016995287 -0.0005581486 -0.015268247
000110 97 86 79 3c 64 eb 66 3c 3f 8f 81 bc e4 44 ca 3c
       0.015229843 0.014094207 -0.015815375 0.024691053
000120 7f d0 88 bc 3d 2d e4 bc f6 d9 ea 3c 7a da 5b 3c
       -0.016700981 -0.027853603 0.028668385 0.013418788
000130 74 2d f4 3c 17 c8 78 bc 7c 9c 47 bd 41 8a a5 bc
       0.02980683 -0.015184424 -0.04873322 -0.020207526
000140 6c cb 3e bd 5a a4 09 bc 9f 92 9c bd b7 16 68 3c
       -0.046580717 -0.008401001 -0.07645153 0.014165572
000150 69 93 0c 3d c0 89 01 bd d4 ad 0f 3d 85 7c 19 bb
       0.03432027 -0.03162551 0.035077885 -0.0023420167
000160 eb 7d 5d 3d 95 a2 12 bd e8 c2 01 bb 5b a0 a6 3b
       0.054075163 -0.03579958 -0.001980001 0.005085034
000170 2f 39 08 3d 08 cd 8c bd 1c f9 c8 3c ab b7 51 bd
       0.03325766 -0.06875044 0.024532847 -0.05120055
000180 89 59 cf 3c 61 c9 71 3c 0d 08 e7 3b 82 8f 02 bd
       0.025311248 0.014757485 0.0070505203 -0.03187514
000190 25 3d 82 bc ca 6b 03 3b e9 2c 0d 3c ef 55 f2 3c
       -0.015898297 0.002005326 0.008616664 0.029581992
0001a0 ae fb bb 3d 68 70 b2 bd 66 d1 b6 bc 47 bc 23 3d
       0.091788635 -0.08712846 -0.022316646 0.039974477
0001b0 f6 5c 08 3b e5 fb 86 bd aa f9 22 3c a3 31 5c bd
       0.0020807362 -0.06591014 0.00994722 -0.053758275
0001c0 57 94 37 bd 8f e4 bd bd 25 dc 65 bc ba 73 0c bc
       -0.044819202 -0.0927211 -0.014029537 -0.008572513
0001d0 62 23 8f 3d a2 6a 84 3c 44 cb 91 bc 8d 57 1e 3c
       0.069891706 0.016164128 -0.01779712 0.009664428
0001e0 d7 ab 81 bd 2e 97 35 bd 32 ab ad 3d e8 e0 9f bd
       -0.06331604 -0.04433363 0.084799185 -0.07806569
0001f0 63 d5 a1 3b c0 ca 0e bc 0d 9b 19 bd 59 ba 88 3c
       0.0049387678 -0.008715332 -0.037501384 0.01669042
000200 45 95 82 bd 92 44 fa bc 14 10 74 3c 8f 32 dd 3d
       -0.06376127 -0.030550275 0.014896411 0.10800659
000210 b6 0d 24 3d 9b b8 7a bd 5d 77 0c 3d 8f cc 9f 3d
       0.04005214 -0.06121121 0.03429352 0.07802688
000220 b6 5c ea 3c c3 fa 14 bd b9 45 40 3c 32 da c1 3c
       0.028608661 -0.036371958 0.011735373 0.023663614
000230 af d1 8e 3d d2 db 48 bd f7 ea 03 bd cb d3 9e bc
       0.06973588 -0.049037762 -0.0322065 -0.0193881
000240 00 0f b9 ba 83 00 f9 bd 5d c2 f0 bd d8 9c e6 bc
       -0.001411885 -0.12158301 -0.11755822 -0.02815096
000250 8f ab 0a 3d 54 0c 4d bd 0c 6a 9c bd 1b 3e 50 bd
       0.033855017 -0.050060585 -0.07637414 -0.05084048
000260 4f 8c 19 3d 71 e5 15 be 55 eb 8d 3d 0f de 87 bd
       0.037487324 -0.14638306 0.06929652 -0.06634151
000270 24 3f 06 be f6 a8 47 bd 81 4a fb bd 00 d7 67 3d
       -0.13110024 -0.048745118 -0.1227007 0.056601524
000280 0e b2 25 be aa 96 3b be ca 1a d4 bd 9f 21 e9 3d
       -0.16181204 -0.18319193 -0.10356672 0.11383366
000290 79 72 8d 3d 2c 3a 9a bd a7 d6 8d 3d ef 4b e1 3d
       0.069065996 -0.07530627 0.06925707 0.11000811
0002a0 1f f4 48 bd 09 39 02 bc d9 8e a0 3d fe eb 67 be
       -0.049060937 -0.007948169 0.07839746 -0.22648618
0002b0 f5 22 c4 bd 51 82 98 3d 33 d8 f1 3c 1d 4a 29 3e
       -0.0957698 0.07446731 0.029522037 0.16532178
0002c0 a4 d2 ad 3c c7 b7 9e 3d 06 da 47 3e 73 89 bc 3d
       0.021218605 0.077498965 0.19516763 0.09205904
0002d0 43 09 61 bd b1 47 84 bd b6 11 b4 bc 56 49 df 3d
       -0.054940473 -0.064589866 -0.021981101 0.109026596
0002e0 b1 18 70 bd c1 68 14 3c ec 44 d5 3d d7 e2 b1 bd
       -0.058617298 0.009058178 0.104135364 -0.086858444
0002f0 a5 57 05 bd 2b 90 e8 3d e5 ce c7 bc af 9a f6 3d
       -0.032554287 0.11355623 -0.024390647 0.12041222
000300 39 49 99 3c 53 5a eb 3d 0e 32 86 3d 7c b5 ed bc
       0.018711673 0.11491837 0.06552516 -0.029017203
000310 13 5e 0a bd 8a 11 6a 3c e9 c9 a0 3c 46 ba 47 3d
       -0.033781122 0.014286408 0.019627528 0.04876163
000320 a2 65 25 3d 9c 8a b8 3d 86 b9 b4 3b b3 26 2f 3d
       0.040380128 0.09010813 0.00551528 0.042761516
000330 d2 08 5d 3d 88 f2 5a 3c e0 57 98 3d 60 f1 68 bd
       0.05396349 0.013363488 0.07438636 -0.05687082
000340 b6 f5 46 3c 17 31 4d 3d f1 53 21 3d 50 33 13 bd
       0.012143543 0.050095644 0.039386693 -0.035937607
000350 65 0a 1a bd bf d3 8d 3d 4f d0 42 bd a4 2e 65 3a
       -0.03760757 0.06925153 -0.04756194 0.0008742607
000360 9c bf 94 3c 51 be 00 bb 0c 82 08 bc 67 e0 6e 3d
       0.018157773 -0.0019644687 -0.008331787 0.058319476
000370 97 9e c1 3d 4b e0 b3 bc da 55 61 bd d2 37 3e bd
       0.09454077 -0.021957537 -0.055013515 -0.046439953
000380 a5 88 37 bd a9 61 9a bc b6 bc b3 bd 8c 0f d4 3b
       -0.04480805 -0.018845396 -0.08776228 0.00647158
000390 d1 e7 a8 3d 33 8a 4e bc e0 d0 e5 3b 0b e6 6d bd
       0.082473405 -0.012606191 0.007013425 -0.058080714
0003a0 cc b2 51 3d ae f8 13 bd 73 b1 1c bd e5 0a b9 3b
       0.051195905 -0.03612583 -0.038255166 0.0056470507
0003b0 0b a5 02 3d 3f aa bb bd 13 37 d3 3c 57 3f 9e bd
       0.03189568 -0.09163331 0.025783097 -0.07726925
0003c0 73 d9 a3 3c 7f 2f e4 3b 5f 63 0a bc ef 1f 3b bd
       0.020001149 0.00696367 -0.0084465435 -0.04568475
0003d0 52 d6 0d bd 25 63 90 3c a1 b5 ab 3c 00 c2 1e 3d
       -0.03462822 0.0176254 0.02096063 0.03875923
0003e0 ec 67 a8 3d cc 17 0c bd 27 8d 25 bc 75 53 7c 3d
       0.082229465 -0.034202382 -0.010104454 0.06160303
0003f0 8c 86 10 bc 8a bf 82 bd 5a db fd 3b 1c ac 46 bd
       -0.008821141 -0.063841894 0.007747096 -0.04850398

encoder.rnn.weight_hh_l0_reverse f4 [72, 24]
000000 63 34 29 3e 30 04 18 3e 39 c1 d6 bd 1d 13 02 3d
       0.1652389 0.14845347 -0.10486073 0.03175651
000010 44 35 1f be 21 d8 c5 3d c9 e9 af 3c 1b 2e 1b be
       -0.15547663 0.09660364 0.021473782 -0.15154307
000020 b3 6a 14 be 9b 36 29 be d8 4f 0c 3e 39 a7 0b 3e
       -0.14493828 -0.16524737 0.13702333 0.13638009
000030 e1 bd 04 be e3 68 da 3d bc c7 e9 bd 44 33 b1 bd
       -0.12963058 0.10664537 -0.114150494 -0.08652356
000040 aa 62 ee 3d 6a be 02 be 36 05 47 3d f5 e1 a3 3d
       0.116399124 -0.1276795 0.048588954 0.08002082
000050 45 f4 40 3e f7 ff 07 3d cf c9 29 3e 1d f6 02 be
       0.18843181 0.03320309 0.1658089 -0.12789197
000060 24 56 ba 3d 4d 7b ed 3d aa a1 00 be d4 b6 ca 3d
       0.09098461 0.115957834 -0.1256167 0.09898153
000070 5e db df bd 3a 66 f7 3d 0f b8 bb 3d 86 65 d8 bd
       -0.10930513 0.12080045 0.09165966 -0.10566239
000080 6b e3 e4 bd 7d a2 e2 bd 03 a4 01 3e 51 30 00 3e
       -0.11176189 -0.110661484 0.12660222 0.12518431
000090 f1 38 fb bd b4 23 f6 3d f2 0e 12 be 7c 90 f7 bd
       -0.1226672 0.120185286 -0.14263514 -0.12088105
0000a0 77 a1 df 3d 9f 6e 01 be 6f 95 df 3d 71 2e 0a 3e
       0.10919469 -0.12639855 0.10917174 0.13494278
0000b0 3e cd c7 3d 2c f9 ac 3d 5b f9 02 3e b7 09 03 be
       0.09755944 0.08445963 0.12790434 -0.12796675
0000c0 10 a2 86 3d 36 50 e0 3d b3 27 14 be 69 21 00 3e
       0.0657388 0.10952799 -0.14468269 0.12512745
0000d0 3e 79 ea bd 1b d7 0f 3e 15 7b 01 3e e8 de c1 bd
       -0.11448906 0.140469 0.12644608 -0.09466344
0000e0 84 58 04 be cb ed 83 bd f9 ce ee 3d af 7a 05 3e
       -0.12924391 -0.0644184 0.11660571 0.13035081
0000f0 7e c8 e6 bd 6a 6c 18 3e 5c c3 02 be 37 59 1b be
       -0.112687096 0.14885107 -0.12769836 -0.15170752
000100 e3 73 12 3e 13 20 ec bd ab f4 12 3e 8d 71 08 3e
       0.1430202 -0.11529555 0.14351146 0.13324566
000110 0d 03 c7 3d 6a c9 03 3e 98 0d b7 3d 46 b5 c7 bd
       0.09717379 0.12869802 0.0893814 -0.09751372
000120 54 83 1a 3d 18 dd 0c 3e 74 1e 86 be e3 07 bf 3e
       0.0377229 0.13756216 -0.2619511 0.37310705
000130 4c 21 7f bd 25 8b 63 3e 5b 6a f5 3e 27 1e 6a bd
       -0.062287614 0.22221048 0.47932705 -0.05715766
000140 85 fd cb bd a4 6e 18 bd c5 61 eb 3d 40 bf 17 3e
       -0.099604644 -0.03721489 0.114932574 0.1481905
000150 88 24 1a be 91 9f 3e 3e 12 9a 63 be 56 ca 98 be
       -0.15052998 0.18615557 -0.22226742 -0.2984187
000160 e7 26 4e 3e 9c ca 0d be 02 ec c8 3e b8 06 89 3e
       0.20132028 -0.1384682 0.3924256 0.26762938
000170 7b 48 2b 3d 06 09 f1 3e ff 2b 94 3d 17 f5 0c be
       0.04181717 0.47077197 0.07234954 -0.1376537
000180 b1 66 17 3e e2 c0 09 3e 61 6a c1 bd 12 cc 82 3d
       0.14785267 0.13452485 -0.09444118 0.063865796
000190 d4 a0 18 be b5 ef ef 3d 48 d9 5d 3d cd 2e 12 be
       -0.14905101 0.11715642 0.054162294 -0.14275666
0001a0 ee 21 02 be 99 6f 16 be 8f ee fe 3d 91 01 fd 3d
       -0.12708256 -0.14691009 0.12447845 0.123538144
0001b0 3a 38 15 be ec 3b e0 3d 08 18 c6 bd ec 6e d5 bd
       -0.1457223 0.10948929 -0.09672552 -0.10421547
0001c0 f7 d4 e2 3d 6a 50 df bd 14 28 81 3d d5 d7 00 3e
       0.11075776 -0.1090401 0.063064724 0.12582333
0001d0 62 24 f9 3d a1 ca 7a 3d cb 7d 1a 3e 71 35 12 be
       0.121651426 0.0612284 0.15087049 -0.14278199
0001e0 5b 43 9f 3d 74 5f f4 3d 40 9c 0e be 09 cd 07 3e
       0.07776519 0.11932269 -0.13926792 0.13261808
0001f0 82 6e cc bd ba 7e 18 3e 8e 04 c8 3d fd e0 e7 bd
       -0.09982015 0.14892092 0.09766494 -0.1132221
000200 10 fa ec bd 6d 40 e8 bd c6 fa f9 3d 15 72 07 3e
       -0.11571133 -0.11340413 0.12206034 0.13227113
000210 91 5f 0e be 38 62 15 3e a1 3c 17 be 12 38 1c be
       -0.13903643 0.14588249 -0.14769222 -0.15255764
000220 0b eb 11 3e f2 16 06 be 99 c8 0e 3e ad 9f 22 3e
       0.14249818 -0.1309469 0.1394371 0.15881224
000230 57 36 b8 3d d8 c5 f3 3d 0d c9 c6 3d 93 2c 04 be
       0.089947395 0.1190297 0.09706316 -0.12907629
000240 7d 63 1c bd 5d 61 b3 3d 04 18 30 be 53 c7 a1 3e
       -0.038180817 0.08758805 -0.17196661 0.31597385
000250 0c 3b c5 bc 2b 1e 0e 3e 10 41 df 3e fb f6 cf bb
       -0.024076007 0.13878696 0.43604326 -0.006346581
000260 03 8c 97 bd 25 de 3b 3c 25 7b 67 3d 64 c9 b1 3d
       -0.07399752 0.011466538 0.056513924 0.0868099
000270 4c a6 9d bd da 70 f9 3d a8 ef f8 bd 93 ca 51 be
       -0.07697734 0.12179728 -0.12155086 -0.20487432
000280 e7 c5 e7 3d fa b7 27 bd d4 91 95 3e 39 b4 41 3e
       0.11317044 -0.040946938 0.2921282 0.18916406
000290 fb ae c3 3b 7f e0 bd 3e ff c8 50 3c 81 72 a1 bd
       0.005971787 0.3708534 0.012743234 -0.07883168
0002a0 d0 3d 03 3e 60 a1 f1 3d 01 38 ea bd cd f6 4b 3d
       0.12816548 0.11798358 -0.11436463 0.049795914
0002b0 a6 b1 08 be 91 9c e7 3d 12 bb 5c 3d b5 4c e9 bd
       -0.13349018 0.113091595 0.05388934 -0.11391584
0002c0 de 0f 07 be fb d4 0e be 90 e5 08 3e 8d c6 03 3e
       -0.13189647 -0.13948433 0.13368821 0.1286871
0002d0 f4 52 00 be 57 ad f4 3d a6 c0 eb bd b7 43 e3 bd
       -0.12531644 0.119471245 -0.11511354 -0.110969
0002e0 86 53 e9 3d e3 f0 ed bd c5 50 ae 3d 5c 88 d6 3d
       0.11392884 -0.11618211 0.08511499 0.10475227
0002f0 d4 fd 0c 3e a6 12 3b 3d b3 bc 19 3e 06 9f 00 be
       0.13768703 0.04567208 0.1501339 -0.12560663
000300 56 c6 c2 3d 65 92 e4 3d a1 3e f7 bd 3e 93 7d 3d
       0.09510486 0.11160735 -0.120724924 0.061908
000310 df 68 03 be 9c 65 e5 3d 0e 0b 90 3d 79 88 d1 bd
       -0.12832974 0.11201021 0.070333585 -0.10231108
000320 3d af e8 bd c9 e2 e3 bd 64 fe 01 3e e2 eb fa 3d
       -0.11361549 -0.1112724 0.12694699 0.12252022
000330 d7 11 07 be ad d4 e6 3d 20 ff e6 bd 07 48 c3 bd
       -0.13190399 0.112710334 -0.1127913 -0.095352225
000340 c0 0b dc 3d af df 0d be 3c 2c a6 3d 92 60 ee 3d
       0.10744429 -0.1385486 0.08113906 0.11639513
000350 c3 bb d1 3d 67 29 90 3d 69 8c d9 3d 13 2b f0 bd
       0.10240891 0.07039147 0.10622484 -0.11726966
000360 1b ad 08 3e c1 15 e5 3d 6f e4 ce bd be 3b a1 3d
       0.13347284 0.1118579 -0.10102164 0.07872723
000370 4b 2d 0a be d5 6a ef 3d 4b 69 19 3d 0f 63 08 be
       -0.1349384 0.116902985 0.03745393 -0.13319038
000380 a0 6f ff bd ca 87 0b be ce 09 e8 3d 23 ae 05 3e
       -0.12472463 -0.13626018 0.11329995 0.13054709
000390 cb 40 ef bd 53 d9 0b 3e 2e cc e0 bd a9 f0 cb bd
       -0.1168228 0.13657121 -0.10976444 -0.09958012
0003a0 ba 0b e4 3d d1 0e 06 be a1 99 b9 3d e4 94 dc 3d
       0.11135049 -0.1309159 0.090625055 0.10770586
0003b0 4f bb 0f 3e 5b 0c 87 3d 50 38 05 3e 83 b3 18 be
       0.14036296 0.065941535 0.13009763 -0.14912228
0003c0 45 ce b9 3d 0d 9e e9 3d c4 d9 ce bd f0 f1 a0 3d
       0.09072546 0.11407099 -0.10100129 0.07858646
0003d0 8d c0 c3 bd 69 fe f4 3d b8 29 a3 3d f7 11 f5 bd
       -0.095582105 0.119625874 0.079669416 -0.11966317
0003e0 f0 d4 ea bd 88 94 a6 bd 9f 8d d1 3d 9f f2 e0 3d
       -0.11466396 -0.08133799 0.1023209 0.10983776
0003f0 e4 74 b9 bd be db fc 3d 6d 8d dd bd b3 ad fe bd
       -0.09055498 0.123466 -0.108179905 -0.12435474

encoder.rnn.bias_ih_l0_reverse f4 [72]
000000 6f 06 15 3d 1c bb af 3d 42 24 a3 3d ea 67 04 3e
       0.03638309 0.0858061 0.079659 0.12930265
000010 28 f7 84 3d c8 3c bc 3d d9 e7 ba 3d 5a d5 6a 3d
       0.06492454 0.091912806 0.09126253 0.057332374
000020 0d 04 86 3d d4 77 32 3d 61 d9 94 3d 5d 57 bc 3d
       0.065437414 0.04357131 0.07268024 0.09196351
000030 b8 cf a5 3d 83 99 b6 3d 1c 41 e7 3d cd 47 d1 3d
       0.0809626 0.08915999 0.112917155 0.10218773
000040 9f e3 cb 3d e3 1e 9f 3d 01 8e f1 3d 9d 04 d3 3d
       0.09955525 0.07769563 0.11794663 0.10303614
000050 04 d0 3e 3d 20 2b c6 3d cb 99 7e 3d c2 03 a5 3d
       0.046585098 0.09676194 0.062158387 0.08057357
000060 d0 92 90 3d fd 3b 6f 3d 27 61 6e 3d 6a 85 0d bd
       0.07059252 0.05840682 0.05819812 -0.03455106
000070 36 c6 8b 3d bf f3 62 3d 5b eb 3a bd 24 fe 94 3d
       0.06824915 0.055408236 -0.04563461 0.07275036
000080 db b8 87 3d 31 08 9f 3d 7c a6 79 3d b0 25 56 3d
       0.06627055 0.07765234 0.060949787 0.052282035
000090 5e 21 7c 3d 60 79 73 3d 17 b0 1c 3d 48 00 39 3d
       0.06155526 0.059441924 0.03825387 0.045166284
0000a0 be 8f 53 3d aa ee 70 3d c0 97 32 3c d5 1f 36 3d
       0.051650755 0.058821358 0.010900438 0.04446395
0000b0 87 80 8e 3d 8e 47 4d 3b 22 80 8f 3d 8f 97 6d 3d
       0.069581084 0.0031323167 0.07006861 0.058005866
0000c0 33 32 28 3c 66 68 49 3d 1c 8d 37 bd 65 9e 4d 3d
       0.010265875 0.049171828 -0.044812307 0.050199885
0000d0 ab c8 09 bd d9 77 48 3d 53 c5 25 3d 58 cf 11 bd
       -0.033638638 0.04894242 0.040471386 -0.03559813
0000e0 3d f6 23 bd 0d 75 a7 bc f3 66 38 3d 15 a7 55 3d
       -0.040029753 -0.020441556 0.045020055 0.052161295
0000f0 1a 61 3c bd 85 35 45 3d 14 13 6e bd ea 7f 53 bd
       -0.04599104 0.048146743 -0.058123663 -0.05163566
000100 29 e9 55 3d 67 fa 35 bd 66 fc 54 3d 90 89 5d 3d
       0.052224312 -0.044428255 0.05199852 0.054086268
000110 1f 4a 8f 3c 28 56 35 3d 0b cc 0d 3d ff a4 31 bd
       0.017491398 0.044271618 0.03461842 -0.043370243

encoder.rnn.bias_hh_l0_reverse f4 [72]
000000 76 06 15 3d 1e bb af 3d 3f 24 a3 3d e9 67 04 3e
       0.036383115 0.08580612 0.07965898 0.12930264
000010 26 f7 84 3d c9 3c bc 3d d7 e7 ba 3d 5c d5 6a 3d
       0.06492452 0.09191281 0.09126251 0.05733238
000020 0d 04 86 3d d6 77 32 3d 67 d9 94 3d 5a 57 bc 3d
       0.065437414 0.043571316 0.07268029 0.091963485
000030 b0 cf a5 3d 7e 99 b6 3d 1a 41 e7 3d ce 47 d1 3d
       0.08096254 0.08915995 0.11291714 0.10218774
000040 a1 e3 cb 3d e5 1e 9f 3d 0f 8e f1 3d 9e 04 d3 3d
       0.09955526 0.077695645 0.11794674 0.10303615
000050 12 d0 3e 3d 1e 2b c6 3d c3 99 7e 3d c8 03 a5 3d
       0.04658515 0.09676193 0.062158357 0.08057362
000060 cf 92 90 3d 02 3c 6f 3d 26 61 6e 3d 6c 85 0d bd
       0.070592515 0.058406837 0.058198117 -0.03455107
000070 36 c6 8b 3d c5 f3 62 3d 54 eb 3a bd 20 fe 94 3d
       0.06824915 0.055408258 -0.045634583 0.07275033
000080 dc b8 87 3d 2d 08 9f 3d 80 a6 79 3d ad 25 56 3d
       0.06627056 0.07765231 0.060949802 0.052282024
000090 58 21 7c 3d 5f 79 73 3d 18 b0 1c 3d 46 00 39 3d
       0.061555237 0.05944192 0.038253874 0.045166276
0000a0 c2 8f 53 3d ad ee 70 3d c5 97 32 3c d7 1f 36 3d
       0.05165077 0.05882137 0.0109004425 0.04446396
0000b0 86 80 8e 3d a9 47 4d 3b 1f 80 8f 3d 92 97 6d 3d
       0.06958108 0.003132323 0.07006859 0.058005877
0000c0 a7 55 9d 3c ae c5 47 3d ed 57 39 bd 6c 3a 83 3d
       0.019205881 0.048772506 -0.04524987 0.064076275
0000d0 67 75 14 bd cd 56 49 3d 10 fa 71 3d 36 d0 1a bd
       -0.036244776 0.049155045 0.05907637 -0.03779622
0000e0 42 18 21 bd 26 71 c3 bc f1 0d 34 3d 3f ec 52 3d
       -0.039329775 -0.023857664 0.043958608 0.051494833
0000f0 40 5e 3a bd a4 85 43 3d 98 88 73 bd e5 0a 60 bd
       -0.04550004 0.04773487 -0.059456438 -0.05469789
000100 33 57 57 3d 63 04 34 bd 34 3d 79 3d 40 50 64 3d
       0.052573394 -0.043949496 0.060849383 0.055740595
000110 50 f8 ce 3c c2 4d 60 3d c1 68 16 3d 6f d1 32 bd
       0.025264889 0.054761656 0.036720995 -0.043656763

encoder.fc.weight f4 [24, 48]
000000 ba e2 37 be a0 c4 4f be 6f d6 4e be f6 3f 3d be
       -0.17957583 -0.2028985 -0.20198987 -0.1848143
000010 0a 1e 62 be 38 26 6c be 27 d5 41 be cb e9 0e 3d
       -0.22081771 -0.23061454 -0.18928967 0.03489093
000020 94 22 1f be 22 dc 31 3e e1 39 31 3e 58 80 34 be
       -0.15540534 0.1736913 0.17307235 -0.17627084
000030 c4 3b 57 be 6e b3 25 be a3 52 44 3d 33 ba 55 be
       -0.21018893 -0.16181728 0.04793037 -0.2087181
000040 9f c0 32 be 3e 54 25 3e c6 b5 2e be 05 a1 37 be
       -0.17456292 0.16145417 -0.17061529 -0.17932518
000050 8d 26 40 be 26 6f 3f 3e 56 d9 58 be f1 ba 41 be
       -0.18764706 0.18694744 -0.21176657 -0.18918969
000060 1f df 57 3d 90 1a 2d bc 30 1e 55 3c b6 03 07 bd
       0.05270302 -0.010565415 0.013007686 -0.032962523
000070 d5 f2 a1 bc 8d 56 ac bc d6 96 25 bd 6c 5d 1a bd
       -0.019769112 -0.021037364 -0.04042705 -0.03768675
000080 e3 10 82 bc 4c 6b 48 bd 8a 9c 2b bb 69 37 20 bc
       -0.015877193 -0.04893045 -0.0026185834 -0.009778836
000090 c7 f4 d4 3b de 20 8f bc 8b 87 d3 3c 4d 08 fe 3c
       0.0064989063 -0.017471727 0.025821468 0.031009817
0000a0 e0 29 42 bc 7f 4c 8a 3c 4f db 02 bd d4 a0 90 bc
       -0.011850804 0.01688218 -0.03194743 -0.017654814
0000b0 bb b3 3a 3d 10 e2 32 bd 4f cd a6 3c 5e 73 5e 3c
       0.04558156 -0.04367262 0.02036157 0.01357731
0000c0 94 56 29 3d ca 02 3e 3c 58 48 e1 39 92 88 8a 3c
       0.041342333 0.011597345 0.00042969245 0.016910825
0000d0 e4 6d cb 3c d5 6b f6 3c 49 d8 0e 3d 08 83 8b 3c
       0.024832673 0.030080715 0.034874234 0.017030254
0000e0 7d dc cc 3c 48 5a 15 bd 92 ff e7 bc 8d 6e b0 3c
       0.02500748 -0.036463052 -0.028320108 0.02153709
0000f0 26 09 14 3d d5 03 8c bb 41 af 51 3c 88 f8 ae 3c
       0.036141537 -0.0042729178 0.012798131 0.021358743
000100 37 ae 8c 3c 4e 82 88 3c 18 1e be 3c ca 9a 00 3d
       0.017172916 0.016663697 0.02320771 0.03139762
000110 1a 16 6f 3c e4 27 07 bd 8f 4e d0 3c 65 fb 69 3c
       0.014592672 -0.032997027 0.025428085 0.0142811285
000120 6a 3f 01 3e ad b3 17 3e 05 be 13 be 07 a4 be 3d
       0.12621847 0.14814635 -0.14427955 0.093086295
000130 31 64 04 be 46 78 11 3e 34 e9 f2 3d 43 f5 fb bd
       -0.12928845 0.14206037 0.11860886 -0.12302639
000140 78 89 14 be 15 a5 c3 bd 22 70 07 3e 69 31 0c 3e
       -0.14505565 -0.09552971 0.13226369 0.13690723
000150 f9 52 19 be 8f c0 00 3e 00 d3 fe bd a6 93 07 be
       -0.14973058 0.12573455 -0.12442589 -0.13239917
000160 57 30 07 3e fc 01 12 be 78 b8 04 3e 9f d4 06 3e
       0.13202034 -0.1425857 0.12960994 0.13167046
000170 ba 96 c9 3d d7 cd 07 3e fb b1 eb 3d 19 d7 13 be
       0.09843202 0.13262115 0.115085565 -0.14437522
000180 5e 64 2d 3d b1 cd 2e 3d dd 02 03 3d cb 76 03 3d
       0.042332046 0.04267663 0.031985153 0.03209571
000190 3a 0d 33 3d 7b 1e 38 3d 51 18 f5 3c e7 a7 81 3c
       0.043713786 0.044950943 0.029918822 0.015827132
0001a0 5e 0f 52 3d ee 97 6a bd 28 77 18 bd d7 4c 05 3d
       0.051284187 -0.057273798 -0.03722301 0.032543983
0001b0 be c7 1f 3d ab 1f 81 3c 98 05 a5 3c 32 cb 05 3d
       0.03900885 0.01576217 0.020144269 0.032664485
0001c0 a1 b2 13 3d 46 51 19 39 d6 a4 5d 3d 61 bb 71 3d
       0.036059026 0.00014621494 0.054112278 0.05901659
0001d0 f1 d0 00 3d a4 75 ff bc 5e c5 8d 3d f0 23 09 3d
       0.031449262 -0.031184025 0.069224104 0.03348154
0001e0 ac 69 a8 3d 2a 58 04 3e 6f 78 0e be 6e c2 d0 3d
       0.0822328 0.12924257 -0.1391313 0.101933345
0001f0 c6 4d 02 be 49 53 0d 3e 19 4d fb 3d 2f 6e 0d be
       -0.1272498 0.13801302 0.122705646 -0.13811563
000200 09 7a 17 be 3d 54 df bd e5 b6 19 3e 6f e9 f9 3d
       -0.14792646 -0.10904739 0.15011175 0.12202727
000210 cf 1b 18 be 91 1e f8 3d a5 b4 ea bd 9c 76 0b be
       -0.14854358 0.12115205 -0.114602365 -0.13619465
000220 a6 20 15 3e 58 9a 04 be fe 7a 04 3e 50 5d 01 3e
       0.14563236 -0.12949502 0.12937543 0.12633252
000230 45 cb ad 3d 82 a9 1c 3e c4 15 f6 3d 77 93 e7 bd
       0.08486036 0.15299037 0.1201587 -0.113074236
000240 11 f2 70 bd 11 55 90 bd 01 52 3e bd 40 5c 6d bd
       -0.058824603 -0.07047475 -0.046464924 -0.057949305
000250 5f e0 65 bd 6a 41 74 bd 9c 99 95 bd 10 2b e0 bd
       -0.05612218 -0.059632696 -0.07304689 -0.109457135
000260 56 7c 80 bd de 22 6b 3d 51 a0 91 3d 73 3d 89 bd
       -0.06273715 0.0574063 0.07110656 -0.06701174
000270 cf ef 7c bd 0a 99 0c bd ef f4 f9 bd 02 3b 37 bd
       -0.061752137 -0.034325637 -0.122049205 -0.04473401
000280 4f 1f 97 bd 7e 22 14 bd 2b 96 1a bd bc 74 96 bd
       -0.073790185 -0.036165707 -0.037740868 -0.07346484
000290 e3 24 62 bd 04 cb 51 3d 4f ce 20 bd 77 81 73 bd
       -0.05521096 0.051219 -0.03925925 -0.05944964
0002a0 34 6e e2 bd 8f cf a2 bd 75 7d ba 3d 5b 78 63 bd
       -0.11056176 -0.07949745 0.0910596 -0.0555347
0002b0 27 14 ba 3d 61 38 7e bd f6 9c b8 bd d6 08 ab 3d
       0.09085875 -0.062065486 -0.09014313 0.08351295
0002c0 ba 0d aa 3d a2 9f a7 3d 1e f1 a6 bd 23 47 5c bd
       0.083033994 0.081847444 -0.08151458 -0.05377878
0002d0 80 3f c6 3d 83 ab 8a bd e2 d0 8e 3d 99 69 92 3d
       0.096800804 -0.067709945 0.06973435 0.071490474
0002e0 2b 76 8b bd bd d1 a6 3d 84 32 ac bd fe aa 85 bd
       -0.06809648 0.08145473 -0.084080726 -0.06526755
0002f0 dc 4d ce bd 0d 2b df bd 7c dd 94 bd 04 94 91 3d
       -0.10073444 -0.10896883 -0.07268807 0.0710831
000300 39 b5 a6 3d c7 98 78 3d 20 7a 9d 3d 44 61 a5 3d
       0.08140034 0.060692575 0.07689309 0.080751926
000310 7f 2f 6a 3d 5a c7 8f 3d c5 a8 80 3d a7 48 c2 bb
       0.057174202 0.07020445 0.0628219 -0.005929071
000320 94 74 63 3d 11 ef bb bd 75 c8 9f bd 05 16 92 3d
       0.0555311 -0.09176458 -0.07801906 0.07133106
000330 e4 bc 91 3d cd 48 84 3d 69 e6 2c bc 00 83 79 3d
       0.07116106 0.06459198 -0.010552981 0.060915947
000340 c5 fa 93 3d 6e 16 23 bd 88 02 99 3d 45 61 a1 3d
       0.07225565 -0.039816312 0.07471186 0.07879881
000350 3a e0 94 3d 8f 81 8e bd 5c ed ab 3d f6 45 7a 3d
       0.0726933 -0.06958305 0.08394882 0.061101876
000360 0e 18 6c 3e 11 f5 45 3e ba d5 42 be 42 16 06 3e
       0.23056051 0.19331767 -0.19026843 0.13094428
000370 26 24 72 be d9 cc 3a 3e a3 aa 0d 3e 5c b8 71 be
       -0.23646602 0.18242206 0.13834624 -0.23605484
000380 e9 23 60 be 74 e5 82 be 10 0e 57 3e ea 3e 3c 3e
       -0.21888699 -0.25565684 0.21001458 0.18383375
000390 6c b1 4e be c4 fe 47 3e cc be 49 be 8a d2 1e be
       -0.20184869 0.19530779 -0.1970169 -0.15510002
0003a0 6b f8 42 3e db 42 5b be b7 c7 20 3e e5 24 30 3e
       0.19040076 -0.21412222 0.15701185 0.17201574
0003b0 73 5b 70 3e e3 83 fd 3d 08 b8 7b 3e 47 7f 5e be
       0.23472385 0.12378671 0.24581921 -0.2172824
0003c0 34 d1 b1 3d ef 42 a7 3d 81 ef 3a 3d 9e 05 97 3d
       0.086824805 0.081670634 0.045638565 0.07374118
0003d0 8b 10 7a 3d 19 66 94 3d e2 1a 8d 3d e3 9e 56 ba
       0.061050933 0.07246036 0.06889893 -0.0008187128
0003e0 ad d3 9a 3d 21 45 7a bd 58 72 8d bd b0 08 5b 3d
       0.07559905 -0.061101083 -0.06906575 0.053475082
0003f0 fa ad 8e 3d 25 3f 07 3d 8b dc 9a 3c b0 fb 84 3d
       0.06966777 0.033019204 0.018903991 0.06493318
