agl/models/autosave/pres-AE-19-9-0.01-F1.pt (torch, 55500 bytes, 53 tensors)

gating.embedding.weight f4 [8, 10]
000000 9c f5 e3 bb 65 e3 8a 3b b2 57 a3 3c ea fe 04 ba
       -0.006956769 0.0042385333 0.019939277 -0.00050733855
000010 46 1b 42 3c bb da bc 3c 38 eb 9b b9 29 cf f4 3a
       0.011847323 0.023053518 -0.00029739155 0.0018677461
000020 9b 8a 06 bc 81 9a 6f 3b fa 54 a9 bd f5 28 a2 3d
       -0.008211757 0.0036560597 -0.08268161 0.07917968
000030 73 e6 17 bd 1b 78 86 ba 3d 65 70 3c 25 f3 0f 3f
       -0.037085008 -0.0010259183 0.014672575 0.56230384
000040 cc 22 93 3d f4 10 93 3d db cf 3c 3d 8f 41 50 3d
       0.07184371 0.07180968 0.046096664 0.05084377
000050 92 48 6d 3d 86 b2 09 bd f5 aa 6f 3e e5 96 f4 bc
       0.057930537 -0.03361752 0.23405059 -0.029857108
000060 f6 8c 51 3c b6 d5 5d bd 1a 70 45 3d 6a 95 83 3d
       0.012789955 -0.05415889 0.04820261 0.06424983
000070 e5 b5 19 3d 5c 24 7f bd 8b 5b 32 3f 20 4c 36 bf
       0.037526984 -0.062290534 0.69670933 -0.7120991
000080 03 67 e2 be 13 7e cb 3b 33 91 3b 3f 95 0c ad 3e
       -0.44219217 0.0062100976 0.7326843 0.33798662
000090 62 eb 4c be be 32 80 3e 6e 6e 2d 3e db ee c1 be
       -0.20011666 0.25038713 0.16936657 -0.37877545
0000a0 12 87 5f bd 35 58 b8 be aa 27 43 bd 4a 48 00 be
       -0.054572172 -0.36004797 -0.04764525 -0.12527576
0000b0 43 9b 50 3d bc dd e4 3e a2 b6 73 3d 5d 74 71 3d
       0.05092932 0.4470042 0.059500344 0.058948863
0000c0 41 d2 72 be 3b 52 5b 3d d9 5b 8b bd 4a d0 39 bf
       -0.23713018 0.053545218 -0.06804628 -0.7258345
0000d0 77 f5 51 bd 45 4b 9c 3e 5f 55 0b 3f b9 61 93 bd
       -0.051259484 0.30526176 0.5442714 -0.071963735
0000e0 ed 44 08 bf ae 3d 95 be 03 02 74 3d 11 4b 48 3d
       -0.5323017 -0.2914862 0.05957223 0.048899714
0000f0 b6 2f 4e bd b0 c3 53 3d d7 49 b5 bd a7 7b 06 3f
       -0.05033847 0.051700294 -0.088519745 0.5253243
000100 59 c4 98 3d 5e 8e 6a bd 23 e9 5d 3d 4b db 51 3f
       0.07459325 -0.05726468 0.054177415 0.8197524
000110 cd 79 1f 3f 57 44 83 bf c1 b5 3d bd 99 a7 f0 be
       0.6229523 -1.0255231 -0.046315912 -0.47002867
000120 95 22 45 bd 73 ea 15 3e 03 6d 3c 3f 6d 53 c2 3e
       -0.048128683 0.14640217 0.7360384 0.37954274
000130 b1 8c 7f 3d d7 f3 18 3d 69 3c 2b 3e 87 d9 ff be
       0.062390033 0.03734192 0.16722263 -0.49970648

gating.rnn.weight_ih_l0 f4 [30, 10]
000000 ef 39 a0 be 66 09 48 3e b5 37 44 3c 84 76 32 be
       -0.312942 0.19534835 0.011976172 -0.17428023
000010 47 8e a5 3e a7 00 4a bd 14 e3 2b 3e 24 8a 9d 3e
       0.32335111 -0.04931703 0.16785842 0.30769455
000020 b9 de 7f 3e 01 2b ca 3d a0 fc 6f 3e 58 a1 63 be
       0.24987306 0.098714836 0.23436213 -0.22229517
000030 7c 3e 9d bc 50 20 53 3e de df ab be 64 46 60 be
       -0.019194834 0.20617795 -0.33569235 -0.21901852
000040 71 60 2e 3d 9f 78 12 bd fa b8 8b bd 5f 1d 0d be
       0.042572442 -0.035759564 -0.06822391 -0.13780735
000050 15 7d af be a2 31 cb 3e 55 b3 f8 be 1b 82 79 3e
       -0.34275118 0.39686304 -0.4857432 0.24366038
000060 33 a7 87 3e 32 b4 01 3f 80 b5 0b bf e7 bd 32 bf
       0.2649475 0.5066558 -0.5457382 -0.6982102
000070 7f 13 0d ba a3 52 11 be 21 07 59 3e 91 c5 8e be
       -0.0005381628 -0.1419168 0.21194126 -0.27885106
000080 78 a4 e3 3c 46 fb 52 3e bf ff 86 be 15 f4 27 be
       0.027788386 0.20603666 -0.26366994 -0.16401704
000090 5d 32 57 3d 55 67 2f be 87 56 78 bd fc e4 4a be
       0.052538265 -0.17129262 -0.060629394 -0.19813913
0000a0 6a d6 79 3e 90 fe a4 be f8 a3 49 bc 22 1d 69 3e
       0.24398199 -0.32225466 -0.01230716 0.2276502
0000b0 47 97 9b be 39 98 89 be 5a 92 50 3e 28 dd 96 bd
       -0.30388853 -0.2687395 0.20368329 -0.07366401
0000c0 61 56 f0 bd 26 f3 0a be 86 07 12 3e 74 d1 dc bd
       -0.117352255 -0.13569316 0.14260682 -0.107821375
0000d0 3c 82 f6 3d 78 ed 44 3e 95 de 0a bf 1b 58 85 be
       0.12036559 0.19231212 -0.54245883 -0.26043782
0000e0 b5 a5 8a be fb 7b 91 be cd 1f d7 bd 58 9b 70 bd
       -0.2707955 -0.28414902 -0.105041124 -0.058741897
0000f0 b9 6d c5 3d 66 08 41 be c4 94 9d 3d 6e 0b 61 3e
       0.096400686 -0.1885086 0.076943904 0.21977016
000100 37 fd 97 be ee 7b 2b be c4 0e 15 3e 9f 86 2f be
       -0.29685375 -0.16746494 0.14556414 -0.17141198
000110 27 aa 88 bd a0 a2 72 bd 37 86 37 be b7 02 9c 3d
       -0.06673079 -0.059237123 -0.17922293 0.07617705
000120 74 25 c3 3e 9d 95 35 be 46 de 05 3f 51 c5 01 3e
       0.38114512 -0.17732854 0.5229229 0.12672926
000130 6c 9c 73 3e 17 c5 81 3e d4 6f 23 3e 6f 81 9f bd
       0.23790139 0.2534568 0.15960628 -0.077883594
000140 84 9a 19 be 77 27 52 3c 03 e5 6f 3d 93 36 21 be
       -0.1500035 0.012826792 0.058568012 -0.15743475
000150 1c fe 05 3f 81 cd 9f 3c ae b9 f9 bc ec ca 8f 3d
       0.52340865 0.019507172 -0.030484047 0.07021126
000160 04 7e 42 3e 3e 9d be 3c ca 51 83 be 25 88 09 3e
       0.18993384 0.023268338 -0.25648338 0.13430841
000170 c8 2d 82 3d c3 7d 3b be 9a a1 0b 3f 4c 1c 29 bc
       0.06356388 -0.18309693 0.5454346 -0.010321688
000180 0d 3d 0c be 29 4d 5c 3e 77 af 16 3e f8 d6 b7 bd
       -0.13695164 0.2151381 0.14715372 -0.08976549
000190 ae c3 04 be 3e 9f 16 3e 52 b1 ce bd 20 4e 92 3c
       -0.12965271 0.14709184 -0.10092415 0.017859519
0001a0 34 2d 88 3e 14 6c 43 3e 33 a4 e1 3d cd 33 64 be
       0.26596987 0.19084197 0.11017647 -0.22285385
0001b0 9f d6 44 3d 59 b4 88 bd 65 ae 19 3c ca 39 43 be
       0.04805624 -0.066750236 0.009379958 -0.19065014
0001c0 95 70 2d 3e 14 94 f8 be 95 f2 7a be b2 95 51 be
       0.16937478 -0.48550475 -0.245066 -0.2046726
0001d0 4c 53 ab be da 10 98 3e e2 f1 3b be 61 22 3a 3e
       -0.33461988 0.29700357 -0.1835399 0.18177177
0001e0 11 44 c1 bd a1 d4 27 be 9b 52 bb 3e c3 c1 2b bf
       -0.09436811 -0.16389705 0.3658646 -0.6709253
0001f0 a7 6d e5 be 45 ab ce be cd b1 06 3e 71 36 11 3e
       -0.4481022 -0.40365043 0.13153763 0.14180924
000200 50 d1 37 be 92 b7 ef 3e 36 fc aa be 8f 61 3c be
       -0.1795094 0.4681974 -0.33395547 -0.1839659
000210 87 30 85 3e 94 c6 b6 be 83 89 a2 be 11 c1 a5 be
       0.26013586 -0.35698378 -0.31745538 -0.3237386
000220 dc 76 fa bd ea 5b 31 3e 82 26 5a bd 98 24 94 3e
       -0.12229702 0.17320219 -0.05325938 0.2893417
000230 39 98 85 3d 8a 35 27 be 9c d4 27 3e 1b f5 ee be
       0.06523175 -0.16329017 0.16389698 -0.46671376
000240 e4 53 8a be b0 32 93 be 56 f2 80 bc 1e d4 8a 3e
       -0.27017128 -0.2874961 -0.015740555 0.27114958
000250 67 25 05 be 0a 90 52 3e b4 b1 66 3e 7d 36 44 be
       -0.13002549 0.20562759 0.22528726 -0.1916141
000260 4f 79 4d 3e 7b 52 99 be 96 98 78 be a4 5e 82 be
       0.20065807 -0.2994574 -0.24276957 -0.2546283
000270 3c b2 9e bd 06 b5 1d 3e 68 11 8c be e6 87 2c 3e
       -0.07748839 0.15401086 -0.2735703 0.16848716
000280 38 bf 31 be 36 61 31 be cd eb 4b 3e 8e 48 bf be
       -0.173581 -0.1732224 0.1991417 -0.37360042
000290 59 55 8c be 97 f8 87 be f1 4f 04 3d f7 5c 07 3e
       -0.27408865 -0.26556846 0.0323028 0.13219057
0002a0 e8 36 3e be d4 b0 a5 3e 20 43 83 bd 24 dd 25 be
       -0.18575633 0.32361472 -0.064092875 -0.1619764
0002b0 ad c7 05 be d6 7d f7 3d 3a f2 03 3e 13 9b 54 be
       -0.13064452 0.12084548 0.12885371 -0.20762281
0002c0 5d cf 16 3e 23 40 31 3e 65 f9 40 3c c2 23 8f be
       0.1472754 0.17309622 0.01177821 -0.2795697
0002d0 8b cd 35 3d 9d b2 1c 3e 96 84 5e be f7 db 7e 3d
       0.044385474 0.1530251 -0.21730265 0.062221494
0002e0 3b 2d 86 3e d3 ba 4e 3e 53 a1 18 3e 29 bb ca be
       0.26206383 0.20188455 0.1490529 -0.39595917
0002f0 8e f7 6f bd 62 80 ea bd 84 f7 9b 3d f8 bb ab 3d
       -0.058585696 -0.11450268 0.07615569 0.083854616
000300 0a f3 0b bf b3 74 be bc db 85 10 3e 2c 41 6f 3d
       -0.54667723 -0.023249006 0.14113562 0.058411762
000310 b1 71 a2 3e 14 3a b0 be 73 8b 10 bd 9a 29 61 be
       0.31727365 -0.3441931 -0.03528924 -0.21988526
000320 3a b3 03 bd 7b d9 d8 3c dd 9b 73 3d 8c 36 3f 3e
       -0.032153346 0.02647089 0.059474815 0.18673152
000330 d4 9f 3a bd e6 7d 6a bd e0 ea 52 3d 09 2a 83 bd
       -0.04556258 -0.057248972 0.051493526 -0.06404502
000340 c3 26 f4 3d e8 79 da 3c 36 97 34 3e 98 1d 63 be
       0.11921456 0.026669458 0.17635807 -0.22179258
000350 94 45 9a bd ae f4 59 3e 93 2b 3b 3d a1 1c 6b 3c
       -0.07532802 0.21284744 0.045695852 0.014350087
000360 99 43 6f bd b4 e1 ca 3d 76 36 80 3e 2d 9b 12 be
       -0.058414076 0.09906331 0.2504155 -0.14317007
000370 62 a3 98 be 5e 6d 90 3e 33 23 56 3c 79 dc 86 be
       -0.2981215 0.2820844 0.013069916 -0.26340082
000380 ab 9b ea 3c b1 0c 41 3e 59 5f a0 3d a8 3f 04 be
       0.028638681 0.18852498 0.07830686 -0.12914908
000390 61 6e 88 be 4e 98 87 3e 58 37 6b be 06 85 71 3e
       -0.26646712 0.26483387 -0.2297033 0.235859
0003a0 61 45 8e 3d 38 f7 93 be d3 c7 22 bd ba 0a f9 3c
       0.06946827 -0.2889955 -0.03974135 0.030400623
0003b0 0f 93 9a 3d 1d 0b 06 be e9 59 86 be a9 4d 37 3e
       0.075475805 -0.13090177 -0.2624047 0.17900719
0003c0 ea 68 0e be 48 94 20 3e d7 3b 68 3d 2a 53 83 be
       -0.13907209 0.15681565 0.056697693 -0.25649387
0003d0 b3 4f a2 bd 28 e4 05 bd bf fd 83 3d c8 c4 94 bd
       -0.07925358 -0.03268829 0.064448826 -0.072640955
0003e0 68 9d 87 be 40 cc c7 3d 43 63 2e 3e 64 7a 5a be
       -0.2648728 0.097557545 0.17030053 -0.21335751
0003f0 b8 2f 75 bd 74 54 4b 3e 6b 0b 83 3d 76 00 9f 3b
       -0.05985996 0.19856435 0.06398662 0.00485235

gating.rnn.weight_hh_l0 f4 [30, 10]
000000 ec 41 3c be 42 42 94 3e 7f b1 55 be b5 cb 81 be
       -0.18384522 0.289568 -0.2086849 -0.2535073
000010 c5 8b 32 be 33 c8 99 3e 7c dc 8c be 5d 40 2c 3e
       -0.1743613 0.30035552 -0.27511966 0.16821428
000020 47 62 91 bd d6 ff 00 be fc f7 a6 3c 18 3f b0 bc
       -0.07098823 -0.12597594 0.02038192 -0.02151446
000030 c5 93 10 bd fa cb 3d bc eb ec 12 bb b9 4f 18 be
       -0.035297174 -0.011584276 -0.0022419046 -0.14874162
000040 3e 63 07 3d 89 89 98 3d 34 85 03 bd e1 ae 67 3c
       0.03305363 0.07448108 -0.032109454 0.0141408155
000050 c4 6e ef 3e ff eb f3 be ba 51 f7 3e c1 ce 03 3f
       0.46764195 -0.47640988 0.4830454 0.51487356
000060 93 f8 ff 3e 95 a8 02 bf ef 55 08 3f 05 a4 ff be
       0.49994335 -0.51038486 0.53256124 -0.49929824
000070 c4 70 02 3f 63 1a f3 3e 40 43 17 be 25 60 c5 bb
       0.50953317 0.4748107 -0.14771748 -0.006023424
000080 4d fd 1e bd ee 28 41 3c 6c 11 5e bc f2 1e 0b 3d
       -0.038815785 0.011789544 -0.013553958 0.03396506
000090 9a e7 86 bb f6 25 8c 3d d7 a8 d9 bd 9a f4 0d be
       -0.0041169645 0.06843178 -0.10627907 -0.1386284
0000a0 04 83 08 be ae 92 a2 bd 06 8e 1e bb 1e 98 80 3d
       -0.13331228 -0.07938133 -0.002419354 0.06279014
0000b0 c7 44 6e 3d 1a eb 15 bc e3 6c a1 3d 69 80 c0 3c
       0.05817106 -0.009150291 0.078820966 0.02349873
0000c0 38 13 b3 bd 20 6f d4 bd 04 66 89 bd bb 16 05 bd
       -0.087439 -0.10372758 -0.06708911 -0.03249238
0000d0 e5 0f 7b 3c eb 2b 3c 3d 0f a0 47 3d e9 94 4f bd
       0.015323614 0.04594032 0.04873663 -0.05067912
0000e0 46 98 3a 3d 1b 4b 88 3d b8 4f e7 bb 58 61 0a bd
       0.045555376 0.0665495 -0.0070590638 -0.03378424
0000f0 ec 3b e2 bd 11 08 43 bd 3f ec ba bc cb eb 19 3d
       -0.110465854 -0.047615115 -0.022817729 0.037578385
000100 6d cd 45 3d e5 e2 f6 3c 1f a3 63 3d fa 67 0b 3d
       0.048291612 0.030137489 0.055575486 0.034034707
000110 95 22 8e bd d0 ca c5 bd de ce 29 be 38 e6 8e 3e
       -0.0694019 -0.09657824 -0.1658282 0.27910018
000120 04 5c 4b be fe 5a 51 be c2 02 53 be 49 d9 96 3e
       -0.1985932 -0.20444867 -0.20606521 0.2946265
000130 eb a9 88 be 72 94 23 3e 23 8d bc bd b6 26 2c be
       -0.26692137 0.15974596 -0.09206607 -0.16811642
000140 27 01 52 be de 95 5f 3e 02 03 2c be 5d 52 4b be
       -0.20508252 0.21834514 -0.16798022 -0.19855638
000150 0a 90 2f be 19 78 98 3e 71 ea 4f be d8 26 ae 3d
       -0.1714479 0.29779127 -0.20304276 0.085035026
000160 c1 1f 23 be 50 40 4f be 5e 2d 9f bd 96 4e a2 3e
       -0.15930082 -0.20239377 -0.07772325 0.3170058
000170 dc 16 85 be 87 4a 8d be c5 a2 93 be a9 4e 98 3e
       -0.25994003 -0.27595922 -0.2883512 0.29747513
000180 08 30 9e be f6 86 3b 3e 2b ee a4 bd fd e5 f1 bd
       -0.3089602 0.18313202 -0.080532394 -0.11811445
000190 58 a1 15 bd 2f 84 41 3e 97 d0 c8 be aa 75 36 be
       -0.036530823 0.1889808 -0.3922164 -0.17818323
0001a0 a5 18 52 be 28 df 81 3e 00 91 05 bd 8f 08 09 3e
       -0.20517214 0.25365567 -0.032608986 0.13382171
0001b0 6b 48 8e 3d 15 1b 0c 3e 36 9b 6a 3d df 11 7c 3e
       0.069474064 0.13682206 0.057276927 0.24616192
0001c0 81 03 9c be 3a 02 26 be 53 d7 42 be 3f 00 80 3e
       -0.30471423 -0.16211787 -0.19027452 0.25000188
0001d0 4a ca 63 be ea dd 61 3e 71 ac 80 bc 2d 52 29 bd
       -0.22245136 0.2205731 -0.015707226 -0.041338135
0001e0 7d 09 de bd 3f 31 66 3e 1f e2 65 be 1c 62 ef bd
       -0.108416535 0.22479723 -0.2244954 -0.11688635
0001f0 4b 67 6e be 8a e2 40 3e 0e b1 38 be b9 d7 79 3e
       -0.2328159 0.18836418 -0.18036291 0.24398698
000200 31 b4 dc bd 22 f8 cb bd 42 70 06 be 79 88 31 3e
       -0.10776556 -0.09959437 -0.1312876 0.17337216
000210 34 cf 60 be 36 52 91 bd f6 2f 8f bd 7d 97 40 3e
       -0.21954042 -0.070957586 -0.0699157 0.18807788
000220 f0 6c 1b be 65 3a 18 3e 22 d5 e5 bb 35 dc e3 ba
       -0.15178275 0.14866026 -0.007013933 -0.0017384352
000230 c8 d3 83 bd 10 d7 4c 3e df 97 61 be 50 9a 84 bd
       -0.064368784 0.20003915 -0.2203059 -0.06474745
000240 8b fa 0a be 49 d3 54 3e bc 9a 3c 3c f3 7f 42 3e
       -0.13572137 0.20783724 0.011511501 0.18994121
000250 58 d0 29 bd e5 ec 9a bd aa bd 2e be 36 c7 ef 3b
       -0.041458458 -0.07564715 -0.17064539 0.007317449
000260 0e 90 0f be 8f dc 88 bd 10 a2 66 bd 0c b0 5c 3e
       -0.14019796 -0.06682693 -0.0563069 0.21551532
000270 d3 40 81 bb 3f dd 65 bd 8a 6c 9b 3d f6 d5 a0 bd
       -0.003944495 -0.0561192 0.075890616 -0.0785331
000280 43 4a 12 be 5c c2 ef 3d be 24 e8 bd da 1d 97 bd
       -0.14286141 0.11706993 -0.11335133 -0.073787406
000290 fd cf 13 bd c4 03 51 3e 64 aa 13 3c a3 35 df 3d
       -0.036087025 0.20411593 0.009012792 0.10898902
0002a0 88 8a 0f b9 a4 61 a8 bd 58 2e 7d be 1e 9f 82 3e
       -0.0001368915 -0.082217485 -0.2472471 0.25512022
0002b0 90 f1 44 be ec 98 91 be 9a 77 7b be ab d8 b2 3e
       -0.19232774 -0.28436983 -0.24557343 0.3493093
0002c0 f8 7e 9b be 9f 71 7f 3e 9d 00 7a be a1 cb 8a be
       -0.30370307 0.24945687 -0.24414296 -0.27108482
0002d0 3d b8 20 3e 03 c5 05 3e 98 4c c8 3e 73 f1 34 3e
       0.15695281 0.13063435 0.39120936 0.1767023
0002e0 ae b8 08 3f bd 66 0b bf c0 0a 17 3e ac a8 20 3e
       0.534068 -0.5445364 0.14750195 0.15689343
0002f0 52 3c b8 3d 39 a5 29 3e 00 f6 e3 be fa cc 42 3e
       0.0899588 0.16566934 -0.4452362 0.19023505
000300 d9 d4 39 bd 0d 3b 5e be 96 e1 76 be 6b 25 dd 3e
       -0.045369003 -0.21702214 -0.24109492 0.4319261
000310 71 f6 a0 be 79 f0 5c 3e 2c 8a e6 be d5 22 ee be
       -0.3143802 0.21576108 -0.45027292 -0.4651095
000320 75 6d 5c be 4b 5a 77 3e a1 51 c8 bd 14 23 d9 bd
       -0.2152613 0.24155538 -0.097811945 -0.10602394
000330 7b e8 00 be 43 d6 61 3e 3c 96 0c be a5 dc 05 3e
       -0.12588684 0.2205439 -0.13729185 0.1307245
000340 0b 0a f9 bd 54 d0 84 be 14 53 03 be 6c 9e 05 3e
       -0.12160119 -0.25940192 -0.1282466 0.13048714
000350 64 c9 86 be 7d 87 83 be d1 38 87 be 82 d8 08 3e
       -0.26325524 -0.25689307 -0.26410535 0.13363841
000360 a4 bb 8b be d7 e7 87 3e 12 45 8d be 17 22 16 be
       -0.27291596 0.26544067 -0.2759176 -0.14661442
000370 ee ad 0d 3e 0e c9 ed bd 8f ce f6 3d 2f 67 63 3e
       0.1383588 -0.11610614 0.12051117 0.2220733
000380 76 cf 54 3e 7b 7e fd bd 47 a7 5e 3e 2b f6 16 be
       0.20782265 -0.1237764 0.21743499 -0.14742343
000390 73 6f 82 3e c6 de 7a 3e d4 1b 11 3e 92 17 04 be
       0.25475654 0.24499044 0.14170772 -0.12899616
0003a0 d6 19 89 3e 5b 41 85 3e 6b 5f 84 3e 06 50 16 be
       0.26777524 0.26026425 0.25854048 -0.14678964
0003b0 dc 01 8c 3e a1 1d 82 be 63 cd 82 3e 58 e2 22 3e
       0.2734517 -0.2541323 0.25547323 0.15906656
0003c0 60 20 10 3e dc 42 1c be 04 36 7a 3e fe 8f 81 3e
       0.1407485 -0.1525988 0.24434668 0.2530517
0003d0 d0 5f 70 3e 16 ce f3 bd 15 1f 82 3e b5 35 83 be
       0.2347405 -0.11904542 0.2541434 -0.25626913
0003e0 c4 27 88 3e f2 4a 15 3e 7b 63 12 be 2c 1b 0f 3e
       0.2659284 0.1457937 -0.14295761 0.13975209
0003f0 e9 85 86 be 43 c6 87 be 73 b2 84 be 7b 6b 15 3e
       -0.2627404 -0.2651845 -0.25917396 0.14591782

gating.rnn.bias_ih_l0 f4 [30]
000000 2b 52 65 be d4 96 67 3e c7 73 f4 be 29 c2 86 3d
       -0.22394626 0.2261613 -0.4774458 0.06580002
000010 c7 d9 0d 3e 0d ec e3 bc 1c 59 f3 3d 1a da 9a bd
       0.13852607 -0.027822519 0.11882231 -0.07561131
000020 3d 1f 32 be a3 0a 48 bd 9e f9 c2 3d dd a6 77 3d
       -0.17394729 -0.04883827 0.09520267 0.060461868
000030 af 99 15 3e 02 07 b4 3d 0f 57 51 bb 94 f6 82 3c
       0.14609407 0.08790399 -0.003194276 0.015986718
000040 d6 3a 22 3d 2f a6 85 3e 32 4c 49 3e c3 94 85 3e
       0.03960689 0.2610335 0.19657972 0.2609006
000050 2e 1a 75 bd 4d 6a 7c 3d cd f0 a2 bd 69 58 7f bd
       -0.05983942 0.061624814 -0.07956085 -0.062340174
000060 ae a6 78 bd 0c 66 7c 3d d9 80 7a bd 67 51 70 3d
       -0.060705833 0.061620757 -0.061158035 0.05867138
000070 ea c9 73 bd 53 70 74 bd
       -0.059518732 -0.059677433

gating.rnn.bias_hh_l0 f4 [30]
000000 2c 52 65 be d4 96 67 3e c7 73 f4 be 29 c2 86 3d
       -0.22394627 0.2261613 -0.4774458 0.06580002
000010 c7 d9 0d 3e 0d ec e3 bc 1c 59 f3 3d 17 da 9a bd
       0.13852607 -0.027822519 0.11882231 -0.075611286
000020 3d 1f 32 be a7 0a 48 bd 9e f9 c2 3d e1 a6 77 3d
       -0.17394729 -0.048838284 0.09520267 0.060461883
000030 af 99 15 3e 03 07 b4 3d b4 56 51 bb 97 f6 82 3c
       0.14609407 0.087904 -0.0031942548 0.015986724
000040 d7 3a 22 3d 2f a6 85 3e 32 4c 49 3e c3 94 85 3e
       0.039606895 0.2610335 0.19657972 0.2609006
000050 46 a1 74 bd 2b c7 7a 3d 60 99 87 bd 9f 12 7c bd
       -0.059724115 0.061225098 -0.06621051 -0.061541196
000060 1b c9 77 bd 5c 0c 79 3d d0 b5 78 bd 44 e9 6c 3d
       -0.060494523 0.060802802 -0.060720265 0.057839647
000070 73 96 72 bd 6f 70 73 bd
       -0.05922551 -0.059433397

gating.rnn.weight_ih_l0_reverse f4 [30, 10]
000000 27 bb 1f 3e 79 ae 6a bd ac 63 45 be e1 eb 9d bc
       0.15598737 -0.057295296 -0.19276303 -0.019277515
000010 93 78 af 3d e2 c3 9d be 9c db 24 3f 11 30 96 3e
       0.085679196 -0.3081351 0.643976 0.29333547
000020 29 c8 47 3e 6f d7 84 be 96 02 37 bb 2f 27 52 bd
       0.19509949 -0.25945613 -0.0027925125 -0.0513069
000030 77 72 85 3e ac ea 90 bd b6 8b 64 be 49 65 e5 3d
       0.26063892 -0.0707601 -0.2231892 0.11200959
000040 c2 6a 70 be e0 e4 2b be 03 0a 2e 3d ef ff eb bd
       -0.23478225 -0.16786528 0.042490017 -0.11523425
000050 32 61 26 3e c3 8a 43 bd 53 07 59 be 71 45 fc 3c
       0.16248015 -0.047739755 -0.211942 0.030794831
000060 27 3d d8 3d f2 ba 91 be dc 87 fc 3e ac 85 8c 3e
       0.10558539 -0.2846294 0.49322402 0.27445734
000070 10 a4 fb 3d 30 16 11 be c8 6f 2b 3e a5 69 57 bd
       0.12287152 -0.1416862 0.1674186 -0.052590985
000080 2e 87 49 be c4 52 d4 bb bb ef aa 3d 9a b0 94 be
       -0.19680473 -0.006479593 0.08346506 -0.29040986
000090 7a bc 1b 3f f9 58 91 3e bd bc 26 3e 9f 47 80 be
       0.6083447 0.28388193 0.16282935 -0.25054643
0000a0 de 5e 1c 3e 99 2a 33 bd e8 88 5a be 2c 24 bf 3c
       0.15270564 -0.043741796 -0.21341288 0.023332678
0000b0 9c 7f 81 3d ed f3 a0 be a1 5a 08 3f f5 5c 8d 3e
       0.06323168 -0.314361 0.5326329 0.27609983
0000c0 2f d9 d9 3d 0c dd 15 be 7f 2a 01 3e 13 2f 48 bd
       0.106371276 -0.14635104 0.12613867 -0.04887302
0000d0 ff 14 6b be 99 87 19 ba b7 23 af 3d 48 66 8f be
       -0.22957228 -0.00058566924 0.08551734 -0.28007722
0000e0 67 e3 08 3f cf 1f 8f 3e 28 73 00 3e c3 14 22 be
       0.5347199 0.27953956 0.12543929 -0.15828232
0000f0 bc 84 18 3e 10 56 06 bd ad bf 58 be e6 b7 5a bc
       0.14894384 -0.03279692 -0.21166869 -0.013349509
000100 c4 26 a0 3d fe bb 97 be dd d2 1d 3f 56 cd 90 3e
       0.07819894 -0.29635614 0.61649877 0.2828166
000110 85 b9 39 3e cf 2f 71 be 70 cb d0 bd 6b e9 5e 3c
       0.18137176 -0.23553394 -0.101950526 0.013605456
000120 de 67 63 3e 86 10 1d 3c 21 b0 16 be ca e4 50 3e
       0.22207591 0.009586459 -0.14715625 0.20399776
000130 80 0d ff be 1c 0a 5c be 61 92 eb bd a1 66 17 3e
       -0.49814987 -0.21488231 -0.11502529 0.14785244
000140 25 ac 8b bd a4 c9 fe bc 86 a0 83 3e 7b d5 06 bd
       -0.06819943 -0.03110201 0.25708407 -0.032918435
000150 d5 19 44 be 92 b6 31 3e 32 d5 b3 be 03 6e 55 be
       -0.19150479 0.17354801 -0.35123593 -0.20842747
000160 60 55 ea bc 86 80 87 bc 3a 3f 4b 3c 8c c3 53 bd
       -0.028605163 -0.016540777 0.012405211 -0.05170016
000170 d7 cf 90 3e a6 56 36 bd 67 ca 66 be b0 b5 dc 3d
       0.2828357 -0.04451623 -0.22538148 0.10776842
000180 d7 e8 a3 be b6 09 21 be 77 d1 c0 3c ea 6f 9c bd
       -0.3201358 -0.1572636 0.02353738 -0.076385334
000190 b0 d5 28 3e aa b5 a2 bc 97 ce 6f 3e c9 b4 11 3d
       0.16487765 -0.019862015 0.23418652 0.0355728
0001a0 dd 1f 20 be 55 a2 08 be 3d 86 be bd 73 58 69 3e
       -0.15637155 -0.13343175 -0.09302948 0.22787647
0001b0 0a cc 33 3e c8 d7 16 be 08 4e 37 3f dd 83 1b bf
       0.17558303 -0.14730752 0.7160344 -0.6074808
0001c0 3c b2 84 3e 90 85 2e 3f 17 b6 9a be 2a 7d 16 bf
       0.25917232 0.6817255 -0.3021705 -0.58784735
0001d0 6e ee 8a bc 95 82 42 3e a7 30 66 3c 56 8b d5 3e
       -0.016959395 0.18995126 0.014049686 0.41707867
0001e0 3b f1 4f 3e ee 3f 19 bd 79 c8 57 3e 44 bc 8a 39
       0.20306866 -0.037414484 0.21072568 0.0002646168
0001f0 98 ce 5c be 2d 3f 33 bc 63 96 08 be a7 3a c8 3d
       -0.21563184 -0.010940355 -0.13338618 0.09776812
000200 d0 d5 3e 3e 63 55 53 be 24 85 43 3e 30 a1 19 bd
       0.1863625 -0.20638041 0.19093758 -0.037507236
000210 b2 ec 6b 3e ad 8f d7 3c c9 0a 1b be 09 37 27 be
       0.23039511 0.026313627 -0.15140833 -0.16329588
000220 49 cc 3d bd c0 e7 68 3e 4e bb 2a 3e e6 f1 a8 bd
       -0.0463374 0.22744656 0.16673014 -0.082492635
000230 c0 e8 40 3e fa 23 ea bc e9 bc 85 3e 07 8a 92 3c
       0.18838787 -0.028581608 0.2612069 0.017888082
000240 29 9f 53 be c5 e2 59 3e c0 fa b5 be 22 75 ec bc
       -0.20666184 0.21277912 -0.3554287 -0.028864447
000250 b7 92 3c 3e b3 a9 f9 bc d8 28 57 3e 4e 0e 00 ba
       0.18415342 -0.030476427 0.21011674 -0.0004884944
000260 d4 53 83 3e 80 35 21 3c fd 4f 29 be 53 61 05 be
       0.25649893 0.009839416 -0.1653442 -0.13025407
000270 ff 71 84 bd c0 11 7b 3e 73 8c 63 3e b4 a6 0c be
       -0.064670555 0.2451849 0.22221546 -0.13735467
000280 65 72 39 3e 08 1e 95 bc 33 31 79 3e 8b de c6 3c
       0.18110044 -0.018202797 0.24335174 0.024276039
000290 8e 2a 24 be 79 fc 1d be 06 39 9e bd 7e 16 69 3e
       -0.16031858 -0.15428342 -0.0772572 0.22762486
0002a0 f3 ac 58 3e 5a ee 08 be f7 9b 29 3f ec 8f 0f bf
       0.21159725 -0.13372174 0.6625361 -0.5607898
0002b0 5f 8d 09 3f 77 9c 93 3e 14 13 8a be 42 df 8f be
       0.5373134 0.2883031 -0.2696768 -0.2810002
0002c0 4c a6 3b 3d bb 68 2b 3e 85 ed af 3e b2 57 4e 3d
       0.04581289 0.1673917 0.343609 0.0503766
0002d0 80 bf 32 3f 27 80 12 bf ab e4 69 3e 69 25 10 3f
       0.69823456 -0.57226795 0.22841136 0.56307083
0002e0 54 6f 8c be ad 4c ad be b0 01 3b 3d 5c 73 30 3e
       -0.27428687 -0.3384756 0.045655906 0.17231506
0002f0 5d 92 ad 3d d3 7e d4 3d d4 99 1d 3f 72 d8 07 bf
       0.08475182 0.10375752 0.6156285 -0.53064644
000300 44 32 86 3e 21 3b 0c 3f 67 80 a9 be 4d 59 2b bf
       0.26210225 0.54777724 -0.33105776 -0.6693314
000310 02 55 c5 bc d7 9b 43 3e 2d c6 b9 3d 17 ff 85 3e
       -0.024088386 0.19102417 0.09071002 0.2617118
000320 1a 71 d4 3d 37 a3 5a bc 8b 13 5d be 5d f1 95 bd
       0.10373135 -0.0133445775 -0.21589486 -0.07321427
000330 59 bd a9 3d 41 90 e0 3d 39 f7 26 bd 5f 22 b0 3c
       0.08288068 0.10965014 -0.040763114 0.021500764
000340 25 12 bf 3d 02 fa 86 bd 93 62 9c 3d f8 8c 7d 3d
       0.09329633 -0.06590654 0.07635989 0.061902016
000350 54 83 92 be 21 df b6 ba 0e c5 30 bd 38 ca 04 3d
       -0.2861582 -0.0013951996 -0.043156676 0.032419413
000360 2d b9 66 3d b5 11 ce bd 8f d6 bc bd 3c a1 8c 3d
       0.05632894 -0.10061971 -0.09220611 0.068666905
000370 47 24 8c 3d eb da 98 3c e2 d5 5c be 2e 3e 32 bd
       0.06842857 0.018659076 -0.21565965 -0.04351633
000380 bf 9b a5 3d ae 2a b7 3d e7 67 56 bd e6 e2 3c 3d
       0.08086347 0.089436874 -0.052345183 0.046114825
000390 f7 fb 28 3d ec 77 5c bd da 17 96 bd 46 1e b2 bb
       0.041255917 -0.053825304 -0.07328768 -0.005435738
0003a0 c9 95 50 3e ab fd ac 3d 15 52 48 bd c1 22 ae bd
       0.20369639 0.08446821 -0.048906405 -0.085027225
0003b0 53 b4 49 3d c2 9a 70 bd e7 be c2 bd be fb 87 3d
       0.049244236 -0.05874134 -0.09509068 0.06639813
0003c0 7a 40 b2 3d f5 ab 14 3c 90 4b 82 be 62 b9 5b bd
       0.08703704 0.009074201 -0.25448275 -0.05364359
0003d0 59 0f da 3d b7 b1 44 3e 7a 8d 4d bd 88 f0 fa 3b
       0.106474586 0.19208418 -0.05018375 0.007658068
0003e0 35 6b 0b 3d e6 c7 6c bd 21 5e 85 bd e3 e7 d8 3c
       0.034037787 -0.057807826 -0.06512094 0.02647776
0003f0 2a af 9a 3e ea 3f 4a 3d 8a 2c 62 bd dd d1 b6 bd
       0.30211765 0.04937736 -0.055218257 -0.08926747

gating.rnn.weight_hh_l0_reverse f4 [30, 10]
000000 0a 68 57 bc 46 04 da 3a 24 a0 21 bc 5e a2 a5 3c
       -0.013147363 0.0016633354 -0.009864841 0.020219024
000010 07 b5 89 ba 66 4e 80 3b ae 43 ff 39 75 be 62 bb
       -0.0010506221 0.003915596 0.00048687815 -0.0034598385
000020 ce bc 8e bb 89 8d 0d 3b c9 f4 54 b9 98 d2 1a b8
       -0.0043560034 0.0021599254 -0.00020309085 -3.6912592e-05
000030 41 85 f0 3a f5 41 73 bc 90 03 7f 3a 7e 2d be 3c
       0.001835026 -0.014847268 0.0009728009 0.023215052
000040 69 d2 26 3b 9c c3 8f 3c b4 9a 31 ba 4b c0 b1 b9
       0.0025455004 0.017549329 -0.0006775067 -0.0003390334
000050 b3 09 f7 38 3c 61 da 3b 7d be dd bb 9d 53 e1 3b
       0.000117796844 0.0066644233 -0.0067670927 0.0068764226
000060 ae 13 ea 3b 77 09 04 3c 02 b3 2f 3b ab b7 d5 bb
       0.0071434593 0.008058897 0.0026809578 -0.006522139
000070 cd ec 9c bc 9c 07 65 3b 43 07 8e 3c ef 7c 82 bc
       -0.019155884 0.0034947162 0.017337447 -0.015928714
000080 19 8a 6e 3c 4f b8 07 3c 95 66 11 bc b3 f3 33 bc
       0.014559292 0.008283689 -0.008874555 -0.010983395
000090 a6 92 01 3b 0e 8e 2c bc 97 0c 49 bc 4c 28 7c 3c
       0.0019771247 -0.010531915 -0.012271068 0.015390467
0000a0 fa b5 9e bb 9c d5 e6 bb 1d 95 04 3c 04 cc b8 3c
       -0.0048434706 -0.007044507 0.008092192 0.02255822
0000b0 35 33 b9 3b 9d 47 69 3c aa ba 62 bc 01 6b 4f 3c
       0.0056518563 0.014238265 -0.0138384495 0.012659789
0000c0 a7 f9 21 3b bc 05 d4 3a 5d b3 ba 3b 53 85 9a bc
       0.0024715455 0.0016176025 0.0056976513 -0.018862402
0000d0 09 af 70 3b 2f 39 86 ba 01 7c fd bb ec d8 51 bc
       0.0036725423 -0.0010240431 -0.0077357297 -0.012808066
0000e0 3d 5e 16 bc 45 3e 62 bc a6 07 50 bc 2b 8c 72 3b
       -0.009177742 -0.0138087915 -0.012697136 0.0037009816
0000f0 17 85 85 3b 60 73 37 3a 9f 0d 81 bc 2b 9c 7e bb
       0.0040747034 0.0006998088 -0.015753565 -0.0038850408
000100 cb bf a5 3a 50 c4 49 3b 6c 5d 8c bc 29 5a 0e 3c
       0.001264566 0.0030787177 -0.01713439 0.008688488
000110 45 21 64 3c b5 c9 36 3c 2a f2 4f 3b c3 e4 1c 3c
       0.013923948 0.011156489 0.0031730034 0.009576025
000120 36 0a a9 3c 1c 2e c6 3c 3c 79 bc bb ad 2a 9d bc
       0.020634752 0.024191909 -0.005751757 -0.019185388
000130 ed 72 9d bc 5c 27 0b bb ed fc 2c ba 8e 09 04 3c
       -0.01921984 -0.0021233177 -0.0006598968 0.008058919
000140 17 67 35 3b 9d 6d 3b bc f5 d1 be bb f8 9c 8c 3b
       0.0027679855 -0.011439708 -0.0058233687 0.004291173
000150 46 6d d8 3b 8b e5 e7 3a 77 3e 15 bb b6 8d 9b 3b
       0.0066048233 0.001769231 -0.0022772828 0.004747118
000160 d0 d1 a6 bb 45 a0 d3 3a da 53 13 3c 1a 91 9e 3b
       -0.0050909296 0.0016145787 0.00899216 0.004839075
000170 5e af 5d 3b 7e 43 e7 3b 80 ea df 3b c5 4d 44 bc
       0.003382645 0.0070576062 0.0068333745 -0.011981432
000180 cd e6 8a 3c 6a 76 5c bc 29 f9 dc 3a 1b 66 28 39
       0.016955758 -0.0134559665 0.0016858923 0.00016059766
000190 c6 e7 62 bc d6 87 83 bc 78 64 2e 3b d4 7c 93 bb
       -0.013849204 -0.016055983 0.0026610177 -0.0045009647
0001a0 b4 62 7c bc b8 87 b2 bb 33 1d a8 bb 7d 9a 80 3c
       -0.015404392 -0.005448308 -0.005130434 0.015698666
0001b0 02 77 98 bc 79 c8 12 bc 9d e3 a1 bb 43 28 16 bb
       -0.018611435 -0.008958929 -0.0049404637 -0.0022912181
0001c0 01 2e 85 bc c9 4d 2c 3c b2 9a 97 3b 59 b4 9d 3b
       -0.016257288 0.010516592 0.0046265954 0.004812759
0001d0 52 04 47 3a 57 3f 0e bc 23 a8 7b 3b 6e a4 35 3c
       0.00075918913 -0.008682094 0.0038399778 0.011086566
0001e0 8f c1 cb 39 21 a8 39 3a 8e 1c 70 3b e1 69 33 ba
       0.0003886339 0.0007082243 0.0036638114 -0.00068440853
0001f0 c7 a7 9c bb 10 fe b4 3b f2 4e b0 3b cf 67 3b 3c
       -0.004780743 0.0055234507 0.0053805048 0.011438324
000200 5e 0a 9f bc f4 05 bb bb be 17 56 3c 9b 42 28 bc
       -0.019414123 -0.005707497 0.013067184 -0.010269786
000210 5d a0 11 bb 79 64 4a 3c 9b c8 4b 3c 65 a9 e6 3b
       -0.0022220828 0.012353056 0.012437965 0.0070392364
000220 bd b7 0b 3c b4 f1 0c 3c cf ee 0d 3b ed 0e 84 bc
       0.008527693 0.008602548 0.0021657234 -0.016120398
000230 bd c9 30 3c 6e c5 f6 bb f2 8d 85 3c 75 14 52 3c
       0.010790286 -0.0075308597 0.016303036 0.01282226
000240 b5 bf bc bb 50 ee 8c bc e6 46 8e bb 1d 02 5b bb
       -0.005760158 -0.01720348 -0.004341948 -0.0033418008
000250 25 cc e0 3a d7 95 e5 bb 25 22 33 bc 13 95 30 bb
       0.0017150684 -0.0070063877 -0.010933434 -0.0026944324
000260 79 76 bf 3b fb c9 c6 3a b6 aa 9d 3b 84 53 29 3c
       0.0058429805 0.0015166396 0.00481161 0.010334853
000270 65 04 fe 3b d3 6c 6d 3c a2 03 ea bb b5 7e 83 bb
       0.0077519887 0.014491278 -0.0071415463 -0.0040129074
000280 c7 28 19 3c 20 65 8d 38 70 c5 87 bc 74 c2 72 ba
       0.009348101 6.74224e-05 -0.016573638 -0.0009260543
000290 9c 10 64 bc 69 be a8 3b 37 69 e7 ba 6f f5 96 bc
       -0.013919976 0.005149652 -0.0017655258 -0.018427579
0002a0 3d ea bf bb d3 a5 94 3b f4 3f 76 3c 36 3f 86 ba
       -0.005856781 0.0045363693 0.015029896 -0.0010242227
0002b0 bd 8c 45 3a 42 19 87 39 1d 30 ae ba 99 f6 5c bc
       0.0007535925 0.00025768025 -0.0013289485 -0.013486528
0002c0 64 57 0d ba 59 db f9 bb d3 ad c2 3b 40 cb f3 3a
       -0.00053917454 -0.007625025 0.0059411316 0.0018600002
0002d0 80 33 9a 3c 50 f2 73 3b 89 66 08 3c 14 fe 88 3a
       0.018823385 0.0037223287 0.008325228 0.0010451698
0002e0 d3 2c fd 3b f0 ab 74 3b 82 d8 7a 3b e0 26 27 bc
       0.0077262907 0.0037333928 0.0038276021 -0.01020214
0002f0 33 9c 80 3a f0 3c 94 bc 20 a9 0c bc fd c7 27 3c
       0.0009812176 -0.018095464 -0.008585244 0.010240552
000300 1c 18 d0 3b 3c cb 6f 3b 09 c9 e7 3b 6c 8c 7d 3b
       0.0063505303 0.0036589643 0.007073526 0.0038688434
000310 94 e5 79 bc 1d 0f a6 3a e5 c3 d8 bb fe 36 1b 3c
       -0.01525249 0.0012669299 -0.0066151493 0.00947356
000320 a0 9f ca 3b 99 84 38 3b 14 60 77 3b d5 67 ea ba
       0.0061835796 0.0028155206 0.0037746476 -0.0017883728
000330 1b c6 dc bb 22 1c 4f 3b 3d 31 75 3b 27 a6 bd bc
       -0.006737483 0.0031602462 0.0037413382 -0.023150517
000340 94 7d 3c bc 80 e5 2c bb c3 9f 78 3c dd 8d 5f 3c
       -0.0115045495 -0.002638191 0.015174809 0.013644663
000350 e5 66 19 bc 0b af ee bb 65 87 c7 3b 26 de 16 bc
       -0.009362911 -0.0072840503 0.0060891383 -0.009208238
000360 e1 e0 13 bc 13 54 38 3a d5 7d 74 bc a7 c1 4c b9
       -0.009025783 0.0007031571 -0.014922579 -0.00019527097
000370 77 37 aa 3c d0 44 bc 3a fe f1 f3 bb a2 c7 61 3c
       0.0207784 0.001436377 -0.007444619 0.013780506
000380 37 8c a1 bb ae 58 e1 3c df 6f 81 bb 18 6e 39 bb
       -0.004930045 0.027508106 -0.0039501037 -0.002829438
000390 7b 22 ce 3b 07 41 bb 3b 4e b9 a0 3c e7 5d d9 3c
       0.0062907315 0.005714539 0.01961961 0.026534034
0003a0 53 ba 61 b9 3b 14 74 3a af b8 19 bc 87 d1 41 3a
       -0.00021527083 0.0009310876 -0.009382411 0.0007393588
0003b0 53 32 74 3a 20 54 8f bc f8 61 aa 3a aa 29 7f bc
       0.000931536 -0.017496169 0.0012999168 -0.015573898
0003c0 4a ac 52 3c 22 46 9e 3b 44 1d 4a ba 3c 31 60 3c
       0.01285846 0.004830138 -0.00077100494 0.013683613
0003d0 9d 03 81 bb 2d c9 0c bc c2 30 45 3b bd 92 ea 3b
       -0.0039371983 -0.008592886 0.0030088876 0.007158606
0003e0 09 03 1d bc 5d c4 76 3c 74 4e 6d bc c4 2a ba 3b
       -0.009583243 0.015061465 -0.014484037 0.0056813676
0003f0 bd 8a 31 bc 57 5e 18 bb 52 79 aa bc 32 d5 56 3b
       -0.0108363 -0.002324959 -0.020809803 0.0032780883

gating.rnn.bias_ih_l0_reverse f4 [30]
000000 65 7a 55 3e b9 de 8e bc 69 d0 4d 3e 4d d4 54 3e
       0.20847471 -0.017440187 0.20099033 0.20784111
000010 47 3e 43 3e 42 3c 3a 3e b9 ec 3f 3e cd 55 e0 bd
       0.19066726 0.18187049 0.18742646 -0.10953865
000020 f3 f7 60 bd 8c ec 6c ba 0f 6c 88 3e 13 3d 29 3e
       -0.054923963 -0.0009037934 0.26644942 0.16527204
000030 86 9d 84 3e f3 65 82 3e d5 1f 62 3e 97 5f 87 3e
       0.2590143 0.25468406 0.22082455 0.26440117
000040 23 3e 88 3e 72 2e 83 3d b0 be 17 3e 68 eb 30 3e
       0.26609907 0.06405343 0.14818835 0.172773
000050 f7 13 6e 3d 8e 29 81 bd 03 0f 72 3d d9 fd 73 bd
       0.05812451 -0.06306754 0.059096348 -0.05956826
000060 3e 01 60 3d e6 22 74 bd 26 c7 70 3d f1 43 77 bd
       0.054688685 -0.059603594 0.058783673 -0.06036753
000070 91 88 77 3d ff 0f 8f bd
       0.060432974 -0.06985473

gating.rnn.bias_hh_l0_reverse f4 [30]
000000 65 7a 55 3e b9 de 8e bc 69 d0 4d 3e 4d d4 54 3e
       0.20847471 -0.017440187 0.20099033 0.20784111
000010 47 3e 43 3e 42 3c 3a 3e b9 ec 3f 3e cd 55 e0 bd
       0.19066726 0.18187049 0.18742646 -0.10953865
000020 f3 f7 60 bd 8c ec 6c ba 0f 6c 88 3e 13 3d 29 3e
       -0.054923963 -0.0009037934 0.26644942 0.16527204
000030 86 9d 84 3e f3 65 82 3e d5 1f 62 3e 97 5f 87 3e
       0.2590143 0.25468406 0.22082455 0.26440117
000040 23 3e 88 3e 72 2e 83 3d b0 be 17 3e 68 eb 30 3e
       0.26609907 0.06405343 0.14818835 0.172773
000050 d3 84 69 3d 2d fc 7d bd de d4 6f 3d b5 d7 72 bd
       0.057011437 -0.06200807 0.058552615 -0.059287746
000060 29 af 53 3d 2c 1f 73 bd 11 e2 6d 3d 52 a8 76 bd
       0.051680718 -0.0593559 0.05807692 -0.060219117
000070 15 e6 76 3d f0 63 88 bd
       0.060278017 -0.066596866

gating.fc_out.weight f4 [3, 20]
000000 97 db 79 bc c9 25 73 3e fc b5 c5 bd b7 db dc bd
       -0.015250108 0.23744883 -0.096538514 -0.10784095
000010 ef c3 01 be 66 16 3b 3e cc 6b d2 bd ed 2f d9 3d
       -0.12672399 0.18270263 -0.10274467 0.10604844
000020 36 be 1b be 16 53 07 be 19 1a 40 3c 24 02 90 3d
       -0.15209278 -0.13215289 0.011724972 0.07031658
000030 8a 16 1a 3e d0 29 18 bd af f0 17 3e 0c 0a b8 bd
       0.1504766 -0.03714925 0.14837907 -0.08986291
000040 ce af d2 3c fd a3 3f bd 6c 6d 8e bd a4 84 ae 3c
       0.025718596 -0.04678725 -0.06954464 0.021303482
000050 ed d5 55 3f b6 35 f7 bf 9c 96 e9 3f f6 b2 fa 3f
       0.8352955 -1.9313266 1.8249087 1.9585865
000060 b2 4f ef 3f d2 2e f5 bf a7 0a f9 3f 54 79 54 bf
       1.8696196 -1.9154913 1.9456376 -0.8299763
000070 33 65 3b 3f ab c6 5a 3f be f0 54 bf 31 ec 9a 3f
       0.7320129 0.85459393 -0.83179843 1.210333
000080 19 d3 4b bf 20 9a 50 3f 2f 92 46 bf 15 13 43 3f
       -0.79618984 0.81485176 -0.7756681 0.7620099
000090 61 1b 43 bf 23 d3 75 3f 77 c5 94 bf 0f 18 9b 3f
       -0.7621365 0.96025294 -1.1622761 1.2116717
0000a0 69 a1 be bb 56 a3 a0 ba 59 b3 09 3c 87 ca 35 bc
       -0.0058175814 -0.0012255709 0.008404576 -0.01109565
0000b0 2a 93 25 b9 e6 f6 dd bb 30 19 8a 3c 14 97 ed 3b
       -0.00015790449 -0.0067738174 0.016857713 0.007250676
0000c0 24 63 0a 3a 32 01 bf 3b ea bc 8f 3b 1c 9d 41 3b
       0.00052790553 0.005829 0.004386534 0.0029543107
0000d0 8a b6 84 3b 93 39 82 3c 58 29 ec 3b ce 3c 58 bc
       0.0040500807 0.015896594 0.007207077 -0.013198091
0000e0 92 8f 89 bc 74 56 3a 3a de 60 24 bb aa 92 c9 39
       -0.016792092 0.00071082194 -0.0025082151 0.0003844698

gating.fc_out.bias f4 [3]
000000 98 68 76 3d fc bd 9f bf 00 00 00 00
       0.060158342 -1.2479854 0.0

experts.0.encoder.embedding.weight f4 [8, 19]
000000 22 9a 1e 3a fb 1f 09 3c 4e 9e 8d bb 9e b3 24 3b
       0.0006050189 0.008369441 -0.00432185 0.0025131474
000010 26 bc 07 bc a7 6a 7c 3b 04 2b bf bb 12 2f e7 ba
       -0.008284604 0.0038515718 -0.0058339853 -0.0017637929
000020 e1 66 da bb b4 10 89 3c ea 18 88 3b a6 50 3e bc
       -0.006665096 0.016731597 0.0041533606 -0.011615908
000030 98 1b ca bc 60 30 4c 3b b4 da 63 bc 2f 39 81 bb
       -0.02467136 0.0031156763 -0.013907123 -0.0039435844
000040 13 f7 86 bb c2 2c f8 3b 99 c3 19 3c ca 24 02 3e
       -0.004118809 0.007573695 0.009385013 0.12709346
000050 75 06 d0 3d 4b d9 70 be bc 7d 95 be ae 3b b7 be
       0.101574816 -0.2352039 -0.2919749 -0.3578772
000060 fd 49 b4 be 15 6c 0c bd d2 19 94 3d b1 e0 04 3e
       -0.352127 -0.034282763 0.07231487 0.12976338
000070 e5 5c 8b bd 73 8f b9 bd 07 67 f1 be 31 57 26 3d
       -0.068048276 -0.09060564 -0.47148916 0.040610496
000080 de 2e 4d 3c 1d 14 7f 3e cf 24 5f be e0 0c ea ba
       0.012523381 0.24910016 -0.21791385 -0.001785662
000090 8e 16 86 3e da 68 91 be f9 de 6a 3e e3 fc ee 3d
       0.26189083 -0.28400308 0.2293662 0.11669328
0000a0 73 b8 ca be cd 54 ef be 95 b1 a5 be 28 e5 34 be
       -0.3959385 -0.46744385 -0.32362047 -0.17665541
0000b0 fe 54 31 be 6f ae e2 3e 37 3e 93 3d 2d 28 6e be
       -0.17317578 0.44273707 0.07189601 -0.23257513
0000c0 40 84 a6 3e 0a 1d c1 be f4 3c ca be ea 9f 5f 3e
       0.32522774 -0.37717468 -0.3949963 0.21838346
0000d0 05 83 a6 3e 09 de 93 be 14 99 ec bd 02 26 8c be
       0.32521835 -0.28880337 -0.11552635 -0.27372748
0000e0 93 f6 e9 be af 20 8b bf 4c 37 61 bf 3f e5 8f be
       -0.45695934 -1.0869349 -0.87975 -0.28104588
0000f0 13 53 c4 bd d7 3a 49 3f 02 cb 02 3e 8e 79 81 3e
       -0.09586158 0.7860541 0.12772754 0.2528805
000100 f2 d2 17 bf 03 7f 2c 3f e0 0a 2f 3f 0c c4 00 bf
       -0.5930625 0.67381305 0.6837597 -0.50299144
000110 c0 f7 12 3f 44 02 26 3e 26 d2 36 bf ab 13 ae bd
       0.57409286 0.16211802 -0.7141441 -0.08499845
000120 a9 cb 05 3f 2b ba 42 3f 12 06 76 3f f2 63 99 bd
       0.52263886 0.7606532 0.9610301 -0.07489766
000130 04 4c 85 b9 d0 98 b3 3c 43 81 b1 bc eb 9a 05 3e
       -0.00025424373 0.021923453 -0.021668082 0.13047378
000140 f4 e5 28 bc 8f 8b 17 3e 07 3d b4 bc 7d f1 c3 3a
       -0.010308731 0.14799331 -0.022001756 0.0014949288
000150 93 16 b3 3c 08 d9 ca 3b cd 3f e4 bd 37 fa 32 bd
       0.02186135 0.006190423 -0.111449815 -0.043695655
000160 25 b7 ec 3d b4 7b e6 bc 76 d1 da bd 56 61 61 bd
       0.115583695 -0.028135158 -0.10684483 -0.055024467
000170 b5 bb ae bb d0 bb 17 3d 29 92 06 3e d5 e9 32 3e
       -0.005332435 0.037044346 0.13141693 0.17472012
000180 60 b4 89 be be 0a de be 0d 30 fd be 4d 1f b3 be
       -0.26895428 -0.4336757 -0.49450722 -0.34984818
000190 ba 8c 6c be 5b 05 29 be 6b c3 c7 3e 73 ed 59 3e
       -0.23100558 -0.16505949 0.3901628 0.21281986
0001a0 91 f9 da bd d1 31 37 be 7c 65 e1 be 15 27 6d 3e
       -0.10692132 -0.17890097 -0.4402274 0.2315944
0001b0 82 72 57 bd 9a 0d ae 3e 7f da a9 be 22 19 2e bd
       -0.052599438 0.33994752 -0.33174512 -0.042504437
0001c0 77 30 e4 3d 60 67 ad be 33 4c 3b 3e 15 11 bf 3e
       0.111420564 -0.3386793 0.18290786 0.3731772
0001d0 47 e5 83 3d 21 1c d6 bd c5 44 66 3e 9d 9d 9c 3e
       0.064402156 -0.10454584 0.22487171 0.30589
0001e0 b1 75 39 bf f2 6b 4d 3f 94 70 54 bf 27 b6 36 bf
       -0.7244521 0.80242836 -0.8298428 -0.7137169
0001f0 5b d0 2c 3f f7 c2 5a 3e 5b 76 3a bf 3a fa 30 3f
       0.67505425 0.21363436 -0.72836846 0.69131815
000200 f6 1c 4a 3f d9 79 12 bf ad 79 a1 be 10 49 a7 be
       0.7895044 -0.57217175 -0.31538144 -0.3267293
000210 c4 fe 27 bf dd 9f ae 3d c6 b1 37 3f 70 b1 6b 3f
       -0.65623116 0.08526585 0.71755636 0.92067623
000220 2b ce 4a 3f 41 45 a1 bf 2f c9 95 bf 3a 63 64 3f
       0.7922084 -1.259926 -1.1702021 0.8921391
000230 cc f9 41 be 1e 38 56 bf f4 ca 2e 3f 8a 15 5a bf
       -0.18942946 -0.8367938 0.6827843 -0.85189116
000240 fb 57 4c bf 0d 65 7a 3f 9e ef 6e 3f 65 7c 7e bf
       -0.7982175 0.9781044 0.93334377 -0.9940856
000250 86 d8 2e 3f 35 20 9e bf 43 cc a6 bc a4 91 89 3f
       0.6829914 -1.2353579 -0.020361071 1.0747571

experts.0.encoder.rnn.weight_ih_l0 f4 [27, 19]
000000 bb ab 28 3f 77 44 47 3e 0b d2 b8 3e 8d 80 64 3f
       0.6588704 0.19459711 0.3609775 0.8925865
000010 d2 7d b8 3e fa 21 f4 3c 78 84 7d 3f fb a5 63 bf
       0.36033493 0.029801358 0.99030256 -0.8892514
000020 98 b4 f2 3e bc 9a 13 3d 58 36 21 c0 c8 05 83 bd
       0.47403407 0.036036238 -2.5189419 -0.06397587
000030 46 db 9c 3f fb dc 90 bf cc bf b3 bf 10 94 86 be
       1.2254417 -1.1317438 -1.4042907 -0.26284838
000040 1e ee c2 3e 8a f1 d4 3f ac 7e 9c be 81 33 e3 3d
       0.38072294 1.6636212 -0.30565393 0.11093808
000050 7a de 1c be a3 4b 75 bf bc dd 04 bf 17 2f 3a 3f
       -0.15319243 -0.9581854 -0.5190084 0.72728103
000060 27 7d f4 3e 3e c2 7a bd 8e 0e 9f 3c 99 bd c7 bd
       0.47751734 -0.0612204 0.01941612 -0.0975296
000070 3f 57 eb be a5 30 99 3e 03 74 03 3f a0 fe 04 bf
       -0.45965 0.29919925 0.51348895 -0.51951027
000080 da 02 65 be ea 68 ff 3e ab 69 c9 be a7 f8 a9 3d
       -0.22364369 0.4988473 -0.3933843 0.0829938
000090 8b a0 b3 3d 36 85 9b be fb dd 84 3c 94 ce d5 3e
       0.087708555 -0.3037507 0.01621913 0.4175917
0000a0 45 e5 e1 be d3 27 ae bd cf 6a f4 bd a9 6c 56 be
       -0.4412023 -0.085036896 -0.119344346 -0.20939888
0000b0 12 b4 98 3e 09 e4 cd 3e 87 53 1c bf 62 e9 2b bf
       0.29824883 0.4021304 -0.6106495 -0.6715299
0000c0 3a 76 a2 3e dc 58 7d 3d 7c 8a 0e bf 9b ef 8b be
       0.31730825 0.06185232 -0.5568006 -0.27331242
0000d0 d4 c2 b2 3d 71 97 8c be 20 f9 79 bd 50 17 ff bd
       0.08728567 -0.2745929 -0.0610286 -0.124556184
0000e0 a3 74 a6 be 50 3a 2f 3e ec 98 e0 3e c6 54 54 3e
       -0.32510862 0.17112088 0.4386667 0.20735464
0000f0 57 a3 a4 bc 26 cc 51 3e e1 15 26 3f a9 55 2e bf
       -0.020097418 0.20488033 0.64877135 -0.6809946
000100 7a 0c 4f 3f 23 e6 9b bf 17 47 6d bf c4 51 b0 3f
       0.8087841 -1.2179607 -0.926866 1.3774953
000110 75 75 92 3d 8d 04 92 bf d6 05 4a 3f 61 2a cc bd
       0.071513094 -1.1407639 0.78915155 -0.09969021
000120 a5 0f f5 3d a6 f0 fd be b2 ba 38 bf fb 84 a0 3e
       0.119658746 -0.49597663 -0.72159874 0.31351456
000130 c1 55 27 3f 17 36 3f 3d 3d a6 a5 be 91 b4 47 3e
       0.65365225 0.046682443 -0.32353392 0.19502474
000140 fd fa fd be 9d 76 4c 3c 54 14 b1 3d c4 00 f1 3d
       -0.4960555 0.0124794515 0.086464554 0.11767724
000150 c1 0f 1d bf 08 e9 d4 be 85 e5 5a 3f 63 15 3b bd
       -0.61352164 -0.4158404 0.8550647 -0.045674693
000160 6c c2 90 3e 59 af 48 3d 0f ec 55 3f d7 b6 15 bf
       0.28273332 0.04899535 0.8356332 -0.58482116
000170 11 9a 2f bd f0 c5 46 be 29 c7 9c bf 7a 5f 0c 3e
       -0.04287154 -0.19411445 -1.2248279 0.13708296
000180 8d 0f 48 3f e4 8d ab 3e 6a 49 14 3f 58 bc 8e be
       0.7814873 0.3350669 0.5792452 -0.2787807
000190 80 7a ac 3d 73 e6 6b bf 4b fa 8a 3f 70 dd c5 bf
       0.084218025 -0.9214851 1.0857633 -1.5458202
0001a0 36 1b 8e bf fc b4 ac 3f 3d 3c 3b be f0 34 5c bf
       -1.1102054 1.3492732 -0.18284698 -0.86018276
0001b0 a6 f2 8a 3f 26 66 b2 3e 14 4d 07 bf 52 fa 38 bf
       1.08553 0.34843558 -0.52851987 -0.7225696
0001c0 1a 55 64 bf d3 80 4c 3e 2a 1d b6 3d f6 38 c1 bc
       -0.89192355 0.19971018 0.08892281 -0.023586731
0001d0 82 e9 5e be 41 22 c0 be 2a 73 4d bd 6c 5b bb 3e
       -0.21768764 -0.37526134 -0.050158657 0.36593187
0001e0 7a b0 04 bf 33 95 07 bd cb 14 1a bf 3e 66 10 bf
       -0.5183178 -0.03310127 -0.6018798 -0.5640601
0001f0 ee 18 11 3f 7a d1 11 be ef 8c c7 be 73 6c 92 3d
       0.56678665 -0.14240065 -0.3897471 0.07149591
000200 a7 55 b6 3e 52 bb a8 be 30 1b 67 bd 37 3e 29 be
       0.35612223 -0.32955414 -0.056422412 -0.1652764
000210 06 27 b1 be e3 47 2c bf 94 6f 27 bf 22 e1 45 3e
       -0.34600085 -0.6729719 -0.6540463 0.19324163
000220 3f 26 04 3f 96 0f 2b 3f 59 22 f5 3e bd 11 ec 3e
       0.5162086 0.6682066 0.47877768 0.46107283
000230 ff 74 dd be 11 fa 08 3f c3 3b 59 3f e5 30 46 bf
       -0.43253323 0.5350657 0.84856814 -0.7741836
000240 7f 6b 2e 3f d2 b4 1e 3f 01 79 b3 bf 26 72 5e bf
       0.68132776 0.6199466 -1.4021302 -0.86892927
000250 36 f9 86 3e 4f 77 60 3f 53 b1 37 3f 53 97 99 3f
       0.26362008 0.8768205 0.7175495 1.1999305
000260 06 f6 b4 be 93 e4 a2 bc b8 a5 20 bd cb 2d 5e 3e
       -0.3534395 -0.019884383 -0.03922054 0.21697156
000270 f8 f9 a8 3e 98 7b 76 3e bc 2d 34 3e f8 be d7 bd
       0.3300321 0.24070585 0.17595571 -0.10534471
000280 7d 20 c6 3d e3 8c c6 be d5 88 e2 3e 2c 6a 11 3f
       0.096741654 -0.38779363 0.4424502 0.5680263
000290 60 24 6c bd c4 c8 0e bf 08 54 52 be f4 80 4a 3e
       -0.057651877 -0.55775094 -0.20539868 0.19775754
0002a0 28 a1 a5 3e 6e 1e 28 3f 0d f8 c1 be 4a 1f 63 3f
       0.32349515 0.6567143 -0.3788456 0.8871962
0002b0 e0 4c 3b 3f 45 ff 42 be 1f 66 4b bf c1 78 49 be
       0.73164177 -0.1904269 -0.794527 -0.1967497
0002c0 93 bc 15 3e c8 fa 6d bf e7 db 84 3f 13 45 73 bd
       0.14622717 -0.92960787 1.0379609 -0.059392046
0002d0 66 1c 71 bf 90 f7 6d 3f a9 6e a8 be d4 10 2d bf
       -0.9418396 0.92955875 -0.32896927 -0.676038
0002e0 8b 4b 8a 3e 77 9f 91 3f b4 fc 89 bf 73 1a 9c be
       0.2701076 1.137679 -1.0780244 -0.3048893
0002f0 2b cc 5b bf e4 fb 99 bf 89 79 11 bf a6 ee 1d bf
       -0.8585841 -1.2029996 -0.5682607 -0.61692274
000300 26 d9 b2 be fd 9c 50 bf ec e2 fb be 2c a1 0d bf
       -0.34931296 -0.81489545 -0.49196565 -0.55324054
000310 c0 e3 b0 3c 79 76 8d bd f7 15 49 3e 81 81 19 be
       0.021592975 -0.069073625 0.19637285 -0.14990808
000320 fb bd cf bd a5 28 b8 bc 08 6b 04 3e be bd 84 bd
       -0.10143658 -0.022480318 0.12931454 -0.06481503
000330 ee bc 82 3e 9e b8 cd bd a7 2f e9 3e 4a b2 e6 bc
       0.25534767 -0.100449786 0.45544168 -0.028161187
000340 55 0f 74 3d bc 54 26 3d ce 67 8d be b5 98 b2 bd
       0.059584934 0.040608153 -0.2761826 -0.08720533
000350 d1 2e a5 bd 77 98 a8 bd f5 2b 1e bd 72 f2 20 be
       -0.0806557 -0.08232205 -0.03861614 -0.15717486
000360 ba b8 87 bd b7 16 fd bd 04 70 8d 3e 6f 81 81 3e
       -0.06627031 -0.12357848 0.27624524 0.25294062
000370 f2 68 3f be f3 fa 1b be 32 39 8a 3e df 6c f1 3d
       -0.18692377 -0.15232448 0.26996762 0.11788344
000380 81 e4 47 bd c8 b9 52 3e d9 2c f3 3d c6 5d 3e be
       -0.048801903 0.20578682 0.118737884 -0.18590459
000390 fa 5c 34 bf b3 9e 34 bf 7d 6e 06 be 29 dc fe 3b
       -0.7045437 -0.70554656 -0.13128085 0.00777771
0003a0 57 79 12 bf aa 90 0c bf 45 57 3c 3f 66 5f 5e bf
       -0.572164 -0.5490824 0.7357066 -0.86864316
0003b0 a3 5f 1f 3f 34 d1 45 3f 89 4e 1f bf 8b 0f 1b be
       0.62255305 0.77272344 -0.6222921 -0.15142648
0003c0 69 14 4f 3f e7 d2 03 bf 1a 0e 00 bf 08 23 9a 3e
       0.8089052 -0.51493686 -0.5002152 0.30104852
0003d0 f6 6b ff 3e d9 2a e2 3e 91 a7 cf 3e 36 b0 9e be
       0.49887055 0.44173315 0.4055753 -0.30993813
0003e0 48 33 a8 3e 72 db 51 bf f2 05 3c bf 33 31 a7 3e
       0.32851624 -0.8197547 -0.7344657 0.32654724
0003f0 5e 84 2e 3f c5 ab f4 be 8d 81 c6 3e b7 a0 81 3e
       0.68170726 -0.477873 0.38770714 0.25317928
