agl/models/autosave/pres-AE-19-9-0.01-A0.pt (torch, 22764 bytes, 21 tensors)

encoder.embedding.weight f4 [8, 19]
0	0x3c3a4065	0.011367892
1	0x3c070b10	0.008242384
2	0xbc0c5057	-0.008564076
3	0x3b740d93	0.0037239536
4	0x3ac4ad32	0.001500523
5	0xbb451335	-0.0030071263
6	0x3bdb53af	0.0066933255
7	0x3c733ed5	0.014846523
8	0x3c8e864a	0.017398018
9	0x3c4b705c	0.012416925
10	0xbb750b7d	-0.003739088
11	0xbc178bb9	-0.009249621
12	0x3b04e320	0.0020276979
13	0xbb0c7f25	-0.0021438089
14	0x3c17f86d	0.009275538
15	0x3c7c1ff4	0.015388478
16	0xbcbbcd8e	-0.022925165
17	0x3c3fbba1	0.011702449
18	0x3c6c1703	0.014409783
19	0xbd942cfa	-0.07235141
20	0x3e41dd2f	0.18932031
21	0x3e1c586b	0.15268104
22	0x3e74f65c	0.23922104
23	0xbe8b3b2e	-0.27193588
24	0x3e11691d	0.14200254
25	0xbe29d50e	-0.1658518
26	0x3e806f93	0.25085124
27	0xbd2a5cb6	-0.041592322
28	0xbe299438	-0.16560447
29	0x3de12c68	0.10994798
30	0xbe4a265a	-0.19741192
31	0x3d2809ad	0.041024853
32	0xbe14ae84	-0.14519697
33	0x3e9f12b8	0.3106897
34	0x3e9f26f2	0.310844
35	0xbe673264	-0.22577816
36	0x3c901b84	0.017591245
37	0x3cba4f20	0.022742808
38	0xbe320b4f	-0.17387126
39	0x3e12a357	0.14320122
40	0x3c1069b8	0.008814268
41	0x3dce15fb	0.10062786
42	0xbe7b03df	-0.24513195
43	0x3d06f8bc	0.032952055
44	0xbb708bd4	-0.0036704438
45	0x3e499e9f	0.19689415
46	0xbeb8fbc8	-0.36129594
47	0x3dd6ab79	0.104819246
48	0x3d03a646	0.032140993
49	0xbe1af53f	-0.15132616
50	0x3d3fedd9	0.04685769
51	0xbd803d6a	-0.06261714
52	0x3e241fc8	0.16027749
53	0x3e2d1db7	0.16905867
54	0xbd62b88d	-0.055351783
55	0x3e3dc37a	0.185316
56	0xbdd8ba62	-0.10582425
57	0xbf45b24f	-0.772252
58	0x3f6a0641	0.9141579
59	0x3d91b714	0.071149975
60	0x3f21d0d9	0.632093
61	0xbf4f4421	-0.8096333
62	0xbef951f3	-0.48695335
63	0xbf0af485	-0.5427936
64	0xbdc93b3e	-0.09825753
65	0xbf7450a7	-0.95435566
66	0xbe87b4c9	-0.26505116
67	0xbeb0810f	-0.34473464
68	0x3e3f43b8	0.18678176
69	0x3f2ea733	0.68223876
70	0x3efa3ce9	0.48874596
71	0x3e02695b	0.12735502
72	0xbdb640ac	-0.08899054
73	0x3e057db9	0.1303624
74	0x3f764439	0.9619785
75	0xbf0a7795	-0.5408872
76	0xbe71c968	-0.23611987
77	0x3e269d74	0.16271001
78	0xbcfa517e	-0.030556437
79	0x3e1fc397	0.15601955
80	0x3bd2f66d	0.0064380676
81	0x3e14c7ee	0.14529392
82	0xbe6d267c	-0.23159212
83	0x3eade9c1	0.33967403
84	0x3d4901eb	0.049074095
85	0xbc6709c7	-0.014101452
86	0x3f0c1d90	0.5473261
87	0xbd627468	-0.055286795
88	0xbd211f38	-0.039336413
89	0xbed4f4b6	-0.4159295
90	0x3c690ba5	0.014223968
91	0x3e45b40d	0.19306965
92	0xbefcf57b	-0.49406037
93	0x3dee1cab	0.11626562
94	0x3ebbc3f9	0.36672953
95	0x3d9e2556	0.07721965
96	0xbe924891	-0.2857099
97	0xbee07ce3	-0.4384528
98	0xbdd05399	-0.10172195
99	0x3ea3536c	0.31899583
100	0xbdb8f119	-0.09030361
101	0x3f024a31	0.5089446
102	0x3e0bbfe8	0.13647425
103	0x3e5b9236	0.21442494
104	0x3e22d19b	0.1590027
105	0xbc8af2e4	-0.016961522
106	0x3ec45b13	0.38350734
107	0xbe5b790d	-0.21432896
108	0xbda13317	-0.07871073
109	0xbe9fdcf8	-0.31223273
110	0xbdec673d	-0.11543129
111	0x3e183558	0.14864099
112	0xbdebfc38	-0.11522716
113	0x3eb32f79	0.34997156
114	0x3f0bfb25	0.5468009
115	0xbf195272	-0.59891427
116	0xbebb37bd	-0.36565962
117	0xbedbb757	-0.42913315
118	0x3ea2cca6	0.3179676
119	0x3ed78fa5	0.4210178
120	0x3e02065f	0.12697743
121	0xbeae0ded	-0.33995
122	0x3d754e3f	0.059889074
123	0x3ed82d7b	0.422222
124	0xbf03db49	-0.5150648
125	0xbed8939d	-0.4230012
126	0xbe9eba94	-0.31001723
127	0x3f0bf975	0.54677516
128	0xbf0cc10a	-0.54982054
129	0xbeccbdb7	-0.3998849
130	0x3ebb1354	0.36538184
131	0xbee8d83d	-0.45477477
132	0xbe92c125	-0.28662983
133	0xbeaa9d09	-0.33322933
134	0x3edd0675	0.4316899
135	0x3f1ae495	0.6050504
136	0x3ecf013b	0.40430626
137	0x3e1bbdfd	0.15209194
138	0x3f1600e5	0.58595115
139	0xbed79d07	-0.4211199
140	0x3efacc7d	0.48984137
141	0x3e31c564	0.17360455
142	0xbf1cbba1	-0.612238
143	0x3ebb623f	0.36598393
144	0xbe2ebcc4	-0.17064196
145	0xbea3fc5a	-0.32028466
146	0xbf06ed7a	-0.5270611
147	0x3f318855	0.6934865
148	0x3ec14876	0.37750596
149	0xbec05b87	-0.3756983
150	0xbe3e7e72	-0.18602923
151	0x3ea199b5	0.31562582

encoder.rnn.weight_ih_l0 f4 [27, 19]
0	0x3f1d004a	0.61328566
1	0xbe96d1fa	-0.29457074
2	0xbe668f38	-0.22515571
3	0xbe966c9d	-0.2937974
4	0x3f238355	0.6387227
5	0x3f0963ad	0.5366772
6	0xbe392488	-0.18080342
7	0xbf4832ed	-0.78202707
8	0x3ebd06ff	0.369194
9	0x3dad9edd	0.084775664
10	0xbf20f8e5	-0.6287978
11	0xbe680419	-0.22657813
12	0xbe656477	-0.22401606
13	0x3eac39f3	0.33637962
14	0xbf3c5976	-0.73574007
15	0xbf1ace9b	-0.60471505
16	0x3eb53994	0.3539549
17	0xbf15f4b6	-0.58576524
18	0xbf17bff4	-0.5927727
19	0x3e2f2abb	0.17106144
20	0x3e96a4b3	0.2942253
21	0x3e01e1cc	0.12683791
22	0xbe2a0c89	-0.16606344
23	0x3f0a6f2d	0.5407589
24	0x3d93887a	0.07203765
25	0xbf0a22dc	-0.5395944
26	0xbf44e3bd	-0.7691
27	0x3eca9d34	0.3957306
28	0xbc04463c	-0.008073386
29	0x3ebd7237	0.37001202
30	0x3ec1f708	0.37883782
31	0x3e1c353e	0.15254685
32	0x3e965983	0.29365167
33	0xbe5c398e	-0.2150633
34	0xbea8818c	-0.32911336
35	0xbd866650	-0.06562483
36	0x3af3513d	0.001856364
37	0x3ebb8760	0.3662672
38	0xbed7c9ed	-0.42146245
39	0x3f8874b7	1.0660619
40	0xbcb5c5d0	-0.02218905
41	0xbde02041	-0.10943652
42	0xbe32f413	-0.1747592
43	0xbf46b2ce	-0.77616584
44	0xbf5001c5	-0.812527
45	0xbdbd8da1	-0.09255529
46	0x3e351fd9	0.1768793
47	0xbf55e82b	-0.83557385
48	0x3f2ad733	0.6673462
49	0x3cb3e5b3	0.021960115
50	0x3eddd4ea	0.43326503
51	0x3e13f931	0.14450528
52	0xbf03a496	-0.51423013
53	0xbefba173	-0.49146613
54	0x3e495e55	0.19664891
55	0x3e381cab	0.17979686
56	0xbe37b22a	-0.17939058
57	0xbdb76c2e	-0.089561805
58	0x3e9315f6	0.28727692
59	0x3e4e8f28	0.20171797
60	0xbead1153	-0.3380228
61	0x3d4c59f9	0.049890492
62	0xbea2fa25	-0.3183147
63	0xbf076bc0	-0.5289879
64	0xbf1bf500	-0.60920715
65	0x3f1f3560	0.6219082
66	0xbec56252	-0.38551575
67	0x3e99df38	0.30053115
68	0x3ddb9d62	0.10723378
69	0x3e1a6183	0.1507626
70	0x3e7cb9d0	0.24680257
71	0xbefffb6d	-0.4999651
72	0xbf3a55bc	-0.7278707
73	0x3d1079e6	0.0352725
74	0x3e4b8745	0.1987582
75	0x3e84ea45	0.25959983
76	0x3e4739bc	0.19455618
77	0xbe3f8e9b	-0.18706743
78	0x3dc38567	0.09546929
79	0xbe83a80b	-0.25714144
80	0xbf015423	-0.5051901
81	0x3e6db251	0.23212554
82	0xbcfcee74	-0.030875422
83	0xbeb77056	-0.35827893
84	0x3ece05c2	0.40238768
85	0xbe036e2b	-0.12834994
86	0x3df908c6	0.121598765
87	0x3d87ad0c	0.06624803
88	0xbc36cedd	-0.0111577185
89	0xbea15718	-0.3151176
90	0xbdd62112	-0.104555264
91	0x3e25e8b7	0.16202055
92	0x3eac7abf	0.33687398
93	0xbe8d9d02	-0.2765885
94	0xbea848a8	-0.32867932
95	0x3f2e75f6	0.68148744
96	0xbf358b83	-0.70916003
97	0xbebb912a	-0.3663419
98	0xbebc170f	-0.36736342
99	0x3eafef12	0.34362084
100	0x3ec5badd	0.38619128
101	0x3e35667a	0.17714873
102	0xbeff6206	-0.49879473
103	0x3de5823b	0.1120648
104	0xbd8ef79f	-0.06980824
105	0xbeac3b85	-0.3363916
106	0xbe08e622	-0.13369039
107	0xbee558ef	-0.44794413
108	0xbd28c7d2	-0.04120619
109	0xbed27609	-0.4110568
110	0xbe3e95a3	-0.1861177
111	0x3f19b4fc	0.60041785
112	0xbf72bc04	-0.9481814
113	0xbeba2040	-0.3635273
114	0xbef5521b	-0.47914204
115	0x3eed87e0	0.46392727
116	0x3da5bfbd	0.08093212
117	0x3e7e834a	0.2485477
118	0xbf074f41	-0.52855307
119	0x3d9ed33a	0.07755132
120	0xbf532723	-0.8248159
121	0xbf2e8f6f	-0.6818761
122	0xbf55d986	-0.8353504
123	0xbf3c932c	-0.73662066
124	0xbf11bc69	-0.56928116
125	0x3e05200e	0.13000509
126	0x3ea4eb46	0.3221075
127	0x3f2e3d45	0.6806224
128	0xbe313fcc	-0.17309493
129	0x3c8806ab	0.016604742
130	0x3e96a2f6	0.29421204
131	0x3f32d04e	0.698491
132	0xbf8ede3b	-1.1161569
133	0x3ee54031	0.44775537
134	0xbcf51f6e	-0.029922213
135	0xbeb7be03	-0.35887155
136	0x3e50f877	0.20407282
137	0xbe658d80	-0.22417259
138	0xbc8ccece	-0.017188456
139	0xbc8f8f06	-0.017524254
140	0xbdc70898	-0.09718436
141	0xbe2720b2	-0.16321066
142	0xbea1d5d3	-0.31608447
143	0x3bf28d14	0.0074020717
144	0xbea0ce7e	-0.3140754
145	0x3c763749	0.015027829
146	0xbed858af	-0.4225516
147	0x3e2d1618	0.1690296
148	0xbdbf070f	-0.09327518
149	0x3eb865cc	0.36015165
150	0xbf2d4308	-0.67680407
151	0xbe2c8564	-0.1684776
152	0x3f0fc80a	0.5616461
153	0xbc22abd1	-0.00992866
154	0xbdbec457	-0.093147926
155	0xbec56685	-0.3855478
156	0x3f1697d2	0.5882541
157	0x3ee2512c	0.44202554
158	0xbe44fd71	-0.19237305
159	0xbf449ab1	-0.7679854
160	0x3ef7b629	0.48381165
161	0xbd061a16	-0.03273972
162	0xbe676ddc	-0.22600502
163	0xbe96ab79	-0.29427698
164	0xbe2be696	-0.1678718
165	0x3e952dbc	0.29136455
166	0xbf20232d	-0.62553674
167	0xbf49e2d0	-0.78861713
168	0x3e43b905	0.19113548
169	0xbe9bfaaf	-0.30464694
170	0xbe287b32	-0.16453245
171	0xbe9e036e	-0.30861992
172	0x3e5d62cc	0.2161972
173	0x3e351eb3	0.17687492
174	0x3ee5b75b	0.44866452
175	0xbec19255	-0.37806955
176	0xbedbcf9e	-0.42931837
177	0x3e8f142c	0.27945077
178	0x3f30dcf5	0.69087154
179	0xbe679bad	-0.2261798
180	0xbd91cbc0	-0.0711894
181	0x3ebf7969	0.37397316
182	0x3f5dbccf	0.86616224
183	0x3e04cf84	0.12969786
184	0xbef3ecc9	-0.4764159
185	0x3e197fa2	0.14990094
186	0x3e81e27b	0.25368103
187	0xbe419a85	-0.18906601
188	0x3ed8fc50	0.4238
189	0x3f2883c8	0.6582608
190	0xbe363e2b	-0.17797153
191	0xba34d85a	-0.0006898694
192	0x3db60efc	0.08889577
193	0x3e42ab46	0.19010648
194	0x3e52595a	0.20541897
195	0x3db98ea4	0.0906041
196	0x3ec9ff11	0.39452413
197	0x3f09aa12	0.5377513
198	0x3dc14aa2	0.09438063
199	0x3e531808	0.20614636
200	0x3d47a20f	0.048738535
201	0x3e62a81d	0.22134443
202	0xbec5487d	-0.38531867
203	0xbf0b23b5	-0.5435136
204	0x3d9a197b	0.07524391
205	0x3d7bd9e2	0.061487086
206	0xbda5c3d9	-0.080939956
207	0x3e793012	0.24334744
208	0xbd0af3f6	-0.033924066
209	0x3ea3ae1a	0.31968766
210	0xbec77bf1	-0.38961747
211	0x3e6e71aa	0.23285547
212	0xbe9401d0	-0.28907633
213	0x3e3349c4	0.17508608
214	0x3f2fec85	0.68720275
215	0x3e720447	0.23634444
216	0x3e9fd440	0.3121662
217	0x3e4205e2	0.18947557
218	0x3e9e9104	0.30970013
219	0x3db8140d	0.089881994
220	0x3c951919	0.018200444
221	0xbeaa6e7e	-0.33287424
222	0xbe867194	-0.26258528
223	0x3e275a68	0.16343081
224	0x3e0e01d2	0.13867882
225	0xbe85dff8	-0.26147437
226	0xbe54fe08	-0.2080003
227	0x3e739943	0.23788933
228	0x3e250378	0.16114604
229	0xbe93ec48	-0.28891206
230	0x3d4c01c1	0.04980636
231	0xbe881a0b	-0.2658237
232	0x3e954275	0.29152265
233	0x3e2964bd	0.16542335
234	0x3ee35a81	0.44404987
235	0x3e180a34	0.14847642
236	0xbe255376	-0.16145119
237	0x3eab7939	0.33490923
238	0xbd678cd6	-0.056530796
239	0x3e65beae	0.2243602
240	0xbec94998	-0.3931396
241	0xbf26cc2f	-0.6515531
242	0x3dd36f79	0.10323996
243	0x3e573d3d	0.21019454
244	0x3e41be4d	0.1892025
245	0xbd7bd8e5	-0.061486144
246	0x3d98834b	0.07446917
247	0xbe02c891	-0.12771823
248	0xbd8107ff	-0.06300353
249	0xbd8e3ab0	-0.069447875
250	0x3ecca2bb	0.39967903
251	0xbe4d4993	-0.20047598
252	0xbd339500	-0.04384327
253	0xbe3bc3f2	-0.18336466
254	0x3e999f7d	0.30004492
255	0x3e9ef70c	0.31047857

encoder.rnn.weight_hh_l0 f4 [27, 9]
0	0xbe2dfd16	-0.16991076
1	0x3c0de34e	0.008660151
2	0xbcb1e4d8	-0.021715567
3	0x3d98219e	0.07428287
4	0xbbab9cad	-0.005237183
5	0xbe1f709e	-0.15570304
6	0xbe7f9fbb	-0.24963276
7	0xbe8163e9	-0.25271538
8	0x3c0ca33c	0.00858384
9	0x3f1aa17c	0.60402656
10	0xbf63a7d3	-0.88927954
11	0x3f1ae9b9	0.6051288
12	0x3f4e1cc3	0.80512637
13	0x3c780c20	0.01513961
14	0x3e492e72	0.19646624
15	0x3eb21112	0.3477865
16	0x3cb02b44	0.021505006
17	0xbf2ddd7a	-0.6791607
18	0x3e9c520c	0.30531347
19	0xbeeae103	-0.45874795
20	0x3f06ad24	0.5260794
21	0x3ecacf9d	0.3961152
22	0x3ef52397	0.47878715
23	0xbeb6e050	-0.35718012
24	0x3e10cc9a	0.1414055
25	0xbe6f714c	-0.23383063
26	0xbedcc6c1	-0.43120387
27	0x3f05c68f	0.522561
28	0xbf604f72	-0.87621224
29	0x3f17428d	0.59085923
30	0x3f448c06	0.7677616
31	0x3eb2f23b	0.34950432
32	0xbdaead76	-0.08529179
33	0x3ec58713	0.38579616
34	0xbd2231d9	-0.03959832
35	0xbf316ee6	-0.6930984
36	0x3e8219e9	0.25410393
37	0x3b76f8d2	0.003768493
38	0x3ee41c51	0.44552854
39	0x3dcaa1ee	0.09894167
40	0x3e1b695d	0.15176912
41	0xbe91a375	-0.2844502
42	0x3ec686e9	0.38774803
43	0x3e30e9a2	0.17276624
44	0xbe98dedf	-0.29857537
45	0x3deaaa9b	0.11458322
46	0xbd423a24	-0.04741873
47	0x3e59ade7	0.21257745
48	0x3e4933d7	0.19648682
49	0xbc2d4d93	-0.010577577
50	0x3e318821	0.17337085
51	0x3e7563f1	0.23963906
52	0x3eb06a3e	0.34456056
53	0xbe2b84f0	-0.1674993
54	0xbe82e407	-0.25564596
55	0x3e35d60d	0.17757435
56	0xbdc6416e	-0.096804485
57	0xbe31225b	-0.17298262
58	0x3eb5d852	0.35516602
59	0xbf22310e	-0.633561
60	0xbec2090d	-0.3789753
61	0xbf3d3e12	-0.73922837
62	0x3e0084cf	0.12550662
63	0x3d909b85	0.07060913
64	0xbd9daaad	-0.076985694
65	0x3e332c34	0.17497331
66	0x3e2b083f	0.16702364
67	0xbecfffbe	-0.40624803
68	0x3e4e8c4d	0.20170708
69	0x3ef30b06	0.47469348
70	0x3efe9b48	0.49727845
71	0xbd868af5	-0.06569473
72	0x3ec86441	0.39138988
73	0xbf1636e7	-0.58677524
74	0x3ea31f19	0.31859663
75	0x3f144661	0.5791989
76	0xbd91d663	-0.07120969
77	0x3da123da	0.07868166
78	0x3e337527	0.17525159
79	0xbc67f085	-0.014156465
80	0xbef593ee	-0.47964424
81	0xbe84e01a	-0.25952226
82	0xbe1194f9	-0.14216985
83	0x3e716406	0.23573312
84	0x3e2e1249	0.16999163
85	0x3ef8c7a2	0.48589808
86	0xbef70374	-0.48244822
87	0x3e422ea2	0.18963102
88	0xbed8f7a8	-0.42376447
89	0x3e5ec349	0.21754183
90	0xbeb273ee	-0.34854072
91	0x3e838013	0.2568365
92	0xbdf25b90	-0.118338704
93	0xbe2037ba	-0.15646258
94	0x3dacd297	0.08438604
95	0xbebbb0aa	-0.3665822
96	0xbdf73573	-0.120707415
97	0xbe4af452	-0.19819763
98	0x3eabeb65	0.3357803
99	0x3e441555	0.19148763
100	0x3e09a9ca	0.13443676
101	0xbe9cc342	-0.3061772
102	0xbe6dfa98	-0.23240125
103	0xbdc44a86	-0.09584527
104	0x3e466963	0.1937614
105	0x3ca2f78a	0.019893426
106	0xbd0b9c86	-0.03408482
107	0xbd7fa89b	-0.062416654
108	0xbde96978	-0.1139707
109	0x3e77ed04	0.24211508
110	0xbe735129	-0.23761429
111	0xbe71d622	-0.23616841
112	0xbe75da1f	-0.24008988
113	0xbdf3920c	-0.118930906
114	0xbe080f47	-0.13287078
115	0xbdbdd313	-0.09268775
116	0x3e377128	0.1791426
117	0xbe684fd5	-0.22686704
118	0x3e414f71	0.1887796
119	0xbf131a24	-0.5746176
120	0xbe828798	-0.25494075
121	0x3e0e5932	0.13901213
122	0x3ed435e3	0.41447362
123	0xbf124e8f	-0.5715112
124	0xbe9a1092	-0.30090767
125	0x3e7d988e	0.24765226
126	0x3e06612d	0.13123007
127	0xbeb76245	-0.3581716
128	0xbe6523bd	-0.22376914
129	0x3cc2d22a	0.023781855
130	0x3d8cbc1a	0.06871815
131	0x3e0f27da	0.13980046
132	0xbe9f84d4	-0.31156027
133	0xbd763199	-0.060105894
134	0xbe61c0a0	-0.22046137
135	0xbf009a41	-0.5023537
136	0x3ecdffae	0.4023413
137	0xbdd5d1e6	-0.104404256
138	0x3d505e1a	0.050870992
139	0x3e07c846	0.13259992
140	0x3e189bdd	0.14903207
141	0x3ec07a53	0.37593326
142	0x3e34bd72	0.17650393
143	0x3f308cbd	0.6896475
144	0xbc755cc6	-0.014975732
145	0x3a23b188	0.0006244411
146	0xbe70f2b0	-0.23530078
147	0xbd17a948	-0.037026674
148	0x3efaada0	0.4896059
149	0xbd908a98	-0.07057685
150	0xbef42d62	-0.47690874
151	0xbee6a0b1	-0.45044473
152	0x3ce1016a	0.027466495
153	0xbea227bc	-0.3167094
154	0xbd845436	-0.064613745
155	0x3e1f56ff	0.1556053
156	0x3db2d948	0.08732849
157	0x3e803c04	0.25045788
158	0xbecf7a19	-0.4052284
159	0x3df104ef	0.11768519
160	0xbe8307c3	-0.2559186
161	0x3e8cebd4	0.27523673
162	0x3e1a80be	0.15088174
163	0xbe84253e	-0.25809664
164	0x3d55167a	0.05202339
165	0x3d0a7fdb	0.03381334
166	0x3e87082e	0.26373428
167	0xbe40c73d	-0.18826003
168	0xbdd9261c	-0.10602972
169	0xbe3df5f4	-0.18550855
170	0xbe51f9bd	-0.20505424
171	0xbc60994d	-0.013708425
172	0xbefc7457	-0.4930751
173	0x3e5dfde5	0.21678884
174	0x3f08a172	0.53371346
175	0xbe08e512	-0.13368633
176	0x3ea6b34c	0.32558668
177	0x3e6bd66b	0.23031013
178	0x3eb44a65	0.3521301
179	0x3d5dbbfa	0.054134347
180	0x3e845568	0.2584641
181	0x3d6e31c4	0.05815293
182	0xbf19357f	-0.59847254
183	0xbebf1fd1	-0.37328961
184	0xbe1fa197	-0.15588985
185	0x3e39d8c9	0.18149103
186	0xbe9a5a2b	-0.30146918
187	0xbd13e41c	-0.036106214
188	0xbe4ff8f0	-0.20309806
189	0x3e1e8065	0.15478666
190	0x3e8b0b60	0.27157116
191	0xbeb9087a	-0.3613928
192	0xbf1a6940	-0.6031685
193	0x3dd06840	0.10176134
194	0xbdf3872f	-0.118910186
195	0xbebc861f	-0.36821076
196	0xbe4b1011	-0.19830348
197	0xbe120883	-0.1426106
198	0xbd8e06f0	-0.06934917
199	0x3e91d2a8	0.2848103
200	0xbe50949d	-0.20369191
201	0xbea09377	-0.31362507
202	0xbf187156	-0.59547937
203	0x3e4ba5ac	0.19887418
204	0xbe93e814	-0.28888
205	0x3e7cfcab	0.2470576
206	0x3da02a40	0.078205585
207	0x3eb9f110	0.3631673
208	0xbeef242b	-0.4670728
209	0x3e97c4e2	0.29642397
210	0x3ecec268	0.40382695
211	0x3f28cd0d	0.6593788
212	0xbe8789a5	-0.26472202
213	0x3e0c137b	0.13679306
214	0xbeb80d19	-0.35947493
215	0xbea0f04e	-0.31433338
216	0x3ef84822	0.48492533
217	0xbe12ccfa	-0.14336005
218	0xbec623df	-0.38699242
219	0x3d3fe580	0.046849728
220	0xbe0eb33b	-0.13935558
221	0x3ed8f7c2	0.42376524
222	0xbea4de74	-0.32200968
223	0x3e43a7ed	0.19107027
224	0xbeb8debf	-0.36107442
225	0x3f0ac091	0.54200083
226	0xbee9248e	-0.45535702
227	0x3d06624c	0.032808587
228	0x3e7a30c3	0.24432664
229	0x3f06f617	0.52719253
230	0xbb88b390	-0.004171796
231	0x3dc257b9	0.09489388
232	0xbebaef51	-0.3651071
233	0xbef7e6e0	-0.4841833
234	0xbd984fd2	-0.074370995
235	0x3dd54c74	0.10414973
236	0x3d414cde	0.047192447
237	0x3e2f1fd0	0.1710198
238	0xbe6bfbac	-0.23045224
239	0x3e7f2e3d	0.24919982
240	0x3e41cc24	0.1892553
241	0x3e5f53e1	0.21809341
242	0x3dcbaec1	0.09945441

encoder.rnn.bias_ih_l0 f4 [27]
0	0xbeda34a5	-0.4261829
1	0xbeb291b8	-0.348768
2	0xbeaa4058	-0.33252215
3	0xbecf9ef0	-0.40550947
4	0xbe7fb7e6	-0.24972495
5	0x3d57862b	0.052618187
6	0xbf2627de	-0.6490458
7	0x3df75a0b	0.12077721
8	0xbe906e51	-0.28209165
9	0x3f09a2c0	0.5376396
10	0x3edaef85	0.42760864
11	0x3e0e5533	0.13899688
12	0x3ea82011	0.32836965
13	0x3f31973c	0.6937139
14	0x3c7943c6	0.015213912
15	0x3edcdc04	0.4313661
16	0x3f063b02	0.5243379
17	0x3f10b0b1	0.5651961
18	0xbd925df0	-0.071468234
19	0x3dab3ed8	0.08361596
20	0xbe298408	-0.16554272
21	0xbd5018f6	-0.050805055
22	0xbd8e72f0	-0.06955516
23	0x3e57a5ba	0.21059313
24	0xbde7e933	-0.11323776
25	0x3df5a70f	0.119947545
26	0x3e1c3793	0.15255575

encoder.rnn.bias_hh_l0 f4 [27]
0	0xbeda34a4	-0.42618287
1	0xbeb291b3	-0.34876785
2	0xbeaa4054	-0.33252203
3	0xbecf9ef1	-0.4055095
4	0xbe7fb7e2	-0.2497249
5	0x3d578627	0.052618172
6	0xbf2627e0	-0.64904594
7	0x3df75a09	0.1207772
8	0xbe906e50	-0.28209162
9	0x3f09a2c2	0.53763974
10	0x3edaef81	0.42760852
11	0x3e0e5538	0.13899696
12	0x3ea82010	0.32836962
13	0x3f31973e	0.693714
14	0x3c7943dd	0.015213934
15	0x3edcdc08	0.4313662
16	0x3f063b02	0.5243379
17	0x3f10b0af	0.565196
18	0xbd5604bc	-0.05225061
19	0x3d9d1621	0.076702364
20	0xbdc1c09c	-0.094605654
21	0xbc52f509	-0.012875804
22	0xbdaa67bc	-0.08320567
23	0x3e56d57b	0.20979874
24	0xbd359fc0	-0.044341803
25	0x3e06239a	0.13099518
26	0x3def579a	0.116866305

encoder.rnn.weight_ih_l0_reverse f4 [27, 19]
0	0x3bf0f86f	0.0073538343
1	0xbefaccb3	-0.48984298
2	0x3d20c8e1	0.039254073
3	0x3e0f9a9c	0.14023823
4	0x3cb69f9f	0.02229291
5	0xbf0558eb	-0.52088803
6	0x3ebe15b3	0.3712593
7	0x3be143eb	0.0068745515
8	0x3dec0113	0.115236424
9	0xbdf29ec7	-0.118466906
10	0xbf029f96	-0.5102476
11	0x3ddc0cb3	0.1074461
12	0xbd92902d	-0.071564056
13	0x3ec48483	0.38382348
14	0xbf5b4841	-0.85657126
15	0xbf23e2a3	-0.64017695
16	0xbed0962e	-0.40739578
17	0x3f0703b5	0.5274003
18	0x3dcb983d	0.099411465
19	0x3d6bc971	0.057565156
20	0xbec6f675	-0.38859907
21	0xbcb4f4c3	-0.022089368
22	0xbdf8b441	-0.12143756
23	0x3e1ae02f	0.15124582
24	0x3ecc38a6	0.3988697
25	0x3da50d08	0.08059126
26	0xbca4179c	-0.02003079
27	0x3f087c61	0.5331479
28	0x3dc2432c	0.09485468
29	0x3ec19c6b	0.3781465
30	0xbe9f85ff	-0.31156918
31	0xbe9070d9	-0.28211096
32	0xbdf6c4db	-0.12049266
33	0xbc582b7d	-0.013193962
34	0xbe7019e1	-0.23447372
35	0xbe466c9e	-0.19377372
36	0xbd06b43d	-0.032886732
37	0x3e6e5ab2	0.23276785
38	0xbf362d82	-0.7116319
39	0x3ef45a43	0.47725114
40	0x3f5109d3	0.81655616
41	0x3f690ec9	0.91038185
42	0xbf760fcb	-0.9611785
43	0x3f45c223	0.77249354
44	0xbf44632c	-0.76713824
45	0x3dc121a2	0.09430243
46	0xbf4b08c1	-0.7931023
47	0xbf84625d	-1.0342518
48	0x3f06b689	0.52622277
49	0xbe9335a8	-0.28751874
50	0x3e0b38c3	0.13595872
51	0xbee31ef6	-0.4435956
52	0x3f91ec43	1.1400226
53	0x3f37f995	0.71865207
54	0xbeedef8d	-0.46471825
55	0x3f1a8024	0.6035178
56	0xbdb1e156	-0.086855575
57	0x3eaa63f8	0.33279395
58	0xbf8888fd	-1.0666806
59	0xbf1a7fef	-0.6035146
60	0xbf4b7a2a	-0.7948328
61	0x3ee52922	0.44757944
62	0xbeb63b28	-0.35592008
63	0x3f940913	1.1565269
64	0xbf1523ad	-0.5825756
65	0x3e5f4de5	0.21807058
66	0x3efa8015	0.48925844
67	0xbdee96a0	-0.11649823
68	0x3f2e27a5	0.6802924
69	0xbe994c17	-0.29940864
70	0x3f70dbb7	0.9408526
71	0xbfba9203	-1.4575809
72	0xbfa744fe	-1.306793
73	0x3f9682c5	1.1758658
74	0xbec4e75a	-0.38457757
75	0x3e25d08f	0.1619284
76	0x3e5fa531	0.2184036
77	0xbede5032	-0.4342056
78	0xbdde4dbc	-0.108546704
79	0xbe2a5595	-0.1663421
80	0x3eb87899	0.3602951
81	0xbe670a30	-0.2256248
82	0x3e643b5b	0.22288267
83	0xbf24d7ed	-0.64391977
84	0xbe3ef79b	-0.18649141
85	0xbeae00e5	-0.33985057
86	0xbea2d06b	-0.31799635
87	0x3f49a5de	0.7876872
88	0x3e312e23	0.17302756
89	0x3ec9a90c	0.39386785
90	0xbf169d45	-0.58833724
91	0xbf3458ff	-0.704483
92	0x3f3be1ad	0.7339123
93	0xbe2bde4d	-0.1678402
94	0x3c255083	0.010089996
95	0x3d643e00	0.05572319
96	0xbf2dc073	-0.6787178
97	0xbe4bba2b	-0.19895236
98	0x3cdadb67	0.026715947
99	0xbdf83785	-0.121199645
100	0xbeaf75c9	-0.3426955
101	0x3ec2a91b	0.38019642
102	0xbe097360	-0.13422918
103	0x3e83b6f4	0.2572552
104	0x3cdf2b33	0.027242279
105	0xbecd76e0	-0.40129757
106	0x3e51a0b1	0.20471455
107	0xbdc3a305	-0.09552578
108	0x3f2f7bbb	0.6854817
109	0xbf0e8177	-0.556663
110	0xbf300312	-0.68754685
111	0x3e6ffc1b	0.23436014
112	0x3e429417	0.19001804
113	0x3dfc598a	0.12321766
114	0xbe99c1aa	-0.30030566
115	0xbe03ec65	-0.12883146
116	0x3ddcd68e	0.107831106
117	0x3ec6c3bb	0.38821205
118	0xbf0bf6ab	-0.5467326
119	0x3e0bbf2f	0.1364715
120	0xbef82894	-0.4846846
121	0x3d6dc21a	0.058046438
122	0x3d0bd1f9	0.034135792
123	0xbf04415e	-0.5166224
124	0xbe77f43d	-0.24214263
125	0xbeb6bba1	-0.35690024
126	0xbbb1aaa0	-0.0054219514
127	0xbe2b9afc	-0.1675834
128	0xbdf0b056	-0.117523834
129	0xbdbb79b9	-0.09154076
130	0xbf22e897	-0.63636154
131	0x3e93006e	0.28711265
132	0xbd9020cc	-0.070375055
133	0xbe2cccb8	-0.16874969
134	0xbe84cd73	-0.25937995
135	0x3e1a3a23	0.1506124
136	0x3da339fc	0.07970044
137	0xbe948cdf	-0.29013726
138	0xbec2c045	-0.38037315
139	0x3d4842ab	0.048891705
140	0xbe671d82	-0.2256985
141	0xbe4a2321	-0.19739963
142	0x3eed4635	0.46342626
143	0xbf375632	-0.716159
144	0xbd3679b2	-0.04454965
145	0x3e4dabdd	0.20085092
146	0x3f17383f	0.590702
147	0xbf061c43	-0.52386874
148	0xbf296c78	-0.66181135
149	0xbd16b887	-0.036797073
150	0x3eb48f4d	0.3526558
151	0xbea6c91e	-0.32575315
152	0x3eb95550	0.361979
153	0xbc824930	-0.01590404
154	0x3e6ac3b9	0.22926225
155	0xbb20379b	-0.0024447206
156	0x3e0ae0c5	0.13562305
157	0x3f498d5e	0.78731334
158	0xbf4976c4	-0.78696847
159	0xbc85bd66	-0.016325664
160	0xbcecad6a	-0.028891284
161	0xbe71e51c	-0.23622555
162	0x3ea9f093	0.33191356
163	0xbdd30481	-0.103035934
164	0x3d8165d9	0.06318254
165	0x3e66c877	0.22537409
166	0x3eac0f3a	0.33605367
167	0xbe47ddb4	-0.19518167
168	0xbb14658b	-0.0022643532
169	0x3dafe9e7	0.08589535
170	0xbeb088da	-0.3447941
171	0xbee475c5	-0.446211
172	0x3e51c8e0	0.20486784
173	0x3f728b6f	0.9474401
174	0x3e2bc82f	0.16775583
175	0x3e8c98f9	0.2746046
176	0x3ef7acf1	0.4837413
177	0xbf37481b	-0.715944
178	0x3ed959a3	0.424512
179	0xbdb9d30f	-0.09073459
180	0xbec69185	-0.38782898
181	0x3e972595	0.2952086
182	0xbf3ce6a5	-0.73789436
183	0x3da90404	0.08252719
184	0x3e0dd6e5	0.13851507
185	0x3f425b2f	0.75920385
186	0x3ed76e46	0.4207632
187	0xbe51054e	-0.2041218
188	0xbdf96a9f	-0.121785395
189	0xbecbe6a0	-0.3982439
190	0xbe154465	-0.14576872
191	0xbe46f400	-0.19429016
192	0x3e26ddab	0.16295497
193	0x3d78f742	0.06078268
194	0x3de50f75	0.11184589
195	0x3ea00517	0.31253883
196	0x3e33c4c6	0.17555532
197	0xbe2cff71	-0.16894318
198	0x3d4058df	0.046959754
199	0x3eeb67a9	0.45977524
200	0xbec991ac	-0.3936895
201	0x3da15610	0.07877743
202	0xbe7d927f	-0.24762915
203	0x3e068478	0.1313647
204	0xbe8c2907	-0.2737505
205	0xbdc487b7	-0.09596198
206	0x3e8af11f	0.27137086
207	0x3e282fde	0.1642451
208	0xbd13185c	-0.035911903
209	0xbe372d36	-0.1788834
210	0xbd1526a6	-0.03641381
211	0xbe21dd72	-0.15807131
212	0x3c204a93	0.009783405
213	0x3e0a8627	0.13527738
214	0xbd420f25	-0.047377724
215	0xbe1f3638	-0.15548027
216	0xbb296e8e	-0.002585325
217	0x3e2aecb4	0.16691858
218	0x3e9ff378	0.3124044
219	0x3e7455a6	0.23860797
220	0x3e07ab5d	0.13248964
221	0x3e01999d	0.12656255
222	0xbec5a9c5	-0.38606086
223	0x3da1fad6	0.07909171
224	0x3e5032f3	0.20331936
225	0xbe6e036c	-0.23243493
226	0x3ea5f457	0.3241298
227	0x3eea9c46	0.45822352
228	0xbe8f9a2c	-0.2804731
229	0x3f808885	1.0041662
230	0x3f67f0e2	0.90601933
231	0x3f19faf1	0.6014853
232	0xbe7e3235	-0.2482384
233	0x3cfe350e	0.031031158
234	0xbfa65868	-1.299573
235	0x3eb125b0	0.34599066
236	0xbec99760	-0.39373302
237	0xbedfeb5a	-0.43734246
238	0xbd2b46ff	-0.041815754
239	0xbf03c78c	-0.5147636
240	0x3e85764e	0.26066822
241	0xbe584e54	-0.2112363
242	0x3f83c9d6	1.029597
243	0x3ed68680	0.4189949
244	0xbf597b1a	-0.84953463
245	0x3eb787d5	0.3584582
246	0xbe5dc9ab	-0.21658961
247	0xbdc5f789	-0.09666354
248	0x3dd2ee5e	0.10299371
249	0xbde48e54	-0.111599594
250	0x3bd8f4dc	0.0066209864
251	0xbe9871b5	-0.29774252
252	0xbd22934b	-0.03969125
253	0xbe3cad98	-0.18425596
254	0xbe1d3420	-0.15351915
255	0xbe2b8f03	-0.16753773

encoder.rnn.weight_hh_l0_reverse f4 [27, 9]
0	0x3f14244a	0.5786787
1	0x3f831380	1.0240326
2	0xbeed2202	-0.46315008
3	0xbd69c2d3	-0.057070564
4	0xbf0a03b3	-0.53911895
5	0xbea85b09	-0.32881954
6	0x3f42f0ea	0.76148856
7	0x3ef92948	0.48664308
8	0xbe33be65	-0.17553098
9	0xbe072525	-0.13197763
10	0x3f61e22d	0.8823574
11	0xbf0aac1b	-0.5416886
12	0xbeee7564	-0.46573937
13	0xbea8fb6b	-0.33004317
14	0x3e18434b	0.1486942
15	0x3d2ee13c	0.04269527
16	0xbe5925a8	-0.21205771
17	0xbf0026a6	-0.5005897
18	0x3d044000	0.032287598
19	0xbcb2b912	-0.021816764
20	0xbeadc8e5	-0.33942333
21	0x3e1cab57	0.15299736
22	0xbdf177b2	-0.11790408
23	0x3e2dcc58	0.16972482
24	0xbebb1462	-0.36538988
25	0xbed0384d	-0.40667954
26	0xbf422a5e	-0.758459
27	0x3eadb700	0.3392868
28	0x3e4f23c6	0.2022849
29	0x3eb957a4	0.36199677
30	0x3e711cee	0.23546192
31	0x3e9a967b	0.30192932
32	0xbeb0dfbf	-0.34545705
33	0x3f2986f9	0.66221577
34	0x3ecb7e48	0.39744782
35	0x3eee76e3	0.46575078
36	0xbd7de114	-0.06198223
37	0xbf25a0b4	-0.6469834
38	0x3e8d2532	0.2756744
39	0xbd2cd5a1	-0.04219592
40	0x3eb0aa1b	0.3450478
41	0x3da10eea	0.07864173
42	0xbe90e1f0	-0.28297377
43	0xbd88552a	-0.06656869
44	0x3eb309cc	0.34968412
45	0x3cb6580f	0.022258786
46	0x3f538272	0.8262092
47	0xbef305a7	-0.4746525
48	0xbef8aa95	-0.48567644
49	0xbf384145	-0.71974593
50	0x3d650dd2	0.055921383
51	0x3ea630f4	0.32459223
52	0x3e122442	0.14271644
53	0xbde3678b	-0.11103734
54	0x3ec72e58	0.38902545
55	0x3f51a2ea	0.8188921
56	0xbebe780e	-0.3720097
57	0xbe5c9f67	-0.21545182
58	0xbe985aae	-0.29756683
59	0xbe129ad3	-0.14316873
60	0x3f220aaf	0.6329755
61	0x3ef15dc9	0.47141865
62	0xbe60bb28	-0.21946394
63	0xbd59f132	-0.053208537
64	0x3f12987a	0.5726391
65	0xbf04e567	-0.5191254
66	0xbf0eed65	-0.55830985
67	0xbf1ca9df	-0.611967
68	0x3dc0dec6	0.09417491
69	0x3ee19ceb	0.4406503
70	0x3e5f180e	0.2178652
71	0xbe8dfd36	-0.27732247
72	0x3f100538	0.56257963
73	0xbe2c8ca5	-0.16850527
74	0xbd25acd9	-0.040448043
75	0x3e78cc64	0.24296719
76	0x3d859aab	0.06523641
77	0x3d30365f	0.043020602
78	0x3d6824b2	0.05667562
79	0x3e23a3e7	0.15980493
80	0x3cc02be0	0.023458421
81	0xbe9a3d94	-0.30125105
82	0xbeb306df	-0.3496618
83	0x3ed563fe	0.4167785
84	0x3ddf6f05	0.10909847
85	0x3f1182ea	0.56840384
86	0x3d80d5c2	0.06290771
87	0xbed34528	-0.412637
88	0xbe7d1bd7	-0.24717651
89	0x3e16aa8d	0.14713497
90	0x3f4fb63b	0.81137437
91	0x3de5c2a7	0.112187676
92	0x3ee6a67d	0.45048895
93	0x3f8e05ef	1.1095561
94	0x3f108f45	0.5646861
95	0xbf80911c	-1.0044284
96	0x3ed6e8a9	0.4197438
97	0x3f215b4e	0.63029945
98	0x3d5a6985	0.053323288
99	0x3f410a9c	0.75406814
100	0x3f19bd64	0.6005461
101	0xbdfe0f73	-0.124052905
102	0x3ee2fadb	0.44332013
103	0xbdebac72	-0.11507501
104	0xbf93dfca	-1.155267
105	0x3f8eaa19	1.114566
106	0x3f5957ab	0.84899396
107	0xbea34700	-0.31890106
108	0x3e35ea55	0.17765172
109	0x3c370028	0.011169471
110	0x3dcc8e08	0.09988028
111	0x3ed1591f	0.40888306
112	0x3e2a26ee	0.16616413
113	0xbe38323d	-0.17987914
114	0xbe312c9f	-0.17302178
115	0xbd9f0cab	-0.07766088
116	0xbe0c4b0e	-0.13700506
117	0x3f84acb1	1.0365201
118	0x3ecc4857	0.3989894
119	0x3dfc929d	0.12332652
120	0x3f476a1b	0.7789628
121	0x3e5934e0	0.21211576
122	0xbf9d246f	-1.2276744
123	0x3f71ee86	0.9450458
124	0x3f5927b9	0.84826237
125	0xbe09299b	-0.13394777
126	0xbe49b459	-0.19697703
127	0xbf2548c1	-0.6456414
128	0x3f072c5b	0.52802056
129	0x3e907c23	0.2821971
130	0x3f1e66a5	0.61875373
131	0xbe020dca	-0.12700573
132	0xbefd7f90	-0.49511385
133	0xbecd4d1b	-0.4009789
134	0x3ead576e	0.33855766
135	0xbe8ff8d5	-0.2811953
136	0xbde94686	-0.113904044
137	0x3ecf7d02	0.4052506
138	0x3e9282d4	0.2861544
139	0x3e9d7916	0.30756444
140	0xbe3fb143	-0.18719964
141	0xbd53af3e	-0.051680796
142	0x3d93e417	0.07221239
143	0x3ef966c5	0.4871122
144	0xbda90508	-0.08252913
145	0xbe14e233	-0.14539413
146	0x3e86a1e9	0.26295403
147	0x3eb2d97f	0.3493156
148	0x3eae2517	0.34012672
149	0xbe403bf4	-0.1877287
150	0x3b033040	0.0020017773
151	0x3da4721a	0.08029576
152	0x3ea019b3	0.31269607
153	0x3dd54e21	0.104152925
154	0x3ee15724	0.44011796
155	0x3ded1c0e	0.11577617
156	0x3d0f3fde	0.034973018
157	0xbdfa506d	-0.12222371
158	0xbeeadefc	-0.4587325
159	0x3f21aeb5	0.63157207
160	0x3e5b8fcd	0.21441574
161	0x3dac6c5e	0.08419107
162	0xbf4318c2	-0.7620965
163	0x3e181052	0.14849976
164	0xbf3daaf8	-0.74089
165	0xbf707d78	-0.9394145
166	0xbee65a7d	-0.44990912
167	0x3f77e8fc	0.9683988
168	0xbe49df07	-0.19713984
169	0xbf36d1b1	-0.71413714
170	0xbf5c4d08	-0.8605504
171	0xbf0b40a3	-0.543955
172	0xbec16b06	-0.37776965
173	0xbf026ac1	-0.50944144
174	0xbef6ecdb	-0.4822758
175	0xbe7c208d	-0.24621792
176	0x3f2db712	0.6785747
177	0xbef30315	-0.4746329
178	0xbf516ddd	-0.81808263
179	0xbf113b2f	-0.5673093
180	0x3e935409	0.2877505
181	0xbd8ee02f	-0.069763534
182	0xbe07e912	-0.13272503
183	0xbe3bd0ad	-0.18341322
184	0xbe821b80	-0.25411606
185	0xbec37052	-0.3817163
186	0x3e8adbe7	0.27120897
187	0x3eee5f8d	0.46557274
188	0x3d813e37	0.06310695
189	0xbefb6f49	-0.4910834
190	0x3ea66313	0.32497463
191	0xbf319e93	-0.6938259
192	0xbfa00e42	-1.2504351
193	0xbeb0ae79	-0.34508112
194	0x3efc5c0e	0.49288982
195	0xbd48cdb8	-0.049024314
196	0xbcb133de	-0.021631178
197	0xbf40e7fb	-0.75353974
198	0x3dfc47d9	0.12318391
199	0x3e44d195	0.19220574
200	0xbebec130	-0.37256765
201	0xbec5d27e	-0.38637155
202	0xbf31bd81	-0.69429785
203	0xbdf2c10c	-0.11853227
204	0x3e5a4290	0.21314454
205	0x3e9fe95f	0.31232736
206	0xbe39386f	-0.18087934
207	0x3e338844	0.1753245
208	0xbec75a09	-0.3893588
209	0x3f53a24a	0.8266951
210	0x3f318176	0.69338167
211	0x3f33e887	0.70276684
212	0xbf74084a	-0.9532515
213	0xbe9ea90c	-0.30988348
214	0x3eda9095	0.42688432
215	0x3f6c19cb	0.92226857
216	0xbf226485	-0.6343463
217	0xbdbd72b8	-0.092503965
218	0xbf4aa1f2	-0.7915336
219	0xbf46f4a6	-0.77717054
220	0xbf07f9f2	-0.5311576
221	0x3f3643d7	0.71197265
222	0xbeac0547	-0.33597776
223	0xbf2ce039	-0.67529637
224	0xbf2229ea	-0.63345206
225	0xbe8fdcff	-0.28098294
226	0x3eb1ef19	0.3475273
227	0xbf3a12b0	-0.72684765
228	0xbf06fe49	-0.5273176
229	0xbf022a5f	-0.50845903
230	0x3f024761	0.50890166
231	0xbc8c139c	-0.017099194
232	0xbf0436ef	-0.5164632
233	0xbf1fce58	-0.6242423
234	0x3ee4c97a	0.44684964
235	0x3dd64513	0.104623936
236	0xbe195437	-0.14973532
237	0x3d1b57ad	0.03792541
238	0xbe8f4937	-0.27985546
239	0xbe97fcdd	-0.29685107
240	0x3eea58e4	0.45770943
241	0x3f06cad6	0.52653253
242	0xbc9d9692	-0.019236837

encoder.rnn.bias_ih_l0_reverse f4 [27]
0	0x3f0d3bca	0.55169356
1	0x3f25e832	0.64807427
2	0xbf60a9cf	-0.8775911
3	0x3df43360	0.119238615
4	0xbe560bbc	-0.20902914
5	0x3ee9b186	0.45643252
6	0x3f12926d	0.5725468
7	0x3ea77a74	0.32710612
8	0xbf0e9ead	-0.5571087
9	0x3c5f00d6	0.013611039
10	0xbd28e098	-0.041229814
11	0xbf25c8e7	-0.6475968
12	0xbd7c0409	-0.061527286
13	0xbe11b9ab	-0.14230983
14	0x3cfceda5	0.030875036
15	0x3ddde6a7	0.10835009
16	0x3e0b10ae	0.13580582
17	0xbe9b5781	-0.30340198
18	0x3d5bd461	0.053669337
19	0x3df95964	0.12175253
20	0xbd8683e6	-0.065681264
21	0xbe6a2c46	-0.22868451
22	0xbce9eff6	-0.028556805
23	0x3def9df8	0.11700052
24	0xbc08d94c	-0.008352589
25	0x3d99dab5	0.07512418
26	0xbd4bb49f	-0.0497328

encoder.rnn.bias_hh_l0_reverse f4 [27]
0	0x3f0d3bc9	0.5516935
1	0x3f25e831	0.6480742
2	0xbf60a9cf	-0.8775911
3	0x3df4336b	0.1192387
4	0xbe560bbe	-0.20902917
5	0x3ee9b186	0.45643252
6	0x3f12926c	0.5725467
7	0x3ea77a77	0.3271062
8	0xbf0e9ead	-0.5571087
9	0x3c5f00bc	0.013611015
10	0xbd28e0a7	-0.04122987
11	0xbf25c8e5	-0.64759666
12	0xbd7c03f5	-0.06152721
13	0xbe11b9a8	-0.14230978
14	0x3cfced99	0.030875014
15	0x3ddde6a8	0.1083501
16	0x3e0b10af	0.13580583
17	0xbe9b577f	-0.30340192
18	0x3d88812c	0.066652626
19	0x3dff6d98	0.12472075
20	0xbda0de7a	-0.07854934
21	0xbe14566c	-0.14486092
22	0xbd237afa	-0.0399122
23	0x3dfbfd4e	0.123041734
24	0xbc1cc4c3	-0.009568396
25	0x3df516ab	0.11967214
26	0xbd617e44	-0.055052057

encoder.fc.weight f4 [9, 18]
0	0x3ea869c2	0.32893187
1	0xbe574bcc	-0.21025008
2	0x3e587128	0.21136916
3	0x3de9ade0	0.11410117
4	0xbdcc1288	-0.09964472
5	0x3e2d0b84	0.16898924
6	0x3e305d1e	0.17223021
7	0x3e8374c7	0.25675032
8	0xbea185e2	-0.31547457
9	0xbe7999e9	-0.24375118
10	0xbeaf0793	-0.34185466
11	0x3ea6e0a4	0.32593262
12	0xbc9f6fa0	-0.019462407
13	0x3d2074ad	0.03917377
14	0x3e583bee	0.21116611
15	0xbe162e22	-0.14666036
16	0xbe1196a5	-0.14217623
17	0x3e68522a	0.22687593
18	0xbeb56638	-0.3542955
19	0x3e35f366	0.1776863
20	0xbded2892	-0.11580004
21	0x3c8fd39e	0.017556962
22	0x3e1e520e	0.15460989
23	0xbebd111e	-0.36927122
24	0xbec4449a	-0.3833359
25	0xbeca6c46	-0.3953573
26	0x3e8dcc8f	0.27695128
27	0x3ea3821f	0.31935212
28	0x3e783ab0	0.24241138
29	0xbe2f3196	-0.1710876
30	0xbe0798c9	-0.13241877
31	0x3cbabcc4	0.022795089
32	0xbe667bc6	-0.22508153
33	0x3e4d9082	0.20074657
34	0x3e35da62	0.17759088
35	0xbe2737f4	-0.16329938
36	0xbe963081	-0.2933388
37	0x3e41ab41	0.18912984
38	0xbe19c115	-0.15015061
39	0xbde1e8bb	-0.11030718
40	0xbda6b234	-0.08139458
41	0xbda26bb9	-0.07930703
42	0x3c8f3550	0.017481476
43	0xbd7ffd10	-0.0624972
44	0x3e8e51c6	0.27796763
45	0x3e8671cf	0.26258704
46	0x3ebc5595	0.36784044
47	0xbea899fd	-0.32929984
48	0xbd5a71b4	-0.053331092
49	0xbe2af689	-0.16695608
50	0xbe68febf	-0.22753428
51	0x3e97b51b	0.2963036
52	0x3e276bab	0.16349666
53	0xbe310b28	-0.17289412
54	0x3ef79998	0.4835937
55	0xbea551b7	-0.32288906
56	0x3ebc0743	0.3672429
57	0x3e79dbb7	0.24400221
58	0x3d16f361	0.036853198
59	0xbcb841fb	-0.0224924
60	0x3e2ad6d1	0.16683508
61	0x3cd43ae4	0.025906987
62	0xbf086a9b	-0.5328767
63	0xbe900983	-0.28132257
64	0xbf0f8d8c	-0.5607536
65	0x3f00c5fa	0.5030209
66	0xbeaabc3e	-0.33346742
67	0x3dcbf34b	0.09958514
68	0x3e8861eb	0.26637205
69	0xbd7a8905	-0.06116583
70	0xbe649cb2	-0.223254
71	0x3e21be76	0.15795311
72	0xbea7b582	-0.32755667
73	0x3e5e6714	0.21719009
74	0xbe537685	-0.2065068
75	0xbe23767b	-0.15963165
76	0xbe0f9919	-0.14023246
77	0x3dafbef7	0.085813455
78	0x3d2168c0	0.039406538
79	0x3c7c64f6	0.01540493
80	0x3ea7e9b4	0.3279549
81	0x3e5abd07	0.2136117
82	0x3f0d7d40	0.5526924
83	0xbf0e00e5	-0.55470115
84	0x3d896bc0	0.06710005
85	0xbe8a6d9c	-0.2703675
86	0xbe4a9227	-0.19782315
87	0x3e74b4d7	0.2389711
88	0x3e061631	0.13094403
89	0xbe8eeed4	-0.27916586
90	0xbca960cd	-0.020676041
91	0xbcc4109f	-0.023933707
92	0x3d418114	0.04724224
93	0x3d246e6d	0.040144373
94	0x3e96cfd7	0.29455444
95	0xbe0169b9	-0.12637986
96	0xbdb71305	-0.089391746
97	0xbcb7dcd4	-0.022444166
98	0x3d5479ac	0.051873848
99	0xbec571e1	-0.38563445
100	0xbe7f3096	-0.24920878
101	0x3eb1694f	0.34650657
102	0x3e4eae5f	0.20183705
103	0x3d329da9	0.043607388
104	0x3e6f43e8	0.23365748
105	0xbeb9a6e4	-0.3626014
106	0xbe45e0ca	-0.19324031
107	0x3ec1ae59	0.3782833
108	0x3e6ecd08	0.233204
109	0xbde72c21	-0.11287714
110	0x3e4d7f77	0.20068155
111	0x3d330c8f	0.04371315
112	0xbc91ceab	-0.017798742
113	0xbd8ae336	-0.06781618
114	0x3e00a324	0.12562233
115	0x3c6f66f9	0.014611953
116	0xbe666460	-0.22499228
117	0xbe7a3e95	-0.24437936
118	0xbead6d92	-0.33872658
119	0x3ea9fe8e	0.33202022
120	0xbe66a24b	-0.22522847
121	0x3e13f459	0.1444868
122	0x3e53f7c9	0.20699991
123	0xbceb8f71	-0.028754922
124	0xbe63bd95	-0.22240289
125	0x3e752844	0.23941141
126	0x3ea82ad2	0.3284517
127	0xbe1903ee	-0.14942905
128	0x3e6ec91c	0.23318905
129	0x3d0adf99	0.033904646
130	0xbd85072c	-0.064955086
131	0x3d1fe810	0.03903967
132	0x3f015963	0.5052702
133	0x3e78d7a8	0.24301016
134	0xbe928b3b	-0.2862185
135	0xbe1dcc44	-0.15409952
136	0xbe982d49	-0.2972205
137	0x3e4d7b09	0.20066465
138	0x3d8f0493	0.06983294
139	0x3c81fd4c	0.015867852
140	0x3e403bbb	0.18772785
141	0xbd3390ce	-0.04383927
142	0xbe33740f	-0.17524742
143	0x3dcbb49a	0.099465564
144	0xbda10cbe	-0.078637585
145	0x3df3eb07	0.11910062
146	0xbdd7648f	-0.10517227
147	0xbcb357b1	-0.0218924
148	0xbd0d5411	-0.034504
149	0x3d336cf1	0.043805066
150	0x3d401493	0.04689462
151	0xbc88e249	-0.016709464
152	0x3e03fecb	0.12890165
153	0x3e7c90b7	0.2466458
154	0x3e03e145	0.12878902
155	0xbe3cd25c	-0.1843962
156	0x3c185597	0.00929775
157	0xbdbe16ad	-0.09281669
158	0xbe2fa37f	-0.17152213
159	0xbd478d7b	-0.04871891
160	0x3ddf4b57	0.10903042
161	0xbe182da6	-0.14861163

encoder.fc.bias f4 [9]
0	0xbeabc68e	-0.33549923
1	0x3e4eeade	0.20206782
2	0x3e8f78b4	0.28021777
3	0xbf0e1e6b	-0.55515164
4	0x3eeb3702	0.45940405
5	0x3de7a126	0.113100335
6	0xbe987f34	-0.29784548
7	0xbe9fed14	-0.31235564
8	0x3d451d58	0.048123688

decoder.attention.attn.weight f4 [9, 27]
0	0x3f8027c6	1.0012138
1	0xbf77304b	-0.96558064
2	0xbe9822f6	-0.29714173
3	0x3d52a6ab	0.05142848
4	0xbe79ea29	-0.24405731
5	0x3e737ed0	0.23778844
6	0x3a016b11	0.00049369136
7	0x3f70e7e0	0.94103813
8	0x3f00b42e	0.5027493
9	0x3f8a847b	1.082168
10	0xbf46b0fa	-0.77613795
11	0x3f1123c2	0.5669519
12	0x3f3134c5	0.69221145
13	0x3e722a45	0.23648937
14	0xbc27a590	-0.010232344
15	0xbe57c9dc	-0.21073097
16	0x3ecab73a	0.39592916
17	0xbf983bd9	-1.1893264
18	0x3e3c0cab	0.18364207
19	0x3d6ea0d3	0.058258843
20	0xbe631fae	-0.22180054
21	0x3ef6032d	0.48049298
22	0xbe5edc46	-0.21763715
23	0xbef4761d	-0.47746363
24	0x3d30e242	0.043184526
25	0x3e009f75	0.12560828
26	0x3c46c935	0.012132932
27	0x3fa6665f	1.2999991
28	0xbfaaec48	-1.3353357
29	0xbf5aa015	-0.85400516
30	0x3e291809	0.16513075
31	0x3ede46e3	0.43413457
32	0x3ee9df8a	0.4567836
33	0x3ed19f95	0.40942064
34	0x3fa9826f	1.324293
35	0x3f16468c	0.58701396
36	0xba6bc0e8	-0.0008993284
37	0x3eb9e35f	0.36306283
38	0xbf14b3da	-0.5808693
39	0xbf223a62	-0.63370335
40	0xbe6267ce	-0.22109911
41	0x3dbe793a	0.09300466
42	0xbedb694d	-0.42853776
43	0x3d6eb7c3	0.058280718
44	0x3da94cb9	0.08266587
45	0x3e392495	0.18080361
46	0xbe3ffbe5	-0.18748434
47	0x3ee9a9ff	0.4563751
48	0x3d089efe	0.03335475
49	0x3eda6e20	0.42662144
50	0xbdbe95ae	-0.09305893
51	0x3e2f00a2	0.17090085
52	0x3f26fe19	0.6523147
53	0x3e53ec24	0.20695549
54	0xbfadf56b	-1.3590521
55	0x3fb314a2	1.3990672
56	0x3f55f937	0.83583397
57	0xbe1ca0c5	-0.15295704
58	0xbecb5310	-0.3971181
59	0xbeff9f3f	-0.49926183
60	0xbee8c2fb	-0.45461258
61	0xbfb4e10e	-1.4131181
62	0xbf1fd1ec	-0.6242969
63	0x3cb9f74b	0.022700926
64	0xbed54d8a	-0.4166072
65	0x3f0b4a55	0.54410297
66	0x3f256ddf	0.64620775
67	0x3e4aca72	0.1980379
68	0xbdbbd604	-0.091716796
69	0x3edfcc5a	0.43710595
70	0xbd8190ba	-0.063264325
71	0xbdc7e773	-0.09760942
72	0xbe30da52	-0.17270783
73	0x3e2fa559	0.17152919
74	0xbefb3ffc	-0.49072254
75	0xbc7bc42c	-0.015366595
76	0xbef39e6a	-0.47581798
77	0x3cc92cbd	0.024557466
78	0xbe2dd6f2	-0.16976526
79	0xbf26bc92	-0.65131485
80	0xbe763184	-0.24042326
81	0xbf92357b	-1.1422571
82	0x3fb611d0	1.4224186
83	0x3f8a3ef5	1.0800463
84	0xbe94250a	-0.2893451
85	0xbd7010a7	-0.05860963
86	0xbf298605	-0.6622012
87	0xbf79c95d	-0.9757288
88	0xbf8fbf69	-1.1230289
89	0xbf16ff55	-0.58983356
90	0xbeb716eb	-0.35759673
91	0x3f0c33df	0.5476665
92	0xbdd831c7	-0.10556369
93	0xbee4fbfe	-0.44723505
94	0xbf2f7d4c	-0.6855056
95	0x3eeced09	0.46274593
96	0x3f077d64	0.52925706
97	0x3e487e69	0.19579472
98	0x3ebfc1b3	0.37452468
99	0xbe01ddd3	-0.12682275
100	0xbd5b21b0	-0.053498924
101	0x3ee0ff5c	0.43944824
102	0xbe3c1c69	-0.18370213
103	0x3f085f0d	0.53270036
104	0x3b87251a	0.004124296
105	0xbe1705c3	-0.14748292
106	0x3ee2e3e3	0.4431449
107	0x3e812a4c	0.25227582
108	0xbf92ef9c	-1.1479373
109	0x3f9ce98c	1.2258773
110	0x3f0389af	0.51381963
111	0xbc294c07	-0.010333068
112	0xbd1aa414	-0.037754133
113	0xbe8704b3	-0.26370773
114	0xbdba027e	-0.090825066
115	0xbf92a3cf	-1.145624
116	0xbf580cac	-0.84394336
117	0xbf0f6aa0	-0.5602207
118	0x3f083f9d	0.53222066
119	0xbe5d7481	-0.21626474
120	0xbf0a78f2	-0.540908
121	0xbe105161	-0.14093544
122	0xbe4fbbb6	-0.2028645
123	0xbba025c8	-0.0048873164
124	0xbe318c3c	-0.17338651
125	0x3f231ce9	0.6371599
126	0xbcfd09b1	-0.03088841
127	0xbead6c95	-0.33871904
128	0x3eb93047	0.36169645
129	0xbde8c938	-0.113665044
130	0x3ee81505	0.45328537
131	0x3eb4a338	0.35280776
132	0xbea42151	-0.32056668
133	0x3cb9dabb	0.022687307
134	0x3da23c48	0.07921654
135	0x3f88136f	1.0630931
136	0xbf935936	-1.15116
137	0xbf3fa216	-0.748567
138	0x3e55e62b	0.20888583
139	0x3d140c52	0.036144562
140	0x3e83822d	0.25685254
141	0x3ef0a36d	0.46999684
142	0x3f7c84a9	0.98639923
143	0x3f32198f	0.6957025
144	0x3f3b3578	0.7312846
145	0xbf162a64	-0.5865843
146	0x3e7d9c3c	0.2476663
147	0x3efdb546	0.49552363
148	0x3eaa937a	0.3331564
149	0xbe65bc2f	-0.22435068
150	0xbe91dc60	-0.28488445
151	0x3e0bfaa4	0.1366983
152	0xbf518841	-0.8184853
153	0xbb411244	-0.002946035
154	0x3d734aa0	0.05939734
155	0xbe730552	-0.23732498
156	0x3e93a854	0.28839362
157	0xbe469b1a	-0.19395104
158	0xbec98778	-0.39361167
159	0xbc9a1f43	-0.018813735
160	0xbe7cfa77	-0.2470492
161	0x3cb45fc3	0.022018319
162	0x3f1c41a8	0.61037683
163	0xbee136ac	-0.43987024
164	0xbf831623	-1.024113
165	0x3fa00071	1.2500135
166	0xbf8f5251	-1.1196996
167	0x3f88f406	1.069947
168	0x3d66d618	0.05635652
169	0x3ef79902	0.48358923
170	0xbef5974f	-0.47967002
171	0x3ce539cc	0.027981661
172	0xbe8a5bd0	-0.27023172
173	0x3f1aa54f	0.6040849
174	0x3ee3da0f	0.44502303
175	0x3f5199b6	0.8187517
176	0xbf66e4fe	-0.90193164
177	0x3e83798c	0.2567867
178	0x3e88bd97	0.26707146
179	0xbd02d641	-0.03194261
180	0xbea7c212	-0.3276525
181	0xbedd5ca4	-0.43234742
182	0x3eff5cd8	0.49875522
183	0xbe2d9f70	-0.16955352
184	0x3f028e6a	0.50998557
185	0x3ee17d3d	0.44040862
186	0xbeaab1a1	-0.33338645
187	0xbf4a6f99	-0.79076535
188	0x3e8c999e	0.2746095
189	0xbfb7e2a8	-1.4366045
190	0x3fce0636	1.6095645
191	0x3f3eba1e	0.7450274
192	0xbe8d5915	-0.27607027
193	0xbed84f61	-0.4224806
194	0xbf17d10a	-0.59303343
195	0xbf0fbcb4	-0.56147313
196	0xbfc2d944	-1.5222554
197	0xbf342978	-0.70375776
198	0x3d45e1fe	0.048311226
199	0xbed30ce3	-0.4122077
200	0x3eeaee4e	0.45884937
201	0x3f1b2b6f	0.6061315
202	0x3d6f63c1	0.058444742
203	0xbda656a6	-0.08121996
204	0x3ece88d0	0.40338755
205	0xbdf61e0b	-0.12017449
206	0xbddcc2c1	-0.10779334
207	0xbe86975b	-0.2628735
208	0x3e3967a7	0.18105946
209	0xbf0314f6	-0.5120386
210	0xbdab06b7	-0.0835089
211	0xbedf896c	-0.43659532
212	0x3c4e851e	0.01260498
213	0xbe4d350f	-0.20039771
214	0xbf2a26bf	-0.6646537
215	0xbe91bccd	-0.28464356
216	0xbf696a3b	-0.9117772
217	0x3f7721b1	0.96535784
218	0x3f1672c2	0.58768857
219	0xbe3dc6f6	-0.18532929
220	0x3e4cc8f3	0.19998531
221	0xbd901830	-0.070358634
222	0xbee655fc	-0.44987476
223	0xbf557833	-0.83386534
224	0xbf0b1e3f	-0.54343027
225	0xbf80c377	-1.0059651
226	0x3f39dcbb	0.7260243
227	0xbea82003	-0.32836923
228	0xbeff55eb	-0.49870238
229	0xbe8de498	-0.27713466
230	0xbd887b50	-0.06664145
231	0x3e67c906	0.22635278
232	0xbece0e92	-0.4024549
233	0x3f8f710f	1.1206378
234	0x3d802335	0.06256715
235	0xbd33682c	-0.043800518
236	0x3e317a07	0.17331706
237	0xbe221ba8	-0.15830863
238	0x3e01ab85	0.12663086
239	0x3ec3710c	0.38172185
240	0x3b306edf	0.0026921553
241	0x3e1add58	0.15123498
242	0x3b855088	0.004068438

decoder.attention.attn.bias f4 [9]
0	0xbf7abe4a	-0.9794661
1	0xbf367822	-0.7127706
2	0x3f3b6a87	0.7320942
3	0x3ef90395	0.48635545
4	0x3f55be4d	0.834935
5	0xbf29a0bd	-0.6626089
6	0xbe9440a2	-0.2895556
7	0x3f3e3366	0.7429718
8	0x3f53019a	0.8242432

decoder.attention.v.weight f4 [1, 9]
0	0xbee817ff	-0.45330808
1	0x3ea9a9e0	0.33137417
2	0xbec328a8	-0.38116956
3	0x3ed44101	0.41455844
4	0x3ea50b64	0.32235253
5	0xbebb13fc	-0.36538684
6	0xbec98607	-0.39360067
7	0xbeb35923	-0.35028943
8	0x3ed8d6dd	0.42351428

decoder.embedding.weight f4 [8, 19]
0	0xb996361b	-0.0002865054
1	0x3c4c7e39	0.012481266
2	0x3c9c5052	0.019081268
3	0xbbd3b47c	-0.0064607244
4	0xbc51761b	-0.012784506
5	0xbc8f0ce0	-0.017462194
6	0xba40e92e	-0.0007358965
7	0x3be5b07e	0.007009565
8	0xbbced4b9	-0.0063119796
9	0x3b91680e	0.004437453
10	0xbbc4db8f	-0.0060076187
11	0xb9eab7ac	-0.00044768804
12	0x3c457ce7	0.012053705
13	0x3bacc03e	0.0052719405
14	0xbae3eb84	-0.0017388915
15	0x3b96ad94	0.004598329
16	0xbbb1301d	-0.005407347
17	0xbb8285ab	-0.0039832196
18	0xbb922302	-0.0044597397
19	0x3cf4e4e2	0.029894296
20	0xbe775b19	-0.24155845
21	0xbe09e9c9	-0.13468088
22	0x3e545b46	0.20737943
23	0xbd948204	-0.07251361
24	0xbe748852	-0.23880127
25	0xbe2ffe84	-0.17186934
26	0xbea40073	-0.32031593
27	0x3e0e9ba2	0.13926557
28	0xbe5baff0	-0.21453834
29	0x3e66d462	0.22541955
30	0xbd96b57e	-0.07358836
31	0x3e6d72e4	0.23188359
32	0xbe72e13d	-0.23718734
33	0x3e965164	0.2935897
34	0x3e6a9d4e	0.2291157
35	0x3e4b4415	0.1985019
36	0xbc39abad	-0.011332435
37	0x3e4bd56b	0.19905631
38	0xbde21416	-0.11038987
39	0x3c5223a1	0.012825877
40	0x3d800523	0.0625098
41	0x3db34190	0.087527394
42	0xbd0735a3	-0.033010136
43	0x3e025683	0.12728314
44	0xbd4952f3	-0.049151372
45	0xbd301ea0	-0.042997956
46	0x3d3812f8	0.044939965
47	0xbda7bdbf	-0.08190488
48	0x3cb84184	0.022492178
49	0x3d48eccd	0.049053956
50	0x3db09104	0.086214095
51	0x3e0f673a	0.14004222
52	0x3d513732	0.05107803
53	0xbe898a07	-0.2686312
54	0xbcdbd894	-0.026836671
55	0xbdb12d36	-0.086512014
56	0x3da79e30	0.08184469
57	0xbecf4a56	-0.404864
58	0x3d472a55	0.048624355
59	0x3ec6d065	0.38830867
60	0x3e7e6abd	0.24845405
61	0x3ea91add	0.33028308
62	0x3ec000ae	0.3750052
63	0x3e3c046d	0.18361063
64	0x3ddac3b5	0.106818594
65	0xbefc91cf	-0.49329993
66	0x3e764835	0.24050982
67	0x3e29a2c8	0.16566002
68	0x3ef5f872	0.4804111
69	0x3d655113	0.05598552
70	0xbe0e4a9b	-0.13895647
71	0xbe9713d1	-0.29507306
72	0xbee7bc4d	-0.4526085
73	0x3d51c28e	0.051210932
74	0x3ca1f5c4	0.01977051
75	0xbe9c9bd6	-0.30587643
76	0xbe498a91	-0.19681765
77	0x3e2bfa92	0.16794804
78	0x3e0bd6fe	0.13656232
79	0xbda33c79	-0.079705186
80	0x3e9775a1	0.2958193
81	0x3e111f65	0.14172132
82	0x3d7b7589	0.061391387
83	0x3e46013e	0.19336411
84	0xbdcb560a	-0.0992852
85	0x3e49a8af	0.19693254
86	0xbc8c2496	-0.01710729
87	0x3e0e2e1f	0.13884781
88	0xbd6ac206	-0.05731394
89	0xbdb26e94	-0.08712497
90	0x3d6bba4a	0.057550706
91	0xbc9b4726	-0.018954825
92	0x3cabdede	0.020980295
93	0xbde4e65f	-0.11176752
94	0xbe67b60e	-0.22628042
95	0x3e266549	0.16249575
96	0xbe1cd094	-0.15313941
97	0xbd3d943f	-0.046283957
98	0xbd5c1381	-0.053729538
99	0xbe537506	-0.2065011
100	0xbe0cc6d7	-0.13747726
101	0xbe339e0e	-0.17540762
102	0xbdd49093	-0.10379138
103	0x3ad45a8d	0.0016201303
104	0xbe512331	-0.2042358
105	0xbdb917ce	-0.090377435
106	0xbe1cb0b4	-0.15301782
107	0xbd19fabb	-0.03759263
108	0x3d517f47	0.05114677
109	0xbe083eeb	-0.13305251
110	0x3da6870d	0.08131228
111	0x3d9264b7	0.07148116
112	0x3cabfa8c	0.020993493
113	0x3e6ed435	0.23323138
114	0x3c7a6716	0.015283367
115	0x3e410b42	0.18851951
116	0xbdce1ce9	-0.10064108
117	0x3e0c0a37	0.13675772
118	0xbdee0db2	-0.11623706
119	0xbd8cf004	-0.06881717
120	0x3dd2fd6e	0.10302244
121	0x3ce18e34	0.027533628
122	0x3e7c9350	0.2466557
123	0xbd9020e9	-0.07037527
124	0x3dd5f2b6	0.10446684
125	0x3eaba4e9	0.33524254
126	0x3d76444c	0.060123727
127	0x3ecb1e56	0.39671582
128	0x3ed7347e	0.42032236
129	0xbeaf92e4	-0.34291756
130	0xbeb0d014	-0.3453375
131	0xbe6ec736	-0.2331818
132	0x3d363b61	0.044490222
133	0x3ccb01a5	0.024781058
134	0x3e26a3c1	0.16273405
135	0x3e81eadc	0.25374496
136	0xbe8c5617	-0.2740943
137	0x3e67ef5d	0.22649904
138	0x3ea19680	0.31560135
139	0x3e6e9460	0.23298788
140	0x3e946a81	0.28987506
141	0xbe2a57c9	-0.1663505
142	0x3e1821da	0.14856663
143	0xbe55a687	-0.20864306
144	0xbdb56444	-0.08857015
145	0xbe0c8645	-0.13723095
146	0xbdaae389	-0.0834418
147	0xbe35925f	-0.17731617
148	0x3c8de03f	0.017318843
149	0xbdb82edf	-0.08993315
150	0x3e9f4150	0.31104517
151	0xbe101b71	-0.14072968
