agl/models/autosave/pres-AE-19-9-0.01-F2.pt (torch, 55500 bytes, 53 tensors)

gating.embedding.weight f4 [8, 10]
-0.0038581085 0.0024285302 0.0056971186 -0.00012655348 0.009738318 -0.0013045969 0.00060780474 -0.014500916
0.013337431 -0.008111599 0.7480248 0.1432876 0.68205065 0.9054041 0.49903288 0.8371288
1.1003839 -1.1640615 -0.04128218 -0.91677904 0.5291081 0.4289228 0.548102 -0.31238422
0.6763411 0.16326115 -0.3728378 -0.60609746 0.8134933 -0.29316068 -1.4687223 -1.448541
0.17697509 0.8473189 -0.65280694 -1.8683376 -0.9501848 1.3558911 -0.44643056 1.1220835
0.26041394 0.45492554 0.12282909 0.24092175 -0.0026326892 0.09369492 -0.23440978 -0.4515084
0.32070014 0.07223339 -0.64238113 -0.84273565 0.0012214651 0.055806026 -0.8922275 -1.4197301
-0.08603193 0.47398424 -0.028286446 0.53455895 0.531133 0.51844704 0.31033885 0.49062335
0.33068687 -0.08558659 -0.75530577 0.06970741 0.36575305 0.07977113 -0.0010249388 -0.048421904
-1.6112118 -1.4866751 -0.7552557 0.3970831 0.8042328 -0.396537 -1.8270216 -0.9232348
00000000: 52d8 7cbb fa27 1f3b e5ae ba3b 71b3 04b9
00000010: 778d 1f3c 02ff aaba 1655 1f3a 4095 6dbc
00000020: 3d85 5a3c 83e6 04bc 8e7e 3f3f fcb9 123e
00000030: df9a 2e3f 90c8 673f 3d81 ff3e 134e 563f
00000040: 61d9 8c3f f8ff 94bf 8117 29bd 08b2 6abf
00000050: a173 073f c59b db3e 6a50 0c3f d3f0 9fbe
00000060: b124 2d3f ee2d 273e 99e4 bebe 3429 1bbf
00000070: 1941 503f 2819 96be 18ff bbbf cb69 b9bf
00000080: f538 353e e4e9 583f 5b1e 27bf b025 efbf
00000090: 503f 73bf d78d ad3f 8c92 e4be 6fa0 8f3f
000000a0: fa54 853e 00ec e83e d18d fb3d 31b4 763e
000000b0: 3289 2cbb 1fe3 bf3d 1e09 70be 1c2c e7be
000000c0: cf32 a43e 19ef 933d 1773 24bf 86bd 57bf
000000d0: 9119 a03a dc94 643d 0569 64bf b7b9 b5bf
000000e0: 8231 b0bd 10ae f23e fab8 e7bc dbd8 083f
000000f0: 55f8 073f f2b8 043f bce4 9e3e fc32 fb3e
00000100: ca4f a93e 0648 afbd b85b 41bf c2c2 8e3d
00000110: fc43 bb3e 0c5f a33d 3d57 86ba 0c56 46bd
00000120: 303c cebf 5f4b bebf 7058 41bf 7a4e cb3e
00000130: 33e2 4d3f e606 cbbe d8db e9bf 1e59 6cbf

gating.rnn.weight_ih_l0 f4 [30, 10]
0.6765912 0.9717755 0.39763913 -0.19702253 1.2595915 1.3029233 1.2979491 -1.463942
-0.5075346 -1.7536238 -0.0015988735 0.46472424 -0.09631623 -1.4176383 -0.26869178 -1.0096618
-0.9249593 -0.45463657 0.8826531 -0.17766891 -0.12145032 0.5101753 0.37840417 -0.011540664
0.82067615 -0.52021 -0.4802699 0.054954387 1.4830565 0.36010966 0.017398471 0.03175849
-0.13507749 -0.060916733 -0.67087644 -0.11571905 -0.08332008 -0.33315155 0.45625117 -0.037561536
-0.11400151 -0.024817117 -0.77928984 -1.0236467 -0.4314773 -0.7710936 -0.28476128 -0.38352284
-0.3537191 0.17294571 0.08667726 0.2393281 -0.69392276 -0.80379164 0.13318108 -0.6294886
-0.9565877 -0.9947453 0.2794704 0.93544173 0.051646534 0.3951934 -0.045566168 -1.4760112
-0.35165268 -0.73971385 -0.7741269 -0.43935537 0.4854799 -0.92038363 -0.27721927 0.20001991
-0.5557976 -1.2558858 -0.35485336 -1.0377829 -1.1024883 -0.56772923 0.39995873 0.16773935
0.045017723 0.98254603 -0.14011864 -0.5556372 -0.103387825 -0.07403524 -0.68923235 -0.3857878
0.40342447 -0.8844747 0.17448507 0.6986124 -0.6504759 -0.43789226 0.10088311 0.73588717
0.023075586 -0.452453 0.63784283 -0.87154675 -0.37090707 0.86645347 0.31605598 -0.5769451
1.1362406 -0.092343576 -0.8663798 0.32601362 -0.056305367 -0.08896194 0.82608217 0.11991522
-0.08466014 -1.5541582 1.1400005 0.36131135 -0.1466452 -0.25490716 0.5474173 -0.28936666
1.6473534 2.9073453 1.879331 0.6722922 2.414295 0.9018357 -0.81566584 -1.6784778
2.045816 0.3276801 1.1932793 1.5970278 0.45271957 0.06338754 1.6469787 0.7793722
-0.412054 -0.13061902 0.45462406 0.62273854 1.122957 1.0377172 0.7457854 -0.90460193
1.3236537 0.49449033 -0.39231113 -0.4001689 0.8373283 -0.20568241 0.4777336 0.96480066
-0.08768206 -0.8446636 0.49908277 -0.14096808 -0.027527664 -0.09271109 0.47837943 0.16304295
1.0992204 0.1152046 0.5201019 -0.2714221 1.7445668 0.35875183 0.3058188 -0.6461569
0.6250221 -0.40328166 0.77644145 0.29934984 -0.0599645 -1.1182289 0.98049915 0.3823785
0.07659863 -0.17458618 0.5979984 -0.17175443 1.2326194 0.3769204 1.1580515 -0.28186503
2.5318909 0.5073014 -0.4806882 -1.1765169 1.5818478 -0.75952923 1.7801398 2.179697
1.3726707 0.48554143 2.3748384 0.892737 -0.80206615 -1.6918117 1.7972143 0.29721346
-0.67690605 -0.5177363 0.5390736 0.00966506 0.24118988 -1.209526 -1.910448 0.4710917
0.8249218 1.5923986 -0.7464266 -0.7347295 -0.72311443 -0.17044656 -1.0202354 -1.052965
-0.17394938 0.9230842 -0.79326224 0.86257845 -0.6050554 -0.31009614 0.4598995 1.1273667
0.2145263 -1.4089553 -1.2479308 1.0783085 0.54512495 1.0174959 0.39423725 0.5440038
0.12590638 -0.11314005 0.25185207 0.3470824 -0.340421 -0.47443646 0.5371488 0.5078375
-0.33983085 -0.555428 -0.20463203 -0.39243197 -0.69295025 -0.57436967 -0.3355179 0.7294309
-0.35695702 0.6974991 -0.3356674 -0.36205375 -0.444496 -0.59080243 -0.7550435 -0.6221977
00000000: 1535 2d3f 47c6 783f 5b97 cb3e 46c0 49be
00000010: 4b3a a13f 31c6 a63f 3223 a63f 7462 bbbf
00000020: caed 01bf bf76 e0bf 4b91 d1ba 56f0 ed3e
00000030: 7241 c5bd 2c75 b5bf f891 89be 993c 81bf
00000040: 22ca 6cbf 20c6 e8be 8ef5 613f d7ee 35be
00000050: f2ba f8bd d99a 023f 31be c13e 0e15 3dbc
00000060: d517 523f 7c2c 05bf f0e5 f5be da17 613d
00000070: ccd4 bd3f 4b60 b83e 3d87 8e3c 3115 023d
00000080: c151 0abe d383 79bd 8fbe 2bbf 1cfe ecbd
00000090: b8a3 aabd d792 aabe c199 e93e 20da 19bd
000000a0: a079 e9bd 444d cbbc 8a7f 47bf db06 83bf
000000b0: 98ea dcbe 6466 45bf 3bcc 91be 1b5d c4be
000000c0: ab1a b5be ae18 313e d983 b13d 6d12 753e
000000d0: eca4 31bf 4ac5 4dbf 9f60 083e 2a26 21bf
000000e0: eee2 74bf a1a7 7ebf bf16 8f3e 1c79 6f3f
000000f0: 518b 533d ca56 ca3e 97a3 3abd efed bcbf
00000100: d20b b4be e35d 3dbf 2e2d 46bf 30f3 e0be
00000110: d290 f83e 439e 6bbf afef 8dbe 05d2 4c3e
00000120: c048 0ebf dec0 a0bf 57af b5be 12d6 84bf
00000130: 561e 8dbf b456 11bf 64c7 cc3e ddc3 2b3e
00000140: 8164 383d 2388 7b3f 437b 0fbe 3d3e 0ebf
00000150: ffbc d3bd ca9f 97bd 8871 30bf fb85 c5be
00000160: a78d ce3e ef6c 62bf 37ac 323e 43d8 323f
00000170: 9785 26bf 6a33 e0be ce9b ce3d 1a63 3c3f
00000180: 0309 bd3c eba7 e7be ab49 233f b01d 5fbf
00000190: 88e7 bdbe e5cf 5d3f 17d2 a13e adb2 13bf
000001a0: 5570 913f a11e bdbd 11cb 5dbf 42eb a63e
000001b0: 75a0 66bd ad31 b6bd 1f7a 533f 1c96 f53d
000001c0: 4c62 adbd a8ee c6bf 89eb 913f cdfd b83e
000001d0: 292a 16be 3183 82be 8a23 0c3f de27 94be
000001e0: 7adc d23f f211 3a40 eb8d f03f 571b 2c3f
000001f0: cf83 1a40 b4de 663f 7acf 50bf 5cd8 d6bf
00000200: a6ee 0240 b0c5 a73e 60bd 983f 686b cc3f
00000210: dcca e73e 54d1 813d 33d0 d23f f084 473f
00000220: bef8 d2be fec0 05be 7cc4 e83e cb6b 1f3f
00000230: 0ebd 8f3f ebd3 843f cbeb 3e3f fe93 67bf
00000240: 7c6d a93f d62d fd3e 01dd c8be f0e2 ccbe
00000250: 265b 563f 699e 52be 8099 f43e 2dfd 763f
00000260: a792 b3bd e03b 58bf c787 ff3e f059 10be
00000270: b281 e1bc 50df bdbd 26ee f43e bbf4 263e
00000280: 41b3 8c3f 64f0 eb3d 6625 053f d6f7 8abe
00000290: f74d df3f 52ae b73e 4894 9c3e 8a6a 25bf
000002a0: 7301 203f ef7a cebe dec4 463f 6244 993e
000002b0: 569d 75bd 2022 8fbf fe01 7b3f 1dc7 c33e
000002c0: bedf 9c3d b8c6 32be 6c16 193f 65e0 2fbe
000002d0: 79c6 9d3f b6fb c03e 083b 943f 9d50 90be
000002e0: 800a 2240 81de 013f c41c f6be 1b98 96bf
000002f0: fd79 ca3f 8270 42bf 9fdb e33f 2880 0b40
00000300: acb3 af3f e398 f83e 5afd 1740 698a 643f
00000310: 3554 4dbf 498d d8bf 1e0b e63f 5d2c 983e
00000320: b749 2dbf 5e8a 04bf ba00 0a3f 335a 1e3c
00000330: 7bfa 763e bfd1 9abf 8f89 f4bf ee32 f13e
00000340: 132e 533f b8d3 cb3f d015 3fbf 3c17 3cbf
00000350: 071e 39bf 8b89 2ebe 1397 82bf 8fc7 86bf
00000360: c91f 32be 3f4f 6c3f 3c13 4bbf f1d1 5c3f
00000370: e9e4 1abf ecc4 9ebe f277 eb3e 8d4d 903f
00000380: c8ac 5b3e a658 b4bf 32bc 9fbf 0306 8a3f
00000390: 4f8d 0b3f 4e3d 823f 77d9 c93e d543 0b3f
000003a0: 9aed 003e f8b5 e7bd c1f2 803e c9b4 b13e
000003b0: a94b aebe 56e9 f2be 9582 093f a301 023f
000003c0: 4ffe adbe 8830 0ebf 0f8b 51be d8ec c8be
000003d0: 3065 31bf e409 13bf 01c9 abbe fcbb 3a3f
000003e0: 12c3 b6be 4d8f 323f 99dc abbe 1c5f b9be
000003f0: fb94 e3be d43e 17bf 884a 41bf 5948 1fbf

gating.rnn.weight_hh_l0 f4 [30, 10]
0.60351425 -0.008602584 -0.37483856 -0.051487416 0.19462457 0.09132836 -0.024417019 0.06304832
0.5531579 0.5288169 -0.9527007 0.2850599 -0.4047492 -1.1646773 0.7567699 0.58079064
0.7016647 0.66425085 -0.79692173 0.13451727 -2.146638 -0.19328682 -0.25374556 0.14691097
-0.43348145 -0.49769762 0.056276973 -0.12806746 -0.24424249 0.16294976 -1.0262742 -0.4345612
0.21540885 -0.40357733 -0.30090007 -0.49739584 -0.14018628 -0.446741 -0.20282531 -0.17483112
-1.9862646 0.42256367 -0.035683606 -0.49791512 0.008831316 -0.281181 0.5952393 0.35481897
-0.66882676 -0.12756383 -1.9938467 0.5840382 0.28794947 -0.4963822 0.44944066 0.05933019
0.5649292 0.49402168 -0.6542407 -0.43013334 -0.9180556 0.15911151 -0.31287682 -1.2042067
0.7579305 0.454628 0.8893477 0.590412 -0.8993366 0.07326053 -0.99660814 0.17015307
-0.25405455 -1.1531166 0.80862564 0.569135 0.6251899 0.47991243 -0.86357826 0.0755212
-1.8522176 -0.32187918 -0.70601827 -0.060023695 -0.353767 -0.60493594 0.11907887 -0.20081651
0.15639731 0.53275037 -1.7769891 -0.59987557 -0.93168867 -0.14723346 -0.4527961 -0.48308
-0.24741514 -0.51534253 -0.20816053 0.77061427 0.09603141 1.7562941 0.7833591 -2.224438
2.4801223 2.2981668 1.719517 2.0574687 -1.283674 -0.73589516 0.2821504 0.63583773
1.5198431 0.23396866 0.33224836 0.53036535 0.3841079 0.4482151 -0.5227902 -1.1048908
1.1045436 0.4077571 -0.47333348 0.4854086 0.22799782 0.13472416 0.15424713 0.47500584
0.14602901 0.4722811 1.9333974 1.2769873 -0.3192301 -0.9023873 1.9977624 2.0759256
0.68329555 1.3433349 -0.14379306 -0.12862961 0.7298066 0.490119 0.31587785 -0.17954242
0.6407681 0.8395454 0.17956203 0.57900757 -0.082449585 -0.043892745 0.511846 0.8225859
0.44857216 0.15235409 0.5345203 0.67478085 0.5512078 0.7986398 -0.194838 -0.17769374
-0.049580283 0.6100146 1.5757568 0.45042998 0.16654767 0.3925374 0.32756293 0.3367753
-0.3701304 -1.1787648 0.3704637 0.84698844 1.1861113 0.13473964 0.41588917 0.6867834
0.5635449 0.56207156 -0.62003756 -0.85753214 0.52368504 -0.13911034 0.95482266 0.5403691
-0.07715542 -0.019013084 -0.33591807 -0.1350207 0.28500363 -0.45802134 1.497052 0.29218692
-0.2819666 0.5596615 0.108756006 0.21113381 -0.045408636 0.34112468 0.5176312 0.28769258
0.60115063 -0.72032803 -0.957618 -0.39968106 0.14046587 0.05850272 -0.6864563 -0.56266814
0.6571697 0.9633038 -1.5170363 -0.052173678 0.8794047 -0.39373264 -0.15198144 -0.2847749
0.03525901 -0.2733339 -0.30591154 -0.7554947 -1.3116804 -0.10913472 0.35719958 -0.3664788
-0.026438067 -0.17442293 0.029264413 -0.14419413 0.06872348 -0.3601583 0.7882756 0.47419724
0.010985448 0.57970095 0.2475673 0.38025537 0.25112945 0.42518252 0.0933215 0.07130085
-1.1711198 -0.117335506 0.29456705 -0.52001774 -0.03227581 -0.101394385 -0.015818544 -0.11654082
-0.30358258 -0.20784958 -1.257146 0.17071983 0.46273887 -0.5835323 0.1760864 0.19152251
00000000: e97f 1a3f daf1 0cbc d7ea bfbe 78e4 52bd
00000010: aa4b 473e 5d0a bb3d 3306 c8bc 7a1f 813d
00000020: c29b 0d3f 8b60 073f 31e4 73bf 5ff3 913e
00000030: 4a3b cfbe 2514 95bf acbb 413f b2ae 143f
00000040: 4ca0 333f 580c 2a3f 1003 4cbf e5be 093e
00000050: 8462 09c0 fbec 45be f0ea 81be d46f 163e
00000060: 48f1 ddbe 39d2 febe af82 663d 1e24 03be
00000070: b41a 7abe 4ddc 263e f45c 83bf ce7e debe
00000080: 2394 5c3e b0a1 cebe 930f 9abe abaa febe
00000090: fe8c 0fbe 3dbb e4be 70b1 4fbe ee06 33be
000000a0: eb3d febf 445a d83e f928 12bd bbee febe
000000b0: 39b1 103c f5f6 8fbe 9a61 183f d5aa b53e
000000c0: 3b38 2bbf 18a0 02be 5e36 ffbf 8783 153f
000000d0: 1d6e 933e cf25 febe 161d e63e 3704 733d
000000e0: 339f 103f 69f0 fc3e 527c 27bf 703a dcbe
000000f0: b105 6bbf 21ee 223e 6431 a0be 7223 9abf
00000100: bc07 423f 00c5 e83e 4aac 633f 3e25 173f
00000110: ec3a 66bf 9e09 963d b621 7fbf 9b3c 2e3e
00000120: 7013 82be 5399 93bf 1702 4f3f d5b2 113f
00000130: 720c 203f 15b7 f53e 7713 5dbf dcaa 9a3d
00000140: 7715 edbf 59cd a4be 9dbd 34bf 68db 75bd
00000150: f320 b5be 15dd 1abf 9fdf f33d d8a2 4dbe
00000160: 9e26 203e 5462 083f 6174 e3bf 7291 19bf
00000170: 2683 6ebf 5ec4 16be e4d4 e7be 4356 f7be
00000180: 655a 7dbe 7ded 03bf 0928 55be fa46 453f
00000190: 1eac c43d 3fce e03f 398a 483f 315d 0ec0
000001a0: 53ba 1e40 2a15 1340 2219 dc3f 91ad 0340
000001b0: 6e4f a4bf a063 3cbf 0476 903e 43c6 223f
000001c0: 388a c23f 7b95 6f3e 751c aa3e 06c6 073f
000001d0: caa9 c43e 737c e53e 94d5 05bf 106d 8dbf
000001e0: af61 8d3f 8ac5 d03e c458 f2be 7a87 f83e
000001f0: 4378 693e 21f5 093e f6f2 1d3e f733 f33e
00000200: a188 153e d4ce f13e 9179 f73f 5274 a33f
00000210: 2172 a3be db02 67bf aeb6 ff3f f7db 0440
00000220: 75ec 2e3f 66f2 ab3f 7d3e 13be 7bb7 03be
00000230: 9bd4 3a3f e1f0 fa3e beba a13e f8d9 37be
00000240: 6109 243f 73ec 563f 1cdf 373e d739 143f
00000250: 54db a8bd e1c8 33bd 5708 033f fd94 523f
00000260: 40ab e53e b602 1c3e 53d6 083f 70be 2c3f
00000270: f41b 0d3f a873 4c3f 9d83 47be 59f5 35be
00000280: b214 4bbd eb29 1c3f 66b2 c93f c29e e63e
00000290: 798b 2a3e a9fa c83e 54b6 a73e d06d ac3e
000002a0: bb81 bdbe c4e1 96bf 6bad bd3e 3cd4 583f
000002b0: 7fd2 973f 30f9 093e 6def d43e 09d1 2f3f
000002c0: 7b44 103f ece3 0f3f c8ba 1ebf 3a87 5bbf
000002d0: 3910 063f f172 0ebe 426f 743f a155 0a3f
000002e0: a903 9ebd 54c1 9bbc 74fd abbe de42 0abe
000002f0: ffeb 913e c681 eabe 669f bf3f 8699 953e
00000300: ed5d 90be fa45 0f3f 78bb de3d 7633 583e
00000310: 68fe 39bd e5a7 ae3e 7a83 043f 714c 933e
00000320: 02e5 193f 6b67 38bf 7426 75bf ffa2 ccbe
00000330: 49d6 0f3e 8ca0 6f3d 9abb 2fbf 050b 10bf
00000340: 463c 283f 149b 763f 3f2e c2bf 11b4 55bd
00000350: ab20 613f 5397 c9be 06a1 1bbe 04ce 91be
00000360: c06b 103d 6cf2 8bbe 70a0 9cbe 1a68 41bf
00000370: 25e5 a7bf 0682 dfbd dde2 b63e 1ca3 bbbe
00000380: a594 d8bc ed9b 32be ecbb ef3c a0a7 13be
00000390: e5be 8c3d ab66 b8be 6ecc 493f fbc9 f23e
000003a0: 4ffc 333c 4867 143f 4882 7d3e d5b0 c23e
000003b0: 0a94 803e 86b1 d93e 581f bf3d 2e06 923d
000003c0: 41e7 95bf 994d f0bd 7ed1 963e e21f 05bf
000003d0: a433 04bd dca7 cfbd e495 81bc f4ac eebd
000003e0: 2d6f 9bbe 85d6 54be 29ea a0bf 2ed1 2e3e
000003f0: 1cec ec3e 5f62 15bf fe4f 343e 7a1e 443e

gating.rnn.bias_ih_l0 f4 [30]
-0.41105828 0.7611716 0.19940005 0.94500226 0.21281385 0.11990706 1.0574279 0.66378397
0.6659402 0.73581856 -0.26947 -1.1512864 -0.41376016 0.7532897 -0.62835544 -1.3452789
-0.827393 -1.1000559 -0.36970848 -0.5097342 0.36484984 0.14349306 -0.09370305 -0.8614472
0.5360368 0.35395652 0.50743985 0.14986049 -0.31269032 -0.1347731
00000000: 3b76 d2be 24dc 423f 872f 4c3e abeb 713f
00000010: e0eb 593e d591 f53d cc59 873f bfed 293f
00000020: 0f7b 2a3f 9b5e 3c3f f9f7 89be 5a5d 93bf
00000030: 5fd8 d3be 98d7 403f e7db 20bf 1932 acbf
00000040: 07d0 53bf a2ce 8cbf 6e4a bdbe f17d 02bf
00000050: 99cd ba3e d8ef 123e 62e7 bfbd ce87 5cbf
00000060: b539 093f ca39 b53e 94e7 013f 0775 193e
00000070: f218 a0be f601 0abe

gating.rnn.bias_hh_l0 f4 [30]
-0.41105825 0.7611713 0.19940002 0.9450022 0.2128138 0.11990703 1.0574279 0.66378415
0.6659401 0.73581856 -0.26947007 -1.1512864 -0.41376016 0.7532897 -0.6283555 -1.345279
-0.8273929 -1.100056 -0.36970842 -0.5097342 0.1775284 0.5140098 0.6173296 -0.80361867
0.56059414 0.52465916 0.56101054 0.5304555 -0.7592405 -1.0057
00000000: 3a76 d2be 1fdc 423f 852f 4c3e aaeb 713f
00000010: dceb 593e d191 f53d cc59 873f c2ed 293f
00000020: 0d7b 2a3f 9b5e 3c3f fbf7 89be 5a5d 93bf
00000030: 5fd8 d3be 98d7 403f e8db 20bf 1a32 acbf
00000040: 05d0 53bf a3ce 8cbf 6c4a bdbe f17d 02bf
00000050: 01ca 353e 2596 033f 5009 1e3f f4b9 4dbf
00000060: 1983 0f3f 1050 063f 639e 0f3f efcb 073f
00000070: 965d 42bf c7ba 80bf

gating.rnn.weight_ih_l0_reverse f4 [30, 10]
-0.094114594 -0.09704092 -0.023658328 0.68083 -0.3015587 -0.12458294 0.04923847 0.23399232
0.26488537 0.19769375 -0.1100323 -0.10131785 -0.014265346 0.38079146 -0.23209947 -0.0067463065
0.28717422 0.13482577 0.2242477 0.0036622307 -0.059120197 -0.07054648 0.005893623 0.45225036
-0.26605484 -0.043481003 0.21260643 0.13989781 0.26062182 0.04027564 -0.1255908 -0.11471228
-0.04568066 0.30205488 -0.27256575 -0.003918993 0.2807976 0.16776258 0.19388805 -0.02781945
-0.24155784 -0.013101746 0.046406575 1.1141404 -0.2917206 -0.6076472 -0.39822063 0.5757489
0.302816 0.57019335 -0.121528156 -0.055821758 0.006200755 0.8190651 -0.31231645 -0.32654268
-0.14915149 0.34961468 0.30579153 0.2800846 -0.09175255 -0.09653266 -0.038824502 0.6652919
-0.29756492 -0.13834396 0.015328264 0.25131005 0.25239888 0.17284386 -0.071888484 -0.094558895
-0.02095701 0.4050565 -0.25909427 -0.0023034238 0.26267752 0.1436415 0.23661156 0.022772247
-0.109741 -0.07143191 -0.025687937 0.4553657 -0.27213904 -0.033828944 0.251032 0.123754166
0.24250004 0.014385924 -0.13593476 -0.08457715 -0.012582477 0.7561308 -0.3222167 -0.23790646
-0.07351058 0.32645115 0.29983166 0.25664553 -0.0487725 0.17385028 0.13816975 -0.7790714
0.18841799 0.31546065 0.05112697 0.053000357 -0.28388897 -0.9165798 -0.074857466 0.056565575
-0.063115194 -0.51050377 0.044370454 0.12753159 0.18233602 0.2556785 -0.30943358 -0.73176825
-0.046185464 0.15000507 0.016929341 -0.6290316 0.10851488 0.18818438 0.11297133 0.18814008
-0.3152993 -0.7525377 -0.25995907 -0.12999725 -0.33800796 -0.43837512 -0.25655496 -0.1265731
0.35135722 0.69994104 -0.54047364 -0.5728155 0.19145031 0.21746634 0.21566775 -1.553334
0.5758109 0.97365916 0.032427598 -0.50917333 -0.33925098 -1.2241584 0.07719945 0.27435315
0.21237065 -1.0907629 0.39204833 0.5448049 -0.053581383 -0.13791141 -0.32573515 -0.92341894
-0.077255204 0.1943023 0.08478247 -0.793695 0.09006743 0.2951024 0.09605726 0.15737095
-0.32617354 -0.8743823 -0.058424152 0.08084021 -0.0197675 -0.55569506 0.08971213 0.122440785
0.14428106 0.22312479 -0.30877808 -0.7425513 -0.037928022 0.14435141 -0.018395625 -0.5861566
0.085266866 0.17337446 0.124434814 0.16532005 -0.29252598 -0.7467209 0.011678482 0.28095037
0.17003332 -0.9885998 0.23500517 0.41940552 -0.0080070915 0.0028483116 -0.31508785 -0.9311118
0.27242145 0.3279748 0.21468456 -0.5720819 0.46008703 0.30117816 -0.16236964 -0.62936634
-0.23541844 0.011711699 0.20734622 0.3150197 0.28138041 -0.52320176 0.4673801 0.21458498
-0.15681598 -0.60938823 -0.18658468 -0.026192091 -0.24037427 -0.3224263 -0.27640596 0.5323216
-0.44931844 -0.2732982 0.10295191 0.62283164 0.17622033 0.010381077 0.27951866 0.3491901
0.39227867 -0.5079156 0.4972041 0.2558157 -0.12319462 -0.7809599 -0.111315325 -0.054934666
-0.2728243 -0.30825853 -0.14502804 0.60169137 -0.34383166 -0.55067736 -0.096116915 0.62561584
0.22114798 -0.2895066 -0.2959999 -0.35938865 -0.20623748 0.55870396 -0.41789705 -0.45665756
00000000: 27bf c0bd 64bd c6bd 1ccf c1bc e04a 2e3f
00000010: e765 9abe 5725 ffbd 47ae 493d af9b 6f3e
00000020: 0e9f 873e 3b70 4a3e 9d58 e1bd bc7f cfbd
00000030: 33b9 69bc 19f7 c23e 7cab 6dbe 1f10 ddbb
00000040: 8008 933e c40f 0a3e 30a1 653e 0902 703b
00000050: 0528 72bd ac7a 90bd 4b1f c13b 5c8d e73e
00000060: 5738 88be 2319 32bd 80b5 593e 5f41 0f3e
00000070: 3970 853e 12f8 243d e09a 00be 46ee eabd
00000080: a51b 3bbd f0a6 9a3e bd8d 8bbe e56a 80bb
00000090: b4c4 8f3e f4c9 2b3e 978a 463e 9de5 e3bc
000000a0: f05a 77be b5a8 56bc d214 3e3d 279c 8e3f
000000b0: 675c 95be c48e 1bbf 93e3 cbbe 4864 133f
000000c0: b30a 9b3e 31f8 113f c1e3 f8bd 5ba5 64bd
000000d0: b42f cb3b 40ae 513f f1e7 9fbe 9a30 a7be
000000e0: 2bbb 18be b200 b33e b590 9c3e 4067 8f3e
000000f0: c3e8 bbbd eab2 c5bd 7106 1fbd 9250 2a3f
00000100: 6e5a 98be 0aaa 0dbe 6623 7b3c b6ab 803e
00000110: 6d3a 813e fbfd 303e 453a 93bd 18a8 c1bd
00000120: 09ae abbc 9163 cf3e 01a8 84be 0af5 16bb
00000130: ab7d 863e c216 133e 4d4a 723e dd8c ba3c
00000140: e4bf e0bd e54a 92bd 826f d2bc b125 e93e
00000150: cf55 8bbe 3890 0abd 4487 803e d372 fd3d
00000160: ee51 783e f0b2 6b3c 7b32 0bbe c936 adbd
00000170: bc26 4ebc ca91 413f 96f9 a4be c09d 73be
00000180: b78c 96bd 9b24 a73e 8983 993e 0b67 833e
00000190: acc5 47bd cf05 323e 5f7c 0d3e 3971 47bf
000001a0: a5f0 403e 0f84 a13e 846a 513d e716 593d
000001b0: e559 91be f9a4 6abf df4e 99bd 4eb1 673d
000001c0: 8a42 81bd 60b0 02bf cbbd 353d a497 023e
000001d0: 4bb6 3a3e 4be8 823e 146e 9ebe 2a55 3bbf
000001e0: f82c 3dbd ee9a 193e 67af 8a3c 3708 21bf
000001f0: 0d3d de3d 68b3 403e 835d e73d cba7 403e
00000200: e96e a1be 50a6 40bf 5b19 85be 001e 05be
00000210: 610f adbe b472 e0be 2c5b 83be 619c 01be
00000220: 18e5 b33e 562f 333f 7b5c 0abf 09a4 12bf
00000230: 8d0b 443e 7faf 5e3e 02d8 5c3e a6d3 c6bf
00000240: 5868 133f ba41 793f cdd2 043d 2f59 02bf
00000250: 4eb2 adbe 39b1 9cbf bf1a 9e3d 0478 8c3e
00000260: b177 593e 1e9e 8bbf 8fba c83e 5578 0b3f
00000270: 2778 5bbd a638 0dbe c2c6 a6be 2f65 6cbf
00000280: fa37 9ebd 2ff7 463e 6ea2 ad3d 982f 4bbf
00000290: 4675 b83d a917 973e abb9 c43d da25 213e
000002a0: 3800 a7be 85d7 5fbf 2a4e 6fbd 8d8f a53d
000002b0: 74ef a1bc 0842 0ebf feba b73d 3cc2 fa3d
000002c0: 6abe 133e d37a 643e 2918 9ebe d817 3ebf
000002d0: 6a5a 1bbd dbd0 133e 6cb2 96bc 5c0e 16bf
000002e0: 65a0 ae3d 1389 313e aed7 fe3d a949 293e
000002f0: f7c5 95be 1a29 3fbf 1b57 3f3c bad8 8f3e
00000300: 371d 2e3e e014 7dbf 32a5 703e 52bc d63e
00000310: 2d30 03bc bdaa 3a3b 3253 a1be 585d 6ebf
00000320: d37a 8b3e 50ec a73e 45d6 5b3e f673 12bf
00000330: 8790 eb3e 0634 9a3e 3a44 26be 271e 21bf
00000340: 8811 71be 6de2 3f3c 9152 543e 434a a13e
00000350: 1811 903e 8df0 05bf 724c ef3e 2abc 5b3e
00000360: 5e94 20be de00 1cbf 0e10 3fbe cc90 d6bc
00000370: ac24 76be 0f15 a5be 1585 8dbe 3a46 083f
00000380: 110d e6be beed 8bbe 73d8 d23d e571 1f3f
00000390: 1a73 343e 6515 2a3c 121d 8f3e 0bc9 b23e
000003a0: c0d8 c83e c206 02bf 8991 fe3e 47fa 823e
000003b0: 764d fcbd fdec 47bf 4af9 e3bd 2c03 61bd
000003c0: a0af 8bbe 10d4 9dbe 3b82 14be 7208 1a3f
000003d0: b40a b0be 31f9 0cbf f2d8 c4bd 5c28 203f
000003e0: 9e74 623e 363a 94be 4d8d 97be ca01 b8be
000003f0: eb2f 53be 3907 0f3f 9af6 d5be 05cf e9be

gating.rnn.weight_hh_l0_reverse f4 [30, 10]
-0.009932954 -0.017315984 0.0067746234 -0.0044015003 0.010148432 0.0070549226 0.0019258006 -0.01525851
-0.005760629 0.00022496638 -0.00058799156 -0.001647809 0.00034328096 0.014377617 0.0042396183 0.005844095
-0.008313528 0.012362844 0.0063314307 -0.0027004885 -0.00069066044 -0.005184567 -0.00085986126 0.010013012
0.0014102861 0.022615913 0.007235687 0.0058208155 0.0005816345 -0.008716392 -0.0054320334 -0.0138378255
0.0057263575 0.0059457473 0.006252984 -0.004048442 -0.0090051 -0.014921182 -0.013919343 -0.0008261138
-0.008880939 -0.008034781 0.008082528 0.006380367 -0.011672795 0.0058158976 -0.0005357697 -0.008972951
0.00023546166 -0.00057450426 -0.005039924 0.012214495 0.0019083355 -0.0058232015 0.0089262 0.007187827
-0.009125155 0.008399318 -0.00033968387 0.0032907287 -0.00905545 0.0025545955 0.00059797865 0.015551045
-0.0058537708 -0.0041573527 0.008466199 0.011133249 -5.6912144e-05 0.0009505997 -0.0051267613 0.0033532728
0.0030600834 -0.012527565 0.006619769 0.0030408113 -0.01619668 -0.020696387 -0.013685744 -0.006856501
0.014700402 0.0016578208 -0.0013503087 0.009064418 0.00483847 0.011959759 0.00031170924 0.0023995936
-0.008079406 0.010661429 0.0012424621 0.003807507 -0.0028374875 0.00017270487 0.004963769 0.0021972628
-0.011510265 0.0046446216 0.010673762 -0.012142872 -0.0141171925 0.004152779 0.0016137518 -0.0028121972
-0.017976733 0.015505452 0.0118210465 0.0024545048 0.010299927 -0.0041407775 0.011600254 0.0067661395
0.0029728108 0.012823281 -0.0003892085 -0.00038965285 -0.010497068 0.01095738 -0.005125328 0.0027439818
-0.001113341 0.0031885775 0.0037408583 0.004577139 -0.0005802177 0.0049008704 -0.002606668 0.008724246
0.016254643 -0.016603377 0.005666516 0.0031150517 0.0047735674 0.017056929 0.0143955825 0.010007026
0.0046023075 -0.014777094 -0.007525525 -0.0029630247 -0.011178206 -0.0043508494 0.0006603404 -0.00947693
0.01798817 -0.0036530904 0.00065910124 0.012970406 0.012395059 -0.01596412 0.00886687 -0.005786311
0.014009511 -0.014462399 -0.00096073747 -0.0073072887 0.022503933 -0.008783609 -0.015082962 0.0062181274
-0.0013910384 -0.00037054153 0.00041254243 0.0125650065 -0.006080785 0.013743109 -0.003592417 -0.002779472
-0.014983421 0.0026560312 0.004228781 -0.008026169 -0.008289248 0.00051836774 0.016976645 -0.013562219
-0.0073993057 -0.010310075 -0.0058573014 -0.016354166 -0.0014010324 0.0052235965 0.0054718168 0.005561393
-0.0019667414 0.0022346159 0.00053562835 0.0031361373 0.0054724966 0.013857756 0.02048001 -0.012329466
0.0080269035 0.0023927987 -0.009353239 0.008715917 0.003682242 0.00890737 0.0026049954 0.0020094193
-0.008786849 -0.009832365 -0.018176641 -0.012760226 -0.01748751 0.0073403823 -0.0052966434 0.0027799725
-0.0046928837 0.008411294 -0.01297911 0.008066883 0.0154075 -0.010709545 -0.014917859 0.004266019
-0.0010808875 0.0066773854 0.011740826 -0.012667104 0.0069577117 0.02042896 0.019284494 0.0025220986
-0.01244568 0.011666554 -0.0023363014 0.0026802495 -0.0019168062 0.00087627856 -0.009168804 0.008168186
0.009039917 0.016099423 -0.02241152 0.006464791 0.00097409985 -0.0074093873 0.013930766 0.003413719
-0.00019276538 -0.013181214 0.0067494945 -0.00725055 -0.0071155434 -0.016081078 0.00075613934 0.0066273664
0.011494036 -0.013474703 -0.018946012 -0.006656782 -0.012913071 -0.008083609 -0.0011076607 -0.016076053
00000000: d4bd 22bc 40da 8dbc a9fd dd3b 763a 90bb
00000010: 9c45 263c fb2c e73b 256b fc3a d4fe 79bc
00000020: a9c3 bcbb f4e4 6b39 7223 1aba 4cfb d7ba
00000030: 64fa b339 1990 6b3c 7fec 8a3b d27f bf3b
00000040: 7735 08bc 878d 4a3c e477 cf3b aefa 30bb
00000050: 700d 35ba 4de3 a9bb 5068 61ba 9e0d 243c
00000060: 59d9 b83a 0245 b93c 5819 ed3b 8abc be3b
00000070: d578 183a 33cf 0ebc 33ff b1bb 0cb8 62bc
00000080: 2ba4 bb3b 8bd4 c23b d5e5 cc3b cba8 84bb
00000090: 208a 13bc f977 74bc f50d 64bc 8f8f 58ba
000000a0: 5c81 11bc 50a4 03bc 946c 043c 6612 d13b
000000b0: 403f 3fbc 4993 be3b e572 0cba 4903 13bc
000000c0: 42e6 7639 549a 16ba f225 a5bb 4e1f 483c
000000d0: 1d21 fa3a 8ed0 bebb 323f 123c dd87 eb3b
000000e0: ad81 15bc 4b9d 093c 9917 b2b9 44a9 573b
000000f0: 4f5d 14bc 006b 273b abc1 1c3a cfc9 7e3c
00000100: fdd0 bfbb 673a 88bb d0b5 0a3c 3b68 363c
00000110: f3b4 6eb8 aa31 793a 64fe a7bb 95c2 5b3b
00000120: ae8b 483b 6a40 4dbc a6ea d83b 5948 473b
00000130: e6ae 84bc 788b a9bc 2c3a 60bc 80ac e0bb
00000140: f4d9 703c 3c4b d93a d7fc b0ba ed82 143c
00000150: 078c 9e3b ddf2 433c e86c a339 8042 1d3b
00000160: 7c5f 04bc 46ad 2e3c 1cda a23a 5e87 793b
00000170: 24f5 39bb 1c18 3539 1da7 a23b f4ff 0f3b
00000180: 8d95 3cbc e931 983b 01e1 2e3c e6f2 46bc
00000190: cc4b 67bc 0914 883b 8684 d33a d74c 38bb
000001a0: f143 93bc 940a 7e3c 10ad 413c c2db 203b
000001b0: 06c1 283c 5caf 87bb fe0e 3e3c 7eb6 dd3b
000001c0: 7dd3 423b bd18 523c ae0e ccb9 524a ccb9
000001d0: e5fb 2bbc 9586 333c 5ef2 a7bb 60d4 333b
000001e0: 86ed 91ba 74f7 503b 3029 753b d3fb 953b
000001f0: c019 18ba 7b97 a03b a2d4 2abb 24f0 0e3c
00000200: 7528 853c ce03 88bc 2eae b93b e525 4c3b
00000210: 966b 9c3b f9ba 8b3c 73db 6b3c 82f4 233c
00000220: f4ce 963b a01b 72bc ae98 f6bb 4e2f 42bb
00000230: cb24 37bc 9291 8ebb b21a 2d3a 2045 1bbc
00000240: ed5b 933c b068 6fbb 89c7 2c3a d381 543c
00000250: a514 4b3c 30c7 82bc 5946 113c 189b bdbb
00000260: 2688 653c b3f3 6cbc 00da 7bba fb71 efbb
00000270: 2b5a b83c 20e9 0fbc 871e 77bc 6fc1 cb3b
00000280: 8153 b6ba 3e45 c2b9 824a d839 75dd 4d3c
00000290: 5241 c7bb c72a 613c c26e 6bbb cd27 36bb
000002a0: 067d 75bc cf10 2e3b 9691 8a3b 3180 03bc
000002b0: a0cf 07bc 12e3 073a 9b12 8b3c 1234 5ebc
000002c0: e075 f2bb 97eb 28bc 9bee bfbb 2cf9 85bc
000002d0: d9a2 b7ba b42a ab3b ed4c b33b 593c b63b
000002e0: 72e4 00bb a272 123b 6969 0c3a a787 4d3b
000002f0: a152 b33b a40b 633c b2c5 a73c 8701 4abc
00000300: 4683 033c 80d0 1c3b 543e 19bc 35cd 0e3c
00000310: c551 713b 38f0 113c 92b8 2a3b 76b0 033b
00000320: b7f6 0fbc ee17 21bc 2ee7 94bc 4410 51bc
00000330: f741 8fbc 9787 f03b 778f adbb 3330 363b
00000340: c3c6 99bb 86cf 093c 55a6 54bc f62a 043c
00000350: bd6f 7c3c 1677 2fbc 096a 74bc f6c9 8b3b
00000360: 91ac 8dba f8cd da3b 985c 403c af89 4fbc
00000370: 84fd e33b a25a a73c 84fa 9d3c cb49 253b
00000380: f7e8 4bbc 1325 3f3c a21c 19bb 20a7 2f3b
00000390: 583d fbba 0fb6 653a c038 16bc dbd3 053c
000003a0: 291c 143c f0e2 833c 5d98 b7bc 99d6 d33b
000003b0: bc5a 7f3a 72ca f2bb de3d 643c b3b8 5f3b
000003c0: 1021 4ab9 05f6 57bc dd2a dd3b 0696 edbb
000003d0: 8129 e9bb 77bc 83bc a737 463a 612a d93b
000003e0: 7b51 3c3c 00c5 5cbc ab34 9bbc 2221 dabb
000003f0: 5891 53bc 1d71 04bc ed2e 91ba edb1 83bc

gating.rnn.bias_ih_l0_reverse f4 [30]
-0.36207253 -0.34521312 -0.34739912 -0.36087042 -0.33391666 -0.35932946 -0.36760962 -0.345915
-0.34176105 -0.36631417 0.79283553 0.8039495 0.7890177 0.6746907 0.56538486 0.6867589
0.7497739 0.79895157 0.79883736 0.708042 -0.20182794 -0.16564009 0.18069808 -0.13252419
0.3830753 0.25877497 0.202926 -0.17494836 -0.17975031 -0.22916244
00000000: 9261 b9be c6bf b0be 4cde b1be 02c4 b8be
00000010: 20f7 aabe 08fa b7be 5437 bcbe c51b b1be
00000020: 4efb aebe 888d bbbe 45f7 4a3f a2cf 4d3f
00000030: 10fd 493f 88b8 2c3f 10bd 103f 6ecf 2f3f
00000040: 2ff1 3f3f 1788 4c3f 9b80 4c3f 3e42 353f
00000050: fcab 4ebe 8e9d 29be eb08 393e 6cb4 07be
00000060: 7222 c43e 277e 843e d5cb 4f3e aa25 33be
00000070: 7710 38be 8fa9 6abe

gating.rnn.bias_hh_l0_reverse f4 [30]
-0.36207253 -0.34521312 -0.34739912 -0.36087042 -0.33391666 -0.35932946 -0.36760962 -0.345915
-0.34176105 -0.36631417 0.79283553 0.8039495 0.7890177 0.6746907 0.56538486 0.6867589
0.7497739 0.79895157 0.79883736 0.708042 -0.11643276 -0.09801437 0.10714389 -0.07863723
0.240356 0.15991947 0.11627014 -0.10410182 -0.10834849 -0.13857165
00000000: 9261 b9be c6bf b0be 4cde b1be 02c4 b8be
00000010: 20f7 aabe 08fa b7be 5437 bcbe c51b b1be
00000020: 4efb aebe 888d bbbe 45f7 4a3f a2cf 4d3f
00000030: 10fd 493f 88b8 2c3f 10bd 103f 6ecf 2f3f
00000040: 2ff1 3f3f 1788 4c3f 9b80 4c3f 3e42 353f
00000050: 4d74 eebd c2bb c8bd 416e db3d 8e0c a1bd
00000060: e21f 763e eec1 233e 0a1f ee3d 5633 d5bd
00000070: d0e5 ddbd bae5 0dbe

gating.fc_out.weight f4 [3, 20]
0.81151694 -0.7166759 -0.7487818 0.17600262 -0.36972842 -0.40233362 -0.6726078 -0.62124354
0.5158471 0.67994434 -0.08320529 -0.040965833 0.07267682 -0.035520304 0.21748877 0.16235921
0.08193381 -0.06539803 -0.070190966 -0.13258803 -0.7948266 0.73748475 0.8065994 -0.37071496
0.48941842 0.49485174 0.73413694 0.66274476 -0.6247889 -0.7417253 0.15779757 0.14254878
-0.14884022 0.18477571 -0.20384853 -0.18952133 -0.15947957 0.13670734 0.14030482 0.17495716
-0.5119917 -0.016643895 0.27066132 2.6558526 -1.8875191 -0.9903124 -0.052991524 -0.2693803
0.29297817 -0.16574371 -0.6124414 -0.694389 0.6337089 -1.0235935 -0.05557329 0.44977924
0.703899 -0.6650413 -0.6458181 -0.60186493
00000000: 93bf 4f3f 1278 37bf 2ab0 3fbf 083a 343e
00000010: 0b4d bdbe acfe cdbe 0630 2cbf d109 1fbf
00000020: 8e0e 043f d510 2e3f 8967 aabd cacb 27bd
00000030: 96d7 943d bd7d 11bd 60b5 5e3e 7e41 263e
00000040: eacc a73d 67ef 85bd 48c0 8fbd 28c5 07be
00000050: c279 4bbf cdcb 3c3f 4c7d 4e3f 5ace bdbe
00000060: 0d95 fa3e 355d fd3e 66f0 3b3f a4a9 293f
00000070: 2af2 1fbf b6e1 3dbf b095 213e 4ff8 113e
00000080: 9269 18be d835 3d3e abbd 50be e111 42be
00000090: 9d4e 23be 02fd 0b3e 11ac 0f3e f827 333e
000000a0: e311 03bf c758 88bc 1f94 8a3e 7df9 2940
000000b0: 3a9a f1bf 1d85 7dbf a40d 59bd 37ec 89be
000000c0: 3c01 963e b8b8 29be f6c8 1cbf 7ac3 31bf
000000d0: bf3a 223f 1d05 83bf d1a0 63bd 7749 e63e
000000e0: ba32 343f 2640 2abf 5654 25bf d213 1abf

gating.fc_out.bias f4 [3]
0.05097955 0.19318806 -1.2340398
00000000: efcf 503d 17d3 453e 04f5 9dbf

experts.0.encoder.embedding.weight f4 [8, 19]
-0.00026052239 -0.0069695497 -0.007562606 -0.0011249975 0.005698017 0.0014766811 -0.0046933154 -0.0024313931
-0.00036977863 0.0002577355 0.0011640352 0.004823929 -0.013163133 0.005654397 0.00051239145 -0.0021558227
-0.0028947638 -0.0016038815 -0.00076469936 0.12631191 -0.19135523 0.22960581 0.036009118 -0.12616281
0.11613775 0.1407094 0.12388872 0.25396192 0.2104308 -0.25529757 -0.16860138 0.09093725
-0.13770118 -0.31332815 0.1536933 0.42895776 -0.22555268 -0.045271464 -0.0038740435 -0.21270275
0.13907768 -0.07889551 -0.11271533 0.29536563 0.24091187 0.18719514 0.2654443 0.08608141
-0.3227381 -0.24001391 0.31147993 -0.07125075 -0.24239063 -0.054162286 0.42209908 -0.23445788
0.023913274 0.21612929 0.3975953 -0.47305962 -0.15010223 0.45164 -0.46452507 -0.2553408
-0.15635179 -0.18909134 -0.454413 0.36660746 -0.22797285 -0.4641602 0.2168252 0.14277872
0.5482874 -0.23936498 0.35365725 -0.053384814 0.19585149 0.2666767 -0.17831995 -0.20099595
0.043156654 -0.13508509 -0.12995508 0.028123092 -0.07662506 -0.11987765 0.048628427 -0.06891438
-0.29565078 0.1788371 0.20402604 0.05001964 -0.090620115 0.09288911 0.15267952 0.37293983
-0.43971014 0.29926813 -0.1575017 -0.07321187 0.35997888 0.3983118 0.3438754 0.2025973
0.10358604 -0.25994232 -0.3008272 0.26041466 -0.29975852 -0.27456063 0.0028817633 0.39868012
-0.17953472 0.27348936 -0.23589513 -0.10781073 0.19723156 0.13361941 -0.32354936 0.0537427
0.1312596 0.041917726 0.029229423 0.40657365 -0.10023892 0.015668819 0.02253294 -0.14360826
-0.18649822 -0.030799557 0.08252762 -0.055068184 -0.09589084 -0.53484344 0.11008033 0.040930837
0.4173737 -0.09821428 0.0191751 -0.381426 -0.4341587 -0.39977065 0.5022987 0.60707784
0.5116501 0.32619432 0.3537656 0.46564794 -0.44378975 -0.33034632 0.15751402 -0.5583851
00000000: b996 88b9 d260 e4bb bdcf f7bb a774 93ba
00000010: 6eb6 ba3b 328d c13a 62ca 99bb 0258 1fbb
00000020: d9de c1b9 ac20 8739 8a92 983a 0d12 9e3b
00000030: 2eaa 57bc 8548 b93b 0252 063a b448 0dbb
00000040: 14b6 3dbb 5539 d2ba 1b76 48ba e957 013e
00000050: a0f2 43be c91d 6b3e 4c7e 133d d330 01be
00000060: a1d9 ed3d 2016 103e 5fb9 fd3d 4c07 823e
00000070: 2c7b 573e 5db6 82be d7a5 2cbe 4f3d ba3d
00000080: 8a01 0dbe 8c6c a0be c761 1d3e 5aa0 db3e
00000090: 48f7 66be 926e 39bd aae3 7dbb c0ce 59be
000000a0: 616a 0e3e f893 a1bd 4cd7 e6bd 2a3a 973e
000000b0: 9ab1 763e 15b0 3f3e 51e8 873e 734b b03d
000000c0: ee3d a5be 35c6 75be 4c7a 9f3e eaeb 91bd
000000d0: 4035 78be 46d9 5dbd 5f1d d83e ba15 70be
000000e0: c5e5 c33c ff50 5d3e 9c91 cb3e df34 f2be
000000f0: 66b4 19be 5c3d e73e 3bd6 edbe 08bc 82be
00000100: af1a 20be 29a1 41be d2a8 e8be f9b3 bb3e
00000110: b771 69be 68a6 edbe 6d07 5e3e 9634 123e
00000120: 905c 0c3f 181c 75be 9012 b53e 09aa 5abd
00000130: 4b8d 483e d989 883e 8199 36be e2d1 4dbe
00000140: 08c5 303d bf53 0abe f212 05be 6662 e63c
00000150: 99ed 9cbd 6a82 f5bd 9a2e 473d fc22 8dbd
00000160: 8a5f 97be 1321 373e 34ec 503e 65e1 4c3d
00000170: 0a97 b9bd a53c be3d 0558 1c3e f8f1 be3e
00000180: b021 e1be ac39 993e 2048 21be 1bf0 95bd
00000190: 274f b83e 86ef cb3e 7010 b03e ab75 4f3e
000001a0: eb24 d43d 2917 85be 0606 9abe 1255 853e
000001b0: f379 99be 3693 8cbe f7db 3c3b cd1f cc3e
000001c0: f3d7 37be cc06 8c3e 7e8e 71be dfcb dcbd
000001d0: 12f7 493e 87d3 083e 43a8 a5be 4e21 5c3d
000001e0: eb68 063e ecb1 2b3d 8b72 ef3c 6c2a d03e
000001f0: 104a cdbd e55b 803c 0097 b83c 0b0e 13be
00000200: 64f9 3ebe 5a4f fcbc 3e04 a93d 2d8f 61bd
00000210: 6b62 c4bd 80eb 08bf cc71 e13d 18a7 273d
00000220: 01b2 d53e 9224 c9bd 1915 9d3c 454a c3be
00000230: 0d4a debe bdae ccbe a696 003f 7469 1b3f
00000240: 80fb 023f f102 a73e c420 b53e 6869 ee3e
00000250: 6938 e3be 2723 a9be 5b4b 213e 53f2 0ebf

experts.0.encoder.rnn.weight_ih_l0 f4 [27, 19]
-1.1887206 0.011612218 0.2929465 0.47456476 -0.010674098 -0.054536708 -0.24868883 -0.5841931
-0.7107266 0.7333908 0.42032593 0.6483568 0.4241657 0.64507544 0.54732096 -0.34016147
-0.79245347 0.26567513 -0.53828037 -0.3153594 -0.14813803 0.02999163 0.29826072 0.16258976
-0.060581535 0.25664064 -0.2213081 0.38701057 0.21493505 -0.12866428 0.39298192 0.08110235
0.38156474 0.13959742 0.11568647 0.007255978 -0.26645726 -0.17100464 -0.3943327 -0.08228155
-0.0019016634 0.34863853 0.22393559 -0.0032724165 0.155867 -0.31604826 0.30907845 0.26470563
0.008054248 0.49568215 0.23340279 0.42476726 0.28141508 0.0014590346 -0.19954312 -0.18951151
-0.23580547 -0.75297034 0.36658657 -0.042715874 0.069815956 -0.27238122 -0.04810608 -0.59980506
0.10915818 -0.42729312 0.29794475 -0.09506291 0.42354754 0.056897055 0.4093458 -0.34905764
-0.07659306 -0.7649541 0.15266658 -0.517373 -0.56622344 -0.10138102 -0.00480074 0.32517624
0.10239298 -0.0566563 0.0063234437 -0.40643203 0.27447346 0.30617934 -0.006719408 0.61897945
0.14290088 0.48889515 0.28779572 0.051630426 -0.11169689 -0.21462251 -0.33728072 -0.1405457
0.076830335 -0.013470751 0.17674674 0.0030104471 -0.005865643 -0.18209064 -0.16391468 -0.08435736
0.3447532 -0.14594108 0.08616063 0.19656476 0.17039905 0.067624435 -0.10709841 -0.3452783
-0.20646918 -0.17989999 -0.44445556 0.25600025 -0.13483185 0.2508861 -0.018948006 0.30499303
-0.28762156 -0.23274061 -0.22992633 0.043399617 -0.09424081 0.4242913 0.062099963 0.68073475
0.22464198 0.33352092 -0.6262943 0.09461984 -0.6464144 -0.23158078 -0.10134153 -0.01836052
0.13579085 0.13733621 -0.17107388 0.1624703 -0.27205843 0.40597 0.09402876 -0.21979776
0.37148532 0.06858711 0.21892852 0.00319333 0.089175865 -0.033095732 -0.20308092 -0.17426027
-0.57614934 -0.051280387 0.09061728 0.29721302 0.22057992 0.018267315 -0.022160191 -0.33115405
-0.2681515 0.45032257 0.015493629 0.3088508 0.2225399 0.5005107 0.33820432 -0.08902909
-0.47832194 -0.1668643 -0.16174184 0.3606353 0.10909659 0.105766475 -0.16912946 0.03278298
-0.13252735 0.047262315 0.13932258 0.06951543 -0.38432926 -0.13204749 -0.3946932 -0.08269597
-0.040304806 -0.26054257 0.17346789 -0.070621684 0.07908939 0.6958721 0.22311199 0.1525085
-0.31344724 -0.11217203 0.49982232 -0.5647349 0.056467786 -0.08674308 -0.10814836 -0.23820303
0.20462191 -0.27571464 -0.32219425 -0.25580606 -0.08632206 0.008628649 -0.08058819 0.26105684
0.17160802 0.073401295 0.12849542 -0.19154984 -0.09995097 0.40053225 -0.424835 0.042492215
-0.046529487 -0.08918248 -0.36015615 0.093893245 -0.36676735 -0.32746953 -0.24833007 -0.21862309
0.12515381 -0.028048947 0.21264093 0.23477893 0.45903823 0.09556641 0.29781392 -0.22056015
0.21193844 -0.15570816 0.047821306 -0.19286059 -0.004491478 -0.016208861 0.22972775 -0.37079903
-0.22296932 -0.01301165 0.022513743 -0.0217141 0.019255692 0.17354067 0.18396303 0.35892802
0.3761067 -0.30485076 -0.11506706 0.57785076 -0.6153603 0.11352487 -0.03938047 -0.10030127
00000000: ff27 98bf 2c41 3e3c 15fd 953e 27fa f23e
00000010: 69e2 2ebc e261 5fbd 49a8 7ebe ae8d 15bf
00000020: 2ef2 35bf 80bf 3b3f f634 d73e b6fa 253f
00000030: 3f2c d93e aa23 253f 3a1d 0c3f a529 aebe
00000040: 3bde 4abf 9206 883e becc 09bf ca76 a1be
00000050: 7fb1 17be 02b1 f53c a1b5 983e ee7d 263e
00000060: 5824 78bd 6766 833e 979e 62be 4026 c63e
00000070: ef17 5c3e 92c0 03be ed34 c93e fd18 a63d
00000080: 745c c33e a0f2 0e3e 07ed ec3d 8ec3 ed3b
00000090: 166d 88be d71b 2fbe fae5 c9be 3b83 a8bd
000000a0: 3c41 f9ba c080 b23e 5f4f 653e 0a76 56bb
000000b0: 999b 1f3e 14d1 a1be 883f 9e3e 7f87 873e
000000c0: f7f5 033c 0dca fd3e 2401 6f3e 187b d93e
000000d0: a315 903e 143d bf3a 0855 4cbe 4e0f 42be
000000e0: fd76 71be aac2 40bf 3cb1 bb3e d7f6 2ebd
000000f0: abfb 8e3d 8d75 8bbe e20a 45bd d38c 19bf
00000100: 538e df3d 2ac6 dabe 378c 983e 58b0 c2bd
00000110: 39db d83e e30c 693d c695 d13e afb7 b2be
00000120: d2dc 9cbd 08d4 43bf a154 1c3e 8f72 04bf
00000130: 05f4 10bf daa0 cfbd 874f 9dbb 807d a63e
00000140: 69b3 d13d 7010 68bd e434 cf3b dc17 d0be
00000150: c987 8c3e 8ac3 9c3e 7b2e dcbb 7075 1e3f
00000160: 9c54 123e 7750 fa3e f659 933e 6d7a 533d
00000170: 57c1 e4bd 01c6 5bbe 0fb0 acbe 36eb 0fbe
00000180: 3959 9d3d 6db4 5cbc 19fd 343e ec4a 453b
00000190: 9434 c0bb f875 3abe 40d9 27be 8dc3 acbd
000001a0: 7e83 b03e 9471 15be fc74 b03d 4648 493e
000001b0: 177d 2e3e ae7e 8a3d 6956 dbbd 51c8 b0be
000001c0: a86c 53be b437 38be ae8f e3be 7712 833e
000001d0: 5c11 0abe 2574 803e d938 9bbc 0c28 9c3e
000001e0: 2243 93be 8e53 6ebe cf71 6bbe ccc3 313d
000001f0: 5301 c1bd b63c d93e 885c 7e3d a244 2e3f
00000200: 8c08 663e 41c3 aa3e d354 20bf 0cc8 c13d
00000210: 6a7b 25bf 8323 6dbe 268c cfbd cd68 96bc
00000220: c20c 0b3e dda1 0c3e fe2d 2fbe 9d5e 263e
00000230: 3e4b 8bbe 4ddb cf3e 2792 c03d aa12 61be
00000240: 5333 be3e 6677 8c3d cc2e 603e 3047 513b
00000250: d6a1 b63d 648f 07bd 72f4 4fbe 4971 32be
00000260: 867e 13bf 620b 52bd 8d95 b93d 4e2c 983e
00000270: b4df 613e 56a5 953c 4a89 b5bc 068d a9be
00000280: 274b 89be ae90 e63e fdd8 7d3c b121 9e3e
00000290: 80e1 633e 7821 003f 1e29 ad3e e254 b6bd
000002a0: 9de6 f4be 7ade 2abe a79f 25be 31a5 b83e
000002b0: 086e df3d 189c d83d 4630 2dbe 7247 063d
000002c0: 40b5 07be 2196 413d 94aa 0e3e 1b5e 8e3d
000002d0: cec6 c4be 7537 07be 3a15 cabe 815c a9bd
000002e0: a716 25bd d665 85be 91a1 313e 1aa2 90bd
000002f0: 9ef9 a13d ad24 323f 7877 643e 302b 1c3e
00000300: 287c a0be 73ba e5bd b6e8 ff3e 7792 10bf
00000310: c44a 673d 5ba6 b1bd e37c ddbd 7feb 73be
00000320: 6888 513e 782a 8dbe a5f6 a4be 03f9 82be
00000330: 9fc9 b0bd 2d5f 0d3c 6c0b a5bd 3ea9 853e
00000340: 03ba 2f3e 6b53 963d 4e94 033e a425 44be
00000350: 18b3 ccbd 9012 cd3e f983 d9be 510c 2e3d
00000360: b495 3ebd 4ea5 b6bd 6366 b8be 1a4b c03d
00000370: eec8 bbbe 16aa a7be 3d4a 7ebe bbde 5fbe
00000380: 5228 003e e8c6 e5bc 8bbe 593e e369 703e
00000390: 0f07 eb3e 52b8 c33d 117b 983e 85da 61be
000003a0: 6406 593e f671 1fbe 46e0 433d 3f7d 45be
000003b0: 402d 93bb 72c8 84bc c03d 6b3e 5fd9 bdbe
000003c0: 1252 64be d12e 55bc be6e b83c c5e1 b1bc
000003d0: 1dbe 9d3c a5b4 313e ce60 3c3e 6ac5 b73e
000003e0: 0f91 c03e 6615 9cbe 47a8 ebbd 07ee 133f
000003f0: 4188 1dbf ba7f e83d 6a4d 21bd c16a cdbd

experts.0.encoder.rnn.weight_hh_l0 f4 [27, 9]
-0.20434552 0.24007004 -0.27177665 -0.4181901 -0.28706035 0.4217336 -0.30060035 0.26262173
-0.37494627 -0.37863088 0.46364132 -0.4997803 -0.16137952 -0.4648953 0.33297548 -0.30949432
0.48560432 -0.4645052 -0.28711194 0.37832806 -0.38018492 -0.03761407 -0.37481925 0.24704674
-0.34215716 0.38170174 -0.377598 -0.150864 -0.13625473 0.04726625 -0.4015903 0.021055361
0.28752115 -0.04530189 -0.03710901 -0.15719132 -0.33583215 0.3957514 -0.44154322 -0.1421721
-0.40578485 0.2792433 -0.32531142 0.4214962 -0.4345696 -0.0052714017 0.17113286 -0.12023424
-0.1896049 -0.21571374 0.20284976 -0.2619093 0.18975767 -0.12620437 -0.3321082 0.47817782
-0.5095332 -0.49190512 -0.51150256 0.5621069 -0.44057703 0.38003695 -0.4946775 -0.15839486
0.36934364 -0.38886 0.0017621556 -0.40519 0.14782237 -0.31541696 0.41050166 -0.30680946
-0.047682084 0.22352141 -0.21259506 -0.122087955 -0.24677959 0.14625502 -0.25949818 0.26712278
-0.22635894 -0.19873804 0.4005876 -0.3669043 -0.09745514 -0.24557401 0.09460172 0.34058827
0.36788583 -0.06845253 0.23912604 -0.2967091 0.32764477 0.20083232 0.2934193 -0.23318925
0.17377433 -0.33271286 0.24796 0.089578606 -0.23486423 0.2564029 0.018839085 0.24854264
-0.10955043 0.17777517 -0.26200303 0.14950706 0.06485364 0.074146375 -0.10953904 0.104531415
0.0033815582 -0.06932436 0.063233435 -0.020641683 0.10875885 0.129675 -0.20207238 0.25459987
0.12726909 0.23054753 -0.19356467 0.12587486 -0.22579521 0.17952412 0.09107639 -0.14033796
0.01366854 0.16913168 0.18357429 -0.08098039 0.20819014 -0.1601475 0.048347186 -0.11861991
0.093594305 -0.03767115 0.19051707 -0.018835258 -0.19912554 0.16285269 0.07298163 0.023645714
0.1841434 -0.3465017 0.36376306 0.1407456 0.3253907 -0.15671554 0.09624829 -0.366095
0.2084464 -0.08020714 0.104471005 -0.15519328 -0.09156461 -0.06742681 0.020444311 0.1701146
0.063685395 -0.016419271 -0.4372239 0.16559477 -0.17710079 -0.769168 -0.08223023 0.61649144
0.07944755 0.19578321 -0.36601576 0.1595652 -0.3190069 0.36693373 0.24383765 0.2764262
-0.27193528 0.03922972 -0.40392804 0.23198965 -0.13506487 0.33191627 -0.36477628 -0.25427783
-0.25741962 0.3270304 -0.030964674 0.37890404 -0.2514507 -0.15174843 -0.12939712 0.12104037
-0.7902085 0.28869587 0.45428497 0.14029545 -0.031120062 -0.0006877252 -0.21303444 0.32174316
-0.40297428 -0.29730844 -0.27102938 0.36455357 -0.05564155 0.38186514 -0.31148934 0.042994615
0.108469576 -0.11853954 0.38960978 -0.25077352 -0.39343303 -0.10202717 0.042760655 -0.0606897
-0.23630899 -0.0100672655 -0.022387562 -0.3928797 0.06915104 0.29504257 -0.41713327 -0.021238523
-0.26447606 0.1442197 -0.3001946 0.34531787 0.18382962 0.25308022 -0.26689604 0.034177404
-0.39573506 0.20113112 -0.07266739 0.12810299 -0.1632873 -0.34079748 -0.047882847 0.36945844
0.057384804 0.18277435 -0.17898072
00000000: f43f 51be ecd4 753e 4f26 8bbe 031d d6be
00000010: 93f9 92be 77ed d73e 4ae8 99be 5b76 863e
00000020: f5f8 bfbe e8db c1be 6562 ed3e 34e3 ffbe
00000030: ac40 25be c206 eebe c37b aa3e 0a76 9ebe
00000040: 21a1 f83e a0d3 edbe 5600 93be 37b4 c13e
00000050: 99a7 c2be 3611 1abd 4fe8 bfbe d2f9 7c3e
00000060: 392f afbe 696e c33e 8654 c1be 187c 1abe
00000070: 5c86 0bbe 419a 413d 3e9d cdbe 4b7c ac3c
00000080: f935 933e 798e 39bd 9eff 17bd c3f6 20be
00000090: 31f2 abbe ed9f ca3e f411 e2be 9095 11be
000000a0: 08c3 cfbe faf8 8e3e 388f a6be 5ace d73e
000000b0: e87f debe b9bb acbb 743d 2f3e 5f3d f6bd
000000c0: c927 42be 10e4 5cbe d9b7 4f3e fa18 86be
000000d0: d64f 423e b83b 01be 160a aabe b9d3 f43e
000000e0: c570 02bf fdda fbbe d5f1 02bf 3de6 0f3f
000000f0: 5093 e1be 3494 c23e 5f46 fdbe 4332 22be
00000100: 9c1a bd3e a818 c7be 21f8 e63a 1075 cfbe
00000110: bf5e 173e 557e a1be 462d d23e 2116 9dbe
00000120: 4a4e 43bd cce2 643e 85b2 59be 4009 fabd
00000130: cab3 7cbe e0c3 153e f2dc 84be 51c4 883e
00000140: a3ca 67be fc81 4bbe d119 cd3e e1da bbbe
00000150: 8f96 c7bd c177 7bbe 8cbe c13d 9661 ae3e
00000160: 885b bc3e d730 8cbd 75dd 743e 41ea 97be
00000170: 0ec1 a73e fda6 4d3e 0e3b 963e 2ac9 6ebe
00000180: e6f1 313e 5759 aabe 3ae9 7d3e fd74 b73d
00000190: 4080 70be 3e47 833e 6d54 9a3c f681 7e3e
000001a0: fa5b e0bd b20a 363e 4325 86be 6118 193e
000001b0: fcd1 843d 0eda 973d 0156 e0bd 9114 d63d
000001c0: 229d 5d3b eef9 8dbd 8880 813d bf18 a9bc
000001d0: f6bc de3d 86c9 043e 10ec 4ebe ea5a 823e
000001e0: d452 023e a714 6c3e d135 46be 57e5 003e
000001f0: dc36 67be 2cd5 373e 4286 ba3d c1b4 0fbe
00000200: 03f2 5f3c db30 2d3e e6fa 3b3e 0cd9 a5bd
00000210: cc2f 553e b5fd 23be b307 463d ffee f2bd
00000220: 5fae bf3d 104d 1abd e816 433e 664c 9abc
00000230: 91e7 4bbe dbc2 263e 6577 953d a8b4 c13c
00000240: 1690 3c3e ac68 b1be 273f ba3e 9d1f 103e
00000250: 9c99 a63e 0a7a 20be d31d c53d ce70 bbbe
00000260: f972 553e a443 a4bd e5f4 d53d fdea 1ebe
00000270: 3a86 bbbd 1117 8abd d47a a73c 8632 2e3e
00000280: 7d6d 823d b581 86bc d0db dfbe ad91 293e
00000290: e959 35be 32e8 44bf 5368 a8bd 62d2 1d3f
000002a0: 66b5 a23d 657b 483e 6b66 bbbe 0f65 233e
000002b0: df54 a3be bdde bb3e 94b0 793e bc87 8d3e
000002c0: 1a3b 8bbe 58af 203d a8cf cebe b28e 6d3e
000002d0: 724e 0abe eef0 a93e f5c3 babe b430 82be
000002e0: 81cc 83be 8770 a73e a1a9 fdbc b6ff c13e
000002f0: 25be 80be f163 1bbe ae80 04be 03e4 f73d
00000300: 1b4b 4abf f2cf 933e 0a98 e83e 9ca9 0f3e
00000310: 80ef febc 7548 34ba b325 5abe 85bb a43e
00000320: a552 cebe d038 98be 5dc4 8abe c4a6 ba3e
00000330: 65e8 63bd d483 c33e 887b 9fbe 1f1b 303d
00000340: 4c25 de3d dcc4 f2bd ef7a c73e 6365 80be
00000350: 0e70 c9be 9ff3 d0bd cc25 2f3d c395 78bd
00000360: fcfa 71be 2cf1 24bc 1f66 b7bc 8727 c9be
00000370: 0f9f 8d3d d20f 973e 7e92 d5be 69fc adbc
00000380: 6869 87be 54ae 133e 1bb3 99be 81cd b03e
00000390: d53d 3c3e bb93 813e 99a6 88be 9bfd 0b3d
000003a0: c99d cabe 51f5 4d3e a4d2 94bd 6e2d 033e
000003b0: c934 27be 027d aebe ce20 44bd a829 bd3e
000003c0: 540c 6b3d 3329 3b3e b946 37be

experts.0.encoder.rnn.bias_ih_l0 f4 [27]
-0.13448013 0.13076599 0.09237295 -0.18390352 0.13253306 -0.15816694 -0.28630105 0.07889821
-0.08146541 -0.22850324 0.081346504 0.2132754 0.30746078 -0.019552588 0.42292494 0.19549964
0.26245055 0.11419513 0.033275776 -0.09347146 0.07605933 0.032849994 0.07864941 -0.07161248
-0.0067973677 -0.101947926 0.06252765
00000000: 29b5 09be 85e7 053e 072e bd3d 3451 3cbe
00000010: bfb6 073e 84f6 21be 0d96 92be 6295 a13d
00000020: 56d7 a6bd c1fc 69be ff98 a63d de64 5a3e
00000030: 806b 9d3e c02c a0bc 9e89 d83e 0f31 483e
00000040: eb5f 863e 23df e93d 2e4c 083d f76d bfbd
00000050: fec4 9b3d b78d 063d f112 a13d 90a9 92bd
00000060: 74bc debb 13ca d0bd 7f0e 803d

experts.0.encoder.rnn.bias_hh_l0 f4 [27]
-0.13448007 0.13076594 0.09237282 -0.18390349 0.13253309 -0.15816697 -0.2863011 0.07889826
-0.0814654 -0.22850326 0.08134655 0.21327536 0.30746073 -0.01955257 0.4229249 0.19549972
0.26245058 0.114195086 0.042549696 -0.09723383 0.081272565 0.029744165 0.081857435 -0.056121316
-0.003420069 -0.103763424 0.06435942
00000000: 25b5 09be 82e7 053e f62d bd3d 3251 3cbe
00000010: c1b6 073e 86f6 21be 0f96 92be 6995 a13d
00000020: 55d7 a6bd c2fc 69be 0599 a63d db64 5a3e
00000030: 7e6b 9d3e b62c a0bc 9d89 d83e 1431 483e
00000040: ec5f 863e 1ddf e93d 9748 2e3d 8822 c7bd
00000050: 3b72 a63d 09aa f33c dfa4 a73d 77df 65bd
00000060: 3d23 60bb eb81 d4bd dfce 833d
