agl/models/autosave/tr-AE-124-16-0.001-B1.pt (torch, 113900 bytes, 21 tensors)

encoder.embedding.weight f4 [8, 124]
0.02004001 -0.0078528365 0.016944297 0.023669025 0.015762538 -0.001177802 -0.0059617977 0.004547577
0.00819718 0.00018153997 -0.0018539514 0.0004067303 0.0037217624 -0.016815338 0.011026559 0.006858596
0.008301676 0.016715098 -0.0018073384 0.00061554514 -0.014095418 0.006181078 -0.0045136553 0.0037823399
0.008578828 -0.0047328556 -0.0010263667 0.0016794073 0.009484929 0.012989513 0.010251479 0.006149719
-0.0049781576 0.0058239326 0.0069212806 0.0147301275 0.0024295342 0.0023504563 0.007950916 0.011044567
0.0077848528 -0.00088795414 -0.0131702935 -0.011150941 -0.004379248 -0.0012821422 0.015066246 0.01820588
-0.013597975 0.008883485 -0.0067985314 -0.01625502 -0.003919913 -0.004072484 -0.0196105 0.006569884
0.00273594 0.004708556 0.009387504 0.0056244098 0.0056759375 -0.015349278 0.002462268 -0.008052702
0.0021850674 -0.001823989 0.024609026 -0.010298969 0.0053586685 0.0012704427 0.015810633 0.004516062
-0.0012707955 -0.0032374847 -0.001546981 -0.01996819 0.002683118 0.008229551 -0.007627722 0.00073623005
-0.0018585759 0.015273436 -6.6361616e-05 -0.013349751 -0.0054495325 0.005326308 0.01085545 -0.004207392
0.01563459 0.017180577 0.010937845 0.013559011 -0.0040221107 0.0034056052 0.0067522773 -0.003036548
-0.008792628 0.00085301406 0.007861385 -0.0056421417 -0.011170253 0.012276948 0.006100519 0.005964973
0.008961684 0.0066496637 0.012953399 0.019194162 0.01960565 -0.0026493564 0.011042435 -0.0061356635
-0.004824559 -0.0014200908 0.011802478 -0.010769139 0.008841751 0.007962456 0.006172025 -0.000469492
0.02884529 0.006302153 0.006682933 -0.00045389356 0.010395335 -0.15034129 -0.12834282 -0.067905284
0.16890432 -0.17116438 0.11989939 -0.117813975 0.14488743 -0.13393651 -0.14623724 -0.12600717
0.08464095 0.13177343 -0.14565891 -0.14573275 -0.10328382 0.1521433 0.1049113 -0.12717487
0.054153476 -0.07674957 -0.049537815 -0.13892177 -0.110481374 0.016782196 0.10489609 0.06319133
0.03984641 -0.025126323 0.07529721 0.11224579 -0.09305161 -0.14265999 -0.08204479 0.12438912
-0.043535206 0.12195086 -0.046830844 -0.15965682 -0.054392498 0.079779565 0.007926489 -0.093410455
0.050295774 -0.12951522 0.10555571 -0.15518372 0.1270902 0.1393977 0.15143988 0.00722285
0.11666574 0.12270915 -0.08520472 -0.18983142 0.07107542 -0.042528335 -0.17626609 -0.10785955
-0.07262126 0.11633038 0.121417485 0.16472664 -0.02761591 -0.14774689 -0.15746681 0.11054349
-0.0022531142 0.067415304 0.076932915 -0.14615114 0.1227048 0.028381119 0.06524955 -0.08185747
0.14350264 -0.121234536 0.02266564 0.15601006 -0.08785572 -0.12911989 0.09422705 0.061084013
0.13767074 0.09635212 -0.10626291 -0.15320595 0.09383508 0.1227989 -0.037511643 0.041178837
-0.05904289 0.106854506 -0.023633106 -0.08199438 -0.10858232 0.12323423 -0.09082424 -0.07116141
-0.1352664 0.0058420273 0.003975562 -0.096285716 0.118113965 0.17937079 -0.08517548 0.12654367
0.0951722 -0.14194149 -0.15660244 -0.16064967 0.1329217 0.019350607 -0.033342727 -0.052695163
-0.054389164 -0.1479949 -0.08983214 -0.06585195 -0.0007589687 0.115232 0.17548473 -0.10695963
-0.13102944 -0.2627556 -0.16379872 -0.049590085 0.066724636 -0.18584682 0.16915841 -0.1236917
00000000: f22a a43c 2fa9 00bc c4ce 8a3c 8be5 c13c
00000010: 7020 813c 7a60 9aba 2f5b c3bb d703 953b
00000020: 774d 063c c45b 3e39 4900 f3ba 6b3e d539
00000030: d0e8 733b 52c0 89bc bea8 343c 13be e03b
00000040: c103 083c 1aee 883c 37e4 ecba 895c 213a
00000050: 78f0 66bc a48a ca3b 49e7 93bb 22e1 773b
00000060: 368e 0c3c 1216 9bbb 2787 86ba 8f1f dc3a
00000070: ad66 1b3c f7d1 543c d2f5 273c 9583 c93b
00000080: d01f a3bb b0d6 be3b e9cb e23b a256 713c
00000090: d238 1f3b 1d0a 1a3b 8f44 023c 46f4 343c
000000a0: 1418 ff3b 98c5 68ba 37c8 57bc 70b2 36bc
000000b0: cb7f 8fbb 8e0d a8ba 6ad8 763c 7f24 953c
000000c0: 0aca 5ebc 098c 113c 37c6 debb 3f29 85bc
000000d0: 9d72 80bb 7972 85bb 33a6 a0bc 2e48 d73b
000000e0: 754d 333b 3b4a 9a3b 0cce 193c f84c b83b
000000f0: 37fd b93b 8a7b 7bbc 015e 213b 7bef 03bc
00000100: 5933 0f3b ea12 efba de98 c93c 02bd 28bc
00000110: c597 af3b fc84 a63a 4d85 813c 79fb 933b
00000120: d290 a6ba fb2b 54bb 12c4 caba 5494 a3bc
00000130: 40d7 2f3b 3dd5 063c f8f1 f9bb 90ff 403a
00000140: 759b f3ba 6f3d 7a3c 9f2b 8bb8 eab8 5abc
00000150: fe91 b2bb 4f88 ae3b 0fdb 313c 2ade 89bb
00000160: 1d14 803c 48be 8c3c a634 333c 9d26 5e3c
00000170: e9cb 83bb 9330 5f3b 3542 dd3b d200 47bb
00000180: f40e 10bc ce9c 5f3a 0acd 003c b7e1 b8bb
00000190: 7003 37bc 4125 493c dde6 c73b d275 c33b
000001a0: 07d4 123c 6ce5 d93b 7e3a 543c 133d 9d3c
000001b0: 079c a03c d3a0 2dbb 54eb 343c ad0d c9bb
000001c0: 5617 9ebb 5722 baba 2e5f 413c 0b71 30bc
000001d0: fedc 103c f674 023c b33e ca3b 2626 f6b9
000001e0: f54c ec3c 4b82 ce3b 81fc da3b 90f8 edb9
000001f0: 3251 2a3c 11f3 19be 4d6c 03be ed11 8bbd
00000200: 41f5 2c3e b745 2fbe d08d f53d 7448 f1bd
00000210: 5f5d 143e a726 09be 37bf 15be 0608 01be
00000220: 3c58 ad3d 9def 063e 9c27 15be f73a 15be
00000230: 7886 d3bd 74cb 1b3e bcdb d63d 213a 02be
00000240: 09d0 5d3d e12e 9dbd 2ae8 4abd 8241 0ebe
00000250: 0f44 e2bd d17a 893c c3d3 d63d 756a 813d
00000260: fd35 233d b8d5 cdbc 6c35 9a3d 1fe1 e53d
00000270: d891 bebd 7615 12be 1907 a8bd b9bf fe3d
00000280: f951 32bd 5fc1 f93d b3d1 3fbd 147d 23be
00000290: abca 5ebd 7863 a33d 1bde 013c fb4d bfbd
000002a0: f102 4e3d a39f 04be 982d d83d 7be8 1ebe
000002b0: ef23 023e 45be 0e3e 0e13 1b3e a8ad ec3b
000002c0: 73ee ee3d ef4e fb3d d07f aebd 2b63 42be
000002d0: fd8f 913d 3132 2ebd 197f 34be 78e5 dcbd
000002e0: 75ba 94bd 9f3e ee3d bba9 f83d 1aae 283e
000002f0: c33a e2bc f64a 17be fb3e 21be a064 e23d
00000300: fca8 13bb 0911 8a3d 018f 9d3d a5a8 15be
00000310: a74c fb3d 857f e83c 8ea1 853d e4a4 a7bd
00000320: 5bf2 123e d049 f8bd 4bad b93c 1ac1 1f3e
00000330: b3ed b3bd 0138 04be 1dfa c03d 3b33 7a3d
00000340: 8ff9 0c3e 4354 c53d 5ea0 d9bd 05e2 1cbe
00000350: 9b2c c03d fd7d fb3d cfa5 19bd 24ab 283d
00000360: f5d6 71bd 89d6 da3d 379a c1bc abec a7bd
00000370: 6860 debd 3a62 fc3d 0f02 babd 13bd 91bd
00000380: 4683 0abe 7a6e bf3b 6e45 823b 7231 c5bd
00000390: bce5 f13d faac 373e 7b70 aebd aa94 013e
000003a0: a4e9 c23d 1c59 11be 645c 20be 5981 24be
000003b0: a01c 083e 2a85 9e3c 6292 08bd e2d6 57bd
000003c0: 2cc7 5ebd fa8b 17be eaf9 b7bd 63dd 86bd
000003d0: 87f5 46ba c1fe eb3d 45b2 333e a70d dbbd
000003e0: 952c 06be e787 86be daba 27be f91e 4bbd
000003f0: eda6 883d a14e 3ebe dd37 2d3e 1352 fdbd

encoder.rnn.weight_ih_l0 f4 [48, 124]
-0.36898687 -0.15149361 -0.08505354 0.3368623 -0.16944228 -0.24775973 0.14893284 0.07219507
0.2529252 -0.022972353 -0.3975059 -0.18263601 -0.30366263 0.08547896 -0.1619901 -0.2538458
0.19978257 0.11867501 0.03199234 -0.2681675 -0.22869022 -0.19703533 0.40129694 -0.26914132
-0.30389133 -0.3384708 0.2215793 -0.31678295 -0.34982005 -0.37317425 -0.10789482 -0.17313613
0.11496221 -0.20528561 0.36147374 0.33184272 0.4667826 0.21245731 0.40066874 -0.14495875
-0.29190862 -0.061585266 0.24453053 0.17437658 -0.4780551 0.09071192 0.29266116 -0.29908943
0.032735966 0.24597396 0.131561 0.49389634 -0.38088152 0.05639669 -0.14360522 -0.24809878
0.35036153 0.44710767 -0.2601668 0.21722806 0.3071507 0.28822336 0.1859927 0.27535194
0.33209783 -0.26742607 -0.15450552 0.07712753 -0.3568247 -0.15387811 -0.3962634 -0.17004181
0.26507103 -0.36050943 -0.3340874 0.030109916 0.31377777 -0.12445514 0.3541596 0.16595447
0.25283518 -0.2341798 -0.23178354 -0.49020997 0.26619348 0.27820888 0.19156982 -0.27897608
-0.4568561 -0.19694628 0.3809795 -0.10607054 0.42608377 -0.38623586 0.367835 0.22654597
-0.34918734 0.25170076 -0.43854195 0.27794677 -0.09821735 -0.36110023 0.45359915 0.098363
-0.041406047 0.12962717 -0.36354372 0.20502493 0.27424148 -0.2364182 -0.111325026 -0.22463554
0.23641808 -0.4144557 -0.42740294 0.3467518 0.37306765 0.15967566 0.22098991 -0.31320313
0.44642574 -0.40960345 0.32956266 -0.03669492 -0.22405115 -0.33905447 -0.32937047 -0.02232127
0.18872504 -0.5365192 0.28951952 -0.30597103 0.36121222 -0.29378226 -0.38747254 -0.46053463
-0.063070126 0.37539527 -0.25645983 -0.4167037 -0.22110584 0.3420756 0.22628497 -0.41483954
0.04708571 -0.41196215 0.017603626 -0.42003238 -0.45391276 0.04913225 0.16652723 -0.029937943
0.10456591 -0.2469294 0.1730573 -0.00045016853 -0.24316368 -0.5000032 0.024525702 0.38193542
0.06263075 0.33448964 0.044308983 -0.35031843 -0.31644288 0.2721961 -0.07594902 -0.22341472
0.0062308814 -0.056517463 0.33090612 -0.5682002 0.1751173 0.4648023 0.36866823 0.15740082
-0.07373487 0.38648885 -0.38882664 -0.40645835 0.3113631 0.18692112 -0.3728498 -0.10518133
0.017070591 0.36549696 0.396762 0.43197724 0.14919733 -0.48418117 -0.3887608 0.32581776
-0.19245732 0.14076664 0.044805147 -0.3541334 0.45133847 -0.25057155 -0.018323388 -0.24216554
0.4728256 -0.3868725 0.12828375 0.4962333 -0.093455024 -0.49773788 0.055467512 -0.12049855
0.4806156 0.4242993 -0.13849999 -0.33784643 -0.018694561 0.04494565 0.1630133 0.16459313
0.14834192 -0.109261364 0.035379216 -0.14725271 -0.36804074 0.32632968 -0.30481523 -0.007236234
-0.27690846 -0.33309388 0.20911051 -0.21511666 0.29918683 0.33562228 -0.38942903 0.24707618
0.34154066 -0.43586123 -0.48910967 -0.2814663 0.35725182 -0.07508511 -0.27332357 0.02653403
0.018966092 0.07085036 -0.15851045 -0.27825156 0.14660637 -0.101504214 0.4561359 -0.39661765
-0.10474183 -0.16931151 -0.16818233 -0.053432435 0.12069832 -0.2597953 0.2473861 -0.20723942
00000000: d9eb bcbe 2421 1bbe 8d30 aebd 3779 ac3e
00000010: 4782 2dbe bab4 7dbe da81 183e 02db 933d
00000020: 697f 813e 8430 bcbc e585 cbbe ef04 3bbe
00000030: ab79 9bbe 980f af3d bce0 25be 14f8 81be
00000040: cd93 4c3e e20b f33d 660a 033d 404d 89be
00000050: c52d 6abe a1c3 49be cb76 cd3e e4cc 89be
00000060: a597 9bbe 0b4c adbe afe5 623e 6031 a2be
00000070: 9d1b b3be b210 bfbe f6f7 dcbd 994a 31be
00000080: 4f71 eb3d 6436 52be 1613 b93e 4ae7 a93e
00000090: 21fe ee3e 698e 593e 7424 cd3e 1170 14be
000000a0: 0c75 95be d540 7cbd 3666 7a3e c68f 323e
000000b0: a3c3 f4be 2cc7 b93d afd7 953e 4022 99be
000000c0: 2616 063d 99e0 7b3e edb7 063e fbdf fc3e
000000d0: e702 c3be 3700 673d 3f0d 13be 9b0d 7ebe
000000e0: 9662 b33e 4ceb e43e 9534 85be 0871 5e3e
000000f0: db42 9d3e 0392 933e df74 3e3e eefa 8c3e
00000100: ba08 aa3e 12ec 88be b236 1ebe 0af5 9d3d
00000110: bab1 b6be 3992 1dbe 09e3 cabe 711f 2ebe
00000120: 64b7 873e b194 b8be 810d abbe 12a9 f63c
00000130: 7ba7 a03e 56e2 febd 6854 b53e f8ef 293e
00000140: 9d73 813e d4cc 6fbe aa58 6dbe cdfc fabe
00000150: 834a 883e 6571 8e3e e12a 443e f4d5 8ebe
00000160: 0be9 e9be 49ac 49be bf0f c33e 833b d9bd
00000170: a727 da3e b5c0 c5be de54 bc3e abfb 673e
00000180: afc8 b2be ecde 803e 9288 e0be 0a4f 8e3e
00000190: 2e26 c9bd 21e2 b8be 263e e83e 8a72 c93d
000001a0: 6399 29bd fcbc 043e 6722 babe 0ef2 513e
000001b0: 6169 8c3e 9d17 72be 60fe e3bd dc06 66be
000001c0: 9517 723e 8a33 d4be 8fd4 dabe 7489 b13e
000001d0: b902 bf3e 0482 233e 2e4b 623e 295c a0be
000001e0: ea91 e43e 8bb7 d1be 70bc a83e 6a4d 16bd
000001f0: aa6d 65be 8c98 adbe 3fa3 a8be 19db b6bc
00000200: 2341 413e 5359 09bf e73b 943e 3ca8 9cbe
00000210: cff0 b83e a16a 96be cd62 c6be 32cb ebbe
00000220: e92a 81bd cf33 c03e b44e 83be 305a d5be
00000230: 9269 62be 8824 af3e 3fb7 673e d965 d4be
00000240: f2dc 403d b4ec d2be 7b35 903c 7c0e d7be
00000250: 4167 e8be e63e 493d 1d86 2a3e 6b40 f5bc
00000260: a726 d63d 10db 7cbe ef35 313e 9904 ecb9
00000270: e6ff 78be 3600 00bf 20ea c83c 0a8d c33e
00000280: 8d44 803d 3a42 ab3e 567d 353d f05c b3be
00000290: cd04 a2be 4a5d 8b3e 298b 9bbd d4c6 64be
000002a0: 6c2c cc3b db7e 67bd 876c a93e 9175 11bf
000002b0: f351 333e 91fa ed3e 15c2 bc3e ae2d 213e
000002c0: 4f02 97bd dee1 c53e 4914 c7be 4f1b d0be
000002d0: fc6a 9f3e 4068 3f3e 2be6 bebe 4f69 d7bd
000002e0: a0d7 8b3c 6b22 bb3e 6424 cb3e 1f2c dd3e
000002f0: 2fc7 183e 98e6 f7be a80b c7be 96d1 a63e
00000300: 8813 45be 2125 103e 9a85 373d f950 b5be
00000310: d615 e73e ea4a 80be ee1a 96bc 3efa 77be
00000320: 3216 f23e 2714 c6be d15c 033e 4b12 fe3e
00000330: 5965 bfbd 80d7 febe e731 633d f2c7 f6bd
00000340: 3f13 f63e c23d d93e f1d2 0dbe 35fa acbe
00000350: 5625 99bc ee18 383d f5ec 263e 1a8b 283e
00000360: f2e6 173e 6cc4 dfbd cce9 103d 6ac9 16be
00000370: d66f bcbe af14 a73e be10 9cbe ee1d edbb
00000380: f2c6 8dbe 488b aabe 1121 563e 8b47 5cbe
00000390: 042f 993e afd6 ab3e 3e63 c7be 8a01 7d3e
000003a0: 6bde ae3e 3429 dfbe 956c fabe 5a1c 90be
000003b0: b6e9 b63e 39c6 99bd 11f1 8bbe e55d d93c
000003c0: c75e 9b3c fe19 913d 9050 22be fd76 8ebe
000003d0: fb1f 163e 71e1 cfbd a58a e93e 7811 cbbe
000003e0: e282 d6bd ff5f 2dbe fd37 2cbe f8db 5abd
000003f0: ae30 f73d e403 85be c852 7d3e 9236 54be

encoder.rnn.weight_hh_l0 f4 [48, 16]
-0.17465186 -0.1899447 -0.28779036 0.1396647 0.26837063 0.06798813 0.22783738 -0.2716714
0.21338621 0.2263736 0.113272496 -0.21957542 0.18515764 0.3167493 0.08315042 0.12965171
0.067971386 0.01562151 -0.014221615 0.015816761 0.051458023 -0.030789312 0.04851522 -0.010760626
-0.008233764 -0.0012807469 -0.040660303 0.0042016716 -0.08279234 0.13913046 -0.046297844 -0.12589306
-0.042794473 -0.007206249 -0.03100212 0.025472274 0.015342705 -0.061106525 0.035824794 -0.042648487
0.09004681 0.11136434 -0.032358076 -0.029619703 0.06251452 0.035516597 0.08632653 0.060819034
0.10900935 0.077593006 -0.043934446 0.05960506 0.04216019 -0.07238811 0.0073424736 -0.032674644
-0.027803274 -0.01570843 -0.07764106 -0.031180507 -0.08997347 0.01683219 -0.08193115 -0.10347494
-0.12890674 -0.069766276 -0.05877656 0.05189995 0.058580454 0.008229536 0.07672078 -0.08202414
0.18653622 0.19052714 0.021327266 -0.065428376 0.22142279 0.066158816 0.13353585 0.16239332
0.05145948 -0.03786936 0.0696939 -0.09101819 -0.07169815 0.05520302 -0.0894234 0.08908055
0.12026617 0.1381217 0.03677124 0.06641956 0.12913838 -0.08536379 0.17226619 0.10946492
-0.27879304 -0.2911763 0.045286726 -0.10758263 0.1237545 0.22171506 0.23777094 -0.094876714
0.38347068 0.39902735 0.2570579 0.062137984 0.42160276 0.17483167 0.31963834 0.35891777
-0.071235076 0.04295097 -0.08278461 0.09401762 0.098386 -0.08438324 0.10759184 -0.09689687
0.056237128 0.05384486 -0.06286611 -0.08029355 0.064812995 0.09163393 0.040539507 0.04109668
-0.08670586 -0.0812763 0.0453893 -0.05350679 0.020737894 0.06797572 0.104753 0.0568103
0.04667847 0.05446186 0.06353052 0.06812361 0.041919768 0.09320579 0.10469942 0.06207053
-0.038948935 -0.020889552 -0.023289405 -0.010774647 0.06933868 0.028255887 0.09352923 7.862513e-05
0.030775541 0.026905818 0.007867647 0.008361252 0.037456997 0.14015748 0.036833897 0.025682803
0.07679058 -0.06483411 0.08552975 -0.066463485 -0.11990231 0.0662694 -0.0857942 0.083885655
0.10177873 0.14640391 0.062339604 0.09983143 0.12264473 -0.1053875 0.15478933 0.099845074
0.028895687 0.050039187 -0.035467364 0.0360379 0.029491033 -0.05919188 0.028808096 -0.025170557
0.01567165 0.026608907 -0.051501885 -0.04399323 -0.016186303 0.022276072 0.021853726 -0.03277791
-0.08511577 -0.10246676 -0.06538818 -0.01315764 0.18654954 0.07725753 0.1601507 -0.06125781
0.1251278 0.1011582 0.11257615 0.0038914022 0.13495274 0.15396084 0.15911049 0.13225646
-0.1622139 -0.17166969 0.0490978 -0.07507536 0.041231062 0.22835287 0.07926842 -0.058000717
0.27163577 0.30021665 0.21697834 0.05621309 0.3031895 0.054295823 0.27636957 0.24260788
-0.21151894 -0.09149565 -0.13055544 0.060281746 0.18633518 0.04094411 0.23841397 -0.115239665
0.1070247 0.09883465 0.04771531 -0.050576635 0.13989072 0.24366482 0.17180994 0.17062254
-0.106676914 -0.076939374 -0.14075138 0.029462127 0.10169196 0.037502702 0.15720484 -0.113405704
0.12433119 0.123680525 0.050111208 -0.079079024 0.084396295 0.18245651 0.03430254 0.09021653
00000000: f0d7 32be dd80 42be 4259 93be 4304 0f3e
00000010: e067 893e 5c3d 8b3d 344e 693e 8418 8bbe
00000020: ea81 5a3e 7bce 673e 69fb e73d 61d8 60be
00000030: f799 3d3e f72c a23e c44a aa3d 6bc3 043e
00000040: 9534 8b3d 5df1 7f3c c701 69bc 2792 813c
00000050: a6c5 523d de39 fcbc e5b7 463d 564d 30bc
00000060: e9e6 06bc bcde a7ba 6b8b 26bd 2dae 893b
00000070: 088f a9bd 3778 0e3e cfa2 3dbd 1cea 00be
00000080: 4249 2fbd 6622 ecbb 28f8 fdbc 3bab d03c
00000090: f85f 7b3c d64a 7abd 05bd 123d 2eb0 2ebd
000000a0: 766a b83d fd12 e43d e789 04bd 05a5 f2bc
000000b0: 9d07 803d da79 113d f7cb b03d 611d 793d
000000c0: 4b40 df3d 15e9 9e3d 9bf4 33bd 6f24 743d
000000d0: 2ab0 2c3d 3840 94bd 2299 f03b d9d5 05bd
000000e0: b1c3 e3bc f7ae 80bc 4702 9fbd 436e ffbc
000000f0: 0344 b8bd a9e3 893c 85cb a7bd abea d3bd
00000100: 2100 04be 9fe1 8ebd b1bf 70bd 0b95 543d
00000110: 0ff2 6f3d 2dd5 063c c91f 9d3d 46fc a7bd
00000120: 5a03 3f3e 8c19 433e 85b6 ae3c 50ff 85bd
00000130: a8bc 623e 467e 873d 9fbd 083e 6f4a 263e
00000140: 2dc7 523d e71c 1bbd adbb 8e3d bf67 babd
00000150: 7bd6 92bd 901c 623d 9e23 b7bd dd6f b63d
00000160: 1c4e f63d c66f 0d3e 719d 163d fa06 883d
00000170: da3c 043e 36d3 aebd 8c66 303e 252f e03d
00000180: f6bd 8ebe 0f15 95be 937e 393d 4854 dcbd
00000190: 0073 fd3d 4609 633e 3a7a 733e b94e c2bd
000001a0: 4556 c43e 504d cc3e 189d 833e 6684 7e3d
000001b0: 51dc d73e 1307 333e a3a7 a33e 12c4 b73e
000001c0: b2e3 91bd 5bed 2f3d fa8a a9bd 4f8c c03d
000001d0: 997e c93d 1fd1 acbd 1c59 dc3d de71 c6bd
000001e0: e758 663d 6e8c 5c3d f2bf 80bd f270 a4bd
000001f0: adbc 843d 92aa bb3d c10c 263d fe54 283d
00000200: d892 b1bd 3074 a6bd 21ea 393d f029 5bbd
00000210: 84e2 a93c db36 8b3d be88 d63d ebb1 683d
00000220: ec31 3f3d 6613 5f3d 4a1c 823d 6484 8b3d
00000230: 10b4 2b3d ade2 be3d a66c d63d ab3d 7e3d
00000240: eb88 1fbd 9120 abbc 6cc9 bebc 2588 30bc
00000250: 7001 8e3d e478 e73c 418c bf3d 8ce3 a438
00000260: fd1c fc3c 9769 dc3c 4ee7 003c a2fd 083c
00000270: 826c 193d 7185 0f3e 24df 163d be64 d23c
00000280: 6144 9d3d bfc7 84bd 392a af3d 021e 88bd
00000290: 588f f5bd 40b8 873d dfb4 afbd 3ecc ab3d
000002a0: 5e71 d03d e8ea 153e d057 7f3d 6c74 cc3d
000002b0: 292d fb3d 67d5 d7bd 1881 1e3e 937b cc3d
000002c0: a6b6 ec3c e4f5 4c3d 3a46 11bd 7a9c 133d
000002d0: 2e97 f13c 2f73 72bd f5fe eb3c 7c32 cebc
000002e0: d561 803c ecfa d93c a4f3 52bd 3f32 34bd
000002f0: 2399 84bc 4f7c b63c 9606 b33c 2142 06bd
00000300: 2d51 aebd 18da d1bd 3dea 85bd 2493 57bc
00000310: d806 3f3e 3239 9e3d 8cfe 233e 78e9 7abd
00000320: 8121 003e 082c cf3d 538e e63d e506 7f3b
00000330: 0d31 0a3e e9a7 1d3e dced 223e 3d6e 073e
00000340: 671b 26be 2eca 2fbe c61a 493d 1cc1 99bd
00000350: e7e1 283d 56d5 693e 7b57 a23d 2992 6dbd
00000360: d813 8b3e ffb5 993e 922f 5e3e b23f 663d
00000370: a73b 9b3e 4c65 5e3d 5080 8d3e 336e 783e
00000380: 6c98 58be 1262 bbbd 53b0 05be fee9 763d
00000390: a6ce 3e3e 03b5 273d cb22 743e c602 ecbd
000003a0: c42f db3d d269 ca3d 2171 433d 7229 4fbd
000003b0: 833f 0f3e 4583 793e f2ee 2f3e adb7 2e3e
000003c0: 6d79 dabd 6492 9dbd 2121 10be 8f5a f13c
000003d0: e043 d03d 6f9c 193d 4efa 203e 4041 e8bd
000003e0: 5aa1 fe3d 374c fd3d 6941 4d3d 2ff4 a1bd
000003f0: f7d7 ac3d e1d5 3a3e d280 0c3d 72c3 b83d

encoder.rnn.bias_ih_l0 f4 [48]
0.2574038 0.025354225 0.08711666 0.054063052 0.10168153 -0.03239115 0.1650597 0.10788076
-0.0073301825 0.02201654 -0.042954057 0.06648477 0.09687539 0.12506814 0.13341656 0.1504446
-0.0985707 -0.38732716 -0.28703508 -0.25482932 -0.40707722 -0.31394222 -0.44169414 -0.27410507
-0.14543253 -0.13639647 -0.3436796 -0.23206247 0.08286138 -0.33165538 0.19803704 -0.029973581
-0.094516434 -0.021131208 -0.10183424 0.0837984 0.09348796 -0.04320887 0.14287551 -0.10479438
0.051287983 0.041997377 -0.014261878 -0.09312663 0.06745578 0.14314991 0.07391488 0.091177665
00000000: 6eca 833e aab3 cf3c 386a b23d 3871 5d3d
00000010: 683e d03d 95ac 04bd 6905 293e 97f0 dc3d
00000020: 0732 f0bb 085c b43c 98f0 2fbd 2b29 883d
00000030: 9b66 c63d dd11 003e 5a9e 083e 260e 1a3e
00000040: 6fdf c9bd bf4f c6be 43f6 92be fd78 82be
00000050: 6d6c d0be 09bd a0be bc25 e2be 8057 8cbe
00000060: 44ec 14be 84ab 0bbe c6f6 afbe c9a1 6dbe
00000070: 3ab3 a93d bcce a9be 39ca 4a3e 288b f5bc
00000080: d591 c1bd 5b1b adbc 788e d0bd 7f9e ab3d
00000090: 9e76 bf3d c9fb 30bd f54d 123e 709e d6bd
000000a0: 5913 523d 7105 2c3d a7aa 69bc 2db9 bebd
000000b0: 4226 8a3d e495 123e af60 973d 5bbb ba3d

encoder.rnn.bias_hh_l0 f4 [48]
0.25740382 0.025354207 0.08711666 0.05406305 0.10168149 -0.03239118 0.16505963 0.10788078
-0.007330175 0.022016563 -0.042954046 0.06648476 0.09687537 0.12506816 0.13341653 0.15044463
-0.09857072 -0.38732713 -0.28703508 -0.25482926 -0.4070773 -0.31394225 -0.44169423 -0.2741051
-0.14543255 -0.13639647 -0.34367958 -0.23206241 0.082861334 -0.33165535 0.19803707 -0.029973615
-0.14156277 0.010434633 -0.11797342 0.10713638 0.109099165 -0.058903575 0.15108442 -0.13006842
0.030375695 0.013901099 -0.032604314 -0.11267247 0.061548956 0.1448345 0.06594476 0.09510856
00000000: 6fca 833e a0b3 cf3c 386a b23d 3771 5d3d
00000010: 633e d03d 9dac 04bd 6405 293e 99f0 dc3d
00000020: f731 f0bb 145c b43c 95f0 2fbd 2929 883d
00000030: 9866 c63d de11 003e 589e 083e 280e 1a3e
00000040: 72df c9bd be4f c6be 43f6 92be fb78 82be
00000050: 706c d0be 0abd a0be bf25 e2be 8157 8cbe
00000060: 45ec 14be 84ab 0bbe c5f6 afbe c5a1 6dbe
00000070: 34b3 a93d bbce a9be 3bca 4a3e 3a8b f5bc
00000080: d5f5 10be 06f6 2a3c 0c9c f1bd 526a db3d
00000090: 626f df3d e044 71bd e0b5 1a3e a830 05be
000000a0: 73d6 f83c 6fc1 633c 1a8c 05bd d3c0 e6bd
000000b0: c21a 7c3d 7f4f 143e 0c0e 873d 47c8 c23d

encoder.rnn.weight_ih_l0_reverse f4 [48, 124]
-0.2931981 -0.22388886 -0.20408277 -0.035439525 0.117757805 -0.24387988 0.30779123 -0.15995768
0.22746457 -0.19979024 -0.22427417 -0.25999317 -0.061837498 0.23099746 -0.23000656 -0.2075083
-0.095366895 0.21353109 0.15417801 -0.41691056 0.18585235 -0.25051308 -0.0007790022 -0.24229215
-0.31505996 0.24648985 0.2833294 0.018368503 0.006356277 -0.3486412 0.15216647 0.089805394
-0.056042604 -0.19679725 0.1433295 0.28605255 0.12809947 0.20680593 -0.09580176 -0.20071548
-0.2719132 0.18698272 -0.12423444 -0.16214967 -0.06879433 -0.101762444 0.36447054 -0.31276092
0.170066 0.33257064 0.18317917 0.18745756 0.1127441 0.2615147 -0.24791782 -0.22880952
0.3793156 0.16430932 -0.27855662 -0.124225885 -0.02214429 0.4347302 0.32600993 0.3081193
0.31504956 -0.2884108 -0.23415527 0.16447407 -0.24151725 0.033615284 0.051561292 -0.19760881
0.3658199 -0.28479883 0.030071652 -0.10408762 0.18396291 -0.22255132 0.26035243 0.30505484
0.046962388 -0.29711375 0.12336779 -0.027812617 0.33389193 0.4105195 -0.029974995 -0.41257694
0.052613746 0.1181803 0.06365524 0.21539734 0.1667722 -0.113068044 -0.03707404 -0.04671301
-0.34251985 0.17596027 -0.30087668 0.112523824 -0.11115826 -0.3665599 0.3571473 -0.21459284
0.1259103 0.16888377 -0.34533724 0.27832803 0.27168736 -0.29216358 -0.2620061 -0.21855801
0.2267693 -0.118467815 -0.30284724 0.024506051 -0.040686686 -0.17968735 -0.113122076 -0.24350567
0.29392514 -0.03985278 0.20808497 -0.2504052 0.20489837 -0.12592839 -0.15405996 -0.18763462
0.19834521 -0.11238459 0.15780656 -0.16433443 0.088953726 -0.16300014 -0.03466493 -0.12337131
0.22371244 0.12462074 -0.1425102 -0.1290425 -0.12115985 0.15541601 0.12634641 -0.0137779275
0.229691 -0.10399801 -0.18408883 -0.07994069 -0.0724846 0.21725728 0.12530257 0.17774762
0.22110426 0.09225166 0.23339622 0.15186659 -0.20325042 -0.019081865 -0.11733378 -0.027634384
-0.11811877 0.12810548 -0.18201733 -0.17267612 0.1498776 0.1787448 -0.15039848 -0.16282986
0.2039916 -0.14871113 0.011694058 -0.098382704 0.1437253 0.06292437 0.13728692 -0.08878616
0.21672395 0.16958274 -0.10328653 -0.1490637 -0.11807083 -0.13769515 0.0726445 -0.18570186
-0.21089523 0.10761022 0.068801366 0.106063694 -0.08870147 -0.10198307 -0.14186288 0.09360547
0.15218306 0.18645893 0.15907212 -0.12708123 -0.0053474717 0.15173955 0.1140502 -0.12273064
0.07828995 -0.12628669 -0.11658356 0.085636854 -0.1075617 -0.13272004 0.225813 0.25193408
0.15650712 0.0066808574 -0.13041343 -0.057007413 0.24761608 0.16302022 -0.16903305 0.17208037
-0.111032136 0.11713998 -0.09225426 -0.07183438 0.026355345 0.021663683 0.020409001 -0.17769307
-0.03959817 0.115992144 -0.15786707 -0.10988128 -0.041452684 0.1216626 0.059062436 0.18008338
0.14546771 0.01580266 -0.11361158 -0.10249639 0.16001879 0.11461989 0.10758781 -0.09732078
-0.2358411 -0.23340473 -0.16557965 0.102739654 -0.24289826 0.20706834 0.052386895 -0.155422
-0.074011184 -0.13569444 -0.15007314 -0.11110321 0.1662184 -0.19626911 0.18766558 -0.1804024
00000000: 101e 96be 1f43 65be 13fb 50be 0929 11bd
00000010: 012b f13d a6bb 79be d096 9d3e f2cb 23be
00000020: 79ec 683e d095 4cbe 21a8 65be d31d 85be
00000030: 5149 7dbd 998a 6c3e d786 6bbe 0e7d 54be
00000040: b84f c3bd e5a7 5a3e d7e0 1d3e 4d75 d5be
00000050: 1450 3e3e 4043 80be f435 4cba 6f1b 78be
00000060: 8a4f a1be d667 7c3e 8d10 913e 8b79 963c
00000070: 5148 d03b 1981 b2be 87d1 1b3e e4eb b73d
00000080: ee8c 65bd 3885 49be f8c4 123e 7b75 923e
00000090: 822c 033e efc4 533e b733 c4bd 5c88 4dbe
000000a0: 3538 8bbe 6678 3f3e a06e febd 900a 26be
000000b0: 0be4 8cbd d468 d0bd e29b ba3e 3322 a0be
000000c0: c825 2e3e b346 aa3e 5293 3b3e e0f4 3f3e
000000d0: 61e6 e63d 41e5 853e 2bde 7dbe 0b4d 6abe
000000e0: a835 c23e b440 283e f99e 8ebe 246a febd
000000f0: f167 b5bc f594 de3e c6ea a63e d0c1 9d3e
00000100: 2d4e a13e 95aa 93be 66c6 6fbe e46b 283e
00000110: 4c50 77be 2eb0 093d ef31 533d f759 4abe
00000120: bf4c bb3e 27d1 91be d358 f63c e42b d5bd
00000130: c660 3c3e 7ee4 63be ea4c 853e 2630 9c3e
00000140: a25b 403d 4b1f 98be 40a8 fc3d 49d7 e3bc
00000150: e2f3 aa3e 9d2f d23e 1f8e f5bc 493d d3be
00000160: 8381 573d 8308 f23d ae5d 823d 1f91 5c3e
00000170: 55c6 2a3e 3890 e7bd f3da 17bd 2456 3fbd
00000180: c35e afbe ee2e 343e 820c 9abe e472 e63d
00000190: f1a6 e3bd bdad bbbe 03dc b63e 3abe 5bbe
000001a0: a1ee 003e deef 2c3e 0bd0 b0be 0381 8e3e
000001b0: 9b1a 8b3e 7796 95be aa25 86be accd 5fbe
000001c0: 3636 683e 419f f2bd cb0e 9bbe eac0 c83c
000001d0: 15a7 26bd f6ff 37be 8cac e7bd 8d59 79be
000001e0: 5b7d 963e ab3c 23bd 3a14 553e 1c35 80be
000001f0: e1d0 513e 5ff3 00be e5c1 1dbe 4a23 40be
00000200: 021b 4b3e e429 e6bd 0b98 213e 4947 28be
00000210: 5f2d b63d 82e9 26be d0fc 0dbd 19aa fcbd
00000220: e014 653e 2939 ff3d 32ee 11be b823 04be
00000230: a822 f8bd 6025 1f3e f460 013e d1bc 61bc
00000240: 1e34 6b3e e9fc d4bd c881 3cbe f2b7 a3bd
00000250: ce72 94bd b178 5e3e 514f 003e 7903 363e
00000260: 2869 623e 70ee bc3d 6bff 6e3e ea82 1b3e
00000270: e120 50be 9251 9cbc b14c f0bd 8161 e2bc
00000280: 41e8 f1bd 152e 033e c062 3abe 02d2 30be
00000290: 8379 193e e008 373e 0f02 1abe dfbc 26be
000002a0: 2de3 503e bb47 18be 6f98 3f3c df7c c9bd
000002b0: ba2c 133e 7ede 803d f194 0c3e 85d5 b5bd
000002c0: e2ec 5d3e 19a7 2d3e e387 d3bd 28a4 18be
000002d0: 1fcf f1bd f5ff 0cbe a4c6 943d a128 3ebe
000002e0: ebf4 57be bf62 dc3d bbe7 8c3d ec37 d93d
000002f0: 1ea9 b5bd 80dc d0bd 8144 11be 3ab4 bf3d
00000300: e0d5 1b3e 17ef 3e3e cde3 223e 9521 02be
00000310: d839 afbb 9d61 1b3e 2793 e93d 345a fbbd
00000320: 7b56 a03d 4c51 01be 5dc3 eebd 6062 af3d
00000330: 4f49 dcbd c3e7 07be 863b 673e 81fd 803e
00000340: 6743 203e 18eb da3b 198b 05be 9b80 69bd
00000350: 128f 7d3e c6ee 263e 0017 2dbe d635 303e
00000360: d164 e3bd 16e7 ef3d cdef bcbd e71d 93bd
00000370: 2ae7 d73c 0978 b13c c730 a73c 2cf5 35be
00000380: b131 22bd 4a8d ed3d e8a7 21be 7009 e1bd
00000390: 4aca 29bd 3e2a f93d 74eb 713d c767 383e
000003a0: 7df5 143e 9474 813c 30ad e8bd a1e9 d1bd
000003b0: f7db 233e d5bd ea3d ff56 dc3d 1e50 c7bd
000003c0: 5480 71be a601 6fbe b68d 29be 2b69 d23d
000003d0: 52ba 78be b909 543e a493 563d f226 1fbe
000003e0: 2d93 97bd 7cf3 0abe c6ac 19be 148a e3bd
000003f0: 2835 2a3e c5fa 48be 682b 403e 68bb 38be

encoder.rnn.weight_hh_l0_reverse f4 [48, 16]
-0.093934745 0.016122468 0.25221777 -0.013090782 -0.10444811 -0.0729229 -0.025993466 -0.041452132
-0.028819585 -0.040230077 0.008448791 0.010860533 -0.04053865 0.047123887 -0.017820353 -0.06687108
0.09132132 -0.29576474 -0.13435979 -0.121652514 0.13719864 0.26315475 0.32386917 0.38760856
0.028532522 0.3442147 0.22451553 -0.31585488 0.3935483 -0.031202015 0.33343187 0.10551079
0.30794114 -0.01848101 -0.12878844 -0.043094072 -0.23455559 0.0011642859 0.044527754 -0.0065307664
0.34861487 0.03467233 0.025724556 -0.04537785 0.028275074 0.33573478 -0.0067044017 0.071171515
0.34124777 -0.3388371 -0.20707722 -0.11660259 0.04596519 0.3362872 0.4312812 0.37411296
0.1854777 0.36987463 0.19393535 -0.40419343 0.42604277 0.07800345 0.41955793 0.118787974
0.09220579 -0.025453547 0.02703757 -0.041651238 0.116472565 -0.08529495 -0.024737565 0.04945847
0.09672297 0.037409134 0.038344637 -0.01769277 -0.008287496 0.0057278033 -0.051565286 0.03897385
0.43480912 0.10348968 -0.4425735 -0.11707189 -0.35603052 -0.17057444 -0.17753467 0.05319535
0.37364078 -0.09931467 0.11504975 0.15818664 -0.09707933 0.43313184 -0.17308253 0.21334697
0.4009253 -0.2815278 -0.56802994 -0.4046794 -0.12056337 -0.03813012 0.10477171 0.25980434
0.3142104 0.18530107 0.44584128 -0.12215683 0.18420711 0.298454 0.10702788 0.58055985
0.41211656 -0.16525897 -0.4465566 -0.35330155 -0.057932794 0.13806143 0.102307945 0.034760628
0.30398017 0.0547146 0.31070498 -0.1047214 0.09980835 0.25617546 0.07814897 0.4631184
-0.10485472 -0.014014643 0.059619475 -0.025936807 0.006059385 -0.11700508 -0.053514373 -0.09283384
-0.087793544 -0.041703373 -0.009855449 0.024438426 -0.07479388 -0.025043787 -0.034329727 0.010391245
0.25563252 -0.20356712 -0.46746302 -0.3403624 -0.010565033 0.037489396 0.07670598 0.15453745
0.17511478 0.0991879 0.3506517 -0.039857216 0.12411323 0.18732174 0.05085618 0.4503928
0.3784302 -0.241347 -0.15372555 -0.15308736 -0.04615564 0.28657097 0.336395 0.28617033
0.2356094 0.28172973 0.18357445 -0.31315556 0.32223773 0.09040918 0.3244656 0.08829315
0.2996737 -0.3578116 -0.52560806 -0.49885625 -0.076040335 0.03631919 0.16483092 0.27901664
0.23918103 0.21896127 0.51436514 -0.1695881 0.252375 0.23505203 0.17495239 0.67892647
0.23875505 -0.2389273 -0.31727728 -0.29633972 -0.0073403628 0.15288354 0.18146445 0.22309017
0.144584 0.15654305 0.3410637 -0.13863139 0.17107157 0.14767732 0.1471899 0.30853218
0.046721574 0.08320163 -0.25147045 -0.05648703 -0.19836655 -0.2873829 -0.18843333 -0.01726289
0.11577603 -0.060228243 0.035641138 0.18787889 -0.115548834 0.16552044 -0.23456204 0.091919504
0.22298847 -0.56849873 -0.38950682 -0.8116419 -0.03688006 0.071670994 0.1953077 0.326406
0.20234042 0.24802586 0.86551785 -0.20664911 0.34020486 0.19482477 0.2232374 0.94663554
0.3289579 -0.24269174 -0.13255268 -0.032042336 -0.07319249 0.25804967 0.36578208 0.26486745
0.1981734 0.2914054 0.06555977 -0.3633267 0.33693966 0.118226394 0.36107096 -0.0639494
00000000: dc60 c0bd 4413 843c b022 813e b87a 56bc
00000010: e4e8 d5bd 9a58 95bd 40f0 d4bc b6c9 29bd
00000020: 0d17 ecbc 4bc8 24bd cc6c 0a3c 61f0 313c
00000030: db0b 26bd fa04 413d fdfb 91bc b4f3 88bd
00000040: ac06 bb3d 7a6e 97be 9d95 09be f424 f9bd
00000050: cd7d 0c3e 38bc 863e 2ed2 a53e a174 c63e
00000060: 09bd e93c e93c b03e 66e7 653e bbb7 a1be
00000070: 2a7f c93e 5e9b ffbc 95b7 aa3e 0b16 d83d
00000080: 76aa 9d3e 7d65 97bc 1ee1 03be 6983 30bd
00000090: 572f 70be f49a 983a bc62 363d 0a00 d6bb
000000a0: a67d b23e 9304 0e3d 4ebc d23c 20de 39bd
000000b0: 21a1 e73c 6ee5 ab3e 99b0 dbbb 5fc2 913d
000000c0: 07b8 ae3e 0e7c adbe 0d0c 54be 57cd eebd
000000d0: ff45 3c3d d62d ac3e e4d0 dc3e bc8b bf3e
000000e0: deed 3d3e 3560 bd3e fd96 463e 71f2 cebe
000000f0: 4722 da3e 46c0 9f3d 4cd0 d63e 1c47 f33d
00000100: 64d6 bc3d f583 d0bc e57d dd3c 7d9a 2abd
00000110: 2b89 ee3d 1eaf aebd 6fa6 cabc f794 4a3d
00000120: b116 c63d 523a 193d 440f 1d3d 6ef0 90bc
00000130: 47c8 07bc 4cb0 bb3b 1f36 53bd 0ba3 1f3d
00000140: 4d9f de3e 66f2 d33d fe98 e2be 63c3 efbd
00000150: a249 b6be 11ab 2ebe a6cb 35be 5ee3 593d
00000160: d84d bf3e 7d65 cbbd 349f eb3d aefb 213e
00000170: 87d1 c6bd 75c3 dd3e 8c3c 31be a177 5a3e
00000180: 1546 cd3e 6924 90be 696a 11bf 2332 cfbe
00000190: eee9 f6bd 542e 1cbd 8d92 d63d 1305 853e
000001a0: 30e0 a03e 90bf 3d3e 4f45 e43e 5c2d fabd
000001b0: caa0 3c3e f6ce 983e 6f31 db3d 929f 143f
000001c0: f100 d33e a639 29be 11a3 e4be f1e3 b4be
000001d0: f04a 6dbd fa5f 0d3e d486 d13d 2961 0e3d
000001e0: 4aa3 9b3e 6b1c 603d b914 9f3e 2c78 d6bd
000001f0: 5268 cc3d 6e29 833e 910c a03d db1d ed3e
00000200: 12be d6bd ac9d 65bc 8d33 743d 6d79 d4bc
00000210: ce8d c63b 5ca0 efbd e331 5bbd ab1f bebd
00000220: 1acd b3bd 28d1 2abd c078 21bc 1833 c83c
00000230: 892d 99bd a128 cdbc 549d 0cbd 0a40 2a3c
00000240: 44e2 823e e673 50be 5057 efbe fb43 aebe
00000250: f618 2dbc 7b8e 193d 0618 9d3d 113f 1e3e
00000260: 4a51 333e 0723 cb3d 9f88 b33e 5241 23bd
00000270: 142f fe3d 45d1 3f3e 924e 503d e399 e63e
00000280: 9ac1 c13e ab23 77be 3b6a 1dbe efc2 1cbe
00000290: b20d 3dbd 6eb9 923e f73b ac3e eb84 923e
000002a0: 9743 713e e13e 903e f1fa 3b3e ed55 a0be
000002b0: 58fc a43e 7328 b93d 5b20 a63e 0ad3 b43d
000002c0: d56e 993e 1533 b7be 408e 06bf 166a ffbe
000002d0: 09bb 9bbd 6ec3 143d 70c9 283e 45db 8e3e
000002e0: dfeb 743e 6237 603e 6fad 033f 81a8 2dbe
000002f0: 4c37 813e 7bb1 703e b826 333e 20ce 2d3f
00000300: 347c 743e 5ca9 74be 2b72 a2be d7b9 97be
00000310: 6d87 f0bb 818d 1c3e d1d1 393e c071 643e
00000320: d40d 143e d24c 203e e79f ae3e 63f5 0dbe
00000330: 632d 2f3e b938 173e f3b8 163e eef7 9d3e
00000340: 1f5f 3f3d 9e65 aa3d bcc0 80be f25e 67bd
00000350: 9a20 4bbe da23 93be abf4 40be e76a 8dbc
00000360: fc1b ed3d e4b1 76bd 71fc 113d 5363 403e
00000370: dea4 ecbd 317e 293e 0831 70be 4b40 bc3d
00000380: 1757 643e 2289 11bf 706d c7be c3c7 4fbf
00000390: 8c0f 17bd 3ec8 923d befe 473e b01e a73e
000003a0: 5432 4f3e 7efa 7d3e 9492 5d3f d39b 53be
000003b0: 552f ae3e 2580 473e 5898 643e b556 723f
000003c0: 2b6d a83e 2f84 78be e4bb 07be d33e 03bd
000003d0: f2e5 95bd 161f 843e ca47 bb3e b59c 873e
000003e0: f8ed 4a3e 1733 953e 3344 863d f505 babe
000003f0: 5b83 ac3e ae20 f23d 4bde b83e e7f7 82bd

encoder.rnn.bias_ih_l0_reverse f4 [48]
0.25142938 -0.0010085222 0.256609 -0.07060905 0.08527274 0.18661766 0.20908219 0.06984219
0.2627324 0.16947314 -0.029114129 0.15724987 0.09750697 0.30099663 0.11375438 0.0113775665
-0.3205761 -0.2943623 -0.1644583 -0.22962105 -0.19101714 -0.07671614 -0.30000278 -0.10805697
-0.2550261 -0.30186525 -0.24753124 -0.31330252 -0.36183 -0.17873286 -0.38644698 -0.2206727
-0.07380206 -0.09273191 -0.0048178285 -0.1701438 -0.0038136127 -0.09889992 -0.03342561 0.08367939
-0.010600953 0.03786951 0.16440085 0.03515026 0.036722332 -0.019616185 0.03447351 0.11889195
00000000: 5abb 803e 6430 84ba 4162 833e 7a9b 90bd
00000010: 79a3 ae3d b318 3f3e a419 563e 6c09 8f3d
00000020: dc84 863e 5e8a 2d3e c180 eebc 1c06 213e
00000030: bcb1 c73d 3b1c 9a3e 0ef8 e83d f968 3a3c
00000040: 8d22 a4be a8b6 96be c267 28be c821 6bbe
00000050: ff99 43be 5a1d 9dbd f799 99be f94c ddbd
00000060: c892 82be 158e 9abe d478 7dbe 3069 a0be
00000070: c841 b9be bf05 37be 61dc c5be 06f8 61be
00000080: 8925 97bd 3aea bdbd e0de 9dbb 2d3a 2ebe
00000090: ceed 79bb 0b8c cabd 4be9 08bd 1a60 ab3d
000000a0: 9faf 2dbc 0f1d 1b3d b258 283e b8f9 0f3d
000000b0: 286a 163d 1fb2 a0bc 1834 0d3d 9f7d f33d

encoder.rnn.bias_hh_l0_reverse f4 [48]
0.25142932 -0.0010084928 0.256609 -0.070609115 0.085272714 0.18661766 0.20908214 0.06984217
0.2627324 0.16947313 -0.029114135 0.15724985 0.097507015 0.3009967 0.11375438 0.011377553
-0.320576 -0.2943623 -0.16445832 -0.22962107 -0.19101712 -0.07671621 -0.30000287 -0.108057
-0.25502616 -0.3018652 -0.2475313 -0.31330252 -0.36182994 -0.17873281 -0.38644698 -0.22067259
-0.03546364 -0.051174145 0.0022320256 -0.17290199 -0.07998961 -0.11662099 -0.048207592 0.08878891
0.025995094 0.05602248 0.17571996 0.045295075 0.034893718 -0.00037962315 -0.055345323 0.15544903
00000000: 58bb 803e 672f 84ba 4162 833e 839b 90bd
00000010: 76a3 ae3d b318 3f3e a119 563e 6909 8f3d
00000020: dc84 863e 5d8a 2d3e c480 eebc 1b06 213e
00000030: c2b1 c73d 3d1c 9a3e 0ef8 e83d eb68 3a3c
00000040: 8a22 a4be a8b6 96be c367 28be c921 6bbe
00000050: fe99 43be 631d 9dbd fa99 99be fd4c ddbd
00000060: ca92 82be 138e 9abe d878 7dbe 3069 a0be
00000070: c641 b9be bc05 37be 61dc c5be fff7 61be
00000080: 5242 11bd fb9b 51bd 2d47 123b 380d 31be
00000090: 98d1 a3bd fcd6 eebd 5375 45bd f6d6 b53d
000000a0: aaf3 d43c d477 653d efef 333e 5487 393d
000000b0: b7ec 0e3d 2808 c7b9 c7b1 62bd 082e 1f3e

encoder.fc.weight f4 [16, 32]
-0.23467855 0.018038992 -0.08110339 0.07649111 0.10568786 -0.06592621 0.10522 -0.08493696
0.18684512 0.24587262 -0.073121965 -0.076774634 0.32594305 0.11390678 0.32155263 0.32272023
0.03472706 -0.062311154 -0.056528345 -0.053687982 -0.0899581 -0.034954667 0.026696123 0.031214764
0.024736451 0.07908878 0.056314155 -0.07029683 0.0313995 0.044729177 0.07204493 0.050114807
-0.12673382 0.112184875 -0.12826557 0.13889037 0.14546618 -0.15248461 0.13870703 -0.1467574
0.008577144 0.09947363 -0.15569316 -0.14277193 0.15024719 0.12207656 0.15786017 0.14390716
-0.009714846 -0.15180792 0.017109971 -0.15223858 -0.097884305 -0.047108945 0.040472 0.14578737
0.034695197 0.12991896 0.15297064 -0.05244294 0.14149669 0.018501857 0.0725078 0.12967962
0.093460046 -0.14592683 0.13359602 -0.12575935 -0.11941609 0.12061051 -0.10690307 0.13119622
0.058519125 0.04279939 0.13124694 0.11824995 0.004169888 -0.10891024 0.033000026 -0.03659501
0.008498874 -0.038350623 -0.07582352 -0.078415334 0.11977884 0.08822803 0.2912597 0.10942438
-0.044357106 0.12584293 0.03283874 -0.31758973 0.14426103 0.022882465 0.2790634 0.039628018
-0.25350472 0.079308525 -0.1124008 0.12460278 0.13963778 -0.13894357 0.13934341 -0.12729806
0.1297874 0.21267179 -0.13489385 -0.12538658 0.26300693 0.13708173 0.29430157 0.29405102
-0.004894504 -0.09225841 -0.012800297 -0.076126255 -0.075046845 -0.14555152 -0.067139804 0.04720412
0.024622882 0.028254587 0.09102954 0.054656498 0.0028457306 0.028428482 -0.09337752 0.054040823
0.03907765 0.051359147 0.028650241 -0.018081572 -0.029927723 0.0041958285 -0.03797728 0.027439985
-0.16696016 -0.1605672 -0.0020820124 0.023573512 -0.0267479 -0.028220966 -0.07104263 -0.09587577
0.07405215 -0.06152531 -0.23080702 -0.037016794 -0.06608344 0.3386621 0.40598294 0.090446174
-0.03590427 0.011934094 0.05360926 -0.37582093 0.083522215 0.18794301 0.3916427 -0.0059796283
-0.20924978 0.11187196 -0.14649116 0.122786306 0.13039649 -0.1379154 0.17382693 -0.14564563
0.13297567 0.2171109 -0.0942391 -0.13635525 0.3151534 0.13867584 0.23827101 0.2309453
0.10387763 -0.1293342 -0.12831308 -0.11483738 -0.15599549 -0.0555897 0.041852668 0.09736695
0.07231242 0.13600095 0.103394575 -0.054561153 0.08736857 0.069930375 0.04749029 0.13570732
-0.10226553 0.0918172 -0.1044526 0.11391142 0.10497371 -0.10392382 0.10895561 -0.09784026
0.028601682 0.09525094 -0.10884702 -0.10396212 0.13731307 0.11219773 0.14172906 0.09759385
0.020598087 -0.119798 0.008652004 -0.12645437 -0.073335126 -0.01702934 0.09535974 0.104315564
0.062451612 0.12488476 0.10326944 -0.12631963 0.09464605 0.030949067 0.099194735 0.09710984
-0.00728714 -0.0055949963 -0.034269456 0.038015135 0.04010523 -0.020471713 0.024113163 -0.03528916
-0.06327036 -0.11029393 -0.026033895 -0.033261865 -0.032646038 0.045583043 -0.04896785 -0.077571675
0.005711524 0.12745194 0.10859508 0.13937469 -0.12915915 -0.24452053 -0.33419523 -0.18793437
0.041230008 -0.20431934 -0.114263915 0.37238318 -0.20830452 0.030891946 -0.3623418 -0.051233314
00000000: 934f 70be 82c6 933c 8919 a6bd 5fa7 9c3d
00000010: e072 d83d 5204 87bd 957d d73d 6ef3 adbd
00000020: 5454 3f3e 08c6 7b3e f8c0 95bd 053c 9dbd
00000030: 02e2 a63e f547 e93d 8ca2 a43e 963b a53e
00000040: f63d 0e3d fb39 7fbd 448a 67bd eee7 5bbd
00000050: f43b b8bd a02c 0fbd d4b1 da3c 1bb6 ff3c
00000060: 19a4 ca3c 4cf9 a13d aca9 663d c9f7 8fbd
00000070: c39c 003d f135 373d 4b8c 933d 2f45 4d3d
00000080: 83c6 01be 2fc1 e53d 0d58 03be 4739 0e3e
00000090: 16f5 143e ed24 1cbe 3709 0e3e 9247 16be
000000a0: 2687 0c3c d5b8 cb3d 076e 1fbe ce32 12be
000000b0: 66da 193e 4703 fa3d 19a6 213e 665c 133e
000000c0: 042b 1fbc 8973 1bbe 362a 8c3c 6ee4 1bbe
000000d0: 9177 c8bd 4ff5 40bd f8c5 253d 4949 153e
000000e0: 8d1c 0e3d 7a09 053e 56a4 1c3e 69ce 56bd
000000f0: 82e4 103e 3591 973c f87e 943d bcca 043e
00000100: fb67 bf3d d86d 15be 65cd 083e 0fc7 00be
00000110: 6c90 f4bd a502 f73d ffef dabd 4d58 063e
00000120: c0b1 6f3d 6a4e 2f3d 9965 063e 082d f23d
00000130: 8ea3 883b 550c dfbd 092b 073d a6e4 15bd
00000140: dc3e 0b3c 8b15 1dbd 5d49 9bbd 3898 a0bd
00000150: 9c4e f53d e6b0 b43d fe1f 953e e419 e03d
00000160: ccaf 35bd f8dc 003e ea81 063d 1f9b a2be
00000170: 2ab9 133e 0274 bb3c 66e1 8e3e fd50 223d
00000180: 5fcb 81be 826c a23d 6432 e6bd be2f ff3d
00000190: 35fd 0e3e 3947 0ebe 0ab0 0e3e 6c5a 02be
000001a0: fde6 043e a2c6 593e 9d21 0abe 5765 00be
000001b0: d8a8 863e 275f 0c3e b2ae 963e db8d 963e
000001c0: 1362 a0bb faf1 bcbd 56b8 51bc 15e8 9bbd
000001d0: 29b2 99bd 750b 15be 9880 89bd 1b59 413d
000001e0: edb5 c93c 2a76 e73c b26d ba3d 7edf 5f3d
000001f0: 707f 3a3b d9e2 e83c b73c bfbd e959 5d3d
00000200: e30f 203d f85d 523d e9b3 ea3c ce1f 94bc
00000210: fc2a f5bc 297d 893b 108e 1bbd d2c9 e03c
00000220: 9bf7 2abe ba6b 24be 5f72 08bb 3d1d c13c
00000230: 691e dbbc a82f e7bc cc7e 91bd 845a c4bd
00000240: a7a8 973d f701 7cbd ad58 6cbe ec9e 17bd
00000250: c156 87bd 1e65 ad3e ffdc cf3e d83b b93d
00000260: 5b10 13bd 3887 433c 6295 5b3d 9a6b c0be
00000270: b20d ab3d 2274 403e 6485 c83e c2f0 c3bb
00000280: 9345 56be 201d e53d c701 16be 6377 fb3d
00000290: a886 053e b239 0dbe b0ff 313e 2124 15be
000002a0: c62a 083e 5252 5e3e 6e00 c1bd b6a0 0bbe
000002b0: c95b a13e 0a01 0e3e 51fd 733e ed7c 6c3e
000002c0: cbbd d43d 2f70 04be 8164 03be dc2f ebbd
000002d0: 48bd 1fbe 06b2 63bd b46d 2b3d 5368 c73d
000002e0: 8918 943d d543 0b3e 89c0 d33d 847b 5fbd
000002f0: 4bee b23d a837 8f3d 2e85 423d dcf6 0a3e
00000300: 9770 d1bd a80a bc3d 3feb d5bd 644a e93d
00000310: 75fc d63d 03d6 d4bd 1e24 df3d 7960 c8bd
00000320: 134e ea3c ed12 c33d 30eb debd 18ea d4bd
00000330: cc9b 0c3e ecc7 e53d 6c21 113e 49df c73d
00000340: 52bd a83c a758 f5bd 23c1 0d3c 417d 01be
00000350: ba30 96bd 1d81 8bbc f84b c33d 66a3 d53d
00000360: 43cd 7f3d 95c3 ff3d ee7e d33d ef59 01be
00000370: cad5 c13d e688 fd3c 9c26 cb3d 86e1 c63d
00000380: f6c8 eebb 3b56 b7bb 215e 0cbd c2b5 1b3d
00000390: 6245 243d 4bb4 a7bc f888 c53c 5e8b 10bd
000003a0: e493 81bd c9e1 e1bd 0945 d5bc 983d 08bd
000003b0: dab7 05bd 49b5 3a3d 8392 48bd e6dd 9ebd
000003c0: bc27 bb3b c382 023e 1967 de3d 3db8 0e3e
000003d0: 4c42 04be 9763 7abe a31b abbe de71 40be
000003e0: cce0 283d 1739 51be 3303 eabd 02a9 be3e
000003f0: c84d 55be 1b11 fd3c dd84 b9be 06da 51bd

encoder.fc.bias f4 [16]
0.0646347 0.11100487 -0.10811968 0.09627833 -0.06430803 0.0870107 0.07021593 0.053173807
0.103366345 -0.076994434 0.046359643 0.08946757 -0.030289687 0.0062251044 0.06527915 -0.05095976
00000000: 335f 843d 8556 e33d da6d ddbd 932d c53d
00000010: eeb3 83bd aa32 b23d 5fcd 8f3d c7cc 593d
00000020: bcb1 d33d 42af 9dbd 9ce3 3d3d c63a b73d
00000030: 1422 f8bc f6fb cb3b 13b1 853d 2ebb 50bd

decoder.attention.attn.weight f4 [16, 48]
-0.5979518 -0.085172415 0.14010401 0.11963677 -0.08001834 -0.60133684 -0.11746241 0.58926535
0.38307947 -0.49163082 -0.4842954 -0.28422084 -0.6423202 0.44697502 0.20704982 0.038730323
-0.049850054 0.016717058 -0.00513452 -0.01655568 -0.00872058 -0.0073367017 -0.0040968177 -0.0031053517
-0.053984046 -0.09612593 -0.006174548 -0.0011103963 -0.17986415 -0.012442552 0.021471858 -0.009005883
-0.22452548 -0.037000194 0.26080847 -0.00014281804 0.13520674 0.0043471274 0.029236171 0.010556278
-0.3413715 0.07192512 -0.016730564 -0.02470846 0.06321175 -0.37173694 0.05166825 -0.041372757
0.5889526 0.052959494 -0.08981194 -0.08467661 0.1355764 0.61761665 0.17095922 -0.53940994
-0.4170535 0.48677632 0.4506267 0.27483645 0.6585818 -0.4505879 -0.20868462 -0.13268772
0.071781255 -0.0068991026 0.010224278 0.0051897257 0.023445258 0.020840762 0.0038095098 -0.007771176
0.020647686 0.036449898 -0.0072391317 0.009591519 0.13079451 0.025308387 -0.06996636 -0.036568027
0.2232077 0.060661983 -0.24281438 0.02378056 -0.1743862 -0.02208721 -0.023078084 -0.03144323
0.30388346 -0.027127266 -0.0012621146 0.035738293 -0.0411991 0.42079237 -0.050515857 0.045396876
-0.62150073 -0.0735844 0.114314765 0.12620379 -0.11496762 -0.62575775 -0.15456872 0.51554686
0.41589326 -0.49781612 -0.50143903 -0.2675252 -0.69204026 0.47434306 0.23673475 0.111811414
-0.068604246 0.033103947 -0.0050329766 -0.01622293 -0.014974846 0.0040508336 -0.0019622657 0.0044526383
-0.06568148 -0.080424175 0.009525182 -0.0040246844 -0.13100003 -0.02239915 0.08958439 0.049434874
-0.22522776 -0.044618864 0.23983599 -0.0021275114 0.16151364 0.016255213 0.026939742 0.043377
-0.30133304 0.06409307 0.0022158627 -0.018138945 0.05661402 -0.4250668 0.05737128 -0.051787365
0.61603504 0.071208134 -0.13638486 -0.11520587 0.11583985 0.6107504 0.12297281 -0.5589506
-0.39170828 0.46421397 0.46364602 0.27790964 0.6466176 -0.44912028 -0.21495795 -0.09344862
0.05676008 -0.0052783983 -0.012481362 -0.0010750665 0.019342842 0.037303515 -0.0051546674 -0.018838817
0.047848064 0.08162532 -0.012076267 0.0042993645 0.16704342 0.014116524 -0.059369337 -0.031851307
0.22599165 0.05729462 -0.24212979 -0.005559373 -0.14408907 -0.0031210196 -0.018512784 -0.03482744
0.32902226 -0.048404146 -0.0028981855 0.02878794 -0.056684718 0.3868651 -0.04717068 0.04798025
-0.7004455 -0.07517746 0.24575657 0.14021426 -0.1799452 -0.6862384 -0.08452854 0.47430193
0.42738128 -0.5135563 -0.5506303 -0.22879367 -0.64968234 0.510656 0.26864544 0.13431795
-0.066820085 0.017794738 -0.010724202 0.009554389 0.006245823 -0.010532224 -0.0041733976 0.0099081425
-0.050371762 -0.096435785 0.017289251 -0.019475942 -0.1284456 -0.028773952 0.11928788 0.061783794
-0.20450449 -0.08534976 0.2527938 0.00079456635 0.12938364 0.0068268133 0.024414942 0.028606603
-0.32398129 0.075956486 0.021124175 -0.004362919 0.060695816 -0.39375123 0.06858382 -0.050278984
0.5872075 0.072852366 -0.11814141 -0.10450375 0.10212604 0.6018894 0.13419245 -0.5722416
-0.38881144 0.49419498 0.46433088 0.29226196 0.69517916 -0.4648553 -0.21145616 -0.08257061
00000000: 5f13 19bf e06e aebd 6d77 0f3e 1f04 f53d
00000010: a8e0 a3bd 36f1 19bf 2290 f0bd 18da 163f
00000020: fe22 c43e 09b7 fbbe 91f5 f7be 6585 91be
00000030: 196f 24bf e9d9 e43e de04 543e b0a3 1e3d
00000040: 922f 4cbd 36f2 883c 7a3f a8bb c79f 87bc
00000050: c3e0 0ebc b768 f0bb 993e 86bb 2883 4bbb
00000060: 601e 5dbd acdd c4bd dd53 cabb b88a 91ba
00000070: 4f2e 38be d8db 4bbc c0e5 af3c 698d 13bc
00000080: 02ea 65be 848d 17bd b088 853e 6dc1 15b9
00000090: a373 0a3e 5972 8e3b b280 ef3c 3df4 2c3c
000000a0: 3fc8 aebe 7a4d 933d 890e 89bc 6569 cabc
000000b0: 2975 813d 4e54 bebe 16a2 533d 7b76 29bd
000000c0: 99c5 163f 0eec 583d 53ef b7bd ee6a adbd
000000d0: 8ad4 0a3e 201c 1e3f ef0f 2f3e c516 0abf
000000e0: 0988 d5be bf3a f93e 8bb8 e63e 5db7 8c3e
000000f0: d198 283f 75b3 e6be 6cb1 55be 4adf 07be
00000100: 0d02 933d de11 e2bb bb83 273c 930e aa3b
00000110: 4510 c03c 3fba aa3c f8a8 793b 59a5 febb
00000120: 5625 a93c 7d4c 153d 3d36 edbb bf25 1d3c
00000130: ffee 053e 8953 cf3c 864a 8fbd 5bc8 15bd
00000140: 8f90 643e b378 783d 55a4 78be 73cf c23c
00000150: 4c92 32be 3df0 b4bc 400e bdbc 9eca 00bd
00000160: 9d96 9b3e 003a debc 8a6d a5ba 5162 123d
00000170: 63c0 28bd 1972 d73e b7e9 4ebd 13f2 393d
00000180: ac1a 1fbf 6bb3 96bd dc1d ea3d 913b 013e
00000190: 2574 ebbd a931 20bf 4347 1ebe e1fa 033f
000001a0: f6ef d43e c1e1 febe 4f5e 00bf 10f9 88be
000001b0: 8d29 31bf 18dd f23e 986a 723e 62fd e43d
000001c0: 6280 8cbd 0198 073d abeb a4bb f3e5 84bc
000001d0: 0e59 75bc dbbc 843b 5b99 00bb 70e7 913b
000001e0: 0384 86bd 6eb5 a4bd 820f 1c3c 80e1 83bb
000001f0: df24 06be 6c7e b7bc 0578 b73d 397c 4a3d
00000200: 1ba2 66be 45c2 36bd 9197 753e b86d 0bbb
00000210: d563 253e a729 853c bcb0 dc3c 15ac 313d
00000220: 5348 9abe 3a43 833d 0238 113b 2098 94bc
00000230: 1ae4 673d 5ba2 d9be 26fe 6a3d fd1e 54bd
00000240: 79b4 1d3f 92d5 913d 79a8 0bbe 0ef1 ebbd
00000250: 713d ed3d 235a 1c3f 2bd9 fb3d 6317 0fbf
00000260: fd8d c8be 74ad ed3e 0363 ed3e 2c4a 8e3e
00000270: bb88 253f 18f3 e5be f01d 5cbe fd61 bfbd
00000280: 427d 683d 6af6 acbb a07e 4cbc 3fe9 8cba
00000290: e174 9e3c 92cb 183d 7ce8 a8bb dd53 9abc
000002a0: 55fc 433d 2d2b a73d 89db 45bc afe1 8c3b
000002b0: 6e0d 2b3e fe48 673c 432d 73bd 8476 02bd
000002c0: 5b6a 673e c3ad 6a3d dff0 77be 672b b6bb
000002d0: 168c 13be 058a 4cbb 1fa8 97bc 38a7 0ebd
000002e0: 9b75 a83e 6d43 46bd 7cef 3dbb b0d4 eb3c
000002f0: 3c2e 68bd 2f13 c63e 0b36 41bd f086 443d
00000300: 6550 33bf a4f6 99bd 9ca7 7b3e 5494 0f3e
00000310: 8e43 38be 52ad 2fbf 4d1d adbd b4d7 f23e
00000320: b8d1 da3e 6d78 03bf 1bf6 0cbf e348 6abe
00000330: 9551 26bf 5aba 023f e58b 893e a58a 093e
00000340: f8d8 88bd 45c6 913c 90b4 2fbc 038a 1c3c
00000350: c3a9 cc3b 598f 2cbc ffc0 88bb c355 223c
00000360: 9f52 4ebd 2080 c5bd 30a2 8d3c 038c 9fbc
00000370: 3e87 03be 5ab7 ebbc 344d f43d 0111 7d3d
00000380: a069 51be dbcb aebd 306e 813e 724a 503a
00000390: 257d 043e 76b3 df3b d801 c83c 6558 ea3c
000003a0: e0e0 a5be 138f 9b3d 9b0c ad3c d1f6 8ebb
000003b0: 2d9c 783d c399 c9be ac75 8c3d 56f1 4dbd
000003c0: 3b53 163f 9f33 953d 20f4 f1bd 1006 d6bd
000003d0: 7527 d13d 6c15 1a3f bf69 093e 6d7e 12bf
000003e0: 4b12 c7be 2007 fd3e c7bc ed3e 5ca3 953e
000003f0: 43f7 313f 8401 eebe f787 58be c81a a9bd

decoder.attention.attn.bias f4 [16]
0.36440188 -0.43775377 0.44086027 -0.40802938 0.45631886 -0.40568626 0.44880372 0.48727918
0.43982247 0.4364731 -0.4942695 -0.58770514 0.42767742 0.43431595 0.44092664 0.4073801
00000000: e292 ba3e 4321 e0be 70b8 e13e 3ae9 d0be
00000010: a0a2 e93e 1cb6 cfbe 9ac9 e53e a87c f93e
00000020: 6930 e13e 6779 df3e e410 fdbe d873 16bf
00000030: 89f8 da3e a95e de3e 23c1 e13e 2094 d03e

decoder.attention.v.weight f4 [1, 16]
0.14917652 -0.1407724 0.1483 -0.14233787 0.15664536 -0.1383794 0.14604263 0.15217128
0.14945297 0.14899024 -0.17284401 -0.21383935 0.14766093 0.15542537 0.14253354 0.15994754
00000000: bbc1 183e a426 10be f5db 173e 05c1 11be
00000010: a467 203e 54b3 0dbe 338c 153e cad2 1b3e
00000020: 330a 193e e690 183e 05fe 30be b4f8 5abe
00000030: 6d34 173e d427 1f3e 50f4 113e 4ac9 233e
