agl/models/autosave/tr-AE-30-10-0.01-A1.pt (torch, 37246 bytes, 23 tensors)

encoder.embedding.weight f4 [8, 30]
00000000: 0751 423c e57c 4bbc 0655 4abc 50b7 05bc
00000010: 4958 433c 4362 a33b 34bc 07ba 8f01 4b3b
00000020: 4add 68bc d983 d23b 0e38 c33b 2f6f 0a3c
00000030: b293 613b 6dbb 403c 7c85 b03b 188e dcbb
00000040: cb31 023c b713 413c 3bb1 493c 5f6f 8fbc
00000050: 6434 963c e19e e3bb 8e6d d5bb a0f5 0bbc
00000060: b309 993a 10d2 95ba 6e4e 13bb 0abf 9d3a
00000070: bb8f b6bc e9f8 52bb 42ba bfbc 69f8 3bbd
00000080: fb23 56bd b052 6b3d c62c fa3b 09b9 3c3d
00000090: 1f6d 1e3d 32e2 0a3d 51c2 25bd fc0b 463d
000000a0: ed7c f9bc 9d32 953c 2cef 2bbd b8f3 a03c
000000b0: e412 6b3d 23c5 30bc e46b 4ebd 02c7 483e
000000c0: dfa2 aabb 37c7 04be 131a d4bd 6c12 50be
000000d0: 84b6 433d e381 b4bd ec43 3f3d 9046 9f3d
000000e0: 006a 023e b10a 13bd 05a8 34bd a69c fa3d
000000f0: b055 21bd 39d1 1b3d 1128 2abd af10 313d
00000100: 2a76 9a3d 0f5c 4dbd ec70 91bb 92df a03d
00000110: 3581 d33c 3191 8dbd cb39 4a3d bf43 67bc
00000120: 0437 4e3d b8aa 23bc 3fc6 593d 4e09 0dbe
00000130: 1909 183e 562d ecbd 1bd9 6b3d 4af2 0dbd
00000140: 576c 5abd 1034 383b 62fb 17bd cf56 36bd
00000150: 41c7 8ebc 1c2d fa3c cb76 27be 9dbc 86bd
00000160: 645b bcbc 7892 6dbc cc11 0cbc c984 073e
00000170: 9824 d5bd 23e2 bb3d 9fb9 103d 0858 683c
00000180: d31c 93bc 0ce1 e03b 771e 5dbd 0dde d8bc
00000190: 0277 0dba ecdb 483d 879f 85bd faf4 c3bc
000001a0: d810 c5bc 0484 233d 6613 8f3d 9bdf 443d
000001b0: f7fc 90bd ecf1 26bd ace2 9ebd eed5 67bc
000001c0: 8394 d2bd fd13 c73c 34e8 e83d cdaa 133d
000001d0: b6b3 f73d 9fb4 913c 816f eb3d 5427 273c
000001e0: 2dc1 bfbc 32ac 5a3d 397a d2bd 3d2c a53c
000001f0: aa45 2dbc 32a2 debc 9c70 85bc ea67 273c
00000200: dfa5 33be a728 48bc f837 78bc 514b 873d
00000210: cce1 cbbd 376f 77bd df47 08be 2be7 873c
00000220: 6c74 2fbd db7a cfbd b217 b1bc 2a2d bd3d
00000230: 815a 78bc 9187 56bd 7eef 903d 96ef 243c
00000240: 2fe1 62bd bb8f 65bd ca35 b9bc dd3d 57bd
00000250: 059e c2bb ff33 95bd e0c4 2e3e 5612 883d
00000260: 2294 fa3d 45ee 5abd 81a7 cebc 71a1 323c
00000270: f271 4e3c 4687 51ba b4a4 313d 5380 303c
00000280: 16ac adbb 88bf 47bc d085 553d d1ca bfbd
00000290: 33ac 293c 8c47 69bb b31e e13d 791c dabc
000002a0: 4be7 0d3d 704a a8bc 610c 5a3d c4ea 0dbb
000002b0: 74a7 e93d c781 d63d 38d7 63bc 2351 21be
000002c0: a68c f2bd dc59 4fbd 126d 523d 13b5 21bd
000002d0: 4597 7ebb 6f3c 0dbd 34f4 e7bd 006e 99bd
000002e0: d4d6 863c 32ac b1bd d8b8 0abe 4362 fdbd
000002f0: d2e0 17bd 87e6 4c3d 16a2 ef3d be91 1b3d
00000300: b65f 97bd a081 0cbd 281e edbc 30d2 e53c
00000310: 1d01 b7bd ab73 473e 063d e3bd 80dc 4bbd
00000320: 7eda 423d ae01 823d 5312 89bd 1b8a 38be
00000330: 17de 373c bd1a 2e3e 21b2 053e 96c0 41be
00000340: 1480 c4bd e5c4 9e3c c2c3 013e df70 843c
00000350: 44dc ffba 7fb1 eb3c 6289 97bc b23e 053e
00000360: 33b6 85bd 13c8 04be 5d3e 1b3d 8a41 2f3d
00000370: 5da0 c6bd a382 6e3d 06a6 613d 5b98 943d
00000380: ee36 113d 759d 8bbd 29aa 163d 885a 923b
00000390: 3efd e83c 5e6b 22bb 4767 a7bd 7313 283e
000003a0: a2c8 dc3d 9cbd a4bd 7bc5 92bd 8be8 d2bc
000003b0: 97f2 073d a83a 4d3d 2475 ebba 7227 90bd
0.011860139 -0.012419914 -0.012349373 -0.008161381 0.011922904 0.004986079 -0.0005177886 0.003097627
-0.014212916 0.006424409 0.00595761 0.00844936 0.0034420309 0.011763436 0.0053870063 -0.006730806
0.007946442 0.011784486 0.012310321 -0.01750916 0.018335529 -0.00694643 -0.006513304 -0.008542448
0.0011675864 -0.0011430401 -0.0022477168 0.0012035083 -0.022285333 -0.003219182 -0.023404244 -0.0458912
-0.052280407 0.057451904 0.007634732 0.0460749 0.038678285 0.033907123 -0.040468518 0.048351273
-0.030455077 0.01821261 -0.04197614 0.019647464 0.057391062 -0.010789189 -0.05039586 0.19607165
-0.005207404 -0.1296662 -0.10356536 -0.20319527 0.047781482 -0.088138364 0.046695635 0.077771306
0.12735748 -0.035898868 -0.04410555 0.122369096 -0.03938836 0.038041327 -0.041542117 0.0432288
0.07542069 -0.050136622 -0.00443851 0.07855143 0.025818447 -0.06912459 0.049371522 -0.014115273
0.050345436 -0.009989433 0.053167578 -0.1377308 0.1484722 -0.11532085 0.057580095 -0.034654893
-0.053325977 0.0028107204 -0.03710497 -0.04451638 -0.017428996 0.030539088 -0.1635391 -0.06578944
-0.022992797 -0.014500253 -0.008549165 0.13234247 -0.1040737 0.091739915 0.035333272 0.014181145
-0.01795808 0.006862765 -0.05398413 -0.02647307 -0.00053964567 0.04903786 -0.06524568 -0.023920525
-0.024055883 0.03992082 0.06986122 0.04806481 -0.07079499 -0.04075806 -0.07758078 -0.014150126
-0.102822326 0.024301523 0.11372414 0.03605156 0.12094824 0.017786322 0.11495877 0.010202248
-0.023407543 0.053386874 -0.10277218 0.020162696 -0.010575691 -0.02717695 -0.016289048 0.010217646
-0.17543744 -0.0122167235 -0.015150063 0.06606162 -0.09955177 -0.060408797 -0.13308667 0.016589722
-0.042835638 -0.10130855 -0.021617744 0.0923713 -0.015158297 -0.05237538 0.070769295 0.010066887
-0.055390533 -0.056045275 -0.022608656 -0.05254923 -0.0059392476 -0.07285308 0.1706729 0.06644122
0.12235285 -0.053449888 -0.025226356 0.010902748 0.012600409 -0.00079928746 0.043369964 0.010772782
-0.0053000553 -0.012191661 0.052129567 -0.09364856 0.010355997 -0.0035595624 0.109921835 -0.026624905
0.034644406 -0.020543307 0.05323446 -0.0021654824 0.11408892 0.10473972 -0.013906293 -0.15753607
-0.11843233 -0.050622806 0.05137355 -0.039479326 -0.0038847488 -0.034481462 -0.11325875 -0.07491684
0.01645986 -0.08675422 -0.13547075 -0.123722576 -0.03707964 0.050024536 0.11700837 0.037980787
-0.07391302 -0.034303308 -0.028945044 0.028054327 -0.08935759 0.19477718 -0.11095624 -0.049770832
0.04757165 0.063479766 -0.06692948 -0.18021433 0.011222384 0.17002387 0.13056232 -0.18921122
-0.095947415 0.019380996 0.12672332 0.016167102 -0.00195206 0.02877116 -0.018498126 0.13012198
-0.06528892 -0.12966947 0.03790127 0.042787112 -0.096985556 0.058230054 0.055089973 0.07255622
0.035452776 -0.06817142 0.03678337 0.0044663586 0.028441068 -0.0024783234 -0.081739955 0.1641367
0.10780455 -0.080439776 -0.07166573 -0.02574565 0.033190336 0.050104767 -0.0017963988 -0.070387736

encoder.rnn.weight_ih_l0 f4 [30, 30]
00000000: d4d6 c23d e80f d33a 2ecb d8bd fb9a 8abc
00000010: 25aa 29bc f8b6 09bd 866a 1b3d 9139 cc3c
00000020: 3fdb 97bc d5d6 fabd a0c5 74bd 01a5 213e
00000030: caa2 c9bd 1880 ddbd e734 b53d 4206 903c
00000040: f45c 713b ecaa 11bd 102e fbbd 7e9c 02be
00000050: 3254 963d b67a bd3d 01fd 9cbd 90df babd
00000060: 03aa 183e 1ed8 403d 67d6 223d 53b9 b2bc
00000070: 21d1 d6bd 4050 0d3d 0211 77bd 6d3a b6bd
00000080: 9c9e 6dbd a870 d7bc ffee 9c3d 13af 6c3c
00000090: 77c6 003d becd f73d 9506 343d c28c 08be
000000a0: 1ac3 b6bd 5bb6 a83d 7802 cebc f0ae 84bd
000000b0: 4a2f 553d 549d 9bbd 4801 a83d d429 193d
000000c0: d697 d4bb 8974 95bd 60bf f73d 130a 633d
000000d0: 772f 18bb 2cbf bdbb 7e42 3b3b 85e1 3a3e
000000e0: 64e5 f6bc bda2 8ebd c23b a1bd 41bc 85bd
000000f0: 72c2 1f3d ff07 bfbc 71c8 a1bd 5263 76bd
00000100: 7efe 91bb e3e8 5dbd 314c 7d3d a7f2 04bd
00000110: 7288 3f3c fd8c c5bd 787d 8fbd b400 b23d
00000120: fa76 d6bd a86e 7ebd daa0 37bc d55b 04bd
00000130: a3ac d7bd 8475 cf3c b561 d4bd c525 e6bd
00000140: 3950 9d3d e159 353d c061 e7bd 409c a1bd
00000150: addf 663d 10e6 ef3b cc14 a0bd 0af8 12bd
00000160: ae4d 79bd d7b8 503d a36c a9bc f85c 93bd
00000170: b3ba 86bd 245f d8bd 09dd abbc 962b 97bc
00000180: b2ec c93d 39dc 74bd 468e 3fbc 78c8 cdbd
00000190: da12 b5bd e4d6 083d 9c71 afbd a0ea 14bd
000001a0: ceb3 4ebc aa6f bdbb ef43 99bd 7ee3 8c3d
000001b0: 3efc 05be 2d57 c9bd 0c11 953d 0d76 113c
000001c0: 8cf0 08be 8122 d7bc 4f28 903c 98f5 5d3c
000001d0: 51bc a93c f16e b43b 16e7 56bd f237 263c
000001e0: 161d 483d 04d9 1a3d b935 0b3c 790c fbbd
000001f0: 4446 903d 1b19 1ebe 73d7 e83c a381 2a3e
00000200: bfd8 b2bc ef34 a83c b2bf 1bbe 100a 543d
00000210: 0e8e 2cbb dc93 01be 8a10 df3d f83c 92bd
00000220: b6db 403e 09af b6bd a8ce 8cbd b22a 6cbd
00000230: b055 2f3e a67e f53d 377b 63be 2546 d4bd
00000240: 40f4 963d 90a6 3d3d f71e bd3d ddea b03b
00000250: 6f3f 57bd eb3e 613b e0df 9f3d c8dd e43c
00000260: 8432 ddbd 9cbb 7abd 3d4e fdbc c7d3 22bd
00000270: 116c 5b3d c05d 323b e561 b7bc 4a0e eebd
00000280: 699b 9abd 5399 ff3d b681 c0bd 23d7 6cbd
00000290: 8c73 d03c 2695 8c3b e2c8 c5bc d464 8d3c
000002a0: a470 bcbd 3e0f 01be 4744 7b3d d874 803d
000002b0: d16a bcbd 7d91 87bd 195f b03d 3b8f 0b3d
000002c0: 97f7 ab3b b06c 5abd 09f3 9ebd a5ec e23c
000002d0: d0c7 0cbd 1962 bfbd ede4 2ebd c817 63bd
000002e0: 91da 513d 44c7 ac3a 6416 bf3c b109 a63d
000002f0: 2bde 1fbc 70ac b7bd 9a01 82bd ba1c ba3d
00000300: 0c72 31bd 4ff1 9abd 348d ed3c 9d03 54bd
00000310: c0fa 0b3d e9af a63d 2342 f6bc 7bcb 0cbd
00000320: 5512 fe3d 58a9 ba3d fc05 d539 1630 19bd
00000330: 941d 313c 6a47 ee3d f515 6dbd 45fb 90bd
00000340: 13c6 cabd 84b1 8abc 4385 353c c98e d4bd
00000350: 1ede 7abd 6c93 b5bd a8f8 253d 2f89 ef3c
00000360: 4f47 f73c 2adf c13d 3344 4c3d a142 f5bd
00000370: d00c aebd a72f 303e e351 56bd cc9d 06be
00000380: 08e7 31bc 7380 96bd 9019 cd3d 68e7 6e3c
00000390: c359 56bd 64f1 2abe 64b8 193e e54a 963d
000003a0: f227 ffbc 2900 9abd 0083 88b7 4b31 b13d
000003b0: 00dd 063c 0549 fbbc 7968 c6bd 2ae2 3ebd
000003c0: 9f1b 5a3c 6e00 9ebd 3582 acbd 34d8 92bd
000003d0: 0223 2b3c ff30 673c 08ae 313d fc69 d73d
000003e0: c8f8 4c3d 8b96 e4bd 498d 5bbd cd75 df3d
000003f0: 0611 73bd 6dd7 d5bd fc5a 8f3b 6ab7 62bd
0.095136315 0.0016102763 -0.105856284 -0.016919604 -0.010355507 -0.03362176 0.037943386 0.024929794
-0.018537162 -0.12248007 -0.059758782 0.157856 -0.09845503 -0.108154476 0.08847981 0.017581109
0.0036829086 -0.035563394 -0.12264645 -0.1275501 0.07340278 0.09251921 -0.07665444 -0.091246724
0.14908604 0.047081105 0.03975525 -0.021816885 -0.10489107 0.03450036 -0.060318954 -0.088978626
-0.05801259 -0.026298836 0.076627724 0.014446038 0.03143927 0.12099789 0.04395159 -0.13334945
-0.089239314 0.082379065 -0.025147662 -0.06478679 0.05204705 -0.07598367 0.082033694 0.037393406
-0.006487827 -0.07297618 0.12097049 0.05542953 -0.002322165 -0.0057906117 0.0028573568 0.18250091
-0.030138679 -0.069646336 -0.07872726 -0.06530047 0.039003797 -0.023319243 -0.07899559 -0.060153313
-0.0044553867 -0.054177176 0.06184024 -0.032457974 0.011690246 -0.09646032 -0.07006353 0.0869154
-0.10471912 -0.06211725 -0.011207784 -0.03231414 -0.10530975 0.02532459 -0.10370199 -0.11237673
0.07681317 0.04427517 -0.11297941 -0.078911304 0.056365658 0.0073211268 -0.07816467 -0.03588108
-0.060865097 0.050957527 -0.020681685 -0.07195467 -0.06578579 -0.10565022 -0.020979421 -0.0184534
0.09859599 -0.059780333 -0.0116916355 -0.10048002 -0.08841486 0.03340806 -0.08566591 -0.03635657
-0.012616111 -0.0057811337 -0.074836604 0.06879328 -0.13084504 -0.098310806 0.07278642 0.008878243
-0.13373011 -0.02626157 0.017597346 0.013547324 0.02071968 0.0055063893 -0.052466474 0.010145174
0.048855864 0.03780462 0.008496695 -0.12258238 0.07044652 -0.15439264 0.028423047 0.16651015
-0.021831868 0.020533053 -0.15209845 0.05176741 -0.0026329788 -0.1265406 0.108918265 -0.07140535
0.18833813 -0.08920104 -0.06875354 -0.057657905 0.17122531 0.11987047 -0.22214971 -0.103649415
0.07370806 0.046301425 0.09234422 0.0053990916 -0.05255073 0.0034369777 0.07806373 0.027937785
-0.10800651 -0.061214074 -0.030921096 -0.039752748 0.053569857 0.0027216524 -0.022385547 -0.11623819
-0.075491734 0.12480416 -0.093997404 -0.057822358 0.025445722 0.004290241 -0.02414364 0.017259993
-0.09201172 -0.1260347 0.06134441 0.06272286 -0.09200061 -0.066195466 0.086118884 0.034072142
0.005248021 -0.05332631 -0.07761199 0.027700732 -0.034370244 -0.093448825 -0.04269879 -0.0554426
0.05123383 0.0013181944 0.023326106 0.08107317 -0.009757559 -0.08968437 -0.06347962 0.090875104
-0.043321654 -0.07565557 0.028997995 -0.05176126 0.03417468 0.08139021 -0.030060833 -0.03437374
0.1240584 0.09114331 0.00040630985 -0.037399374 0.010810275 0.11634715 -0.057882268 -0.07079176
-0.09901061 -0.01693035 0.011079135 -0.103787966 -0.061246984 -0.08866009 0.04052034 0.029240219
0.03018537 0.09466393 0.049869727 -0.11975599 -0.084985375 0.17205678 -0.052324187 -0.13146132
-0.010858305 -0.073487185 0.10014641 0.014581539 -0.052331697 -0.16693646 0.15011746 0.07338504
-0.031146977 -0.07519562 -1.6273465e-05 0.0865198 0.008231401 -0.030674467 -0.09687895 -0.046602406
0.013312249 -0.07714926 -0.084232725 -0.07170144 0.010445358 0.014110803 0.04337886 0.10518262
0.050041944 -0.11161526 -0.053601537 0.109111406 -0.059342407 -0.1044148 0.00437486 -0.0553507

encoder.rnn.weight_hh_l0 f4 [30, 10]
00000000: 356e 983d 3666 983d aa36 953d 87dd ad3d
00000010: 095f 6ebd 5fd9 a8bd f8bd b13d 92c4 b73d
00000020: 51b5 b6bd 733b 953d f93c 923d 5afc 933d
00000030: 1576 933d dcc5 8a3d c0e6 c1bd 557a a9bd
00000040: f71c 883d 635d 853d b29c 4ebd c705 a53d
00000050: 43b1 7f3d fc62 b23d 9b1b 3e3d 4b6f 933d
00000060: 35ee d2bd 0011 38bd f374 a53d 8acd 943d
00000070: 977f a2bd 14fe 733d 4cb4 2b3d 39fe c33d
00000080: d032 593d 37e6 083d a483 b1bd b193 6fbd
00000090: 69b7 b53d 9624 e23d 1427 c6bd 23ec e23c
000000a0: 178d e03d 8f81 063d cbab c43d 9869 b33d
000000b0: b8e5 79bd 93c7 b6bd 58dc 873d 93a1 9b3d
000000c0: 9f0f 89bd 1f1b f03d 790d 673d ccc9 a33d
000000d0: c508 753d 4edb 953d 792d a8bd bfce 6fbd
000000e0: 71a3 b23d 0c22 9c3d 12cf a8bd e1ed 363d
000000f0: bc4a b23d 8c5a 8c3d 1096 c83d f7a2 833d
00000100: aa65 d8bd 152b 94bd 7365 943d da61 893d
00000110: 3c0c c8bd cb26 c03d 586a 8f3d f771 1c3d
00000120: 4478 943d da3f 713d a0ad 8ebd 6547 a0bd
00000130: ac9d 433d d763 6f3d d14b 80bd b3b9 523d
00000140: 6893 963d 20e5 5b3d 70ce 8a3d 5fb3 6c3d
00000150: be4f e9bd 6556 8fbd f6a1 7f3d f34e c43d
00000160: 1c77 babd 2151 5b3d 52c9 343d 2497 a23d
00000170: 12e7 423d 081d 783d be78 dfbd 23d1 32bd
00000180: da39 ac3d 9c18 bd3d b653 c8bd 87fa 693d
00000190: 0352 22be 3b3d f3bd 3a59 0cbe f2c9 1dbe
000001a0: 331a 813d 3122 3b3e 02d2 07be 12d5 f6bd
000001b0: a882 b73d ef41 1bbe 8dd6 0fbe 255c f9bd
000001c0: 054b c7bd f2ad cabd c02d 003e 9e79 fd3d
000001d0: 8fc8 f5bd e6c4 eebd bf10 b23d 542b 9cbd
000001e0: 8aa7 d8bd 951d 02be 2f56 b3bd b327 9bbd
000001f0: ce15 a73c 79ab f53d 5b95 f5bd 8a6e b3bd
00000200: 9ad5 a73d 6a60 d5bd dd3e adbd 41f0 a8bd
00000210: 254b aebd 19db 3dbd 1400 053c 595e 553d
00000220: 35a9 72bd f113 30bd 0b1d 133d 4c93 50bd
00000230: 6ba1 00bd 7e1c e0bd 7826 283d 10c5 563d
00000240: e2d8 2d3e b027 03bb 0636 b5bd 88e8 01be
00000250: 37e2 7c3d ad4e 203d 9a0b e6bd a3d3 f3bd
00000260: 2c4c c5bd b44e eabd 3d79 6f3d 4e4c 033e
00000270: 5a2a cbbd a105 c7bd c254 873d 6532 fbbd
00000280: fe7d f8bd 221b ffbd a10a a9bd be92 e7bd
00000290: 49a8 073e 189d ea3d 0e54 19be 4d39 00be
000002a0: 6d70 d43d cd8d cfbd 4dae 05be b48f 10be
000002b0: 83e5 bebd 5b8e d3bd 7264 133e 90f8 d43d
000002c0: 5bbd 0dbe c710 14be 6764 ee3d 2f12 c3bd
000002d0: 28dd f5bd 6d7e fbbd 691e 24bd f37a 8dbd
000002e0: 8bef 093e 5503 b63d 9f9f e0bd b4a1 fabd
000002f0: a8d7 cc3d bfe2 86bd 73f8 e3bd 98c5 07be
00000300: d508 c6bd 7bb6 c6bd 843d 103d 1ea3 f03d
00000310: 635d f4bd b2b4 a9bd 0f31 903d 006b bcbd
00000320: 8b87 0abe 8f04 86bd b487 dcbd 8e14 0bbe
00000330: 43e5 fc3c 1f48 0a3e a55a 8fbd ddc8 7bbd
00000340: 56d2 623d 8934 d2bd 08b6 a4bd fc7b f3bd
00000350: 75fc 77bd 870e f5bc fc1b cd3d 46b2 993d
00000360: 5ba6 d4bd 2154 0bbe c150 b43d 84ab aebd
00000370: 074a d5bd 69a0 fdbc 0d7f d9bd e896 fdbd
00000380: ece1 30ba ffa1 c63d 671f 18bd c70a 20bd
00000390: 9831 0e3d 7f2a c1bd 588f 4bbd c2fd 0fbb
000003a0: 4490 8dbd ea96 c0bd 6f0d 4ebc b95b 7d3d
000003b0: 06e5 9dbc 82ea cabc 57d8 8e3c 9371 99bd
000003c0: 401b c93d d5f5 f33d d719 293d e997 db3b
000003d0: b61a 73be 76fc 7dbd c4ee 143e dc5a 3d3e
000003e0: fb39 0dbe fc21 da3c 9284 cb3d 83c5 813d
000003f0: 9d29 e33d 8dda f73d 102a a9bc f3c3 d6bd
0.07442895 0.0744137 0.07285817 0.084895186 -0.0581961 -0.08244585 0.08678812 0.0897304
-0.08921302 0.0728673 0.07140536 0.072258666 0.07200257 0.0677602 -0.0946784 -0.08275286
0.066461496 0.06511953 -0.050442405 0.080577426 0.06242491 0.08710286 0.046413045 0.07198962
-0.10299341 -0.044938087 0.08078947 0.07265766 -0.07934492 0.05956848 0.04191999 0.095699735
0.053026974 0.033422675 -0.086676866 -0.05849046 0.08872873 0.110421345 -0.09675422 0.02770049
0.10964411 0.0328384 0.096030794 0.08760375 -0.061010092 -0.089247845 0.06633824 0.07599177
-0.066924326 0.11723923 0.056409333 0.07997474 0.059822816 0.0731722 -0.08211798 -0.058546778
0.0872258 0.076236814 -0.082426205 0.044660453 0.08705661 0.06853208 0.09794247 0.064275675
-0.10566266 -0.0723478 0.072459124 0.06708117 -0.097679585 0.09382399 0.07002705 0.038194623
0.07249501 0.058898784 -0.0696671 -0.078261174 0.04775779 0.058444824 -0.06264461 0.051446628
0.07352334 0.053685308 0.06777656 0.05778825 -0.11392163 -0.069989 0.062410317 0.09585371
-0.091047496 0.053544167 0.044137307 0.07938984 0.047583647 0.06057456 -0.109117016 -0.04365648
0.08409472 0.092332095 -0.097815916 0.057123687 -0.15851597 -0.11876913 -0.13705912 -0.15409067
0.06303825 0.18274762 -0.13263705 -0.12052359 0.089604676 -0.1516187 -0.14046688 -0.12175778
-0.09731106 -0.09896459 0.12517452 0.12376712 -0.12001144 -0.11658649 0.086946 -0.07625452
-0.105788305 -0.12706597 -0.087566726 -0.075759314 0.02039614 0.119955964 -0.11991378 -0.08761318
0.08195038 -0.1041878 -0.08459256 -0.0824895 -0.085104264 -0.046351526 0.008117694 0.05209193
-0.0592434 -0.042987768 0.03591637 -0.050921723 -0.03140394 -0.109429345 0.04105231 0.052434027
0.16977265 -0.002001267 -0.08848195 -0.1268636 0.061739173 0.03913753 -0.112326816 -0.11905601
-0.09633669 -0.11440793 0.05846523 0.12822077 -0.09920187 -0.097178705 0.06607963 -0.12265471
-0.12133406 -0.12456347 -0.082539804 -0.11307286 0.1324779 0.114557445 -0.1497347 -0.12521859
0.10373006 -0.10134468 -0.13054772 -0.14117318 -0.0932112 -0.103298865 0.14393786 0.10398972
-0.13841765 -0.14459525 0.11640244 -0.095249526 -0.12005073 -0.12279973 -0.040068064 -0.06908216
0.13470285 0.08887354 -0.10967945 -0.12237874 0.10002071 -0.06586217 -0.11131372 -0.1325897
-0.09669653 -0.09702774 0.035214916 0.11749862 -0.119318746 -0.08286418 0.07040607 -0.09200096
-0.13528268 -0.06543838 -0.10768071 -0.1358206 0.03087104 0.13504075 -0.06999711 -0.061470855
0.055376373 -0.102639265 -0.08042532 -0.118888825 -0.060543496 -0.029914154 0.10015103 0.07504706
-0.10383292 -0.13606311 0.08804465 -0.08528808 -0.1041451 -0.030960279 -0.10619936 -0.12382299
-0.0006747532 0.09698867 -0.037139323 -0.039072778 0.034715265 -0.094319336 -0.04969725 -0.002197132
-0.06912282 -0.094037846 -0.012576445 0.06185505 -0.019274246 -0.024770025 0.017437143 -0.07492366
0.09819651 0.11912123 0.04128441 0.0067014587 -0.23740658 -0.062008344 0.14544207 0.18491691
-0.13791649 0.026627533 0.09937395 0.063365005 0.110919215 0.12102232 -0.02064994 -0.10486593

encoder.rnn.bias_ih_l0 f4 [30]
00000000: 1d1a ddbd 7fdc 95bd 58a3 cebd 1cad eabd
00000010: 52c9 30be 48c0 c3bd a690 91bd e737 7abd
00000020: c8eb 8bbd e73a bdbd 63fe 3d3e 1d9c e53d
00000030: e395 473e 1fd3 2c3e 70c5 f63d 1dc5 323e
00000040: 45d4 113e dcae ee3d 009c da3d 0865 223e
00000050: 7135 04bc c960 953c 4c69 5fbc 5559 b0bc
00000060: 74ca 3ebb 7241 053c 407e 5b3c 7e1a c43c
00000070: bc06 3dbc c3f9 5ebc
-0.10795996 -0.07317447 -0.10089749 -0.11458799 -0.17264298 -0.09558159 -0.071076676 -0.06108847
-0.06832081 -0.0923975 0.18554072 0.11211417 0.19490771 0.16877411 0.12049377 0.17458005
0.1424113 0.116544455 0.10674286 0.15858853 -0.008069382 0.018234627 -0.013635945 -0.021526972
-0.002911237 0.008133279 0.0133968 0.023938414 -0.01153725 -0.0136093525

encoder.rnn.bias_hh_l0 f4 [30]
00000000: 1d1a ddbd 7fdc 95bd 58a3 cebd 1cad eabd
00000010: 51c9 30be 48c0 c3bd a590 91bd e537 7abd
00000020: c8eb 8bbd e63a bdbd 63fe 3d3e 1d9c e53d
00000030: e295 473e 20d3 2c3e 71c5 f63d 1ec5 323e
00000040: 45d4 113e dbae ee3d fe9b da3d 0965 223e
00000050: 79cc febb 6cdd 9b3c 2a1f 4ebc f7a7 a8bc
00000060: d45e d9ba c00b f13b 6f72 693c d946 c23c
00000070: a9a2 49bc 1c4d 48bc
-0.10795996 -0.07317447 -0.10089749 -0.11458799 -0.17264296 -0.09558159 -0.07107667 -0.06108846
-0.06832081 -0.092397496 0.18554072 0.11211417 0.1949077 0.16877413 0.12049378 0.17458007
0.1424113 0.11654445 0.106742844 0.15858854 -0.00777584 0.01902648 -0.012580672 -0.020587904
-0.0016584047 0.007356137 0.0142484745 0.023715423 -0.012306848 -0.012225416

encoder.rnn.weight_ih_l0_reverse f4 [30, 30]
00000000: 9a02 9dbb 48b4 34be f3c2 903c 2b41 85bc
00000010: 59b7 2dbe fdcf a9bd 8053 0b3e 5210 4a3d
00000020: a127 1bbd 4b60 80bc 5603 8ebd 1439 67bc
00000030: 186c 97bc 493c 99bc 94ea 7d3e da7e 17bd
00000040: 543d 61bd c2d8 ba3c 0936 ebbc 800e 3b39
00000050: 01a1 813d c4b8 82bd 9c9e 0cbe 7cfa d2bd
00000060: 1eca 813d 9d21 8b3e 36e8 563e b145 f73c
00000070: 66aa a3bd 023b 733d 4e4d 1c3c c2b6 bcbc
00000080: d8c6 80bc a3c6 83bd 992a 2fbb 4ceb 8ebd
00000090: 6f78 a53d 2d73 3bbd 0d5d f5bd 327f eabd
000000a0: b913 8bbd 0159 e5bb e760 99bd 84f8 34bd
000000b0: f25e 583d 854f 05bc c6e3 83bd 74b3 7a3c
000000c0: 4c8b aebd 08f5 adbc ffa3 9b3d 6e79 a53c
000000d0: 3641 b6bd 4c7b 01bd b942 163d 0a3c e03d
000000e0: 3e8e dcbb cf50 d43b bfd0 a1bd 8ebf 0e3d
000000f0: 2156 8fbc 2e38 45be 6016 3b3c 3ae6 a4bd
00000100: 226f f8bd 547a 9cbd efb4 0b3d 9aaf 363d
00000110: 34b0 ecbc 67fa 053d 583e abbd 198a 05bd
00000120: f9a2 0fbd 0e73 26bc a3f2 693e 7754 0abd
00000130: 869c a9bd e243 ca3d b7df 4fbd 0cbb 54bd
00000140: 5cc6 843d bca7 dd3b 2be4 d1bd 1d4f c2bd
00000150: 9ab9 3b3d 39ae 6a3e ed59 343e 4a7a b23b
00000160: 8fec 78bd 0661 db3c 7c75 45bd eb06 02be
00000170: dead a5bd 61ec 8ebd e0c2 79bd 1d0b 953c
00000180: 3e46 703c 864f b53d 4c75 cdbc 140c 343d
00000190: 4b43 00be 51b3 b6bd b035 0f3d 2f0f e43c
000001a0: 0dad 453e 9000 51bc 147a 13bb 181d d73d
000001b0: 6bd6 86bd a481 cabd 1caf b03a 1ec9 333c
000001c0: dc2a a2bd ebc2 92bd 484c a83d 3bdf 4c3e
000001d0: e9df 473e b87c ca3d 79d6 8cbc a2dc 833c
000001e0: 265b 47bb 22bd 22be c2c6 333d 9e93 3fbc
000001f0: 9cda 14be 3906 bcbd 2011 d13d 1a42 5bbc
00000200: 73b5 fe3b 9458 20bb 942b 98bd 8943 c03b
00000210: 9f88 34bd 0758 873b bd23 403e bbd5 73bd
00000220: a50a fcbd 6b7d b53d cb2d 61bc d534 15bc
00000230: 7176 9a3d 09d7 8f3c 593e 0abe a754 abbd
00000240: 6cef f9bc 5fdc 493e 7b96 103e 468f 0abc
00000250: 290e c4bd 76eb 223d 56cb 49bc b4d5 63bd
00000260: e3ef 04bd eccd c7bd cbca 9dbb c05d 91bd
00000270: 32c5 a33d 90dd 29bd d472 04be a4aa cdbd
00000280: 4214 aebd ec90 813c e6df 6abd 0339 1cbd
00000290: 300d 283d 8221 3ebb 66cd cabd 3059 323d
000002a0: de75 b6bd 09ea 2bbd 3335 7a3d 552a 973c
000002b0: 15ed 83bd 799c 3bbd 35c9 9e3c d3ff b73d
000002c0: dc3b 48bc 9987 873b e2f9 a6bd 6058 c83c
000002d0: d427 0cbb 369c 6fbd 9047 89bc 017f b4bd
000002e0: 24e6 3ebc 4bca c2bd 2c39 713d 7da5 26bd
000002f0: 4c54 e4bd 3976 f6bd 0350 60bd 83b9 d2bc
00000300: 3caa 83bd 9cfa 0abd 6777 5a3d 10b7 13bc
00000310: 8c45 e3bd 6c20 853d 719e e4bd 80e3 4f38
00000320: ea75 c63d 991f 7c3d 05c1 98bd 8169 3fbd
00000330: 9ce8 5b3c daef 063e 8808 d33c 008e a93b
00000340: 9e43 e1bd 2aee 3f3d d402 d7bb 0765 98bd
00000350: 9899 843c 110f 75bd 44eb 5abd 41b1 bdbd
00000360: 5fad 973d a4e2 68bd 0ffd ddbd ced8 a0bd
00000370: 7bca b5bd c0f4 543c 32ce a3bd 5c5a 58bd
00000380: a4b7 d03d b466 26bd 8597 c6bd 8e15 693d
00000390: afbe c7bd 9fc9 b1bb e27d c53d ec7e 613d
000003a0: cda3 e3bd 8fd8 8ebd 95b3 da3c fd07 3e3e
000003b0: 4672 8f3d 6882 98bc 47ed cbbd f211 6b3d
000003c0: cb61 0fbd c0e4 023d 44a6 ee3c b7e9 acbd
000003d0: 819e 88bd c2f3 ae3c bfed f33d cbfc ce3d
000003e0: 2c7d 36bd fed9 aebd 3ecb 22be 4acc cd3d
000003f0: 9231 cebc 76b0 49bd 0e48 923d fbd8 12bd
-0.00479157 -0.17646897 0.017671084 -0.016266426 -0.16964473 -0.08291624 0.13606071 0.04933197
-0.03787959 -0.015670916 -0.0693423 -0.01411273 -0.01848416 -0.018705504 0.24796516 -0.03698621
-0.054990128 0.022808436 -0.02871229 0.00017839111 0.06329537 -0.063828975 -0.1373238 -0.10301682
0.06337379 0.27174082 0.20987019 0.030184599 -0.07991485 0.059382446 0.009539915 -0.023036364
-0.015719816 -0.06434371 -0.002672827 -0.06978473 0.080796115 -0.045764137 -0.11980639 -0.11450042
-0.06790871 -0.0069991355 -0.07489186 -0.044182315 0.052824922 -0.008136635 -0.06439929 0.015301574
-0.085226625 -0.021235004 0.07599639 0.020199504 -0.08899157 -0.031611726 0.036684725 0.109489515
-0.006730824 0.0064793597 -0.07901143 0.03485065 -0.017497124 -0.19259712 0.011418909 -0.08051725
-0.12130572 -0.0764052 0.0341081 0.04460106 -0.028892614 0.032709505 -0.083615005 -0.032602403
-0.035067532 -0.010159267 0.22846465 -0.03377196 -0.082818076 0.09876229 -0.05075046 -0.051936194
0.064831465 0.0067643803 -0.10248598 -0.09487746 0.0458313 0.22918023 0.17612429 0.005446707
-0.060772475 0.026779663 -0.048207745 -0.12697951 -0.08089803 -0.069786794 -0.060976863 0.018193776
0.014665185 0.088530585 -0.025080346 0.04395683 -0.1252567 -0.08920921 0.03496331 0.027839271
0.19304295 -0.012756482 -0.0022503184 0.10503596 -0.06583866 -0.09888008 0.0013479921 0.010973243
-0.07918331 -0.07166084 0.082176745 0.2000703 0.19519009 0.098870695 -0.017192112 0.016096417
-0.003041932 -0.15892461 0.043890722 -0.0116929095 -0.14536518 -0.091808744 0.102083445 -0.013382459
0.0077730953 -0.002446686 -0.07430187 0.005867426 -0.044075605 0.0041303667 0.18763633 -0.05953
-0.12306718 0.08861812 -0.013743828 -0.009106834 0.07542122 0.017558591 -0.13500346 -0.083657555
-0.030509673 0.19712971 0.14119904 -0.008457011 -0.09573013 0.039775334 -0.0123165455 -0.055623725
-0.032455336 -0.09756073 -0.0048154346 -0.070979595 0.079965964 -0.041471064 -0.12934428 -0.10042313
-0.084999576 0.015816174 -0.057342432 -0.038140308 0.0410282 -0.0029011671 -0.09902458 0.043542087
-0.089092 -0.04197124 0.06108589 0.018452803 -0.06441704 -0.04580352 0.019383052 0.089843415
-0.012221303 0.0041360375 -0.0815313 0.024456203 -0.0021386044 -0.058498584 -0.016757756 -0.088132866
-0.0116515495 -0.095112406 0.058892414 -0.040685166 -0.11148891 -0.12034268 -0.054763805 -0.025723225
-0.06428954 -0.033930406 0.053336527 -0.0090158135 -0.110972494 0.065003246 -0.11163033 4.956452e-05
0.09690459 0.06155357 -0.074586906 -0.046731476 0.013422158 0.13177434 0.025760904 0.0051743984
-0.10999225 0.04685799 -0.0065616164 -0.074411444 0.01618652 -0.05982882 -0.053447023 -0.09262324
0.07406115 -0.056856766 -0.10839283 -0.07853852 -0.08876511 0.012997806 -0.07998313 -0.05282055
0.10191277 -0.04062529 -0.09696869 0.05690532 -0.09753167 -0.0054256464 0.09643151 0.055052683
-0.11115227 -0.06974899 0.02669696 0.18557735 0.07004218 -0.01861687 -0.099573664 0.05739016
-0.035005372 0.031956434 0.029132016 -0.08443015 -0.06670857 0.021356467 0.11910581 0.1010681
-0.044552967 -0.085376725 -0.15897843 0.10048731 -0.025170121 -0.049240552 0.071426496 -0.03585146

encoder.rnn.weight_hh_l0_reverse f4 [30, 10]
00000000: deaf 113e 2cda 5ebd 8e24 12be c125 213e
00000010: c37a e7bd 0c4c 20bd f4fb 343d 6005 87bd
00000020: 3bae 22bc 96a1 54bd 5708 093e 53fe 88bd
00000030: 9d30 09be ea94 083e c13b e8bd 4695 1fbd
00000040: 8e67 5e3d b547 7fbd 285a b0bd b153 6fbd
00000050: 2be5 1f3e a175 4fbd c9fe 48be b13f 523e
00000060: 5aa2 0dbe 62b9 06bc 0ae9 1d3d b710 96bd
00000070: e9ea 0d3c 60c8 5ebd 167f 623e 9f9e 75bd
00000080: 930c 84be 97c9 823e 871e 29be 6a3a 3c3b
00000090: 8cfb 6f3c 22b0 9bbd 30b9 723d a4e4 a5bc
000000a0: d638 0e3e fbff 66bd dc10 25be d6ee 233e
000000b0: 8466 eabd b235 17bd 76a0 f43c 883e 92bd
000000c0: 9a7e d9bc b983 26bd 8d1a 203e a063 7bbd
000000d0: 7e53 0ebe 4227 383e bd2f fdbd f1b6 1fbd
000000e0: 6487 733d 4cf9 adbd 759c 58bd 8660 78bd
000000f0: fd4f 0a3e 9ac9 6abd 3401 0cbe 0b21 283e
00000100: 138c d0bd 88fd 1bbd e9d1 633d 006d 93bd
00000110: 4412 25bd aa2f 51bd cfa3 243e 1548 0ebd
00000120: e790 ecbd 122e 2e3e 79c0 0bbe 9318 58bd
00000130: 24db 833d 6265 7ebd fdce 8abd 4ff8 7cbd
00000140: 9625 dc3d b511 cebd d567 efbd 1982 f63d
00000150: 9fa1 f3bd af8a bcbd 5458 a63d 99c1 f0bd
00000160: a2f3 ebbc ac43 e2bd 2512 123e 9cbf 6ebd
00000170: 33d3 12be f13a f63d 75a3 05be 92af 9bbd
00000180: a848 9e3d 8aea 74bd 8034 9bbd b887 adbd
00000190: 8613 7dbe 8bb5 863d edd6 783e ee25 7cbe
000001a0: a4af 423e 865e e43c b743 42bd 4bc2 b13d
000001b0: d155 b4bc 6b4c 9d3d f58e 35be 75f9 213e
000001c0: 90ce 253e da34 21be 8680 063e 9c22 1e3e
000001d0: c578 28be 4bf8 2e3e 3f1f d23d 35ad 2e3e
000001e0: b1fe 72be 3190 733d 5fa6 733e e94b 76be
000001f0: b27a 1b3e acf3 293d fde2 23bd 97ae 973d
00000200: 4c7b 17bc b2cc 073d b1f7 78be 5c69 89bd
00000210: 83d9 8a3e 7a3b 86be 0e46 d33d 1bb9 b3bd
00000220: a254 533d f393 d6bc 3549 63bd d6b8 48bd
00000230: 9abe 51be 1158 903d 43d8 513e d330 48be
00000240: 0802 143e 1707 8f3d f9bf 98bd 66b1 e63d
00000250: 752d af3d 265e dc3d 7846 64be b428 263e
00000260: e389 673e 419a 36be 3d52 3e3e 7df8 283e
00000270: 3ef1 27be 8576 343e 1469 c43d 2480 343e
00000280: 24d4 5dbe cac6 273e 8ae7 4d3e 7f72 47be
00000290: 1d82 113e bb0b 273e 12a5 32be b651 303e
000002a0: 8afc c93d ee1e 333e 2498 72be 7cb0 2a3e
000002b0: 2551 663e 6921 47be 9e9c 2f3e 2c6b 1b3e
000002c0: b9cf 3ebe 420a 433e 271a bd3d 421c 3f3e
000002d0: b49b f5bc 35ab e63c 5999 163d 1f97 003c
000002e0: e640 8b3d bdb2 253d 21d5 40bd d6af 6e3c
000002f0: 6afe 813d 79ca 413d 04c5 44be 6d40 4f3e
00000300: 8b6e 4c3e 4e8b 2ebe f0a4 013e de4d 463e
00000310: 2db2 6cbe 4cc1 4d3e d702 113e 8347 503e
00000320: 197a bfbd 7a61 8cbd 09a1 eb3d 6f76 29be
00000330: 3b79 a43d 7285 8fbd 79ff 963d 0c26 46bc
00000340: 4697 07bd 547d 5cbd f73e aa3b c475 8fbd
00000350: 0a9c 0fbc e3e9 9a3b 92a6 3e3c d447 a1bd
00000360: 38ea 963d fa01 f6bc 632c b9bd 9856 5cbd
00000370: bdac df3d 2756 0d3d c2ff d1bd 2708 133e
00000380: 8938 99bd 0f31 013d 0537 7cbd 1005 11bc
00000390: 9577 c33c b8ba be3b 72f0 5fbe dd19 acbd
000003a0: fb1a 323e 23d2 7cbe 7631 f43d 47b1 e5bd
000003b0: 2a76 d63d dcac b8bc fb32 d7bc a7f4 80bd
000003c0: 596e 9a3d 67b5 2a3c f912 b1bd 09a2 ca3d
000003d0: dcca 6fbd d808 0f3c 86e2 a0bc 9c8a 88bc
000003e0: dc89 5d3c 361c d73a 2c88 833c 2915 a5bd
000003f0: dee0 6bbc d777 8d3b d664 9c3b 9fc2 c8bd
0.14227244 -0.054407284 -0.14271757 0.15737058 -0.11302712 -0.039135024 0.044185594 -0.06592822
-0.009929235 -0.051911913 0.13382088 -0.066891335 -0.13397451 0.13338056 -0.11339522 -0.038960718
0.054297976 -0.062324245 -0.08610946 -0.058429424 0.15614764 -0.05064929 -0.19628443 0.20532109
-0.13831463 -0.00822291 0.03855232 -0.07327407 0.008661964 -0.05439031 0.22118792 -0.059965726
-0.25790843 0.25544426 -0.16515552 0.002872134 0.014647376 -0.07601954 0.05925864 -0.020250626
0.13888869 -0.056396466 -0.16119713 0.16009077 -0.114453346 -0.036916442 0.02986167 -0.07140833
-0.026549626 -0.040652964 0.15635128 -0.061374307 -0.13899037 0.17983726 -0.12362621 -0.038992826
0.05945529 -0.08494815 -0.052883584 -0.060638927 0.13507076 -0.05732117 -0.13672334 0.16418855
-0.10182967 -0.038083583 0.055620108 -0.071985245 -0.040300623 -0.051070847 0.16078113 -0.03473671
-0.115510754 0.17009762 -0.13647641 -0.05275781 0.06438282 -0.062108405 -0.06777761 -0.061760243
0.107493564 -0.10061971 -0.11689726 0.12036533 -0.11896061 -0.09206139 0.08122316 -0.11755676
-0.028802697 -0.11048064 0.14264734 -0.0582882 -0.14338379 0.12022961 -0.13050635 -0.07601847
0.07728702 -0.059793986 -0.07578373 -0.08473152 -0.24714479 0.06577595 0.24300738 -0.24623844
0.19012314 0.027877104 -0.04742786 0.086796366 -0.022013577 0.07680591 -0.17730315 0.15817817
0.16192079 -0.15742818 0.13134965 0.1544289 -0.1645232 0.17086904 0.10259866 0.1705826
-0.2372997 0.059463684 0.23793934 -0.24052395 0.15183523 0.04149215 -0.040011395 0.07406347
-0.009245705 0.033154197 -0.24313237 -0.06709549 0.27119073 -0.26217252 0.10316096 -0.087755404
0.051594384 -0.026193595 -0.055489738 -0.0490044 -0.20482865 0.07048047 0.20492654 -0.19549875
0.144539 0.06983774 -0.07458491 0.11264305 0.08553592 0.10760145 -0.22292507 0.16226465
0.22611193 -0.1783228 0.18586059 0.16501041 -0.1640062 0.17623337 0.095903546 0.17627007
-0.21662956 0.16384426 0.20107856 -0.1947727 0.1420979 0.16313069 -0.17445782 0.1721867
0.09862621 0.17492267 -0.2369085 0.16668886 0.22491892 -0.19446339 0.17149588 0.15177602
-0.18633927 0.19046882 0.09233504 0.18663123 -0.029981472 0.02815781 0.036767337 0.00784853
0.06799488 0.04045366 -0.047078256 0.01456829 0.06347354 0.047312234 -0.1921578 0.2023942
0.19964044 -0.17045328 0.12660575 0.19365641 -0.23114844 0.20093268 0.1416124 0.2033978
-0.0934946 -0.0685453 0.115053244 -0.16549085 0.080309354 -0.070078745 0.07372946 -0.012094032
-0.03310325 -0.05383046 0.0051954943 -0.07004884 -0.00876523 0.0047275885 0.011636393 -0.07875028
0.073688924 -0.03003024 -0.09041669 -0.05379352 0.10921619 0.03450599 -0.1025386 0.14358579
-0.07481486 0.031540927 -0.06157591 -0.008851305 0.023860732 0.0058205985 -0.21869066 -0.084033705
0.17393105 -0.24689536 0.119234964 -0.112154536 0.10471757 -0.022543363 -0.026269427 -0.06296664
0.075405784 0.010419226 -0.08646197 0.09894187 -0.05854307 0.008730136 -0.019639265 -0.016667657
0.013521638 0.0016411606 0.016056143 -0.080606766 -0.014396874 0.0043172645 0.004772763 -0.09802746

encoder.rnn.bias_ih_l0_reverse f4 [30]
00000000: 013f 35be 93f7 dcbd 52ba 23be 19c2 35be
00000010: d46f 05be 1d1a eebd a5d4 e4bd 558f f4bd
00000020: 7892 0fbe 6a51 07be 8da8 883d 1948 e93d
00000030: 609a 4a3d 6221 913d 8528 083d 6d60 013e
00000040: 57e9 c73d c1d3 e93d 0d16 f33d 2270 1e3e
00000050: e737 a83b cc9e 8c3c 71a5 043c 54eb 77bc
00000060: dc55 0d3c 3d94 b13c a667 a0bc 14e5 813c
00000070: 727d f63b 3d17 923c
-0.17699815 -0.107894085 -0.15989044 -0.17749824 -0.1303094 -0.116260745 -0.11173371 -0.11941401
-0.14020717 -0.13214651 0.066727735 0.11390705 0.04946363 0.070864454 0.033241767 0.1263444
0.09761303 0.11417342 0.1186944 0.15472463 0.005133617 0.017165564 0.008096085 -0.01513179
0.0086264275 0.02167713 -0.019580673 0.015856303 0.0075222785 0.017833347

encoder.rnn.bias_hh_l0_reverse f4 [30]
00000000: 013f 35be 93f7 dcbd 52ba 23be 1bc2 35be
00000010: d46f 05be 1d1a eebd a5d4 e4bd 578f f4bd
00000020: 7692 0fbe 6a51 07be 8ca8 883d 1748 e93d
00000030: 649a 4a3d 6421 913d 8a28 083d 6d60 013e
00000040: 59e9 c73d bbd3 e93d 0b16 f33d 2470 1e3e
00000050: 6621 953b 5bd4 843c adb0 ea3b 1165 61bc
00000060: 75d5 ed3b 0723 ab3c 3848 9abc f08f 783c
00000070: a05f e43b 7e33 8d3c
-0.17699815 -0.107894085 -0.15989044 -0.17749827 -0.1303094 -0.116260745 -0.11173371 -0.119414024
-0.14020714 -0.13214651 0.06672773 0.11390703 0.049463645 0.07086447 0.033241786 0.1263444
0.097613044 0.114173375 0.11869439 0.15472466 0.0045511005 0.01621454 0.0071621747 -0.013757006
0.007258112 0.020890726 -0.018833265 0.015171036 0.006969407 0.017236467

encoder.fc.weight f4 [10, 20]
00000000: 3b33 8cbc eab3 8bbd 9fc1 72bc 5d88 653b
00000010: 8174 2d3d 6037 3d3d 8310 a0bd f465 6fbd
00000020: d827 b23d b0bf edbc f364 13be 12dd ed3d
00000030: 1201 183e cdfe 07be 6730 ff3d 512b a33d
00000040: 7e36 efbd 4de2 e23d 2440 bd3c 226b cb3d
00000050: 6e69 223d d94e e33d 3a3a 0a3c 004a c4bc
00000060: 438a b5bd ed5f 46bd 2f8f c23d d632 d73d
00000070: ea29 f6bd 4b04 b83c 24f0 2a3e 37a3 d3bd
00000080: 90e4 41be 337b 233e 2864 44be e95a 76bd
00000090: d659 e83d f8ed f1bd e677 a9bc 1ca5 adbd
000000a0: 9c1e 00bd 30c5 bdbd 983a 00bc 27fe 4c3c
000000b0: e6ee c73d 11a9 223d a38b ccbd f6ab dcbd
000000c0: e852 ef3d 887e 25bc 4c1a 37be 7fce 923d
000000d0: 51e1 4a3e 3f84 2ebe 6fe6 2a3e 176c 6d3d
000000e0: 8973 acbd 6ebc f73d bb81 c1bc 786c 993d
000000f0: a87f d0bc c245 d2bd 0d32 0ebc 3ba7 8e3c
00000100: 938f 013e 15fe de3c c5d6 b9bd f229 a2bd
00000110: f112 a83d ca66 873a 70ec 1bbe 0e7c bd3d
00000120: 41a7 2e3e e14f 19be 69ce 373e 4f50 c23d
00000130: c051 e4bd 80f4 073e 8daa 893c 8bd4 b73d
00000140: ea0e a7bb 25f3 c0bd 8930 1abb c166 2e3c
00000150: 41ed ac3d 984d 7e3c 4814 89bd 08cd c3bd
00000160: df0a f23d d8a7 91bb 05b1 23be db2e bc3d
00000170: 9ac9 3a3e 3a3a 15be 8fdc 163e 7c08 af3d
00000180: 90d9 aebd 17c4 d33d 4ee9 d23a a44d c63d
00000190: b66e cf3c 9b71 923d 4bf3 62bb 62a6 e5bc
000001a0: fa7a 6bbd 5dfb 54bb c33d 7a3d b789 4d3d
000001b0: a024 79bd 5219 99ba 0e00 0f3e fb6b 94bd
000001c0: bf91 03be 2637 053e 5e5e 2fbe b1e7 9cbd
000001d0: 8de8 ee3d a64f e0bd 7293 abbc ec43 b5bd
000001e0: 42bb d8bc 1703 c6bd 62c4 c4bc af2b eb3c
000001f0: 3482 d03d 532a c23c 4dbf c3bd 4034 8cbd
00000200: fe66 b73d 3eb1 01bd 86ea 2cbe eb21 be3d
00000210: b848 243e 1910 24be df66 443e 4a3f a83d
00000220: bf80 dbbd 627e ee3d 72a8 c8ba b617 913d
00000230: ffaa 0cbc 6f12 aebd c09e 373c febd 8d3c
00000240: 00c9 9b3d c833 a63c 6843 afbd 25c6 d2bd
00000250: 0a10 e13d 16f0 ed3b 697f 32be ed4b ac3d
00000260: 70c7 363e 3e65 2cbe 4cb4 2b3e c387 563d
00000270: a333 d2bd 792e b53d fafb 043c 6651 a43d
00000280: 2a45 98bc 380d 34bd 6b30 d3bc 068d 953c
00000290: 0314 de3c 3887 60bc 74b6 e8bc 2109 c5bc
000002a0: d048 113c 3f1c 99bc 7d03 b1bd 68a9 a93d
000002b0: 06d0 dd3d f4e8 95bd 3c44 063e 6ea0 bb3d
000002c0: d3bb b5bd b79f ec3d e27c 0a3c 42b4 c13d
000002d0: 33f7 05bd 3a61 a4bd f5bc 09bd f1bb cb3c
000002e0: 914a c33d 0c52 723b 8022 8cbd db72 8cbd
000002f0: ee92 bb3d 0d70 8cbc ce6e 0cbe e403 ac3d
00000300: 7004 213e 5664 00be 7284 273e e541 933d
00000310: 2de9 b0bd e85e fa3d 6e8b 8d3c cb66 8a3d
-0.017114272 -0.06821425 -0.014816671 0.0035023906 0.042347435 0.046195388 -0.07815649 -0.05844684
0.08699006 -0.029022068 -0.14393978 0.116144314 0.14844158 -0.13280793 0.12460404 0.07967246
-0.116803154 0.1107832 0.023101874 0.09932543 0.039651327 0.11099023 0.008436734 -0.023961067
-0.08864262 -0.048431326 0.09499966 0.10507743 -0.12019713 0.022462985 0.16693169 -0.10333865
-0.18934846 0.15964966 -0.19178832 -0.060145292 0.1134526 -0.11812967 -0.020687055 -0.08478758
-0.03127919 -0.09266126 -0.00782647 0.0125117665 0.09762363 0.039712016 -0.09987571 -0.107749864
0.11685735 -0.010100968 -0.17881125 0.07168292 0.19812514 -0.17042635 0.16689466 0.05796441
-0.08420474 0.12096487 -0.02362143 0.07491392 -0.025451496 -0.102672115 -0.008678925 0.017413726
0.12652425 0.027220765 -0.09074167 -0.07918157 0.08206738 0.0010330316 -0.15226912 0.09252177
0.1705599 -0.14971878 0.17949833 0.09487974 -0.11148405 0.13276863 0.016804958 0.08976086
-0.0050982134 -0.09421376 -0.0023527464 0.010644616 0.0844369 0.0155214295 -0.066933215 -0.09560591
0.1181848 -0.0044450574 -0.15985496 0.091886245 0.18240967 -0.14572993 0.14732574 0.0854654
-0.085375905 0.103401355 0.0016091259 0.096827775 0.025321346 0.07150575 -0.0034629877 -0.02803344
-0.057490326 -0.0032498457 0.061094057 0.050180163 -0.060825944 -0.001168052 0.13964865 -0.07247158
-0.12848566 0.13009319 -0.17125842 -0.07661379 0.11665449 -0.10952692 -0.02094433 -0.08850846
-0.026456479 -0.09668558 -0.024019424 0.028707353 0.10181084 0.023701822 -0.09557972 -0.068459034
0.08955191 -0.031663172 -0.16886339 0.09283813 0.16043365 -0.16021766 0.19179867 0.082151964
-0.10717916 0.11645199 -0.001530899 0.070846006 -0.0085856905 -0.0849961 0.011207283 0.01730251
0.07606697 0.020288363 -0.085577786 -0.10291699 0.10989387 0.0072612865 -0.17431416 0.08412919
0.17849517 -0.16835496 0.16767997 0.052375566 -0.10263755 0.088467546 0.0081167165 0.08023338
-0.018587667 -0.04395792 -0.025779923 0.018255722 0.027109152 -0.013704114 -0.028407313 -0.024052205
0.0088674575 -0.018690227 -0.086432435 0.08284265 0.10830693 -0.07319823 0.13111967 0.09161459
-0.08873715 0.11553901 0.008452626 0.094582096 -0.03270645 -0.08026357 -0.03362747 0.02486989
0.09535707 0.0036975173 -0.06842518 -0.068578444 0.09158884 -0.017143274 -0.13714144 0.083991796
0.15724349 -0.12538275 0.16359118 0.07190303 -0.08638225 0.12225133 0.0172784 0.067578875

encoder.fc.bias f4 [10]
00000000: b8b8 393e bfa8 51be ba48 5e3e 44c8 363e
00000010: b9d9 4d3e dbb3 13be 8794 3c3e 63ce 573e
00000020: 3b7d ee3d acba 243e
0.18136871 -0.20474528 0.2170743 0.17849833 0.20102586 -0.14424078 0.18416034 0.21074824
0.116449796 0.16086835

decoder.attention.attn.weight f4 [10, 30]
00000000: 9e62 4ebc 177d c23c 4cd3 8a3c 9f34 c6bc
00000010: 4cda b53b 35c5 aa3c eabc 15bc 5b5c 28bb
00000020: 336c 18bc d611 49bc 5544 1f3d b0a5 5d3c
00000030: 7188 a2bc d2bc 07bd 1c2c 323d 5997 7cbc
00000040: fc65 583c 81e1 7dbc 5b83 b9ba 22ce 96bb
00000050: 3570 84bc 4455 053d 60cd 2d3d 8789 15bd
00000060: 866d 203d 4672 973c bebe 62bc 42e1 083b
00000070: 38ce 8c3d 3a72 983c 7357 64bd dea6 1e3d
00000080: a5d1 0fbd 14b4 21bd b255 f5bc 200a 87ba
00000090: 5ded 38bd a231 f8bc ed5e 55bc 3e80 20bc
000000a0: 6470 653d 232e be3d 12ac 823d de73 db3d
000000b0: 9c4a efbc 37e0 9fbd 15a0 a93d 4a26 ec3d
000000c0: 653d 8dbd a1c0 f03d 60ec 5c3d d382 d4bd
000000d0: 6f54 a3bd 9534 f03c 3702 9dbd 3ed2 02be
000000e0: 8329 d63d f3aa cebd 4c3b 3dbe c24b b8bd
000000f0: bd0c 373d 483d 6ebd 1311 293d 9071 503d
00000100: bb70 6d3d 5e50 9dbc 0c4d 783d 4bda e33c
00000110: 5eab d43c b0ab 283d 7f1a 51bd 62ea e0bd
00000120: fc6c bebd 5657 cdbd 07f1 ce3c ccb3 8c3d
00000130: a896 a9bd 76b8 e9bd 90d4 493d e23d 01be
00000140: 4653 e1bd 8545 e33d 800a a83d b743 3bbd
00000150: 5fca e33d 721e 263e 7513 19be 74e2 d43d
00000160: a1fb 383e 9d04 d63d 80bd 7c3c 1057 71bb
00000170: b6dd 25bb 1239 0bbc 4dd3 f7ba 3e3a 103b
00000180: bc49 3abc 1f56 163b ba45 053c 3516 0e3c
00000190: b7d9 2abd 6ceb 8abd fc9c 7bbc f398 1abc
000001a0: c1d9 56bc 90a3 693d 3c44 34bd cd74 d7bc
000001b0: 7145 883c 7ec6 2abd 8f36 043c 25dc ba3b
000001c0: c55c c63b 95e9 c33c e46d 83bb 785f 5b3c
000001d0: daf0 fc3b b779 293c 4ea3 d63a 3ed1 813b
000001e0: 2cda f1bb 2007 5c3c a8dc a1bb 956f d1bc
000001f0: 810a e4bc 2200 113d c495 0abc da9f 71bc
00000200: 985a a0bb a47a abbc 1cda 693d 8303 373d
00000210: 6a15 173b c348 e9bc af1b ae3c bbe7 32bd
00000220: 1b6c 213d 783f 4a3c 03e5 6c3b 82b7 e93c
00000230: 640e 763a abc2 533c 2332 22bc d010 b939
00000240: ba01 36bc 1fe5 69bc 0075 6fbb 9fc3 d3bc
00000250: 4055 20bc 648d 06bc cced 3e3d e912 57bc
00000260: 7011 ee3c c0c6 123d dd68 4a3d e6d9 3fbd
00000270: 12f1 323d cee9 063d 9d55 c73c ad01 033d
00000280: aab0 f4bc 6cc6 43bd 6122 d8bc 7168 6bbd
00000290: 57f2 a0bc 57ac 7d3d 7864 1ebd 46f9 49bd
000002a0: 2864 a3ba 711d 8dbd 91c5 70bd ff48 413d
000002b0: e41c 503c 8396 5ebd 7322 633d bfb1 a53d
000002c0: 3348 49bd 6431 4c3d 0daf 003e c48b 2d3d
000002d0: 4305 153c 4bed 403b 2907 b93b 908d e5ba
000002e0: 82fd 25bb ebe2 c1ba 3636 54bb 4bfc 84bb
000002f0: 1033 88bc 19cd 5dbb 7f50 67bc 00d8 44bd
00000300: 7cbe 5e3a 55bb 5d3d 8e86 fc3c b046 073a
00000310: efca c9bc e8b9 fa3b 361f eb3c 8e36 e63c
00000320: de74 b8bc f7a3 553c 327b 873c b7a8 02bd
00000330: 0db6 9c3c 80a9 073b 141e b5bb 3626 403d
00000340: 0955 79bd 72e3 f83b 23f4 133d f0d8 e6bc
00000350: a09e 443d 9224 4d3c 53a1 923c 985d dcbc
00000360: b27c 893c 1fec ca3c 91c3 febb 8a26 e03c
00000370: 47ed 61bd 849b 91bd 8777 40bd 926b a7bd
00000380: e77b a0bc d33e 863d d9d8 82bd ee48 50bd
00000390: 6c19 c53b a8ce b3bd d4ae 67bd d0d4 233d
000003a0: 12e1 973c 04d3 62bd 41e1 793d cbd8 9f3d
000003b0: d40d 87bd 5e2b 0a3d 68ec f83d 1419 1c3d
000003c0: c35e 02bd 00df 5c3d 9e65 0fbd 3bd1 0dbd
000003d0: e152 3abd c496 1e3c 5c7c 47bd 0ac6 08bd
000003e0: 3c27 bc3c 057d bbbc 25b2 933d 717f ea3d
000003f0: 034c be3d 39e4 073e 8abc cdbc bcfd 8bbd
-0.012596754 0.023741288 0.016946457 -0.024195014 0.0055497047 0.020845989 -0.009139279 -0.0025689814
-0.00930314 -0.012272319 0.038883526 0.0135282725 -0.019840451 -0.033139057 0.043499097 -0.0154169435
0.013207909 -0.015495659 -0.0014153527 -0.0046022097 -0.016166786 0.03255202 0.04243219 -0.03650811
0.03916695 0.018487107 -0.013839422 0.0020886217 0.068752706 0.018609155 -0.05574746 0.038733356
-0.035112042 -0.039478377 -0.02994809 -0.00103027 -0.045148242 -0.030297104 -0.01302312 -0.0097962
0.056015387 0.09286144 0.06380476 0.10715459 -0.029210381 -0.078064375 0.08282486 0.115307406
-0.06896476 0.11755491 0.053936362 -0.10376515 -0.07975089 0.029321948 -0.07666438 -0.12775514
0.104571365 -0.100912 -0.18479651 -0.08998825 0.044689883 -0.05816391 0.04127605 0.05088955
0.057968836 -0.019203361 0.060620353 0.027814051 0.02596062 0.04117936 -0.05105066 -0.10982205
-0.09298131 -0.10026424 0.025261415 0.06870231 -0.082806885 -0.11412136 0.04927498 -0.12621263
-0.11002211 0.11097244 0.08205128 -0.045718875 0.111225836 0.16222551 -0.14948829 0.10394755
0.18064739 0.10450099 0.01542604 -0.0036825575 -0.0025309152 -0.008497493 -0.0018907577 0.0022007371
-0.011370119 0.0022939516 0.0081343 0.008672287 -0.041711535 -0.067831844 -0.015357252 -0.00943588
-0.01311344 0.05704075 -0.044010386 -0.026300812 0.016634675 -0.041693203 0.008069648 0.005702513
0.0060535395 0.023915092 -0.0040109027 0.013389461 0.0077191414 0.0103439605 0.0016375573 0.003961711
-0.0073807444 0.013429433 -0.0049396344 -0.025565902 -0.02783704 0.035400517 -0.0084585585 -0.014747584
-0.004893612 -0.020932503 0.05709277 0.044681083 0.0023053535 -0.028477078 0.021253435 -0.043678027
0.039409738 0.012344234 0.0036147244 0.028529886 0.00093862996 0.01292483 -0.009899649 0.00035298476
-0.01110881 -0.014275818 -0.0036538243 -0.025850115 -0.00978595 -0.008212421 0.0466135 -0.013127067
0.02906105 0.035834074 0.04941641 -0.046838664 0.043686934 0.032937817 0.024332816 0.03198402
-0.029869396 -0.04779665 -0.02638358 -0.05747265 -0.019646807 0.061931934 -0.038670033 -0.04930999
-0.0012465762 -0.06890381 -0.058782164 0.047188755 0.012702201 -0.054342758 0.055452775 0.08090543
-0.04914112 0.04985179 0.12566777 0.04236962 0.009095493 0.0029438313 0.0056466055 -0.0017513502
-0.0025328104 -0.0014792358 -0.0032380945 -0.004058396 -0.016625911 -0.0033844172 -0.014118313 -0.048057556
0.00084970123 0.054133732 0.03082588 0.00051603746 -0.0246329 0.0076515563 0.028701406 0.028102186
-0.022516664 0.013039581 0.016538236 -0.03189918 0.019129777 0.0020700395 -0.005527267 0.04691144
-0.06087211 0.007595473 0.0361215 -0.028179616 0.04800284 0.012520926 0.017899191 -0.026900098
0.016783092 0.024770794 -0.007774778 0.027362127 -0.055157926 -0.071097404 -0.04698899 -0.08174814
-0.019590331 0.065549515 -0.06389017 -0.0508508 0.0060149934 -0.08779651 -0.056563213 0.039997876
0.01853994 -0.05537702 0.061005834 0.07805022 -0.065944344 0.033732764 0.12154466 0.038109854
-0.031828653 0.053923607 -0.03500902 -0.034623366 -0.045489196 0.0096795 -0.048702583 -0.03339199
0.022967927 -0.022886762 0.07211713 0.11450089 0.09291842 0.13270654 -0.025114316 -0.06835505

decoder.attention.attn.bias f4 [10]
00000000: 7352 0bbd 6fc3 b73d d708 c6bd 4692 e9ba
00000010: c18a 9ebd f2cf 68bd 4906 973b ec17 56bd
00000020: 8f3d 9f3d ca21 99bd
-0.034014177 0.08972823 -0.09669655 -0.0017820082 -0.07741309 -0.056838937 0.0046089035 -0.052268907
0.07775413 -0.07477148

decoder.attention.v.weight f4 [1, 10]
00000000: 23cd 0c3d c83c f23d 36fc 04be 00ea fb3a
00000010: 8fe8 80bc 4391 63bd 433e 2b3c 8462 7dbd
00000020: d7f0 0c3e 1cd2 b2bd
0.03437532 0.11827999 -0.12986836 0.0019219518 -0.015735893 -0.055558454 0.010451856 -0.06186153
0.13763748 -0.087314814
