agl/models/autosave/tr-AE-100-20-0.001-A2.pt (torch, 124076 bytes, 21 tensors)

encoder.embedding.weight f4 [8, 100]
0	0xbc9355b6	-0.017985206
1	0xb694af6b	-4.431165e-06
2	0x3b1e69e9	0.0024172014
3	0x3bd9a604	0.006642105
4	0xbb6fbbfe	-0.0036580558
5	0x3c065877	0.008199803
6	0xbb725c74	-0.0036981376
7	0xba78bd86	-0.00094886904
8	0xbb9f272e	-0.0048569655
9	0xbc2b138a	-0.01044167
10	0xbb705ca5	-0.0036676314
11	0xbc027849	-0.0079632485
12	0x3ba6a8f0	0.005086057
13	0x3ba31bbe	0.0049776724
14	0x3c6d9167	0.014499999
15	0xbc781dd7	-0.015143833
16	0x3aa0a1a5	0.0012255205
17	0xbbf06b3e	-0.007337003
18	0x3aab0216	0.0013046886
19	0x3b215287	0.002461584
20	0xbb7545f3	-0.0037425726
21	0x3c8616e9	0.016368346
22	0xbb805732	-0.0039166445
23	0xbbb1ffa5	-0.0054320865
24	0x3c9869cc	0.018605135
25	0xbbbc95cf	-0.0057551633
26	0xbbe7e605	-0.007076981
27	0xbbb95fa4	-0.005657153
28	0xbbb88f9e	-0.005632355
29	0xbba5f7f0	-0.005064957
30	0xbc15e3b7	-0.00914853
31	0xbb9b099b	-0.0047313697
32	0x3c958029	0.018249588
33	0x3ca64ca6	0.02030022
34	0x3c8a802f	0.016906826
35	0x3c77c126	0.015121734
36	0xbc39037c	-0.011292335
37	0x3c424fbd	0.011859831
38	0x3b4c6f58	0.0031194296
39	0xbc1928a6	-0.00934807
40	0x3c5566f3	0.013025033
41	0x3bc2d1ed	0.0059454353
42	0x3ae79202	0.0017667415
43	0xbadfacbb	-0.0017065027
44	0x3c1c2329	0.009529867
45	0x3b8558d6	0.004069428
46	0x3aa7916d	0.0012784429
47	0xbc4b24c7	-0.012398905
48	0xb94efa2e	-0.0001973889
49	0xba921172	-0.0011144115
50	0xbbb7fedc	-0.0056150984
51	0x3bbb5464	0.0057168473
52	0xbb915d66	-0.004436183
53	0xbcdb858a	-0.026797075
54	0xbb8c154f	-0.004275001
55	0xbc7d4cc9	-0.015460202
56	0xbb20520f	-0.0024462973
57	0x3c438a80	0.011934876
58	0x3bdf94cc	0.006823158
59	0xbc18f042	-0.009334626
60	0xbb847025	-0.004041689
61	0xbb57cd87	-0.00329289
62	0xbc090caf	-0.00836484
63	0x3cdb161c	0.026743941
64	0xbb6b800e	-0.003593448
65	0xbbf01b0b	-0.0073274425
66	0xbb15dfe5	-0.0022869047
67	0x3b92aaf7	0.004475947
68	0x3be4b6f2	0.0069798166
69	0xbc84668e	-0.016162183
70	0xbcc63d34	-0.024199106
71	0x3caeb049	0.021324294
72	0x3a742bf5	0.00093144114
73	0x3c0cd8ab	0.00859658
74	0xbbd19a0b	-0.006396537
75	0xbbee9cf2	-0.007281893
76	0xbb63734e	-0.0034706178
77	0xbc6e6153	-0.014549571
78	0xbc8df36b	-0.017327985
79	0x3c304861	0.010759444
80	0xbc460852	-0.012086945
81	0xbc5e9506	-0.013585335
82	0x39ac9e8e	0.0003292453
83	0x3b559f3c	0.0032596132
84	0x3bd315d3	0.0064418106
85	0x3966aefc	0.00021999696
86	0x3ab6f5e0	0.0013958775
87	0xbb29eb14	-0.002592747
88	0x3c1b0286	0.009461051
89	0xbb9a26fd	-0.004704355
90	0xbc55a106	-0.013038879
91	0xbc9e7f23	-0.019347733
92	0x3b8ed870	0.0043592975
93	0x3b6ac0f0	0.0035820566
94	0xbc780385	-0.015137558
95	0xbc3af9ee	-0.011412127
96	0xbc2ab160	-0.010418266
97	0x3c474625	0.01216272
98	0x3bbc1258	0.0057394914
99	0x3a58824c	0.0008259162
100	0xbb270704	-0.002548636
101	0x3c03b88f	0.008039608
102	0xbc6335a1	-0.013867767
103	0x3b0eaef6	0.0021771765
104	0x3c30848e	0.010773791
105	0x3caf87af	0.021427004
106	0x3afa85dd	0.0019113381
107	0xbb10adf1	-0.0022076333
108	0xbbda4620	-0.0066611916
109	0x3b8ef10c	0.004362231
110	0x3aeefabe	0.0018232686
111	0xbadf9a62	-0.001705956
112	0x3bc196da	0.0059078755
113	0xbc3f7842	-0.011686387
114	0x3bc32ae4	0.0059560407
115	0xb95247c8	-0.00020053901
116	0xb8deffba	-0.00010633418
117	0x3ad45e24	0.0016202372
118	0x3ab311aa	0.001366188
119	0xbc03031b	-0.007996346
120	0xbd395814	-0.045250013
121	0xbabc1cd7	-0.0014351857
122	0xbd3666d1	-0.044531647
123	0xbad082b7	-0.0015908097
124	0x3cb4d83d	0.022075767
125	0x3bc18f89	0.0059070033
126	0x3b2ed99c	0.0026679998
127	0xbc2fe816	-0.010736486
128	0xbc68facf	-0.014219954
129	0x3c2ef6e4	0.0106789805
130	0xbcc63da6	-0.024199318
131	0xbc0b5eb6	-0.008506468
132	0x3a44e5b8	0.00075110374
133	0x3d1e6174	0.038667157
134	0xbbc173c0	-0.005903691
135	0x3c18cb7a	0.009325856
136	0x3b2c60b1	0.002630275
137	0x3bbe9ce7	0.005817044
138	0xbba17a28	-0.0049278922
139	0x3bc8bbbb	0.006125895
140	0xbd0f474d	-0.034980107
141	0x3b84c931	0.004052304
142	0xba6ff069	-0.00091529504
143	0x3beddcc5	0.007258984
144	0xba526779	-0.0008026283
145	0xbc2dd2f6	-0.010609379
146	0xbc187dea	-0.009307364
147	0x3ad214eb	0.0016027963
148	0x3b68a1d1	0.003549684
149	0x3baf5ad6	0.0053514047
150	0x3b149272	0.0022670296
151	0x3c30e871	0.010797606
152	0xbcbc3c00	-0.022977829
153	0xbc6806e1	-0.014161796
154	0x3d0fca9b	0.03510533
155	0x3ce6cb8b	0.028173229
156	0x3b80dab1	0.00393232
157	0x3c3c9e36	0.01151233
158	0x3c60ef25	0.0137288915
159	0x3cf7b79a	0.030238915
160	0x3be5ad96	0.0070092184
161	0xbc38a2d5	-0.011269291
162	0xbb17206c	-0.0023060096
163	0x3a054d87	0.00050851
164	0x3c037676	0.008023849
165	0x38c020a8	9.161356e-05
166	0x3ba2b3ac	0.004965266
167	0xbb8a27db	-0.004216177
168	0x398f5c25	0.00027343738
169	0x3c1a3120	0.009411126
170	0x3ab25a7f	0.0013607292
171	0xb8471ddb	-4.7473102e-05
172	0x3947a0a5	0.00019037964
173	0x3a8d2c31	0.0010770616
174	0x3969503e	0.00022250504
175	0x3bebd5d8	0.007197123
176	0xb902ce46	-0.00012474609
177	0xbb57bc2f	-0.0032918563
178	0xbc518cbb	-0.0127899
179	0x3c9a8cb1	0.018865915
180	0x3c724b40	0.014788449
181	0x3b9104a2	0.004425601
182	0xbcb750fb	-0.022377482
183	0x3b34b53d	0.0027573847
184	0xba08edc2	-0.0005223417
185	0x3b7390c2	0.003716514
186	0x3acbeccc	0.0015558242
187	0xba9c299c	-0.0011914256
188	0x39940b55	0.00028237203
189	0xbb734710	-0.0037121214
190	0x3be213e2	0.006899343
191	0x3cd080c4	0.025452025
192	0x3b90c916	0.0044185026
193	0xbc340926	-0.010988509
194	0xbbca388e	-0.0061712926
195	0x3bc8c060	0.0061264485
196	0x3d51a394	0.05118139
197	0xbb89b52e	-0.0042025065
198	0x3b836d13	0.0040108054
199	0xbc353d5e	-0.011061994
200	0xbe62c088	-0.22143757
201	0x3e69020b	0.22754686
202	0xbdd968e6	-0.10615711
203	0xbd14c53a	-0.036320902
204	0xbde340c6	-0.11096339
205	0x3df3e958	0.11909741
206	0xbcf4fc64	-0.029905505
207	0xbd3479ad	-0.04406135
208	0xbe048c26	-0.12944087
209	0x3d876c59	0.066124626
210	0x3d55e636	0.0522215
211	0x3bd3bfbe	0.0064620664
212	0x3d6f8536	0.05847665
213	0x3dfab7ca	0.12242086
214	0x3d16da2c	0.03682916
215	0x3e11da5c	0.14243454
216	0x3d8ecc27	0.06972533
217	0xbccb10af	-0.024788229
218	0x3cc35cfc	0.02384805
219	0xbe0e46ae	-0.1389415
220	0xbd83c604	-0.06434253
221	0xbdcdfb25	-0.10057668
222	0xbdf8f925	-0.121568955
223	0xbe2dff50	-0.16991925
224	0x3deeb66b	0.11655887
225	0x3e693224	0.22773033
226	0x3ce310e8	0.027718022
227	0xbd99685e	-0.074906096
228	0x3cdcdbd2	0.026960287
229	0x3c9f537c	0.019448988
230	0xbd99c846	-0.07508902
231	0xbdfda829	-0.1238559
232	0xbdb9dad3	-0.090749405
233	0x3d299aae	0.04140728
234	0xbe085405	-0.13313301
235	0x3dae9979	0.08525366
236	0x3e03e848	0.12881577
237	0xbd8571b3	-0.06515827
238	0xbd87ad25	-0.066248216
239	0x3d42562a	0.047445454
240	0xbe341ff2	-0.17590311
241	0xbc0aa733	-0.008462715
242	0xbe0ac9b8	-0.13553512
243	0x3dacadd5	0.08431593
244	0xbe76eb5e	-0.24113223
245	0x3ca56665	0.020190427
246	0x3b9e0022	0.004821793
247	0x3debd97f	0.115160935
248	0x3d77bd37	0.060483184
249	0xbe0bbcfd	-0.13646312
250	0x3bbb1ceb	0.0057102344
251	0x3db7a53c	0.08967063
252	0x3d6e7db8	0.058225363
253	0xbe2d44ff	-0.16920851
254	0x3e06f732	0.13180235
255	0x3de3546c	0.111000866

encoder.rnn.weight_ih_l0 f4 [60, 100]
0	0xbd6cb252	-0.057787247
1	0x3d08b8fd	0.033379544
2	0x3dcaa40b	0.0989457
3	0xbc86d32b	-0.016458115
4	0x3be35ca1	0.0069385325
5	0xbd8d805c	-0.06909248
6	0xbdaebcd8	-0.08532113
7	0x3cbc7689	0.02300574
8	0x3e12d53a	0.14339152
9	0x3c696c81	0.014247061
10	0x3c74f3af	0.014950677
11	0x3bce38a9	0.0062933755
12	0x3c9e98f3	0.019360041
13	0x3d80d049	0.06289727
14	0xbc9910ab	-0.018684706
15	0xbd472f43	-0.048629057
16	0xbdd4c89c	-0.10389826
17	0x3ce1a0b2	0.027542446
18	0xbc81601d	-0.0157929
19	0x3dd60213	0.104496144
20	0x3da693b9	0.081336446
21	0xbd410a35	-0.047128875
22	0x3d081e83	0.033232223
23	0xbd28925f	-0.041155215
24	0x3ce74969	0.028233247
25	0xbbe4d9a5	-0.006983953
26	0xbd2a7493	-0.04161508
27	0xbd39cf78	-0.045363873
28	0x3d1dfd73	0.038571786
29	0xbdb5342a	-0.0884784
30	0x3dab278d	0.08357153
31	0x3d8cde01	0.068782814
32	0xbd0b33d5	-0.033984978
33	0xbd654351	-0.0559724
34	0x3d6af040	0.057358027
35	0xbdcf6957	-0.10127514
36	0x3d5a3927	0.05327716
37	0xbc8b7c68	-0.017027095
38	0x3b4317d2	0.0029768837
39	0x3cebb831	0.028774353
40	0x3d68d99b	0.05684815
41	0xbca78779	-0.02045034
42	0xbc9b2f9b	-0.018943598
43	0xbd8d4f82	-0.068999305
44	0x3bf912c8	0.007601116
45	0xbd0d410e	-0.03448587
46	0xbda8816f	-0.082278125
47	0x3bea3854	0.007147828
48	0xbcb191e8	-0.021676019
49	0xbd96285d	-0.073319174
50	0xbd04bab5	-0.03240462
51	0x3db66987	0.089068465
52	0x3d2747c5	0.04083993
53	0x3c8c2f17	0.017112298
54	0xbda18a45	-0.07887701
55	0xbd385c40	-0.04500985
56	0xbd7ede56	-0.062223755
57	0xbd7efd38	-0.062253207
58	0x3bea521d	0.007150902
59	0xbd8a097f	-0.067400925
60	0xbd16617b	-0.03671406
61	0x3d8a7bdb	0.06761905
62	0xbd37a5ec	-0.04483597
63	0xbca3cfaa	-0.019996483
64	0x3cfce48a	0.030870695
65	0xbbeb3f6d	-0.007179192
66	0x3ca6a3cf	0.020341782
67	0x3cdad8cb	0.026714703
68	0xbd3a976a	-0.045554556
69	0x3da3c29e	0.07996105
70	0xbd4e3d16	-0.050351225
71	0xbcad9fc0	-0.021194339
72	0xbca9bf33	-0.020721054
73	0x3d90333b	0.070410214
74	0x3c526b22	0.012842925
75	0xbc7cf327	-0.015438831
76	0xbcbfc475	-0.023409108
77	0xbb94f359	-0.004545611
78	0xba9b26e0	-0.0011837147
79	0x3cab5c9e	0.020918187
80	0xbd4005e2	-0.04688061
81	0x397163aa	0.00023020679
82	0x3db2d0a9	0.08731205
83	0xbcda467a	-0.026644934
84	0x3d9353ce	0.07193719
85	0x3d220c02	0.039562233
86	0x3d6406dd	0.055670608
87	0x3cd1bbd3	0.025602257
88	0x3d5f67c4	0.054542318
89	0x3d9a5dea	0.07537444
90	0x3b6615c7	0.0035108195
91	0xbc7c8995	-0.0154136615
92	0x3c54f0b3	0.01299684
93	0xbd368486	-0.044559978
94	0x3d47bd81	0.04876471
95	0x3d78236e	0.060580663
96	0xbd94c44a	-0.07264002
97	0xbcaee6bc	-0.021350257
98	0xbdacfa00	-0.08446121
99	0x3da12c5c	0.07869789
100	0x3d4b288b	0.04959921
101	0x3a5fcbf6	0.00085371675
102	0x3e168c90	0.14702058
103	0x3c70c944	0.014696423
104	0xbc735d59	-0.014853799
105	0xbdab3f96	-0.083617374
106	0xbd751c74	-0.05984159
107	0x3cbaa7f6	0.022785168
108	0x3e235ea7	0.15954076
109	0xbc02aa8a	-0.00797523
110	0xbd23fa07	-0.040033367
111	0x3d8aae04	0.06771472
112	0xbb8b2892	-0.0042467797
113	0x3d4241f9	0.047426198
114	0xbcca473b	-0.024692168
115	0xbdcbf3bd	-0.09958599
116	0xbe4fe3ea	-0.20301786
117	0x3d960d4e	0.073267564
118	0xbce6b847	-0.028164042
119	0x3e02de21	0.12780048
120	0x3dbbb1b4	0.091647536
121	0x3d8d4e51	0.06899703
122	0x3d85020a	0.064945295
123	0xbc18ad95	-0.009318729
124	0x3ca77d73	0.020445561
125	0xbdac88cc	-0.084245294
126	0xbd77605d	-0.060394634
127	0xbdb85113	-0.08999839
128	0x3d2635b8	0.040578574
129	0xbdc08d91	-0.09402002
130	0x3de2e2c6	0.1107841
131	0x3ddfb842	0.10923816
132	0x3ca88747	0.020572318
133	0xbdfe591b	-0.12419339
134	0x3dfdeadb	0.12398311
135	0xbe0a793e	-0.13522813
136	0xbd0b7387	-0.034045722
137	0xbc24964d	-0.0100456
138	0x3ceb31ea	0.028710324
139	0x3c393b38	0.011305623
140	0x3e0de34a	0.13856235
141	0xbca26723	-0.01982457
142	0x3cb16ae1	0.02165741
143	0xbd61ebcc	-0.055156514
144	0x3ca33d8d	0.01992681
145	0xbd7766cf	-0.06040078
146	0xbdfac47b	-0.12244507
147	0xbc338576	-0.010957113
148	0xbb86f28a	-0.0041182684
149	0xbd9914bc	-0.07474658
150	0xbd8087e3	-0.06275918
151	0x3de64105	0.1124287
152	0x3c349f1e	0.011024265
153	0x3dad6e04	0.084682494
154	0xbe207356	-0.15668997
155	0xbdfb2c5d	-0.12264321
156	0xbdc3e682	-0.0956545
157	0xbd27b5ba	-0.040944792
158	0xbd16d25b	-0.036821704
159	0xbdd350d6	-0.103181526
160	0xbdacd21f	-0.08438515
161	0x3d75f0ed	0.060044218
162	0x3cddcc8e	0.027075078
163	0xbc822827	-0.015888287
164	0xbd051055	-0.03248628
165	0xbc36595c	-0.011129703
166	0xbda15d9e	-0.07879184
167	0x3c71d8b4	0.014761139
168	0x3c86c707	0.016452326
169	0x3dd12447	0.102119975
170	0xbcb277fb	-0.021785727
171	0xbd811fdd	-0.063049056
172	0x3cb99c34	0.022657491
173	0x3d789606	0.06068995
174	0xbd1c8111	-0.038209025
175	0xbda14ad0	-0.078755975
176	0xbd84ee33	-0.064907454
177	0xbb4cac3a	-0.0031230585
178	0x3cacd64a	0.021098275
179	0xbcf1e15b	-0.029526403
180	0xbda25625	-0.07926587
181	0x3ab7e69e	0.0014030521
182	0x3dc6c846	0.09706168
183	0x3b77fccb	0.0037839885
184	0x3dca005a	0.09863348
185	0xbcc97c16	-0.024595302
186	0x3d3b59d2	0.045739956
187	0xbb941168	-0.0045186765
188	0x3d89f96a	0.06737025
189	0x3e16bcfd	0.14720531
190	0xbd539cb3	-0.051663112
191	0x3c826dd9	0.01592152
192	0x3cd540bf	0.02603185
193	0x3d1fec07	0.039043453
194	0x3daadb59	0.083426185
195	0x3dc21230	0.09476125
196	0xbe1074ca	-0.14107051
197	0x3c05896e	0.008150442
198	0xbd2d780e	-0.04235082
199	0x3dfddbd6	0.12395446
200	0xbd0e4727	-0.034735825
201	0x3daecd99	0.085353084
202	0x3e47d80d	0.1951601
203	0xbd8a414b	-0.06750735
204	0xbdb7207e	-0.08941744
205	0xbd7c50b3	-0.0616004
206	0xbe021c02	-0.12705997
207	0xbd68dcf7	-0.056851353
208	0x3e6d6b69	0.23185505
209	0x3e0ff904	0.14059836
210	0x3afdfbf5	0.0019377457
211	0x3e4b053f	0.1982622
212	0x3e15e26a	0.14637151
213	0x3d26e3f5	0.04074474
214	0x3d05fd5f	0.032712337
215	0x3d48256b	0.04886381
216	0xbe84f87a	-0.25970823
217	0x3e5094fa	0.2036933
218	0xbe074f19	-0.13213767
219	0x3de741bb	0.11291834
220	0x3e28f7cb	0.16500776
221	0xbd247b63	-0.040156733
222	0x3d929316	0.07156961
223	0xbe1b680c	-0.1517641
224	0x3c41c1bf	0.011825978
225	0xbd4ed2fa	-0.05049417
226	0x3e14f533	0.14546661
227	0x3cd3b683	0.025843864
228	0xbc2d873f	-0.010591327
229	0xbe5e7c41	-0.21727087
230	0x3e822b62	0.25423723
231	0x3de62866	0.11238174
232	0xbdf33399	-0.11875076
233	0xbe431bdc	-0.19053596
234	0x3d8fc404	0.07019809
235	0xbe292f5a	-0.1652197
236	0x3d3041bf	0.04303145
237	0xbdf596f6	-0.11991684
238	0xbd7d20ae	-0.061798744
239	0x3e63df0b	0.22253053
240	0x3e530a51	0.20609404
241	0xbe15137a	-0.14558211
242	0xbe0b62db	-0.13611929
243	0xbe4d7b35	-0.20066531
244	0xbd1a817a	-0.037721135
245	0xbe3f239c	-0.18665928
246	0xbce71fad	-0.028213346
247	0x3df0d7a5	0.11759881
248	0xbd976340	-0.07391977
249	0xbe21cb9c	-0.15800327
250	0xbd8038ac	-0.06260809
251	0x3da5f85e	0.08104013
252	0x3c63089a	0.013857031
253	0x3e0bf514	0.13667709
254	0xbd80e87e	-0.06294344
255	0xbe385839	-0.18002404

encoder.rnn.weight_hh_l0 f4 [60, 20]
0	0x3e2ef4d0	0.17085576
1	0xbe386c05	-0.18009956
2	0xbe2306ae	-0.15920517
3	0xbe14b716	-0.14522967
4	0xbe0b6e9a	-0.1361641
5	0xbdf46586	-0.119334266
6	0xbe40cf1c	-0.18829006
7	0x3e272a6d	0.16324778
8	0x3e348846	0.17630109
9	0xbe13e6e1	-0.14443542
10	0xbe367292	-0.17817143
11	0x3e158d32	0.14604643
12	0xbe2c69a9	-0.16837181
13	0xbe27bb4a	-0.16380039
14	0x3e39ee3f	0.1815729
15	0x3da4890f	0.08033954
16	0xbdad6dfd	-0.08468244
17	0x3e40a5bb	0.18813221
18	0xbe057a1e	-0.13034865
19	0x3e1f49a3	0.15555434
20	0x3e22a28c	0.15882319
21	0xbe1e40dc	-0.1545443
22	0xbe0862cb	-0.13318937
23	0xbe10fa1c	-0.14157909
24	0xbe0cf5b4	-0.13765603
25	0xbdd6f7b6	-0.10496466
26	0xbe278b1f	-0.16361664
27	0x3e1db99c	0.15402836
28	0x3e0ef698	0.13961256
29	0xbdf964ae	-0.12177406
30	0xbe43769e	-0.19088218
31	0x3dca207b	0.098694764
32	0xbdd3229b	-0.10309335
33	0xbe0d84c6	-0.1382018
34	0x3e0c0772	0.13674715
35	0x3d46af3a	0.048506953
36	0xbd857fe0	-0.06518531
37	0x3e23e7c7	0.16006385
38	0xbde8d784	-0.11369231
39	0x3df41e06	0.11919789
40	0x3dc55536	0.09635393
41	0xbd8cf2e2	-0.06882264
42	0xbdba5a76	-0.09099285
43	0xbd99b57d	-0.07505319
44	0xbe0a6129	-0.13513626
45	0xbe3824b7	-0.17982756
46	0xbd49e27b	-0.049288254
47	0x3db90bb4	0.09035435
48	0x3dffd6d5	0.12492148
49	0xbe071b1e	-0.13193938
50	0xbd8886e9	-0.06666357
51	0x3dd35ae8	0.10320073
52	0xbdb3e7c4	-0.0878444
53	0xbdc6920a	-0.096958235
54	0x3e01ea12	0.12686947
55	0x3e0ef635	0.13961108
56	0xbe4f00e3	-0.20215182
57	0x3dc9e24d	0.098576166
58	0xbe0c55cb	-0.13704602
59	0x3e011f40	0.12609577
60	0x3e113f88	0.14184391
61	0xbdf41a24	-0.119190484
62	0xbdec9cb8	-0.11553329
63	0xbe0ed8c3	-0.13949876
64	0xbdf8a6e2	-0.12141205
65	0xbdebf9e3	-0.115222715
66	0xbdf23fd6	-0.11828582
67	0x3de29259	0.1106307
68	0x3e1752dc	0.14777702
69	0xbdf7595e	-0.12077592
70	0xbdeac309	-0.11462981
71	0x3de126cc	0.10993728
72	0xbdee1287	-0.116246276
73	0xbe0030f8	-0.1251868
74	0x3dfacd3c	0.122461766
75	0x3dea4f6d	0.114409305
76	0xbdc25daa	-0.09490521
77	0x3deaa12b	0.114565216
78	0xbdd00ea3	-0.10159042
79	0x3e06086b	0.13089149
80	0x3e336e4c	0.17522544
81	0xbe2eae77	-0.1705874
82	0xbe02ccfa	-0.12773505
83	0xbe2abe87	-0.16674243
84	0xbdf2777c	-0.11839196
85	0xbe0bc872	-0.13650683
86	0xbe396b62	-0.1810737
87	0x3e0ea3ba	0.13929644
88	0x3e21a84e	0.1578686
89	0xbe0e6fca	-0.13909832
90	0xbe29b4c8	-0.16572869
91	0x3db8e9c7	0.090289645
92	0xbdd0d58c	-0.10196981
93	0xbe062194	-0.13098747
94	0x3e21421d	0.15747876
95	0x3dbee582	0.09321119
96	0xbe131912	-0.14365032
97	0x3e15e035	0.1463631
98	0xbe02107d	-0.12701602
99	0x3dfc6aa2	0.12325026
100	0x3e3c53ca	0.18391338
101	0xbe4c1e4e	-0.19933435
102	0xbe01059c	-0.12599796
103	0xbe1ca65f	-0.1529784
104	0xbe2e9ee8	-0.17052805
105	0xbe118ecd	-0.1421463
106	0xbe34280e	-0.17593405
107	0x3e2cbc2d	0.16868658
108	0x3e330772	0.17483309
109	0xbe025356	-0.12727103
110	0xbe443a63	-0.19162898
111	0x3de700af	0.11279427
112	0xbdc7a889	-0.097489424
113	0xbe16fb55	-0.14744313
114	0x3e2b399a	0.16721192
115	0x3de977e7	0.11399823
116	0xbe22eef1	-0.15911461
117	0x3e1abe06	0.1511155
118	0xbe191570	-0.14949584
119	0x3e172796	0.14761195
120	0x3e0e611a	0.13904229
121	0xbddcad13	-0.10775199
122	0xbd949055	-0.07254092
123	0xbe17f9f4	-0.14841443
124	0xbe1d01fe	-0.15332791
125	0xbe2ad41e	-0.16682479
126	0xbe181aa9	-0.1485392
127	0x3ded9944	0.11601499
128	0x3e13be10	0.14427972
129	0xbe104655	-0.1408933
130	0xbe10a8a4	-0.14126831
131	0x3d8a6f89	0.06759555
132	0xbd80e558	-0.06293744
133	0xbdb93f9b	-0.09045335
134	0x3e052c27	0.13005124
135	0x3de660e9	0.11248953
136	0xbda4c997	-0.08046263
137	0x3de39e93	0.1111423
138	0xbe1021be	-0.14075372
139	0x3e0b77ea	0.13619962
140	0x3e3ad276	0.18244347
141	0xbe49da0a	-0.19712082
142	0xbe2984c9	-0.1655456
143	0xbe1bb142	-0.15204337
144	0xbe172151	-0.14758803
145	0xbe019e97	-0.12658153
146	0xbe38baab	-0.18039958
147	0x3e22410e	0.15845129
148	0x3e33adb4	0.17546731
149	0xbde69074	-0.11258021
150	0xbe425c23	-0.1898046
151	0x3e02fcd3	0.12791757
152	0xbe186765	-0.14883192
153	0xbe49402b	-0.19653384
154	0x3e2bf766	0.16793594
155	0x3da6febe	0.08154057
156	0xbde0cc5b	-0.10976478
157	0x3e2ff989	0.17185034
158	0xbe0e79f4	-0.13913709
159	0x3e1b6770	0.15176177
160	0x3e73a2de	0.23792598
161	0xbe759def	-0.23986028
162	0xbe7650fc	-0.2405433
163	0xbe25112e	-0.16119835
164	0xbe38c089	-0.18042196
165	0xbe2967e4	-0.16543537
166	0xbe5452e1	-0.20734741
167	0x3e61919a	0.22028199
168	0x3e74f861	0.23922874
169	0xbe216d11	-0.15764262
170	0xbe6d2f25	-0.23162515
171	0x3e6979e2	0.22800401
172	0xbe4f5b7b	-0.20249741
173	0xbe66f2a5	-0.22553499
174	0x3e723310	0.23652291
175	0x3e0b523b	0.13605587
176	0xbe1b8a60	-0.15189505
177	0x3e7a81f4	0.24463636
178	0xbe3b3a93	-0.18284063
179	0x3e4a6bb7	0.19767652
180	0x3e11850d	0.14210911
181	0xbe2826f7	-0.16421114
182	0xbd95599c	-0.07292482
183	0xbe340aed	-0.17582293
184	0xbe168e54	-0.14702731
185	0xbe158811	-0.14602686
186	0xbe20b6fa	-0.156948
187	0x3e11e73d	0.14248367
188	0x3e14964f	0.14510463
189	0xbe2017a4	-0.15634018
190	0xbe153180	-0.14569664
191	0x3d3d5e3a	0.04623244
192	0xbd03005a	-0.031982757
193	0xbda67da1	-0.081294306
194	0x3e084e2c	0.1331107
195	0x3e17e59c	0.14833683
196	0xbe49af05	-0.19695671
197	0x3dbde915	0.092729725
198	0xbe14e8e1	-0.14541961
199	0x3e06553a	0.13118449
200	0x3e0ea364	0.13929516
201	0xbdee0e27	-0.11623793
202	0xbdb350c4	-0.08755639
203	0xbe0c4db2	-0.13701513
204	0xbe052211	-0.13001277
205	0xbe2d2b9d	-0.16911168
206	0xbe140846	-0.14456281
207	0x3e0e4ef5	0.13897307
208	0x3e0290c1	0.12750532
209	0xbdfcc96c	-0.12343106
210	0xbe0fa31d	-0.14027067
211	0x3dd27fdd	0.10278294
212	0xbd998dda	-0.07497759
213	0xbde00564	-0.10938528
214	0x3df23666	0.11826782
215	0x3dc36ca1	0.09542204
216	0xbdae5158	-0.08511609
217	0x3daeb271	0.08530129
218	0xbe04d05c	-0.12970108
219	0x3df3b90b	0.119005285
220	0x3e19efc1	0.15032865
221	0xbe20fa84	-0.15720564
222	0xbe0950bc	-0.13409704
223	0xbe255f89	-0.16149725
224	0xbe4117be	-0.18856713
225	0xbe25dc32	-0.16197279
226	0xbe2b7d51	-0.16747023
227	0x3e1d3830	0.15353465
228	0x3e06b948	0.13156617
229	0xbe44d83b	-0.1922311
230	0xbe19dd9a	-0.1502594
231	0x3dc96933	0.09834518
232	0xbdee4017	-0.11633318
233	0xbdf58c88	-0.11989695
234	0x3e08bcb8	0.1335324
235	0x3e01dd0a	0.12681976
236	0xbe12f146	-0.14349851
237	0x3e01ed4c	0.12688178
238	0xbe39712a	-0.18109575
239	0x3e09a818	0.13443029
240	0x3ddcfc3d	0.10790298
241	0xbddcb913	-0.107774876
242	0xbdbc0451	-0.09180511
243	0xbe20fd91	-0.15721728
244	0xbe1dcf5e	-0.15411136
245	0xbe27d83d	-0.16391082
246	0xbe059c3d	-0.13047881
247	0x3e189711	0.14901377
248	0x3e0156fb	0.12630837
249	0xbe2fdf1f	-0.17174958
250	0xbde100a2	-0.10986449
251	0x3dd89870	0.1057595
252	0xbdc18d4e	-0.0945078
253	0xbdc296f4	-0.09501448
254	0x3de1bcf6	0.110223696
255	0x3d417f2d	0.047240425

encoder.rnn.bias_ih_l0 f4 [60]
0	0x3e091061	0.13385154
1	0x3e008677	0.12551294
2	0x3d624fb5	0.055251796
3	0x3c2068c6	0.009790605
4	0x3de795ca	0.11307867
5	0x3dd9f864	0.1064308
6	0x3c93fa00	0.018063545
7	0x3e17fa15	0.14841492
8	0x3e39e395	0.18153222
9	0x3d822bae	0.063559875
10	0x3befa29e	0.0073130867
11	0x3da2c92d	0.079485275
12	0x3cf77170	0.030205458
13	0x3e000837	0.12503134
14	0x3e2f1354	0.17097217
15	0x3d762224	0.060091153
16	0x3d904321	0.07044054
17	0x3df19f49	0.11797959
18	0x3dd41296	0.103551075
19	0x3e2dba0c	0.16965503
20	0x3de8bb4b	0.11363848
21	0x3dba1436	0.09085886
22	0x3d1fd124	0.03901781
23	0x3e1bd950	0.15219617
24	0x3e105f1b	0.1409878
25	0x3e0a744e	0.13520929
26	0x3e0fdc7e	0.14048955
27	0x3dc8809a	0.09790154
28	0x3de2cb41	0.11073924
29	0x3dfea007	0.124328665
30	0x3e0f4b0d	0.13993473
31	0x3d8cfea6	0.06884508
32	0x3d883e1a	0.0665247
33	0x3da86fb1	0.082244284
34	0x3df52cdc	0.11971447
35	0xbd0914d2	-0.03346712
36	0xbeaa9713	-0.33318385
37	0x3d5b3527	0.053517487
38	0x3e1a8aa0	0.15091944
39	0x3db72996	0.08943479
40	0x3da91282	0.08255483
41	0xbdbfbb97	-0.09361952
42	0xbdae7f7e	-0.08520411
43	0x3a14d5fe	0.0005677639
44	0xbd8c97f1	-0.06864918
45	0xbd599993	-0.053124975
46	0xbce9d05d	-0.028541738
47	0x3dcba44e	0.09943448
48	0x3db9f140	0.09079218
49	0xbd2450c7	-0.040116098
50	0xbcdfca95	-0.027318278
51	0x3d53a2cd	0.05166893
52	0xbcf5b37c	-0.029992811
53	0xbda29ee3	-0.079404615
54	0x3dc0a58b	0.09406575
55	0x3d820d49	0.0635019
56	0xbda4049d	-0.080086924
57	0x3de52bb4	0.11189976
58	0xbd7b099e	-0.06128847
59	0x3d9e5169	0.077303715

encoder.rnn.bias_hh_l0 f4 [60]
0	0x3e091060	0.13385153
1	0x3e00867a	0.12551299
2	0x3d624fbd	0.055251826
3	0x3c2068dd	0.009790626
4	0x3de795c8	0.113078654
5	0x3dd9f86c	0.10643086
6	0x3c93fa0b	0.018063566
7	0x3e17fa1b	0.14841501
8	0x3e39e392	0.18153217
9	0x3d822bb2	0.063559905
10	0x3befa2bb	0.0073131
11	0x3da2c931	0.079485305
12	0x3cf77180	0.030205488
13	0x3e00083c	0.12503141
14	0x3e2f1352	0.17097214
15	0x3d76221c	0.060091123
16	0x3d90431d	0.07044051
17	0x3df19f48	0.117979586
18	0x3dd41297	0.10355108
19	0x3e2dba0c	0.16965503
20	0x3de8bb4f	0.11363851
21	0x3dba1431	0.090858825
22	0x3d1fd126	0.03901782
23	0x3e1bd952	0.1521962
24	0x3e105f1d	0.14098783
25	0x3e0a744e	0.13520929
26	0x3e0fdc7b	0.1404895
27	0x3dc8809b	0.097901545
28	0x3de2cb3a	0.11073919
29	0x3dfea003	0.124328636
30	0x3e0f4b0c	0.13993472
31	0x3d8cfea3	0.068845056
32	0x3d883e1d	0.06652472
33	0x3da86fb5	0.082244314
34	0x3df52cd8	0.11971444
35	0xbd0914d3	-0.033467125
36	0xbeaa9716	-0.33318394
37	0x3d5b3527	0.053517487
38	0x3e1a8aa0	0.15091944
39	0x3db72999	0.08943481
40	0x3da008aa	0.078141525
41	0xbdb81c9a	-0.0898983
42	0xbda02014	-0.078186184
43	0x3b079155	0.002068599
44	0xbd84fc84	-0.06493476
45	0xbd4fa6ff	-0.05069637
46	0xbcc6b145	-0.02425445
47	0x3dc44bd4	0.095847756
48	0x3db863f3	0.09003439
49	0xbd1d7bae	-0.03844803
50	0xbcb43907	-0.021999849
51	0x3d4a239d	0.04935037
52	0xbce6ac5c	-0.02815836
53	0xbd9de781	-0.077101715
54	0x3dbc462d	0.091930725
55	0x3d849c38	0.06475109
56	0xbdbcf14e	-0.09225713
57	0x3dd9c7b6	0.10633795
58	0xbd6edf55	-0.058318455
59	0x3da0f10d	0.07858477

encoder.rnn.weight_ih_l0_reverse f4 [60, 100]
0	0xbe97656a	-0.2956956
1	0x3ebe3260	0.37147808
2	0xbcab920b	-0.020943662
3	0x3e59dfc3	0.21276765
4	0xbd1f1724	-0.038840428
5	0x3e490193	0.19629507
6	0x3e3776b7	0.1791638
7	0x3e1d0822	0.15335134
8	0xbda1daf4	-0.0790309
9	0x3e24ba1b	0.16086619
10	0xbcc84ba9	-0.02445014
11	0x3ea2df6b	0.3181108
12	0x3e92b251	0.2865167
13	0x3f0b164f	0.54330915
14	0xbdd6ed16	-0.10494439
15	0x3b46caec	0.0030333353
16	0x3e01521e	0.12628981
17	0xbe074873	-0.13211231
18	0x3d5d2261	0.053987864
19	0x3d81075c	0.06300232
20	0xbd72eb4a	-0.05930642
21	0x3d0ddb23	0.034632813
22	0xbeb3517e	-0.3502311
23	0xbec54bd0	-0.38534403
24	0x3ec40b32	0.3828979
25	0x3e6efc53	0.23338442
26	0x3d8c9886	0.06865029
27	0xbebbe7f9	-0.3670042
28	0x3eab843d	0.33499327
29	0xbe365aa8	-0.1780802
30	0xbe3c223c	-0.18372434
31	0xbda0463a	-0.07825895
32	0xbe038d3f	-0.1284685
33	0x3df6140c	0.120155424
34	0xbe2755be	-0.16341302
35	0x3e1409bc	0.14456838
36	0x3d67a529	0.056553993
37	0x3dd5a936	0.10432665
38	0x3dfe754e	0.12424718
39	0x3f117ca2	0.568308
40	0xbe55ae35	-0.20867236
41	0x3d11f07f	0.035629746
42	0xbe4ed099	-0.20196761
43	0x3e36fb0a	0.17869201
44	0xbe8f6bfb	-0.2801207
45	0xbe2de034	-0.16980058
46	0xbcd22a7b	-0.025655022
47	0x3cf65982	0.030071978
48	0x3e85749d	0.2606553
49	0xbdfd74d0	-0.12375796
50	0xbe64fdec	-0.22362489
51	0x3ea8785d	0.3290433
52	0x3edf5d5e	0.4362592
53	0xbf0a3642	-0.5398904
54	0x3dd9a3fa	0.10626979
55	0x3e83e9a5	0.25764194
56	0x3d98cd4b	0.074610315
57	0x3e2db9e6	0.16965446
58	0xbef6a3e0	-0.48171902
59	0xbb8069a7	-0.0039188447
60	0x3eb7e385	0.3591577
61	0xbe960c44	-0.29306233
62	0xbeda3f43	-0.4262639
63	0x3e04f658	0.12984598
64	0x3e536b73	0.20646457
65	0xbe28b8b5	-0.1647671
66	0x3ed4cb07	0.41561148
67	0xbe09072f	-0.13381647
68	0xbe93623b	-0.2878588
69	0x3e2b37f1	0.16720559
70	0x3c5af66a	0.013364414
71	0x3ee15854	0.44012702
72	0x3e6cb97c	0.23117632
73	0x3e01ea4c	0.12687033
74	0x3d893ac8	0.06700665
75	0x3e0ee370	0.13953948
76	0x3c92e294	0.017930306
77	0xbdbd2f41	-0.092375286
78	0x3eab66c0	0.3347683
79	0x3e5e2c23	0.21696524
80	0x3e93bf34	0.28856814
81	0x3ddf20d0	0.1089493
82	0xbc8a9f80	-0.016921759
83	0x3e6d78e8	0.23190653
84	0x3e1dee80	0.15423012
85	0x3e9d7bc2	0.30758482
86	0x3db27e94	0.08715549
87	0x3e9da9d0	0.3079362
88	0x3d08ee5e	0.03343045
89	0xbd9b35e9	-0.07578642
90	0x3dbd6787	0.09248262
91	0x3f09e265	0.53861076
92	0x3cd3dc47	0.025861872
93	0xbe73e594	-0.23818046
94	0x3d054dc8	0.03254488
95	0x3eaff986	0.3437006
96	0x3ce7a8f3	0.028278803
97	0xbead3fad	-0.33837643
98	0x3e8075cd	0.25089875
99	0xbeaceb26	-0.33773154
100	0x3e182b1f	0.148602
101	0xbd76dc41	-0.060268644
102	0x3d3937cd	0.04521923
103	0xbe02577d	-0.12728687
104	0xbd0050d5	-0.031327087
105	0xbd805132	-0.06265487
106	0xbdc5a25b	-0.096501075
107	0x3dffab8c	0.12483892
108	0x3d9af857	0.07566898
109	0x3c406edf	0.011745184
110	0xbc9cb701	-0.019130232
111	0x3de3caba	0.111226514
112	0x3c494cc8	0.0122863725
113	0x3cb0ab1c	0.021565966
114	0x3d34d20e	0.044145636
115	0xbe67e985	-0.22647674
116	0xbe06f0bc	-0.1317777
117	0x3d58e807	0.052955654
118	0xbd9e1940	-0.0771966
119	0x3e6aaeb3	0.22918205
120	0x3d67945c	0.05653797
121	0x3de24548	0.110483706
122	0xbd942cd0	-0.0723511
123	0x3cd268de	0.02568477
124	0x3cd14c9b	0.025549224
125	0xbe642ddd	-0.2228312
126	0x3d3eb59c	0.046559915
127	0xbd6ab16f	-0.05729812
128	0xbd637351	-0.055529896
129	0xbd8dd9bb	-0.069262944
130	0x3d0803e1	0.033206824
131	0x3e01649f	0.1263604
132	0x3d7975f3	0.0609035
133	0x3d4b69b5	0.049661357
134	0x3de6cb85	0.11269287
135	0xbdd130a6	-0.10214357
136	0xbce4b7ac	-0.027919613
137	0x3d7c3700	0.06157589
138	0xbdc588f1	-0.0964526
139	0x3e0005a7	0.12502156
140	0x3e14510f	0.14484046
141	0xbcc02492	-0.023454938
142	0x3dec4435	0.11536447
143	0xbdb901e3	-0.09033563
144	0x3e8d4da2	0.27598292
145	0xbc8b663a	-0.017016519
146	0xbcf5d32d	-0.030007923
147	0xbcad39e8	-0.021145776
148	0xbe1040de	-0.14087245
149	0xbe166458	-0.14686716
150	0xbc81fe44	-0.015868314
151	0x3ce7d99b	0.028302005
152	0xbe004f32	-0.1253021
153	0xbd0923a8	-0.03348127
154	0xbd543f00	-0.051817894
155	0xbce548dd	-0.027988845
156	0xbe3b41ca	-0.18286815
157	0xbdfd77a2	-0.12376334
158	0xbcfbb623	-0.030726498
159	0xbb3e8dba	-0.0029076175
160	0xbc9198d8	-0.017773077
161	0x3ca7f750	0.02050367
162	0x3de4c09e	0.11169551
163	0xbdfc75ea	-0.12327178
164	0xbe2eb6f1	-0.17061974
165	0x38d3e7f2	0.00010104467
166	0xbea32ce8	-0.31870198
167	0x3e23a230	0.15979838
168	0x3e23e602	0.1600571
169	0x3db385ab	0.087657295
170	0x3b3f39e1	0.0029178786
171	0xbe105f44	-0.14098841
172	0xbe06416f	-0.13110898
173	0xbb9a2105	-0.0047036433
174	0xbd8dc6e6	-0.069227025
175	0xbe43b5b1	-0.19112279
176	0xbe26db22	-0.1629453
177	0x3d092a3b	0.03348754
178	0x3d916c34	0.07100716
179	0xbdae8a4c	-0.08522472
180	0xbda49274	-0.08035746
181	0x3d7c775f	0.06163728
182	0x3d8423b0	0.06452119
183	0xbd8a70ac	-0.06759772
184	0x3db51805	0.08842472
185	0xbdc0c572	-0.0941266
186	0xbe0d8cde	-0.13823268
187	0xbddd52f8	-0.10806841
188	0x3c83755d	0.016047174
189	0xbd03a25e	-0.032137267
190	0xbe2f81f5	-0.17139418
191	0x3d8a8c29	0.06765015
192	0x3e23049c	0.15919727
193	0x3d29d06b	0.04145853
194	0x3e3bad0d	0.18327732
195	0x3d872879	0.065995164
196	0x3cdc92a2	0.026925389
197	0xbd8f20cf	-0.069886796
198	0xbe3d0667	-0.18459474
199	0x3ce83f25	0.028350422
200	0xbeecd63e	-0.46257204
201	0x3f2b9a91	0.67032725
202	0xbe8236f4	-0.2543255
203	0xbefb54c2	-0.49088103
204	0xbebabc98	-0.3647201
205	0x3e0b18e5	0.13583715
206	0xbedcd1b1	-0.43128732
207	0xbea8ddf9	-0.32981852
208	0xbdf90243	-0.121586345
209	0x3f1e70b7	0.6189074
210	0x3f071b3a	0.5277592
211	0xbcaa0704	-0.020755298
212	0x3ed6de3d	0.4196643
213	0x3d881e5a	0.06646414
214	0x3efacf63	0.48986349
215	0x3e8c400f	0.27392623
216	0x3e091eca	0.13390651
217	0x3d1cbdb1	0.03826684
218	0xbef51ed1	-0.47875074
219	0xbe88f742	-0.26751143
220	0x3c95e822	0.018299166
221	0xbed497b7	-0.41522
222	0xbe47e6dc	-0.1952166
223	0xbeeaa0e6	-0.4582588
224	0xbe0bfe8b	-0.13671319
225	0x3ea9ae80	0.33140945
226	0x3dda7a87	0.106679015
227	0x3e86d0b6	0.2633111
228	0xbc38fdd6	-0.011290988
229	0xbda45450	-0.08023894
230	0xbd6d2ba9	-0.057902966
231	0xbe7c771a	-0.24654809
232	0xbf00c16e	-0.5029515
233	0x3e75f8e8	0.24020731
234	0xbe73298a	-0.23746315
235	0x3ddc1c29	0.107475586
236	0x3f10f218	0.56619406
237	0xbe974891	-0.2954755
238	0xbea81fbd	-0.32836714
239	0x3ec4a932	0.38410336
240	0xbe6eebb6	-0.23332104
241	0xbe85a7fc	-0.26104724
242	0xbf08a08c	-0.53369975
243	0xbdfca2f0	-0.12335765
244	0xbeb0e8a7	-0.345525
245	0xbcc80fe5	-0.024421642
246	0x3e3e8405	0.18605049
247	0x3ee79b52	0.45235687
248	0x3afe1404	0.0019384627
249	0xbf0ff6bb	-0.56235856
250	0x3dcc5be9	0.09978468
251	0x3b806b93	0.003919074
252	0x3c4b76c9	0.012418457
253	0xbe0f5cb7	-0.14000212
254	0x3e747f82	0.23876765
255	0x3e106d44	0.14104182

encoder.rnn.weight_hh_l0_reverse f4 [60, 20]
0	0xbe325234	-0.1741417
1	0xbe5269c7	-0.20548163
2	0x3ec4ffd5	0.38476434
3	0x3e3a4d81	0.18193628
4	0xbdcbf625	-0.09959058
5	0xbea31616	-0.31852788
6	0x3a8333fa	0.0010009997
7	0x3e810959	0.25202444
8	0x3e1640c3	0.14673142
9	0xbe1dca14	-0.15409118
10	0x3b32b31f	0.002726741
11	0x3e1e3560	0.15450048
12	0xbeb33270	-0.34999418
13	0xbc7a1daf	-0.015265866
14	0xbd3865fa	-0.045019127
15	0x3ebc5e89	0.36790875
16	0x3e8d950f	0.27652785
17	0x3e77e5e8	0.24208796
18	0xbe6b03e4	-0.22950703
19	0x3ec18b9e	0.37801832
20	0xbe82d6f9	-0.25554636
21	0xbd8243d6	-0.06360595
22	0x3dd7f643	0.105450176
23	0x3ece1954	0.402537
24	0xbd7a59db	-0.06112085
25	0xbd83486b	-0.06410297
26	0xbdb09224	-0.08621624
27	0x3dee73b9	0.11643166
28	0x3dd303dd	0.10303471
29	0xbda85ab4	-0.08220425
30	0xbdc6cadb	-0.0970666
31	0xbd26d164	-0.040727034
32	0xbd73c886	-0.059517406
33	0xbd81a1bc	-0.063296765
34	0x3cec3a1b	0.0288363
35	0xbc0124d4	-0.007882316
36	0x3d88efcf	0.06686365
37	0xbe2daa4f	-0.16959499
38	0xbdc79a8a	-0.09746273
39	0x3cbeecba	0.02330624
40	0xbe67e818	-0.2264713
41	0x3d22ed85	0.039777298
42	0xbe157340	-0.14594746
43	0x3edaf198	0.42762446
44	0xbd9a1f34	-0.07525483
45	0x3ce1303f	0.027488826
46	0xbe46806f	-0.19384931
47	0xbc925844	-0.017864354
48	0xbd91c9da	-0.07118578
49	0xbe284d75	-0.16435798
50	0x3d1c786c	0.03820078
51	0xbdaeeb49	-0.08540971
52	0x3ccf00cc	0.025268935
53	0xbcc7c038	-0.02438365
54	0x3e05365b	0.13009016
55	0x3e0f68be	0.140048
56	0xbd814ea8	-0.063138306
57	0xbe2e1edc	-0.1700396
58	0x3d086fca	0.033309735
59	0xbd83c550	-0.06434119
60	0xbe942a3e	-0.28938478
61	0xbdf14cb3	-0.11782207
62	0x3de1f90b	0.11033829
63	0x3e4e4c45	0.20146282
64	0x3d5f7dee	0.054563455
65	0xbe2d2906	-0.1691018
66	0x3d297755	0.04137357
67	0x3e24e1da	0.1610178
68	0x3dc63acc	0.09679183
69	0xbe770ab2	-0.24125174
70	0xbcacb09b	-0.021080306
71	0x3e245706	0.16048822
72	0x3d6a3ce2	0.05718697
73	0x3d4025e2	0.046911128
74	0x3e154c4d	0.14579888
75	0x3e2a3743	0.16622643
76	0x3d07da45	0.033167142
77	0x3dd4dcdb	0.10393687
78	0xbe02d5cf	-0.12776874
79	0x3db023e9	0.08600599
80	0xbe9f73c1	-0.31143
81	0xbe794b97	-0.24345241
82	0x3cb2d289	0.021828907
83	0x3ecab419	0.3959053
84	0x3ccb2c98	0.024801537
85	0xbe12dbc7	-0.14341651
86	0xbd958d0e	-0.07302295
87	0x3ec093d4	0.37612784
88	0x3ecc5572	0.3990894
89	0xbe860119	-0.26172712
90	0xbece1dd3	-0.4025713
91	0x3ba22128	0.0049478
92	0x3e0ad547	0.13557921
93	0xbd4ba982	-0.049722202
94	0x3f067c80	0.5253372
95	0x3e804611	0.25053456
96	0xbe10ef0f	-0.14153694
97	0x3da3b15e	0.079928145
98	0xbe5bcfb3	-0.2146595
99	0x3e023941	0.12717153
100	0x3cc77f40	0.02435267
101	0xbd545250	-0.05183631
102	0x3d6575b5	0.056020457
103	0x3e0a7ee7	0.13524972
104	0x3e1223c4	0.14271456
105	0xbdd0b907	-0.10191541
106	0x3e096475	0.13417228
107	0x3d81d816	0.06340043
108	0x3d723138	0.05912897
109	0xbe5b8c78	-0.21440303
110	0xbc40b60a	-0.0117621515
111	0x3dbfa135	0.0935692
112	0x3cb0e5b7	0.021593912
113	0x3d546a6a	0.051859297
114	0xbd6bb337	-0.05754396
115	0x3e400be7	0.1875454
116	0xbc5919df	-0.013250797
117	0x3d07e1a9	0.03317419
118	0x3d1b9924	0.037987843
119	0xbd0f64ad	-0.03500812
120	0xbf2b0a8a	-0.66812956
121	0xbe94a549	-0.29032353
122	0xbd620490	-0.055180132
123	0x3e98c912	0.29840904
124	0x3c85fbf6	0.016355496
125	0x3db0a9e8	0.08626157
126	0xbd1502b4	-0.03637953
127	0x3e06011d	0.13086362
128	0x3e577569	0.21040882
129	0xbcc49ad1	-0.023999603
130	0xbd1cbdd0	-0.038266957
131	0x3cbcb6fc	0.023036472
132	0x3f05f714	0.52330136
133	0x3caf4119	0.021393346
134	0x3f1027e5	0.56310874
135	0xbe4d0611	-0.20021845
136	0xbeda51e0	-0.4264059
137	0x3e66a352	0.2252324
138	0xbec80f10	-0.39073992
139	0x3e2730b8	0.16327178
140	0xbcbae8de	-0.022816118
141	0xbccde8c7	-0.025135411
142	0x3db5387e	0.08848666
143	0x3e08867d	0.13332553
144	0x3da80297	0.08203619
145	0xbda2e35f	-0.07953524
146	0x3d9fb8db	0.0779893
147	0x3d798663	0.060919177
148	0x3d3a0306	0.04541304
149	0xbe1d8086	-0.15381059
150	0xbcbd386b	-0.023098191
151	0x3da0d4fc	0.078531235
152	0xbc09cdec	-0.008410912
153	0x3b95d66e	0.004572681
154	0xbd37f61f	-0.044912454
155	0xbc017cf6	-0.007903328
156	0xbb9f646f	-0.0048642675
157	0xbd884857	-0.06654423
158	0xbb1b559f	-0.0023702157
159	0x3d57da1f	0.05269825
160	0xbe8994cd	-0.26871338
161	0xbcd1754f	-0.025568632
162	0x3d6dcf78	0.058059186
163	0x3e0b6a10	0.13614678
164	0xbd056364	-0.03256549
165	0xbca79b32	-0.020459745
166	0x3b7c66c8	0.003851341
167	0x3ccbb34d	0.02486577
168	0xbc000c2f	-0.007815405
169	0x3c8cc79c	0.017185025
170	0xbd1d160c	-0.038351104
171	0xbbeb1b4e	-0.007174886
172	0x3ce1217a	0.027481783
173	0xbc801582	-0.015635256
174	0x3e6531a8	0.22382224
175	0xbdc7e03c	-0.09759566
176	0xbd73b6cb	-0.059500497
177	0x3dab4e7d	0.0836458
178	0xbde4a34d	-0.1116396
179	0x3e2dc11d	0.16968198
180	0xbedc8df7	-0.4307706
181	0xbe9cea78	-0.30647635
182	0x3ed9cfea	0.42541438
183	0x3effea27	0.49983332
184	0x3ee67551	0.4501138
185	0xbed0013a	-0.40625936
186	0x3e9e8a17	0.3096473
187	0x3e90b26f	0.28261134
188	0x3edfe50e	0.43729442
189	0xbf251992	-0.6449214
190	0xbe8c5e96	-0.27415913
191	0x3eec093f	0.46100804
192	0x3ec13ce0	0.37741756
193	0x3e754022	0.23950246
194	0x3eca41b9	0.39503267
195	0x3eb9a55a	0.36258966
196	0x3ce62947	0.028095854
197	0x3efe7475	0.49698225
198	0xbed9ff58	-0.42577624
199	0x3e9a62ee	0.30153602
200	0xbe026472	-0.1273363
201	0x3e13de19	0.14440192
202	0xbd811851	-0.06303466
203	0xbd3bd2b4	-0.04585524
204	0x3e51ee49	0.20501055
205	0x3e1c7b01	0.15281297
206	0xbd4bda67	-0.04976883
207	0xbe6d3194	-0.23163444
208	0xbd172ede	-0.03690993
209	0x3ceb2568	0.02870436
210	0x3d003e21	0.03130925
211	0x3d818060	0.06323314
212	0xbc137aba	-0.009001428
213	0xbcded294	-0.02720002
214	0x3dd6d0e4	0.104890615
215	0x3d7c2fad	0.061568905
216	0xbd9e4415	-0.07727829
217	0x3cef583d	0.02921688
218	0x3ded5b6b	0.11589702
219	0xbe375a46	-0.1790553
220	0xbdac8568	-0.08423883
221	0x3de827ad	0.113356926
222	0xbc82ebe4	-0.015981622
223	0x3b768b71	0.0037619735
224	0x3e31dedd	0.17370172
225	0x3da0d85b	0.078537665
226	0x3e40f35c	0.18842834
227	0xbdab18ae	-0.08354317
228	0xbdf59402	-0.11991121
229	0xbdbbd2c1	-0.091710575
230	0x3e51bc67	0.20482026
231	0x3deeaeec	0.116544574
232	0x3e53996b	0.20663993
233	0x3e44c736	0.19216618
234	0x3e52e441	0.20594884
235	0xbdb312ab	-0.08743795
236	0x3d370fff	0.04469299
237	0x3e37d1d3	0.17951135
238	0x3d39ab17	0.04532918
239	0x3db2f8b8	0.087388456
240	0xbe849ffc	-0.25903308
241	0xbe02ae61	-0.12761833
242	0x3e09e287	0.1346532
243	0xbd0b2f9c	-0.03398095
244	0x3e7acb5c	0.24491638
245	0x3dc20a41	0.09474612
246	0x3df53293	0.11972537
247	0xbe230049	-0.15918078
248	0x3d7d883b	0.061897498
249	0xbe20d961	-0.15707923
250	0xbe05b669	-0.13057865
251	0x3e0e78dd	0.13913293
252	0x3e5590fc	0.20856088
253	0xbd5ba2e1	-0.05362213
254	0x3e160407	0.14649974
255	0xbc1aa8c0	-0.009439647

encoder.rnn.bias_ih_l0_reverse f4 [60]
0	0x3dde2148	0.10846192
1	0x3d5bebf6	0.053691827
2	0x3da068c6	0.07832484
3	0x3da662df	0.08124327
4	0xbd2da893	-0.042397093
5	0x3ca220b6	0.019790988
6	0x3e37eb90	0.17960954
7	0x3d367fc6	0.044555448
8	0x3dade443	0.08490803
9	0x3e459925	0.19296701
10	0x3de43a6a	0.11143954
11	0x3e6aa851	0.2291577
12	0x3dc6488b	0.09681805
13	0x3e73d4bd	0.23811622
14	0x3e569a5b	0.2095732
15	0x3ed61500	0.41812897
16	0x3ac5279d	0.0015041713
17	0x3d8a75f8	0.06760782
18	0x3c8e301f	0.01735693
19	0x3e55ee64	0.2089172
20	0xbe8e48ed	-0.27790013
21	0xbf29a55b	-0.6626794
22	0xbf588d03	-0.84590167
23	0xbe20e03c	-0.15710539
24	0xbee1017b	-0.43946442
25	0xbe99f490	-0.300694
26	0xbe94affe	-0.2904052
27	0xbeb80de5	-0.359481
28	0xbea842c2	-0.32863432
29	0x3db545a1	0.08851171
30	0xbe9e37d1	-0.3090196
31	0xbe0b031c	-0.13575405
32	0xbea3231d	-0.31862727
33	0xbe9cabe3	-0.3059989
34	0xbe212880	-0.15738106
35	0xbd8c3e12	-0.068477765
36	0xbdbf7d38	-0.093500555
37	0xbea96638	-0.330858
38	0xbe8bb3cf	-0.2728562
39	0xbed427ec	-0.41436708
40	0xbe5be6c7	-0.21474753
41	0xbdef462d	-0.11683307
42	0x3d09fb1b	0.03368674
43	0x3e03ab80	0.12858391
44	0xbc6db873	-0.014509308
45	0xbcb80f5a	-0.022468258
46	0xbcb5c5d1	-0.022189053
47	0x3a9b6c2e	0.0011857802
48	0xbd5fdd4c	-0.054654405
49	0xbb9b2535	-0.00473466
50	0x3c428b00	0.0118739605
51	0x3d8f94dc	0.070108145
52	0x3dcbe1b9	0.099551626
53	0x3dd6c2f3	0.10486402
54	0x3d89512f	0.06704938
55	0xbe678610	-0.22609735
56	0x3d900fc2	0.070342556
57	0xbe074bbd	-0.13212486
58	0xbd976e0d	-0.073940374
59	0x3e637b3b	0.22214977

encoder.rnn.bias_hh_l0_reverse f4 [60]
0	0x3dde214c	0.108461946
1	0x3d5bebec	0.05369179
2	0x3da068ce	0.0783249
3	0x3da662ef	0.08124339
4	0xbd2da89c	-0.042397127
5	0x3ca220b7	0.01979099
6	0x3e37eb8e	0.1796095
7	0x3d367fb9	0.0445554
8	0x3dade43e	0.08490799
9	0x3e459925	0.19296701
10	0x3de43a6b	0.11143955
11	0x3e6aa851	0.2291577
12	0x3dc6488b	0.09681805
13	0x3e73d4c4	0.23811632
14	0x3e569a5d	0.20957322
15	0x3ed61502	0.41812903
16	0x3ac5279d	0.0015041713
17	0x3d8a75f4	0.06760779
18	0x3c8e300f	0.0173569
19	0x3e55ee62	0.20891717
20	0xbe8e48ed	-0.27790013
21	0xbf29a55d	-0.6626795
22	0xbf588d03	-0.84590167
23	0xbe20e03d	-0.1571054
24	0xbee1017b	-0.43946442
25	0xbe99f492	-0.30069405
26	0xbe94affe	-0.2904052
27	0xbeb80de5	-0.359481
28	0xbea842c0	-0.32863426
29	0x3db5459f	0.0885117
30	0xbe9e37d1	-0.3090196
31	0xbe0b031a	-0.13575402
32	0xbea3231b	-0.3186272
33	0xbe9cabe3	-0.3059989
34	0xbe212882	-0.15738109
35	0xbd8c3e0c	-0.06847772
36	0xbdbf7d33	-0.09350052
37	0xbea96639	-0.33085802
38	0xbe8bb3cd	-0.27285615
39	0xbed427ec	-0.41436708
40	0xbe6e955b	-0.23299162
41	0xbdaaa324	-0.08331898
42	0x3df4b561	0.11948658
43	0x3dfd0497	0.12354391
44	0x3d7a06d6	0.061041676
45	0xbca4c254	-0.020112194
46	0x3da8ee4a	0.08248575
47	0xbc7bdc06	-0.015372282
48	0xbccc1569	-0.024912553
49	0xbd691d36	-0.056912623
50	0x3dea0379	0.114264436
51	0x3dd3e274	0.10345927
52	0x3e4bd093	0.19903784
53	0x3e4c38bb	0.19943516
54	0x3dc761ef	0.09735476
55	0xbe37c7dd	-0.17947336
56	0x3d56b584	0.0524192
57	0xbda3d1fb	-0.07999035
58	0xbd804970	-0.06264007
59	0x3e92dcca	0.28684074

encoder.fc.weight f4 [20, 40]
0	0x3d90c637	0.070690565
1	0xbd8093e5	-0.06278209
2	0xbda4b4a7	-0.08042269
3	0xbd947ee3	-0.07250764
4	0xbd862e63	-0.06551816
5	0xbdb4569c	-0.08805582
6	0xbd4f3d33	-0.050595473
7	0x3d9a9bcf	0.075492494
8	0x3db65b0b	0.08904084
9	0xbd82dc42	-0.06389667
10	0xbdbb984d	-0.091599084
11	0x3db38e77	0.087674074
12	0xbdb813ac	-0.08988127
13	0xbdd620d7	-0.104554825
14	0x3da2b30e	0.07944308
15	0x3d90332e	0.07041012
16	0xbd6aa7a7	-0.057288792
17	0x3dc8ba24	0.098011285
18	0xbd7c6922	-0.0616237
19	0x3dad55fe	0.08463667
20	0xbdd36ef9	-0.10323901
21	0xbdaa9796	-0.08329694
22	0x3cc95982	0.024578813
23	0x3decb8d3	0.1155869
24	0x3d4c34b8	0.049854964
25	0xbdcdd71d	-0.10050795
26	0xbcc9b43d	-0.024622077
27	0x3dfb0fa9	0.12258846
28	0x3dcaeb26	0.09908132
29	0xbd8935d1	-0.06699718
30	0x3d2bc775	0.041938264
31	0xbc687367	-0.01418767
32	0x3c900754	0.01758162
33	0x3c0b2794	0.008493323
34	0x3da0c28e	0.07849608
35	0x3cb2bef8	0.021819577
36	0xbc0a90b7	-0.008457354
37	0xbcda1ec8	-0.026626006
38	0xbdeedb61	-0.11662937
39	0xbbd0a135	-0.0063668736
40	0x3be0ad37	0.0068565863
41	0xba9882d1	-0.0011635666
42	0xbcdc9b67	-0.02692957
43	0x3b911a87	0.004428211
44	0xbc1e701a	-0.009670282
45	0x3a826e17	0.0009951022
46	0x3ca9e5cc	0.020739459
47	0xbba89470	-0.0051446483
48	0x3c0d2aee	0.008616192
49	0xbc1bd2a4	-0.00951067
50	0x3cd0e1da	0.02549832
51	0x3c20c1d4	0.009811837
52	0x3b631070	0.0034647249
53	0x3b0c52da	0.0021411688
54	0x3b9afaab	0.004729589
55	0x3c678d36	0.014132788
56	0xbc564383	-0.0130776195
57	0x3ad017d7	0.0015876245
58	0x3c04b9c3	0.00810093
59	0x3ca072fd	0.01958608
60	0xbd300b4f	-0.042979535
61	0x3e9bd49b	0.30435643
62	0xbf0d9042	-0.55298245
63	0xbeb9906f	-0.36243007
64	0x3c95ed21	0.018301548
65	0x3f0fc913	0.5616619
66	0x3dea178c	0.114302725
67	0xbec46985	-0.38361755
68	0xbe85afe8	-0.26110768
69	0x3d742e36	0.059614383
70	0x3ea59929	0.32343414
71	0xbbf6f6de	-0.007536753
72	0x3e9d5e3f	0.30735967
73	0xbc588049	-0.013214179
74	0xbed2068d	-0.41020623
75	0xbe44a34a	-0.19202915
76	0xbf343c4f	-0.70404524
77	0xbef41c7a	-0.47677976
78	0x3ea58781	0.32329944
79	0xbee25f0b	-0.44213137
80	0x3d782809	0.060585056
81	0xbdbd52d1	-0.092443116
82	0xbb3c17ad	-0.0028700635
83	0xbdaed264	-0.085362226
84	0xbdf58836	-0.11988871
85	0xbde97e8a	-0.114010885
86	0xbd77a918	-0.060463995
87	0x3dd804eb	0.10547813
88	0x3d4e9a7a	0.05044029
89	0xbde6b9be	-0.11265896
90	0xbd2e610b	-0.042573016
91	0x3bf8c739	0.0075921086
92	0x3d0358da	0.032067157
93	0xbbb7d772	-0.0056104
94	0x3d2c414e	0.042054467
95	0x3dbf9132	0.09353866
96	0xbdb1e3d6	-0.086860344
97	0x3c87b824	0.016567297
98	0xbde8f3c6	-0.11374621
99	0x3d6ddd20	0.05807221
100	0x3ef3b843	0.47601518
101	0x3e789c8d	0.2427847
102	0xbe3c4ee1	-0.18389465
103	0xbe8db5c0	-0.27677727
104	0x3e45506d	0.19268961
105	0x3e841822	0.25799662
106	0x3e5d1528	0.21590102
107	0xbeb165a7	-0.34647867
108	0xbec48699	-0.3838394
109	0x3a93101b	0.001122001
110	0xbe679e87	-0.22619067
111	0x3e67a9bd	0.22623344
112	0x3eb12225	0.34596363
113	0x3e6746df	0.22585629
114	0xbec41492	-0.38296944
115	0xbc580c26	-0.01318649
116	0x3dd68ef3	0.10476484
117	0x3d48c0f6	0.049012147
118	0x3ea4ab71	0.3216205
119	0xbe18318b	-0.14862649
120	0x3d7bc27e	0.06146478
121	0xbd5f83a4	-0.0545689
122	0xbd98f672	-0.07468881
123	0xbda44d5c	-0.08022568
124	0xbd54f338	-0.051989764
125	0xbdb7a6f4	-0.08967391
126	0xbd925f65	-0.07147101
127	0x3d593380	0.05302763
128	0x3da0bf59	0.07848997
129	0xbdac837e	-0.08423518
130	0xbda6e4a5	-0.08149079
131	0x3e0053fb	0.12532036
132	0xbdb18953	-0.08668771
133	0xbdae8c10	-0.085228086
134	0x3dd89a87	0.10576349
135	0x3d9201f1	0.071292765
136	0xbdaa6c23	-0.08321407
137	0x3db4d70f	0.08830082
138	0xbd7fb8ae	-0.062431984
139	0x3d965b08	0.073415816
140	0xbdf9653b	-0.12177511
141	0xbd0a06f0	-0.033698022
142	0x3c826010	0.015914947
143	0x3dae95da	0.08524676
144	0x3db609a9	0.08888561
145	0xbd0d23d4	-0.034457996
146	0x3cd9bdab	0.026579699
147	0x3d4e635d	0.05038773
148	0x3a3ae5b8	0.00071295677
149	0xbdcab694	-0.09898105
150	0x3d937ab5	0.07201139
151	0xbd21de7d	-0.039518822
152	0x3db648a6	0.08900575
153	0x3d15d910	0.03658396
154	0x3d7e24f8	0.062046975
155	0xbc5fbbfa	-0.013655657
156	0xbd17992a	-0.037011303
157	0xbd42914c	-0.047501847
158	0xbd3b2450	-0.045688927
159	0xbcb31c0a	-0.021863956
160	0xbc9c0533	-0.019045448
161	0x3d102d77	0.03519961
162	0x3d2dfb6a	0.042476095
163	0x3d5536cb	0.052054208
164	0x3d0c283b	0.034218054
165	0x3d1bc958	0.038033813
166	0x3d42537f	0.04744291
167	0xbd1fd59a	-0.039022066
168	0xbd35de28	-0.044401318
169	0x3cb5b880	0.022182703
170	0x3d8a663a	0.067577794
171	0xbd6ee61c	-0.05832492
172	0x3d8846e5	0.06654147
173	0x3d3f0877	0.046638932
174	0xbd0347a2	-0.032050736
175	0xbccf4491	-0.02530125
176	0x3cc9b79e	0.024623688
177	0xbd1841e6	-0.03717222
178	0x3d25dff4	0.04049678
179	0xbd1824a7	-0.03714433
180	0x3e13f9bd	0.14450736
181	0x3d65bfbf	0.056091066
182	0x3c1a099f	0.009401708
183	0xbe097052	-0.13421753
184	0xbd6bbe12	-0.057554312
185	0x3db93b37	0.090444975
186	0x3ca5c4e8	0.020235494
187	0xbe165b11	-0.14683177
188	0xbe0d4697	-0.13796459
189	0x3da7ce40	0.08193636
190	0xbd685d93	-0.056729864
191	0x3d38f8f3	0.04515929
192	0x3cbc3f4a	0.022979397
193	0x3c0a546c	0.008442979
194	0xbdc2be29	-0.095089264
195	0xbc99ed09	-0.018789785
196	0x3d8beda1	0.068324335
197	0x3cec6264	0.02885551
198	0x3dc69393	0.09696116
199	0x3d0d0c47	0.034435537
200	0x3da73ddd	0.08166096
201	0xbd5f1e78	-0.054472417
202	0xbd6c5730	-0.057700336
203	0xbdefe77a	-0.117140725
204	0xbdc6e553	-0.09711709
205	0xbd97c4f4	-0.07410613
206	0xbddcee15	-0.10787598
207	0x3d95407e	0.072876915
208	0x3d0ef935	0.03490563
209	0xbda99770	-0.082808375
210	0xbdb57564	-0.08860281
211	0x3d734b4c	0.05939798
212	0xbd933111	-0.07187093
213	0xbd81a93f	-0.06331109
214	0x3d1289c0	0.0357759
215	0x3d5e4fd4	0.05427535
216	0xbdb38eb3	-0.08767452
217	0x3d4290e0	0.047501445
218	0xbda8b795	-0.082381405
219	0x3d44db9e	0.048061006
220	0x3d4fe84b	0.05075864
221	0x3e20aa35	0.15689929
222	0xbc1e458b	-0.009660135
223	0xbb8c0d0a	-0.0042740153
224	0x3c2697eb	0.010168056
225	0x3dafadca	0.085780695
226	0x3d4c747d	0.04991578
227	0xbd3b8598	-0.0457817
228	0xbd0c8f7a	-0.034316517
229	0xbd2ccf3c	-0.04218982
230	0x3c8ae012	0.016952548
231	0xbdfb1ec9	-0.12261731
232	0xbd02564d	-0.031820584
233	0xbcda496c	-0.026646338
234	0xbd4a1f8f	-0.049346503
235	0xbd56bcfa	-0.052426316
236	0xbdde5f52	-0.10858025
237	0xbc075492	-0.008259909
238	0x3d8c3085	0.06845192
239	0xbdeb0833	-0.11476173
240	0xbda2190d	-0.07914934
241	0x3d97ce6e	0.0741242
242	0x3d86b328	0.0657714
243	0x3dde6b43	0.10860302
244	0x3dfd69c6	0.1237369
245	0x3de19d19	0.11016292
246	0x3d9296e2	0.07157685
247	0xbdc482e7	-0.0959528
248	0xbdbd7cc5	-0.092523135
249	0x3ddfde15	0.10931031
250	0x3dd6733c	0.10471198
251	0xbd963571	-0.07334412
252	0x3d85ac64	0.065270215
253	0x3d7fb4f8	0.062428445
254	0xbde6b5c1	-0.112651356
255	0xbe0e4e7e	-0.1389713

encoder.fc.bias f4 [20]
0	0x3c9fd029	0.019508438
1	0xbc060939	-0.00818091
2	0xbbd4c60a	-0.0064933347
3	0x3d090c23	0.03345884
4	0x3ccbcf6c	0.02487918
5	0xbde1209a	-0.109925464
6	0xbd3cd1a4	-0.046098366
7	0x3d212558	0.039342254
8	0x3d4112b4	0.047136977
9	0xbda80058	-0.082031906
10	0x3d21baed	0.039484907
11	0xbd912db0	-0.07088792
12	0xbd64335d	-0.055713046
13	0xbbdb4bf7	-0.0066924053
14	0x3cffb772	0.031215403
15	0xbca2c381	-0.019868614
16	0xbe37d5b5	-0.17952617
17	0x3c76a6a3	0.015054378
18	0x3dc5ff0f	0.09667789
19	0xbc71d6ef	-0.014760717
