agl/models/autosave/tr-AE-30-10-0.01-F1.pt (torch, 70668 bytes, 53 tensors)

gating.embedding.weight f4 [8, 10]
00000000: b2fb 8539 d3a3 5bbb 6e21 d5bc 5d9b 3cbc
00000010: 2c20 66bc 1e65 253c b7a1 a2bc 7770 623c
00000020: e2c1 1ebb 2067 37bc 287d f73b ed78 ccbc
00000030: cb66 623d 1c9f 413d 50ea fe3c 00c3 0a3b
00000040: 4e75 c3bc 2c98 063c 3c27 3dbc d262 a63c
00000050: 219e e33d 4cb5 d83d e3b4 64be 6ab9 cdbd
00000060: 8602 803c 9eb3 c2bd 79c8 21be 2026 b7bd
00000070: 6e56 c83c 0b89 0a3e 7cf1 783b b29e 493c
00000080: 3957 133d 3465 d63c b024 363d afe0 f5bc
00000090: 24e9 983c 0838 313d 1026 11ba 920a 84bb
000000a0: 8efa 12bd cf83 023c 6849 82bc a11d 1dbd
000000b0: 527a b73d 9308 2d3d 87c4 87bd 5117 423d
000000c0: aeb6 27bc 6ce5 723d a49a 773c 2e74 373d
000000d0: 5fc6 aa3d c463 163d 3625 7f3d 9891 4cbb
000000e0: 86e2 133d febd 13bc 8de0 123c cc83 f33c
000000f0: 7dff 6a3d aedf 5abd 2eab 30bc ecfc aebd
00000100: b567 323c a59b 48bc 0cf1 f9bc 0fb8 9bbc
00000110: b3fe 643d 08d4 ec3d e034 e43c 44dd 94bb
00000120: 916b c13c b812 243d 1a92 c83b 1326 333c
00000130: cc9c 653d 1ef2 063c f2d9 99bb 3dd6 2c3d
0.00025555264 -0.0033514395 -0.026016917 -0.011511651 -0.014045756 0.010094909 -0.019852502 0.013820759
-0.002422445 -0.0111940205 0.0075527616 -0.024960006 0.055273812 0.04727088 0.031117588 0.0021173358
-0.023859646 0.008214992 -0.011544999 0.020310793 0.11114145 0.10581455 -0.22334628 -0.100451306
0.015626203 -0.095069155 -0.1579913 -0.08942819 0.024455275 0.1352884 0.0037985733 0.012305902
0.035971854 0.026171304 0.04446858 -0.030014364 0.018665858 0.043266326 -0.0005536983 -0.0040295804
-0.03588348 0.007965996 -0.015904143 -0.038358334 0.089588776 0.042244505 -0.066292815 0.047385518
-0.010236425 0.059300825 0.015112553 0.044788532 0.083386175 0.036716238 0.062291346 -0.003121471
0.0361047 -0.009017466 0.00896467 0.029725932 0.05737256 -0.053435974 -0.010783 -0.08544335
0.0108889835 -0.01224414 -0.030510448 -0.019008664 0.055906963 0.11563879 0.027857244 -0.0045429785
0.023610862 0.040056914 0.0061209323 0.010934371 0.056057736 0.008236436 -0.0046951706 0.0421965

gating.rnn.weight_ih_l0 f4 [30, 10]
00000000: c42b 22bd e80e bdbb ec1a 0f3c b8d0 01bb
00000010: c87c b53c 8cdf 833c ced0 933c 7af8 863c
00000020: de61 1f3c 6ded 36bc 3c6b be3c d00f e2ba
00000030: 00b5 d23b 64b4 4dbc 5354 b6bc 8709 23bc
00000040: 6285 dabb c249 e4bc 116a c83b 845c 6b3c
00000050: 3036 7fbc 809e ff39 d5d8 b13c 9faf 8c3c
00000060: 5612 693c cb6a 1b3c e890 6c3c 6bd5 233c
00000070: cba4 26bc 606a ea3a a4b0 0bbd bc36 61bb
00000080: ac99 823c 6cba 163d 6838 dcbb eaf3 513b
00000090: cfc7 b83c 26c8 d13b e6cd a1bc b967 24bc
000000a0: daa8 e6bb 8835 10bd c426 773c 3259 f33c
000000b0: 1498 6a3c a5a2 1a3c 8220 d23c c955 ae3c
000000c0: e49f 5bbc 6202 79bc 5810 b4bc 3434 7bbc
000000d0: 10b9 dc3c 1cdb fa3b 4cbf d03c d158 433c
000000e0: 80a2 593a 7a28 b93c 987c 00bb d7b1 0cbc
000000f0: 20db 66bc 1856 80bc e2c1 963c 2cac a73c
00000100: c286 483c 9ea2 b93c d3b5 c93c 6378 b63c
00000110: 53c4 09bc a43b cabc 54d1 c8bc f21b 3cbc
00000120: 12e1 123c a87b 4abb d456 28bc c897 083c
00000130: a8e1 043d 11ca 943c 3866 94bc d650 ccbc
00000140: 64b0 0d3c d8f3 c2b9 fda3 fc3b 7745 cdbc
00000150: 2a0f 313c 6fb3 16bc 1268 d73b 1bcf 113c
00000160: 7a95 21bb e22c 7fbb 9a4d 2f3c 49b3 a13c
00000170: aaa5 a7bb 3c60 43bc fc58 6abc 46db 7c3b
00000180: 0737 1dbd 724e 86bc b757 a83b 5e61 fb3b
00000190: dc72 41bc d69c d8bb c640 b23c 88e9 7c3c
000001a0: d183 363c 1aab 61bc 3bc2 d13c 9cb6 5a3c
000001b0: e6fb 1fbc 47f4 e2bc 7a66 563c 50fa a5ba
000001c0: c098 9138 182e 493a 50e3 573a 4f20 c9bc
000001d0: 36a0 4cbc 5e38 dfbb 20d8 a93b 5a87 613c
000001e0: 40d1 50bc 0bd8 66bc 38ba 5bbb 78cd 9e3b
000001f0: 46e1 583b 880d 31bb c8ce 3a3d 208a e03c
00000200: 046b c23b 41e8 b7bc 9c8b a53b 1ed1 1a3c
00000210: daf5 20bc 4079 b9bc 5fd6 333c a9d7 083c
00000220: fe89 9bbc 2406 a6bc 050c 853c c497 e13c
00000230: 32d6 993b 3a29 fc3c 30b0 25bb 18d4 ebbc
00000240: c89a 393b 0fd3 063c 94f5 adbc 84c6 8bbc
00000250: 7848 083d 2916 043d fee1 933c 55ea 883c
00000260: 90e9 073c 847e db3c e835 8a3b c80c 9eba
00000270: ce28 97bc fa4e 35bc 0ef5 b7bc 6a8b ea3b
00000280: 1caa f83c 34bf ed3b 48b0 91bc ba57 b1bc
00000290: c5a5 403c b378 573b 38a3 303b 9623 47bc
000002a0: 75a7 a13c 0691 a53c aa2c b4bb 17ab 1ebc
000002b0: 55a4 053c 137e a73c 5407 de3a 8373 c8bc
000002c0: 1a8f 6b3c 4cdc 48bc d021 c7bc c880 c43c
000002d0: ec71 903c bc4a 073c 6001 d1ba 2a2c 653c
000002e0: 850a 8f3c 5bf7 31bc 96b7 98bc 405d 4d3a
000002f0: 7e0d 113c f0e5 4e3c 360a f13c 0563 003d
00000300: 971d 363c fc67 16bd beac 8d3b 1ba4 0bbc
00000310: bf96 b0bc 34ed a3bc 452d 1b3c 7efc bc3c
00000320: c3f4 973d 72a8 6abd b662 d73d acc4 7e3d
00000330: 3c0f 3c3d add8 2abd 4af8 5f3d 8f63 493d
00000340: 5283 71bc fb59 5cbd 6d92 84bd 28c1 f03c
00000350: 80da 5dbb 7c3a 2abc 0041 f2ba a4ca 8d3d
00000360: ec9d 4e3c 71fb a03c 7966 23bd d164 da3c
00000370: e5fa eb3c e420 03bd ba72 033e 4904 573d
00000380: 232f e43c 6587 9fbc 228f 853d 9390 7f3d
00000390: 2f25 813d 6a25 2abd 33b0 093e 5e4f f83c
000003a0: ff88 f43d f508 bf3c 4288 8d3c 6500 9abd
000003b0: 84fd d03d 930d a23d eb7a 5d3d 00ee 27bc
000003c0: b6f6 e2bd 24b6 47bd f1de bdbd 64ce 63bd
000003d0: 4420 b7bc d4a3 873d 684b d6bd 2408 8abd
000003e0: 16c1 1abd 545d 95bc 6236 fcbc f6bf 8f3d
000003f0: f45a 8cbd 40f8 f0ba 407f f7ba a312 4dbc
-0.03959252 -0.005769599 0.008734446 -0.0019808244 0.022154227 0.016097806 0.018043902 0.016475905
0.009727923 -0.011165005 0.023244493 -0.0017247144 0.0064302683 -0.0125552155 -0.022257006 -0.009951002
-0.0066687325 -0.027867202 0.0061161597 0.014365319 -0.015576884 0.00048755482 0.021709839 0.017173586
0.014225563 0.009485911 0.014438845 0.009999613 -0.010171126 0.0017884485 -0.034104005 -0.00343649
0.015942417 0.03679888 -0.0067205913 0.0032036253 0.022556214 0.0064020334 -0.0197515 -0.010034495
-0.0070391716 -0.0352073 0.015084926 0.029705618 0.014318485 0.009438192 0.025650267 0.02128114
-0.01340482 -0.015198322 -0.02198045 -0.01533227 0.026943713 0.0076555144 0.025481842 0.011923031
0.00083021075 0.022602309 -0.0019605514 -0.008587322 -0.014090329 -0.015666053 0.018402997 0.02046784
0.01223916 0.02266055 0.024622833 0.022274202 -0.008408624 -0.024686642 -0.024513878 -0.011481272
0.008964794 -0.0030896459 -0.010274608 0.008336969 0.032441765 0.018162759 -0.018115148 -0.02494089
0.008648012 -0.0003718424 0.0077099786 -0.025057537 0.010806838 -0.009198054 0.0065736854 0.008899475
-0.0024655745 -0.0038936664 0.010699654 0.01973881 -0.0051161842 -0.0119247995 -0.014303442 0.0038582846
-0.038382556 -0.016394828 0.0051374095 0.007671519 -0.01180717 -0.006610493 0.021759402 0.015436538
0.011139826 -0.013773704 0.025605312 0.0133492015 -0.009764647 -0.027704371 0.013085956 -0.00126631
6.942591e-05 0.000767441 0.00082354713 -0.024551539 -0.012489369 -0.0068121394 0.005183235 0.0137651805
-0.012745202 -0.014089595 -0.0033527743 0.004846271 0.0033093258 -0.0027016122 0.04560736 0.027409613
0.0059331674 -0.022449614 0.005052043 0.0094492715 -0.009824241 -0.022640824 0.010976403 0.008352199
-0.018986698 -0.0202666 0.016241083 0.027538188 0.0046947235 0.030781377 -0.0025282018 -0.028787658
0.0028321017 0.008229031 -0.021235265 -0.017062433 0.033272237 0.032247696 0.018052097 0.0167133
0.008295432 0.026793726 0.004217852 -0.0012058252 -0.018452074 -0.011066193 -0.022455718 0.0071577327
0.030354552 0.007255459 -0.017784253 -0.021648277 0.011758273 0.0032878339 0.0026952755 -0.01215448
0.01973317 0.020210754 -0.0054984884 -0.009684346 0.008156856 0.020445859 0.001693944 -0.024469143
0.01437738 -0.012259554 -0.024308115 0.023987189 0.017632447 0.008257564 -0.0015945844 0.01398758
0.01746107 -0.010862197 -0.018642228 0.0007834025 0.008853314 0.012628064 0.029423814 0.031344432
0.011115453 -0.03672026 0.004323571 -0.0085230125 -0.021556256 -0.020010568 0.009471242 0.023069616
0.074197315 -0.05728955 0.105168745 0.06219928 0.045912966 -0.041710544 0.054680146 0.049167212
-0.014740782 -0.05379675 -0.06473241 0.02938898 -0.003385216 -0.01038992 -0.0018482506 0.06923416
0.012610894 0.019651147 -0.039892647 0.026659401 0.02880616 -0.03201379 0.12836733 0.05249432
0.027854508 -0.01947374 0.06521441 0.062393736 0.0630592 -0.041539587 0.13446121 0.030311283
0.119401924 0.0233197 0.017276887 -0.075196065 0.10204604 0.07912745 0.0540723 -0.010249615
-0.110822126 -0.048757687 -0.09271038 -0.05561675 -0.022354253 0.066230446 -0.10463601 -0.06739834
-0.037781797 -0.018232979 -0.03078765 0.070190355 -0.068532854 -0.0018384531 -0.0018882528 -0.01251665

gating.rnn.weight_hh_l0 f4 [30, 10]
00000000: dca2 1fbd fe89 b23c c141 ebbc f4d9 5bbc
00000010: 324d 0bbc 9068 a5ba 4823 d2bb 63a1 e9bc
00000020: 84a6 04bc 87ef 90bc f80c 983b 4b38 6cbc
00000030: 4045 023c b4ec 6dbc 1551 6e3c 3370 d6bc
00000040: 105d c33c b8e9 173c f8d4 873c db4f f33b
00000050: d03b f8ba 80cc f83a f62f 49bc 803a b338
00000060: 3d92 84bc 6aa8 603c b06d 34bc 7847 4ebc
00000070: 303a 47bb b083 40bc ecb7 99bc 5f4a af3c
00000080: 3b06 68bc c095 51bc d3e4 5abc 06a5 9e3c
00000090: f4ee 0fbc 6f86 c7bc 949e d0bb d371 313c
000000a0: fcdd c6bc a42d 273d d834 bcbc fa05 883b
000000b0: 7e8f fabc 1624 e93c 33a2 6ebc f08d 11bd
000000c0: 2095 41ba 065a 903b e06b 8cbb 40a1 8bba
000000d0: e8f9 febb a115 3fbc a017 92bb e486 0a3c
000000e0: c1eb 2bbc 0c69 833b 9ab2 babc 9229 babc
000000f0: f7c5 e1bc 0896 bc3b 9014 d8bc 2d14 52bc
00000100: e2f9 11bc 200d 9e3a 168f 89bc e10a f7bc
00000110: da64 9dbc b19a e8bb c827 143b 5402 793c
00000120: 62e0 f1bc 65a8 54bc 58af 39bb 548c df3c
00000130: 182e 153b fb50 58bc ce72 a9bc f032 7eba
00000140: 5276 eebb 3672 b63c b0d4 e53b e639 3e3b
00000150: f04d 0ebb 05cc 03bc ec32 d93b 2427 883a
00000160: 97fd 3bbb f52e 323b 3099 813b bcc0 b4bb
00000170: 8dfd a93c 44e7 06bc 14c2 553b 51eb 9cbc
00000180: e0fc a8bc 8a0a a03b 24e9 7b3a c41a 283c
00000190: 7aca 813c 20d9 f5b9 9872 773c 7f9a 8dbb
000001a0: 0890 7e3b e87e adbb 673e a0bb b07d 7c3b
000001b0: 0824 923c 67c7 393b 1ca8 9c3b c08a da3a
000001c0: 9e2e c93c 7820 1ebc 844a 5c3b 7252 61bc
000001d0: 59b2 afbb 3ad1 55bc f326 cd3c a400 d739
000001e0: cc92 37bc 10eb 9fba 44dc 58bc 33ad ad3b
000001f0: 865c 32bc e1bb d33b b014 2d3a 44bc 743b
00000200: db72 daba 4eff 81bc dab1 b13c 9f5a d0bc
00000210: da73 be3c 609d 6f3b e3fd 983c 5024 15bd
00000220: 5cd0 d53c 12ae b83c f635 8d3c 549d a93c
00000230: b8e9 dc3c 33a0 e3bc f9b2 c93c 2ceb 863a
00000240: 7cbe 9a3c 3752 bdbc a6ca e13b 37af b03c
00000250: c03e f6ba 8c72 4d3b 6ac0 8b3c a012 27bd
00000260: 2a97 c13c 844c a23c 74d4 133d 8e88 58bc
00000270: b2e6 7e3c 0752 e23c dab3 1a3c 8cea e63c
00000280: 2c4a fc3c 4aba aabc d8b9 6c3c b4dc 533c
00000290: c5f6 503c 8c18 18bc a8be 893c c31a a13c
000002a0: 5043 793c cc06 893c cbad 943c c0bd 04bd
000002b0: 5002 083c 82b0 67bc a0b8 343c 2a85 cfbc
000002c0: 8828 7d3c a60e da3c 33c9 cdbb c643 7abb
000002d0: 90dd b53a 8d07 adbc e05b 263d 402d 54bc
000002e0: 768f d63c a257 00bd 6f0f b13b 7201 ea3c
000002f0: 10cb b3bb bdb7 2f3b fef6 a33b b001 cfbb
00000300: 4d9b 853c eb89 803c 9e76 ab3c ccc0 c1bb
00000310: 9c89 823c df5f d73c 8054 29ba 785e 4cbc
00000320: 345d 943c 90ce da3b aaf1 17bd 90c4 c5bd
00000330: c533 dc3c 702c 07bc 664f 0f3d b781 26bc
00000340: c618 76bc 707c 34bd fb4b 7dbd 4aa7 503d
00000350: e70f 5fbc 7e8c 0c3d 2e8c 51bd eaca 333d
00000360: 8c4f 38bd c824 02bd 4e7e c2bc 42cb fcbb
00000370: cf5a 71bc 9096 c23a 5490 76bd 76fb debd
00000380: a2c2 693d d838 403b 1006 393d c231 8c3c
00000390: 76a0 6abd 5ab1 5fbd 1a3a 61bc 18fb 163c
000003a0: c93d 0abd 1229 09be f4f1 013e 8cc1 9cbb
000003b0: 804d d63d 6743 133d d2d7 0bbc 9ae4 3abd
000003c0: a60a ec3c d8f8 02bc 34ba 503d 1555 bf3d
000003d0: d8cc e1bd 803e 2aba 339b e4bd ea3e 55bd
000003e0: d064 513b 02a7 5b3d 27c0 04bd 8f11 d03c
000003f0: 4682 a83c 2a37 953d 8e1d a0bc 54b3 183c
-0.038973674 0.021794315 -0.028717877 -0.013418663 -0.0085022915 -0.0012619663 -0.0064128973 -0.028519338
-0.008096341 -0.01769234 0.004640218 -0.014417718 0.007951081 -0.014521766 0.014545699 -0.026176548
0.023848087 0.0092720315 0.016581044 0.007425291 -0.0018938724 0.0018981844 -0.012279501 8.5462816e-05
-0.016183013 0.013712028 -0.01101248 -0.012590282 -0.0030399673 -0.011750147 -0.018764459 0.021397768
-0.014161642 -0.012792051 -0.01336022 0.019365799 -0.008784998 -0.024356095 -0.0063665602 0.01083036
-0.024275772 0.04081501 -0.022974417 0.004151103 -0.030586 0.02845959 -0.0145650385 -0.035535753
-0.0007384587 0.004405263 -0.0042853206 -0.0010652915 -0.007781256 -0.011662872 -0.0044583827 0.008455012
-0.01049322 0.0040103253 -0.022790242 -0.0227249 -0.027560217 0.00575519 -0.026376992 -0.012822193
-0.008909674 0.0012058355 -0.016791862 -0.030156555 -0.019213129 -0.007098519 0.002260672 0.015198309
-0.02952594 -0.0129796015 -0.0028333273 0.027288593 0.002276307 -0.013202901 -0.020684626 -0.00096969213
-0.0072772885 0.022271257 0.0070138797 0.002902621 -0.0021713935 -0.0080442475 0.006628385 0.0010387641
-0.0028685087 0.0027188633 0.003955029 -0.00551614 0.020750785 -0.008233849 0.00326169 -0.019155176
-0.020628393 0.004884069 0.0009609631 0.010260288 0.015843619 -0.00046891812 0.015103005 -0.004321396
0.0038843174 -0.0052946694 -0.0048902514 0.0038527064 0.017839447 0.0028347613 0.0047807824 0.0016673431
0.024558362 -0.009651296 0.003361375 -0.013752567 -0.005361837 -0.013050372 0.025042986 0.00041008473
-0.011204433 -0.0012200791 -0.013236109 0.005300188 -0.010886317 0.006461606 0.0006602509 0.003734366
-0.001666631 -0.01586881 0.021691252 -0.025433837 0.023248602 0.0036562309 0.01867575 -0.036411583
0.02610033 0.02254394 0.017237645 0.020704903 0.026966915 -0.02778635 0.024621474 0.0010293475
0.018889658 -0.023110492 0.0068906127 0.021567924 -0.0018787012 0.0031348793 0.017059524 -0.040789247
0.023631651 0.019811876 0.036091283 -0.013216151 0.015557932 0.027627004 0.009442294 0.028188013
0.030797087 -0.020840783 0.0144486055 0.012931038 0.012754147 -0.009283196 0.016814545 0.019666081
0.015213802 0.016726874 0.018149277 -0.032407522 0.008301333 -0.014141204 0.011030346 -0.025332052
0.015451558 0.026618313 -0.0062800883 -0.0038187369 0.0013875235 -0.021121765 0.040614963 -0.012950242
0.026191454 -0.031333573 0.005403451 0.028565142 -0.0054868534 0.0026812397 0.005003809 -0.00631734
0.016309405 0.015690764 0.020930585 -0.0059128758 0.015934758 0.026290832 -0.000645943 -0.012473695
0.018110849 0.006677456 -0.037095703 -0.09656632 0.026880154 -0.008250341 0.03498783 -0.010162762
-0.015020555 -0.044063985 -0.06184004 0.05094079 -0.013614631 0.03431367 -0.051159076 0.043894686
-0.044997737 -0.03177336 -0.023741867 -0.00771466 -0.014731123 0.0014845897 -0.060196236 -0.10887806
0.057070382 0.0029330757 0.045171797 0.01711357 -0.057281934 -0.054612495 -0.013746763 0.009215139
-0.03375033 -0.13394573 0.12689954 -0.004783815 0.10464001 0.03595295 -0.008535342 -0.045628168
0.028813671 -0.007993899 0.050958827 0.093424 -0.11025399 -0.00064942986 -0.111624144 -0.052061953
0.0031950958 0.053626068 -0.032409813 0.025398998 0.020569932 0.07285912 -0.019545343 0.009320099

gating.rnn.bias_ih_l0 f4 [30]
00000000: 2894 f33b cd91 353d d2da e0bc d069 b0bd
00000010: de66 98bd 1b47 a93c aa4c 82bd 987e fabb
00000020: b11a dabc fc5b 3dbc 3400 283c 9c6d 403c
00000030: 068a b83c 0d3d 0b3d b2f7 273d 8823 753b
00000040: c8bb 1a3d fa40 c33c fd07 9d3c 1c46 e13c
00000050: 40f8 ae3d ee3b 09be fcd6 063d ba14 b23c
00000060: 5c5a afbb 7872 dabd 38e6 13bb 14f4 8e3d
00000070: dfbe ee3c 4a09 a63c
0.007433433 0.0443285 -0.027448092 -0.08613932 -0.07441495 0.020663789 -0.06362279 -0.0076444857
-0.026624056 -0.011557575 0.010253955 0.011744883 0.022526752 0.03399377 0.041007705 0.0037405211
0.03777674 0.023834694 0.019168848 0.027499251 0.08543444 -0.13401768 0.03291987 0.021738399
-0.005351348 -0.106663644 -0.002256764 0.06980148 0.029143749 0.020268101

gating.rnn.bias_hh_l0 f4 [30]
00000000: 2894 f33b d091 353d d3da e0bc cf69 b0bd
00000010: de66 98bd 1b47 a93c aa4c 82bd 907e fabb
00000020: b11a dabc fa5b 3dbc 3400 283c 9b6d 403c
00000030: 068a b83c 0e3d 0b3d b2f7 273d a023 753b
00000040: c8bb 1a3d fa40 c33c fd07 9d3c 1c46 e13c
00000050: 3ac4 ad3d dfd9 07be ced6 123d 1ae2 bc3c
00000060: 48c0 eabb 7c12 dabd 5e00 ccbb a16b 923d
00000070: 645f 043d b8b7 473c
0.007433433 0.04432851 -0.027448094 -0.086139314 -0.07441495 0.020663789 -0.06362279 -0.007644482
-0.026624056 -0.011557573 0.010253955 0.011744882 0.022526752 0.033993773 0.041007705 0.0037405267
0.03777674 0.023834694 0.019168848 0.027499251 0.08484693 -0.13266705 0.035849385 0.023057032
-0.007164035 -0.10648057 -0.0062256297 0.07149435 0.032317534 0.012189798

gating.rnn.weight_ih_l0_reverse f4 [30, 10]
00000000: c566 d43c ce6d 693c 8e44 933a 2030 e039
00000010: ec4b 2bbc dea3 19bc 0a05 8dbc d7d7 10bc
00000020: ea1a 08bc f483 423c ac74 53bb 230d a6bc
00000030: 4078 8e3b 21cd 26bb 763c 303a 232e 603c
00000040: 10d9 f73c 5ed7 853c 6143 5d3c 4a60 16bd
00000050: 36dd cc3c 95aa 113c 1df6 343c 3234 94bc
00000060: 377f 853c 3ddb 8f3b 95b8 95bc b89e cfbc
00000070: 74b4 5a3c e9e7 cb3c 4e76 15bd 70e2 1abd
00000080: f2b1 06bc 20ac 0238 9e23 763b 2cfd 263b
00000090: a851 f03c dce0 9cbb a87c a63a 4c36 f3bc
000000a0: 40f5 acbb daee 35bd 8487 9f3c 173d b4bc
000000b0: 3558 1cbc 407e 79bc c6e0 4d3c 1275 623c
000000c0: 8463 74bb 10c7 49bc 048d 263c f6fe acba
000000d0: a8d8 bbbb 534e a43b 9c74 ebbb d172 37bc
000000e0: 9efa 62bc 4bda 46bc 31f2 8f3c 1a93 31bc
000000f0: 9c3f 943c d735 5e3c a0f8 debb ff4f 58bb
00000100: f24c a93c 5b87 013c e682 8bbc 4c85 bfbc
00000110: a21e b43c 60d7 163d ebc2 c7bc f7fc a6bc
00000120: 2554 5f3b 66a8 fabb d4d3 b83b 4e8f 1ebc
00000130: f2c4 f43c 8c20 b93c 0068 b9b7 6034 35bb
00000140: 8054 f03b f0b5 9d3b 3e52 3dbb 1f17 c43c
00000150: 868b 1fbc cfe8 b3bb 6011 14bc ee95 b7bc
00000160: bc10 c3bb c8d9 2a3c ae42 69bc 7ea9 e5bc
00000170: 581b 743b e4bd bebc 78a9 6dbb 014b 35bc
00000180: ad3c 6a3c 1c31 613c dad1 a9bb 6418 d8bc
00000190: 9a61 2abd 5aab 86bc e4d9 8cbb dddd e93b
000001a0: 433a fd3c 03d3 97ba 0839 443c d21a 5b3c
000001b0: 5f08 5bbc a73e 09bd dc42 843c bee4 e13c
000001c0: 7877 603b fbcd da3b 9306 94bc aeb1 29bc
000001d0: 8cd3 27bc 11ff 44bc 3bfc e73b 23c1 963c
000001e0: 0abd c9bb b1f0 6ebc 8494 cc3a 4aa3 55ba
000001f0: 770d 05bc 0c6e db3b 123c ac3c ee86 7b3c
00000200: acfd 8dbc d076 1ebc 797e eb3c a7b4 ca3c
00000210: 1cd3 30bc dc06 35bc 44f1 8bbb ef17 ba3b
00000220: 58f3 a2bc b4bd c2bb d9cf ec3c aed0 033d
00000230: 10d0 433b 0422 b23c 2c99 5cbc c741 2b3d
00000240: e8d1 7cbb 80c3 673c e284 d1bc 604a b6bc
00000250: d713 153c e742 883c 3dac 27bc 85c0 693c
00000260: 1e57 0b3c 3002 2fbb 3064 023b 1a8c 48bc
00000270: 1034 633c 0439 793c 0708 8d3c fea5 fc3b
00000280: 61e8 42bc e121 c3bc 4ab9 053c df0a e63b
00000290: 073c 243a 9095 9c39 b93e fd3c 8812 d83c
000002a0: b8f4 34bb 241c e3bc cc3b bb3c 7cc8 cb3b
000002b0: e06f 803a 9d7f a13b 98b1 e53b 06cc acbb
000002c0: b26f 41bc c3fb e8bc b749 5f3c 5278 793c
000002d0: 98dc 0a3d 05d7 963c f5f9 ffba eaac 84bc
000002e0: 43e4 a0bc 829a ceba 6ff3 44bc 50b0 93bc
000002f0: 7873 b7ba 80ab 3c3d c4d1 cbbb c6ad bb3c
00000300: 93da 8e3b 2aa3 393d 6ec5 573c 3121 b93c
00000310: b0d4 13bd fc98 ddbc 4e8f 353c bc85 8f3b
00000320: 6815 9c3d 54eb 5a3c 200c d43c 41df da3c
00000330: 4032 9dbc 956c 9bbd 000d 713b 8ec5 9e3c
00000340: 81ba 233d fc09 a8bb d864 583d 9df9 a6bc
00000350: 8b6c fa3d 601c 32ba 173b c9bc 0f9a b2bd
00000360: 761f 0a3e fd53 c23d 15e6 4b3d 004b 763b
00000370: 969d d73c 7810 01bb 73c5 c33d 92ae 673d
00000380: 0f29 55bc f95d 193d b6aa 9a3c 1122 343d
00000390: 1510 0f3d fc18 f0bb bacf 1fbd def9 24bd
000003a0: d19e ddbd 64d4 ac3b 4284 0a3d 6e74 603c
000003b0: 6096 b7bd 6b18 2cbd 78e3 83bd 4ba2 64bd
000003c0: 8098 47bd 52d6 5e3d 09cd a7bc 7ff9 14bd
000003d0: a892 c53c 4075 9b3d a8b5 e03c 2a0a 1abc
000003e0: c03b 7dbb 2238 573d d424 93bd 5644 7d3c
000003f0: e607 03be 048c 143b 9234 9d3c 3c95 b73c
0.02592791 0.014247371 0.0011235641 0.00042760465 -0.010455113 -0.009377448 -0.017214317 -0.008840523
-0.008307198 0.01187228 -0.0032265587 -0.020269936 0.004347831 -0.0025451856 0.00067228766 0.013682875
0.03025487 0.016338047 0.013504834 -0.036712922 0.025007825 0.008890768 0.011045006 -0.018091295
0.016296012 0.004390149 -0.018276492 -0.025344238 0.013348687 0.024890857 -0.036489777 -0.037813604
-0.008221136 3.115472e-05 0.003755785 0.0025480492 0.029335812 -0.0047875475 0.0012701945 -0.029688977
-0.0052782595 -0.04441724 0.019473799 -0.022001786 -0.009542515 -0.015227854 0.012565797 0.013821857
-0.0037290761 -0.012315527 0.010165457 -0.0013198543 -0.0057326145 0.00501422 -0.007185532 -0.011196808
-0.013853697 -0.012137006 0.01757154 -0.010838294 0.018096738 0.013562641 -0.0068045408 -0.0033006666
0.020666573 0.007905806 -0.01703019 -0.02337899 0.021987263 0.03682649 -0.024384936 -0.020384295
0.0034077254 -0.007649469 0.0056404863 -0.009677721 0.029879067 0.022598527 -2.2102147e-05 -0.0027649626
0.007334292 0.0048129484 -0.0028888131 0.023936806 -0.009737855 -0.0054903994 -0.009037346 -0.02241036
-0.0059529226 0.0104279 -0.014237089 -0.028034922 0.0037247743 -0.023283906 -0.0036264341 -0.011065246
0.014296693 0.013744619 -0.005182487 -0.026378818 -0.041596986 -0.016439129 -0.0042984355 0.007137044
0.03091157 -0.0011583272 0.011976488 0.013373094 -0.013368695 -0.033507016 0.016145162 0.027574893
0.0034250896 0.006677387 -0.018069541 -0.010357304 -0.010243308 -0.012023703 0.0070796288 0.018402642
-0.0061565684 -0.0145837525 0.0015608226 -0.0008149637 -0.008120886 0.006696468 0.021024738 0.015351994
-0.017332874 -0.009671882 0.02874683 0.024744345 -0.01079252 -0.011048999 -0.0042707045 0.0056791226
-0.019891426 -0.0059430245 0.028907703 0.032181434 0.0029878654 0.021744736 -0.013464253 0.041810777
-0.0038577262 0.014145732 -0.025576059 -0.022252262 0.0090989685 0.016633464 -0.010233936 0.014267092
0.008504657 -0.0026704185 0.0019896142 -0.012240434 0.013867393 0.0152113475 0.017215742 0.0077102175
-0.011896224 -0.023819866 0.008161852 0.007020339 0.0006265048 0.0002986607 0.030913698 0.026376024
-0.0027611684 -0.02772338 0.022855662 0.006218968 0.0009798966 0.0049285428 0.007009696 -0.005273345
-0.011806415 -0.028440362 0.013628415 0.0152264405 0.03390178 0.018413076 -0.0019529449 -0.016195733
-0.019640094 -0.00157626 -0.01202093 -0.018028408 -0.0013996204 0.046061993 -0.0062200744 0.02291001
0.004359552 0.04532162 0.0131696295 0.022598835 -0.036091506 -0.027050488 0.01108153 0.004379956
0.076212704 0.013361771 0.025884688 0.026717784 -0.019189 -0.0758907 0.003678143 0.01938131
0.039972786 -0.0051281434 0.052830547 -0.020382697 0.12227734 -0.00067943893 -0.024564309 -0.087207906
0.13488564 0.09488676 0.04977997 0.0037581325 0.02632026 -0.0019693654 0.09559145 0.056562968
-0.013010277 0.037443135 0.01888023 0.0439778 0.034927446 -0.007327197 -0.039016463 -0.040277354
-0.108213075 0.0052743424 0.033817537 0.013699634 -0.08964229 -0.042015474 -0.064398706 -0.055818837
-0.04872942 0.05440361 -0.02048351 -0.03637075 0.024117783 0.07590723 0.02743037 -0.009401837
-0.003864035 0.052543767 -0.07184759 0.015458187 -0.12795982 0.0022666464 0.019190107 0.022410028

gating.rnn.weight_hh_l0_reverse f4 [30, 10]
00000000: 07e8 7abb deb4 a7bb 22d8 86bb e9ba 70bc
00000010: c106 3c3b 10a7 983b 46ee f63a 3b3c 8639
00000020: 33d1 0cbc 8e68 773b cb18 abbb b2ca d2b8
00000030: e689 cb3c 7ed8 99bc ab0b 47bb b77d 86bc
00000040: f627 9438 c159 cc3b f4c4 43bb 6f1a 93bb
00000050: 0f2b 00bb 720e 2cbc 6305 133b 6515 52bb
00000060: dea1 6cbb 8f6c 6d3c 37d7 c7bb b982 8f3c
00000070: 994d 8bbc 000d 6cbc 5c23 533c 370e 353b
00000080: afca d7bb b937 9e3b c45b 103c 0c3e d5bb
00000090: 73d1 cbbb 7e33 7cba 9747 8abc 96ca 10bb
000000a0: a338 753a c788 1fbc 9b90 b13b d440 8f3b
000000b0: b932 503c 2d66 9bbc 06ec 293b 1462 a33b
000000c0: 01f3 973b a6e5 bdbb 4dc4 88bb 8b6e b1bb
000000d0: 3239 45bb 2ac1 283b ab3b 4c3c 9bcb 61bb
000000e0: 97f4 253b 2227 ba3b 9ccc 3fbc bec8 eabb
000000f0: 02ee 93bc 1ec4 583b 14e5 323c 427e b73c
00000100: f388 163b 7331 cebb 2c2c 59ba bb11 3bbb
00000110: 25a9 4e3c e281 2f3c 9b2d 173c 9eaf 2a3c
00000120: 2929 8a3a 69e0 2c3c e256 bbbb 44ba dfbb
00000130: 2210 bbbb 4c1d fe3b 8072 2abb 9989 38bc
00000140: d56f 82bb eb00 923c 629d 763c 0380 91ba
00000150: 0d0c 833b 7d67 29bb 0ffa 4e3b 9c66 33bc
00000160: f4c5 103c bb54 f8bb 784f 253c b6c2 9dbc
00000170: 3590 ebbb b04d 0fbd 4e67 30bc a4f1 3c3b
00000180: d260 7d3b 62cc 29bb 8df9 2b3c 42a3 5d3c
00000190: 180e 8dbc 41bc a8b9 21bc bdbb 8fe8 2f3c
000001a0: f8d2 d6bc 398d 27bc 903f 64bc 5baf 203c
000001b0: b2b6 8abb 1e57 723c 0a4c 6d3b e018 113b
000001c0: 4487 a43c 27e1 c6ba 62f9 033b 7d71 043c
000001d0: 096f 8e3b 3bb0 94bb c953 f83b 6a83 4a3c
000001e0: 02ab 94bb f69f 0a3c 498c 7dbc 2547 4ebc
000001f0: 6efe 8f38 090a a5bc 8029 a0bb d86c 2f3b
00000200: 9416 45bc ee1c aa3a b8f4 48bc 5e28 4f39
00000210: f6d4 0b3c 6ef9 d8bb d89a ddbb a5e8 41bc
00000220: 656f dabb 71b0 953b 1c48 e23b fee0 343c
00000230: 0be5 0c3c 7e76 253c 9616 803c e3d1 1e3b
00000240: 09fb e63b ef6e 053c bddc c03b 1744 e23b
00000250: ddfc ea3c 2e11 d63b a670 ca3a 4f2d 5cbb
00000260: 8174 473c f3da ec3c 7040 dd3b 9cf5 06bc
00000270: 74d7 933b 9c37 6f3c f376 a5bb 06d3 263b
00000280: 9936 54bb fa1a 05b9 ea6a 74bb 20b6 ad3c
00000290: a1d7 4d3c d090 a53b bf5e 8e39 e22f c7ba
000002a0: 5cfb 9e3c 69f7 163c cd29 2f3c d9a9 7f3b
000002b0: a53e b43b cef8 51bb 9792 45bc f0be 7a3c
000002c0: 97b0 ef3b e9a4 d43b 67e5 923c f59d 42bb
000002d0: e6b5 d9bb 96c5 abbb 25ab 93bb c013 8bbc
000002e0: b83e 5b3b df48 033c 9945 d23b 166c 073c
000002f0: f6b3 8bbb 7264 513b 0556 023c 73fa d03b
00000300: 3598 573c 1510 72bc 5dfe a7ba 118b 0abb
00000310: 53c3 a3bc dc47 243c 57bf da38 a6ba 27bc
00000320: be75 d13b 13c2 cf3b be9a 23bc 1d64 53bc
00000330: 0274 aaba 7d73 bdbc c54e 863c 2fa7 f7bb
00000340: d4f4 7fbb d74d 33bc 5927 d6bb efc9 c5bb
00000350: aa0c b43c 5d46 c0bb ceb8 80bc 9076 86bc
00000360: 45bb b43b f3a8 fbba d80a 7abb a4c4 8eba
00000370: 89d1 75bb 92e0 1e3c e42a e0ba 0aeb 013c
00000380: 478b a4bc f3b3 9d39 3b95 07bc 1527 edbb
00000390: 2640 ec3b b2e7 95bc 0f90 e6bb 609a c3bb
000003a0: 6e5e 91bb 6a03 41bc 3956 16bc b259 d63c
000003b0: eb63 b13c 3219 cdbc 3462 ce3b c7cc a5bb
000003c0: 6e39 733b aff2 c3b9 5988 f43a 4f24 903a
000003d0: 89d8 28b8 d7af d3bb 44c7 d2bb ef71 5ebc
000003e0: 476a 80bc c2af 40bb 1757 2f3b 6422 823c
000003f0: 41c3 9aba eaec 433c 6e91 ae3b 2a30 79bc
-0.0038285272 -0.0051179966 -0.0041151205 -0.014693 0.002869055 0.0046585873 0.0018839322 0.00025603347
-0.008594799 0.0037751528 -0.0052214614 -0.00010051335 0.024846029 -0.01877999 -0.0030371945 -0.016417367
7.064633e-05 0.0062362854 -0.0029872032 -0.004489235 -0.0019556915 -0.010501491 0.002243363 -0.003205621
-0.0036107223 0.014491214 -0.0060986537 0.017518388 -0.017004775 -0.014407396 0.012886848 0.002762688
-0.006585441 0.00482842 0.008810941 -0.0065076407 -0.0062200367 -0.000962071 -0.01687984 -0.0022093407
0.0009354448 -0.0097372 0.0054188496 0.004371742 0.012707406 -0.01896962 0.0025928034 0.004986057
0.0046371226 -0.0057951985 -0.0041737915 -0.005414789 -0.0030093906 0.00257499 0.012465398 -0.0034453634
0.002532279 0.0056809345 -0.0117064975 -0.0071650436 -0.018057827 0.003307588 0.010918874 0.022399072
0.0022969812 -0.006292516 -0.0008284475 -0.0028544504 0.012613569 0.010712119 0.009227182 0.010417847
0.0010540831 0.01055155 -0.0057171443 -0.0068276245 -0.0057087103 0.0077549573 -0.0026008189 -0.011263275
-0.0039806166 0.017822703 0.015052171 -0.0011100773 0.0039992393 -0.0025849037 0.0031582152 -0.010949757
0.008836258 -0.00757846 0.010089748 -0.019257884 -0.0071888217 -0.034986198 -0.010766817 0.0028830552
0.0038662446 -0.0025909175 0.010496509 0.013527693 -0.017218634 -0.00032183717 -0.005790249 0.010736599
-0.026223645 -0.010226541 -0.01393117 0.009807433 -0.0042332048 0.014791278 0.0036208653 0.002214007
0.02008403 -0.0015173302 0.0020137657 0.008083698 0.0043467325 -0.00453761 0.0075783473 0.012360433
-0.0045369873 0.008460989 -0.015475341 -0.012590204 6.8661626e-05 -0.020146387 -0.0048877597 0.0026767757
-0.012029309 0.0012978592 -0.012265377 0.00019756096 0.008534661 -0.006621531 -0.0067628436 -0.011835252
-0.0066661113 0.0045681526 0.0069055688 0.01103997 0.00859953 0.0100990515 0.01563577 0.002423399
0.0070489687 0.008144124 0.005885689 0.0069050896 0.028685028 0.0065328097 0.0015444949 -0.0033596342
0.012173773 0.028912997 0.0067520663 -0.008237269 0.004511768 0.014600661 -0.0050495802 0.002545537
-0.0032381176 -0.00012693918 -0.003729517 0.021205008 0.012563617 0.0050526634 0.00027154942 -0.0015196765
0.019406967 0.009214261 0.010691118 0.003901115 0.005500632 -0.0032039168 -0.0120588755 0.015304312
0.0073147523 0.0064893854 0.017931653 -0.00296962 -0.0066439984 -0.00524206 -0.004506486 -0.016977191
0.0033454131 0.008012979 0.006416988 0.008265516 -0.0042633964 0.003195074 0.007955079 0.006377512
0.013158848 -0.014774342 -0.0012816895 -0.002114002 -0.019990599 0.010026898 0.0001043069 -0.010237372
0.00639221 0.006340274 -0.009985624 -0.012902287 -0.0013004544 -0.023126358 0.016394982 -0.0075577716
-0.003905584 -0.010943851 -0.0065354523 -0.0060360353 0.021978695 -0.005867763 -0.015713122 -0.016413957
0.0055154883 -0.0019200131 -0.0038153436 -0.0010892344 -0.0037508926 0.009697096 -0.0017102626 0.007929573
-0.020085944 0.00030079446 -0.008275325 -0.007237325 0.0072097955 -0.018298957 -0.007036216 -0.0059693307
-0.0044363057 -0.011780599 -0.0091758305 0.026165817 0.02165409 -0.025036428 0.006298328 -0.0050598118
0.0037113088 -0.00037374112 0.0018656357 0.0010997149 -4.0255985e-05 -0.0064601707 -0.0064324457 -0.013576969
-0.015675677 -0.0029401635 0.002675479 0.01588554 -0.0011807458 0.01195834 0.005327395 -0.015209237

gating.rnn.bias_ih_l0_reverse f4 [30]
00000000: 2b68 123d def8 cabc bb45 6d3c 963b 28bd
00000010: 1b78 9e3c 18fa 2a3b a2f3 1b3d 06c6 58bc
00000020: 00b0 e7b9 48ad 603c 92b2 33bd e6f4 6b3d
00000030: 8e41 013c 1de2 873d 840f f8bc 09f9 193d
00000040: 9294 4bbd e29c be3c 21a2 903d 04a6 6fbc
00000050: 1122 093e 4cf0 eb3c 948c 663d 0c3e 263c
00000060: a039 f3bd fc35 80bd 9ec5 0bbe 4efb 583d
00000070: ea04 173d e437 c93d
0.035743874 -0.024776872 0.014481957 -0.04107245 0.01934438 0.002608901 0.038074143 -0.013230806
-0.00044190884 0.0137131885 -0.04387147 0.0576066 0.007889165 0.066349246 -0.030280836 0.037591014
-0.049702235 0.023268167 0.07062174 -0.014626984 0.13391902 0.028801106 0.05628641 0.010146629
-0.118762255 -0.06260297 -0.13649604 0.052974038 0.03686992 0.098251134

gating.rnn.bias_hh_l0_reverse f4 [30]
00000000: 2b68 123d def8 cabc bb45 6d3c 963b 28bd
00000010: 1b78 9e3c 18fa 2a3b a2f3 1b3d 06c6 58bc
00000020: 00b0 e7b9 48ad 603c 92b2 33bd e6f4 6b3d
00000030: 8e41 013c 1de2 873d 840f f8bc 09f9 193d
00000040: 9294 4bbd e29c be3c 21a2 903d 04a6 6fbc
00000050: f0f9 063e 700e 013d fe52 803d 18b3 0fbb
00000060: d02a f2bd 8b36 92bd 6e62 09be 21f1 5d3d
00000070: e5c2 363d 4293 d23d
0.035743874 -0.024776872 0.014481957 -0.04107245 0.01934438 0.002608901 0.038074143 -0.013230806
-0.00044190884 0.0137131885 -0.04387147 0.0576066 0.007889165 0.066349246 -0.030280836 0.037591014
-0.049702235 0.023268167 0.07062174 -0.014626984 0.13181281 0.03150791 0.062658295 -0.0021926817
-0.11824572 -0.071393095 -0.13416454 0.054185037 0.04461946 0.102819934

gating.fc_out.weight f4 [3, 20]
00000000: 18e1 763b b672 cf3c 8187 66bc c0df 35bb
00000010: a84e a73c 9cc5 f7bc a665 333c d026 8cba
00000020: c106 953c dc44 c2bb 4835 a6bc 5e79 8abc
00000030: cf06 edbc 0dcf 973c e8eb 5b3b baa5 a23c
00000040: 2e45 aa3c 1c22 38bc 7cc3 0cbc f824 573b
00000050: ee27 1cbe a84a 233e 9ee7 bcbd a2c1 083c
00000060: 0ade 35bc 8231 203e 97b7 26bd 659b f9bd
00000070: 1aa8 8ebd 88b0 023d 9515 1cbe d13e f8bd
00000080: 7734 cebd 931c 1dbd 3da9 253e 265c 523d
00000090: 6f7c 1e3e e656 09be 8e23 1bbc fd28 18be
000000a0: 9be7 7eba 537d b33a 294c 0b3b 40aa 4c39
000000b0: 21f8 273b c2d5 a0bc 1b52 fbbb b3f2 8b3c
000000c0: 2f07 f53b e984 17bc d7ad 1b3c 74e3 91bc
000000d0: 0665 453c 1415 bdba 8b02 913b 2f1c 09bc
000000e0: 981a f2bb 7489 96bc de6b 1cbb 1274 09bc
0.0037670787 0.025323253 -0.014070393 -0.0027751774 0.020423248 -0.030245595 0.010949528 -0.0010692719
0.018191697 -0.005928619 -0.020289078 -0.016903576 -0.02893391 0.018531347 0.003355736 0.019854415
0.02078494 -0.011238601 -0.008591529 0.0032828432 -0.15249607 0.15946448 -0.09223865 0.008346947
-0.0111003015 0.15643886 -0.04070243 -0.12187842 -0.069656566 0.031906635 -0.15242608 -0.12121356
-0.100686006 -0.03835733 0.1617784 0.05135741 0.15477155 -0.13412055 -0.009468926 -0.14859386
-0.0009723843 0.0013693966 0.0021255112 0.00019518379 0.0025630074 -0.019633178 -0.0076697 0.017083501
0.007477663 -0.009247997 0.009501896 -0.017808653 0.012048012 -0.0014425837 0.004425352 -0.008368536
-0.007388424 -0.01837609 -0.0023868005 -0.00838949

gating.fc_out.bias f4 [3]
00000000: c86c 2ebd d7df 14be 0000 0000
-0.04258421 -0.14538513 0.0

experts.0.encoder.embedding.weight f4 [8, 30]
00000000: 3953 223c 06fa 0c3c 30d8 abba 42c1 213b
00000010: f0d1 003c 3b57 cabb eecf 9bbb 4e20 f5bb
00000020: 5712 523a f8f3 083c 50ff 54bc bcb4 d83c
00000030: 8c5c 703b a77a 193b 5efb 8ebb 3b4d 16ba
00000040: 4273 20bb ce87 40bb 34a3 6cba 5790 6d3c
00000050: 10e8 b33b 6597 e13a 4a17 da3b 2404 0fbc
00000060: 057e bbbb f262 fc3b a7cd 1cbc cdc4 8dbb
00000070: c489 e33b 68d1 203c 2e02 6c3e b032 19bf
00000080: ccff 973e 6938 81bd 03ad 11bf 3f1f 73be
00000090: 07be 5f3e a19f 9d3e a40a c3be 6a55 bbbe
000000a0: 2086 703e 845d 203e a202 0bbe d6dd 05bf
000000b0: 220d e03e 4208 0f3f a73b 09be d401 ecbd
000000c0: a3d4 6d3e 6024 76be b539 38bf d89b e5be
000000d0: f8c2 943d 4383 df3e f3c7 c1be e31d 433e
000000e0: 7fd7 9c3e 91fc 1b3f ad80 313f e5ee 4c3f
000000f0: 6550 a03d 80f8 cbbc 8181 083f f36d 40bb
00000100: 8a6b 31bf 0ca4 f0bc 0df1 8c3e 9be5 b13e
00000110: 4054 4bbe 8182 22bf ce66 9bbe 04da 603e
00000120: 6d26 cfbe 8102 02bf dffd 053f ed0d f73e
00000130: eb43 3e3f 79b4 8a3e ffdc c1bd 73cb 8dbd
00000140: 1a65 c1bd 9eb8 e23d d4c7 0cbe b883 81bd
00000150: d893 dcbe e862 0abd 8d9d b03e 1fc0 fd3e
00000160: 63a4 053f cf0b e5bc 968a 273f b2da 16bf
00000170: 9879 1e3e 3db6 f63d 0127 dabe a5d8 333e
00000180: 261e 12bc 39b9 30be 9bd4 313d 50d5 03bf
00000190: 19a0 3ebe bbd7 493e 45e4 43be feea acbe
000001a0: 870f c83e 5dd6 8a3f 3701 8f3e ae36 85bc
000001b0: fe6f 39be 72a0 2cbe d878 e2be c74f 0fbd
000001c0: 3bff 57bd e2d4 233f 4647 05bf a130 993e
000001d0: ca66 20be 7c55 743e bb96 453f 60b2 bd3e
000001e0: 5e29 fd3e 10d1 783e a691 2a3e 75d4 22bf
000001f0: 4849 44bd ded8 ecbe aad3 063f db55 913c
00000200: 8788 963e 14ba b3bd eb3b 29bf 9d4e ea3e
00000210: b989 c73d df94 08bf 4049 07be 92d6 b73c
00000220: 0bc0 09bf 4488 8abe d45d ce3e 9ead 053f
00000230: 23bb 55be 499d 8f3e 34bd 1ebf 3263 133f
00000240: 3ede a7be 0d50 45bf 47b2 4cbe 8195 363e
00000250: 168e ecbd 903f ff3e 0870 c7bd b540 753d
00000260: fa97 e5bc 36a5 b3be b87d 043f ec5f 083f
00000270: dbf9 c63e 3173 0c3f ef49 e43e 023b 0f3f
00000280: 0993 133f b733 5ebe b6ff 6dbe 8f2a 503f
00000290: 064e c2be 441a 9a3d 2735 81be d862 0cbf
000002a0: ad72 c33e 2323 573c 99b5 a83d 11e9 d5bc
000002b0: 49ac 2f3d c8c7 6cbe ea61 21be 311e b03e
000002c0: 1868 133e 40dc 453d 07e2 b8bc 074a 0f3e
000002d0: a473 9fbf a180 433f aa17 213f 60a6 a93e
000002e0: c8ce 2d3f 0835 fd3e 3403 efbe 9fff b6bf
000002f0: e8db 06bf 5247 b33d 6c67 083e 7860 ad3e
00000300: 849a 603f 5696 4b3e 966d 8ebf 8e63 46bf
00000310: 8a3c 383e fb29 7b3f cd04 ecbe 9bbd 62bf
00000320: 4a68 ae3e f93e 9b3f d336 57be 1b31 66be
00000330: 9306 7d3f befe 4c3e 0810 99be 1ba7 30bf
00000340: 52f2 24be 0e0b 50bf ba53 b5be 014a d63e
00000350: 8d3c 603e e1e3 a73f 029a cebe d857 23bf
00000360: 3da0 8fbf 1b6c c7be 01a5 72be 34bb 93bf
00000370: e8b4 28bf 3999 83bf e324 a83f fdd6 42bf
00000380: 78ef b5be 884c 26bf 385b 01bf c4be 0c3f
00000390: 2c2b 00bf 06e8 773f f4f7 ce3e 71bc c1be
000003a0: 0a72 643f 76e7 47bf 54fd 0b3f 5fb3 9e3f
000003b0: b576 80bf 0368 cabf 40ae 80bf 87d9 cfbe
0.009907537 0.008604532 -0.0013110694 0.002468184 0.007862553 -0.0061749495 -0.0047550118 -0.0074806577
0.0008013597 0.008358948 -0.013000324 0.026453368 0.0036676256 0.0023419054 -0.0043634614 -0.0005733554
-0.0024482762 -0.002937782 -0.00090270047 0.014499745 0.0054903105 0.0017211257 0.0066556083 -0.008729015
-0.00572181 0.007702225 -0.009570516 -0.004326439 0.006943913 0.009815551 0.23047706 -0.5984297
0.29687345 -0.063095875 -0.5690462 -0.23742388 0.21849833 0.3078585 -0.38094056 -0.36588603
0.23488665 0.15660673 -0.13575223 -0.5229162 0.4376002 0.55871975 -0.13401662 -0.11523786
0.23225646 -0.24037313 -0.71963054 -0.44845462 0.0726375 0.43654832 -0.37847862 0.1905437
0.3063316 0.6093226 0.6933697 0.80052024 0.07827834 -0.024898767 0.5332261 -0.002936241
-0.69304717 -0.029375099 0.27527657 0.34745488 -0.19856358 -0.63480383 -0.3035187 0.21958166
-0.40459004 -0.5078507 0.523405 0.48252812 0.74322385 0.27090815 -0.0946598 -0.069235705
-0.09443112 0.11070369 -0.13748103 -0.063239515 -0.43081546 -0.03378573 0.34495202 0.4956064
0.5220396 -0.027959732 0.6544584 -0.5892745 0.15476072 0.12046478 -0.42607883 0.17563112
-0.008918321 -0.17258157 0.043415647 -0.51497364 -0.1861576 0.19711201 -0.19130047 -0.33773035
0.39074346 1.0846668 0.27930614 -0.016261425 -0.18109128 -0.1685808 -0.4423282 -0.03498819
-0.05273364 0.6399671 -0.5206188 0.29919913 -0.15664211 0.23860735 0.7718312 0.37050152
0.49445623 0.24298501 0.16657123 -0.63605434 -0.04792145 -0.46259207 0.52666724 0.017741134
0.29401037 -0.08775726 -0.6610705 0.45763102 0.097430654 -0.5335216 -0.13211536 0.022441182
-0.5380866 -0.27057087 0.4030596 0.52218044 -0.20872168 0.28049687 -0.6200745 0.57573235
-0.32786745 -0.7707527 -0.19989882 0.17830469 -0.11550538 0.49853182 -0.09738165 0.059876163
-0.02802657 -0.35086983 0.5175433 0.53271365 0.388625 0.5486327 0.44587657 0.55949414
0.5764623 -0.21699415 -0.23242077 0.8131494 -0.37950152 0.07524541 -0.25235865 -0.54838324
0.38173428 0.013130936 0.08237762 -0.026112111 0.042888913 -0.23123085 -0.15760008 0.34398034
0.14395177 0.04830575 -0.022568716 0.13993083 -1.2457166 0.7636815 0.62926733 0.33134747
0.6789365 0.49454522 -0.4668213 -1.4296759 -0.526793 0.08753838 0.13320702 0.33862662
0.8773577 0.19881567 -1.1127193 -0.7749566 0.17991844 0.9811093 -0.46097413 -0.88570565
0.3406394 1.2128593 -0.21017008 -0.2247967 0.98838156 0.20019051 -0.29895043 -0.6900498
-0.16108063 -0.8126687 -0.3541544 0.41853335 0.21898098 1.3116418 -0.40351874 -0.63805914
-1.1220776 -0.38949665 -0.23695756 -1.1541505 -0.6590104 -1.0281135 1.3136257 -0.76109296
-0.35534263 -0.6496053 -0.50529814 0.54978585 -0.50065875 0.96838415 0.40423548 -0.37839082
0.8923651 -0.78087556 0.54683423 1.239849 -1.0036227 -1.5812992 -1.0053177 -0.40595648

experts.0.encoder.rnn.weight_ih_l0 f4 [30, 30]
00000000: 41bc ca3e f253 3bbf 20d6 75bf f883 3dbf
00000010: 92cf 02bf 28d0 583f 4528 c23f e8d4 11bf
00000020: e001 493e 1e4d 9d3e ba2b 58bf ea73 12bf
00000030: 2018 3f3c 3a1f 8abf e698 b93e 2375 3f3e
00000040: e3ab 863f cf4d 1abe 2f33 6e3f a51b e53e
00000050: faf6 88bf 7c60 16bf ce72 16bf 08a2 a73f
00000060: 8fad d1be 525b e1bd e747 413f 5f05 f33e
00000070: 0537 363f 1a62 523f 18ac 06bd 22c7 603f
00000080: 26b8 df3e 7d97 49be 21bb d1be a1fc 81bd
00000090: 2f8b 813e e808 d53e 86ee 01bf 0469 5c3d
000000a0: 8a51 b8be 5a03 893e bbe2 af3d af50 f1be
000000b0: bcde 163f 1d91 233d cb94 8ebf 2f3b 43bc
000000c0: 1c64 403f 29cd f63e 6e39 113f 02d0 23bd
000000d0: e123 b1bc 72ec f8be 8fef d73d d6ee 31be
000000e0: 2c71 89bd 3c65 2ebf 1b3b cfbe d199 693f
000000f0: d761 093f f51b bebf 2ba5 09c0 427a 1dbf
00000100: 1a7f 66bf 983d 1abf 4f6a bb3f f88a 033f
00000110: 3366 863e 789c 203f 0bf2 e03d 0240 ed3e
00000120: b046 48bf 1a97 643e caa8 2e3f 6dba 763e
00000130: 332e c8be 68da efbf d446 be3f f0f3 023f
00000140: 6f9f 40bf 6a42 40bd d583 88bd afaa bf3f
00000150: 572a 4abf c1ad 4dbf 6819 a93e d938 d13f
00000160: 4325 7b3e 4d97 093f a02d 843d 1ecd 563f
00000170: 4242 c93e c1e0 993f af0b 4ebf f846 88bc
00000180: 7c06 1dbf e5b7 b0be 55d3 10bf a709 eabc
00000190: 280e 0abf 9149 d43d 471b 603f d7e3 29bf
000001a0: ee0e c3bd 9612 8cbf 5911 43be b20c 483f
000001b0: a32d a6be 2096 933e 5f23 853f b39b efbe
000001c0: 3e70 363f 6adc c0be 0369 56bf 61d3 52be
000001d0: 7066 59bf a3bb 0bbf 7365 0ebf 24cf f6bd
000001e0: 37cc 1d3e a795 7f3e c7e6 c73e 9d1d 873f
000001f0: d48e 8e3e d75f 92bf faab 82bf e6d4 853e
00000200: bc99 1cbf 57a8 b8bf 8525 97bf edf8 22bc
00000210: 12cd 7f3f f62c afbf 1ffd 04bf ea32 01bf
00000220: 20a4 77be a64e a23f d65e 43bf 5e18 d53e
00000230: 8e81 fb3d 7f6c edbe 8ad2 4c3f b4fb c1be
00000240: e2b3 b2be cc6b 213f 7dd0 04bf 09ef 82bf
00000250: d6aa 08be 8b5c 00bf 638f 763f 6d75 85bf
00000260: 6004 073f 7ce8 ccbe 1b22 10bf 83bd a73e
00000270: e354 723d 933f 92be dd99 f13e 9804 d0bd
00000280: 9b63 b2bd 578e 513e f813 db3d 41cb 77bd
00000290: b942 c33f cf76 463e a213 4d3f fdf9 e53e
000002a0: a6bd 8d3d ae83 75be 1057 3ebf 29a8 043e
000002b0: 8024 853e dee6 233f 974b 34bf b287 2f3f
000002c0: 0b3c c6be b4c9 003f 9c82 893f 2236 c33e
000002d0: 7715 f63d bac2 bfbe 7744 1abf 6be7 80be
000002e0: 38e5 3cbf e7ce 363f 0f5f 4abe 627e 88bf
000002f0: dafe c63e 1663 303f 01a6 9e3e 444d e8be
00000300: 3985 27bf 2d64 39bf d904 833f 5c1a 91bd
00000310: c521 8ebd 437a 183f 872f c43e b792 2cbf
00000320: 14f1 c5be 468e febc 7357 c6be d462 873f
00000330: c309 32bf 1f0a 85be a82f 37bf 725c 17bc
00000340: fff6 c83e ebe3 063f 4179 6b3d 9792 303f
00000350: 7480 2abd 9f9e 6e3e d6d2 1dbf 228b 1abf
00000360: b9b4 9abf ec18 06be 034f 12bf cf04 d5bf
00000370: d149 dabf e6dd d63e 0481 a13f 3c86 46bf
00000380: 393d cdbe e1a0 16bf 978f a33e 550e 463f
00000390: e0fb 983d 8475 543f 0a70 f23e ce4e 92be
000003a0: c615 3f3f 7d9c e3be be50 10be 7570 303f
000003b0: 0a86 7fbe ecae 89bf 25c4 a5bd b1b3 3e3d
000003c0: aa56 44bd f06c 723f c9c4 163e 16b3 27bf
000003d0: ebd3 88bf c03d acbc d5c7 67bd ed1e 0bbf
000003e0: 092a ebbe b3a2 71bf bbc1 8cbf 9eed 1c3f
000003f0: fff3 61bd e851 40be 1004 823f 6a42 713e
0.3959675 -0.73174965 -0.96029854 -0.74029493 -0.5109798 0.8469262 1.5168539 -0.56965494
0.19629622 0.30722898 -0.8444172 -0.5720812 0.011663467 -1.079078 0.36249465 0.18697028
1.0521206 -0.15068744 0.9304685 0.44747654 -1.0700371 -0.58740973 -0.5876893 1.3096323
-0.40952727 -0.11003746 0.7550034 0.47465035 0.71177703 0.8218094 -0.032878965 0.8780385
0.43695182 -0.19686694 -0.4096308 -0.06347013 0.253015 0.41608357 -0.5075458 0.05381109
-0.3599971 0.2676037 0.08588167 -0.4713187 0.58933616 0.039933313 -1.1139158 -0.011915966
0.75152755 0.482034 0.56728256 -0.039993294 -0.021623554 -0.48617893 0.10543739 -0.17376265
-0.06711039 -0.6812322 -0.4047478 0.9125033 0.53664917 -1.4852282 -2.150706 -0.61514676
-0.9003769 -0.60250235 1.4641818 0.51383924 0.26249847 0.6273875 0.10983666 0.46337897
-0.7823286 0.22323266 0.682263 0.24094553 -0.39097747 -1.8738527 1.4865365 0.5115347
-0.75243276 -0.046938337 -0.0666577 1.4973963 -0.78970855 -0.8034325 0.33027196 1.6345474
0.24525933 0.5374649 0.06454015 0.83906734 0.39308363 1.2021714 -0.8048658 -0.016635403
-0.6133802 -0.345153 -0.5657247 -0.028569056 -0.5392785 0.10365594 0.8754162 -0.6636328
-0.09524332 -1.0943172 -0.19049586 0.7814437 -0.32456693 0.28825474 1.0401419 -0.46798477
0.7126502 -0.37668163 -0.83753985 -0.20588447 -0.8492193 -0.54583186 -0.5562355 -0.12051228
0.15409933 0.24959432 0.39043257 1.0555912 0.27843344 -1.1435498 -1.0208733 0.2613899
-0.6117208 -1.4426373 -1.1808325 -0.009947044 0.9992229 -1.3685596 -0.5194873 -0.50468314
-0.24183702 1.2680252 -0.76316583 0.41620153 0.1228057 -0.46371838 0.8000876 -0.37887347
-0.34902865 0.6305511 -0.5188063 -1.0229198 -0.13346419 -0.5014121 0.9631254 -1.042646
0.5274105 -0.40021122 -0.5630204 0.32761773 0.059162986 -0.28564128 0.471877 -0.10157126
-0.087104045 0.20464455 0.10697168 -0.060496572 1.5254737 0.1938126 0.8010808 0.44917288
0.06920938 -0.23976013 -0.74351597 0.12954773 0.2600441 0.6402415 -0.7042784 0.6856643
-0.38717684 0.50307775 1.0742984 0.38127238 0.12015813 -0.37453252 -0.6026072 -0.25176558
-0.7378726 0.7140946 -0.19762824 -1.0663569 0.3886631 0.68901193 0.30986026 -0.4537145
-0.65437657 -0.7241848 1.0235854 -0.07085106 -0.06940035 0.59561557 0.3831751 -0.6741137
-0.3866049 -0.0310737 -0.38738593 1.0577035 -0.69546145 -0.25984284 -0.7155709 -0.009238349
0.39250943 0.52691525 0.057488684 0.6897368 -0.04162641 0.23302697 -0.61649835 -0.6036855
-1.2086402 -0.13095444 -0.5715181 -1.6642092 -1.7053777 0.4196617 1.2617497 -0.77548575
-0.40085772 -0.5883923 0.31945488 0.7736562 0.07469916 0.82991815 0.47351104 -0.28575748
0.746426 -0.4445533 -0.140933 0.68921596 -0.24953476 -1.0756507 -0.08094052 0.046558086
-0.04793421 0.94697475 0.14723505 -0.6550764 -1.0689672 -0.021025538 -0.05658706 -0.54344064
-0.45930508 -0.94388884 -1.0996622 0.61300075 -0.055164333 -0.18781245 1.015749 0.23560491
