agl/models/autosave/tr-AE-100-16-0.001-A0.pt (torch, 97772 bytes, 21 tensors)

encoder.embedding.weight f4 [8, 100]
0	0x3a99d650	0.0011736844
1	0x3b86623f	0.0041010673
2	0x3c542009	0.012947091
3	0xbb67104a	-0.0035257512
4	0x3b8efa7f	0.0043633576
5	0xbba83fbd	-0.0051345513
6	0xbb874e6e	-0.0041292226
7	0xbc6fbaa2	-0.014631899
8	0xba8380b1	-0.001003286
9	0x3c805dd7	0.015669746
10	0x3c31dbc7	0.010855622
11	0xbb990498	-0.004669737
12	0x3b27715d	0.0025549748
13	0xbc370da1	-0.011172683
14	0xbbfcf539	-0.0077196625
15	0x3c7b839b	0.015351201
16	0xbc0dcfb7	-0.00865548
17	0xbb6eef8e	-0.0036458704
18	0xbaeb00f7	-0.0017929365
19	0x3c77cfbb	0.01512521
20	0xbbbd6a7b	-0.0057805157
21	0xbb111d3b	-0.0022142667
22	0x3c295e0f	0.010337367
23	0xbc442ef9	-0.01197409
24	0xbc3c2229	-0.011482754
25	0x3c7177be	0.014738021
26	0x3c85b720	0.016322672
27	0xbb5c02e4	-0.003357106
28	0xb98d7bf5	-0.0002698597
29	0x3bfc0a05	0.007691624
30	0x3bb9c96a	0.0056697624
31	0x3cc0ef93	0.023551738
32	0x3b2dfd70	0.0026548766
33	0x3c34b030	0.0110283345
34	0xbbc26df5	-0.005933518
35	0xbc40b1b8	-0.011761121
36	0xbbb37cf5	-0.0054775425
37	0xbb344a17	-0.0027509981
38	0xbb019896	-0.0019774786
39	0xbce626ab	-0.02809461
40	0xbad2e5a2	-0.0016090164
41	0x3c3d9eb4	0.011573482
42	0x3c6518e7	0.013982988
43	0xbae061c7	-0.0017118984
44	0xbcde8f93	-0.02716807
45	0x3c1dac49	0.0096235955
46	0xba3ab205	-0.0007121864
47	0x3bdfe6de	0.0068329414
48	0xbc74efae	-0.014949722
49	0x3c025aa1	0.007956178
50	0x3a996ffd	0.0011706349
51	0x3b81466f	0.003945164
52	0xbc85d41f	-0.016336499
53	0xba3c5b72	-0.0007185257
54	0x3beadf25	0.007167714
55	0x3be746db	0.007058007
56	0x3bcacec9	0.0061892015
57	0x3ac100c9	0.0014724965
58	0x3ba0e91a	0.0049106004
59	0xbb866791	-0.0041017015
60	0x3c71b5f5	0.014752855
61	0xbc5d329b	-0.013500835
62	0xbb6c39af	-0.0036045124
63	0x3b0d8505	0.0021594178
64	0xbcc8ca73	-0.024510598
65	0xbc2357fe	-0.009969709
66	0xbc023397	-0.00794687
67	0x3baaaaaf	0.0052083354
68	0x3c54b579	0.01298272
69	0x3c8c2c07	0.017110838
70	0xbb988ea3	-0.0046556755
71	0x3b3d494b	0.0028882797
72	0xbc2a7fb8	-0.010406427
73	0xbc58a1aa	-0.0132221375
74	0x3b53aa0a	0.0032297396
75	0xb9e936c5	-0.0004448203
76	0xbb738db9	-0.003716333
77	0xbbca93f3	-0.0061821877
78	0x3c0a36dd	0.008435932
79	0xbb1701b2	-0.0023041782
80	0xbc6ef33b	-0.014584358
81	0xbbc2a237	-0.0059397477
82	0xbb355f32	-0.002767515
83	0xbaef7320	-0.0018268563
84	0x3cce9bdc	0.025220804
85	0x3a4dd5e4	0.00078520016
86	0x3cc31262	0.023812477
87	0x3ca74ee0	0.020423353
88	0x3c0e6082	0.008690001
89	0xbbdef499	-0.0068040607
90	0xbbd06174	-0.0063592736
91	0xbcb4a94a	-0.02205338
92	0xbb4f7382	-0.0031654541
93	0x3b110ea7	0.0022133978
94	0x3a856f79	0.0010180316
95	0xb9161c40	-0.00014315639
96	0xbb5edb9d	-0.0034005411
97	0xbc7a4c47	-0.015276975
98	0x3b50d7e2	0.0031866957
99	0x3bdcfc44	0.0067439396
100	0x3d44da72	0.04805989
101	0xbdb7ebcc	-0.089805216
102	0x3d83c6ae	0.064343795
103	0x3dbf0b94	0.0932838
104	0x3ca655bb	0.020304551
105	0xbe1af32f	-0.1513183
106	0x3db9abd8	0.0906598
107	0x3e101328	0.14069808
108	0xbd9ff44e	-0.07810269
109	0xbdab7ce6	-0.08373432
110	0x3e12838e	0.14307997
111	0xbe2ba3e5	-0.1676174
112	0xbe403c23	-0.1877294
113	0xbd5f8a54	-0.05457528
114	0xbe4596a8	-0.19295752
115	0xbc53050c	-0.012879621
116	0xbdcd5a95	-0.10027043
117	0x3d396bda	0.04526887
118	0x3d0b72b7	0.034044947
119	0xbda261fc	-0.07928845
120	0xbd826384	-0.06366637
121	0x3d8a4984	0.06752303
122	0xbd440f14	-0.047865942
123	0x3d8f9bfb	0.07012173
124	0x3e55477a	0.20828047
125	0xbd115389	-0.035480056
126	0xbd38dc4f	-0.045131978
127	0xbe6646cf	-0.22487949
128	0x3cf7e161	0.030258836
129	0xbe56a18f	-0.20960067
130	0x3d0194e6	0.03163614
131	0x3d7c9ac3	0.06167103
132	0xbc9cfab9	-0.019162523
133	0xbd818157	-0.06323498
134	0xbd9877e2	-0.07444741
135	0x3cc25705	0.023723135
136	0x3df5d29a	0.1200306
137	0x3e5a58c8	0.2132293
138	0x3e45bc58	0.19310129
139	0x3b6bdf81	0.0035991373
140	0x3d4653d4	0.04841979
141	0xbd4a2292	-0.049349375
142	0x3e439858	0.19101083
143	0x3d031b49	0.032008443
144	0xbd2c8105	-0.04211523
145	0x3ddcddca	0.107844904
146	0xbb1e8a46	-0.0024191304
147	0xbe3fe210	-0.1873858
148	0x3ce88d1a	0.028387595
149	0x3e07a635	0.13246997
150	0xbd92a266	-0.07159881
151	0xbc28821d	-0.010284928
152	0x3e45c9cd	0.19315262
153	0xbda0d99e	-0.07854007
154	0x3e0985b1	0.13429905
155	0x3aa98fc8	0.0012936527
156	0xbe2c5f12	-0.16833141
157	0xbdae40f8	-0.085084856
158	0x3c06450e	0.008195175
159	0x3d62de68	0.055387884
160	0x3db45f75	0.088072695
161	0xbd83a100	-0.06427193
162	0x3e009ff2	0.12561014
163	0xbdac439c	-0.08411333
164	0x3d9efbad	0.07762847
165	0x3d9ffcff	0.07811927
166	0x3c49f585	0.012326603
167	0x3dc8360b	0.09775933
168	0x3db20c7f	0.0869379
169	0xbe0d133e	-0.13776872
170	0x3bacb892	0.005271026
171	0xbdb10b2e	-0.086447105
172	0x3e4f9723	0.20272498
173	0xbd9f3c73	-0.07775202
174	0x3a9fdb63	0.001219612
175	0xbe73d525	-0.23811777
176	0x3e0544a6	0.13014469
177	0xbe3dbdd6	-0.18529448
178	0xbe36f089	-0.17865194
179	0xbe0fd1b9	-0.14044847
180	0x3cee7a22	0.029110972
181	0x3c7855e4	0.015157197
182	0x3d8235a3	0.06357887
183	0x3e051cf7	0.1299933
184	0xbd77d4a6	-0.06050553
185	0xbe266383	-0.16248898
186	0xbdab2aae	-0.0835775
187	0xbd3e6ad7	-0.04648861
188	0xbc8a6bd8	-0.016897127
189	0xbdd638bc	-0.1046004
190	0xbd8d37d1	-0.06895412
191	0x3c308d1e	0.010775832
192	0xbe02849f	-0.12745903
193	0xbe67ebf5	-0.22648604
194	0xbd28a0bc	-0.041168913
195	0xbdf2ff9b	-0.11865159
196	0xbda6abfb	-0.081382714
197	0x3e005507	0.12532435
198	0x3e2d6259	0.16932048
199	0xbdb5e486	-0.08881478
200	0x3b8e5b3c	0.004344372
201	0xbda96147	-0.08270507
202	0x3e1fb12d	0.15594931
203	0x3e684b21	0.2268491
204	0x3e396c1f	0.18107651
205	0xbdddc779	-0.10829062
206	0x3e0b3762	0.13595346
207	0x3e8914a8	0.26773572
208	0xbe2ad2b1	-0.16681935
209	0xbe31d8f0	-0.17367911
210	0x3e0868c4	0.13321215
211	0xbe5c2329	-0.21497788
212	0xbe3f2535	-0.18666537
213	0xbe992877	-0.29913685
214	0xbdbeeee0	-0.093229055
215	0xbc4fd9be	-0.012686191
216	0xbe9160e5	-0.28394237
217	0xbd3165f0	-0.043310106
218	0x3dbfc0d1	0.09362949
219	0xbccb47bb	-0.024814477
220	0xbdeb9ff6	-0.115051195
221	0x3e1adee4	0.15124089
222	0xbe935a3e	-0.28779787
223	0x3d6e6061	0.058197383
224	0x3e1b2b5c	0.15153259
225	0xbd7e7af3	-0.062128972
226	0xbcd11821	-0.0255242
227	0xbd9db647	-0.07700782
228	0x3e371ce1	0.1788211
229	0xbe5cfa5a	-0.21579877
230	0xbc400ba5	-0.011721526
231	0x3e368849	0.17825426
232	0xbd01e69a	-0.03171406
233	0xbdb8724b	-0.09006175
234	0xbc82bc39	-0.015958892
235	0xbdb6ed59	-0.08931989
236	0x3dde8a32	0.108662024
237	0x3e2a3aa4	0.16623932
238	0x3df6bcc9	0.12047727
239	0xbde4cc26	-0.11171751
240	0x3d9f4e92	0.07778658
241	0xbe9636af	-0.29338595
242	0x3e1193e8	0.14216578
243	0x3e8563f0	0.2605281
244	0xbd60e249	-0.054903302
245	0x3e97e2ff	0.29665372
246	0x3e93cf20	0.2886896
247	0xbe02566f	-0.12728284
248	0xbc9e301b	-0.019310048
249	0x3e7652d3	0.24055032
250	0xbda53f6c	-0.080687374
251	0x3e588f2f	0.2114837
252	0x3e5fe7e6	0.21865806
253	0xbdd27c90	-0.10277665
254	0x3e8a6d3f	0.27036473
255	0xbda27612	-0.079326764

encoder.rnn.weight_ih_l0 f4 [48, 100]
0	0xbe10c92e	-0.14139244
1	0x3e14f005	0.14544685
2	0xbcb5e377	-0.02220319
3	0x3d7cd23e	0.06172394
4	0x3dde107d	0.10842989
5	0x3d79c11d	0.060975183
6	0xbc4760e7	-0.012169099
7	0x3d90e525	0.07074956
8	0x3dee8890	0.11647141
9	0x3cbde77d	0.023181671
10	0xbd85dda9	-0.06536419
11	0xbd992749	-0.07478196
12	0xbc713da9	-0.014724174
13	0xbd6fcef2	-0.058546968
14	0x3dd0d494	0.10196796
15	0x3e287a55	0.16452916
16	0xbd0d5693	-0.03450639
17	0xbe1ed861	-0.1551223
18	0xbe1b5649	-0.15169634
19	0x3e2a023e	0.16602418
20	0x3d8282b0	0.06372583
21	0xbc80e3a1	-0.015733542
22	0xbdad316c	-0.08456692
23	0xbe440b4e	-0.19144937
24	0x3d49b366	0.049243353
25	0x3dd77c01	0.10521699
26	0x3dd3ac2c	0.103355736
27	0x3d5efa64	0.05443801
28	0x3e0c9c98	0.13731611
29	0x3d015d32	0.03158302
30	0xbe2f060b	-0.17092149
31	0xbc3bee0b	-0.011470328
32	0x3e21fa2e	0.15818092
33	0x3e0b888f	0.13626312
34	0x3e18e27b	0.14930145
35	0x3e1a5d94	0.1507476
36	0xbd8ea3e5	-0.06964854
37	0xbbaec476	-0.0053334786
38	0xbd9db73e	-0.07700966
39	0x3b3f780c	0.002921584
40	0xbe1442c9	-0.14478602
41	0xbcf0371e	-0.029323157
42	0x3d20c17f	0.039247032
43	0x3ce1e406	0.02757455
44	0x3e4aa612	0.19789913
45	0xbceae344	-0.028672822
46	0x3dc12063	0.094300054
47	0x3e4db03c	0.2008676
48	0x3e337538	0.17525184
49	0x3dcc2b0a	0.099691465
50	0x3dbf74a3	0.093484186
51	0x3df5ba2a	0.119983986
52	0x39d31d1c	0.00040266744
53	0x3db4336b	0.0879887
54	0x3d7f62c7	0.06235006
55	0x3dbe279e	0.092849
56	0xbdf98815	-0.12184159
57	0x3dfca3b6	0.12335913
58	0xbe0b17dc	-0.1358332
59	0x3c7fb4d3	0.015607077
60	0xbd9d3c0e	-0.0767747
61	0x3db07371	0.08615769
62	0xbb77fd84	-0.0037840316
63	0x3d335e6e	0.043791227
64	0xbe024f65	-0.12725599
65	0xbe579962	-0.21054605
66	0xbd63629d	-0.055513967
67	0xbcb43dd4	-0.022002138
68	0xbe19c107	-0.1501504
69	0x3e23c64f	0.15993617
70	0xbdfdc1e6	-0.12390499
71	0x3d4a4128	0.049378544
72	0xbdaf6926	-0.08564977
73	0x3d5214be	0.051289313
74	0x3dd9b948	0.10631043
75	0xbd1a634f	-0.037692364
76	0xbd2a1cdd	-0.041531432
77	0x3e02d38b	0.1277601
78	0x3e404d73	0.18779545
79	0x3c39b986	0.011335736
80	0x3e20db2f	0.15708612
81	0xbd5d0385	-0.053958435
82	0xbd9d78ee	-0.07689081
83	0xbe549360	-0.20759344
84	0x3e24bfeb	0.16088836
85	0x3c4c31cd	0.012463045
86	0xbe0d79ee	-0.13816044
87	0x3e40d9e0	0.18833113
88	0xbd860b86	-0.06545167
89	0x3e640898	0.22268903
90	0x3e2ffca5	0.1718622
91	0x3e012444	0.1261149
92	0xbdb080c3	-0.08618309
93	0x3c9df66f	0.019282548
94	0x3e1fe275	0.1561373
95	0xbd9b2f2a	-0.07577355
96	0x3e17973b	0.14803784
97	0xbe08e8a7	-0.1337
98	0x3bb3f91f	0.005492344
99	0x3dc368dd	0.095414855
100	0xbca593b6	-0.020212036
101	0xbdcf7389	-0.101294585
102	0x3e291167	0.16510545
103	0x3e9b9ed0	0.30394602
104	0x3eeb0863	0.45904836
105	0xbd200e27	-0.039075997
106	0x3e186291	0.1488135
107	0x3e73373d	0.2375154
108	0xbe64c76e	-0.22341701
109	0xbe3a457f	-0.18190573
110	0x3e3a9aa6	0.18223056
111	0xbe91076e	-0.2832598
112	0xbe73618d	-0.23767681
113	0xbe6433a9	-0.22285332
114	0xbe594552	-0.2121785
115	0x3d507be4	0.0508994
116	0xbea6a3c2	-0.32546812
117	0xbdb1c450	-0.08680022
118	0x3c8e4c29	0.0173703
119	0x3c0e8942	0.008699717
120	0xbe218aac	-0.15775555
121	0x3e97888e	0.2959637
122	0xbe9e1642	-0.30876356
123	0x3da26ee6	0.079313084
124	0x3e9a6f15	0.30162874
125	0xbc1f91f6	-0.00973939
126	0x3d61f220	0.05516255
127	0xbe347e44	-0.17626292
128	0x3eba9786	0.36443728
129	0xbeb098f6	-0.344917
130	0xbc6db901	-0.01450944
131	0x3ea7b941	0.32758525
132	0x3cb3cc36	0.021947961
133	0xbd5e157e	-0.054219715
134	0x3ce662b4	0.028123237
135	0x3b3c3738	0.0028719436
136	0x3e62a66e	0.221338
137	0x3e32e23e	0.17469117
138	0x3e31eed0	0.17376256
139	0xbd6dfd4a	-0.058102883
140	0x3dfe0257	0.1240279
141	0xbe90865b	-0.28227505
142	0x3e58bee2	0.21166566
143	0x3e763fc2	0.24047759
144	0x3d93c93c	0.07216117
145	0x3e9d299a	0.30695802
146	0x3eab1830	0.3341689
147	0xbe612543	-0.2198687
148	0x3e452eec	0.1925618
149	0x3ec133cc	0.3773483
150	0xbdbb62d5	-0.0914971
151	0x3e8a99aa	0.2707036
152	0x3ea62203	0.32447824
153	0xbdc98240	-0.09839296
154	0x3eba75ec	0.36418092
155	0xbc8bcf4f	-0.017066626
156	0xbeb6523b	-0.35609612
157	0xbe28ef02	-0.16497424
158	0xbdaba989	-0.08381946
159	0x3e989113	0.29798183
160	0xbd783250	-0.060594857
161	0xbe1ca007	-0.1529542
162	0x3e8b1d90	0.27170992
163	0xbe583e98	-0.21117628
164	0xbb97e851	-0.0046358486
165	0xbd4c4f2d	-0.049880195
166	0x3d9710a1	0.073762186
167	0x3e6b3e5f	0.22973011
168	0xbcacaa7a	-0.021077383
169	0xbe79966b	-0.24373786
170	0x3cfbb5ef	0.030726401
171	0xbe23af41	-0.15984823
172	0x3e09595f	0.13412999
173	0xbda7a0a6	-0.08184938
174	0xbd184d0c	-0.037182853
175	0xbeb4f2ae	-0.353414
176	0x3e91a26f	0.2844424
177	0xbe2bf722	-0.16793492
178	0xbe2ee81a	-0.17080727
179	0xbe978248	-0.29591584
180	0x3eac95e9	0.33708122
181	0x3e8842a3	0.2661334
182	0xbdc1e2fe	-0.094671234
183	0x3e193c22	0.14964345
184	0xbd2affc4	-0.041747823
185	0xbe3f43c6	-0.18678197
186	0xbeb24372	-0.34817082
187	0xbd647373	-0.055774163
188	0xbe76f8a3	-0.24118285
189	0x3dd9b8fc	0.10630986
190	0xbca21b0b	-0.019788286
191	0x3d7d4faf	0.06184357
192	0xbe8e81d3	-0.27833423
193	0xbeab7e00	-0.33494568
194	0x3c868df0	0.016425103
195	0xbea370aa	-0.31921893
196	0x3c81cfc8	0.015846148
197	0x3ea357dc	0.3190297
198	0x3e4f783e	0.20260713
199	0xbe605cf1	-0.21910454
200	0xbcfbd00d	-0.030738855
201	0xbd6d36a1	-0.057913426
202	0x3e09a8f3	0.13443355
203	0x3de61793	0.11234965
204	0x3e55582a	0.20834413
205	0xbd0e9d34	-0.03481789
206	0x3dd5836e	0.10425459
207	0x3e61a3c5	0.2203513
208	0xbca93174	-0.020653464
209	0xbdadda71	-0.0848893
210	0x3dd87a39	0.10570187
211	0xbdf2d513	-0.11857047
212	0xbe373b3f	-0.17893694
213	0xbe1accfe	-0.15117261
214	0xbdc93b04	-0.098257095
215	0x3d25950e	0.040425353
216	0xbe080d53	-0.13286333
217	0xbe1288be	-0.14309976
218	0x3cfe1b7d	0.031018967
219	0x3d8a367f	0.067486756
220	0xbce27483	-0.027643448
221	0x3dc88107	0.09790235
222	0xbe3cfbfe	-0.18455502
223	0x3cacfd72	0.021116946
224	0x3e2660f6	0.16247925
225	0xbd113e28	-0.035459667
226	0x3d802566	0.06257133
227	0xbd9e066c	-0.077160686
228	0x3e642b8f	0.22282241
229	0xbdacfba2	-0.08446433
230	0xbd9cf115	-0.0766317
231	0x3da82b43	0.082113765
232	0x3d4e681c	0.050392255
233	0xbda4adc7	-0.08040958
234	0x3d96997d	0.07353494
235	0xbc9053e9	-0.017618136
236	0x3d87776b	0.06614574
237	0x3e02dae2	0.1277881
238	0x3d70e5af	0.058812793
239	0xbd59b7fe	-0.053153984
240	0x3c8c6b52	0.017141018
241	0xbe7bf294	-0.24604255
242	0x3e27cbef	0.16386388
243	0x3e565bd2	0.20933464
244	0x3d5c994b	0.05385713
245	0x3e053436	0.13008198
246	0x3e1975c2	0.14986327
247	0xbdcf3976	-0.10118382
248	0x3d424ce6	0.047436617
249	0x3e894830	0.26812887
250	0xbd5c26e8	-0.05374804
251	0x3dd3ffd6	0.10351531
252	0x3e01502f	0.12628244
253	0xbd34b8ea	-0.04412166
254	0x3e75f60a	0.24019638
255	0xbd281323	-0.041033875

encoder.rnn.weight_hh_l0 f4 [48, 16]
0	0xbe753396	-0.2394546
1	0x3e7a7231	0.24457623
2	0xbe2b0d9c	-0.1670441
3	0x3e2a5b97	0.16636501
4	0x3e29df87	0.16589175
5	0xbe9bbe4f	-0.3041863
6	0xbe2d1fdc	-0.16906685
7	0xbe950f51	-0.29113248
8	0xbe2192fc	-0.15778726
9	0xbd6f359b	-0.05840073
10	0x3e3a73d3	0.18208246
11	0xbe8953ec	-0.2682184
12	0xbe7302ab	-0.23731486
13	0xbe48353b	-0.19551556
14	0xbe32e05b	-0.17468397
15	0x3e18fe03	0.14940648
16	0x3dc495f6	0.09598915
17	0xbdb446f3	-0.08802595
18	0xbdaf8138	-0.085695684
19	0xbc610403	-0.013733867
20	0xbdd817be	-0.105514035
21	0x3d94969f	0.07255291
22	0xbd8205de	-0.06348775
23	0x3dd58e69	0.10427553
24	0x3d54429a	0.05182133
25	0x3d82d55e	0.06388353
26	0xbda91e9d	-0.08257792
27	0x3da4f336	0.08054201
28	0x3d9f8e2b	0.07790788
29	0x3db6d499	0.089272685
30	0x3e09b937	0.1344956
31	0x3da1a95e	0.07893632
32	0xbe1c30b6	-0.15252957
33	0xbe4ba355	-0.19886525
34	0xbe1b1536	-0.1514481
35	0x3df8d6ed	0.12150369
36	0x3e0a4ad6	0.1350511
37	0x3c22bcd5	0.009932716
38	0xbdcfe13e	-0.101503834
39	0xbda9710a	-0.082735136
40	0xbdde1dfe	-0.10845564
41	0x3e81ccd4	0.25351584
42	0xbe2eed13	-0.17082624
43	0xbdf63236	-0.12021296
44	0x3e299721	0.16561557
45	0xbe176ffb	-0.14788811
46	0xbe186151	-0.14880873
47	0x3df1d252	0.118076935
48	0xbe8ef02f	-0.2791762
49	0x3ee80937	0.4531953
50	0xbe01bd53	-0.12669878
51	0x3f04c805	0.51867706
52	0x3ee13f34	0.43993533
53	0xbeb3cd63	-0.35117635
54	0xbea83229	-0.3285077
55	0xbe8fc7a0	-0.2808199
56	0xbef7ea48	-0.4842093
57	0x3d2d4167	0.0422987
58	0x3ecc3832	0.39886624
59	0xbe921b46	-0.28536433
60	0xbeff7fb5	-0.4990212
61	0xbec822a0	-0.39088917
62	0xbed1cf00	-0.4097824
63	0x3ed8bcf6	0.42331666
64	0xbe6c379a	-0.23068085
65	0x3e749dcf	0.23888324
66	0xbe9454f3	-0.2897106
67	0x3e31f969	0.17380299
68	0x3e384218	0.17993963
69	0xbe77b281	-0.24189188
70	0xbe83945e	-0.25699133
71	0xbe5fcdb3	-0.21855812
72	0xbe3572cb	-0.17719571
73	0x3d4e1de9	0.050321493
74	0x3e164b89	0.14677252
75	0xbe726353	-0.23670702
76	0xbe552749	-0.20815767
77	0xbe356cc5	-0.17717274
78	0xbe40c30b	-0.18824403
79	0x3e5f31e3	0.21796374
80	0xbd9d0214	-0.07666412
81	0x3d9864b0	0.074410796
82	0xbd87c908	-0.066301405
83	0x3dc2d071	0.09512413
84	0x3d82a1c1	0.06378508
85	0xbd9f97b8	-0.0779261
86	0xbd9db057	-0.0769965
87	0xbd87367e	-0.066021904
88	0xbdc672cb	-0.09689864
89	0x3ba7736f	0.0051101963
90	0x3d2de3ba	0.042453505
91	0xbdae2d12	-0.0850469
92	0xbd7108a2	-0.058846124
93	0xbd926975	-0.071490206
94	0xbdc4f792	-0.09617533
95	0x3dc30179	0.09521765
96	0xbe8a864a	-0.2705558
97	0xbd708570	-0.058721006
98	0xbe8bab65	-0.272792
99	0x3e83cd0a	0.2574237
100	0x3e84e8f8	0.2595899
101	0xbe3bc5e1	-0.18337204
102	0xbe89a9c0	-0.2688732
103	0xbe63afd3	-0.2223504
104	0xbe70ce77	-0.2351626
105	0x3e744bbd	0.23857017
106	0xbd81b89a	-0.06334038
107	0xbe80518e	-0.2506222
108	0x3d12fea0	0.03588736
109	0xbe753ac5	-0.239482
110	0xbe8e901f	-0.2784433
111	0x3e9b9da0	0.30393696
112	0xbdc1f4aa	-0.09470494
113	0x3e01bb5a	0.12669125
114	0xbcfba90e	-0.03072026
115	0x3dcb4d69	0.09926874
116	0x3da36101	0.079774864
117	0xbe09e733	-0.13467102
118	0xbd80d50a	-0.06290634
119	0xbdfdb8a7	-0.12388735
120	0xbda80a62	-0.08205105
121	0xbd17a508	-0.03702262
122	0x3dfc3580	0.12314892
123	0xbddaf11f	-0.106905214
124	0xbdf8a45f	-0.12140726
125	0xbdc89bab	-0.09795316
126	0xbdcc8ea1	-0.09988142
127	0x3db4bf16	0.08825509
128	0xbe97d4f1	-0.2965465
129	0x3ed2d095	0.4117476
130	0xbe314264	-0.17310482
131	0x3f048b83	0.5177538
132	0x3edd862f	0.43266436
133	0xbea31c6f	-0.3185763
134	0xbeaeb00f	-0.34118697
135	0xbe7a1587	-0.24422275
136	0xbeffb915	-0.49945894
137	0x3dbe3973	0.09288301
138	0x3eaab182	0.33338553
139	0xbe8e8a6d	-0.27839985
140	0xbee5b093	-0.44861278
141	0xbed308b0	-0.41217566
142	0xbed8d7aa	-0.4235204
143	0x3eed86ac	0.4639181
144	0xbd8805ab	-0.06641706
145	0xbd1d9f9f	-0.038482305
146	0x3d15e513	0.036595415
147	0x3bda0431	0.0066533317
148	0x3dd10441	0.102058895
149	0xbcdebf45	-0.027190814
150	0x3d26b1e4	0.040696993
151	0xbd3b305d	-0.04570042
152	0xbd12f93c	-0.03588222
153	0x3c13a2b5	0.00901096
154	0xbc7d2e41	-0.015452922
155	0xbd7a40ce	-0.06109696
156	0x3bce4fd5	0.006296138
157	0xbdbe4dbf	-0.09292173
158	0xbdf4ea95	-0.119588055
159	0xbc8de0a6	-0.017319035
160	0x3df97de9	0.121822186
161	0xbdde740c	-0.10861978
162	0xbd465190	-0.048417628
163	0xbc0180c6	-0.007904237
164	0xbdc9c669	-0.09852297
165	0x3dec6f82	0.11544706
166	0x3b7c4a86	0.0038496568
167	0x3dd798c1	0.10527182
168	0x3d3673c8	0.04454401
169	0x3db53265	0.088475026
170	0xbdc6a49e	-0.09699367
171	0x3df31b86	0.11870484
172	0x3dbbea3d	0.09175537
173	0x3df0214c	0.11725101
174	0x3df05357	0.11734646
175	0x3cfedda5	0.031111548
176	0xbe5da4a8	-0.21644843
177	0x3e485e3d	0.19567199
178	0xbe0b20ca	-0.13586727
179	0x3e247c97	0.16063152
180	0x3e2e2e75	0.1700991
181	0xbe70c757	-0.23513542
182	0xbe225121	-0.1585126
183	0xbe7a23ab	-0.24427669
184	0xbe17adeb	-0.14812438
185	0xbd372635	-0.04471417
186	0x3e1a793f	0.15085314
187	0xbe695e92	-0.22789982
188	0xbe4b954c	-0.19881171
189	0xbe3dddb8	-0.1854161
190	0xbe2ff9c4	-0.17185122
191	0x3e1e309a	0.15448228
192	0x3db0152d	0.08597789
193	0xbda8613a	-0.082216695
194	0xbd3791d9	-0.044816826
195	0xbcc8ee51	-0.0245277
196	0xbdd26e1c	-0.10274908
197	0x3d9c7658	0.0763976
198	0xbd1412b9	-0.036150668
199	0x3d77f351	0.06053478
200	0x3d6ddd61	0.05807245
201	0x3da77636	0.08176844
202	0xbd8a685f	-0.067581885
203	0x3d9e3019	0.07724018
204	0x3d9c74ee	0.0763949
205	0x3db00c93	0.08596148
206	0x3dc2fcc4	0.095208675
207	0x3d505484	0.05086185
208	0xbe86a473	-0.2629734
209	0x3e543111	0.20721842
210	0xbe8c194f	-0.2736306
211	0x3e45f84e	0.19333002
212	0x3e372e27	0.178887
213	0xbe8ddce7	-0.27707598
214	0xbe87aac0	-0.2649746
215	0xbe84b761	-0.25921157
216	0xbe452fad	-0.19256468
217	0xbbedf877	-0.0072622853
218	0x3e074d0b	0.13212983
219	0xbe9766c2	-0.29570585
220	0xbe52e173	-0.20593815
221	0xbe4a9ab9	-0.19785585
222	0xbe461951	-0.19345595
223	0x3e55e98b	0.20889871
224	0xbe88c7a2	-0.26714808
225	0x3e84d5be	0.25944322
226	0xbe8e3ef9	-0.2778242
227	0x3e45b077	0.19305597
228	0x3e4789e8	0.19486201
229	0xbe93e8ac	-0.28888452
230	0xbe89f998	-0.26948237
231	0xbe85d305	-0.26137558
232	0xbe2fd249	-0.17170061
233	0xbc677001	-0.014125825
234	0x3e229867	0.1587845
235	0xbe899fd0	-0.2687974
236	0xbe552275	-0.20813926
237	0xbe3e7ef0	-0.1860311
238	0xbe4d1429	-0.20027222
239	0x3e569b2b	0.2095763
240	0xbe8aa027	-0.27075312
241	0x3e0f2aeb	0.13981216
242	0xbe4ab8b2	-0.19797018
243	0x3e8593e4	0.26089394
244	0x3e95c80a	0.2925418
245	0xbe8838f9	-0.26605967
246	0xbe6860d8	-0.22693193
247	0xbe8e9893	-0.2785078
248	0xbe86aedf	-0.2630529
249	0x3e25a11a	0.16174737
250	0x3e180987	0.14847384
251	0xbe811b28	-0.2521603
252	0xbe37cf1e	-0.17950103
253	0xbe8ce164	-0.2751571
254	0xbe9f84ca	-0.31155998
255	0x3e906c02	0.28207403

encoder.rnn.bias_ih_l0 f4 [48]
0	0x3e1834c3	0.14863877
1	0x3d21a42e	0.039463215
2	0x3de09445	0.1096578
3	0x3e261647	0.16219436
4	0x3e398d6b	0.18120353
5	0x3d9171e0	0.07101798
6	0x3e5092bf	0.20368479
7	0x3d162dd8	0.036664814
8	0x3e492af1	0.19645287
9	0x3bf46231	0.0074579944
10	0x3c9d3e88	0.019194856
11	0x3df1855d	0.11793015
12	0x3d15ee34	0.03660412
13	0x3e59c988	0.21268284
14	0x3e541458	0.20710886
15	0x3e0c0b49	0.1367618
16	0x3c242235	0.010017921
17	0xbe65f202	-0.224556
18	0xbe16409b	-0.14673083
19	0xbe277251	-0.16352202
20	0xbcfd6995	-0.030934134
21	0xbe3b0820	-0.18264818
22	0xbdfc4871	-0.123185046
23	0xbde0da0d	-0.1097909
24	0xbe2c97dd	-0.16854806
25	0xbebb3657	-0.36564896
26	0xbe518b82	-0.20463374
27	0xbcbc73df	-0.02300447
28	0xbe401b7f	-0.18760489
29	0xbc5937cb	-0.013257931
30	0xbd397fa5	-0.045287747
31	0xbe8cfeb2	-0.27538067
32	0xbdea9a0b	-0.114551626
33	0xbd2c7726	-0.042105816
34	0xbdf63dad	-0.120234825
35	0x3d95ed1a	0.07320614
36	0x3db74b1a	0.08949871
37	0x3b3e4bd1	0.002903689
38	0xbe2f9784	-0.17147642
39	0xbca4d838	-0.020122632
40	0xbd8a9aff	-0.067678444
41	0x3d640036	0.055664264
42	0xbd446ade	-0.04795348
43	0xbd8832e3	-0.06650331
44	0x3d1e974c	0.038718507
45	0xbdfa0fcf	-0.122100465
46	0xbddbe9a8	-0.10737926
47	0x3dec3ccb	0.11535033

encoder.rnn.bias_hh_l0 f4 [48]
0	0x3e1834c6	0.14863881
1	0x3d21a42c	0.039463207
2	0x3de09446	0.10965781
3	0x3e261645	0.16219433
4	0x3e398d6c	0.18120354
5	0x3d9171e3	0.071018
6	0x3e5092c0	0.2036848
7	0x3d162dd9	0.036664817
8	0x3e492af5	0.19645293
9	0x3bf46201	0.007457972
10	0x3c9d3e89	0.019194858
11	0x3df18558	0.117930114
12	0x3d15ee2f	0.036604103
13	0x3e59c988	0.21268284
14	0x3e541459	0.20710887
15	0x3e0c0b4b	0.13676183
16	0x3c24224f	0.010017945
17	0xbe65f206	-0.22455606
18	0xbe16409a	-0.14673081
19	0xbe277251	-0.16352202
20	0xbcfd6998	-0.03093414
21	0xbe3b0820	-0.18264818
22	0xbdfc4865	-0.12318496
23	0xbde0da0b	-0.109790884
24	0xbe2c97dc	-0.16854805
25	0xbebb3655	-0.3656489
26	0xbe518b80	-0.20463371
27	0xbcbc73e8	-0.023004487
28	0xbe401b7d	-0.18760486
29	0xbc5937ea	-0.01325796
30	0xbd397f9f	-0.045287725
31	0xbe8cfeb3	-0.2753807
32	0xbdd98281	-0.10620595
33	0xbd83fa7d	-0.06444261
34	0xbe020a1c	-0.12699169
35	0x3df613c4	0.12015489
36	0x3dceb2df	0.10092711
37	0x3b505cb4	0.0031793537
38	0xbe38db41	-0.18052389
39	0xbc96dd87	-0.01841618
40	0xbdeecddd	-0.11660359
41	0x3da17986	0.07884507
42	0xbd8e9acb	-0.06963118
43	0xbd7bd48c	-0.061481997
44	0x3d6f7fbf	0.058471438
45	0xbe072504	-0.13197714
46	0xbdf43a81	-0.11925221
47	0x3e07a11e	0.13245055

encoder.rnn.weight_ih_l0_reverse f4 [48, 100]
0	0xbe74e182	-0.2391415
1	0x3eee13a6	0.46499366
2	0xbe26ad37	-0.16277014
3	0xbd07aedc	-0.033125743
4	0xbd132327	-0.035922196
5	0x3e85f36b	0.26162276
6	0xbe12e0b0	-0.14343524
7	0x3d83a31f	0.06427597
8	0x3cf4d428	0.02988632
9	0x3e1e845a	0.15480176
10	0xbd778365	-0.060428042
11	0x3d6c1e78	0.057646245
12	0xbcb08085	-0.021545658
13	0xbde6ef54	-0.11276117
14	0x3dbb348c	0.09140882
15	0x3e873478	0.26407218
16	0x3bcdd79f	0.0062818076
17	0xbdec9c75	-0.11553279
18	0xbeb9d849	-0.36297825
19	0x3eb03486	0.34415072
20	0x3de38e78	0.11111158
21	0xbd9e5622	-0.07731272
22	0xbe06fcaa	-0.13182321
23	0xbe9874a6	-0.29776496
24	0x3c8c983e	0.017162438
25	0x3ef0e344	0.4704839
26	0x3e63b9ed	0.22238894
27	0x3dcee8c8	0.10102993
28	0x3e1e7fa2	0.15478376
29	0x3a462a30	0.0007559387
30	0xbe8de744	-0.27715504
31	0xbd9526d6	-0.07282798
32	0x3e7f3c07	0.24925242
33	0x3e9f2ff4	0.31091273
34	0x3e7005ca	0.23439708
35	0x3ebae4a0	0.36502552
36	0xbdd390c7	-0.103303485
37	0xbd885dc6	-0.06658511
38	0xbe19fd7a	-0.150381
39	0x3e345239	0.1760949
40	0xbe27bc2a	-0.16380373
41	0xbe09110d	-0.1338541
42	0xbe44b71c	-0.19210476
43	0x3d8979fc	0.0671272
44	0x3e583353	0.21113329
45	0x3c784455	0.01515301
46	0x3d1b0446	0.037845872
47	0x3e062989	0.13101782
48	0x3e53596d	0.20639582
49	0xbcf8f54a	-0.0303904
50	0x3e86cdfd	0.26329032
51	0x3db3f02a	0.08786042
52	0xbd4eb46b	-0.05046503
53	0x3eac92b6	0.33705682
54	0x3ddbc952	0.10731758
55	0x3e9992dc	0.29994857
56	0xbdea60fd	-0.1144428
57	0x3e4b951f	0.19881104
58	0xbe1578fa	-0.1459693
59	0x3c984ed2	0.018592272
60	0xbe8531fa	-0.26014692
61	0x3e2c6afa	0.16837683
62	0x3c37807b	0.011200066
63	0x3d5c3a92	0.053766795
64	0xbea417d0	-0.32049417
65	0xbee4f491	-0.4471784
66	0xbe9e578d	-0.3092617
67	0xbd4370fe	-0.04771518
68	0xbe6c4792	-0.23074177
69	0x3e1181d4	0.14209682
70	0xbeb8f116	-0.36121434
71	0x3e63d947	0.22250853
72	0xbe1cd928	-0.15317214
73	0x3e9c291b	0.3050011
74	0x3e9304ef	0.28714702
75	0xbdbb76c7	-0.09153514
76	0xbe352e0f	-0.17693351
77	0x3e0b2367	0.13587724
78	0x3d7071be	0.058702223
79	0x3e2e170f	0.17000984
80	0x3e23025f	0.15918873
81	0xbe82e576	-0.2556569
82	0xbe56433f	-0.2092409
83	0xbe3bc6ac	-0.18337506
84	0x3e87a2c9	0.26491383
85	0x3dcae2df	0.099065535
86	0xbdd581b5	-0.1042513
87	0x3e87e101	0.26538852
88	0xbc480867	-0.0122090345
89	0x3e965180	0.29359055
90	0x3e9ece21	0.3101664
91	0x3a76d67f	0.00094161177
92	0xbd4be64f	-0.049780186
93	0x3cdef5c1	0.027216794
94	0x3eb31ffc	0.3498534
95	0x3d958d78	0.07302374
96	0x3ec4ecdc	0.3846196
97	0xbd792e5c	-0.060835227
98	0xbd2284f8	-0.03967759
99	0x3e7a63b1	0.24452092
100	0xbe394037	-0.18090902
101	0xbe1ab6e8	-0.15108836
102	0x3e7ccbc0	0.246871
103	0x3ea5fd29	0.32419708
104	0x3efe8b33	0.49715576
105	0xbe2a77b1	-0.16647221
106	0x3e932606	0.28739947
107	0x3ea68e25	0.32530323
108	0xbe326441	-0.17421056
109	0xbe767c49	-0.24070849
110	0x3e789ced	0.24278612
111	0xbe8ce365	-0.27517238
112	0xbe824b3f	-0.25448033
113	0xbef00ff2	-0.46887165
114	0xbde307b1	-0.110854514
115	0x3d8b6fd0	0.06808436
116	0xbe93e22e	-0.288835
117	0xbe40b2fd	-0.18818279
118	0xbbaae3be	-0.0052151373
119	0x3d77bebf	0.060484644
120	0xbdc8e5c4	-0.09809449
121	0x3e845fd1	0.25854352
122	0xbec51c87	-0.38498327
123	0x3db72574	0.089426905
124	0x3e1a37d4	0.15060359
125	0xbd9a4f6a	-0.07534678
126	0x3dc3d4a5	0.09562043
127	0xbe152e66	-0.14568481
128	0x3ee08d9c	0.4385804
129	0xbe4ea630	-0.20180583
130	0xbdb464a6	-0.0880826
131	0x3ed6ea7d	0.41975775
132	0x3d4d79c9	0.05016497
133	0xbc7641e3	-0.015030357
134	0x3d488302	0.048953064
135	0x3cf57247	0.029961718
136	0x3e3f8f71	0.18707062
137	0x3e1809bd	0.14847465
138	0x3e540eda	0.2070879
139	0xbddbee13	-0.107387684
140	0x3e21fd1f	0.15819214
141	0xbed10e51	-0.40831235
142	0x3e74f36e	0.23920986
143	0x3f0aab8b	0.54168004
144	0x3e1df245	0.1542445
145	0x3ec399d4	0.382033
146	0x3edb94a8	0.42886853
147	0xbe3d514f	-0.18488048
148	0x3e46f4b6	0.19429287
149	0x3eda52b3	0.4264122
150	0xbdc3427a	-0.09534164
151	0x3f058391	0.5215388
152	0x3e848d89	0.25889233
153	0xbe0d8d39	-0.13823403
154	0x3e875376	0.26430863
155	0xbdbcb931	-0.0921501
156	0xbe749848	-0.23886216
157	0xbcdb77a4	-0.026790448
158	0xbe4eaf88	-0.20184147
159	0x3eb89501	0.3605118
160	0x3df5eb98	0.120078266
161	0xbda89c50	-0.08232939
162	0x3e8eb4be	0.2787227
163	0xbead37cb	-0.3383163
164	0xbbd30b4b	-0.006440555
165	0x3dddd586	0.10831742
166	0x3e46de9d	0.19420858
167	0x3e790d04	0.24321371
168	0xbe1cc488	-0.15309346
169	0xbe6f0dd8	-0.23345125
170	0xbc0eec54	-0.008723337
171	0xbdf65b56	-0.1202914
172	0x3dd76ce5	0.10518817
173	0xbd9ca22a	-0.07648118
174	0xbe1a0e73	-0.15044574
175	0xbe1d0258	-0.15332925
176	0x3e0ae980	0.13565636
177	0xbe6a2c31	-0.2286842
178	0xbe42c23e	-0.1901941
179	0xbe958feb	-0.29211363
180	0x3ee20572	0.4414478
181	0x3e052cc4	0.13005358
182	0x3c02a0d2	0.007972913
183	0x3d83c229	0.064335175
184	0xbcc70d18	-0.024298236
185	0xbe6e5208	-0.2327348
186	0xbeb399cd	-0.35078278
187	0xbcca4c62	-0.024694625
188	0xbf033cf7	-0.512649
189	0xbd9726ee	-0.07380472
190	0x3cfea81f	0.031086026
191	0x3ea1d734	0.316095
192	0xbea3b103	-0.31970987
193	0xbe84505c	-0.2584256
194	0x3dc16385	0.0944281
195	0xbe928d73	-0.28623542
196	0xbd7aa6d5	-0.06119426
197	0x3e662c63	0.2247787
198	0x3e753431	0.2394569
199	0xbe1bb3ce	-0.15205309
200	0xbebc29af	-0.36750552
201	0x3cfb2e0a	0.030661602
202	0x3da25e8f	0.07928192
203	0x3ecaad87	0.39585516
204	0x3f1463df	0.5796489
205	0xbddf8006	-0.109130904
206	0x3e40ad31	0.18816067
207	0x3ef13aff	0.47115323
208	0xbe60f5b3	-0.21968727
209	0xbe3f012b	-0.1865279
210	0x3e07cdd9	0.13262118
211	0xbe9c3f37	-0.3051698
212	0xbea08aa8	-0.31355786
213	0xbefea600	-0.49736023
214	0xbd86ec4a	-0.06588037
215	0x3e66d09f	0.2254052
216	0xbe86277a	-0.26201993
217	0xbebd7650	-0.37004328
218	0xbe4550da	-0.19269124
219	0x3e7c5673	0.24642353
220	0x3d1c9c6d	0.038235117
221	0x3e1c643b	0.1527261
222	0xbf0cc6f2	-0.54991066
223	0xbdcaf7ac	-0.09910521
224	0x3e030e5b	0.12798445
225	0x3dcfc83e	0.10145615
226	0x3e9eff82	0.31054312
227	0xbd98df9c	-0.07464525
228	0x3efcf0b0	0.4940238
229	0xbe3e3153	-0.18573503
230	0xbe8612da	-0.26186258
231	0x3e97324e	0.29530567
232	0x3e722a2d	0.23648901
233	0x3e1652f5	0.14680083
234	0x3e630c89	0.2217275
235	0x3e3f6782	0.18691829
236	0x3d486561	0.048924807
237	0x3e25d27f	0.16193579
238	0x3e63a612	0.2223132
239	0x3c3e4900	0.011614084
240	0x3d1df3f2	0.038562723
241	0xbef16cbb	-0.47153267
242	0x3e1f585c	0.1556105
243	0x3f1d1c5d	0.61371404
244	0x3eb1abf7	0.3470151
245	0x3eb1bc10	0.34713793
246	0x3f086c34	0.53290105
247	0xbe15099f	-0.14554451
248	0x3eb9b078	0.36267447
249	0x3f0576e4	0.5213454
250	0x3e04d358	0.12971246
251	0x3f15d77f	0.58531946
252	0x3e8fa6aa	0.28056842
253	0xbc283428	-0.010266341
254	0x3eb45c92	0.35226876
255	0x3e3bc72e	0.183377

encoder.rnn.weight_hh_l0_reverse f4 [48, 16]
0	0x3d339a2f	0.043848213
1	0xbba58f6d	-0.005052498
2	0x3cc9c2ef	0.024629084
3	0xbdf96d3b	-0.12179037
4	0x3e12dc6b	0.14341895
5	0x3db09dc0	0.086238384
6	0xbdfd089a	-0.12355156
7	0xbd51734c	-0.051135346
8	0x3c28faaf	0.010313674
9	0xbde64c17	-0.11244982
10	0xbb6fe9d1	-0.0036607871
11	0xbcfa023e	-0.030518647
12	0xbd16c8b1	-0.036812488
13	0x3dd67513	0.10471549
14	0x3d930da9	0.0718034
15	0x3e02505f	0.12725972
16	0x3db3b8aa	0.08775456
17	0xbe5db79f	-0.21652077
18	0x3eaa524f	0.3326592
19	0xbd53a179	-0.051667664
20	0xbd240abd	-0.040049303
21	0xbe32bc09	-0.17454542
22	0x3e1e06a9	0.15432228
23	0xbdcaffbf	-0.09912061
24	0xbe149f06	-0.14513788
25	0xbdfc78b4	-0.1232771
26	0x3ebfe8d2	0.37482315
27	0x3c918eb4	0.017768241
28	0xbe0d0912	-0.13772991
29	0xbd75f1dc	-0.06004511
30	0x3c268bee	0.010165198
31	0x3dfa7cc4	0.122308284
32	0x3c5c42f3	0.013443696
33	0xbeaa0ef9	-0.33214548
34	0x3ed50343	0.4160405
35	0xbe1e8929	-0.1548201
36	0x3dbc3182	0.0918913
37	0xbe7de9a7	-0.24796163
38	0x3a74e6ff	0.00093422824
39	0xbe3d28bb	-0.18472569
40	0xbe6e2436	-0.23256001
41	0xbe30c342	-0.17261985
42	0x3ebc3b6d	0.36764088
43	0xbe5ec422	-0.21754506
44	0xbe839edf	-0.25707147
45	0xbdb98a9a	-0.09059639
46	0x3d9e7b59	0.077383704
47	0x3e474c70	0.19462752
48	0x3dc7e449	0.09760339
49	0x3e0a00b4	0.1347683
50	0xbe469270	-0.19391799
51	0xbdc543ef	-0.09632098
52	0x3e187c0e	0.14891073
53	0xbe0f74da	-0.14009419
54	0xbe99c338	-0.30031753
55	0xbddb104c	-0.10696468
56	0xbdf0fce8	-0.11766988
57	0xbdedbf28	-0.11608726
58	0xbe2f4c63	-0.17118983
59	0xbe6e0192	-0.23242787
60	0xbdee5bd6	-0.1163861
61	0xbdf3b4ef	-0.11899745
62	0xbb0ee753	-0.002180536
63	0x3dd99fb2	0.106261626
64	0x3d02b76b	0.031913202
65	0x3e233da2	0.1594148
66	0xbe83eb2a	-0.25765353
67	0xbe250e51	-0.16118743
68	0x3e4324e2	0.19057038
69	0xbe5992d3	-0.21247415
70	0xbe4407ca	-0.19143596
71	0xbe685f5a	-0.22692624
72	0xbe5e714f	-0.21722911
73	0xbe61a382	-0.2203503
74	0xbe40ec93	-0.18840246
75	0xbe459bec	-0.1929776
76	0xbe5b46da	-0.21413746
77	0xbe2f2aac	-0.17106122
78	0xbd9de203	-0.07709124
79	0x3e615a6a	0.22007146
80	0x3dea4c87	0.11440378
81	0x3eedb181	0.46424487
82	0xbf026192	-0.5093013
83	0xbec6b810	-0.38812304
84	0x3efd62c0	0.49489403
85	0xbe0f6301	-0.1400261
86	0xbf1b36d3	-0.6063053
87	0xbe81b5fc	-0.25334156
88	0xbe5c0def	-0.2148969
89	0xbe98aab6	-0.29817742
90	0xbf0e47dc	-0.555784
91	0xbee24238	-0.44191146
92	0xbe88d8db	-0.26727948
93	0xbd246a58	-0.04014048
94	0x3dc0483a	0.09388776
95	0x3ea8a79f	0.32940385
96	0xbd37f357	-0.0449098
97	0x3e60a4da	0.21937886
98	0xbe752ad6	-0.23942122
99	0xbea133ff	-0.31484982
100	0x3e9b3ac4	0.30318272
101	0xbec830c4	-0.39099705
102	0xbe097735	-0.1342438
103	0xbecb47f7	-0.39703342
104	0xbecbd117	-0.3980796
105	0xbeb175e5	-0.3466026
106	0xbe53c1c1	-0.2067938
107	0xbeb3b745	-0.3510076
108	0xbec4612d	-0.3835539
109	0xbe8f7c07	-0.28024313
110	0xbe139413	-0.14411955
111	0x3eb1d172	0.34730107
112	0x3c82c973	0.0159652
113	0x3e86f404	0.26358044
114	0xbe6f8595	-0.23390801
115	0xbe218c65	-0.15776213
116	0x3e6c1272	0.23053911
117	0xbe5a9239	-0.21344842
118	0xbea33e64	-0.31883538
119	0xbe2fdcd7	-0.17174087
120	0xbe414cbb	-0.18876927
121	0xbe2effb4	-0.1708973
122	0xbe9e2423	-0.30886945
123	0xbe8523c9	-0.26003864
124	0xbe1fafe4	-0.1559444
125	0xbe485a08	-0.19565594
126	0xbd7d9867	-0.06191292
127	0x3e2cacdc	0.16862816
128	0x3c7e44aa	0.0155193005
129	0x3e8ddd0e	0.27707714
130	0xbe6707d8	-0.22561586
131	0xbe84448f	-0.25833556
132	0x3e9f653a	0.31131917
133	0xbe6f9ea6	-0.23400363
134	0xbe957f49	-0.29198673
135	0xbe6ea68a	-0.23305717
136	0xbe74ed82	-0.23918727
137	0xbe872f4e	-0.26403278
138	0xbe9e08dd	-0.30866137
139	0xbe0fc1be	-0.1403875
140	0xbe2bf660	-0.16793203
141	0xbe3703fd	-0.17872615
142	0xbccff715	-0.025386373
143	0x3e92d765	0.28679958
144	0x3e0bc73c	0.1365022
145	0x3e808203	0.2509919
146	0xbe9567a3	-0.2918063
147	0x3bc0816e	0.005874804
148	0x3de909f0	0.113788486
149	0xbd9b9d38	-0.075983465
150	0xbeabb37a	-0.33535367
151	0xbd1d2571	-0.038365785
152	0xbdb242d5	-0.087041534
153	0xbd1c2a95	-0.038126547
154	0xbe885888	-0.26630044
155	0xbeb97b82	-0.3622704
156	0xbd3de425	-0.046360154
157	0xbdde05b0	-0.108409286
158	0xbc798165	-0.015228604
159	0x3b3a7dbf	0.0028456298
160	0xbd8f1989	-0.06987292
161	0xbcee713d	-0.02910673
162	0x3e7006cd	0.23440094
163	0xbe4628e0	-0.1935153
164	0x3e0f8c99	0.14018477
165	0xbe60101c	-0.21881145
166	0xbd1c535d	-0.03816544
167	0xbe5f5345	-0.21809109
168	0xbe55b255	-0.2086881
169	0xbe6c6e5a	-0.23088971
170	0x3e572927	0.21011792
171	0xbe2021d1	-0.156379
172	0xbe7ee14c	-0.24890631
173	0xbd8ecb96	-0.06972425
174	0xbc286763	-0.010278556
175	0x3e7e101e	0.24810836
176	0xbe25203f	-0.16125582
177	0x3d3a9efc	0.045561776
178	0xbca60c74	-0.02026961
179	0xbedb5a34	-0.42842257
180	0x3e6d8ff4	0.23199445
181	0xbee8cd0f	-0.45468947
182	0xbdf01824	-0.117233545
183	0xbf005ecf	-0.50144666
184	0xbf036a19	-0.5133377
185	0xbef72852	-0.4827295
186	0xbd4824a1	-0.048863057
187	0xbe8e183a	-0.27752858
188	0xbef03ff9	-0.46923807
189	0xbe912557	-0.283488
190	0xbe227090	-0.15863252
191	0x3ef47d98	0.4775207
192	0xbdc17e5e	-0.09447931
193	0x3dfe540b	0.12418374
194	0xbde39bb8	-0.11113685
195	0xbe830c20	-0.25595188
196	0x3e467a61	0.19382621
197	0xbe83e13b	-0.25757775
198	0xbded5825	-0.11589078
199	0xbe9bcf49	-0.30431584
200	0xbe93dc38	-0.2887895
201	0xbe95eb5f	-0.29281136
202	0xbe188eab	-0.14898174
203	0xbe0ca732	-0.13735655
204	0xbe88c734	-0.2671448
205	0xbe72b569	-0.23702015
206	0xbdef1f2d	-0.11675868
207	0x3e9bdf55	0.30443826
208	0x3d63a89b	0.055580717
209	0x3e954dc6	0.291609
210	0xbe842c91	-0.2581525
211	0xbe15cb09	-0.14628233
212	0x3e59f7f0	0.21285987
213	0x3e85939b	0.26089177
214	0xbe856175	-0.26050916
215	0x3dd5fd63	0.1044872
216	0x3e4808e9	0.19534649
217	0xbc63fa9c	-0.01391473
218	0xbeb4e1c0	-0.35328484
219	0xbd2fe6d6	-0.04294475
220	0x3d7e360c	0.062063262
221	0x3df9d674	0.12199107
222	0x3e37c31c	0.17945522
223	0x3dab84f3	0.083749674
224	0x3dcec38f	0.100958936
225	0x3eb13afc	0.34615314
226	0xbeb512f3	-0.3536602
227	0xbe89b419	-0.26895216
228	0x3eb3ce4f	0.35118338
229	0x3e804f74	0.25060618
230	0xbec5f9dd	-0.38667193
231	0xbe17913d	-0.14801498
232	0x3d86a27a	0.06573959
233	0xbe57aee5	-0.2106281
234	0xbeb38e68	-0.35069585
235	0x3e0fde25	0.14049585
236	0x3d81c710	0.06336796
237	0x3e5701fa	0.20996848
238	0x3e37c71c	0.17947048
239	0x3e831fc3	0.2561017
240	0x3dc298d9	0.095018096
241	0x3e626d97	0.22112118
242	0xbe8ac726	-0.27105063
243	0xb7e39550	-2.7130038e-05
244	0x3de3bce4	0.111200124
245	0xbda1b6eb	-0.07896217
246	0xbeb4b2d3	-0.35292682
247	0xbce00052	-0.027343903
248	0xbd493750	-0.049125016
249	0x3c422723	0.011850151
250	0xbe89fb74	-0.26949656
251	0xbebd180f	-0.36932418
252	0xbd19485e	-0.03742253
253	0xbdf65070	-0.12027061
254	0xbc58b0fb	-0.013225789
255	0xbc895432	-0.01676378

encoder.rnn.bias_ih_l0_reverse f4 [48]
0	0x3da17fdd	0.07885716
1	0x3d8636ff	0.065534584
2	0x3d29c79d	0.04145013
3	0x3d6c7096	0.057724558
4	0x3cd593e6	0.0260715
5	0x3e4a85d8	0.1977762
6	0xbc17a197	-0.009254835
7	0x3d813fcd	0.06310997
8	0x3db770bc	0.08957049
9	0x3da5bd98	0.08092803
10	0x3e6b45c2	0.22975829
11	0xbc906934	-0.01762829
12	0xbc9e5f2b	-0.019332489
13	0x3eef7ae7	0.46773455
14	0x3dfb9dc3	0.1228595
15	0x3dde0993	0.1084167
16	0xbe687ae6	-0.22703132
17	0xbe7cd7b6	-0.24691662
18	0xbe5ab327	-0.21357404
19	0xbe623abb	-0.22092716
20	0xbe313442	-0.17305091
21	0xbe798a9e	-0.24369285
22	0xbe216994	-0.15762931
23	0xbe4e6bc7	-0.20158301
24	0xbe602d99	-0.21892394
25	0xbe19d9ad	-0.15024443
26	0xbe55e7ec	-0.20889252
27	0xbe38f672	-0.18062761
28	0xbe93e8c5	-0.28888527
29	0xbe9f3b6c	-0.31100023
30	0xbea7c5e0	-0.32768154
31	0xbde3b591	-0.111186154
32	0x3d0a0a94	0.033701494
33	0x3ce2dab8	0.027692184
34	0xbd7fa5a5	-0.06241383
35	0xbde20792	-0.110366
36	0x3dfc8bfa	0.12331386
37	0xbd22c373	-0.039737176
38	0xbe2243fa	-0.15846244
39	0xbdc6604c	-0.09686336
40	0xbd766751	-0.060157124
41	0xbdba579f	-0.09098744
42	0xbd0d520e	-0.03450208
43	0xbe04ca59	-0.12967815
44	0xbdb80593	-0.08985438
45	0x3dcd1db6	0.100154325
46	0xbb11e714	-0.0022262977
47	0x3dba6256	0.09100787

encoder.rnn.bias_hh_l0_reverse f4 [48]
0	0x3da17fda	0.07885714
1	0x3d863700	0.06553459
2	0x3d29c79c	0.041450128
3	0x3d6c70a0	0.057724595
4	0x3cd593cb	0.02607145
5	0x3e4a85d7	0.19777618
6	0xbc17a17e	-0.009254811
7	0x3d813fce	0.06310998
8	0x3db770b8	0.08957046
9	0x3da5bd9e	0.08092807
10	0x3e6b45c3	0.2297583
11	0xbc90693d	-0.017628307
12	0xbc9e5f22	-0.019332472
13	0x3eef7ae6	0.46773452
14	0x3dfb9dc2	0.12285949
15	0x3dde0994	0.10841671
16	0xbe687ae2	-0.22703126
17	0xbe7cd7b6	-0.24691662
18	0xbe5ab324	-0.21357399
19	0xbe623aba	-0.22092715
20	0xbe313442	-0.17305091
21	0xbe798a9c	-0.24369282
22	0xbe216994	-0.15762931
23	0xbe4e6bcc	-0.20158309
24	0xbe602d93	-0.21892385
25	0xbe19d9ad	-0.15024443
26	0xbe55e7eb	-0.20889251
27	0xbe38f674	-0.18062764
28	0xbe93e8c3	-0.2888852
29	0xbe9f3b6b	-0.3110002
30	0xbea7c5df	-0.3276815
31	0xbde3b58c	-0.11118612
32	0x3d477503	0.048695575
33	0xbcb2d5aa	-0.021830399
34	0xbd297066	-0.041366957
35	0xbe047d6f	-0.12938474
36	0x3e12a1f9	0.143196
37	0x3ba7a1eb	0.0051157377
38	0xbe42515a	-0.18976346
39	0xbde41198	-0.11136168
40	0xbd1b9820	-0.037986875
41	0xbdebdeba	-0.11517091
42	0xbcb51050	-0.022102505
43	0xbd3023c3	-0.043002855
44	0xbd3d737c	-0.046252713
45	0x3e0f3080	0.13983345
46	0x3cfa7528	0.030573443
47	0x3dfc7a27	0.12327986

encoder.fc.weight f4 [16, 32]
0	0xbd880c8c	-0.06643018
1	0xbb5a26b0	-0.003328722
2	0x3d04ff69	0.03247014
3	0x3d35fd58	0.04443106
4	0x3d907baa	0.07054837
5	0x3b1062b7	0.0022031495
6	0xbc15f7d5	-0.009153326
7	0xbe6d439a	-0.23170319
8	0xbd39a1be	-0.045320265
9	0x3c677f8d	0.014129532
10	0xbb2898d2	-0.0025725854
11	0xbdbc68c6	-0.091996714
12	0x3cba7d5f	0.02276486
13	0xbdb8a2c7	-0.09015422
14	0xbd6ebc1f	-0.058284875
15	0x3b4a98ff	0.0030913947
16	0xbe0db288	-0.13837636
17	0x3d5772db	0.05259977
18	0xbc8e45da	-0.017367292
19	0xbd9af393	-0.07565989
20	0x3d7ed26e	0.0622124
21	0xbe9a85c3	-0.30180177
22	0xbd8771ba	-0.066134885
23	0xbe2403b7	-0.16017042
24	0xbe5ab1b9	-0.21356858
25	0xbd93d044	-0.07217458
26	0xbd0ec9c1	-0.034860376
27	0xbdcad976	-0.09904759
28	0xbdf24b66	-0.11830787
29	0xbe2573b2	-0.16157416
30	0xbdc130e0	-0.0943315
31	0x3daecb57	0.08534878
32	0x3d8e9466	0.069618985
33	0x3d551677	0.052023377
34	0x3d5a6dbf	0.05332732
35	0xbdc3282e	-0.09529148
36	0xbe07b453	-0.13252382
37	0xbc83d6ea	-0.01609369
38	0x3d794163	0.060853373
39	0x3e0de2ff	0.13856123
40	0x3dc848bf	0.097795
41	0xbd8863bf	-0.0665965
42	0x3d0a4fcc	0.033767506
43	0x3e005cf7	0.12535463
44	0xbd03ba34	-0.03216
45	0x3dd46add	0.10371945
46	0x3df41d29	0.11919624
47	0xbd8c2a9b	-0.06844064
48	0xbe3d7807	-0.18502818
49	0x3d8cf4f4	0.068826586
50	0x3b02d602	0.0019963984
51	0xbdcfe400	-0.101509094
52	0x3dc63627	0.096782975
53	0xbec241cb	-0.3794082
54	0xbdee327a	-0.116307214
55	0xbe61d2fb	-0.22053139
56	0xbe8fac6f	-0.28061244
57	0xbe158613	-0.14601927
58	0xbd84475a	-0.06458922
59	0xbde66f06	-0.11251645
60	0xbe1522eb	-0.14564101
61	0xbed0bd05	-0.4076921
62	0xbe651e16	-0.22374758
63	0x3e221cfb	0.15831368
64	0x3d3d9788	0.04628709
65	0x3b800162	0.003906415
66	0x3ca7cb29	0.020482616
67	0xbc63c675	-0.013902296
68	0xbcef94ea	-0.029245812
69	0x3c0848f3	0.008318174
70	0x3cd9c957	0.026585264
71	0x3d84c105	0.06482128
72	0x3c4485ae	0.011994762
73	0xbc23ed84	-0.010005359
74	0x3c91337d	0.017724747
75	0x3d0e2b64	0.03470935
76	0xbccce7c6	-0.025012862
77	0x3d283c26	0.041072987
78	0x3d3cd735	0.046103675
79	0xbbede678	-0.00726014
80	0x3e355e74	0.17711812
81	0xbe7dd587	-0.24788485
82	0x3eae68b4	0.34064257
83	0xbc4e28ee	-0.012583001
84	0x3cd1ec27	0.025625302
85	0x3e9b1faf	0.3029761
86	0xbd1d6ab4	-0.03843184
87	0x3e809821	0.25116065
88	0x3e912d74	0.2835499
89	0x3d1dee69	0.038557444
90	0x3e65b1c4	0.22431093
91	0xbcc4f0d4	-0.024040617
92	0x3d7d96bb	0.061911326
93	0x3e15a983	0.14615445
94	0x3dd05f06	0.10174374
95	0xbd3004ee	-0.04297345
96	0xbdcab320	-0.09897447
97	0xbd1e625c	-0.03866802
98	0xbd37ff5e	-0.04492127
99	0x3d76d815	0.060264666
100	0x3da7a0fb	0.081850015
101	0xbd909e57	-0.07061451
102	0xbd7bf304	-0.061511055
103	0xbbadff52	-0.0053099776
104	0xbcf1faaa	-0.029538471
105	0x3d01bc00	0.03167343
106	0xbd3c6ab9	-0.046000216
107	0xbdc48fed	-0.09597764
108	0x3d3e2a66	0.046427153
109	0xbdba0e58	-0.09084767
110	0xbd8e3090	-0.06942856
111	0x3d3f283e	0.046669237
112	0x3e2fabce	0.17155382
113	0x3b7fcef9	0.0039033277
114	0x3e4bbd9a	0.19896546
115	0xbcecff71	-0.028930398
116	0x3aabb513	0.0013100229
117	0xbdfd5bf1	-0.12371052
118	0x3c6b5abd	0.014364895
119	0x3d152559	0.03641257
120	0xbd08b459	-0.033375118
121	0x3d36b31d	0.04460441
122	0x3c075244	0.00825936
123	0xbd398cca	-0.045300283
124	0xbba03e68	-0.004890252
125	0xbdcc8262	-0.09985806
126	0x3d82e0b7	0.06390517
127	0xbce1860d	-0.02752974
128	0x3e33ab99	0.17545928
129	0x3e300aa2	0.17191556
130	0x3e275201	0.16339876
131	0xbe226bae	-0.15861389
132	0xbe2fc541	-0.1716509
133	0xbe26149e	-0.16218802
134	0x3e29e3f1	0.16590859
135	0x3d8269cd	0.06367836
136	0x3e159a87	0.14609729
137	0xbe365ed6	-0.17809615
138	0x3e4112f0	0.1885488
139	0x3e183718	0.14864767
140	0xbe2e3f13	-0.17016248
141	0x3e3e9068	0.18609774
142	0x3e39b6ed	0.18136187
143	0xbe239b5f	-0.15977238
144	0xbdbe94f9	-0.09305758
145	0xbdcb9ad4	-0.099416405
146	0x3e07f4ff	0.13277052
147	0x3e0d56e6	0.1380268
148	0xbe2240fd	-0.15845104
149	0x3b64fac9	0.0034939519
150	0x3e0a7fd3	0.13525324
151	0x3dafdca3	0.08587005
152	0x3c8484d4	0.016176619
153	0x3dcb2700	0.09919548
154	0x3dca2c45	0.09871725
155	0x3e194f3b	0.1497163
156	0x3ddc7435	0.10764352
157	0xbdaab9ab	-0.083361946
158	0xbdce7a9f	-0.10081982
159	0xbdee2748	-0.11628586
160	0xbd016d24	-0.031598225
161	0xbd86c3a6	-0.06580286
162	0xbdad2f13	-0.08456244
163	0x3d9df99b	0.07713624
164	0x3d32e709	0.043677364
165	0xbc5afc54	-0.013365824
166	0xbdbcb031	-0.09213293
167	0x3d7dec20	0.061992764
168	0xbd60e090	-0.05490166
169	0x3d7be35b	0.06149612
170	0xbd8c06df	-0.06837248
171	0xbd338856	-0.043831192
172	0x3d328d16	0.04359158
173	0xbceaeb89	-0.028676765
174	0xbd19cf4c	-0.03755121
175	0x3d9f053b	0.077646695
176	0x3ed7c567	0.42142794
177	0xbe7a0a9c	-0.2441811
178	0x3bbbfdba	0.0057370337
179	0x3e2b111f	0.1670575
180	0xbe13c1bb	-0.14429371
181	0x3f21f909	0.6327062
182	0x3e1c46c9	0.15261377
183	0x3e91219f	0.28345963
184	0x3f06eca1	0.5270482
185	0x3e5eea16	0.21768984
186	0x3e5a5eb1	0.21325184
187	0x3e4707f3	0.19436626
188	0x3e8692da	0.26283914
189	0x3f0c5b21	0.5482655
190	0x3eab4e8e	0.3345837
191	0xbe629289	-0.22126211
192	0xbde13925	-0.109972276
193	0xbd100b01	-0.035166744
194	0xbd2714cd	-0.04079132
195	0x3d865553	0.06559243
196	0x3dd3a113	0.10333457
197	0x3dab7a2c	0.08372912
198	0xbd0d8bc4	-0.03455712
199	0xbe35e2a1	-0.17762233
200	0xbdaa1ce1	-0.083062895
201	0x3d4e1188	0.050309688
202	0xbd26d5a2	-0.04073108
203	0xbe2a0600	-0.16603851
204	0x3d7fc753	0.06244595
205	0xbdb6c963	-0.0892513
206	0xbdc4cdb5	-0.09609548
207	0x3d48358c	0.04887919
208	0xbe8a00d7	-0.26953766
209	0x3dea5e67	0.11443787
210	0xbdd67490	-0.10471451
211	0xbd7d7f72	-0.06188912
212	0x3d40fac6	0.047114156
213	0xbeb11461	-0.3458586
214	0xbd208eba	-0.039198615
215	0xbe1d6323	-0.15369849
216	0xbe9c8900	-0.30573273
217	0xbc8cd934	-0.017193414
218	0xbe2e2b28	-0.1700865
219	0xbdd7f015	-0.10543839
220	0xbe1550a0	-0.14581537
221	0xbe9d0f80	-0.30675888
222	0xbe5dd6be	-0.21663949
223	0xba872495	-0.0010310585
224	0x3e0d7079	0.13812436
225	0x3e3507fa	0.17678824
226	0x3e211cff	0.15733717
227	0xbe0c67c7	-0.13711463
228	0xbe1ddaf1	-0.15415551
229	0xbe3c6367	-0.18397294
230	0x3e0d8a7a	0.13822356
231	0x3bbb26e4	0.0057114232
232	0x3e188624	0.1489492
233	0xbe2d8d52	-0.1694844
234	0x3e35f3d4	0.17768794
235	0x3dde51a4	0.108554155
236	0xbe3c8ae5	-0.18412359
237	0x3e202145	0.15637691
238	0x3df5d72e	0.12003933
239	0xbe14af90	-0.14520097
240	0xbddb6940	-0.10713434
241	0xbd74e586	-0.059789203
242	0x3df1862a	0.11793168
243	0x3df45e75	0.11932079
244	0xbdf79d6e	-0.12090574
245	0xbc6b1422	-0.014348062
246	0x3df5e3bd	0.12006328
247	0x3d8997f6	0.067184374
248	0x3c657fee	0.014007552
249	0x3dbe1eb3	0.09283199
250	0x3d619b93	0.055080008
251	0x3e26678f	0.16250442
252	0x3d8d3472	0.06894769
253	0xbdb17321	-0.08664537
254	0xbdef1842	-0.11674549
255	0xbda417b9	-0.08012337

encoder.fc.bias f4 [16]
0	0xbd356ba9	-0.044292126
1	0xbd9000c5	-0.07031397
2	0x3cdc83a3	0.026918238
3	0x3d269898	0.04067287
4	0xbdf077a8	-0.117415726
5	0x3dbafdb5	0.09130422
6	0xbc376dfa	-0.011195654
7	0xbdea55f6	-0.11442177
8	0xbcb8a94b	-0.022541663
9	0x3d28b0f2	0.041184373
10	0x3da139a6	0.07872324
11	0xbd4ad02f	-0.049514946
12	0x3c3a0807	0.011354453
13	0x3d7fd2ad	0.062456775
14	0xbda697b6	-0.08134405
15	0xbda3356b	-0.07969173
