agl/models/autosave/tr-AE-124-16-0.001-A12.pt (torch, 113900 bytes, 21 tensors)

encoder.embedding.weight f4 [8, 124]
-0.0020363107 -0.0051789335 0.008154619 0.0075422525 0.013728044 -0.0037992334 -0.004886906 -0.0019851753
-0.02747107 0.014106377 -0.0010383216 0.018627392 0.0014513631 0.020034606 -0.008647399 -0.004819289
0.0113702 -0.009895075 0.01327519 -0.008301741 0.0041459394 0.0076605002 -0.027683252 -0.0022277804
-0.020852603 0.01442968 -0.012304208 -0.00030520203 -0.0009919839 -0.010392279 -0.0003942789 0.0068481257
0.0020172712 -0.0029318093 -0.007303435 -0.018160354 -0.003207828 -0.018550664 -0.0064373743 0.015659494
-0.007783763 0.0073739444 -0.006296412 -0.007896885 -0.0019540258 0.0049938634 0.018168585 -0.0004830656
0.017958887 0.0037793177 -0.010506397 0.0063886577 -0.009263777 -0.0074799424 0.00831757 -0.013204954
-0.0042616543 0.004383068 -0.013565823 0.0034282107 -0.017540067 0.0019705985 -0.019394547 -0.00074679643
-0.009384279 0.009232647 0.009622497 -0.009624628 -0.01000905 -0.013243166 -0.0008287696 -0.0070505505
0.0091389185 -0.009398295 -0.018903986 -0.007178594 -0.0019666278 0.009192258 -0.009033788 0.0034955563
-0.0010462679 0.012235143 -0.0029154315 -0.013884014 -0.0069384193 0.012610861 0.008812168 0.008698921
0.0033967404 -0.006186388 0.017459886 0.016168343 -0.009037271 0.00916622 0.014815837 -0.007028188
0.0035054642 -0.013723826 0.010880982 0.0005496665 0.0020725748 -0.00714115 -0.01164353 0.0016142955
0.0054216417 0.008101273 -0.0054172934 -0.009826549 0.012546265 -0.0030664804 3.4440404e-06 0.00076573744
0.0005339432 -0.0075989747 -0.0027045864 -0.0015911926 0.009889768 -0.0076580113 0.001976405 0.006705485
-0.003615242 -0.018980654 -0.00241049 -8.3756495e-05 -0.20389922 0.23428914 0.10145694 0.26360154
0.1475304 -0.041958477 0.039202686 0.24307731 -0.11916424 -0.20417137 -0.19579256 -0.24416167
-0.19000265 -0.060649723 0.20984231 -0.010886132 -0.042945016 0.27357888 -0.12866408 -0.03071054
0.1995568 0.106021136 0.050384343 0.008367634 -0.21121195 -0.112211175 -0.0743185 -0.07473742
0.037064433 -0.22892158 -0.09636642 -0.2711132 0.0134822 0.17735326 -0.11794758 -0.23510475
-0.002958929 -0.08486888 0.04060555 0.26272452 -0.2656907 0.25542596 0.010338046 0.17302287
-0.101163134 0.061843902 -0.06438661 -0.13733147 -0.038798496 0.044027735 0.0061779176 0.035571914
-0.015132566 0.22572328 0.10261678 0.21514423 -0.031558592 -0.08341325 0.16908617 0.28551805
0.2855886 -0.10112405 0.26485938 0.26025918 0.2575485 0.0015141156 0.23786907 0.07297314
-0.31078634 0.017411908 -0.034938853 -0.1304992 0.009562971 -0.032137204 0.1915927 -0.20385237
-0.1915165 0.111640625 -0.25748605 -0.05771688 -0.28730914 0.1793991 0.20334008 -0.013777232
0.15356492 -0.23421437 -0.037729926 0.031182323 0.023648078 0.24181283 -0.23471367 0.012352387
0.03980766 0.14216477 -0.27388045 0.21731612 -0.04999787 -0.2994503 -0.018781174 -0.23144345
0.10761661 0.27775174 -0.29378328 0.28558478 -0.04002424 -0.032081805 0.20841649 -0.11657923
0.27233598 -0.018726321 0.10927572 0.19079839 0.06105716 -0.032344572 0.25289118 0.28559756
0.027403358 -0.18564688 0.04512509 -0.17204012 0.07162621 0.23352829 -0.17944346 -0.063694924
-0.2621527 0.161401 0.118617505 0.22955878 0.1416684 0.06524528 0.057396337 0.24342462
00000000: a073 05bb 0bb4 a9bb f39a 053c 0025 f73b
00000010: 97eb 603c 8ffc 78bb 5722 a0bb b719 02bb
00000020: 020b e1bc 6f1e 673c 4b18 88ba 7998 983c
00000030: aa3b be3a 9d1f a43c d2ad 0dbc 20eb 9dbb
00000040: 134a 3a3c f41e 22bc 2f80 593c 0704 08bc
00000050: a9da 873b ef04 fb3b fdc7 e2bc f4ff 11bb
00000060: 14d3 aabc 776a 6c3c 9797 49bc 8603 a0b9
00000070: 7505 82ba 6144 2abc 38b7 ceb9 3e66 e03b
00000080: 3234 043b 9923 40bb a751 efbb 06c5 94bc
00000090: 6c3a 52bb 90f7 97bc 9cf0 d2bb 5748 803c
000000a0: f00e ffbb 21a1 f13b 2252 cebb f061 01bc
000000b0: 1d0f 00bb 90a3 a33b 49d6 943c f843 fdb9
000000c0: 841e 933c 6eae 773b 0623 2cbc f257 d13b
000000d0: 19c7 17bc 4e1a f5bb 6b46 083c 9759 58bc
000000e0: 59a5 8bbb d79f 8f3b 3043 5ebc d5ab 603b
000000f0: 30b0 8fbc 2825 013b 50e1 9ebc a9c4 43ba
00000100: 85c0 19bc 8744 173c ada7 1d3c 9eb0 1dbc
00000110: 00fd 23bc ddf9 58bc c941 59ba 4e08 e7bb
00000120: 67bb 153c 4efb 19bc 88dc 9abc 693a ebbb
00000130: 8ae2 00bb 209b 163c 7402 14bc b415 653b
00000140: ed22 89ba e975 483c d310 3fbb c779 63bc
00000150: ae5b e3bb c99d 4e3c e960 103c eb85 0e3c
00000160: d99b 5e3b 2fb7 cabb 0908 8f3c 7973 843c
00000170: 1011 14bc ea2d 163c 20be 723c b74c e6bb
00000180: eebb 653b e6d9 60bc 2546 323c 7f17 103a
00000190: 09d4 073b 4f00 eabb 81c4 3ebc c596 d33a
000001a0: 07a8 b13b 34bb 043c 8d83 b1bb 89ff 20bc
000001b0: d98e 4d3c 01f7 48bb 2a20 6736 c5bb 483a
000001c0: 52f8 0b3a d200 f9bb 6e3f 31bb 908f d0ba
000001d0: b208 223c 0ef0 fabb 9386 013b afb9 db3b
000001e0: b2ed 6cbb 517d 9bbc 50f9 1dbb 6da6 afb8
000001f0: f5ca 50be 7ee9 6f3e a8c8 cf3d c8f6 863e
00000200: 3612 173e a7dc 2bbd ff92 203d 42e9 783e
00000210: 620c f4bd 4d12 51be d87d 48be 8405 7abe
00000220: 0e90 42be d86b 78bd e7e0 563e bf5b 32bc
00000230: 1de7 2fbd 8812 8c3e 84c0 03be ac94 fbbc
00000240: 9e58 4c3e 9c21 d93d d05f 4e3d 6718 093c
00000250: f247 58be f9ce e5bd 4c34 98bd ef0f 99bd
00000260: e0d0 173d 6b6a 6abe c25b c5bd 59cf 8abe
00000270: 72e4 5c3c 189c 353e 808e f1bd 4dbf 70be
00000280: 97ea 41bb bccf adbd 0152 263d d483 863e
00000290: 9d08 88be 31c7 823e e860 293c e82c 313e
000002a0: 9e2e cfbd 0850 7d3d 21dd 83bd 9fa0 0cbe
000002b0: 2ceb 1ebd 6d56 343d 2170 ca3b dbb3 113d
000002c0: 95ee 77bc 0124 673e bf28 d23d c54e 5c3e
000002d0: 9543 01bd 91d4 aabd ed24 2d3e 6c2f 923e
000002e0: ab38 923e 201a cfbd a69b 873e b140 853e
000002f0: 66dd 833e 4a75 c63a f393 733e f172 953d
00000300: 631f 9fbe 6ba3 8e3c 0b1c 0fbd 95a1 05be
00000310: 02ae 1c3c 4da2 03bd e030 443e adbe 50be
00000320: e71c 44be d7a3 e43d 36d5 83be 8968 6cbd
00000330: 2f1a 93be 66b4 373e 6238 503e e6b9 61bc
00000340: 1f40 1d3e e4d5 6fbe b28a 1abd 1272 ff3c
00000350: 9db9 c13c c89d 773e c858 70be ab61 4a3c
00000360: 5b0d 233d a493 113e 0f3a 8cbe 1e88 5e3e
00000370: 91ca 4cbd 8d51 99be fada 99bc 83ff 6cbe
00000380: 1966 dc3d 7a35 8e3e c36a 96be 2b38 923e
00000390: 75f0 23bd 3668 03bd 226b 553e 17c1 eebd
000003a0: 9f6f 8b3e f167 99bc f3cb df3d a760 433e
000003b0: 1317 7a3d be7b 04bd f47a 813e d839 923e
000003c0: 027d e03c 371a 3ebe 16d5 383d 492b 30be
000003d0: c3b0 923d 0a22 6f3e 07c0 37be 7c72 82bd
000003e0: e138 86be 4e46 253e bced f23d 7511 6b3e
000003f0: 8511 113e 519f 853d 6c18 6b3d 4e44 793e

encoder.rnn.weight_ih_l0 f4 [48, 124]
-0.18879813 0.1227359 0.19490708 0.032768965 0.12214189 -0.060251225 0.05596554 0.18176986
-0.097234614 -0.045655232 -0.111980386 -0.12084708 -0.11705032 -0.22064489 0.15637438 -0.14361817
-0.18634552 0.12871112 -0.1810504 -0.06922519 0.045961954 0.16762196 0.13325664 0.07445644
-0.04390188 -0.078795426 -0.17837599 -0.03293587 0.18389206 -0.0704174 -0.18935932 -0.15106532
0.008189042 0.1262111 -0.27793863 -0.08838488 -0.026858564 -0.1903343 -0.040712833 0.057897888
-0.13699171 0.22128095 0.113456056 0.17755303 -0.21225029 0.14458379 -0.04653633 -0.17978731
-0.07442559 0.13313122 0.03815319 0.19715491 -0.114913024 0.2528155 0.0474489 0.19844155
0.05587403 -0.088884704 0.16590504 0.13609062 0.120979056 -0.0037036147 0.08877409 0.04405945
0.11440213 0.034464195 0.026733397 0.15312861 -0.06609242 0.08894867 -0.17979737 -0.10113416
0.045018893 0.0537613 0.23035562 -0.115992054 -0.17791136 0.25522938 -0.12406129 -0.23626041
-0.1132031 0.16285038 0.07237142 -0.2030084 0.129514 -0.08314136 0.12950388 0.051027074
0.10848152 0.08276596 -0.10956295 -0.023842493 0.120560244 0.22203203 -0.06788479 0.087402776
-0.08318577 -0.02086876 -0.16138758 -0.15369374 0.12493546 0.12738545 -0.111468285 0.09994965
-0.11777396 -0.037782606 0.102696255 -0.17799121 0.15398797 -0.08559564 0.11968803 0.22341076
0.12145688 -0.09291429 0.09701266 0.03177236 0.1587381 -0.08261028 0.2083409 -0.13115552
0.0557423 0.13299106 -0.17871557 -0.17705612 -0.121237576 0.122822635 0.06300744 0.14230967
0.055549767 0.11051791 -0.020154005 0.086978704 -0.19032948 -0.26602003 -0.14298473 -0.115197286
-0.23067418 -0.083067164 0.291098 -0.059210595 -0.0764078 0.077062026 -0.024154179 -0.05879733
0.23165056 0.037361104 -0.033159524 -0.028997477 -0.22693512 -0.18816392 -0.075652055 -0.2367004
0.028674759 -0.089990914 -0.06952592 -0.19128342 0.027265428 0.058280587 -0.060495447 -0.23078358
0.037137266 -0.009375631 0.080060735 0.29729405 -0.19275855 0.2491143 0.011389173 0.045670945
-0.07774717 0.010686939 0.02469501 -0.06989874 -0.08611224 0.041685507 -0.0111362655 -0.0094591305
0.0039227256 0.25351992 0.14999339 0.121428646 -0.009434324 -0.095987886 -0.031017963 0.14877851
0.15351433 -0.15093075 0.18688571 0.2279164 0.2113254 -0.022701226 0.14077891 0.0246523
-0.11520178 0.009560259 0.051527236 -0.1907115 -0.0073117805 -0.05298439 0.049360313 -0.16193068
-0.05811921 0.029954106 -0.12168909 0.015190346 -0.15468435 0.098173514 0.31255984 -0.049996745
0.053691328 -0.16846403 -0.04573994 0.043175325 -0.014305015 0.20546113 -0.20212048 -0.04756832
0.05099758 0.09717572 -0.18133746 0.28432742 -0.05536941 -0.11693681 0.008193949 -0.17645927
0.016152738 0.261402 -0.18153135 0.108624496 -0.017049985 -0.015540868 0.25458357 -0.032342166
0.15197292 -0.038669728 0.13133805 0.04256792 0.0018828819 -0.0397301 0.14524986 0.1559263
-0.025930364 -0.31454036 0.025675593 -0.08093533 0.017913474 0.19003104 -0.2465122 0.010752186
-0.18410788 0.100925125 0.09794424 0.13089602 0.0459654 -0.005593265 0.025548017 0.111252494
00000000: 4c54 41be f65c fb3d b995 473e c038 063d
00000010: 8725 fa3d fdc9 76bd 1f3c 653d e121 3a3e
00000020: f122 c7bd fb00 3bbd f955 e5bd ad7e f7bd
00000030: 14b8 efbd bcf0 61be 9b20 203e a410 13be
00000040: 5cd1 3ebe d9cc 033e 4765 39be f0c5 8dbd
00000050: 9a42 3c3d 17a5 2b3e 6e74 083e 9e7c 983d
00000060: 75d2 33bd 7f5f a1bd 32a8 36be c3e7 06bd
00000070: 334e 3c3e ff36 90bd 69e7 41be deb0 1abe
00000080: 552b 063c 7c3d 013e f94d 8ebe 2203 b5bd
00000090: 7e06 dcbc ffe6 42be 80c2 26bd 5626 6d3d
000000a0: 8e47 0cbe 7997 623e a65b e83d 76d0 353e
000000b0: 2458 59be c60d 143e e19c 3ebd 2a1a 38be
000000c0: 726c 98bd 8d53 083e 8546 1c3d fae2 493e
000000d0: 8557 ebbd 0971 813e c759 423d 4334 4b3e
000000e0: 2bdc 643d 2f09 b6bd 03e3 293e 575b 0b3e
000000f0: dec3 f73d 58b8 72bb 31cf b53d af77 343d
00000100: aa4b ea3d 542a 0d3d ffff da3c bfcd 1c3e
00000110: 765b 87bd b82a b63d cd1c 38be 6d1f cfbd
00000120: bb65 383d cf34 5c3d 58e2 6b3e 3e8d edbd
00000130: 652e 36be 6dad 823e d813 febd 40ee 71be
00000140: 07d7 e7bd 40c2 263e 7837 943d 6fe1 4fbe
00000150: 519f 043e 0446 aabd aa9c 043e c401 513d
00000160: 8f2b de3d 3381 a93d 8a62 e0bd 5551 c3bc
00000170: 4ae8 f63d 5d5c 633e 2e07 8bbd 3a00 b33d
00000180: 4d5d aabd f6f4 aabc c942 25be e461 1dbe
00000190: 2ade ff3d 5571 023e 7c49 e4bd 67b2 cc3d
000001a0: 7933 f1bd efc1 1abd 6a52 d23d 5443 36be
000001b0: 06af 1d3e c44c afbd ff1e f53d cac5 643e
000001c0: 62be f83d d949 bebd 93ae c63d bc23 023d
000001d0: 3e8c 223e 942f a9bd 5157 553e a24d 06be
000001e0: 0a52 643d cf2e 083e 3701 37be 334e 35be
000001f0: 684b f8bd 6f8a fb3d 0b0a 813d a0b9 113e
00000200: 2788 633d 3757 e23d 031a a5bc e421 b23d
00000210: bbe5 42be c733 88be 976a 12be 8eec ebbd
00000220: da35 6cbe 1e1f aabd cc0a 953e cf86 72bd
00000230: b17b 9cbd b2d2 9d3d fcde c5bc 78d5 70bd
00000240: ce35 6d3e f507 193d 48d2 07bd 1e8c edbc
00000250: ae61 68be 0bae 40be 77ef 9abd 9761 72be
00000260: 54e7 ea3c 284d b8bd 9b63 8ebd cddf 43be
00000270: bf5b df3c a0b7 6e3d 13ca 77bd 8852 6cbe
00000280: 3f1d 183d 3f9c 19bc e2f6 a33d ed36 983e
00000290: 7f62 45be d217 7f3e a799 3a3c 7511 3b3d
000002a0: e939 9fbd 4518 2f3c 314d ca3c 1227 8fbd
000002b0: 9d5b b0bd 6cbe 2a3d e274 36bc 78fa 1abc
000002c0: 358a 803b 5dcd 813e de97 193e 95af f83d
000002d0: 6c92 1abc 4c95 c4bd 6219 febc 6559 183e
000002e0: dc32 1d3e 978d 1abe f85e 3f3e eb62 693e
000002f0: b065 583e ecf7 b9bc 5928 103e 9ff3 c93c
00000300: e9ee ebbd a2a2 1c3c 390e 533d e049 43be
00000310: a997 efbb 2906 59bd 0a2e 4a3d 28d1 25be
00000320: 690e 6ebd 5062 f53c 2138 f9bd eee0 783c
00000330: 9365 1ebe 320f c93d d807 a03e 63c9 4cbd
00000340: 70eb 5b3d d681 2cbe ce59 3bbd 9cd8 303d
00000350: 955f 6abc 6764 523e acf8 4ebe 00d7 42bd
00000360: d7e2 503d 1004 c73d 87b0 39be 5d93 913e
00000370: 09cb 62bd 917c efbd ea3f 063c bdb1 34be
00000380: bf52 843c 7cd6 853e 5be3 39be 8576 de3d
00000390: 69ac 8bbc 209f 7ebc c758 823e 3879 04bd
000003a0: ca9e 1b3e 2664 1ebd 7b7d 063e b35b 2e3d
000003b0: 08cb f63a 08bc 22bd 61bc 143e 25ab 1f3e
000003c0: ea6b d4bc 6f0b a1be 9f55 d23c 6cc1 a5bd
000003d0: 47bf 923c 7f97 423e b26d 7cbe f029 303c
000003e0: c786 3cbe d5b1 ce3d fd96 c83d 9b09 063e
000003f0: 3746 3c3d b547 b7bb 134a d13c 59d8 e33d

encoder.rnn.weight_hh_l0 f4 [48, 16]
0.03040546 -0.019969638 0.015704043 0.026830789 0.079565704 -0.021090012 -0.036772914 0.022852872
-0.0009663405 -0.019384094 -0.061431836 -0.019333161 0.032992598 -0.007983334 -0.026308274 0.004131812
0.0126343975 -0.021200022 0.027502725 0.053744297 0.01647764 0.019334035 -0.021172723 0.046701603
0.007364735 -0.011683388 -0.07696516 0.009163224 0.06956516 0.010103243 -0.0025624274 0.032962427
-0.0494901 0.06611456 -0.06300044 0.029554496 0.08145573 -0.06173763 0.07116418 -0.021319466
0.060537063 -0.048660383 0.016195873 -0.07072591 0.008441205 -0.046428666 0.097710945 -0.09174655
0.0035358004 -0.13379583 0.19561619 1.097427 -0.57963544 -0.40600362 0.0041694036 -0.17311618
-0.8365049 0.41304836 0.14257391 0.47821552 -0.024739154 0.74588937 -0.23089956 -0.051395044
0.055207573 -0.058145896 0.0970925 -0.079566285 -0.119101115 -0.09951658 -0.09716993 -0.0319402
-0.05741583 0.120901324 0.030718371 0.15250008 0.0012762543 0.09301858 -0.110851265 0.041778058
-0.06616469 0.088879585 -0.053748176 0.3297314 -0.03444325 -0.14745145 0.094398014 -0.12793444
-0.2146581 -0.029862061 0.12892188 0.043296684 -0.07757198 0.1346166 0.049708627 -0.12615396
0.016666472 -0.012048916 0.013622819 0.33909655 0.02950369 -0.033548728 -0.0062746177 0.0033290007
0.0266977 -0.028763775 -0.014948714 -0.041190457 0.062458564 -0.020266471 -0.018819144 -0.00904304
0.029992672 -0.014184489 0.042351622 0.031397372 -0.030024769 -0.05805 -0.051374327 -0.014238356
-0.0799141 0.00025477246 -0.013250455 0.035617717 0.005365422 0.0332254 -0.037576746 -0.010762229
-0.09524398 0.21894664 -0.1449657 0.44294465 -0.08959288 -0.32980114 0.1377576 -0.27130368
-0.18400767 0.06628843 0.25524744 0.09757509 -0.2258271 0.1608638 0.08447719 -0.28009897
0.065212175 -0.055359352 0.08524158 -0.09542952 -0.11527033 -0.14308989 -0.09569899 -0.00047482926
-0.10266034 0.06979262 0.009590775 0.10914172 0.0077395714 0.09450322 -0.091704175 0.04579505
0.028663285 -0.01492589 0.040735856 -0.07018547 0.0036566472 -0.0102629075 -0.013705563 -0.00054067903
-0.011332908 -0.00082355214 -0.025048232 -0.013014657 0.033188213 -0.039963584 -0.043133546 0.015343904
0.10946632 -0.11310531 0.13763146 -0.12021333 -0.13997476 -0.09270425 -0.14720227 0.048517965
-0.12298178 0.13193493 -0.05593843 0.15231134 0.06448193 0.16774398 -0.16718535 0.086098604
-0.13359252 0.17032573 -0.13011156 0.31947577 0.101669 -0.15709366 0.103268065 -0.16710179
0.082653046 -0.11859464 0.16646925 -0.158468 -0.2135816 -0.17939442 0.11190269 -0.12856166
-0.026592175 0.14685401 -0.04948396 0.17508383 -0.084332585 -0.19707705 0.09444922 -0.17478822
-0.13920197 0.10198838 0.16645946 0.121224575 -0.20157097 0.02348715 -0.021219041 -0.17889893
0.030639086 -0.056367964 0.030748526 0.06721823 0.015486884 -0.058257196 -0.03865997 0.13109113
0.0024633966 0.003878029 -0.16009218 0.0065455264 0.18631266 0.040163457 -0.013052302 0.03701989
0.0374777 0.004981739 0.024911227 0.14146742 0.009544923 -0.04568055 0.00013932104 -0.029449625
-0.011822008 -0.019043645 -0.0045560775 -0.032454345 0.015626242 0.029790899 -0.0069223405 -0.030448018
00000000: df14 f93c 5e97 a3bc c4a5 803c 3ecc db3c
00000010: 58f3 a23d f6c4 acbc 329f 16bd f235 bb3c
00000020: 0352 7dba 64cb 9ebc f39f 7bbd 9460 9ebc
00000030: 3f23 073d 88cc 02bc 7384 d7bc 2764 873b
00000040: 8100 4f3c abab adbc 654d e13c fb22 5c3d
00000050: 1efc 863c 6962 9e3c 6b72 adbc 2e4a 3f3d
00000060: e053 f13b ae6b 3fbc e99f 9dbd 5921 163c
00000070: 2e78 8e3d 1388 253c 66ee 27bb 9c03 073d
00000080: 22b6 4abd 1267 873d 6006 81bd 451c f23c
00000090: 43d2 a63d 99e0 7cbd 87be 913d 29a6 aebc
000000a0: b6f5 773d 1c50 47bd 35ad 843c bfd8 90bd
000000b0: fb4c 0a3c fc2b 3ebd ad1c c83d 9de5 bbbd
000000c0: e3b8 673b c601 09be 9c4f 483e 7d78 8c3f
000000d0: fd62 14bf b5df cfbe 7e9f 883b 5e45 31be
000000e0: 2f25 56bf 137b d33e e5fe 113e aad8 f43e
000000f0: c4a9 cabc 9bf2 3e3f ef70 6cbe 9c83 52bd
00000100: 5621 623d 642a 6ebd 6fd8 c63d a6f3 a2bd
00000110: 49eb f3bd 59cf cbbd 0701 c7bd bad3 02bd
00000120: dd2c 6bbd 1d9b f73d 18a5 fb3c fb28 1c3e
00000130: fd47 a73a 8680 be3d fd05 e3bd 781f 2b3d
00000140: 5a81 87bd 8006 b63d 0c27 5cbd 8ed2 a83e
00000150: 5e14 0dbd 83fd 16be bf53 c13d 3f01 03be
00000160: 55cf 5bbe 48a1 f4bc 1904 043e dd57 313d
00000170: 0fde 9ebd efd8 093e 469b 4b3d 812e 01be
00000180: 2088 883c d168 45bc 3f32 5f3c 109e ad3e
00000190: b9b1 f13c 646a 09bd 4f9b cdbb 5d2b 5a3b
000001a0: 23b5 da3c 02a2 ebbc 73eb 74bc 53b7 28bd
000001b0: 8dd4 7f3d df05 a6bc 9b2a 9abc 4229 14bc
000001c0: 31b3 f53c 0f66 68bc e578 2d3d 889a 003d
000001d0: 81f6 f5bc d6c5 6dbd e36d 52bd fe47 69bc
000001e0: 01aa a3bd fb92 8539 7018 59bc e2e3 113d
000001f0: 6cd0 af3b 5b17 083d 13ea 19bd 0f54 30bc
00000200: 470f c3bd 8c33 603e e371 14be a4c9 e23e
00000210: 797c b7bd b2db a8be 5410 0d3e 51e8 8abe
00000220: 826c 3cbe 3ac2 873d cbaf 823e 73d5 c73d
00000230: 383f 67be 7bb9 243e 6102 ad3d 2269 8fbe
00000240: f68d 853d 7dc0 62bd 2393 ae3d 8d70 c3bd
00000250: da12 ecbd 2886 12be d5fd c3bd 81f2 f8b9
00000260: 963f d2bd 6fef 8e3d a022 1d3c b285 df3d
00000270: 3b9c fd3b e78a c13d 66cf bbbd 9793 3b3d
00000280: 44cf ea3c b88b 74bc a4da 263d 66bd 8fbd
00000290: 5ca4 6f3b c125 28bc 4c8d 60bc 5bbc 0dba
000002a0: a9ad 39bc a6e3 57ba f331 cdbc 6e3b 55bc
000002b0: 5df0 073d dbb0 23bd cdac 30bd ff64 7b3c
000002c0: e12f e03d c2a3 e7bd 43ef 0c3e 6832 f6bd
000002d0: 8b55 0fbe badb bdbd 31bc 16be c6ba 463d
000002e0: dfdd fbbd f319 073e b21f 65bd 81f7 1b3e
000002f0: 1a0f 843d 14c5 2b3e a332 2bbe 7754 b03d
00000300: 7acc 08be de69 2e3e f73b 05be 5492 a33e
00000310: d637 d03d 29dd 20be 357e d33d bb1c 2bbe
00000320: 0046 a93d bfe1 f2bd ea76 2a3e 6f45 22be
00000330: 23b5 5abe 2cb3 37be 3d2d e53d aba5 03be
00000340: d5d7 d9bc e660 163e b1af 4abd 2d49 333e
00000350: 90b6 acbd 91ce 49be 986e c13d affb 32be
00000360: f68a 0ebe 49df d03d 5974 2a3e 9744 f83d
00000370: 9f68 4ebe 2068 c03c 8ed3 adbc 4831 37be
00000380: d2fe fa3c 18e2 66bd 55e4 fb3c b6a9 893d
00000390: b3bc 7d3c 199f 6ebd eb59 1ebd c13c 063e
000003a0: f070 213b 8826 7e3b 34ef 23be db7b d63b
000003b0: bfc8 3e3e 7082 243d 53d9 55bc 2ba2 173d
000003c0: 3782 193d db3d a33b a112 cc3c d6dc 103e
000003d0: 4f62 1c3c 871b 3bbd b516 1239 5740 f1bc
000003e0: 18b1 41bc 6b01 9cbc 264b 95bb d9ee 04bd
000003f0: 9b02 803c 0b0c f43c cdd4 e2bb 1f6e f9bc

encoder.rnn.bias_ih_l0 f4 [48]
0.052872494 0.008932957 0.008493379 0.35387856 0.04925152 0.13883935 0.022649227 0.18740977
0.18039227 0.14941189 0.06229657 0.08839002 -0.0319146 0.17447522 0.04638797 0.113722414
-0.15276083 -0.38783658 -0.2753023 -0.18182613 -0.5602063 -0.09324883 -0.20992519 -0.62423503
-0.32832336 -0.5025243 -1.0381539 -0.5414506 -0.45463657 -0.27105683 -0.3134052 -0.4455273
0.082682945 -0.059138723 0.08724213 -0.03236307 -0.11299887 -0.050485086 -0.0295407 -0.028808692
-0.18055484 0.06847051 -0.0049906266 0.08461089 0.010180097 0.10598543 -0.091635846 -0.008560735
00000000: d490 583d 8a5b 123c d027 0b3c 922f b53e
00000010: f6bb 493d e72b 0e3e df8a b93c 59e8 3f3e
00000020: c0b8 383e 6eff 183e b02a 7f3d d405 b53d
00000030: e2b8 02bd a2a9 323e 5001 3e3d 4ce7 e83d
00000040: 566d 1cbe 8492 c6be 6cf4 8cbe a130 3abe
00000050: ae69 0fbf 3ef9 bebd a1f6 56be decd 1fbf
00000060: 001a a8be 6fa5 00bf 3ae2 84bf 829c 0abf
00000070: 20c6 e8be f6c7 8abe a576 a0be 271c e4be
00000080: ad55 a93d 723b 72bd 00ac b23d 238f 04bd
00000090: f46b e7bd 73c9 4ebd 57ff f1bc 3500 ecbc
000000a0: 5ee3 38be 443a 8c3d 6988 a3bb 7948 ad3d
000000b0: 6cca 263c e40e d93d 93ab bbbd 5342 0cbc

encoder.rnn.bias_hh_l0 f4 [48]
0.05287252 0.008932951 0.008493369 0.35387862 0.049251515 0.13883938 0.02264922 0.18740979
0.18039227 0.14941189 0.06229654 0.088389955 -0.03191458 0.17447527 0.046387963 0.11372242
-0.15276083 -0.38783658 -0.2753022 -0.18182607 -0.5602061 -0.093248814 -0.2099251 -0.624235
-0.3283234 -0.5025243 -1.038154 -0.5414508 -0.4546364 -0.27105683 -0.31340516 -0.44552734
0.10195415 -0.07062345 0.093301095 0.0072981697 -0.13351744 -0.03273723 -0.039566804 -0.005683091
-0.17888895 0.09978485 -0.019099997 0.11489618 0.038965844 0.0996758 -0.09858902 0.00243191
00000000: db90 583d 835b 123c c627 0b3c 942f b53e
00000010: f5bb 493d e92b 0e3e db8a b93c 5ae8 3f3e
00000020: c0b8 383e 6eff 183e a82a 7f3d cb05 b53d
00000030: ddb8 02bd a5a9 323e 4e01 3e3d 4de7 e83d
00000040: 566d 1cbe 8492 c6be 69f4 8cbe 9d30 3abe
00000050: ab69 0fbf 3cf9 bebd 9bf6 56be ddcd 1fbf
00000060: 011a a8be 6fa5 00bf 3be2 84bf 859c 0abf
00000070: 1ac6 e8be f6c7 8abe a476 a0be 291c e4be
00000080: 56cd d03d 07a3 90bd a514 bf3d 7c25 ef3b
00000090: ccb8 08be 7917 06bd cd10 22bd 3939 babb
000000a0: aa2e 37be 005c cc3d 9977 9cbc b04e eb3d
000000b0: a69a 1f3d d322 cc3d 0ae9 c9bd ae60 1f3b

encoder.rnn.weight_ih_l0_reverse f4 [48, 124]
-0.10355166 -0.13698778 -0.14257069 0.08960981 -0.123451 0.5753229 -0.46607605 -0.011522531
-0.4346611 -0.3340361 -0.2214441 -0.025746314 -0.35192648 0.2657801 0.31439012 0.0914586
0.16173238 0.05068591 0.0778139 0.3936014 0.27125305 -0.20021841 -0.3523593 -0.48266518
-0.2989828 -0.44409603 0.11379655 -0.54555064 -0.29804522 0.110329606 0.1626819 -0.15841444
-0.48253632 -0.10931289 0.1759413 -0.36964947 0.57610166 0.1794967 0.44941813 0.3479336
-0.14381397 0.29244635 -0.3190841 0.0077673118 0.0038777473 -0.2401758 0.6006796 0.1131605
0.13470659 -0.10919992 -0.34629023 -0.42860585 0.21182877 0.3376208 0.48387823 0.01390119
0.6278542 -0.17173307 -0.009105385 0.10283001 0.15271024 -0.41518977 0.26343703 0.38726443
0.2773036 -0.32836968 0.1723659 -0.1312048 -0.060668375 -0.54650354 0.20401038 -0.3933775
-0.2672583 -0.3022535 -0.12492196 -0.030753894 0.04939639 -0.18431967 -0.017398775 0.19997223
0.018533347 -0.008938564 0.44000295 0.13200311 -0.12985656 -0.1807743 -0.46716014 -0.46265495
-0.27193636 0.26433128 -0.11730737 -0.5260426 -0.31265184 -0.002933002 -0.14362282 0.1760655
-0.49525228 -0.22327727 0.34353897 0.10534746 -0.08061027 0.24017258 -0.24926324 0.09569957
0.34887573 -0.50472075 0.31331438 0.03526023 -0.01929892 0.3395436 0.5541693 -0.09911104
-0.23039235 0.3133967 0.01495661 0.15384647 -0.28093848 -0.28219825 -0.18911512 0.061004236
-0.43243402 0.29538444 -0.37399483 0.103098966 -0.12255888 0.04224545 0.06979838 0.06139531
-0.00961242 0.09724532 -0.06505594 0.04818989 -0.18200104 -0.1230066 -0.057296783 -0.06372107
-0.12832032 0.019914893 0.023428528 0.0074474863 -0.12191103 0.04865044 -0.026466869 0.10517549
0.04595197 -0.033122845 0.070294514 -0.102735825 -0.15606248 -0.23194085 0.012042936 -0.15231732
-0.0146468645 -0.12083538 0.0072817192 -0.009813701 -0.14584659 0.06419107 0.048787788 -0.11508095
0.14527321 -0.0006435406 0.21640171 0.056248773 0.039807897 0.023995414 0.035530727 -0.039497774
0.022630773 0.013091647 0.16452491 0.0031018057 0.11442624 0.030658623 -0.009489678 0.024150161
-0.05172346 0.108860455 0.15667775 0.08650835 0.18610027 -0.09994465 0.05904612 0.02415309
0.08942135 -0.13340168 0.12024787 0.08265406 0.15056145 -0.07088781 0.044870295 0.08808392
-0.03062966 -0.061160803 -0.03897473 -0.1369249 0.043449245 -0.103110865 0.0043647224 -0.08003456
-0.093693905 -0.042699486 -0.05407911 -0.008609866 -0.0825135 0.07169558 0.11852466 0.089903265
0.06839918 -0.059141025 -0.18092443 -0.12171247 -0.11587553 0.0006029257 -0.10636049 -0.12794052
-0.02860589 0.03916132 -0.07536881 0.08402869 -0.27520528 -0.100221045 0.073512174 -0.04375585
0.04579519 0.15247923 -0.12957998 0.046407074 0.030936318 -0.21931508 0.046033602 -0.043195672
0.051600236 0.02849577 0.30341154 0.03696774 0.07567845 0.027848678 0.07121647 0.018780842
-0.017982125 -0.109183945 -0.13832083 -0.05816283 -0.11230309 0.19475168 -0.06219892 -0.038499158
-0.067742504 0.019491589 0.06019273 -0.015044187 0.10610115 -0.15245995 0.08995578 0.06901248
00000000: e512 d4bd 8646 0cbe 0dfe 11be 5985 b73d
00000010: e1d3 fcbd 5d48 133f 85a1 eebe ffc8 3cbc
00000020: e68b debe c806 abbe 3ec2 62be efe9 d2bc
00000030: b52f b4be 5414 883e bef7 a03e a54e bb3d
00000040: 2c9d 253e 079c 4f3d e55c 9f3d 1f86 c93e
00000050: aee1 8a3e 0e06 4dbe 7068 b4be e41f f7be
00000060: 4614 99be 8e60 e3be 2a0e e93d 35a9 0bbf
00000070: 6299 98be 7df4 e13d 1696 263e 6537 22be
00000080: 000f f7be 70df dfbd f529 343e b242 bdbe
00000090: 667b 133f fccd 373e 221a e63e 5a24 b23e
000000a0: f843 13be 87bb 953e fe5e a3be ef84 fe3b
000000b0: ce21 7e3b a5f0 75be 23c6 193f b1c0 e73d
000000c0: 86f0 093e 35a4 dfbd f44c b1be 3a72 dbbe
000000d0: a4e9 583e a2dc ac3e e3be f73e d1c1 633c
000000e0: 0ebb 203f cbda 2fbe c12e 15bc 8a98 d23d
000000f0: 1360 1c3e c193 d4be 38e1 863e 8647 c63e
00000100: bdfa 8d3e 1220 a8be b080 303e 8d5a 06be
00000110: 677f 78bd a8e7 0bbf 19e8 503e c768 c9be
00000120: 14d6 88be f9c0 9abe 16d7 ffbd 97ef fbbc
00000130: de53 4a3d 4cbe 3cbe e087 8ebc 85c5 4c3e
00000140: 3fd3 973c 0e73 12bc 1148 e13e d32b 073e
00000150: 1ef9 04be e61c 39be 9d2f efbe 1ce1 ecbe
00000160: 3e3b 8bbe 6e56 873e d93e f0bd baaa 06bf
00000170: e713 a0be 9c37 40bb dc11 13be 844a 343e
00000180: b591 fdbe cca2 64be 57e4 af3e 69c0 d73d
00000190: ff16 a5bd cdef 753e dd3e 7fbe 23fe c33d
000001a0: d79f b23e 6135 01bf be6a a03e 086d 103d
000001b0: c518 9ebc a9d8 ad3e 0ade 0d3f bbfa cabd
000001c0: f9eb 6bbe 8875 a03e 920c 753c ee89 1d3e
000001d0: 2bd7 8fbe 4a7c 90be 65a7 41be 94df 793d
000001e0: fe67 ddbe a13c 973e 407c bfbe 8d25 d33d
000001f0: 2600 fbbd 9109 2d3d 74f2 8e3d a679 7b3d
00000200: 697d 1dbc 8e28 c73d 0c3c 85bd c362 453d
00000210: 7b5e 3abe e2ea fbbd 08b0 6abd 3180 82bd
00000220: 6766 03be 8f24 a33c 2fed bf3c 0b0a f43b
00000230: 7dac f9bd af45 473d 0cd1 d8bc 3f66 d73d
00000240: 2238 3c3d d2ab 07bd 92f6 8f3d 2967 d2bd
00000250: d8ce 1fbe e781 6dbe bc4f 453c 12f9 1bbe
00000260: 67f9 6fbc 8a78 f7bd 7d9b ee3b a5c9 20bc
00000270: cf58 15be 9c76 833d b4d5 473d 90af ebbd
00000280: 80c2 143e 47b3 28ba 6998 5d3e 1d65 663d
00000290: 9b0d 233d 0892 c43c ab88 113d 6bc8 21bd
000002a0: 2c64 b93c 597e 563c 3879 283e aa47 4b3b
000002b0: 4e58 ea3d cb27 fb3c 987a 1bbc 8fd6 c53c
000002c0: fbdb 53bd 3bf2 de3d 2270 203e 4a2b b13d
000002d0: 1291 3e3e c8af ccbd 58da 713d b3dc c53c
000002e0: 8a22 b73d 739a 08be 8444 f63d 8846 a93d
000002f0: c82c 1a3e a12d 91bd eac9 373d 5865 b43d
00000300: 0deb fabc c083 7abd f7a3 1fbd 0a36 0cbe
00000310: d6f7 313d ca2b d3bd f205 8f3b 29e9 a3bd
00000320: 97e2 bfbd a8e5 2ebd 0f82 5dbd 6510 0dbc
00000330: d6fc a8bd 22d5 923d 0fbd f23d 341f b83d
00000340: df14 8c3d dc3d 72bd 4144 39be 6344 f9bd
00000350: 2650 edbd a90d 1e3a 87d3 d9bd d702 03be
00000360: e656 eabc 9f67 203d f65a 9abd 3c17 ac3d
00000370: b5e7 8cbe b140 cdbd 8d8d 963d 5639 33bd
00000380: bd93 3b3d 8423 1c3e 9db0 04be 5815 3e3d
00000390: 296e fd3c 2294 60be bb8d 3c3d f2ed 30bd
000003a0: c55a 533d f66f e93c c258 9b3e 7c6b 173d
000003b0: 4efd 9a3d e922 e43c f1d9 913d 48da 993c
000003c0: 404f 93bc d59b dfbd faa3 0dbe 263c 6ebd
000003d0: 2aff e5bd fc6c 473e 4bc4 7ebd 4bb1 1dbd
000003e0: 95bc 8abd d3ac 9f3c a78c 763d e57b 76bc
000003f0: 8f4b d93d 761e 1cbe bc3a b83d 6a56 8d3d

encoder.rnn.weight_hh_l0_reverse f4 [48, 16]
-0.18685964 0.10992658 -0.09408738 0.22072864 -0.08687096 0.022543704 -0.09748437 0.06616861
0.011745138 -0.08553929 0.20741856 -0.08831403 0.030944036 -0.045059957 -0.18032794 -0.13982433
0.3628375 -0.039611105 -0.3127451 -0.063162 -0.25231597 0.14417017 -0.3012718 0.28567484
-0.20238417 -0.29709223 -0.0029517072 0.15038002 -0.0922467 -0.030276787 0.19455022 -0.42050582
0.19794399 -0.2911078 0.14225452 -0.24861203 0.17958462 -0.13043536 0.17368823 -0.16861394
-0.13422632 0.17019899 -0.32083753 0.2737626 -0.3362126 0.17475152 -0.18013638 0.13617922
0.42982063 -0.05780523 -0.41331327 -0.13432689 -0.38226128 0.32849887 -0.37450555 0.35139525
-0.3020272 -0.37866032 -0.106957495 0.3375554 -0.14717107 -0.19996588 0.29750058 -0.28098097
0.81616575 -0.15328898 0.20671806 -0.13645695 0.18296486 -0.056132674 0.21348634 -0.25287962
-0.28676137 0.22431518 -0.3948477 -0.047942154 -0.21030088 0.17098951 -0.40149286 0.25764337
0.046210676 0.13882533 0.51867837 0.13111922 0.5121142 -0.17031424 0.5165848 -0.4882186
0.0065379418 0.50206095 -0.06845639 -0.3563999 0.19766048 0.08417692 -0.52636695 0.541639
0.14081292 -0.46064728 -0.045080304 -0.4483411 0.018649638 0.06766345 -0.019426124 0.023359824
-0.10598336 -0.049362194 -0.4047141 0.47473347 -0.49575546 -0.01696041 0.03370811 -0.050272718
0.1049553 -0.4180289 -0.15265265 -0.42840585 -0.08659839 0.15128502 -0.13262561 0.13666703
-0.09094223 -0.16212642 -0.3192687 0.71010303 -0.44868985 -0.12929739 0.16634348 -0.10198055
-0.1885779 0.013050093 -0.21230002 0.21364889 -0.13719857 0.059675492 -0.2298312 0.25557783
0.29280344 -0.23639642 0.0005395192 0.239861 -0.15136434 -0.0003970748 0.3614934 -0.16842836
0.14657822 -0.33352867 -0.19188872 -0.35518196 -0.1587838 0.20246968 -0.19328962 0.20428659
-0.08613658 -0.18484561 -0.2723105 0.8296993 -0.34645692 -0.16094722 0.20254406 -0.062976606
0.10150609 -0.06529925 -0.35343352 0.0026306927 -0.27619654 0.19321278 -0.34947485 0.35139507
0.056276426 -0.35756096 -0.016924683 0.20324641 -0.15850161 -0.10194098 0.258954 -0.36015126
0.25383762 -0.16834556 -0.10960103 -0.15175161 -0.101290815 0.07276209 -0.111582525 0.12236265
-0.3923736 -0.10438246 -0.18493147 -0.042082082 -0.19895835 -0.017702753 -0.06472236 -0.45279932
0.25862795 -0.021239728 -0.19018678 -0.06306785 -0.14703996 0.046431117 -0.22091849 0.20122494
-0.19743253 -0.20146376 -0.0670587 0.08951417 -0.04552834 0.0971481 0.12357276 -0.37814593
0.40352342 -0.36405712 0.26382956 -0.4466805 0.29565367 -0.21142125 0.2646238 -0.29375917
-0.36373642 0.28170085 -0.42928505 0.07569228 -0.2510165 0.32479617 -0.27068388 0.2839261
0.12493534 -0.09396118 -0.17687029 -0.08146676 -0.10884904 0.13009615 -0.19366422 0.19039764
0.0012839037 -0.19270946 0.03342772 0.118434206 -0.09945134 -0.12878007 0.21126787 -0.26590022
0.20715956 -0.29725888 -0.3076379 -0.28173187 -0.19985919 0.14960226 -0.313072 0.29676622
-0.22460078 -0.31019273 -0.19358225 0.39645916 -0.32587636 0.018674536 0.23525873 -0.29546383
00000000: 2258 3fbe 3021 e13d e2b0 c0bd b006 623e
00000010: 67e9 b1bd 93ad b83c e3a5 c7bd 6883 873d
00000020: ae6e 403c 392f afbd 8865 543e fcdd b4bd
00000030: 597e fd3c ca90 38bd e3a7 38be 1c2e 0fbe
00000040: d6c5 b93e 413f 22bd 2020 a0be 145b 81bd
00000050: 8f2f 81be 58a1 133e 4c40 9abe f943 923e
00000060: cc3d 4fbe 791c 98be 6e71 41bb 38fd 193e
00000070: d6eb bcbd 0607 f8bc 2c38 473e 8a4c d7be
00000080: d4b1 4a3e 150c 95be 2bab 113e 2794 7ebe
00000090: 08e5 373e d990 05be 54db 313e 22a9 2cbe
000000a0: a072 09be a548 2e3e d144 a4be 9d2a 8c3e
000000b0: 0f24 acbe 10f2 323e ac75 38be 9172 0b3e
000000c0: 7311 dc3e 2dc5 6cbd cc9d d3be fd8c 09be
000000d0: c0b7 c3be 0131 a83e 31bf bfbe 14ea b33e
000000e0: 4fa3 9abe c4df c1be 880c dbbd 10d4 ac3e
000000f0: 03b4 16be dbc3 4cbe ff51 983e bddc 8fbe
00000100: 3df0 503f c9f7 1cbe e6ad 533e 5fbb 0bbe
00000110: 245b 3b3e 60eb 65bd 2a9c 5a3e 7079 81be
00000120: 63d2 92be e1b2 653e 7a29 cabe fe5e 44bd
00000130: 1d59 57be e017 2f3e 7990 cdbe d5e9 833e
00000140: 6847 3d3d 3a28 0e3e 1bc8 043f 1e44 063e
00000150: eb19 033f db66 2ebe e73e 043f caf7 f9be
00000160: 3b3c d63b 1187 003f dd32 8cbd 0c7a b6be
00000170: 8267 4a3e f364 ac3d fcbf 06bf daa8 0a3f
00000180: 4331 103e f6d9 ebbe 20a6 38bd f78c e5be
00000190: 20c7 983c 2393 8a3d 8923 9fbc 1a5d bf3c
000001a0: ce0d d9bd 0330 4abd b036 cfbe 4410 f33e
000001b0: a9d3 fdbe 8ff0 8abc 8411 0a3d c4ea 4dbd
000001c0: cef2 d63d e207 d6be fa50 1cbe 0358 dbbe
000001d0: 7f5a b1bd 76ea 1a3e 02cf 07be 71f2 0b3e
000001e0: eb3f babd 7804 26be 3077 a3be 50c9 353f
000001f0: adba e5be 8966 04be f255 2a3e 2edb d0bd
00000200: 911a 41be 0fd0 553c 2d65 59be c6c6 5a3e
00000210: c87d 0cbe 4a6e 743d df58 6bbe 19db 823e
00000220: 55ea 953e e711 72be 856e 0d3a 1f9e 753e
00000230: 41ff 1abe 7a2e d0b9 aa15 b93e 7c78 2cbe
00000240: 9a18 163e 45c4 aabe 7a7e 44be 69da b5be
00000250: 3898 22be 3654 4f3e b7ed 45be 8130 513e
00000260: 6068 b0bd 2b48 3dbe 486c 8bbe 2c67 543f
00000270: cd62 b1be 59cf 24be b667 4f3e e1f9 80bd
00000280: 6de2 cf3d 9dbb 85bd 3df5 b4be b367 2c3b
00000290: a269 8dbe 92d9 453e 5eee b2be 0eea b33e
000002a0: 1c82 663d 3b12 b7be a2a5 8abc d41f 503e
000002b0: 3f4e 22be 6fc6 d0bd 9e95 843e bf65 b8be
000002c0: 01f7 813e c762 2cbe 8176 e0bd c664 1bbe
000002d0: 8f71 cfbd 4a04 953d 6185 e4bd 4599 fa3d
000002e0: 31e5 c8be 79c6 d5bd ad5e 3dbe 435e 2cbd
000002f0: bdbb 4bbe 5d05 91bc 288d 84bd 50d5 e7be
00000300: e26a 843e f0fe adbc 53c0 42be b829 81bd
00000310: a591 16be 8e2e 3e3d 7538 62be e90d 4e3e
00000320: c12b 4abe 844c 4ebe 1256 89bd 3553 b73d
00000330: ed7b 3abd 95f5 c63d b713 fd3d 589c c1be
00000340: 9f9a ce3e b265 babe ab14 873e 4eb3 e4be
00000350: eb5f 973e d07e 58be c57c 873e 9a67 96be
00000360: a93b babe 183b 903e 40cb dbbe 8e04 9b3d
00000370: 3c85 80be af4b a63e 1497 8abe c35e 913e
00000380: 19de ff3d b86e c0bd 7c1d 35be 0bd8 a6bd
00000390: 3fec debd ed37 053e ea4f 46be 99f7 423e
000003a0: a948 a83a a155 45be 81eb 083d a28d f23d
000003b0: 25ad cbbd ecde 03be 9b56 583e 1324 88be
000003c0: a321 543e 5132 98be b782 9dbe 293f 90be
000003d0: e3a7 4cbe 5631 193e f94a a0be bef1 973e
000003e0: bffd 65be 95d1 9ebe 6d3a 46be b2fc ca3e
000003f0: 44d9 a6be 57fb 983c aae7 703e 0947 97be

encoder.rnn.bias_ih_l0_reverse f4 [48]
-0.049191695 0.118801095 0.1967168 -0.0179134 0.16632734 0.19509937 0.062253278 -0.015500734
0.14140205 -0.048473794 0.1423728 0.09857251 0.2550397 0.25324255 -0.06398088 0.051024467
-0.23330042 -0.21664205 -0.32797745 -0.25936827 -0.25772545 -0.18735269 -0.3418356 -0.40755287
-0.094749056 -0.3802036 -0.18129039 -0.27850887 -0.22552402 -0.29514608 -0.27126217 -0.18836851
-0.01691778 -0.13369231 0.026028166 -0.11391085 0.05623411 -0.14748368 -0.023285294 0.062236022
-0.08043538 -0.050667334 -0.1335037 0.107721895 -0.12052545 0.15015772 0.101749875 0.01216832
00000000: 3b7d 49bd fd4d f33d 2170 493e 1fbf 92bc
00000010: b751 2a3e 21c8 473e 4bfd 7e3d caf6 7dbc
00000020: b3cb 103e 758c 46bd 2dca 113e 62e0 c93d
00000030: 9094 823e 02a9 813e 6808 83bd 08ff 503d
00000040: 4ee6 6ebe 6ad7 5dbe a9ec a7be ebcb 84be
00000050: 97f4 83be 62d9 3fbe 1305 afbe c5aa d0be
00000060: cb0b c2bd 0caa c2be 30a4 39be b798 8ebe
00000070: c5ef 66be 631d 97be e0e2 8abe ade3 40be
00000080: 2897 8abc a3e6 08be 0539 d53c 174a e9bd
00000090: bd55 663d f605 17be cdc0 bebc 33eb 7e3d
000000a0: 4ebb a4bd 8d88 4fbd 32b5 08be 4c9d dc3d
000000b0: 0cd6 f6bd f2c2 193e 3d62 d03d a25d 473c

encoder.rnn.bias_hh_l0_reverse f4 [48]
-0.049191687 0.118801005 0.19671677 -0.017913414 0.16632728 0.19509935 0.062253255 -0.015500773
0.1414021 -0.048473828 0.14237282 0.09857251 0.25503978 0.2532425 -0.06398088 0.051024497
-0.23330045 -0.2166421 -0.32797742 -0.25936833 -0.25772542 -0.18735267 -0.3418356 -0.40755293
-0.09474912 -0.38020372 -0.18129048 -0.2785089 -0.22552402 -0.29514605 -0.27126217 -0.1883686
0.07924343 -0.21541132 0.032341048 -0.14151338 0.12907776 -0.14669156 -0.004898363 0.022473183
-0.06932012 -0.007906106 -0.19380362 0.123724 -0.1823231 0.09582929 0.07437638 -0.0062638773
00000000: 397d 49bd f14d f33d 1f70 493e 27bf 92bc
00000010: b351 2a3e 20c8 473e 45fd 7e3d f4f6 7dbc
00000020: b6cb 103e 7e8c 46bd 2eca 113e 62e0 c93d
00000030: 9394 823e 00a9 813e 6808 83bd 10ff 503d
00000040: 50e6 6ebe 6dd7 5dbe a8ec a7be edcb 84be
00000050: 96f4 83be 61d9 3fbe 1305 afbe c7aa d0be
00000060: d40b c2bd 10aa c2be 36a4 39be b898 8ebe
00000070: c5ef 66be 621d 97be e0e2 8abe b3e3 40be
00000080: 614a a23d c994 5cbe 0c78 043d e2e8 10be
00000090: f62c 043e 5036 16be 7282 a0bb ae19 b83c
000000a0: b5f7 8dbd 9d88 01bc 7574 46be 0263 fd3d
000000b0: e8b2 3abe 2642 c43d a552 983d 3641 cdbb

encoder.fc.weight f4 [16, 32]
-0.0008905607 0.01611242 -0.013176777 0.096418254 0.0135644125 0.05923462 -0.00023082671 -0.0119999675
0.0010426363 -0.02106425 0.051965695 -0.020676916 -0.019928228 -0.008035176 0.007542221 -0.02503845
0.20841807 -0.023545925 -0.17173272 -0.1268115 -0.10718709 0.105665036 -0.18223374 0.20599397
-0.14245126 -0.28046992 -0.0021439362 0.011676139 0.005852452 -0.11195109 0.24898088 0.009403996
0.078353696 -0.078667834 0.081497915 0.18084288 -0.07859744 -0.20084426 -0.07949888 0.08171258
-0.09409987 0.09069826 -0.069458395 0.08800832 0.09618311 0.092063256 -0.07292727 0.087983236
0.062852725 -0.14168383 -0.014135359 -0.14566888 0.021781497 -0.024167314 -0.021188445 0.04448198
-0.12834093 -0.076580994 -0.11977257 0.1287961 -0.11875845 0.058415946 0.15429947 -0.17182791
0.08797117 -0.09795925 0.09394299 0.19856031 -0.06792569 -0.12248725 -0.10570471 0.0999823
-0.08796286 0.09607421 -0.07543484 0.09103883 0.11502988 0.10738043 -0.0916209 0.09753748
0.053575713 -0.1268959 -0.09144075 -0.1337996 -0.049201947 -0.007839967 -0.08105213 0.08323606
-0.11712386 -0.10300006 -0.13444872 0.12335018 -0.12305618 0.046641625 0.1254127 -0.15054093
-0.094806954 0.1280405 -0.14196636 0.121494584 0.13003981 -0.031836126 0.118038446 -0.055423044
0.11934639 -0.11812626 0.08313933 -0.12391396 -0.09793711 -0.09112471 0.13355269 -0.08483829
0.20705095 -0.12963101 -0.8609023 -0.21528122 -0.85013974 0.47516337 -0.85537475 0.7920427
-0.12788478 -0.73464525 -0.081622384 0.11081189 -0.080177076 -0.35814875 0.39951983 -0.16604966
0.1460834 -0.15689048 0.1459525 0.1628707 -0.14548485 -0.05928854 -0.14144689 0.121372625
-0.1595834 0.15706396 -0.11391961 0.15270314 0.15677208 0.15532151 -0.14116766 0.13698141
0.07761717 -0.120203875 0.03073513 -0.15434568 0.077432014 -0.119821474 0.00081178115 0.018785693
-0.14828858 -0.036035012 -0.16569269 0.13210128 -0.10898492 0.1250899 0.1006577 -0.06839127
-0.11445852 0.123342514 -0.13413504 0.011048823 0.13422358 0.12858745 0.110547215 -0.11364456
0.12874575 -0.11264863 0.1050932 -0.11069772 -0.08419892 -0.09548097 0.12526914 -0.102381326
-0.10587916 -0.027730167 -0.20646255 -0.012789442 -0.17038944 0.35227436 -0.19256485 0.18897974
0.016193211 -0.16624512 0.027997786 0.023471253 -0.028713211 -0.3001381 0.110815264 -0.096179694
-0.102372654 0.103087954 -0.096021995 -0.181343 0.07027501 0.08493826 0.09999681 -0.104271
0.10129093 -0.08590872 0.07731368 -0.100730136 -0.104287505 -0.10230326 0.08623487 -0.08570559
-0.08903908 0.1044815 0.042577114 0.13788597 0.027346585 0.026522113 0.04763662 -0.06467913
0.1409414 0.06843223 0.11617865 -0.11882801 0.11731849 -0.07615576 -0.085046455 0.13846318
-0.108043276 0.09836487 -0.10371339 -0.17954431 0.10321928 0.05964915 0.103651665 -0.123906635
0.09686677 -0.08372037 0.0873332 -0.087216295 -0.114375725 -0.109292515 0.101257935 -0.09403886
-0.04664763 0.12308337 0.041587528 0.12773272 -0.008008071 0.0033781943 0.05528013 -0.043909658
0.09479636 0.06140915 0.11587545 -0.1301621 0.114070825 -0.06773042 -0.11353763 0.10896798
00000000: 8474 69ba 32fe 833c 69e3 57bc ef76 c53d
00000010: 453d 5e3c 00a0 723d 130a 72b9 839b 44bc
00000020: 12a9 883a ef8e acbc fbd9 543d a362 a9bc
00000030: 8640 a3bc f9a5 03bc bc24 f73b 6f1d cdbc
00000040: 8c6b 553e 62e3 c0bc b4da 2fbe e0da 01be
00000050: e884 dbbd e966 d83d 7b9b 3abe 15f0 523e
00000060: bede 11be c199 8fbe 4881 0cbb 474d 3f3c
00000070: edc5 bf3b 9d46 e5bd d8f4 7e3e 3813 1a3c
00000080: e777 a03d 9a1c a1bd 61e8 a63d e02e 393e
00000090: b2f7 a0bd 1eaa 4dbe 4fd0 a2bd ed58 a73d
000000a0: 6fb7 c0bd 02c0 b93d 3440 8ebd b53d b43d
000000b0: a6fb c43d a98b bc3d e45a 95bd 8e30 b43d
000000c0: eeb8 803d 9115 11be fe97 67bc 392a 15be
000000d0: 1c6f b23c 88fa c5bc 6493 adbc bd32 363d
000000e0: ce6b 03be 7fd6 9cbd 524b f5bd 20e3 033e
000000f0: a137 f3bd 8f45 6f3d ae00 1e3e a8f3 2fbe
00000100: 3b2a b43d dc9e c8bd 2f65 c03d 6553 4b3e
00000110: a01c 8bbd 98da fabd b67b d8bd 85c3 cc3d
00000120: df25 b4bd 8ec2 c43d 957d 9abd 9172 ba3d
00000130: c994 eb3d 45ea db3d bda3 bbbd bbc1 c73d
00000140: 3572 5b3d 00f1 01be 4a45 bbbd c302 09be
00000150: fb87 49bd 3473 00bc a9fe a5bd ab77 aa3d
00000160: a2de efbd b2f1 d2bd edac 09be 059f fc3d
00000170: e104 fcbd 4a0b 3f3d 306c 003e 6727 1abe
00000180: 262a c2bd 0d1d 033e a15f 11be 27d2 f83d
00000190: 2829 053e 9966 02bd 24be f13d 4603 63bd
000001a0: e16b f43d 2eec f1bd f444 aa3d 9ac6 fdbd
000001b0: 4093 c8bd 989f babd 09c2 083e b3bf adbd
000001c0: 2a05 543e febd 04be 1864 5cbf ae72 5cbe
000001d0: c2a2 59bf 9d48 f33e d7f9 5abf 4fc3 4a3f
000001e0: 3af4 02be b611 3cbf a329 a7bd 58f1 e23d
000001f0: e133 a4bd 465f b7be dd8d cc3e ec08 2abe
00000200: e396 153e e6a7 20be 9274 153e 94c7 263e
00000210: fbf9 14be 8ad8 72bd 74d7 10be 3692 f83d
00000220: d569 23be 60d5 203e af4e e9bd 365e 1c3e
00000230: dc88 203e 9a0c 1f3e 418e 10be db44 0c3e
00000240: c0f5 9e3d 732d f6bd 3dc8 fb3c cb0c 1ebe
00000250: ad94 9e3d f664 f5bd b6cd 543a 74e4 993c
00000260: f6d8 17be 7399 13bd 58ab 29be 8f45 073e
00000270: 7c33 dfbd 9117 003e a025 ce3d b910 8cbd
00000280: 3b69 eabd 009b fc3d b25a 09be 1f06 353c
00000290: e871 093e 6eac 033e 9466 e23d 7bbe e8bd
000002a0: edd5 033e 53b4 e6bd 1b3b d73d 7cb5 e2bd
000002b0: 7c70 acbd 878b c3bd 8e46 003e 4dad d1bd
000002c0: 2cd7 d8bd 602a e3bc eb6a 53be cf8a 51bc
000002d0: 927a 2ebe 4e5d b43e b82f 45be e883 413e
000002e0: a0a7 843c 293c 2abe 9d5b e53c c946 c03c
000002f0: f837 ebbc b3ab 99be 1df3 e23d dcf9 c4bd
00000300: c1a8 d1bd c71f d33d 2ea7 c4bd fbb1 39be
00000310: 58ec 8f3d 1cf4 ad3d 21cb cc3d 098c d5bd
00000320: 9e71 cf3d e9f0 afbd a256 9e3d 9a4b cebd
00000330: b094 d5bd 5f84 d1bd e89b b03d 6a86 afbd
00000340: 1f5a b6bd 66fa d53d 5765 2e3d fb31 0d3e
00000350: f205 e03c e744 d93c 9e1e 433d 7e76 84bd
00000360: f152 103e 3226 8c3d 12ef ed3d 1a5c f3bd
00000370: ad44 f03d 8df7 9bbd d62c aebd 4bc9 0d3e
00000380: cb45 ddbd 8573 c93d b067 d4bd 77da 37be
00000390: a164 d33d ab52 743d 5347 d43d c3c2 fdbd
000003a0: 1662 c63d 9675 abbd c0db b23d 759e b2bd
000003b0: d23d eabd c1d4 dfbd 5260 cf3d 7297 c0bd
000003c0: 9611 3fbd 2213 fc3d af57 2a3d 5ecc 023e
000003d0: 4934 03bc b264 5d3b 6b6d 623d 9dda 33bd
000003e0: 9824 c23d 2988 7b3d 1c50 ed3d 3749 05be
000003f0: f79d e93d 3fb6 8abd 6b86 e8bd 9b2a df3d

encoder.fc.bias f4 [16]
-0.028139211 0.07119669 0.07188857 -0.11796595 0.116934806 -0.10986396 -0.07510388 -0.079480216
0.05819364 0.07827779 -0.085473694 0.092761755 -0.0064870548 0.05509047 0.114009656 0.10424395
00000000: 3484 e6bc 92cf 913d 513a 933d 2298 f1bd
00000010: 847b ef3d 5b00 e1bd 10d0 99bd 86c6 a2bd
00000020: 745c 6e3d 1b50 a03d d50c afbd e0f9 bd3d
00000030: 5c91 d4bb 8ba6 613d e57d e93d da7d d53d

decoder.attention.attn.weight f4 [16, 48]
0.22638214 0.53180486 0.07221326 0.06045954 0.5720019 0.2012486 -0.42002258 -0.34392273
-0.33787167 0.39709792 -0.6092409 0.08539556 0.3884861 -0.17948087 0.12653252 -0.104562275
0.018741054 0.013310898 -0.009191871 0.045783646 -0.0068627987 -0.14191021 0.0068292296 -0.023435809
-0.029803135 -0.0046371804 0.021243459 -0.004673033 -0.009646417 0.035633665 0.0052619386 -0.0131897
0.058074243 -0.05482657 -0.02022573 -0.021942766 0.002265056 -0.04878483 -0.013683767 -0.00344523
-0.033314727 -0.0061660325 -0.08048105 0.016569037 -0.036618527 0.07712526 0.020817976 0.004026239
0.6126142 0.8543931 0.54155236 0.08135188 0.4442339 0.5858165 -0.9008903 -0.6285878
0.19194606 0.72566605 -0.50104797 0.38615826 0.12325661 -0.084019266 -0.053936873 0.3248319
0.0324501 0.11328203 0.012272783 0.37754554 0.090940475 -0.3202891 0.028628498 -0.17045656
-0.0030476663 0.018268816 0.16892013 -0.005972741 -0.06029642 0.117375545 -0.0087576 -0.13476683
0.27318126 -0.3122112 0.11586937 -0.118834816 0.12735747 -0.04466113 0.120710604 -0.102107815
-0.2650056 0.09666761 -0.21280365 -0.43564373 -0.31664252 0.12791544 -0.087491445 -0.33410212
0.022550615 -0.3976147 0.085221194 -0.017155016 -0.4697957 -0.3642833 0.3555402 -0.04836675
0.6419357 -0.19761981 0.5907398 0.42905873 -0.45563236 0.073594436 -0.034509502 0.438466
-0.030161453 0.0046872306 -0.010507371 0.013385914 0.036983207 0.11997164 0.012412938 0.008711715
0.08244717 -0.018877974 -0.0023663216 -0.00606022 -0.019909984 -0.04293384 0.030591853 0.0032765581
-0.20748071 0.024384264 -0.11385861 0.022307416 -0.13724135 0.23637465 -0.08416527 0.10957507
0.1308101 -0.11648314 0.070905246 0.07248709 -0.0002918524 -0.33445463 0.020831358 -0.03522271
0.16395688 0.25960612 -0.020730564 -0.0448696 0.34156525 0.16316152 -0.18917136 -0.114160635
-0.5212173 0.18641368 -0.57144636 -0.21204142 0.22107266 -0.17765926 -0.057172727 -0.2838419
0.014801506 -0.018358275 0.009708542 -0.07711441 0.007884877 -0.09048159 -0.012129245 -0.023088975
-0.04823119 -0.0026284305 -0.0003312477 -0.010506948 0.014434885 0.017120225 -0.005709759 -0.0063068066
0.2081483 -0.049334116 0.058941327 -0.048106354 0.08107563 -0.12003958 0.063500874 -0.070170015
-0.14894122 0.0797279 -0.10018901 -0.03886977 -0.0129209785 0.17561252 -0.025191495 0.017973557
0.51019144 0.407351 0.23430386 -0.07056956 0.3938978 0.06330321 -0.31997985 -0.678742
0.15306412 0.43186405 0.2170359 0.4732993 0.28058982 -0.34281355 0.43528196 0.30243936
0.24942265 -0.14070654 0.21243852 -0.030219784 0.021293003 -0.0046797325 -0.08374879 0.07213719
-0.023291752 -0.09197916 -0.11921536 -0.083651684 0.16393554 0.16328792 -0.12265183 0.05992294
0.42736945 -0.38701886 0.0625695 -0.47989258 0.123338506 -0.28592122 0.0688751 -0.048930485
-0.5128847 0.03815049 -0.70828414 0.14691599 -0.40477273 0.32435614 0.011083373 -0.014367184
0.01050892 -0.42618138 0.109278806 -0.043674905 -0.514417 -0.5335961 0.32584342 -0.042773128
0.69744325 -0.2587285 0.8370864 0.43819273 -0.6671821 0.104253285 0.04436913 0.5158893
00000000: b8d0 673e 5d24 083f 8ce4 933d 6ca4 773d
00000010: b76e 123f 1d14 4e3e 330d d7be a416 b0be
00000020: 84fd acbe 6b50 cb3e 36f7 1bbf dee3 ae3d
00000030: a6e7 c63e d5c9 37be be91 013e bf24 d6bd
00000040: d786 993c f415 5a3c 8099 16bc a287 3b3d
00000050: 54e1 e0bb e950 11be bbc7 df3b 74fc bfbc
00000060: b425 f4bc 7df3 97bb c306 ae3c 3e20 99bb
00000070: 010c 1ebc 9bf4 113d 576c ac3b 9d19 58bc
00000080: 42df 6d3d d391 60bd 6eb0 a5bc 51c1 b3bc
00000090: 5571 143b 9ad2 47bd e131 60bc 5ec9 61bb
000000a0: 0675 08bd 6e0c cabb 40d3 a4bd cabb 873c
000000b0: 4ffd 15bd d9f3 9d3d 768a aa3c 8aee 833b
000000c0: 49d4 1c3f 82b9 5a3f 2da3 0a3f d19b a63d
000000d0: a072 e33e 12f8 153f bfa0 66bf 21eb 20bf
000000e0: 828d 443e 40c5 393f ae44 00bf 89b6 c53e
000000f0: f66d fc3d 4b12 acbd e9ec 5cbd 5e50 a63e
00000100: 65ea 043d 6900 e83d c813 493c a64d c13e
00000110: 003f ba3d effc a3be 5086 ea3c 2a8c 2ebe
00000120: 5bbb 47bb 7ca8 953c 66f9 2c3e fcb6 c3bb
00000130: 61f9 76bd 9762 f03d 097c 0fbc 5100 0abe
00000140: 6ade 8b3e 25da 9fbe ec4c ed3d ab5f f3bd
00000150: ff69 023e 97ee 36bd 1f37 f73d e71d d1bd
00000160: d0ae 87be abf9 c53d 33e9 59be b20c dfbe
00000170: f81e a2be 44fc 023e b72e b3bd 6f0f abbe
00000180: 11bc b83c 2794 cbbe 7388 ae3d ad88 8cbc
00000190: 1089 f0be 5783 babe 5d09 b63e 371c 46bd
000001a0: e655 243f d95c 4abe b93a 173f 96ad db3e
000001b0: a548 e9be aeb8 963d d659 0dbd 9e7e e03e
000001c0: 2715 f7bc 5797 993b 1c27 2cbc 9850 5b3c
000001d0: b47b 173d b1b3 f53d a35f 4b3c 95bb 0e3c
000001e0: 10da a83d fba5 9abc 4a14 1bbb cf94 c6bb
000001f0: 431a a3bc 65db 2fbd c49b fa3c 86bb 563b
00000200: d375 54be 82c1 c73c b42e e9bd 0bbe b63c
00000210: ff88 0cbe 320c 723e d75e acbd e568 e03d
00000220: 15f3 053e b68e eebd c536 913d 1d74 943d
00000230: c403 99b9 a33d abbe 86a6 aa3c b045 10bd
00000240: 50e4 273e 18eb 843e 25d3 a9bc 30c9 37bd
00000250: a4e1 ae3e d013 273e 23b6 41be 0dcd e9bd
00000260: 7f6e 05bf 3ae3 3e3e 4f4a 12bf 6321 59be
00000270: df60 623e 4fec 35be f32d 6abd ba53 91be
00000280: 0482 723c 1864 96bc 9410 1f3c 29ee 9dbd
00000290: 922f 013c 694e b9bd beb9 46bc 1725 bdbc
000002a0: 118e 45bd bf41 2cbb 50ab adb9 5625 2cbc
000002b0: 4c80 6c3c b73f 8c3c ee18 bbbb 54a9 cebb
000002c0: d424 553e 9212 4abd 766c 713d 2b0b 45bd
000002d0: fb0a a63d 50d7 f5bd bf0c 823d 4cb5 8fbd
000002e0: 0c84 18be 6248 a33d e52f cdbd e835 1fbd
000002f0: 83b2 53bc c5d3 333e 655e cebc 483d 933c
00000300: e89b 023f 4f90 d03e 5aed 6f3e c686 90bd
00000310: f9ac c93e 1da5 813d 66d4 a3be 09c2 2dbf
00000320: d7bc 1c3e 491d dd3e a93e 5e3e 4954 f23e
00000330: 78a9 8f3e 4285 afbe 47dd de3e 55d9 9a3e
00000340: a768 7f3e 6015 10be 7c89 593e 7b8f f7bc
00000350: aa6e ae3c 7158 99bb 7c84 abbd aabc 933d
00000360: 58ce bebc 925f bcbd 2f27 f4bd 9351 abbd
00000370: b8de 273e f334 273e e230 fbbd c271 753d
00000380: 2bd0 da3e 5627 c6be 7024 803d 7bb4 f5be
00000390: e698 fc3d 4464 92be 630e 8d3d 556b 48bd
000003a0: 694c 03bf b043 1c3d 1c52 35bf 2571 163e
000003b0: 5f3e cfbe 0212 a63e 0997 353c 5664 6bbc
000003c0: 9b2d 2c3c 7234 dabe 91cd df3d 75e4 32bd
000003d0: d5b0 03bf c199 08bf f3d4 a63e e032 2fbd
000003e0: a48b 323f 1078 84be 4b4b 563f cc5a e03e
000003f0: 72cc 2abf bf82 d53d 68bc 353d 5211 043f

decoder.attention.attn.bias f4 [16]
0.4717304 0.252283 -0.504419 0.27218014 0.35942876 -0.4526014 -0.4635413 0.06510689
-0.51115716 -0.2101618 -0.5326286 0.40416244 0.17277887 -0.20779699 -0.37065104 0.3585388
00000000: a686 f13e 3d2b 813e 9b21 01bf 325b 8b3e
00000010: 0c07 b83e 5fbb e7be 4955 edbe c356 853d
00000020: 32db 02bf a834 57be 595a 08bf 61ee ce3e
00000030: f2ec 303e bcc8 54be f9c5 bdbe 6692 b73e

decoder.attention.v.weight f4 [1, 16]
0.0075831446 0.56372523 0.16121796 -0.053802453 0.57522273 0.27071357 0.2100665 0.12103022
0.2316367 0.0804182 0.18299432 -0.1065625 -0.10048592 -0.938549 -0.7983312 -0.11109784
00000000: 077c f83b 4c50 103f 5216 253e f65f 5cbd
00000010: cc41 133f f89a 8a3e ac1b 573e b1de f73d
00000020: 2c32 6d3e 4cb2 a43d dd62 3b3e 713d dabd
00000030: 90cb cdbd bf44 70bf 6f5f 4cbf 4487 e3bd
