agl/models/autosave/tr-AE-150-18-0.001-A1.pt (torch, 147500 bytes, 21 tensors)

encoder.embedding.weight f4 [8, 150]
00000000: 79dc 533a bd7a 09bc 2f5e 7cbc 8e4b 45bb
00000010: 52d6 2dbc 853e c63b 4b16 2dba bb85 023c
00000020: 5dcb 2c3c 93c0 2ebc 7e9c 7a3c 405e 53bc
00000030: 4145 b9bb 579a 44bc 2303 83ba 057e 473c
00000040: 5415 513a 9e3d a7bb 5468 533c 16e4 08bb
00000050: 677a 99bb af88 54bc 0c56 7e3a 5551 55bc
00000060: bddb 603c 2e17 823c 7d49 5cbc bb2a 073a
00000070: 779e 40b8 5727 99bc 2b5f dd3b 0d72 92bc
00000080: 3e69 393c 0c69 0bbc 9925 25bc 9f9a a23b
00000090: cf05 56b9 1d6c 8bbc 3ab3 8cbb d0d2 b7bb
000000a0: 8eab fa3b ee11 74bb e501 b53a 901d a23b
000000b0: 1bfb 063c adda b03c dd8d 7a3c a9d9 ebba
000000c0: 4d2e cbbc 99ae ddba 6243 b4bb 7285 543c
000000d0: cb69 3a3b 4b50 d3b9 668f ac3b 0f20 533b
000000e0: b9f3 8fbc 4c1e 86bc 9784 41bc d3bc bf3b
000000f0: 6a3e dcbc cf89 9b3a cb9b 8fbc c59b 6c3a
00000100: 9016 273c 66a8 9cbb d356 c3bb bb99 28bc
00000110: a9d4 8bba 420d 6fba 1e9b 6f3c c60b 0bb9
00000120: ffde 8bbb b1bb 13bc 7c64 6ebb d0b4 6bbc
00000130: e60f 52ba f4c5 bf3b eae6 edbb 8f17 e33b
00000140: 8940 973c 2d00 3ebc bcdc 70bb a0c2 8bbb
00000150: bb51 01bb 2f81 213a e431 b9bb 458b 823c
00000160: 0956 eabb a00d d03a 6db7 42bb a9e5 34bc
00000170: 2c76 713c be1b cfbb 94cc aebb 62c5 b7bb
00000180: ecf2 fb3b de12 9cbc a79d 853c 2249 94ba
00000190: 1591 803c 5769 2d3b f27b 3fbc c4e9 623a
000001a0: d957 943b d95a 2e3b 26cf dbbb 203c 13bb
000001b0: 8f17 763c 3e17 e739 cbc8 c3bb 47a0 023c
000001c0: 65f7 c63b 944f bebc 8236 b63c 4bb8 efb9
000001d0: e246 bc3a 2b88 c5bc 7d75 12bc d6a8 93bb
000001e0: f4fd c83b c954 fe3a 9428 c1bc ca3e ac3b
000001f0: 8b0e 2bbb 25f1 733b 4cff 0cba 44b3 4a3b
00000200: 6921 9dbc 6535 283c c618 be3b d56d 483c
00000210: 54b4 cebb e8ef a13c 3409 c6b7 d5cb 75bc
00000220: 46c4 2d3b fec5 193c fe01 773b 36c6 193c
00000230: 0ef0 273b dbaf 403c 22e8 e6b5 3465 633b
00000240: 2413 d33b a509 4a3c 371e 1bbc 18f9 c7bb
00000250: 8f5c 883c a7c8 6ebb d6f2 893d 1bb9 1dbe
00000260: fb06 17be 136c 1bbe cd69 1fbe f9af 393e
00000270: 2b76 36be 1885 5c3e 2082 18bd fdf7 18be
00000280: 54c3 87bd 4e4a b1bd 9663 093e d4a3 acbd
00000290: bcd2 313e 413a 383e 9a27 b53d 5d8b 07be
000002a0: 0bbd dd3b 0fcc 95bd 771a 223e 90b9 83bc
000002b0: 79da a03c 3e82 5d3c 1e3b e2bd 732b 253e
000002c0: 235d 63be 3bf9 46be 1452 02be a356 483e
000002d0: a812 61be c92f f63d ec33 e63d 5153 403e
000002e0: de96 923d 01cb 49be ec11 643e 1a3c 0f3e
000002f0: 674b 203e 4837 363e 49ec b33d a3b8 82bd
00000300: b820 b93d d939 a8bd 9388 7fbd 1794 803c
00000310: d1ea 32be 4bba d8bd add0 513d 0b54 3c3e
00000320: e78f 4cbe a75c 133e 9ab6 e2bd d106 e9bd
00000330: 6326 cf3b 805f 4c3e a362 d73d 9175 973c
00000340: de09 f43d 966a 5ebd 8a8b 1b3e 4cb3 90bd
00000350: d078 2ebe 6a58 04be dc33 08be 55cb e73d
00000360: 275f f13d 61f4 393e f71f a53d dcef f83d
00000370: 7001 743d 9cb9 413e e8a4 d1bd 7f99 b73d
00000380: e2f9 c33c c818 f8bd e7d8 073d 2657 3f3d
00000390: 378e cebd 577c 613d 1cad 293e 7476 e93d
000003a0: 25ec c13d aacd 503e cbd7 873d 9fd2 b6bd
000003b0: 437e 03bb 2d87 50be 585e e1bd 8a41 4abe
000003c0: 16d2 16be e4ce 0fbe 5c66 80bd 50ac 40be
000003d0: f636 9ebd 1f04 41be c013 bd34 e098 533e
000003e0: d349 0d3e 622b 29be 0c31 a43d 6aea e23a
000003f0: 40b5 66bd 3cef bdbc 50a2 70bd 9da2 b1bd
0.0008081864 -0.0083910795 -0.0154033145 -0.0030104849 -0.01061018 0.0060499334 -0.0006602748 0.007966454
0.010546532 -0.01066603 0.0152961 -0.012900889 -0.0056540077 -0.011999688 -0.0009995442 0.0121760415
0.00079758954 -0.005103781 0.012903292 -0.0020887903 -0.004683781 -0.012972041 0.0009702153 -0.013019879
0.013724265 0.015880194 -0.013445255 0.00051562086 -4.592395e-05 -0.018695517 0.0067557297 -0.01787665
0.011316596 -0.008508932 -0.010079765 0.00496228 -0.00020410794 -0.017019326 -0.0042938264 -0.0056098476
0.0076498454 -0.0037242132 0.0013809769 0.004947372 0.008238579 0.021588648 0.015292612 -0.0017993945
-0.024802351 -0.0016912996 -0.0055011967 0.012971269 0.0028444405 -0.0004030488 0.005266118 0.0032215153
-0.01757227 -0.016371869 -0.011811397 0.005851367 -0.02688523 0.0011866632 -0.017530343 0.0009025897
0.01019825 -0.004780817 -0.005961278 -0.010290558 -0.0010668236 -0.0009119102 0.014624385 -0.00013260459
-0.0042685266 -0.009016917 -0.0036375811 -0.014386371 -0.00080132333 0.0058524553 -0.007260193 0.0069302986
0.01846339 -0.011596722 -0.0036752662 -0.0042651445 -0.0019732553 0.00061609125 -0.0056516994 0.01593555
-0.0071513695 0.0015873201 -0.002971138 -0.011041083 0.014737647 -0.006320446 -0.005334446 -0.0056082467
0.0076888707 -0.019051965 0.016310526 -0.0011313299 0.01569418 0.0026460493 -0.011687266 0.00086560496
0.004527074 0.0026604442 -0.0067080436 -0.0022466257 0.015020265 0.0004407707 -0.005974864 0.007972783
0.006071972 -0.023231305 0.022242788 -0.0004572294 0.0014364386 -0.024112782 -0.008939144 -0.004506211
0.006133789 0.001940393 -0.02357892 0.0052565085 -0.0026101198 0.003722259 -0.00053786184 0.0030929605
-0.01918097 0.0102666365 0.005801293 0.012233217 -0.006308118 0.019767717 -2.3607725e-05 -0.015002211
0.0026514693 0.009385584 0.0037690396 0.009385636 0.0025625261 0.011760677 -1.7203895e-06 0.0034697773
0.0064414907 0.012331401 -0.009467653 -0.0061026923 0.016645698 -0.0036435516 0.067357704 -0.15402643
-0.14748757 -0.15177946 -0.15567704 0.18133534 -0.17818515 0.21535146 -0.037233472 -0.1493835
-0.06629053 -0.086567506 0.13416895 -0.08429685 0.17365545 0.17990972 0.08845444 -0.13236757
0.0067669204 -0.07314312 0.15830408 -0.016079694 0.019635426 0.013519822 -0.11046432 0.16129856
-0.22203498 -0.19431011 -0.12726623 0.195643 -0.21979773 0.12020833 0.11240372 0.18781783
0.07157682 -0.19706346 0.22272462 0.1398777 0.15653764 0.17794526 0.08785302 -0.06382873
0.09039444 -0.082141586 -0.062386107 0.015695615 -0.17472388 -0.105824076 0.0512244 0.18391435
-0.1997677 0.14390813 -0.11069985 -0.11378253 0.0063217147 0.19958305 0.1051686 0.018488677
0.119159445 -0.054300867 0.15189949 -0.07065448 -0.17038274 -0.12924352 -0.13301033 0.113180794
0.11785727 0.1815963 0.080627374 0.121551245 0.059571683 0.1891846 -0.102365315 0.08964824
0.023922864 -0.12114102 0.03316584 0.04671397 -0.10085719 0.05505022 0.16569942 0.11399546
0.09468869 0.20390955 0.06632956 -0.089268915 -0.0020064272 -0.20364065 -0.11004323 -0.19751564
-0.14728579 -0.14043766 -0.062695235 -0.18815732 -0.07725327 -0.18849228 3.5218363e-07 0.20663786
0.13797693 -0.16520455 0.080171674 0.0017312292 -0.056325197 -0.023185365 -0.058748543 -0.08673594

encoder.rnn.weight_ih_l0 f4 [54, 150]
00000000: 8588 d1be f436 cd3e 3dbc 2d3e cea0 783e
00000010: c024 0b3f 669b aabe c9c7 283e 20f0 adbe
00000020: f48c 3b3e 9101 b63e 419d aebd 0a37 8c3e
00000030: e206 dcbe 9a13 033d 3e79 a0be e21f bcbe
00000040: 8668 0cbe e1d1 493e 2075 9cbe bb30 213e
00000050: 720a 34be 5761 513e f9ff 86be fb1d 3dbe
00000060: 9f05 883e 88d6 bbbe 7b1f 0e3e cb1b f83d
00000070: 0628 b73e 60de 3ebe 7bba 9d3e 2d53 0ebe
00000080: ba42 d0be 69bd 36be 9549 a6be a63a 353e
00000090: 63e8 77be 5cb4 91bd bb9f 93be b3df 16be
000000a0: 98b5 74be c6e2 803e 54dd 8bbe 61a1 a33e
000000b0: b7eb 653e 4c8b 2b3e 9f78 b03e fe71 cdbd
000000c0: 6754 c8be f8a6 82be 41cb a03e 0791 9abe
000000d0: 8ade 5f3e 796c c63e b967 853e 1ec5 88be
000000e0: 7051 9cbe 1e7e a33d 1ab5 4bbe 4926 ad3e
000000f0: a0c6 f0be 78cd 903e 2dd3 a13e c026 b13e
00000100: ee74 c03e 1d2f 84be 51cf 34be d3ab 8ebe
00000110: ba13 11be d1bb dcbe 3ac7 dcbd a40b bdbe
00000120: 06a0 9a3e 9c8b b8bc 187f 8abe 4984 ed3e
00000130: 7252 be3d aa18 99be f426 a53e 71a2 90be
00000140: d7bd c5bd 3b89 ccbe 7e2e 08be 86fc 72be
00000150: e53d 96be 7985 4a3e 17fa 07be b0e3 da3e
00000160: e6a4 433e 730c a63e 9366 2c3e c7b8 0f3e
00000170: c3d3 443e 0641 a93e 542a bc3e 3238 d93e
00000180: e8d4 5dbe d885 7ebe 3909 2ebe 1ac3 d03e
00000190: 8fac 99be 0d95 c9be 8fe4 e73e 92db b93e
000001a0: 02cc 243e 7f8b 573e 7138 73be 9f35 9dbe
000001b0: e61b ecbe 2956 92be a747 34be 1d73 fcbd
000001c0: e7dd 393e e8d6 d5bd 04a5 b7be ec39 bb3e
000001d0: fe96 9f3e 1d8d 7ebe 1583 2cbe b268 473e
000001e0: 56ed 463e bbd6 8b3e c052 5b3e 9943 a0be
000001f0: 4880 673e 62f0 953e e5f7 99be f17f d8be
00000200: be1b 3f3e 9b44 983e 6dbf b8be a1a9 a63e
00000210: 26e6 99be ac1d 98be 669e f13e 816d bcbe
00000220: 1d47 7e3e f630 bdbe 988a c53d 4e15 fcbe
00000230: 4d0b 753e a5e5 23be 1736 a73e e3dc 873e
00000240: d3c1 863e 6c24 19be 7714 69be 8f28 bbbe
00000250: a4cc eebe 78a0 86be e270 54bc 431e 403d
00000260: 13e9 77be 97f2 70be baf6 80bd c78c 8cbd
00000270: 9607 05be 101f 073e b47e 07be b215 6f3c
00000280: f144 23be a3d6 8c3d df6f cc3d c6ae 5a3e
00000290: cea7 f83d 3881 f5bb f115 d5bd 96cb 183e
000002a0: 5979 05be 87d7 e23d da88 433e 2026 d13d
000002b0: dbdd b9bd 60de aebd fa36 0f3e ee7b 153b
000002c0: a198 bebd 136f 60be 5991 1f3d a4a9 463e
000002d0: f140 01bd 8784 433e 17dd 953a f04d 9bbd
000002e0: e1cb cabd ef1a 50be 1352 2d3c 77e4 683e
000002f0: c2e4 1a3e 5fb3 dcbd 1866 dcbd 3805 1f3e
00000300: f1f0 c9bd 0b78 da3d 4c87 bc3d 3a15 09be
00000310: 4478 623d a8c5 23be b5f7 2ebd da4a 80bc
00000320: 0e63 1f3e fb46 d7bd bbe1 2f3d 51b9 36be
00000330: 33fc e63d f65a 263e 3a5c c3bd a46f 09be
00000340: fa40 3f3e e3a1 cb3c f45d 23bd b346 fe3d
00000350: 755e 873d 1b93 773c a2b0 26ba e060 88bd
00000360: 0832 153e 8a9c 43bb df77 0cbe fac9 ddbb
00000370: 3ba0 2e3e 8d42 353e 7909 dd3d b81e 1fbe
00000380: 19d7 c6bd 7956 45bc 1a3a f03d 0f7b 00be
00000390: 1d1a 863d f8e0 b5bd b1e8 1d3e fbed 56bd
000003a0: e5d1 2b3e 9bcb 5f3e 84cf a3bd fdd8 a43d
000003b0: e73d f4bd ee6c 45bc 5f8d bc3d 2e62 6bbe
000003c0: 8b4f 2fbe 5d1d 5f3d 986b 1a3e d304 87bd
000003d0: 8ddc 103d 57db 7e3c 3123 d5bd 3214 313d
000003e0: 355b 2a3e a42c 613d 1ba6 a3bd 1697 a13d
000003f0: b288 423d 8cbe 1a3e f64a 063e c6a1 1c3e
-0.4092447 0.40080988 0.16966338 0.24280092 0.5435295 -0.33321685 0.16482462 -0.33972263
0.18315488 0.3554807 -0.085260876 0.2738574 -0.42974 0.032001115 -0.313425 -0.36743075
-0.13711748 0.19708969 -0.3055811 0.15741245 -0.1758211 0.20447288 -0.26367167 -0.18468468
0.2656679 -0.36687112 0.13879196 0.12114676 0.35772723 -0.18639517 0.30806336 -0.13898917
-0.40675908 -0.17845692 -0.32478014 0.17698154 -0.24209742 -0.07114479 -0.28832802 -0.14733772
-0.23897398 0.25173014 -0.27317297 0.3195906 0.224532 0.16752356 0.34467027 -0.10031508
-0.39126894 -0.25518012 0.3140507 -0.30188772 0.21862236 0.38754633 0.26055697 -0.26712888
-0.30530882 0.07983039 -0.19893304 0.33818272 -0.4702654 0.2828176 0.31606427 0.34599876
0.3758921 -0.25817195 -0.1765721 -0.27865466 -0.14167681 -0.43112043 -0.10780187 -0.36922944
0.30200213 -0.022527508 -0.2705009 0.46389988 0.09293069 -0.2990163 0.3225628 -0.28248933
-0.0965535 -0.3994845 -0.13298985 -0.23729143 -0.29344097 0.19777478 -0.13278995 0.42751837
0.19105873 0.32431373 0.16836004 0.1403533 0.19221406 0.3305742 0.36751044 0.42425686
-0.21663249 -0.24855745 -0.16995706 0.4077385 -0.30014464 -0.3937153 0.45291564 0.3630033
0.16093448 0.21049307 -0.23752 -0.30704972 -0.46115035 -0.2858136 -0.17605458 -0.123266436
0.18151055 -0.10441381 -0.35868084 0.36567628 0.31169885 -0.24858518 -0.16846879 0.19473532
0.19426474 0.27312264 0.21418285 -0.31301573 0.22607529 0.2928496 -0.3007194 -0.42285112
0.18662927 0.29739842 -0.36083546 0.32551292 -0.30058402 -0.29710138 0.4719116 -0.36802295
0.24831815 -0.36951417 0.09645575 -0.49235004 0.23930092 -0.16005571 0.32658455 0.2653571
0.2631975 -0.149553 -0.22761713 -0.3655438 -0.46640503 -0.26294303 -0.0129663665 0.04690386
-0.24210005 -0.2353004 -0.06297059 -0.06862789 -0.12991175 0.13195443 -0.13231927 0.014592575
-0.15944268 0.06876876 0.09982275 0.21355733 0.12141381 -0.0074922107 -0.104045756 0.14921412
-0.13034572 0.11076265 0.19095173 0.1021235 -0.09075519 -0.085385084 0.13985816 0.0022809464
-0.093064554 -0.21917371 0.038956974 0.1940065 -0.031556074 0.19093524 0.0011433688 -0.07583225
-0.09902168 -0.20322774 0.01057865 0.22743402 0.15126327 -0.107764 -0.1076166 0.15529335
-0.09860409 0.10667428 0.09205493 -0.13387004 0.055290475 -0.15993369 -0.0427167 -0.015660692
0.1556513 -0.10511585 0.042939883 -0.1784413 0.11278572 0.16245636 -0.09539075 -0.13421494
0.1867713 0.024857467 -0.039884523 0.124158286 0.06609813 0.015110756 -0.0006358718 -0.066591024
0.14569867 -0.0029847943 -0.13717602 -0.0067684622 0.1705331 0.17701168 0.107928224 -0.15539062
-0.09708995 -0.0120445425 0.11729832 -0.12546943 0.065479495 -0.088808 0.15420796 -0.05247305
0.16779287 0.21855013 -0.07998565 0.080492 -0.119258694 -0.012049897 0.09206652 -0.22986671
-0.17120187 0.054471362 0.15080106 -0.06592717 0.035366584 0.015555224 -0.10407103 0.04323215
0.16636355 0.054974213 -0.079906665 0.078901455 0.047493644 0.1511175 0.13114533 0.15296087

encoder.rnn.weight_hh_l0 f4 [54, 18]
00000000: 036d 233e 5600 cb3b 43a1 6abe 26a3 ddbc
00000010: 8dc2 9c3c 614f 133e be03 8f3d caa7 68be
00000020: 9ec8 45be aad2 34be bf21 dcbd 24bb 3a3e
00000030: 98ac dc3d a04a a5bd 19e1 d33c 36f4 98bc
00000040: b46e 013e 40e5 3ebe 94f6 3c3e a30a 15bd
00000050: 0a7e cabd 691a 513d 535a a0bc b36a 283e
00000060: bc22 b63d d6cc f8bd 2b5f a0be 4fcc 41be
00000070: c53c 01be b30c 573e 6162 973c f262 07be
00000080: ef9b 3abd 5fd0 85bd c00b 483e 37af 20be
00000090: 8dee 083f 168d 5d3f ce49 81be 7825 99be
000000a0: f0db 303f c1ee 923d 7f5f 343e 4f6c 933b
000000b0: a597 78bc c5dd 2dbe 01e0 2cbf df4c 7a3d
000000c0: 7f1f 693f a101 97bd e93d d53e ab31 1cbf
000000d0: 6d17 333f 1219 bfbd 6818 f13d 116d 853c
000000e0: 87b6 63bd 355c 39bc 473d 6abb 97f3 8e3c
000000f0: 7dae 0fbd 1739 363c 9d31 32be fdbe f2bb
00000100: 9855 efbd 3052 1abb a839 b53c 2aaf 32bc
00000110: 9af8 a2ba 133f f7bd 0179 1f3e 42f6 bfbb
00000120: 6a76 623e dafe ba3d 4867 1fbe eadb 89bd
00000130: 1eeb 853d 86c1 d5bc 0543 5fbd 4d99 543d
00000140: 2c0b 89be b2a7 143c 5713 72be 44b2 3fbd
00000150: d58e c53d 7bb8 d3bc 46cf 3b3d 333a 2bbe
00000160: a755 893e ab92 87bb e9b4 81bc e5b5 0ebe
00000170: 4551 1b3e 880d 073e 7348 1abe a507 e03d
00000180: fedd 1a3e 4d8c 14be b0c0 d1bd ae89 d0bd
00000190: 79d2 003e 9ce6 e13d 5703 14be cfe5 c5bd
000001a0: e3ee 39be fc65 403e 9bdc 72bd 6ec3 d6bd
000001b0: 2846 12be 6550 8f3d 319b 383e 557d 8abd
000001c0: ec7a 853d 3e73 e0bd 8978 82bd 0dec a03d
000001d0: 8a56 f23d b5f3 e13d 7ea6 153e d3eb a1bd
000001e0: a55a 343d 3aee f03d 2405 d03c 3c2b 813b
000001f0: 2e57 20be 451f ad3d 4fd1 e23d 3b64 1bbe
00000200: 123d 6e3c 7566 2d3e 71e9 2dbe 327d 193e
00000210: 0215 363e 9853 26be 395e ddbd 8cc2 16be
00000220: 31d7 90bd 65c2 293e cb2f 31be 6c95 04be
00000230: 2061 47be c220 203d 9afa 013e 3ae5 32be
00000240: 83d2 173f 55f1 b6bd 096b 20bf 88e1 a53d
00000250: 4ef2 e3bd 8770 803e c7a2 723d 054d 03be
00000260: 72a9 83bf f7ed 97be 9e36 35bf b9f2 863e
00000270: faea e1bc 8f51 c7be 2e9f a0bd 524e 80be
00000280: f4fc 483f 7f51 39be 5f17 04be fbd3 aabd
00000290: 1970 8d3e 7930 c53d 5343 01be 9af5 0c3d
000002a0: 5baf cf3d 030a 8ebd 3dcf b03c 58f6 d1bc
000002b0: 0b90 893e 17da 043d 7e87 18be bccd 30bd
000002c0: 8ef0 39be ec4b 793e 39a8 34be f7ae 7fbd
000002d0: 39bf 463e 2d35 333f 6ef6 acbd c07d b5be
000002e0: b600 d53e 4912 31bd ec8b 4dbe 861c 633d
000002f0: 72fb 03bd e14b 28bd e76f 52be 01ce f73d
00000300: 5f17 ad3e ce74 9c3d 1cb6 923e e430 e0be
00000310: 36b0 433e e809 7c3d dfe0 1c3d 2ebf 1cbe
00000320: 9d76 1a3e b890 113e 396b 30be 7307 1d3e
00000330: 5f5f 043e 736d 22be 97e0 24be b5b8 0cbe
00000340: c9ce 213d 7d46 f03d 684a 0bbe 2824 31be
00000350: 914b 30be 940c 623e 9dd0 4b3d 82fd 0ebe
00000360: 50e6 923e 3ddd 853d f180 48be 6356 0abc
00000370: 28dd 883d 1b7a 073e d1fe b73c 5db5 3cbd
00000380: 968a 9ebe c3dd 1fbe 169f 9abe f45a f43d
00000390: c892 ca3d 2597 0fbe f08d 3c3d f66e 71be
000003a0: 0972 c23e fbe6 bfbd 9c3e 4cbc 575f 483d
000003b0: d433 5e3d e701 44bc 7336 1e3d 1bfa 24bd
000003c0: 7789 9cbc 12d1 573d 0583 f63d c3d4 4c3c
000003d0: 2b07 633d 9e8f 57bd b2bb 6d3d 6e80 8d3c
000003e0: 618b d83c fab9 9a3d d37f 56bd 1f06 0d3b
000003f0: 1f47 8e3d e8dd c73d f75f 13be 977d bdbd
0.15959553 0.0061951084 -0.22913079 -0.027055334 0.019135738 0.1438575 0.06983136 -0.22720256
-0.1931481 -0.17658487 -0.10748624 0.18235451 0.10775107 -0.08070874 0.02586417 -0.018671136
0.12639886 -0.1864214 0.18453437 -0.036387097 -0.09887321 0.051050577 -0.01957432 0.16446953
0.08893344 -0.12148444 -0.31322607 -0.18925594 -0.12620838 0.21000938 0.018479528 -0.13221338
-0.045558866 -0.06533884 0.19535732 -0.15691839 0.53489 0.86543405 -0.2525162 -0.299114
0.690856 0.07174445 0.17614554 0.0044989954 -0.015172874 -0.1697913 -0.675293 0.061108466
0.91063684 -0.073733576 0.41648796 -0.6101329 0.6995762 -0.09330954 0.11772233 0.016287358
-0.055593994 -0.011313488 -0.003574209 0.017450137 -0.035078514 0.01112201 -0.17401738 -0.0074080215
-0.116862476 -0.0023547523 0.02212222 -0.01090602 -0.0012433708 -0.12072577 0.15573503 -0.0058582136
0.22115484 0.0913064 -0.15566742 -0.067313984 0.06538986 -0.026093256 -0.054507274 0.05190401
-0.26766336 0.009073185 -0.2364019 -0.046800867 0.09646384 -0.025844803 0.04585197 -0.1672142
0.2682316 -0.004137357 -0.015833335 -0.13936575 0.1516772 0.13188756 -0.150667 0.10938958
0.15123746 -0.14506646 -0.1024183 -0.1018251 0.12580289 0.110303134 -0.14454399 -0.09662973
-0.18157534 0.18788904 -0.059292417 -0.10486494 -0.14284575 0.06997756 0.18027951 -0.067621864
0.06517586 -0.10959481 -0.063706465 0.07857523 0.11832912 0.110328116 0.14614293 -0.07906308
0.044031758 0.11764188 0.025393076 0.0039419215 -0.15658256 0.0845323 0.11075079 -0.15174954
0.0145409275 0.16933616 -0.16983582 0.14989164 0.17781451 -0.16242826 -0.10808987 -0.14722651
-0.070722945 0.16578062 -0.17303388 -0.12947625 -0.19470644 0.03909374 0.12693253 -0.17470255
0.5930559 -0.08932749 -0.6266332 0.08099657 -0.111302 0.25085852 0.059237268 -0.1282235
-1.0286086 -0.2967374 -0.70786464 0.26357058 -0.027577866 -0.38929412 -0.07842861 -0.25059754
0.78510976 -0.18097495 -0.1289954 -0.08341213 0.27624586 0.09628386 -0.12623338 0.03441391
0.10140868 -0.06935503 0.021583194 -0.025630161 0.2686771 0.03243455 -0.14895436 -0.043164954
-0.1815817 0.24345368 -0.17642297 -0.06242272 0.19408883 0.70003015 -0.0844544 -0.35447502
0.41602105 -0.04323033 -0.20072907 0.055447124 -0.03222222 -0.04108799 -0.205505 0.12099839
0.33806893 0.07639466 0.28654563 -0.437873 0.19110188 0.061532885 0.03830039 -0.15307304
0.1508431 0.14215362 -0.17228402 0.15334873 0.12927006 -0.15862064 -0.16101299 -0.13742335
0.039503846 0.117321946 -0.13602602 -0.17298949 -0.17216326 0.2207511 0.049759496 -0.13963893
0.2869134 0.065363385 -0.19580437 -0.008443448 0.06682807 0.13230173 0.022460373 -0.0460714
-0.30965108 -0.15611939 -0.30199498 0.119314104 0.098912776 -0.14022501 0.0460338 -0.23577484
0.37977627 -0.09370228 -0.012466099 0.04891905 0.054248646 -0.011963344 0.038626146 -0.04027758
-0.019108517 0.05268962 0.12036709 0.012501898 0.055426758 -0.0526272 0.05804033 0.017273154
0.026433649 0.075550035 -0.052367996 0.002151854 0.06947159 0.09759122 -0.14392076 -0.0925247

encoder.rnn.bias_ih_l0 f4 [54]
00000000: c831 a53d acd3 ae3d f286 97bd ae33 373d
00000010: 5d6d b73d 9ecc e1bc 20a4 183d 2b5f 093c
00000020: dea2 363e 384a 26bd 3135 96bd 25b6 913d
00000030: 3724 ae3d 2474 0a3e 0196 ad3d c770 a93e
00000040: 30ba 953d 531e 4a3c eb40 913e 43a7 14bf
00000050: 3926 f3bc 38a9 d6be a3d6 46bf ed30 e1be
00000060: 0757 6ebe 120b a1be 6d33 273d 07fc b4be
00000070: df35 c03c 0bb8 bcbe 9726 1dbf c400 a9be
00000080: 60cb 3fbf eb4a f23d 0024 803c 966b b8be
00000090: 87ab 473d 2b6c c43d 2e86 a6bd de90 bebd
000000a0: 3cb1 bf3d c840 3fbd da98 a6bd 793e a93d
000000b0: 4e95 833c ce63 0b3d ae7d 09bd dec3 92bd
000000c0: 1b3a e13d 4363 dbbc 7cd4 c43d ac81 9ebc
000000d0: d6e7 8d3d 2c40 8c3d
0.08066136 0.08536467 -0.07398786 0.04472702 0.08956406 -0.02756339 0.037265897 0.008384506
0.17835566 -0.040598124 -0.07334364 0.071148194 0.08503001 0.13520867 0.084758766 0.33093855
0.07310903 0.012336331 0.2836984 -0.5806772 -0.029681312 -0.4192598 -0.7767126 -0.4398264
-0.23275386 -0.31453758 0.040820528 -0.35348532 0.023463188 -0.36859164 -0.6138701 -0.33008397
-0.749197 0.11830696 0.015642166 -0.36019582 0.048747566 0.09590944 -0.081310615 -0.09304975
0.09359977 -0.04669264 -0.08134623 0.08263869 0.016062405 0.034030728 -0.033567123 -0.07166265
0.10997411 -0.02678073 0.09610841 -0.019348942 0.06928985 0.06848177

encoder.rnn.bias_hh_l0 f4 [54]
00000000: cc31 a53d a6d3 ae3d f086 97bd a833 373d
00000010: 5b6d b73d 96cc e1bc 26a4 183d 175f 093c
00000020: e1a2 363e 344a 26bd 3235 96bd 27b6 913d
00000030: 3b24 ae3d 2374 0a3e 0296 ad3d ca70 a93e
00000040: 34ba 953d 581e 4a3c ed40 913e 43a7 14bf
00000050: 5126 f3bc 3aa9 d6be a4d6 46bf f130 e1be
00000060: 0b57 6ebe 100b a1be 6f33 273d 0afc b4be
00000070: d335 c03c 0bb8 bcbe 9626 1dbf c400 a9be
00000080: 5fcb 3fbf eb4a f23d 0624 803c 956b b8be
00000090: 1bdd a73d 8243 d53d dd8c eabd ab59 d4bd
000000a0: 5ed6 d83d 9afc 88bd 91f9 d0bd 64a8 c13d
000000b0: 38aa ed3c 83e2 4e3d 5efb febc f267 c0bd
000000c0: 007a f23d a793 673c 0104 db3d 790b d0bc
000000d0: 3b9c f43d ed3e b43d
0.080661386 0.085364625 -0.07398784 0.044726998 0.08956405 -0.027563374 0.03726592 0.008384488
0.17835571 -0.04059811 -0.07334365 0.07114821 0.08503004 0.13520865 0.08475877 0.33093864
0.07310906 0.012336336 0.28369847 -0.5806772 -0.029681357 -0.41925985 -0.77671266 -0.43982652
-0.23275392 -0.31453753 0.040820535 -0.3534854 0.023463165 -0.36859164 -0.61387 -0.33008397
-0.74919695 0.11830696 0.015642177 -0.3601958 0.081964694 0.10413267 -0.11452649 -0.10368665
0.10587762 -0.06688805 -0.10203851 0.09455946 0.02901183 0.050508987 -0.03112572 -0.09394826
0.11839676 0.014134324 0.10694123 -0.025396096 0.11943861 0.08801065

encoder.rnn.weight_ih_l0_reverse f4 [54, 150]
00000000: 60c3 99bd 5dfc 103e a52f ef3c 491e d93d
00000010: 8ba1 903c 6bad a93d d035 633d 1f25 203d
00000020: ca51 083e fef1 bfbb 826c 1b3e 636a 3f3d
00000030: 94f0 cebd c1c4 72be c76e bfbc e6ca 513d
00000040: 87dd 473d db4d 53bc a027 3abe 72dd 1dbd
00000050: 31d0 b83b 53d5 163d cfd6 f23d ba00 d83d
00000060: 0c15 11bd f34b 523d a062 4a3b 9211 79bd
00000070: 0e74 4abc 7c2f b23c fcfc c33c 5342 4dbc
00000080: 1701 2b3d 61cd 9e3d 9b27 b83d 0efa 033d
00000090: 2fb1 823d 71bf 5fbd b517 a4bd 9418 2c3d
000000a0: 57c4 2d3d 9020 e4bd 62da 133d 8c4a 37bd
000000b0: ad13 edbd 4d79 6e3e 5c29 e4bb 9590 b73d
000000c0: ac5e 2b3d 592d 8e3d c821 fabd 5078 163e
000000d0: 0649 ecbc 95c1 b3bc 4e6d b5bd 1650 373d
000000e0: d430 03bd e33c 4f3e 5b93 6d3d d550 8f3c
000000f0: d615 ec3c 0b4d 973d 46a7 32bd af52 4c3d
00000100: ac82 b6bc 4c56 58bb 4bae 2ebc ddb8 593d
00000110: a86e 053e 5bab 893d 2408 26bd b43e 4ebe
00000120: 1969 09be 664b 793e a26d 1f3c b959 48bd
00000130: 3fa5 7abe 30b2 e3bd c72b 2ebe f630 efbd
00000140: 5a73 7d3d b89f c13d dd85 00be ef83 01bb
00000150: 536d 803d 434a e2bd 01d6 373d 9316 7fbd
00000160: 75b7 8bbd 59d9 7e3c 47b6 173d 61a6 08be
00000170: 8ab8 c6bd 7d8a 043d 0cf1 a63d 12ad 87bb
00000180: 5ffd c93d 9837 68bd ef00 9abb bf7b bfbc
00000190: 1187 cdbd a66b f1bd 05c5 b9bd 91ab c83b
000001a0: 055c bebd c76e e43b 5e64 893d bd09 9ebc
000001b0: 6fd0 b6bc 791e 583e b348 223d 86dc d2bc
000001c0: 2f64 95bd 202d 5b3c 0d97 03ba 567f 603c
000001d0: d7e0 aabd b42f 063e 4056 143e 7052 d8bd
000001e0: c7a4 e0bd 9f71 1c3d 3e02 2cbe 4daf b63d
000001f0: 800f f6bd f6ba bcbd 778f 8bbd d58f 8cbd
00000200: f9d3 a9bd 4354 99bc 8233 92bd 6272 18bd
00000210: 2282 dd3c 3520 ce3d 0184 7b3c 4ba0 d83c
00000220: b73d a8bc f702 c1bd c9a9 33be e69d e3bc
00000230: 4a6c be3d d808 233e 36dc 27be bbff 8dbd
00000240: 3ee3 ddbd 2446 193d 794b 3a3d 03b5 623c
00000250: d2f6 71bc 8dfc abbd 3e91 903e d373 7cbe
00000260: e10f 95bd e857 d0bd a245 65be 9cf1 1a3e
00000270: 9dee 1cbe 9ab8 633e 0ea5 d2bb 937e 2abe
00000280: fa3a ca3d cd13 47be b2f6 983e 1c41 69be
00000290: 5aed 853e fe8f 5a3e 95df eb3d a491 1bbe
000002a0: fac6 433e e000 bdbd 4075 d93d cbae fbbd
000002b0: 0898 1b3e 14ea 0d3e ceaa 01be 8a64 7e3e
000002c0: e595 17be 7d78 1dbe 08c6 a8be a7fe 2b3e
000002d0: 8c6c 44be f50b bb3d f7a7 763e 2767 193e
000002e0: 5fe6 3c3e ae10 22be 563a 153e eba2 a53d
000002f0: f5c4 583d a003 493e 23e5 b83d 0e74 10be
00000300: 2193 f23d a61f 10be c460 38be 9a00 403e
00000310: 3ee7 28be a78e d3bc 240a 533e 5f4d 3a3e
00000320: 1ade 29be 8c64 853e a45a 8ebe 998b 59be
00000330: c0cd 1abe 0596 233e 4e41 543e d700 273e
00000340: 6e81 1b3e 8692 37be 1a1e 593e 6bdf bbbc
00000350: 312c a1be 3e44 7cbe a6d5 a9be c8ea 7f3e
00000360: d3ba 2b3e 4209 3e3e d026 1a3e ddb4 6e3e
00000370: 472f 163c 650e f63d 1f8a 1fbe 1134 4b3e
00000380: 1a70 8a3d 8ff4 94be 9edc 43be 3b95 3b3e
00000390: f91c 8bbe 4737 403e dfae f33d 3c94 4f3e
000003a0: 7b7e 60bd fdd0 3b3e cf44 7d3e 7df6 0fbe
000003b0: a6a2 1e3e 954a 65be ebd2 4bbe 0ad4 2cbe
000003c0: e7c8 84bd 0d4f 48be db8b 4dbe 82bc 32be
000003d0: c60c b3be fa4f 1abe 29a5 1e3e 2e57 4f3e
000003e0: edf1 bc3d 0338 5cbe dc75 993e 0ec1 ce3d
000003f0: fc4b 56be a239 2abe b43b 31be ee4c 47be
-0.07507968 0.14158769 0.029197523 0.106014796 0.017655155 0.0828503 0.05547124 0.0390979
0.1331245 -0.005857705 0.15178111 0.046732318 -0.101044804 -0.23707868 -0.023368252 0.05121889
0.04879525 -0.01289698 -0.18179178 -0.038541265 0.0056400527 0.036824536 0.11857378 0.105470136
-0.035420462 0.051341962 0.003088154 -0.060807772 -0.012356771 0.021751158 0.023924343 -0.01252802
0.041749086 0.07754017 0.08991929 0.032220893 0.06381451 -0.054625932 -0.08012334 0.042015627
0.042423572 -0.11139023 0.036096938 -0.044748828 -0.115760185 0.2328846 -0.0069629382 0.08963124
0.041838333 0.06942243 -0.122134745 0.14694333 -0.028843414 -0.021942893 -0.08858739 0.04475411
-0.032028988 0.2023807 0.058001857 0.017494598 0.028819006 0.07387742 -0.043616556 0.04988354
-0.022279106 -0.0033010421 -0.010661672 0.053154815 0.13030493 0.067221366 -0.040535107 -0.20141107
-0.13418998 0.24345168 0.009730728 -0.04891369 -0.24477099 -0.11117971 -0.17008887 -0.116792604
0.061877586 0.09454292 -0.12551065 -0.0019762476 0.06270852 -0.110493205 0.044881824 -0.062277388
-0.06822101 0.015554749 0.037039068 -0.13344719 -0.09703167 0.032358635 0.08151445 -0.0041405046
0.0986278 -0.056693643 -0.0046998183 -0.023374436 -0.100355275 -0.117881104 -0.090707816 0.006123968
-0.09294895 0.0069712135 0.06708597 -0.019291753 -0.022316186 0.21105374 0.039620113 -0.02573992
-0.07294499 0.013377458 -0.0005019762 0.013702234 -0.08343666 0.13104135 0.14486027 -0.10562599
-0.10968929 0.038194295 -0.1679773 0.08920155 -0.12014675 -0.092153475 -0.06814473 -0.06863371
-0.08292384 -0.018716937 -0.071387306 -0.03721846 0.027039591 0.10064737 0.015351296 0.026443621
-0.02053724 -0.094243936 -0.17545237 -0.027785253 0.09297998 0.15921342 -0.16392598 -0.06933542
-0.10834359 0.037420407 0.045482133 0.013837102 -0.014768319 -0.083977796 0.2823581 -0.24653558
-0.07278419 -0.10173017 -0.22389844 0.15131229 -0.15325399 0.22238389 -0.0064283675 -0.16649847
0.0987453 -0.19441147 0.29875714 -0.22778744 0.26157647 0.21343991 0.11517254 -0.15192276
0.19118872 -0.092286825 0.10618067 -0.122891985 0.15194714 0.13858825 -0.12662813 0.2484304
-0.14803274 -0.15377994 -0.32963586 0.16796361 -0.19182032 0.0913314 0.24087511 0.14980756
0.18447255 -0.15826675 0.14573035 0.08087715 0.052922208 0.19630289 0.09028079 -0.14106771
0.11844469 -0.14074573 -0.18005663 0.1875023 -0.16494462 -0.025824858 0.20609337 0.18193577
-0.16588631 0.26053274 -0.27803528 -0.21244659 -0.1511755 0.15975197 0.20728037 0.16308914
0.15186092 -0.17926988 0.21202889 -0.022933682 -0.31479028 -0.24635407 -0.33170813 0.24991906
0.16770487 0.18558219 0.15053868 0.23311181 0.009166545 0.12014464 -0.15580033 0.1984408
0.06759663 -0.29092833 -0.19127128 0.18318646 -0.27170542 0.18771087 0.118985884 0.2027139
-0.05480812 0.18341441 0.2473328 -0.14058872 0.15491733 -0.22391732 -0.19904678 -0.16877761
-0.064836316 -0.19561405 -0.20072882 -0.17454723 -0.34970683 -0.15069571 0.15492691 0.202481
0.09225831 -0.21505742 0.29972732 0.10095416 -0.20927423 -0.16623548 -0.17307931 -0.1946294

encoder.rnn.weight_hh_l0_reverse f4 [54, 18]
00000000: a7d9 92be 7293 56be 5d56 1fbe 3eee 9cbe
00000010: 7068 c6bc 3299 293d db9c 933e f5f0 883d
00000020: 6b0f 873e a68e 3abe 95b3 3bbe a43a 143e
00000030: 5a6c 58be bf14 99be 7b62 8abc 2bdf c93c
00000040: 4b16 4ebd 72df 41bd 770a 873e dc85 393e
00000050: 0a26 243e 536b 443e d7c4 643d 4240 c33d
00000060: dc14 71be a66f 4fbe c671 45be d610 323e
00000070: c89e 163e dee5 21be f9da 2c3e 935e 513e
00000080: f34b fdbd 1c44 e83d 3173 f8bd 61ef a0bd
00000090: 04fc 4a3e d9a5 003e 3e38 f13d 3396 3c3e
000000a0: 8d7e de3d eaad 5a3d eb4b 48be d9e3 36be
000000b0: 22d6 16be b3be db3d f6f3 ba3d 7b4a 11be
000000c0: 6f91 043e 392a 373e cabc dabd 6219 913d
000000d0: 8b47 89bd fadc 80bd 131c 65be 869c 4abe
000000e0: ea48 0abe d890 83be 9378 c9bc db02 b43c
000000f0: 215b 643e c5bc 713d 4ab3 6a3e 964d 42be
00000100: 8e1f 2fbe 9376 003e a7e8 58be d5c8 80be
00000110: 26ce 0e3c 7100 053d 99da 2abd 6634 8ebd
00000120: 89bb 9d3e a4d8 9d3e db6e b23e a036 a63e
00000130: f091 583e df74 033e 248e afbe 3f10 f7be
00000140: 3aff a6be fe0f a53e f054 a63e 98de c9be
00000150: 06ee a63e 9922 a33e 7c9d 8cbe b5ae 7b3e
00000160: 7a1a 2cbe 3679 40be 5a7c 863e 67f1 a53e
00000170: 8222 973e 2fb6 993e 1e57 913d ed29 0ebe
00000180: 79d6 8dbe 08c0 88be 7fa3 9bbe 543c 853e
00000190: 1544 9d3e 2d75 88be 7b24 a53e 8a49 983e
000001a0: 85b1 0abe 1b06 4e3d 4bca 733d 53de ecbd
000001b0: 25f7 73be 86ea 5dbe db0f 1cbe 5ee5 76be
000001c0: e3ac e8bc 5d08 ccbc 0692 833e 2e35 ab3d
000001d0: d60e 703e 1dc9 3abe ef83 32be 79dd 273e
000001e0: f7ec 45be c4c1 7ebe e108 aa3c e84e d338
000001f0: 4fa4 853c 1c56 c7bb 7897 1a3e 2304 ac3d
00000200: 855f ad3d 76af 153e 235d 6f3e 3af2 423d
00000210: 156e 2cbe 07be 39bd 3dfd e9bd da84 b63d
00000220: 0fca dc3d ca8a c0bd 9d0d fc3d 89ca 123e
00000230: 1dc3 26be 48ae 113e 7162 b1bd df39 64be
00000240: 575b a13d aa14 5f3d f5cf 7f3d a082 133d
00000250: 351f 0bbc 9014 f73d d9ac 3ebd a364 98be
00000260: 9ad7 3dbd cfff 583d 7af2 2f3d 2871 53be
00000270: 1a1d 9e3c 300a 053d 86f0 2bbe f22e 083e
00000280: 6b11 10be c37b 6dbd a54f 5c3e 961a 363e
00000290: 7bac 303e 57ee 633e 3df1 443e 164e f23d
000002a0: 6af2 80be 88f3 89be 9236 50be bb63 493e
000002b0: cc4d 2e3e 133d 82be 1070 283e 4196 603e
000002c0: 2aa4 52be d0c6 2b3e aeeb 0ebe 8a79 15be
000002d0: 0a42 363e b654 033e 8293 093e 00fe 243e
000002e0: b589 0c3e ed19 053e 4075 47be a2c3 63be
000002f0: 9c0a 12be 78e6 053e f719 c23d 7ce4 4dbe
00000300: 4484 053e f018 323e 1eb0 1ebe a90f 183e
00000310: 517c 06be 2528 cdbd 80c7 593e f0f7 043e
00000320: e7d4 f73d 8e4b 343e 1dd2 4f3e eb8e 003e
00000330: 9350 54be b9a0 35be 991f 1abe fc41 073e
00000340: e890 f03d b49a 28be f376 043e 5e11 3a3e
00000350: f455 81be 547e 593e 3cad 1dbe f072 45be
00000360: bd5e 093e d855 d23d 709a 153e 80e7 bc3d
00000370: d111 1f3e 1aa3 1c3e 29a5 0ebe 5825 87be
00000380: 8662 e3bd 9a55 073e 1971 cf3d cd8d 4fbe
00000390: da4f e73d 070d 0d3e 6e87 47be 5dbf 443e
000003a0: 11bb 2ebe 370d 0abe 3182 65be f979 2dbe
000003b0: 13ad 05be 2271 8abe 13cd f53c 7771 0a3e
000003c0: 19bc 6a3e f51d 3039 3349 6c3e 65c3 33be
000003d0: 6265 34be 1ab1 bf3d f801 42be a30f 86be
000003e0: 48b7 49bd 052a c73d 399e f2bd 5f86 00be
000003f0: 2402 863e a29e 8b3e 546a 6b3e 07dd 9c3e
-0.2868168 -0.20954683 -0.15560289 -0.30650514 -0.024219722 0.041405864 0.2883061 0.06686584
0.2637895 -0.18218479 -0.18330224 0.14475495 -0.21135083 -0.2989864 -0.016892662 0.024642548
-0.05031423 -0.047332235 0.26375172 0.1811747 0.16030136 0.19181566 0.055851784 0.095337406
-0.23543113 -0.20257434 -0.19281682 0.17389235 0.14709008 -0.15810344 0.16880406 0.20446233
-0.12368002 0.11341116 -0.12131346 -0.07858158 0.19822699 0.12563266 0.117783055 0.18416671
0.108639814 0.053388514 -0.1956021 -0.17860354 -0.14730123 0.10729732 0.09128563 -0.14188568
0.12946104 0.178872 -0.1068054 0.070849195 -0.06703099 -0.06292148 -0.2237399 -0.19786271
-0.13504377 -0.25696445 -0.024593627 0.021974018 0.22300388 0.059017915 0.22919956 -0.18974909
-0.17101881 0.12545232 -0.211825 -0.25153223 0.008716142 0.032471124 -0.041712377 -0.06943588
0.3080714 0.30829346 0.348502 0.3246355 0.2114942 0.12837552 -0.34288132 -0.48254582
-0.32616597 0.32238764 0.32486677 -0.39427638 0.32603472 0.31862333 -0.274639 0.24578364
-0.16806975 -0.18796238 0.26266748 0.32410738 0.29518515 0.30021808 0.070966944 -0.13883181
-0.27702692 -0.26709008 -0.30398175 0.2602259 0.30716005 -0.26651898 0.32254395 0.29743606
-0.13544281 0.05029879 0.059519093 -0.115658425 -0.23824747 -0.21671495 -0.15240423 -0.24110934
-0.028402751 -0.024906332 0.25697345 0.083597526 0.2344316 -0.18240781 -0.17433141 0.16393079
-0.19328676 -0.24878603 0.020756187 0.000100759615 0.0163137 -0.006083263 0.15096843 0.083992265
0.084654845 0.14617714 0.23375373 0.047594287 -0.16838868 -0.04534724 -0.114252545 0.08912058
0.10780727 -0.09401472 0.12307284 0.14335074 -0.16285367 0.1422664 -0.08661354 -0.22287701
0.0787875 0.054463066 0.062454183 0.036013246 -0.008491327 0.12064469 -0.04655156 -0.2976428
-0.04634819 0.052978333 0.042955853 -0.20648634 0.019300986 0.03248042 -0.16790971 0.13299158
-0.14069144 -0.057979356 0.21514757 0.17783579 0.17253296 0.22258888 0.1923265 0.118313
-0.25184947 -0.26943612 -0.20333317 0.1966695 0.17021865 -0.2543722 0.16448998 0.21932317
-0.20570436 0.1677506 -0.13957092 -0.14597145 0.1779863 0.12825283 0.13435176 0.16112518
0.13724406 0.12998171 -0.19478321 -0.22242597 -0.1426186 0.13076198 0.09477609 -0.20106691
0.13038737 0.17392325 -0.15496871 0.14849724 -0.1313336 -0.100174226 0.2126751 0.12985206
0.12101155 0.17606947 0.20294996 0.12554519 -0.20733862 -0.17737092 -0.15051116 0.13208765
0.11746389 -0.16465265 0.12936 0.18170688 -0.2526089 0.21239597 -0.15398115 -0.19282126
0.13415046 0.1027028 0.14609694 0.092238426 0.1553414 0.15296593 -0.13930191 -0.2639568
-0.11102776 0.13216248 0.101289935 -0.20268936 0.11294527 0.13774501 -0.19485256 0.19213624
-0.17063548 -0.13481604 -0.22412945 -0.1694106 -0.13054304 -0.27039438 0.030005014 0.13519846
0.22923316 0.00016795828 0.23074798 -0.17555006 -0.176168 0.09359951 -0.18946064 -0.26183805
-0.049247056 0.097248115 -0.11846585 -0.12551259 0.26173508 0.27269465 0.2298978 0.3063738

encoder.rnn.bias_ih_l0_reverse f4 [54]
00000000: c4e5 113e 9777 26bd deed 80bc 7490 e93d
00000010: 6672 153d 7640 d93d 2b84 833d cd97 e2bb
00000020: 2d4a 023d c269 dc3c 2196 c13c 4e0e 503c
00000030: c62e 4b3d e088 143e 602a 143d 6922 d13d
00000040: f9ac b33d d246 2c3d 7f96 42be fc7a 62be
00000050: f7ce 90be a9d8 5cbe 2aa2 3ebe 5d66 3bbe
00000060: 53b6 52be 9b6f 68be a089 6bbe e9dc 9ebe
00000070: 07ef 9bbe 37c2 7dbe c2d3 92be 0576 46be
00000080: 3cf6 73be beae 7ebe 54c5 71be d66d 5bbe
00000090: 9768 22bd cf35 1c3d 3fa5 05bc b664 7bbd
000000a0: d3e8 793d bf9a e73d 29a2 9e3d a599 cbbc
000000b0: e556 f83c f49d ea3c 1918 21bd 7464 d8bc
000000c0: e819 24bd 943c 6cbd ea31 86bd 759c 7c3d
000000d0: fd14 c6bd 2072 77bd
0.14247805 -0.040641394 -0.015738424 0.11404505 0.036486052 0.10607998 0.064216934 -0.0069150687
0.03180902 0.026905898 0.023631157 0.012698723 0.049605154 0.14505339 0.036173224 0.10211641
0.08773226 0.042059727 -0.19002722 -0.22117227 -0.28282902 -0.21567024 -0.18616548 -0.18300767
-0.20577364 -0.22698824 -0.23001719 -0.31027916 -0.304558 -0.24781118 -0.28677183 -0.19380958
-0.238244 -0.24871346 -0.23610431 -0.21428618 -0.039650526 0.038137253 -0.0081570735 -0.061375342
0.061013054 0.11308812 0.07745773 -0.024853537 0.030314872 0.028639771 -0.039329622 -0.026415087
-0.04006377 -0.05767496 -0.06552489 0.061672647 -0.09671972 -0.060411572

encoder.rnn.bias_hh_l0_reverse f4 [54]
00000000: c5e5 113e 9f77 26bd e7ed 80bc 7a90 e93d
00000010: 6972 153d 7440 d93d 2284 833d c797 e2bb
00000020: 314a 023d bc69 dc3c 1f96 c13c 4f0e 503c
00000030: c72e 4b3d df88 143e 5b2a 143d 6a22 d13d
00000040: fcac b33d da46 2c3d 8096 42be ff7a 62be
00000050: f4ce 90be a9d8 5cbe 2aa2 3ebe 5a66 3bbe
00000060: 54b6 52be 9c6f 68be a089 6bbe ebdc 9ebe
00000070: 04ef 9bbe 33c2 7dbe c0d3 92be 0876 46be
00000080: 3ff6 73be c0ae 7ebe 56c5 71be d36d 5bbe
00000090: 91d4 f0bc aeb9 4e3b e362 e33b f3d3 56bd
000000a0: c27c 903d 489d 113e 063e 7e3d 96f5 9cbd
000000b0: 4d7d f73c 93f3 933c e2d4 fabc 01bd 45bd
000000c0: dc4a 14bd 7df5 53bd daa0 cebd bc68 c93d
000000d0: 977d 02be 6f78 9bbd
0.14247806 -0.040641423 -0.01573844 0.1140451 0.036486063 0.106079966 0.06421687 -0.006915066
0.031809036 0.026905887 0.023631154 0.012698724 0.049605157 0.14505337 0.036173206 0.10211642
0.087732285 0.042059757 -0.19002724 -0.22117232 -0.28282893 -0.21567024 -0.18616548 -0.18300763
-0.20577365 -0.22698826 -0.23001719 -0.31027922 -0.30455792 -0.24781112 -0.28677177 -0.19380963
-0.23824404 -0.2487135 -0.23610434 -0.21428613 -0.029398235 0.003154378 0.0069392784 -0.052448224
0.07055046 0.14220154 0.06207087 -0.07664029 0.030211115 0.018060481 -0.030619089 -0.04827595
-0.036204204 -0.051747788 -0.10089274 0.098344296 -0.12743221 -0.0759133

encoder.fc.weight f4 [18, 36]
00000000: e378 e03d 33a5 be3d add7 9bbd 95cb e7bd
00000010: bb07 e43d 3086 debd 66d2 dbbd 122f 033e
00000020: 6b5c 9c3c d47d e83d ad86 a0bd 3585 01be
00000030: f4f5 e73d 7ac9 a53d 78db e23d 6b76 073d
00000040: 01f7 f83d ac30 0b3e 02c7 adbc c6a0 863d
00000050: d515 da3d e26b e4bc 2e5b c83d b15f d63d
00000060: c79d 293d 343d fdbd 09f5 b4bc c89c 013e
00000070: 2efe b53d ee4f dabd 8a41 823d dbb6 2fbc
00000080: 9ee5 bbbd 5ea5 db3d fd6d e1bd 9dcc dcbd
00000090: f78e 75be 9afb fcbc 3c28 fb3d 413a 983c
000000a0: 2a14 2ebc 7d1a 093d 2141 6a3c 5de1 09bd
000000b0: 476f e83d 6372 4bbb a94e a63d 49f8 3f3d
000000c0: 4184 eebc 3eb1 763d 98c6 36bc d822 79be
000000d0: 1109 7abe d930 74bc bef9 35be 0430 79be
000000e0: d58a 25be d3a4 3cbe e0fe 01be 2513 913a
000000f0: 1af1 093e 9068 1a3e b49f 663e 7d6d 61be
00000100: e396 2cbe 62da f53d a4ac 08be 0491 7fbe
00000110: 23ae 423d 9c6b bcbc 32c6 1c3c a673 a4bc
00000120: 18da 563e c72b e43c 6b55 f3bc 5e7d 11bd
00000130: cdad e63c 2ef6 11bd ec64 abbc 8ebf f73c
00000140: b40b 5a3e 8a69 e93c e067 edbd 1658 42bd
00000150: 8dab 033d b042 2b3d 64ee 453d a093 91bd
00000160: 64b7 e33d 3963 823c 6421 663d e396 fc3d
00000170: 6cbf 103e a377 dd3d da8c e33d cee8 97bc
00000180: fb71 07be 1708 96bd 26a3 09be 5b85 d13d
00000190: ce52 1b3e 595c 1abe 7802 333e 077b 943d
000001a0: 3472 b6bc ef87 6f3b 8676 b03c 1fdd d7bc
000001b0: 07f5 013e ead0 673c 7a0e 5dbd 5e62 633c
000001c0: a0ab aabc 9567 10bb c976 143c 29f4 64b9
000001d0: e680 8e3d 1ef1 a33c cb06 1ebc 0696 81bc
000001e0: dcac 15bc ba86 85bb 3926 38bc ae81 7b3e
000001f0: 6437 e93d 0fb9 fdbb c283 9d3e 2b1c a13e
00000200: 376c 833d 9dd2 9e3e f6b8 3b3d f256 abbc
00000210: 73cd 86be 0da3 5fbd 788b a9be 5ae0 903d
00000220: b732 543d 2268 d3bd 18ec 933d 31f7 b43e
00000230: 8102 dcbc c47a 5d3b cd72 863c 1201 863c
00000240: b87b 1abe f37f 27be 5bc2 dd3d 2e4b 313e
00000250: 38ff 33be 39ae 193e da67 183e 6cb9 2dbe
00000260: e7d2 a8bd c9d6 17be 0e2c fb3d eba5 323e
00000270: ba18 38be ab86 b2bd cadb 29be 55f6 cabb
00000280: b408 23be ffed 2fbe 3b13 a23d 7101 45bd
00000290: 0307 06be c3ab 463d 43db 32be 1da4 2dbe
000002a0: 5bc5 6cbd e9b6 043e db54 42bc df51 09be
000002b0: 0ad1 c8bd f7a9 9b3d 2475 56bd 9ff1 3e3d
000002c0: b333 323e 8c69 2fbe 47d5 2b3e 6bd9 243e
000002d0: 433f 053e d7a3 013e b49a adbd f0fe f6bd
000002e0: 3db1 f33d 88f1 07be a9d5 f2bd a86f 0f3e
000002f0: ef67 003d 56c2 d13d 4560 bfbd 0111 06be
00000300: 9927 f73d 39a6 8f3d 9a32 cd3d 8494 473d
00000310: bc40 f63d 8eb1 c83d c603 7fbd ee52 e33c
00000320: 59df e53d 47b1 77bd 3d12 de3d 0f0e e93d
00000330: 704e 8e3d 7574 b7bd 795d a73b 465a b43d
00000340: 8382 7d3d 155b b2bc 3c6a ef3c 2a85 49bd
00000350: ec9d 0bbe 6709 033e 4def 0ebe 426e cfbd
00000360: 39ba 033c 3392 323d d955 a73b 9e67 c3bc
00000370: 11e3 bd3c cdaa 143b baa3 b6bc b6ec 09bb
00000380: ebc9 c63d 4414 993c e6fd e8bd ce3f 0bbd
00000390: 72f9 853c 0de8 68bc 2d37 273c 0be7 25be
000003a0: 2a45 103e 43c5 de3c 39fa ce3d 925f 633e
000003b0: fd92 a63c 39b5 043e 066b 2e3e 71d3 20bc
000003c0: c9d8 9bbd 1839 103c 0548 51be 01cf d63c
000003d0: d3ab 6d3d cf88 d5bd c829 bc3d b244 0f3e
000003e0: 3a20 bcbc f1e5 e23b cf78 943b bb10 89bd
000003f0: 27d9 97bd afe0 9fbd ae2e 4a3d 1053 a93d
0.10960557 0.09308853 -0.07609496 -0.11318127 0.11134287 -0.10865438 -0.1073349 0.12810925
0.019087037 0.11352125 -0.07838187 -0.1264847 0.11326209 0.08095069 0.110770166 0.033071917
0.12156487 0.13592786 -0.021213058 0.06573634 0.106486954 -0.027883474 0.09783016 0.104674704
0.041410234 -0.12365189 -0.022089498 0.12657464 0.088863716 -0.10659777 0.06360157 -0.0107247485
-0.091746554 0.10724901 -0.11007307 -0.107812144 -0.23980318 -0.030881692 0.122635335 0.018582465
-0.010624925 0.033472527 0.0142977545 -0.03366219 0.113493495 -0.0031043522 0.08120472 0.046867643
-0.029115798 0.060227625 -0.011155747 -0.24329698 -0.24417521 -0.014904224 -0.1777105 -0.24334723
-0.16166241 -0.1842225 -0.12694883 0.0011068328 0.13470879 0.1507895 0.2252186 -0.22014423
-0.16854434 0.12004544 -0.13347107 -0.24957663 0.04752935 -0.02300053 0.009568738 -0.020074677
0.20981634 0.027852906 -0.029703816 -0.03551995 0.028159047 -0.035635166 -0.020922147 0.030242708
0.21293527 0.028492708 -0.11592078 -0.047447287 0.032146025 0.041811645 0.04832305 -0.07108235
0.11118963 0.015916454 0.056184188 0.12333467 0.14135522 0.108138345 0.1111085 -0.018543627
-0.13227074 -0.07325762 -0.13441142 0.10230514 0.15168306 -0.1507429 0.1748141 0.07250028
-0.022271253 0.0036549529 0.021540891 -0.026350556 0.12691127 0.01414893 -0.053968884 0.013878433
-0.02083379 -0.0022034396 0.009061524 -0.00021834731 0.06958179 0.020012435 -0.009645174 -0.015818607
-0.009135451 -0.0040748985 -0.011239582 0.24561188 0.11387518 -0.007743008 0.30764586 0.31466803
0.06417125 0.3102006 0.04583069 -0.020915482 -0.2632862 -0.054598857 -0.3311422 0.07074042
0.051806178 -0.10322596 0.07222766 0.35344842 -0.026856663 0.0033795098 0.016412163 0.016357932
-0.15086257 -0.16357403 0.10828086 0.17313835 -0.17577827 0.15007867 0.14883366 -0.16965264
-0.082433514 -0.14828028 0.12264262 0.17446105 -0.17978182 -0.08717092 -0.16587749 -0.006193916
-0.15921289 -0.17180632 0.07913824 -0.048097078 -0.13088612 0.04850365 -0.17466454 -0.16957135
-0.0578054 0.129604 -0.011861051 -0.13410138 -0.09805496 0.076007776 -0.052357808 0.046617147
0.17402534 -0.17130107 0.16780578 0.16098563 0.13012414 0.12660156 -0.08476773 -0.12060344
0.1189904 -0.1327573 -0.11857159 0.14007437 0.03134912 0.10242145 -0.09344534 -0.13092424
0.120680995 0.07014126 0.10019417 0.04872562 0.12024066 0.09799491 -0.062259458 0.027749505
0.11224241 -0.0604718 0.108433224 0.113796346 0.069485545 -0.08957759 0.0051075784 0.08806281
0.061892044 -0.021771947 0.029225461 -0.04919926 -0.13634461 0.12796555 -0.13958474 -0.10128452
0.008040004 0.043596458 0.0051066694 -0.02385312 0.023179563 0.0022684813 -0.022294868 -0.0021045632
0.097064815 0.018686421 -0.11376552 -0.033996396 0.016354296 -0.0142154815 0.010206026 -0.16201417
0.14088884 0.027193671 0.1010632 0.22204426 0.020333761 0.12959756 0.17033014 -0.009816037
-0.07609708 0.008802675 -0.2043763 0.026221754 0.058025192 -0.10426485 0.09187657 0.13991049
-0.022964586 0.006924384 0.004531003 -0.06692644 -0.074144654 -0.07806527 0.049360923 0.08267796

encoder.fc.bias f4 [18]
00000000: 15d9 b53d 638e 98bc c9b7 29bc 5d99 17bd
00000010: cdf1 fbbd c3bb b53d 1561 2dbb c26c 6bbd
00000020: 29f1 a43c 9a26 e2bc bdde 4c3d eccc b2bd
00000030: c805 b13c b087 c2bd 028e a0bd a5f0 a9bd
00000040: e947 4ab9 e0d4 d13d
0.08879296 -0.018622583 -0.010358759 -0.037011493 -0.12301979 0.08873703 -0.002645557 -0.057476766
0.020134525 -0.027606297 0.050017107 -0.08730492 0.021609202 -0.094985366 -0.07839586 -0.082978524
-0.0001929101 0.10245681

decoder.attention.attn.weight f4 [18, 54]
00000000: 9a7a 873d 0069 45be eea0 3cbf 846e 6fbe
00000010: 3fa2 083e 2258 923d 906f dc3c 2454 80be
00000020: 08f6 c4be 2cb2 c03d f5c9 32bf d3c5 a6be
00000030: 9f98 973e f634 81be dfd9 a8be e0c1 713e
00000040: 0bd1 96be 5869 433e eda4 953e 4911 533c
00000050: 5442 5bbe eae0 9ebc 51f4 0a3d ef45 f1bb
00000060: 7610 2fbc bf61 b4bc 3f01 14be 1b1a 18bc
00000070: 06cf 8ebe 8c30 9b3d 673a 2a3d 5bd7 a03c
00000080: 13c1 913d 75cd 3ebe 4d43 c33e 16c7 7fbb
00000090: 6943 3dbd f511 89bc d245 35bd bdc6 16bd
000000a0: 166f 01bc f7bf 9d3d 05c5 6e3d d5e3 2d3d
000000b0: 8d32 c93c 5cce 22bd 8e67 4fbd f05f 7f3d
000000c0: 18ad 4ebd 2d7b 4dbd 9fcf 123d 3aed 443c
000000d0: 9d74 4abd 4944 44bd 1dfa a03e e148 d63e
000000e0: 0c35 263e 87d7 a23e 2d74 e9be 44ef cc3e
000000f0: 9594 613d 6bab 0fbe 9c2c 9b3e 0a1e 8bbe
00000100: aabd 1c3f 749d adbd 77b4 af3c 883e 82be
00000110: 4a1b 233d fe19 f2be dc80 393e 0ff9 ec3d
00000120: 50b1 53be fb55 183a 2b0b 013f b46a cebc
00000130: 24e1 493c 7690 67bd cb3d 94bd 9c05 1d3d
00000140: 43a9 a73d ff8f 933d 40a5 a83e d8ee 45bd
00000150: c84b 75bc f4c7 c23d dc7d b23c f107 3b3e
00000160: 36c5 82be bb19 653d 1858 a53c 595c a53b
00000170: 9d09 833d 6983 c7bb 72cd 783e a1bd 033e
00000180: 35fa 76bc 56bf e3bc 99ee 04bc 0bf0 a23d
00000190: 7c23 7b3d 26f5 18bd 5423 3c3d 2683 8c3c
000001a0: a5d6 febd 2c90 1a3e bf2a d7bd f92e 36be
000001b0: 26cb 193e 632e 46be 3399 32bf 86e4 81be
000001c0: 87fc fa3d 5112 303e f31c d43c 4316 a7be
000001d0: 48f9 aabe f509 af3d 9bf5 3ebf d3ae ccbe
000001e0: 19e4 cc3e cbcb b3be 48ca dbbe 383a 283e
000001f0: bc24 77be c2ec 413e 4484 b73e ce92 e8ba
00000200: 9b09 21be 57b4 08bc d2f4 3c3d a94c b13c
00000210: a935 a63c bde9 57bd 0354 68bd ccd1 08bd
00000220: 7b48 94be d20a f53d dcf4 423c 574a 433d
00000230: f667 c23d 0e53 44be 0db8 dc3e e991 0abd
00000240: f9ca 453d e73a 9d3c 8d58 93bc a997 e33c
00000250: b286 e83c 022b 353e e7f7 39bc e297 a83c
00000260: dfe4 34bd 8b77 16bd 6532 fbbc f468 92bb
00000270: e0f6 aeba dea7 283d 9da5 eb3b ee27 553d
00000280: 558f 21be 2311 1cbe 962a 353e 62b2 26be
00000290: 0f49 12bf 0ebd a9be a39e 893d 2beb 373e
000002a0: 656e ae3c af13 b9be 3b91 cbbe 3cc2 353d
000002b0: 3a51 35bf 7486 cabe b373 b63e 4bcc a3be
000002c0: 2783 dbbe 354a 023e c99d 70be 7a7a 823e
000002d0: d31b 983e b32e 68bc 87bc cebd 92f9 7abb
000002e0: 7fdc 3d3d 0cc2 b63c 865e 143d c0a2 64bd
000002f0: b447 73bd bd50 d2bc e7e2 71be faf2 c03d
00000300: ca82 863c e4f6 1e3d 5534 483d 4e73 b7bd
00000310: ebcc a83e 9e41 50bc 5f5f 403d 7414 533d
00000320: 2031 f2bc 55dd 1f3d 08b8 8c3c 24c9 183e
00000330: 4ce6 f7bc b2ce c0bb c7f5 77bd 4837 9ebc
00000340: 6dc4 b3bb 5d24 103c 7675 8c3c 1afd 543d
00000350: f9bf 6f3c 044c 443d a762 d8bd 9ebd c1bd
00000360: 5d98 2b3e 1feb 09be 0a02 78be 7123 3ebe
00000370: 28b9 ba3c 9e57 3a3e 4ce2 983d 9cb7 94be
00000380: de22 82be 8f65 b1bb abb4 84be 748d 95be
00000390: aada b93e 20a6 7cbe 7936 b7be 73d5 793d
000003a0: c029 ae3c af08 c53d 5afa a23d 6a47 603c
000003b0: 8dac a63c 99bc a5bc feb0 a7bb c202 56bc
000003c0: 72f1 f3bc c5d3 be3a 1f54 71bd eee4 623c
000003d0: 9658 c63c de0b 58bc a5a1 a83b 8356 a9bc
000003e0: c99b d5ba 691f 543d 7e72 ca3c a4e8 9a3c
000003f0: 3de4 4dbc 8933 89bc c76b a6bc 64a4 bdbc
0.06615181 -0.19278336 -0.7368306 -0.23382002 0.13343142 0.07145716 0.026908666 -0.25064194
-0.38468957 0.094089836 -0.6983941 -0.32572803 0.29608628 -0.25235718 -0.32978722 0.23609114
-0.29456362 0.19083154 0.2922739 0.012882539 -0.21412021 -0.019394357 0.033924405 -0.007363073
-0.010685077 -0.022019265 -0.144536 -0.009283568 -0.2789232 0.07577619 0.041559603 0.01963394
0.07116904 -0.18633063 0.38137284 -0.0039028577 -0.046206865 -0.016732195 -0.04425604 -0.036810625
-0.00790002 0.0770263 0.05829336 0.042453606 0.024560237 -0.03974758 -0.050635867 0.062347353
-0.050458044 -0.050166298 0.035842534 0.01201945 -0.049427617 -0.047916684 0.3144082 0.41852477
0.16231173 0.3180506 -0.45596448 0.40026295 0.05507334 -0.14030235 0.30307472 -0.27171355
0.61226904 -0.084772974 0.021448357 -0.25438333 0.039820947 -0.47285455 0.18115562 0.11570942
-0.20673108 0.0005811152 0.50407666 -0.025197364 0.012321744 -0.056534253 -0.072383486 0.038335428
0.08186581 0.072051995 0.32938576 -0.048323482 -0.014971681 0.09510794 0.02178853 0.18264748
-0.25541085 0.05593274 0.020183608 0.005046409 0.06398318 -0.0060886634 0.24297121 0.12865306
-0.015074302 -0.027801197 -0.008113527 0.07955941 0.061313137 -0.037343167 0.04593213 0.01715238
-0.12443284 0.1509406 -0.105062 -0.17791356 0.15018901 -0.19353633 -0.69765013 -0.25369662
0.12255197 0.17194487 0.02589271 -0.32634172 -0.33393312 0.08546821 -0.74593514 -0.3997713
0.40017775 -0.3511642 -0.42927766 0.16428459 -0.24135107 0.18937972 0.35843098 -0.0017743947
-0.1572632 -0.008343778 0.046131916 0.021643 0.020289259 -0.052713145 -0.056720745 -0.033403203
-0.28961548 0.119649544 0.011899199 0.047678318 0.09492485 -0.19172308 0.4310917 -0.033830557
0.048289273 0.019193126 -0.01798656 0.027782278 0.02838454 0.17692187 -0.011350608 0.020580236
-0.04416358 -0.0367351 -0.030663678 -0.004468078 -0.0013348721 0.041175716 0.0071913735 0.052040033
-0.15777333 -0.15240912 0.17692026 -0.16278985 -0.5714273 -0.3315205 0.06719711 0.17960803
0.021292875 -0.3614783 -0.3975924 0.04437469 -0.70827067 -0.39555705 0.35635146 -0.319918
-0.428735 0.1272362 -0.2349769 0.25484067 0.29708728 -0.01417129 -0.100945525 -0.0038295728
0.04635286 0.022309326 0.036222957 -0.055819273 -0.059394553 -0.025673265 -0.23621713 0.09421344
0.016419787 0.038809672 0.048878033 -0.089575395 0.3296884 -0.012710957 0.046965953 0.051533177
-0.02956444 0.039029438 0.017177597 0.14920479 -0.030261181 -0.005884015 -0.060537126 -0.01931347
-0.0054860623 0.008797732 0.017145853 0.05199919 0.014633172 0.047924057 -0.105656914 -0.09459995
0.1675734 -0.13468598 -0.24219528 -0.18568207 0.022793368 0.18197486 0.07465038 -0.29046333
-0.25417227 -0.005413718 -0.2591909 -0.29209483 0.3629964 -0.24672747 -0.35783747 0.060994577
0.021260142 0.09620797 0.07957907 0.013688901 0.02034595 -0.020231532 -0.0051175347 -0.013062181
-0.029778216 0.0014558962 -0.058918115 0.013848526 0.024212163 -0.013186423 0.0051462227 -0.020671135
-0.0016297038 0.051787768 0.024712797 0.01890976 -0.012566623 -0.016748207 -0.020315064 -0.023149677

decoder.attention.attn.bias f4 [18]
00000000: 892b 923e f65c b5bd f840 ac3e 1569 b03e
00000010: ed4c 9b3e 7a69 dfbe 223c 8a3e 38c1 a3be
00000020: 8706 ac3e 7773 e2be 9d55 ba3e 9503 953e
00000030: c4c4 b63e 9008 aebe b99f c63e c889 813e
00000040: a1c6 c1be ad3e 8c3e
0.2854884 -0.088556215 0.33643317 0.3445517 0.30332127 -0.4363516 0.26999003 -0.31983352
0.3359873 -0.44228718 0.36393443 0.29104295 0.35696995 -0.33990908 0.38793734 0.2530043
-0.37846854 0.27391568
