agl/models/autosave/tr-AE-124-16-0.001-C3.pt (torch, 113900 bytes, 21 tensors)

encoder.embedding.weight f4 [8, 124]
0	0x3c390f1e	0.011295108
1	0x39b78a05	0.00035007313
2	0x3c15527d	0.009113905
3	0xb9fe4947	-0.0004850125
4	0xbc23f010	-0.010005966
5	0xbc152589	-0.009103187
6	0x3c2ae458	0.010430418
7	0x3c3b6a38	0.011438899
8	0xb986b254	-0.00025691336
9	0x3c5b20cb	0.013374518
10	0xbad1dd6c	-0.0016011423
11	0xbc01193d	-0.007879552
12	0xbb25bbf3	-0.0025289028
13	0x3c32fac0	0.010924041
14	0x3c0dfaa7	0.008665717
15	0x3c18d6b0	0.009328529
16	0xbc582fee	-0.013195021
17	0x3aa14196	0.0012302871
18	0x395f3fd2	0.00021290712
19	0x3b96ae09	0.0045983833
20	0xb89732ac	-7.2096795e-05
21	0x3bbd355c	0.005774183
22	0xbbf0fbae	-0.0073542213
23	0xbb8a1aa7	-0.004214603
24	0x3c98a260	0.018632114
25	0xbb751e4c	-0.0037402092
26	0xbb0008b9	-0.001953645
27	0x3c4fb09d	0.012676385
28	0xbb0081e4	-0.001960867
29	0x3bc60a45	0.0060437047
30	0xbca1057c	-0.019655935
31	0x3b1d92a4	0.0024043703
32	0x3c3b3906	0.01142717
33	0xbb29f3ab	-0.002593259
34	0x3a7b87fe	0.00095951546
35	0x3bf488e1	0.0074626063
36	0xbb811974	-0.003939802
37	0xbc32ddde	-0.010917155
38	0x3b368a1c	0.0027853316
39	0xbc860c7c	-0.016363375
40	0xbc82b9bf	-0.015957711
41	0x3b6a1c69	0.00357225
42	0xbbe51a97	-0.006991695
43	0x3b5c7eb9	0.0033644869
44	0xbc8d82ea	-0.017274339
45	0x3b5679a4	0.0032726312
46	0xbc872875	-0.016498784
47	0xbc57cc58	-0.013171278
48	0x3c73ecb4	0.014887977
49	0x3ba45237	0.0050146836
50	0x3ba10280	0.004913628
51	0x3a25718a	0.0006311169
52	0x3c030a4b	0.0079980595
53	0xbae11184	-0.0017171358
54	0x3b2d3765	0.0026430723
55	0xba97e8e4	-0.0011589793
56	0x3c68bf07	0.014205701
57	0xbb1311f9	-0.0022441132
58	0x3b82fe59	0.0039976058
59	0x3b897d87	0.004195872
60	0xbc7072de	-0.014675824
61	0xbc48d33e	-0.012257395
62	0x3c8f27d9	0.017475056
63	0xbc2ff2e0	-0.010739058
64	0xbb779594	-0.0037778364
65	0x3bcfc104	0.006340148
66	0x3b182ea8	0.0023221169
67	0x3be5cfb0	0.0070132837
68	0xbc20a39c	-0.0098046325
69	0x3c30aca2	0.010783346
70	0x3c70ceb5	0.01469772
71	0x3c85b5f5	0.016322115
72	0x3c51e133	0.012810039
73	0x3abfc32d	0.001463031
74	0x39691f65	0.00022232307
75	0x39f50a2a	0.00046737614
76	0xbb9831b1	-0.0046445956
77	0x3b07464c	0.0020641265
78	0xbbe225cc	-0.0069014784
79	0x3b37275c	0.0027947044
80	0x3c6f27d9	0.014596903
81	0x3b9cb559	0.0047823605
82	0xbbf89fd2	-0.0075874114
83	0x3c69e0f3	0.0142748235
84	0x3c0cc906	0.00859285
85	0xbc8cc38f	-0.017183093
86	0x3c4a427d	0.012344954
87	0xbb4912a7	-0.0030681284
88	0x3bea0b45	0.0071424567
89	0xbbc04df5	-0.005868668
90	0x3bc7eccb	0.006101226
91	0xbbd681a7	-0.0065462175
92	0xbbe61375	-0.0070213624
93	0xbbcc9059	-0.0062427935
94	0xba89b9c0	-0.0010507628
95	0x3c342aa0	0.010996491
96	0x3c16a4d7	0.009194574
97	0xbbf0aa4c	-0.0073445197
98	0xbbb93119	-0.005651605
99	0xbb371c97	-0.0027940625
100	0x3c3c7375	0.0115021365
101	0xbafe3e6b	-0.0019397264
102	0x3b1c066a	0.0023807534
103	0x3b1aefcd	0.0023641468
104	0xbc086fa6	-0.0083274
105	0x3c549dd3	0.012977081
106	0xbcdff0f2	-0.027336571
107	0xbc703c05	-0.014662747
108	0x3c1768fe	0.009241341
109	0xbc128e2d	-0.00894503
110	0xbc72c6b9	-0.014817887
111	0xbbf5ce8a	-0.007501428
112	0xbc512059	-0.01276406
113	0xbb915bee	-0.0044360077
114	0x3c8cb5ee	0.017176595
115	0x3a15beff	0.00057123596
116	0x3b61bd78	0.0034445208
117	0xbc82d6cf	-0.01597157
118	0x3ba9ff66	0.0051879166
119	0xbb236aa4	-0.002493539
120	0x3c0a6156	0.008446058
121	0x3c8fa96b	0.01753684
122	0x3aaec046	0.0013332448
123	0x3c65024b	0.0139775975
124	0xbd927835	-0.07151834
125	0x3cbaa73f	0.022784827
126	0xbd3d945a	-0.046284057
127	0xbe7f6d82	-0.24944118
128	0xbd99f97d	-0.07518289
129	0xbcba90d2	-0.022774134
130	0xbcb62a6c	-0.022237025
131	0xbd8302a1	-0.06396986
132	0xbd57dbc2	-0.05269981
133	0xbdafbdd6	-0.0858113
134	0x3d926ee1	0.07150055
135	0x3ebb9196	0.3663451
136	0x3d660625	0.056158204
137	0x3b84cf47	0.0040530297
138	0xbdf1ff70	-0.11816299
139	0x3d5777b1	0.05260438
140	0xbd1cb22b	-0.03825585
141	0xbeb01c8b	-0.34396777
142	0xbc0f1451	-0.008732871
143	0x3cd7381d	0.026271874
144	0x3e5ba35d	0.21449037
145	0xbd7836dc	-0.060599193
146	0x3d7462d7	0.059664574
147	0xbef72998	-0.4827392
148	0x3d9de00e	0.07708751
149	0xbdacb093	-0.08432116
150	0xbb7f73d6	-0.0038978956
151	0x3d5d3a8f	0.054010924
152	0x3d543df5	0.0518169
153	0x3cbc7240	0.023003697
154	0x3db0497e	0.086077675
155	0x3cd7b626	0.026331972
156	0x3e326ecb	0.17425077
157	0xbe86e255	-0.26344553
158	0x3e8fbec8	0.28075242
159	0xbc425449	-0.011860915
160	0x3e42d647	0.19027053
161	0x3c0275ba	0.0079626385
162	0xbccd1cea	-0.025038201
163	0xbee61ed2	-0.4494539
164	0x3d441d20	0.04787934
165	0x3d49e5d6	0.049291454
166	0xbdbc98c1	-0.09208823
167	0xbdf38817	-0.118911915
168	0xbc08fd73	-0.008361208
169	0x3e7d6e77	0.2474917
170	0xbcc8ffba	-0.024536002
171	0x3cea2358	0.028581306
172	0xbc8f4ac5	-0.017491708
173	0xbdc06d0e	-0.093958005
174	0xbc0cc8f6	-0.008592835
175	0x3c71cfab	0.014758985
176	0x3e0274a8	0.12739813
177	0xbcd7f8c3	-0.026363736
178	0xbe252cee	-0.1613042
179	0x3de3ab0c	0.11116609
180	0x3b7cfbbf	0.00386022
181	0x3e23ccd3	0.15996103
182	0xbcc42117	-0.02394156
183	0xbcfe1ba3	-0.031019038
184	0xbe9b2d4b	-0.30307993
185	0xbdc843da	-0.09778567
186	0x3ae34d2d	0.0017341726
187	0x3d9c69a5	0.076373376
188	0x3e82784d	0.25482407
189	0x3e8981de	0.26856893
190	0xbc710c2b	-0.014712374
191	0x3cfb48ae	0.030674305
192	0xbc5604fd	-0.013062713
193	0x3d615575	0.05501314
194	0xbcad900b	-0.02118685
195	0xbd04f695	-0.03246172
196	0xbcc8449a	-0.024446774
197	0xbd9bb1cf	-0.07602274
198	0x3db87747	0.09007125
199	0xbe95537e	-0.29165262
200	0xbd9b957a	-0.0759687
201	0x3ded9d0c	0.1160222
202	0xbb2e339a	-0.002658105
203	0x3eb97d1b	0.3622826
204	0x3e5008ca	0.20315853
205	0x3dd8141d	0.10550711
206	0xbda90cf3	-0.08254423
207	0x3ebd0886	0.36920565
208	0xbd52385b	-0.051323276
209	0xbde2dc62	-0.11077191
210	0xbafded9d	-0.0019373182
211	0xbde65024	-0.11245754
212	0x3c91e41a	0.017808963
213	0xba4ef863	-0.0007895289
214	0x3cb52ea5	0.022116968
215	0x3b48a50f	0.003061596
216	0x3d9ddeac	0.07708487
217	0xbd4b0754	-0.049567536
218	0x3c0373e8	0.00802324
219	0xbcd31193	-0.025765216
220	0xbbe7f0b2	-0.0070782537
221	0xbe11c24a	-0.14234272
222	0x3e195f72	0.14977816
223	0xbbc0f190	-0.0058881715
224	0xbeb686e9	-0.35649803
225	0xbdea65e4	-0.11445215
226	0xbd1b780f	-0.037956294
227	0xbe6b66fd	-0.22988506
228	0x3d6ae9cb	0.05735187
229	0xba4422c4	-0.0007481987
230	0xbd86b7ae	-0.06578003
231	0xbb1ffc4c	-0.0024411855
232	0x3d1c889e	0.038216226
233	0x3d70c63a	0.058782794
234	0x3aa24d31	0.0012382624
235	0xbecf7f2e	-0.40526718
236	0x3b11089d	0.0022130378
237	0x3eefe317	0.46852943
238	0xbd29b537	-0.041432586
239	0xbe1d5638	-0.15364921
240	0x3ce79115	0.028267423
241	0x3cc431da	0.023949552
242	0x3af61d6f	0.0018777082
243	0xbc31fa1a	-0.0108628515
244	0x3edf07b9	0.4356058
245	0xbd6a12b4	-0.057146743
246	0x3e65efba	0.2245473
247	0x3e1e8a32	0.15482405
248	0xbead5ec7	-0.33861372
249	0x3f07738e	0.529107
250	0xbf024ecc	-0.50901484
251	0x3f0fe9c3	0.5621607
252	0xbee24625	-0.4419414
253	0x3e0f0296	0.1396583
254	0xbedc814c	-0.43067396
255	0xbef3012b	-0.4746183

encoder.rnn.weight_ih_l0 f4 [48, 124]
0	0x3ebd80e3	0.37012395
1	0xbe0bbed3	-0.13647012
2	0x3e880dca	0.2657302
3	0xbeaaf188	-0.333874
4	0x3e0fdd7f	0.14049338
5	0xbe4f9e8a	-0.20275322
6	0x3e475693	0.19466619
7	0x3e92a5a5	0.28642002
8	0x3e126e2c	0.1429984
9	0xbe7c1d67	-0.24620591
10	0x3e51d50c	0.20491427
11	0x3e06a1bd	0.13147636
12	0xbea4bc5e	-0.32174963
13	0xbe80ea55	-0.2517878
14	0x3ddad3b7	0.10684913
15	0x3ded3104	0.115816146
16	0x3e8e055c	0.27738464
17	0xbe035d45	-0.12828548
18	0x3e6ca819	0.23110999
19	0xbd928978	-0.07155126
20	0x3dd14fb1	0.10220278
21	0xbe848f9c	-0.25890815
22	0xbeaa3f65	-0.3325149
23	0xbebd04f1	-0.36917832
24	0xbe408c6b	-0.18803565
25	0xbe572628	-0.21010649
26	0xbe769fae	-0.2408435
27	0xbe0ea73d	-0.13930984
28	0x3dd6ac04	0.10482028
29	0xbe01cd64	-0.12676007
30	0x3e68036a	0.22657552
31	0xbd87764b	-0.066143595
32	0x3e9c5d65	0.30540004
33	0xbe649715	-0.22323258
34	0x3e9bf8e5	0.3046333
35	0xbe3dca55	-0.18534215
36	0xbdd803c1	-0.10547591
37	0x3e9ebede	0.31004995
38	0xbe39f392	-0.18159321
39	0xbe276559	-0.16347255
40	0xbead555a	-0.3385418
41	0xbd07efe3	-0.03318776
42	0x3e3893ed	0.18025179
43	0xbe4eaab9	-0.20182313
44	0x3e444965	0.19168623
45	0x3e27b3c9	0.16377176
46	0x3e87fe80	0.26561356
47	0x3e0df52f	0.13863061
48	0x3e645d81	0.22301294
49	0xbe8b1201	-0.27162173
50	0x3e68774a	0.22701755
51	0x3e9cee27	0.30650446
52	0xbd5be478	-0.05368468
53	0x3e46ec7f	0.19426154
54	0x3e48cda8	0.19609702
55	0x3e3f88e5	0.18704565
56	0xbe420f81	-0.18951227
57	0x3e882b9f	0.2659578
58	0xbeaf8f38	-0.34288955
59	0x3e801052	0.2501245
60	0xbdd1b87e	-0.10240267
61	0xbba91bee	-0.0051608
62	0xbe32ca8d	-0.1746008
63	0xbbb7a189	-0.0056039733
64	0x3c93fcfd	0.01806497
65	0x3e2da471	0.1695726
66	0xbe3b2db9	-0.1827916
67	0x3e120caf	0.14262651
68	0xbd4beec0	-0.049788237
69	0xbe2099c1	-0.15683652
70	0x3e48f2a8	0.19623816
71	0xbbc3789b	-0.005965305
72	0xbe8f170d	-0.27947274
73	0xbe776d53	-0.24162798
74	0xbb33a04a	-0.0027408772
75	0xbe86783b	-0.26263604
76	0xbeb9a0fd	-0.36255637
77	0xbe56837f	-0.209486
78	0x3e59f9cb	0.21286695
79	0x3da3b801	0.0799408
80	0x3d1595c8	0.036519796
81	0x3e0f66eb	0.14004104
82	0xbe80d6e2	-0.25163943
83	0x3d467c9e	0.048458688
84	0xbe136b1f	-0.14396332
85	0x3d23ffee	0.040038995
86	0x3e806299	0.25075224
87	0x3d88d926	0.06682043
88	0x3e873589	0.26408032
89	0x3e8d5f6f	0.27611873
90	0xbe9aeefe	-0.30260462
91	0x3e695ade	0.2278857
92	0xbe66b62f	-0.22530435
93	0x3e6faf6d	0.23406763
94	0xbde9e05b	-0.114197455
95	0xbe1cacaf	-0.15300249
96	0xbe70e2f9	-0.23524083
97	0xbe4e27a2	-0.20132306
98	0xbe0f70f3	-0.1400793
99	0x3e7fb46f	0.24971174
100	0xbea0a834	-0.3137833
101	0x3d76925b	0.06019817
102	0x3dceb635	0.10093347
103	0xbe4e3a16	-0.20139346
104	0x3e5a7ad0	0.21335912
105	0xbdcd48e5	-0.10023669
106	0xbd63a563	-0.055577647
107	0xbd6c62a6	-0.057711266
108	0x3d109162	0.035294898
109	0xbe830ece	-0.25597233
110	0xbe0468bc	-0.12930578
111	0xbe93ca9b	-0.28865513
112	0x3c9753cd	0.018472577
113	0x3e74faa4	0.23923737
114	0x3e62a10b	0.22131746
115	0xbb483c36	-0.0030553467
116	0xbec90516	-0.39261693
117	0xbe73f1ec	-0.23822755
118	0x3e3ad8a2	0.18246701
119	0xbe311f32	-0.17297056
120	0x3e64f68a	0.22359672
121	0xbe906945	-0.28205314
122	0x3d3734aa	0.04472796
123	0xbdc4fec1	-0.09618903
124	0x3a7b2946	0.00095810404
125	0x3e2c72f1	0.16840722
126	0xbd957a32	-0.072986975
127	0x3db6c8db	0.08925029
128	0xbe20d3d2	-0.15705803
129	0xbdab5760	-0.08366275
130	0xbd86881e	-0.06568931
131	0xbce50f81	-0.027961494
132	0x3e9807c6	0.2969343
133	0x3dcfe677	0.101513796
134	0x3dfa3c65	0.122185506
135	0x3e837efd	0.25682822
136	0x3d949f1b	0.072569095
137	0xbec5d2b7	-0.38637325
138	0xbe33961a	-0.17537728
139	0x3e161f67	0.14660417
140	0xbdcb9fe5	-0.09942607
141	0xbe863554	-0.2621256
142	0x3ec7278c	0.3889736
143	0x3c36083d	0.011110363
144	0x3eafeb75	0.34359327
145	0x3df77aa8	0.12083942
146	0x3da9554e	0.08268224
147	0x3de7509c	0.11294672
148	0xbe2318b7	-0.15927397
149	0xbd30c2e4	-0.043154612
150	0xbed5c0b8	-0.41748595
151	0xbdcdee31	-0.10055197
152	0xbeb42b4d	-0.35189286
153	0xbea5f8ca	-0.32416373
154	0x3e2ca40d	0.16859455
155	0x3dbfbb01	0.0936184
156	0xbd416466	-0.047214888
157	0xbebaa174	-0.36451304
158	0x3b1cbf6d	0.002391781
159	0xbee447e8	-0.4458611
160	0x3d92fdb5	0.07177297
161	0xbea7b725	-0.32756916
162	0xbc8a72d0	-0.01690045
163	0xbea1205d	-0.31470004
164	0x3ba123c2	0.0049175927
165	0x3ddf6458	0.10907811
166	0x3df8fed7	0.12157982
167	0x3d5b829d	0.05359136
168	0x3e812136	0.2522065
169	0x3da72dde	0.08163045
170	0x3ef71b97	0.48263237
171	0xbee85560	-0.45377636
172	0x3ea10e69	0.31456307
173	0x3e04b494	0.1295951
174	0xbe1cb3e3	-0.15302996
175	0x3de4cbcb	0.11171683
176	0x3df46eed	0.1193522
177	0xbc49eeea	-0.012325028
178	0x3d37843a	0.044803835
179	0xbe962611	-0.29325917
180	0xbe22d993	-0.1590331
181	0x3d1661c2	0.036714323
182	0x3e2d215a	0.16907254
183	0x3c1aad6d	0.009440762
184	0xbea3ddae	-0.32005066
185	0xbd29a18e	-0.041413836
186	0xbecb1c51	-0.3967004
187	0xbe9236ec	-0.28557527
188	0x3e95d81e	0.29266447
189	0x3d82bc3c	0.06383559
190	0xbc7d66ad	-0.015466374
191	0x3eda665c	0.4265622
192	0x3d91e369	0.07123453
193	0xbe6360f6	-0.22204956
194	0x3e0a13c2	0.134841
195	0xbe0108b4	-0.12600976
196	0xbe207230	-0.15668559
197	0xbe741618	-0.23836553
198	0xbe32b5dd	-0.17452188
199	0xbe031239	-0.1279992
200	0xbeb8eda3	-0.36118802
201	0x3d162a0b	0.03666119
202	0x3d8f0b9e	0.06984638
203	0x3ecb0cef	0.39658305
204	0x3e57f911	0.21091105
205	0x3e4cafc7	0.19988929
206	0xbe8c475b	-0.2739819
207	0x3e1fea52	0.1561673
208	0x3e8d4d36	0.2759797
209	0xbdbd25f0	-0.09235752
210	0x3da50ce0	0.08059096
211	0xbe4d8e55	-0.20073827
212	0xbe53eb7a	-0.20695296
213	0x3ccdf070	0.025139064
214	0xbda07c86	-0.07836251
215	0x3d16579b	0.03670464
216	0x3d8fc9bb	0.07020899
217	0xbd97cb1f	-0.07411789
218	0xbcf899ad	-0.030346716
219	0xbe8eb7c6	-0.27874583
220	0xbea8a92d	-0.3294157
221	0xbdeb3816	-0.11485307
222	0x3dba982b	0.09111055
223	0x3d51a9fc	0.0511875
224	0x3da86dd9	0.08224077
225	0xbe4c403c	-0.19946378
226	0x3d53037b	0.05151699
227	0xbda28069	-0.079346485
228	0x3d93072f	0.071791045
229	0x3e656167	0.22400437
230	0xbd8a206f	-0.067444675
231	0xbe8d3237	-0.27577373
232	0x3e313aa7	0.1730753
233	0xbe08f9cf	-0.13376544
234	0xbeb6fef9	-0.35741404
235	0xbeb08eeb	-0.34484038
236	0xbe8aa88f	-0.27081725
237	0x3e80db81	0.25167468
238	0x3c1cbed5	0.009566982
239	0xbe11e5df	-0.14247845
240	0x3def0e2b	0.11672624
241	0xbc8984e0	-0.016786993
242	0x3e561531	0.20906521
243	0xbe60cd5d	-0.2195334
244	0x3de5fc23	0.11229732
245	0xbe03038a	-0.12794319
246	0xbdf00137	-0.11718982
247	0x3e633964	0.22189862
248	0xbeaa400d	-0.33251992
249	0x3ea16061	0.31518844
250	0x3e500c2b	0.20317142
251	0x3dba0689	0.09083278
252	0xbd544653	-0.05182488
253	0x3e8ccb0e	0.27498668
254	0x3e86ce6f	0.2632937
255	0xbe223e4d	-0.15844078

encoder.rnn.weight_hh_l0 f4 [48, 16]
0	0xbe4b1397	-0.19831692
1	0x3dfe5a47	0.12419563
2	0xbe429eb7	-0.19005857
3	0xbd0655ff	-0.032796856
4	0xbe338e00	-0.17534637
5	0x3dcb9f42	0.099424854
6	0xbe19dc63	-0.15025477
7	0x3ca66fa3	0.020316904
8	0x3e51bea9	0.20482887
9	0xbe008c6c	-0.12553567
10	0xbec49fd2	-0.38403183
11	0x3e7cc811	0.24685694
12	0x3d3ec3d4	0.046573475
13	0xbea9d718	-0.33171916
14	0x3d577928	0.052605778
15	0x3e566855	0.20938237
16	0xbdec88de	-0.11549543
17	0x3e72a942	0.23697379
18	0x3bd86070	0.006603293
19	0xbd810429	-0.062996216
20	0x3db84805	0.08998112
21	0x3e8b4ab6	0.27205437
22	0xbe80f19b	-0.2518433
23	0xbcde00d8	-0.027100012
24	0x3e425fa2	0.18981794
25	0xbd88e045	-0.06683401
26	0x3dd29439	0.102821775
27	0x3dfbbf07	0.12292295
28	0x3e341d70	0.17589355
29	0x3e96cadc	0.29451644
30	0xbebb9214	-0.36634886
31	0x3e88738f	0.26650664
32	0xbdd665e5	-0.104686536
33	0x3d9021de	0.0703771
34	0xbdb5ad07	-0.08870893
35	0x3e6256f7	0.22103487
36	0xbdd7d040	-0.105377674
37	0xbdc49bc3	-0.09600022
38	0xbdec71b4	-0.11545125
39	0xbe2355ff	-0.15950774
40	0xbde3f93e	-0.111315235
41	0x3d02b650	0.031912148
42	0x3d25bbd3	0.040462326
43	0xbdc699a1	-0.09697271
44	0xba9ee963	-0.0012123998
45	0xbe1b2c75	-0.15153678
46	0x3ce0cafc	0.02744054
47	0x3d592bb7	0.053020205
48	0x3d6726fa	0.056433655
49	0xbd92f0c3	-0.07174828
50	0x3e2a8f5b	0.16656248
51	0x3a1fe49f	0.0006099436
52	0x3d9d4119	0.07678432
53	0x3cb177c5	0.021663556
54	0xbc16e9b6	-0.0092109945
55	0xbda5c135	-0.08093492
56	0xbd4115e3	-0.047140013
57	0x3e114e5d	0.1419005
58	0x3d8ddb2c	0.06926569
59	0xbe2f1c01	-0.17100526
60	0xbb1f8199	-0.002433872
61	0x3d430603	0.047613155
62	0x3cb02dad	0.021506155
63	0x3d6f96e5	0.058493514
64	0xbdb5d76c	-0.08878979
65	0x3d1ce8dc	0.03830801
66	0xbd147cac	-0.03625171
67	0x3e4bd233	0.19904403
68	0x3e33ed77	0.17571054
69	0xbdf202f0	-0.118169665
70	0x3ced1649	0.02894129
71	0xbdbfdb15	-0.093679585
72	0x3be1b9c3	0.0068885996
73	0x3e0053a9	0.12531914
74	0xbdaf4418	-0.0855791
75	0x3e2dda07	0.16977702
76	0xbdb76e2d	-0.08956561
77	0x3c4e2814	0.012582798
78	0x3d72e9ee	0.059305124
79	0x3e48fcc2	0.1962767
80	0xbeb1dcda	-0.3473881
81	0x3ea3139f	0.31850907
82	0x3dd288d6	0.10280006
83	0xbe14e901	-0.14542009
84	0xbe67c4fd	-0.22633739
85	0x3e52f2e8	0.20600474
86	0xbeaecd90	-0.34141207
87	0x3eab9e62	0.33519274
88	0x3ef3a93f	0.47590062
89	0xbdd6ac45	-0.104820766
90	0xbe419964	-0.1890617
91	0x3e9dfea2	0.30858332
92	0x3e6338c8	0.22189629
93	0x3d21cc1d	0.0395013
94	0xbe2ff668	-0.1718384
95	0x3ee4fe78	0.44725394
96	0xbeca37e6	-0.39495772
97	0x3ee5f7fe	0.44915766
98	0x3d1c246e	0.03812068
99	0x3c84d73e	0.016215917
100	0xbe633a53	-0.22190218
101	0x3e6fdf9e	0.23425147
102	0xbe74f24c	-0.23920554
103	0x3ea65cd9	0.32492712
104	0x3ea519ad	0.32246152
105	0xbdabb960	-0.08384967
106	0xbe3deebb	-0.185481
107	0x3ea156f8	0.31511664
108	0x3df13175	0.11777011
109	0x3e118d84	0.1421414
110	0xbe97e8f6	-0.29669923
111	0x3e8688b3	0.26276168
112	0xbcf69b8e	-0.030103471
113	0x3d0e2cee	0.034710817
114	0xbe6140ec	-0.21997422
115	0x3e808aca	0.25105888
116	0x3e147585	0.14497955
117	0xbda3a202	-0.07989885
118	0xbb943d58	-0.0045239143
119	0xbdfab52c	-0.12241587
120	0xbdc83873	-0.09776392
121	0x3e33d9b0	0.1756351
122	0x3d6a893f	0.057259794
123	0x3e094550	0.13405347
124	0xbe17641e	-0.14784285
125	0xbe86750f	-0.26261184
126	0xbda2d741	-0.07951213
127	0x3b3beb47	0.0028674172
128	0xbeb347bc	-0.35015666
129	0x3e2483a3	0.1606584
130	0x3e3d484c	0.1848461
131	0x3ce02e6a	0.027365882
132	0xbda05936	-0.07829516
133	0xbe06d60b	-0.13167588
134	0xbd0ff4f7	-0.035145726
135	0x3d98e0a8	0.07464725
136	0x3e70f22a	0.23529878
137	0xbe1bb34e	-0.15205118
138	0xbe8d8882	-0.2764321
139	0x3ed2e419	0.4118965
140	0x3e5d1775	0.2159098
141	0x3dc6f480	0.097146034
142	0x3d38443b	0.044986945
143	0x3ecd3c66	0.40085143
144	0xbd8713cc	-0.06595573
145	0xbdd9dc90	-0.10637772
146	0x3de081ac	0.10962233
147	0x3dff6047	0.12469535
148	0x3d5d36a2	0.05400718
149	0xbd5a5ee9	-0.05331317
150	0x3dad4c43	0.084618114
151	0x3e2a95d4	0.16658717
152	0xbd6bc50b	-0.05756096
153	0x3d5d2a5f	0.053995486
154	0xbbc1fd3a	-0.0059200795
155	0x3e192c8c	0.149584
156	0xbcd5ed3b	-0.026114097
157	0xbd0a1681	-0.033712868
158	0xbdaef603	-0.08543017
159	0x3e29c057	0.16577278
160	0xbe8a3c64	-0.269992
161	0x3e50b6aa	0.20382181
162	0x3e2dc536	0.16969761
163	0xbe8bf6c4	-0.27336705
164	0xbd691483	-0.056904327
165	0x3e532c0b	0.2062227
166	0xbe6c8b2f	-0.2309997
167	0x3cf3461c	0.029696517
168	0x3dae8bca	0.085227564
169	0x3dd83f01	0.10558892
170	0x3e2129de	0.15738627
171	0x3ec4aa9a	0.3841141
172	0xbb91369f	-0.00443156
173	0x3e94d08a	0.29065353
174	0xbeaa6e79	-0.3328741
175	0x3ef44dfe	0.47715753
176	0xbe0fa8be	-0.14029214
177	0x3d2095a9	0.039205227
178	0xbda6fa4c	-0.08153209
179	0xbb390e30	-0.0028237216
180	0x3caef039	0.021354781
181	0x3d4a88f6	0.049447022
182	0xbd89a235	-0.06720392
183	0x3cb2ebfc	0.021841042
184	0x3da9ea2a	0.082966164
185	0xbd3c7d6f	-0.04601806
186	0xbe15200f	-0.1456301
187	0x3f011743	0.5042612
188	0x3db4b81f	0.08824181
189	0x3e21af37	0.15789495
190	0xbce05f7d	-0.027389282
191	0x3f00c1a5	0.5029548
192	0xbe70baef	-0.2350881
193	0x3cc25c8e	0.023725774
194	0x3e753fdb	0.2395014
195	0x3e0517db	0.12997381
196	0x3c26a3e0	0.010170907
197	0xbc82e201	-0.015976908
198	0xbd9fb68c	-0.0779849
199	0x3e133962	0.14377359
200	0x3cbcf7cf	0.023067383
201	0x3e21c432	0.15797499
202	0xbdf390ac	-0.11892828
203	0x3ea9774e	0.33098835
204	0xbd98e6ab	-0.074658714
205	0x3e2eb476	0.17061028
206	0xbe32bb7e	-0.17454335
207	0x3eaf8796	0.3428313
208	0xbe30aaf9	-0.17252721
209	0x3c972480	0.018450022
210	0x3e10d2dd	0.14142938
211	0x3e39a2b8	0.18128479
212	0xbe9ab5a9	-0.3021672
213	0xbd09c2e4	-0.033633128
214	0x3cb06ebf	0.021537183
215	0x3e4195c7	0.18904792
216	0xbdd3c6b9	-0.10340638
217	0xbcc9b6e1	-0.024623336
218	0xbe315eac	-0.1732127
219	0x3d255eeb	0.040373724
220	0x3d04c29e	0.032412164
221	0x3e7318c5	0.23739918
222	0xbd9fbf08	-0.07800108
223	0x3e503028	0.2033087
224	0xbeb6bb51	-0.35689786
225	0x3e76c89e	0.24099967
226	0x3d69de24	0.057096615
227	0x3ad72f91	0.0016417374
228	0xbe6da5ce	-0.2320778
229	0x3e32386a	0.17404333
230	0xbe467ad1	-0.19382788
231	0xbc5bb3ff	-0.013409614
232	0x3dc37b66	0.09545021
233	0xbe56cae3	-0.20975833
234	0xbdf20c3f	-0.11818742
235	0x3ebb5ca8	0.3659413
236	0x3ec7022b	0.38868842
237	0x3f0ba5f6	0.5455011
238	0xbe8a0243	-0.2695485
239	0x3ef7a565	0.48368374
240	0xbe6529f8	-0.22379291
241	0xbcb2eb44	-0.021840699
242	0xbb91c1f9	-0.004448172
243	0xbde52391	-0.111884244
244	0xbe9c0995	-0.3047606
245	0x3cc9f875	0.024654606
246	0xbe14c127	-0.14526807
247	0xbd80c728	-0.06287986
248	0x3e1605cd	0.1465065
249	0x3a85341c	0.0010162625
250	0xbe6b5efb	-0.22985451
251	0x3e5e44e8	0.21705973
252	0xbbb00458	-0.0053716116
253	0x3d94b0d1	0.072602876
254	0x3d91d3b3	0.071204565
255	0x3e9400da	0.289069

encoder.rnn.bias_ih_l0 f4 [48]
0	0x3efc1ff5	0.4924313
1	0x3e82c381	0.25539783
2	0x3dea3b81	0.11437131
3	0x391b0796	0.00014784778
4	0x3e3b8f19	0.18316306
5	0x3e7bcb66	0.24589309
6	0x3e3d59e7	0.18491326
7	0x3d9aa1ad	0.075503685
8	0x3e9c20a8	0.30493665
9	0x3e25a68c	0.16176814
10	0x3ecd4508	0.4009173
11	0x3ec84774	0.39117014
12	0x3ea5bfc4	0.32372868
13	0x3e8624fb	0.2620009
14	0x3ec68789	0.3877528
15	0x3ebfcf8f	0.37463042
16	0xbebc065b	-0.367236
17	0xbeb38aea	-0.3506692
18	0xbea1d722	-0.31609446
19	0xbe86984b	-0.26288065
20	0xbf4fdbc5	-0.81194717
21	0xbded124d	-0.11575756
22	0x3e04db6f	0.12974332
23	0xbec58e6a	-0.38585216
24	0xbf0b92a8	-0.54520655
25	0xbece4e62	-0.40294176
26	0xbed427a9	-0.41436508
27	0xbec4a3d3	-0.38406238
28	0xbda5ed78	-0.08101934
29	0xbe808c65	-0.25107113
30	0xbe083faf	-0.13305543
31	0xbf1d5237	-0.61453575
32	0xbee2bae0	-0.442832
33	0x3deed4cf	0.11661684
34	0xbd1ada7f	-0.03780603
35	0xbdcad8ff	-0.0990467
36	0xbd7cab93	-0.061687063
37	0xbd69a485	-0.057041664
38	0x3aed3a35	0.0018099012
39	0xbdbabaae	-0.091176376
40	0x3c83d329	0.0160919
41	0x3d60c560	0.05487573
42	0xbe4a082f	-0.19729684
43	0x3ea1d1b7	0.31605312
44	0x3d582317	0.05276784
45	0x3d950c0b	0.07277688
46	0xbc4dfc60	-0.012572378
47	0x3d57b3e6	0.0526618

encoder.rnn.bias_hh_l0 f4 [48]
0	0x3efc1ff6	0.49243134
1	0x3e82c383	0.2553979
2	0x3dea3b7c	0.11437127
3	0x391b1286	0.00014788852
4	0x3e3b8f15	0.183163
5	0x3e7bcb66	0.24589309
6	0x3e3d59e4	0.18491322
7	0x3d9aa1af	0.0755037
8	0x3e9c20a9	0.30493668
9	0x3e25a68a	0.16176811
10	0x3ecd450b	0.40091738
11	0x3ec84774	0.39117014
12	0x3ea5bfc6	0.32372874
13	0x3e8624fb	0.2620009
14	0x3ec6878a	0.38775283
15	0x3ebfcf8f	0.37463042
16	0xbebc065b	-0.367236
17	0xbeb38ae7	-0.35066912
18	0xbea1d723	-0.3160945
19	0xbe86984b	-0.26288065
20	0xbf4fdbc3	-0.81194705
21	0xbded1249	-0.11575753
22	0x3e04db70	0.12974334
23	0xbec58e68	-0.3858521
24	0xbf0b92a8	-0.54520655
25	0xbece4e63	-0.4029418
26	0xbed427aa	-0.4143651
27	0xbec4a3d3	-0.38406238
28	0xbda5ed75	-0.08101932
29	0xbe808c64	-0.2510711
30	0xbe083faf	-0.13305543
31	0xbf1d5234	-0.61453557
32	0xbecbc65c	-0.39799774
33	0x3e0c94e5	0.13728674
34	0x3d94892a	0.072527245
35	0x3e2adab0	0.16684985
36	0xbeb27a83	-0.34859094
37	0xbb557bb4	-0.0032574954
38	0xbd105de1	-0.03524578
39	0x3e5b421d	0.21411939
40	0x3d8eb716	0.069685146
41	0xbde0a01b	-0.10968038
42	0xbe567be4	-0.20945698
43	0x3eba35ab	0.3636907
44	0x3e39376f	0.18087552
45	0x3e1310d2	0.14361885
46	0x3d0b0cfe	0.033947937
47	0x3e85ad61	0.2610884

encoder.rnn.weight_ih_l0_reverse f4 [48, 124]
0	0x3e3c3b97	0.18382107
1	0xbe1d8024	-0.15380913
2	0x3e2b009a	0.16699448
3	0x3e1dd838	0.15414512
4	0x3e068a91	0.13138796
5	0xbdb4f095	-0.0883495
6	0x3e24e98c	0.16104716
7	0x3e294954	0.16531879
8	0x3e39cc6e	0.1814439
9	0x3e432c53	0.19059877
10	0x3cfbebff	0.03075218
11	0xba4f26a8	-0.00079021836
12	0xbe5b8821	-0.21438648
13	0xbdfb698c	-0.12275991
14	0x3e064937	0.13113867
15	0xbe03856c	-0.12843865
16	0x3e2d6396	0.1693252
17	0x3d19906d	0.03749125
18	0x3e342a02	0.1759415
19	0xbe21a14f	-0.1578419
20	0xbd4b531a	-0.0496398
21	0xbd40f24d	-0.047106076
22	0xbe3d08bd	-0.18460365
23	0x3ca3afcd	0.01998129
24	0x3d58b384	0.052905574
25	0xbcda7395	-0.026666442
26	0xbe01d793	-0.12679891
27	0xbd02983f	-0.031883474
28	0xbdb0af9d	-0.086272456
29	0xbdb8ccc4	-0.09023431
30	0x3b190105	0.0023346555
31	0xbe0d8ff7	-0.1382445
32	0xbdf78af8	-0.12087053
33	0x3da756fd	0.081708886
34	0xbd2875b1	-0.041127864
35	0xbdc47844	-0.09593251
36	0xbdb81e9f	-0.089902155
37	0x3c041bb7	0.008063248
38	0xbd2f9396	-0.04286536
39	0x3dda7b6b	0.10668071
40	0xbe0c499f	-0.13699959
41	0xbd0bedbb	-0.034162264
42	0x3e04e6d7	0.12978683
43	0x3d53afc8	0.05168131
44	0x3dafc4d5	0.085824646
45	0xbdf96e21	-0.121792085
46	0x3de1242b	0.109932266
47	0xbcbc58ac	-0.0229915
48	0x3de828e1	0.11335922
49	0xbcba5671	-0.022746297
50	0x3e3af251	0.18256499
51	0x3e39d2d8	0.18146837
52	0xbdf000ef	-0.11718928
53	0x3e8990dd	0.26868334
54	0x3d912139	0.07086415
55	0xbd93432e	-0.07190548
56	0x3d494443	0.049137365
57	0x3ce61c28	0.028089598
58	0xbe2ab2bf	-0.16669749
59	0x3d589b5c	0.052882537
60	0x3cd37df0	0.025816888
61	0x3e24b4c3	0.1608458
62	0xbe0b02ec	-0.13575333
63	0xbd78f606	-0.0607815
64	0xbb00d888	-0.0019660313
65	0xbdba428e	-0.090947255
66	0x3c8ab73d	0.016933078
67	0x3d92e4bb	0.07172533
68	0xbdaadea7	-0.08343249
69	0xbdd284d9	-0.10279245
70	0x3df8cf62	0.1214893
71	0xbd48d7e4	-0.049034014
72	0xbd0b227d	-0.033968437
73	0x3d871a14	0.06596771
74	0xbbb28cc9	-0.005448912
75	0x3d5f58fe	0.05452823
76	0xbd8b075a	-0.067885116
77	0xbe6cc9aa	-0.23123804
78	0x3de5e404	0.11225131
79	0xbd421387	-0.047381904
80	0xbe007eef	-0.12548421
81	0xbd930214	-0.07178131
82	0xbd952a78	-0.07283491
83	0xbdb72725	-0.08943013
84	0xbc261545	-0.010136907
85	0x3e2b95be	0.16756341
86	0x3e7f077f	0.24905203
87	0x3dd46e59	0.1037261
88	0x3d93a1df	0.07208609
89	0x3e33f29c	0.17573017
90	0xbe5a5b40	-0.21323872
91	0xbdafd7f9	-0.085861154
92	0xbdb1fd5e	-0.08690904
93	0x3e6e5de6	0.23278007
94	0xbe3a8ac6	-0.18217
95	0xbe056644	-0.13027292
96	0xbe3dee84	-0.18548018
97	0x3d93165e	0.071820006
98	0xbd954f8e	-0.072905645
99	0x3dd055c9	0.10172612
100	0x3d9cf349	0.076635905
101	0xbadfaaa8	-0.0017064409
102	0x3df793e1	0.120887525
103	0x3dfb8f1b	0.122831546
104	0x3c2b60e7	0.010460115
105	0x3ce48199	0.027893828
106	0xbe48a832	-0.19595411
107	0xbe66d7ab	-0.22543208
108	0x3d440175	0.047852952
109	0xbe1e674b	-0.1546909
110	0xbe0ab725	-0.13546427
111	0x3dee2171	0.11627472
112	0x3c32b5d0	0.010907605
113	0xbe073911	-0.13205363
114	0x3dabfbd1	0.083976395
115	0x3c4b23ae	0.012398643
116	0xbe7ca7e8	-0.24673426
117	0xbceba7e0	-0.028766572
118	0x3e43e56f	0.1913049
119	0x3b9ad42e	0.004725001
120	0xbde27191	-0.11056817
121	0x3d3e62f4	0.046481088
122	0xbdb1d85e	-0.08683847
123	0xbe0f54ea	-0.13997236
124	0x3e708dd0	0.23491597
125	0xbe3b715d	-0.18304963
126	0x3e716346	0.23573026
127	0x3d7eaf1c	0.062178716
128	0x3e35a9ef	0.17740606
129	0xbde8306f	-0.11337363
130	0x3e8a0a5c	0.2696103
131	0x3e405372	0.18781832
132	0x3e58aa07	0.2115861
133	0xbd93eb28	-0.07222587
134	0x3d910cb8	0.07082504
135	0x3db0db80	0.08635616
136	0xbe50dfff	-0.20397948
137	0xbe648110	-0.22314858
138	0x3dc2b8c8	0.095079005
139	0xbd743ac9	-0.059626374
140	0x3e611309	0.21979918
141	0xbdaa8d0c	-0.08327684
142	0x3e606c45	0.21916302
143	0xbe47531b	-0.19465296
144	0xbc324fdc	-0.010883298
145	0xbe0322d0	-0.12806249
146	0xbe236b54	-0.15958911
147	0xbd10e636	-0.035375796
148	0xbe45cb3d	-0.1931581
149	0xbe27297a	-0.16324416
150	0xbe53e123	-0.20691352
151	0xbd909e4c	-0.07061443
152	0x3d56f32a	0.052477993
153	0xbe6fcb79	-0.23417462
154	0xbd6f1d8f	-0.0583778
155	0xbe941b09	-0.28926876
156	0xbd74d744	-0.059775606
157	0xbde2e38c	-0.11078557
158	0x3d0d46d3	0.03449137
159	0xbde91f7e	-0.1138296
160	0xbdaf972b	-0.08573755
161	0x3de5f325	0.11228017
162	0xbd73d8c5	-0.0595329
163	0xbb554d23	-0.0032547198
164	0xbe5f23cc	-0.21790999
165	0x3b56234f	0.0032674854
166	0x3df6ff24	0.12060383
167	0x3d3e9c83	0.04653598
168	0x3e18eb98	0.14933622
169	0xbe2df839	-0.1698922
170	0x3e549a23	0.20761923
171	0x3df40729	0.11915428
172	0x3e0ca764	0.1373573
173	0xbe4c712d	-0.19965048
174	0x3ea0d418	0.31411815
175	0x3e773c01	0.24143983
176	0xbe3af0e2	-0.18255952
177	0x3e7efee0	0.24901915
178	0x3dc987e2	0.09840371
179	0xbadc2542	-0.0016795772
180	0x3d872aac	0.06599936
181	0x3da23cdd	0.07921765
182	0xbe5df411	-0.21675135
183	0x3e23e5af	0.16005586
184	0x3b7ac867	0.0038266422
185	0x3e218652	0.15773895
186	0xbe26c134	-0.16284639
187	0x3d5b40ca	0.053528585
188	0x3c9af573	0.018915867
189	0xbbe88c07	-0.0070967707
190	0xbe6e8389	-0.23292364
191	0x3d911069	0.07083208
192	0xbe8edaf9	-0.27901438
193	0xbd647fcf	-0.05578595
194	0x3e0ac0a5	0.1355005
195	0x3e23062b	0.15920322
196	0xbe85a970	-0.26105833
197	0x3e0d6246	0.1380702
198	0x3b55d86c	0.0032630218
199	0x3e1cfaee	0.15330097
200	0xbe366657	-0.17812477
201	0xbe0ce687	-0.13759814
202	0x3c3529a9	0.011057296
203	0x3dd25eee	0.10272013
204	0xbbdabe8a	-0.006675546
205	0xbe0776be	-0.1322889
206	0xbe42b527	-0.19014417
207	0x3c7932ee	0.0152098965
208	0xbda0b7fa	-0.07847591
209	0x3df7263a	0.12067838
210	0x3e80aa07	0.2512972
211	0x3dd96201	0.10614396
212	0x3bd9da3b	0.0066483296
213	0x3e85ca15	0.2613074
214	0xbea20a5f	-0.31648538
215	0xbdf6e689	-0.1205569
216	0xbe69296e	-0.2276971
217	0x3e2f652f	0.17128442
218	0xbe481f9c	-0.19543308
219	0xbe8baed3	-0.27281818
220	0xbe909220	-0.28236485
221	0x3df0635c	0.11737701
222	0xbe40bbfb	-0.18821709
223	0x3e8b62db	0.27223858
224	0xbde97ed4	-0.11401144
225	0x3e0e7d83	0.13915066
226	0x3cc4b45d	0.024011785
227	0x3e4f9718	0.20272481
228	0x3e761c67	0.24034272
229	0xbd2c6718	-0.042090505
230	0xbe502ebd	-0.20330329
231	0xbe36a279	-0.17835416
232	0x3e179fef	0.14807104
233	0xbe9726a4	-0.29521668
234	0xbe4cee19	-0.20012702
235	0x3d1d25ca	0.038366117
236	0xbcc525ae	-0.024065819
237	0xbdb767a3	-0.08955314
238	0x3e83ad8d	0.25718346
239	0x3dd844f0	0.10560024
240	0xbea06d80	-0.31333542
241	0xbe129080	-0.14312935
242	0x3e85695e	0.2605695
243	0xbe112b10	-0.14176583
244	0xbd01ce7b	-0.031691056
245	0xbe413534	-0.18867952
246	0xbd66bcf8	-0.05633256
247	0xbdf299ed	-0.11845765
248	0x3e813827	0.25238153
249	0xbe4fbdb6	-0.20287213
250	0x3e8dc996	0.2769286
251	0x3de4055b	0.11133834
252	0x3e68102c	0.22662419
253	0xbe0d94e7	-0.13826333
254	0x3ebb408e	0.3657269
255	0x3e6f44ae	0.23366043

encoder.rnn.weight_hh_l0_reverse f4 [48, 16]
0	0x3e3d3dd9	0.18480624
1	0xbe08ee9b	-0.13372271
2	0xbde371c0	-0.111056805
3	0x3e97696d	0.2957262
4	0xbdac9aad	-0.084279396
5	0x3e5a91d1	0.21344687
6	0xbe657eb7	-0.22411619
7	0x3df04985	0.11732773
8	0xbdeea29b	-0.11652108
9	0x3dd72976	0.10505955
10	0x3e06239b	0.1309952
11	0x3e786c11	0.24259974
12	0x3e5fe7dd	0.21865793
13	0xbe8923e0	-0.26785183
14	0xbd8a9311	-0.06766332
15	0xbcce2675	-0.025164822
16	0x3e20cb37	0.1570252
17	0x3e1cd998	0.1531738
18	0xbe230499	-0.15919723
19	0x3e4273b1	0.18989445
20	0x3de28f99	0.11062545
21	0x3e2dc41c	0.16969341
22	0xbe9b5016	-0.30334538
23	0xbe04491c	-0.12918514
24	0xbde23624	-0.11045483
25	0x3df0fcd0	0.1176697
26	0x3e4e6f06	0.2015954
27	0x3dcfcf56	0.10146968
28	0x3e3230be	0.17401406
29	0xbe60d7fb	-0.2195739
30	0xbe1d67dc	-0.1537165
31	0x3e60e0c8	0.21960747
32	0x3e22151c	0.15828365
33	0x3dd51b9e	0.10405658
34	0xbe4c9d44	-0.19981867
35	0x3df2309b	0.11825677
36	0x3d946694	0.07246128
37	0x3e264804	0.1623841
38	0xbee67842	-0.45013624
39	0xbe50aa78	-0.20377529
40	0xbdc0c36d	-0.094122745
41	0x3c01efa6	0.007930672
42	0x3e142885	0.14468582
43	0x3e4992c3	0.19684891
44	0x3dc291e8	0.09500486
45	0xbebbaa03	-0.36653146
46	0xbe20d644	-0.15706736
47	0xbd8205bf	-0.06348752
48	0x3e339bed	0.1753995
49	0x3e212856	0.15738043
50	0xbe343ed8	-0.17602098
51	0x3e583ca4	0.21116883
52	0x3e1a1497	0.15046917
53	0x3e394fe4	0.18096882
54	0xbe9c58ee	-0.30536598
55	0xbe14392d	-0.14474936
56	0xbe1d58ab	-0.15365855
57	0x3dd26f4b	0.10275134
58	0x3e68ce39	0.22734918
59	0x3de08ecd	0.10964737
60	0x3e397789	0.18112005
61	0xbe22cdef	-0.1589887
62	0xbe592a30	-0.212075
63	0x3e343293	0.17597418
64	0x3e19e949	0.15030397
65	0x3dbecd4c	0.09316501
66	0xbddf7074	-0.109101206
67	0x3df613ba	0.12015481
68	0x3e09c920	0.1345563
69	0x3e2f91f7	0.17145525
70	0xbe95a625	-0.2922832
71	0xbe5911e8	-0.21198237
72	0xbe46a509	-0.19398893
73	0x3daaf00e	0.08346568
74	0x3e0837f8	0.133026
75	0x3e84e094	0.2595259
76	0x3dc56cb0	0.09639871
77	0xbef2ec06	-0.47445697
78	0xbe0f3a3d	-0.1398706
79	0xbdd79d36	-0.105280325
80	0x3e6fae0d	0.23406239
81	0x3e36b4c0	0.17842388
82	0xbe59d16b	-0.21271293
83	0x3e374803	0.17898564
84	0x3e2ac75b	0.1667761
85	0x3e71eb26	0.23624858
86	0xbeb68606	-0.35649127
87	0xbe4bd203	-0.19904332
88	0xbe41432d	-0.18873282
89	0x3dc5d38f	0.09659492
90	0x3e4fd43a	0.20295802
91	0x3e48bcb4	0.19603235
92	0x3e3cdfa1	0.18444683
93	0xbea0b804	-0.31390393
94	0xbe59684f	-0.21231197
95	0x3da2ccba	0.07949205
96	0x3d816a35	0.063190855
97	0x3b49bbe6	0.0030782162
98	0xbdc22dd6	-0.09481399
99	0x3e4dee5f	0.20110463
100	0x3bb09f59	0.0053900895
101	0x3daeece1	0.08541275
102	0xbf159c69	-0.5844179
103	0xbe88547d	-0.2662696
104	0xbe258e06	-0.16167459
105	0xbc872412	-0.016496692
106	0x3ca64c1f	0.02029997
107	0x3eec27b5	0.46124044
108	0x3c687748	0.014188595
109	0xbf3ea970	-0.7447729
110	0xbd5cd32e	-0.053912334
111	0xbda034b7	-0.078225546
112	0x3defaee5	0.1170328
113	0xbcb55cd3	-0.022138989
114	0xbe79bfa9	-0.24389519
115	0x3e1d3a0b	0.15354173
116	0x3dc2ac91	0.09505571
117	0x3e142034	0.1446541
118	0xbf3fa0ee	-0.74854934
119	0xbe97a5e6	-0.29618758
120	0xbe3c07ba	-0.18362322
121	0xbda9533c	-0.08267829
122	0xbce937fb	-0.028469076
123	0x3edf04a4	0.43558228
124	0xbd88441c	-0.06653616
125	0xbf546580	-0.82967377
126	0xbd995ec4	-0.07488778
127	0xbe3c6fb2	-0.18401983
128	0x3e21a3ed	0.15785189
129	0x3b24c0a3	0.0025139234
130	0xbe1f5365	-0.15559156
131	0x3e6b2847	0.22964583
132	0x3ddc106b	0.10745319
133	0x3d49e380	0.049289227
134	0xbe381e2f	-0.17980264
135	0xbe3eb0e6	-0.18622169
136	0xbe3434ee	-0.17598316
137	0x3e27c87c	0.16385072
138	0x3e57c1b5	0.21069987
139	0xbc426c3f	-0.011866628
140	0x3e3d2f82	0.18475154
141	0x3ddedd9c	0.108821124
142	0xbe83580d	-0.25653115
143	0xbd2729c7	-0.040811326
144	0x3e2fca27	0.17166959
145	0x3e24f18a	0.16107765
146	0xbe0da760	-0.1383338
147	0x3e7fd61d	0.24984021
148	0x3e47be93	0.19506292
149	0x3e38903b	0.1802377
150	0xbe7679d6	-0.24069914
151	0xbe157f89	-0.14599432
152	0xbe47741b	-0.19477884
153	0x3e6cb9db	0.23117773
154	0x3e35a1a8	0.17737448
155	0x3e568bf4	0.20951825
156	0x3e56cd63	0.20976786
157	0xbe350da5	-0.17680986
158	0xbe400c4e	-0.18754694
159	0x3e2b463e	0.16726014
160	0x3dc09439	0.09403271
161	0xbe272f1f	-0.16326569
162	0xbd88a4d2	-0.06672062
163	0x3e9a17bf	0.30096242
164	0xbe236137	-0.15955053
165	0x3e74f5a8	0.23921835
166	0xbea11f71	-0.314693
167	0x3e179c16	0.14805636
168	0xbd4d606c	-0.050140783
169	0x3d454875	0.048164804
170	0x3dd33538	0.10312885
171	0x3f0809fc	0.53140235
172	0x3e30d934	0.17270356
173	0xbeb23727	-0.34807703
174	0xbc35bd32	-0.011092471
175	0xbd9d2604	-0.076732665
176	0x3e784f7e	0.24249074
177	0x3e4e2280	0.20130348
178	0xbed324c9	-0.41239002
179	0x3e528082	0.20556834
180	0x3e28a38e	0.16468641
181	0x3ea4e81b	0.32208332
182	0xbedc0216	-0.4297034
183	0x3de8b96f	0.11363494
184	0xbe579b88	-0.21055424
185	0x3c8e7d2b	0.01739367
186	0x3e230ce5	0.15922888
187	0xbc2a9e07	-0.010413653
188	0x3e32f74d	0.1747715
189	0xbea63457	-0.32461807
190	0xbea18d22	-0.31552988
191	0x3ea597b9	0.32342318
192	0x3de4883a	0.11158796
193	0xbc7c66e6	-0.015405392
194	0xbe2ed79d	-0.17074437
195	0x3e436247	0.19080459
196	0x3e3e0d85	0.18559845
197	0x3a20d8eb	0.0006135839
198	0xbde1c564	-0.110239774
199	0x399bd31a	0.00029721187
200	0xbe16f218	-0.14740789
201	0x3e59091a	0.21194878
202	0x3e6b2a8a	0.22965446
203	0xbdfb42ce	-0.12268601
204	0x3e70ef2e	0.2352874
205	0x3e8cdb08	0.27510858
206	0xbe74d088	-0.23907673
207	0x3dcacabb	0.09901949
208	0x3e33ecc1	0.17570783
209	0x3e24b6f0	0.1608541
210	0xbe3c7b16	-0.18406329
211	0x3e548807	0.20755015
212	0x3e338fe0	0.17535353
213	0x3e2597d3	0.16171198
214	0xbe84a80a	-0.25909454
215	0xbdb613f2	-0.08890523
216	0xbe82fff1	-0.25585893
217	0x3de26e11	0.1105615
218	0x3e49fccf	0.19725345
219	0x3e05dd08	0.13072598
220	0x3df634a6	0.12021761
221	0xbe9b180e	-0.3029179
222	0xbe1a0518	-0.15041006
223	0x3df05e39	0.117367215
224	0x3e5cb2c5	0.2155257
225	0x3e1aab79	0.15104474
226	0xbe3a07a3	-0.18166976
227	0x3e4509a8	0.19241965
228	0x3e0c9c1d	0.13731427
229	0x3e654fd3	0.22393732
230	0xbecc6025	-0.39917102
231	0xbe1f0773	-0.15530185
232	0xbe3e5f2c	-0.18590993
233	0x3e078f57	0.13238274
234	0x3e603af2	0.21897486
235	0x3e48feb2	0.19628409
236	0x3e56f02f	0.2099006
237	0xbeb4c1a9	-0.35304
238	0xbe421745	-0.18954189
239	0x3d99b22b	0.07504686
240	0x3d703d7d	0.05865239
241	0x3e1b6a81	0.15177347
242	0xbe158e01	-0.14604951
243	0xbdeddabb	-0.11613985
244	0xbdb1734f	-0.086645715
245	0x3e0ee75a	0.13955441
246	0xbe81e6ed	-0.25371495
247	0x3d9ce513	0.0766088
248	0x3de2fa0e	0.110828504
249	0xbe7d47c3	-0.24734406
250	0x3b752473	0.0037405759
251	0xbdae1cf6	-0.085016176
252	0xbba3119e	-0.0049764654
253	0x3d02e3de	0.031955592
254	0xbd5bd92a	-0.0536739
255	0xba3db8d8	-0.00072373217

encoder.rnn.bias_ih_l0_reverse f4 [48]
0	0x3e00e052	0.12585571
1	0x3e1f46f7	0.15554415
2	0x3db3df1a	0.087827876
3	0x3d747a4b	0.05968694
4	0xbd1f834b	-0.03894357
5	0xbbd97e64	-0.0066373814
6	0x3dfa69ce	0.12227212
7	0x3d2c28d9	0.042031143
8	0x3e4ac4aa	0.19801584
9	0x3dbdcae1	0.09267212
10	0x3e2c7c9b	0.16844408
11	0x3d67bffa	0.056579567
12	0x3e51e591	0.20497729
13	0x3d6c5b9c	0.057704553
14	0x3d8e32af	0.06943261
15	0x3e50537a	0.20344344
16	0xbc369261	-0.011143298
17	0xbe51d521	-0.20491458
18	0xbd64252a	-0.055699505
19	0xbd1263ee	-0.03573983
20	0xbd4c7d3c	-0.04992412
21	0x3c9fff02	0.019530777
22	0xbeacec20	-0.337739
23	0xbed36664	-0.41289055
24	0xbdf048e9	-0.117326565
25	0xbe39e461	-0.18153526
26	0xbdf416a0	-0.11918378
27	0xbef2dad8	-0.4743259
28	0xbd7857fa	-0.060630776
29	0xbdd469b7	-0.10371726
30	0xbaaaa2a5	-0.0013018443
31	0xbf73d400	-0.9524536
32	0xbd3d05f2	-0.046148248
33	0x3dc6b9cb	0.09703406
34	0xbcb01f3b	-0.021499267
35	0xbd689144	-0.05677916
36	0x3d1905ad	0.03735893
37	0x3d6955cd	0.05696659
38	0x3dc88ae4	0.09792116
39	0x3e19de56	0.1502622
40	0x3d87a9bf	0.066241734
41	0x3de65594	0.112467915
42	0x3c9ef628	0.019404486
43	0xbde953c2	-0.11392929
44	0xbcb4e991	-0.02208403
45	0x3d916548	0.07099396
46	0xbddb3903	-0.107042335
47	0xbda0e0d7	-0.07855385

encoder.rnn.bias_hh_l0_reverse f4 [48]
0	0x3e00e057	0.12585579
1	0x3e1f46f7	0.15554415
2	0x3db3df12	0.08782782
3	0x3d747a50	0.05968696
4	0xbd1f8351	-0.038943592
5	0xbbd97e5b	-0.006637377
6	0x3dfa69ca	0.12227209
7	0x3d2c28d8	0.04203114
8	0x3e4ac4ae	0.1980159
9	0x3dbdcae3	0.09267213
10	0x3e2c7c98	0.16844404
11	0x3d67bff4	0.056579545
12	0x3e51e58c	0.20497721
13	0x3d6c5b92	0.057704516
14	0x3d8e32b6	0.06943266
15	0x3e50537b	0.20344345
16	0xbc369251	-0.011143283
17	0xbe51d51d	-0.20491453
18	0xbd642523	-0.05569948
19	0xbd1263f0	-0.03573984
20	0xbd4c7d3c	-0.04992412
21	0x3c9ffef3	0.019530749
22	0xbeacec20	-0.337739
23	0xbed36663	-0.41289052
24	0xbdf048e8	-0.11732656
25	0xbe39e45c	-0.18153518
26	0xbdf416a3	-0.1191838
27	0xbef2dad7	-0.47432587
28	0xbd7857f5	-0.060630757
29	0xbdd469b3	-0.10371723
30	0xbaaaa30d	-0.0013018564
31	0xbf73d404	-0.95245385
32	0xbd3ef962	-0.04662455
33	0x3dd3c7f2	0.10340871
34	0xbd131f55	-0.035918552
35	0x3a74413e	0.0009317583
36	0x3ce05574	0.027384497
37	0x3d5ca0e1	0.053864364
38	0x3d441ab2	0.04787702
39	0x3df38fde	0.11892675
40	0x3d69bb9a	0.057063676
41	0x3da752cd	0.0817009
42	0x3cc6bb23	0.024259156
43	0xbe0d9c20	-0.13829088
44	0x3d578897	0.052620497
45	0x3d5dff2c	0.05419843
46	0xbd9551d4	-0.07290998
47	0x3e5293ff	0.20564269

encoder.fc.weight f4 [16, 32]
0	0x3d34816c	0.04406874
1	0x3db9f030	0.09079015
2	0x3d7c0d07	0.06153586
3	0x3dab4d1b	0.08364316
4	0x3cc39e5c	0.023879223
5	0x3db132d6	0.08652274
6	0xbd4e794d	-0.05040865
7	0xbda1fd00	-0.07909584
8	0x3d95f592	0.073222294
9	0xbd56630b	-0.05234055
10	0x3db09886	0.086228415
11	0xbda89922	-0.08232333
12	0x3d777ba7	0.06042066
13	0x3e028b5c	0.12748474
14	0xbdb05420	-0.086097956
15	0xbc8fa499	-0.017534541
16	0x3db1bd95	0.08678738
17	0x3d8c1b21	0.06841112
18	0xbd7601fb	-0.060060482
19	0x3e06a461	0.13148643
20	0x3e15770f	0.14596198
21	0x3dbdaf17	0.09261911
22	0xbe375e66	-0.17907104
23	0xbe58f4c3	-0.21187119
24	0xbdfac598	-0.12244719
25	0x3dcf3e74	0.10119334
26	0x3dc74f2e	0.09731899
27	0x3e19e34c	0.15028113
28	0x3d83dcf1	0.064386256
29	0xbe5d672d	-0.2162139
30	0xbda61dd7	-0.0811116
31	0x3b6c64b0	0.0036070757
32	0xbd07c9b9	-0.033151362
33	0xbbf2625f	-0.0073969807
34	0xbd19fa67	-0.037592318
35	0x3d28b9cf	0.041192826
36	0xbc153fc4	-0.009109441
37	0x3cdbca2b	0.0268298
38	0xbcebd529	-0.028788166
39	0x3c1044b3	0.008805442
40	0xbd00d67b	-0.031454545
41	0xbd076cdc	-0.0330628
42	0x3bbc1113	0.00573934
43	0x3c86a6c9	0.016436951
44	0x3d3317a8	0.043723732
45	0x3ccb8ace	0.02484646
46	0xbd61aab3	-0.055094432
47	0x3d06bf29	0.03289715
48	0x3d6054f0	0.054768503
49	0x3d8985a4	0.06714943
50	0xbdb45715	-0.08805672
51	0x3ddacd65	0.10683707
52	0x3da0df8a	0.07855137
53	0x3ddfa02a	0.10919221
54	0xbd89698e	-0.06709586
55	0xbe568523	-0.20949225
56	0xbd94f3b8	-0.07273048
57	0x3d89ab94	0.06722179
58	0x3d622e8b	0.055220168
59	0x3ddf9c98	0.1091854
60	0x3da55501	0.08072854
61	0xbe0464ee	-0.12929127
62	0xbd984d8f	-0.07436668
63	0xbca0770c	-0.019588016
64	0xbc56e6fb	-0.0131165935
65	0xbcc32571	-0.023821564
66	0x3d049d68	0.032376677
67	0x3e13816a	0.14404836
68	0xbd94b3a9	-0.0726083
69	0xbde3d35e	-0.111242995
70	0x3ddf7704	0.10911372
71	0x3dc70bc9	0.09719045
72	0xbdb220af	-0.0869764
73	0xbce531f7	-0.027977927
74	0xbd72fc76	-0.059322797
75	0x3ddea50d	0.10871325
76	0xbcf295d5	-0.029612461
77	0xbc95c46d	-0.01828214
78	0x3bb1e0d2	0.005428412
79	0xbcf6fd82	-0.030150179
80	0xbc9f5d00	-0.019453526
81	0x3ca2d0e3	0.019874996
82	0xbcbcf723	-0.023067063
83	0x3d62862b	0.055303734
84	0x3df03a39	0.11729855
85	0x3e44ca70	0.19217849
86	0xbe0e5f8c	-0.13903636
87	0x3dcecd05	0.10097698
88	0xb8cb284b	-9.6872995e-05
89	0x3e6a6469	0.22889866
90	0xbcf900cb	-0.030395886
91	0x3d5f2847	0.05448177
92	0x3e91641b	0.28396687
93	0xbec271eb	-0.37977538
94	0xbcf16544	-0.029467233
95	0xbcda7b68	-0.026670173
96	0xbcb9a5f2	-0.022662137
97	0xbde17a9d	-0.11009715
98	0xbd956050	-0.07293761
99	0xbd9411e6	-0.07229976
100	0x3cc2e8fe	0.02379274
101	0xbdd5dbb3	-0.10442295
102	0x3dd28b44	0.10280469
103	0xbd72d82f	-0.0592882
104	0xbc83b346	-0.016076695
105	0xbd7c43c7	-0.061588075
106	0xbd321763	-0.043479335
107	0x3e15fc1f	0.14646958
108	0xbc6144a7	-0.013749278
109	0xbd73d986	-0.05953362
110	0x3da2b53b	0.07944723
111	0x3d357bfd	0.044307698
112	0xbe12536a	-0.14289632
113	0xbcf5e3d2	-0.03001586
114	0x3d8e7c12	0.06957258
115	0xbdf9dac3	-0.121999286
116	0xbe0bde43	-0.13659005
117	0xbe219fdf	-0.15783642
118	0x3e955f92	0.29174477
119	0x3eb905b4	0.36137164
120	0x3e223a72	0.15842608
121	0xbddb5751	-0.10710014
122	0xbd281c7e	-0.041042797
123	0xbe4a3ee3	-0.19750552
124	0xbd9d680e	-0.076858625
125	0x3e857465	0.26065364
126	0x3d92b857	0.07164066
127	0x3d561120	0.052262425
128	0xbc3afa5a	-0.0114122275
129	0x3c29e4ee	0.0103695225
130	0xbdd8a0b6	-0.10577528
131	0x3ba5d9d5	0.005061368
132	0x3cadee74	0.021231867
133	0x3cecc5dc	0.02890294
134	0xbc23faac	-0.010008495
135	0x3d019348	0.0316346
136	0xbcd4e30c	-0.02598717
137	0x3d697a2a	0.05700127
138	0x3def1ce6	0.11675434
139	0xbd58ebe7	-0.05295935
140	0xbcc3adaf	-0.02388653
141	0x3b44e821	0.0030045586
142	0xbd962427	-0.07331114
143	0xb982dd6e	-0.0002496051
144	0x3e030def	0.12798284
145	0x3db5f7a8	0.08885127
146	0xbd94591e	-0.0724356
147	0x3e24d9eb	0.16098754
148	0x3e52d8ad	0.20590468
149	0x3e080e0c	0.13286608
150	0xbe9e86cf	-0.30962226
151	0xbef7406b	-0.48291335
152	0xbe3fb941	-0.18723013
153	0x3e1e9718	0.15487325
154	0x3da17418	0.07883471
155	0x3e9e32c9	0.3089812
156	0x3d8ef8a0	0.06981015
157	0xbec1dca5	-0.3786365
158	0xbd9ed419	-0.07755298
159	0xbd5998a6	-0.053124093
160	0x3c7aaf59	0.015300595
161	0x3c555211	0.013020054
162	0x3d4ad70c	0.04952149
163	0xbcd90145	-0.026489863
164	0x3a08482f	0.00051987445
165	0x3b66ddc1	0.003522739
166	0xbce07604	-0.027400024
167	0x3ca32469	0.019914823
168	0x3d07dae0	0.03316772
169	0x3cb5c2d3	0.022187626
170	0xbc384280	-0.011246324
171	0xbc7ad78f	-0.015310182
172	0xbba27672	-0.0049579674
173	0xbcc89511	-0.024485143
174	0x3d1f0334	0.038821414
175	0xbce6579b	-0.028117945
176	0xbb90197a	-0.0043975683
177	0xbd93503d	-0.071930386
178	0x3d4bfb63	0.049800288
179	0x3a1b65a7	0.0005927928
180	0x3c228f6b	0.009921889
181	0xbce9ca3a	-0.028538812
182	0xbc2b1ad6	-0.01044341
183	0xbbd4dc43	-0.006495984
184	0x3ce8e59e	0.028429803
185	0xbc912750	-0.017718941
186	0xbd4596cc	-0.048239514
187	0x3c2123a2	0.009835156
188	0xbd0c064c	-0.034185693
189	0x3bc69d3d	0.0060612247
190	0x3c37271a	0.011178756
191	0xbc8f7df5	-0.017516116
192	0x3d7ab256	0.06120523
193	0x3dc278be	0.09495686
194	0x3c7b9a62	0.015356632
195	0x3e0d55ba	0.13802233
196	0x3d919209	0.07107932
197	0x3de67633	0.112530135
198	0xbcbf04bf	-0.023317693
199	0xbd9b974a	-0.075972155
200	0x3dcee007	0.101013236
201	0xbdd15d92	-0.10222925
202	0x3dc85988	0.09782702
203	0xbddc9c28	-0.10771972
204	0x3dd53347	0.10410171
205	0x3ded7aeb	0.1159571
206	0xbe1777f1	-0.14791848
207	0x3d49a309	0.049227748
208	0x3dac6c79	0.08419127
209	0x3e057ca6	0.13035831
210	0x3dac8b32	0.08424987
211	0x3de6c4be	0.11267994
212	0xbdb39200	-0.08768082
213	0x3e08ed75	0.13371833
214	0x3d810177	0.062991075
215	0xbdb1cf0e	-0.08682071
216	0xbdc73864	-0.097275525
217	0x3d3c624b	0.045992177
218	0xbd717601	-0.058950428
219	0x3da565e0	0.08076072
220	0x3ddb4972	0.10707368
221	0xbe403346	-0.1876956
222	0xbd8edcac	-0.069756836
223	0x3dafe837	0.08589213
224	0x3ba6654f	0.005077995
225	0x3ccd071b	0.025027802
226	0xbda64fac	-0.08120665
227	0xbd358335	-0.044314582
228	0x3d0f6deb	0.035016935
229	0x3ca22a43	0.019795543
230	0xbc9301b8	-0.017945156
231	0xbd284d52	-0.041089363
232	0x3d5a5397	0.053302374
233	0xbb8453c4	-0.004038306
234	0x3cf7f532	0.030268285
235	0x3c0b11da	0.008488143
236	0x3d77a69c	0.060461625
237	0x3d0af33c	0.033923373
238	0x3a9a5ab6	0.0011776302
239	0x3d194e84	0.037428394
240	0xbc8ef6b7	-0.017451627
241	0xbd192657	-0.03739008
242	0x3d1cef8a	0.03831438
243	0xbe10cbfe	-0.14140317
244	0xbe0a7c01	-0.13523866
245	0xbe30210b	-0.17200105
246	0x3e41bf61	0.18920662
247	0x3e0d9db1	0.13829686
248	0x3dbc7a4e	0.09203015
249	0xbe15c5a8	-0.14626181
250	0xbc2e3e03	-0.010634902
251	0xbe5e10a6	-0.21686038
252	0xbe4ed14e	-0.20197031
253	0x3e4d5a92	0.20054081
254	0x3d97dd61	0.074152716
255	0x3d8479c8	0.064685404

encoder.fc.bias f4 [16]
0	0x3d87153b	0.06595846
1	0x3c090618	0.008363269
2	0xbbec7cef	-0.0072170417
3	0xbd5aa97b	-0.053384285
4	0xbbba10e0	-0.005678281
5	0x3c98baf0	0.018643826
6	0x3d550a84	0.05201198
7	0x3d2b6bc1	0.04185081
8	0x3c57feee	0.013183339
9	0x3cfbdd0e	0.030745056
10	0xbdbdd667	-0.092694096
11	0x3a8c88dc	0.001072194
12	0xbd475c18	-0.04867181
13	0xbd0c759f	-0.03429186
14	0x3d05d86e	0.032677107
15	0x3d2c5171	0.042069856
