agl/models/last-training2.pt (torch, 70151 bytes, 24 tensors)

encoder.embed.weight f4 [8, 8]
000000 d5 fe 02 3b b9 54 6e bc 6e 04 06 3c c8 01 db bb
       0.0019988318 -0.014546567 0.008179767 -0.006683562
000010 42 c2 43 3d e7 65 db 3a f6 49 95 bc b4 e7 00 bb
       0.04779268 0.0016738743 -0.018223744 -0.0019669356
000020 60 66 c2 be 8c f6 35 3e c9 0c 53 3e f4 c8 8f 3e
       -0.3796873 0.17769831 0.20610346 0.28083003
000030 09 f4 4b be a4 63 5f 3e ed 2c 5e 3e 13 09 d1 be
       -0.19917311 0.21815354 0.21696825 -0.40827236
000040 4a 23 91 be f7 b2 d5 3e 78 75 14 3f bc 02 0b 3f
       -0.28347236 0.41738102 0.57991743 0.5430105
000050 68 c2 04 be ac 27 b1 3e c4 89 32 3f ae af fc bd
       -0.12964785 0.3460058 0.69741464 -0.12338196
000060 01 f5 ee bd 63 16 9d 3e 06 44 70 3e 7b 5b e3 3d
       -0.116678245 0.30681142 0.23463449 0.11101433
000070 98 95 0a be 18 8c 97 3d 99 85 13 3e 38 aa 33 be
       -0.13533628 0.07399768 0.14406432 -0.17545402
000080 3c b4 96 be 1c c2 c7 3e 74 3f d5 3e 4d 19 c4 3e
       -0.29434383 0.3901528 0.41649973 0.38300553
000090 f0 05 0b bf 4b c2 da 3e b9 8e a5 3e 32 b9 95 be
       -0.54305935 0.4272636 0.3233545 -0.29242855
0000a0 4a 57 2f 3e 13 ed 41 be a5 a0 42 be 5f cd 78 be
       0.17123142 -0.18938093 -0.19006594 -0.24297093
0000b0 11 8a 7e 3e 14 83 9b be 23 da 84 be 31 50 39 3e
       0.24857356 -0.30373442 -0.25947675 0.18096997
0000c0 e4 aa e4 be b9 ed eb 3e 11 c2 a7 3e 20 ff ba 3e
       -0.4466163 0.46079805 0.32765248 0.3652277
0000d0 ab d9 d8 be 50 e3 0e 3f 19 39 d8 3e f9 dc 12 bf
       -0.42353567 0.558156 0.42231062 -0.5736843
0000e0 a4 54 d3 be a2 a4 c6 3e 49 1e ab 3e 11 4f a6 3e
       -0.41275513 0.3879748 0.33421543 0.32482198
0000f0 46 0e a4 be a9 f4 30 3e 7f ff 66 3e 3c eb 74 be
       -0.3204214 0.1728083 0.22558402 -0.2391786

encoder.lstm.weight_ih_l0 f4 [8, 400]
000000 74 e2 c9 bd 7c 7d 9b 3e 44 e5 2a 3f 21 cf 32 bd
       -0.09857646 0.30369174 0.6675608 -0.043654565
000010 b5 c4 7c 3d b2 1e 4d 3d e8 56 0a ba 4d db 4d 3e
       0.061711032 0.0500781 -0.0005277232 0.20103188
000020 c3 0c 3f 3e 64 ec 23 3e bd 45 8f 3e a3 24 a7 3d
       0.18657212 0.16008145 0.27982894 0.08161285
000030 24 8b 09 3e c5 10 a4 3e 92 a3 bc 3d 65 cb 22 3e
       0.13431984 0.32044044 0.09210886 0.15897901
000040 86 d6 6c bd fa 85 bd 3d eb 4d 50 bc 70 d5 57 3e
       -0.057821773 0.092540696 -0.01271389 0.21077514
000050 7c a2 c5 bd 19 a8 8c 3e 6b ea 98 3e 9a 47 2a 3d
       -0.09650132 0.27471998 0.29866347 0.04157219
000060 61 5d b9 bb 27 82 84 bc 99 75 c3 3e 5b b9 af be
       -0.0056568836 -0.016175343 0.38175657 -0.34321102
000070 f4 a4 bb 3e 3f 06 7f be 3a 3d 98 3d 41 ad 02 3e
       0.36649287 -0.24904726 0.07433553 0.12761404
000080 2b 7e 79 3e 8b f2 92 3f e5 7f ac 3e dc 6f 1c 3e
       0.24364536 1.1480268 0.33691326 0.15277046
000090 ee f5 a1 bd 88 8b 91 bd 96 d5 16 3e 3d d8 55 bd
       -0.079082355 -0.071066916 0.14729914 -0.052208174
0000a0 f0 06 b9 3d 27 67 0f be a6 4b 9e 3d ab 99 2b 3e
       0.09034526 -0.14004193 0.077292725 0.16757838
0000b0 ef ed ba bd d1 fd bf bd aa 7a 9a 3e 3a ae 55 3e
       -0.091274135 -0.093745835 0.3017171 0.20867243
0000c0 57 3a d6 3e b2 f6 52 be 98 9b b2 bd 90 7f de be
       0.41841385 -0.2060192 -0.087210834 -0.43456697
0000d0 25 e0 72 bd d3 78 b1 3d ba 56 7c 3c fb fa f2 3c
       -0.059295792 0.086656235 0.015401537 0.029660692
0000e0 eb 52 5e 3e 27 a4 25 bd d2 21 00 3e 19 bd 0c bd
       0.21711318 -0.04043975 0.12512901 -0.034360025
0000f0 43 3b 24 3e 0b eb 94 3e dc c1 90 3e 65 67 d8 3c
       0.16038232 0.29085574 0.28272903 0.02641649
000100 91 18 20 bc 1f 91 5f 3e b4 e2 71 bd 80 eb c7 3e
       -0.009771482 0.21832703 -0.05905409 0.3904686
000110 a8 8b ee bd 89 34 f4 3d d7 8f 58 3d e6 1c 0b 3c
       -0.11647731 0.11924083 0.05287155 0.008490777
000120 39 63 c1 3d 79 4f e7 3d c9 a9 78 bd 77 54 2b 3c
       0.09442753 0.11294455 -0.060708795 0.01045715
000130 df 6b a9 3e 3e 61 8d bd d9 f5 e4 3e 5e 84 05 be
       0.33090112 -0.06903313 0.44718817 -0.13038775
000140 f9 a5 8c 3c ce 6a 3b 3e cb 5a 9b 3e af 1f aa 3d
       0.017168986 0.18302462 0.30342707 0.083068244
000150 6e 1f 0c 3e 15 72 ea 3e ad 26 86 bd 0b 50 b1 3d
       0.13683864 0.45790163 -0.065503456 0.08657845
000160 5a 22 44 3e ce d4 58 3f 9c a1 30 3e a2 51 c9 3d
       0.19153729 0.84699714 0.17249149 0.09830023
000170 fd 48 0d be 4e 14 4f 3e 26 0e 87 3d 03 dd b0 bd
       -0.13797374 0.2022259 0.065944955 -0.08635905
000180 a0 e2 51 bc b1 14 07 3d d5 49 87 3f d9 90 93 3d
       -0.012810379 0.032978717 1.0569407 0.07205362
000190 1e f0 24 bd 1e c9 c2 3b db 8f 8c be f4 e0 3d be
       -0.040268056 0.005944385 -0.27453503 -0.18542844
0001a0 04 40 91 3e 0b e6 4d bd 0f ef 34 3e de ea 63 3e
       0.28369153 -0.050268214 0.17669319 0.22257563
0001b0 57 55 96 bd f7 3d b9 3d a1 dd 5c 3c cc 7f 60 3c
       -0.07340496 0.09045022 0.013480575 0.013702344
0001c0 84 a3 54 bc dd ca 24 3e 0b 76 8b 3f 1e 24 e6 bd
       -0.012978438 0.16093011 1.0895399 -0.112373576
0001d0 04 e2 b5 3d 47 cb b9 3d 07 a9 32 3e 42 7d bf 3d
       0.08881 0.09071975 0.17447291 0.09350063
0001e0 02 d1 94 3f 4e 63 d7 3e 40 d8 50 3d 65 df 58 3e
       1.1626284 0.4206795 0.050987482 0.21178968
0001f0 2c 42 b7 ba 2b 02 35 3c b7 1b 60 3d 00 a7 07 3e
       -0.0013981513 0.01104788 0.05471393 0.13247299
000200 b3 d6 3c 3c 3d 1b 8f 3d 02 32 9b 3c 34 6a 74 3f
       0.011525798 0.06987617 0.018944744 0.95474553
000210 60 54 07 be 5d 6a 3c 3e e6 7a 84 bd 3a de 04 3d
       -0.1321578 0.1839995 -0.064687535 0.032438494
000220 a2 08 3f 3e 7c 84 c7 3c 81 b9 18 3e c3 d1 ad 3e
       0.18655637 0.024355166 0.14914514 0.33949098
000230 a2 70 4a 3f a1 35 98 3e 7c f3 b9 3e 2a fc a0 be
       0.79078114 0.29728416 0.36318576 -0.31442386
000240 9e 71 bc 3c 55 07 2b 3e 9c 52 f4 3e de e0 a4 3e
       0.023003396 0.16702016 0.47719276 0.3220281
000250 d1 b7 e5 3b 0a fd 25 3e 5f 7a 5c 3d 0b 61 5f 3d
       0.007010438 0.16209808 0.05382764 0.054535907
000260 bc 32 31 3e 57 f1 43 3e ba 54 51 3e 00 52 a6 3d
       0.1730451 0.19135033 0.20442477 0.08121109
000270 58 06 02 be ef 15 9c bb 6e 1f b5 3d d8 66 a4 3e
       -0.12697732 -0.004763357 0.08843885 0.32109714
000280 e2 2b b4 3d 49 91 5e 3f 9a 1d 2e be e4 f9 6d 3f
       0.087974325 0.8694044 -0.1700348 0.9295943
000290 d9 e8 04 3e 78 a1 1d be 5c c4 0b 3d 8c 9a fc bb
       0.1297945 -0.15393627 0.03412281 -0.007708853
0002a0 57 73 e7 bd 73 8d 8b 3e f9 f8 e1 bd b2 cf 8b 3d
       -0.11301296 0.27256355 -0.11033816 0.06826724
0002b0 99 be 0e 3d 9e 97 7c 3e 34 9b 2f bd 4b 32 03 bd
       0.034849737 0.24667212 -0.042872623 -0.032030385
0002c0 15 d4 86 3e 65 d5 b5 3e cd 26 17 bd 8d b8 ee 3d
       0.2633368 0.3551437 -0.036902238 0.11656294
0002d0 a3 96 2b bd 41 18 37 bd f5 94 e8 3e c4 72 86 3e
       -0.041891705 -0.044700865 0.45426145 0.26259434
0002e0 3b 72 7b 3e e7 06 b1 3e 2a 54 ef 3d d6 87 85 be
       0.24555294 0.3457558 0.11685975 -0.26080197
0002f0 d6 bb d4 3d 5d dd 80 bd bd ad 7c 3d b9 42 e5 3e
       0.10387389 -0.06292222 0.061689127 0.44777468
000300 b6 91 43 3f d0 ea a8 3d da d0 91 3c 0a 02 46 3e
       0.7639421 0.08247912 0.017799783 0.19336715
000310 a0 94 9a bd 0a 5d 21 3c 4b 9b 53 3e 6d 89 b8 3e
       -0.07547879 0.009848842 0.20664708 0.36042348
000320 01 75 1b 3d 18 8b 83 3d 6a a3 0c 3e 28 b5 ff 3c
       0.03795338 0.064230144 0.13734213 0.031214312
000330 d7 f0 4f 3e 8c 0a 4c 3d a9 43 94 be 61 45 cc 3e
       0.20306717 0.049814746 -0.2895787 0.39896682
000340 2b cc 8d 3e 56 f8 78 bd eb 8f f4 bd 20 61 15 bc
       0.2769483 -0.060783707 -0.11941513 -0.009117395
000350 80 c3 54 3d a2 3c 5c bd a6 6e f3 3d 91 2f 03 3d
       0.051944256 -0.05376876 0.11886339 0.032027785
000360 81 22 1c 3e b3 d0 e5 3c 6e a8 b0 3d 22 0a 81 bd
       0.15247537 0.028053617 0.086258754 -0.06300761
000370 07 0f e1 3c 39 59 ed bc 95 65 0c 3e ee b7 ab bd
       0.027472986 -0.028973209 0.13710625 -0.08384691
000380 16 11 87 3e 93 a3 a9 bc c6 55 23 3d ad 9b a0 3e
       0.26380223 -0.020707881 0.03987672 0.3136877
000390 76 c4 6d 3e 8f 43 be bd cb 7f a8 3e 69 6f 94 3e
       0.23219475 -0.092902295 0.32909998 0.2899125
0003a0 0d da 94 3e df 3f 88 3e 88 35 c2 bc 23 7b f2 3c
       0.2907261 0.2661123 -0.023707166 0.029599732
0003b0 b6 13 d6 3d 27 14 2f 3d 21 12 24 bd f4 07 52 3d
       0.10452978 0.04274383 -0.04005635 0.051277116
0003c0 7d b3 78 3b 2e 3a a7 3c 4c 9b dc bd ce 42 74 3d
       0.003794878 0.020413484 -0.10771808 0.059634022
0003d0 b1 5f aa 3e 20 cc 99 3e c7 57 05 3e 82 b0 8d 3d
       0.33276132 0.30038548 0.13021766 0.06918432
0003e0 be 4f ae 3e 97 7d d6 3d 22 67 c8 bd 9d 74 46 3f
       0.34045213 0.10473173 -0.09785296 0.7752169
0003f0 79 20 18 3e 7b b8 dd 3d dd 77 ab 3d fb b2 65 3e
       0.14856137 0.108262025 0.083724715 0.22431557

encoder.lstm.weight_hh_l0 f4 [8, 2]
000000 de ff 9b bf 23 bd 6b 3e b1 97 ee 3e ef 3c c4 3c
       -1.218746 0.23021369 0.46600106 0.023954837
000010 34 9c a9 bf d4 9d 7b be 8f 05 6d bf 64 67 74 be
       -1.3250794 -0.24571925 -0.92586607 -0.23867565
000020 0b c6 91 3f df f4 03 3d b3 6a b7 bf 76 5d e9 3e
       1.1388563 0.03221595 -1.4329437 0.45579118
000030 b3 f1 02 3d 5f f4 89 3d 00 d7 a6 3e 74 fd bc 3e
       0.031968784 0.06736063 0.32585907 0.3691212

encoder.lstm.bias_ih_l0 f4 [8]
000000 7e 66 b1 3f d3 9a e7 3d 98 9b ac 3f a8 39 80 3f
       1.3859403 0.11308827 1.3484983 1.0017595
000010 82 fb 6b bf c6 35 2b 3f 14 b4 83 3d 6e a7 3d be
       -0.92180645 0.66878927 0.064308316 -0.185209

encoder.lstm.bias_hh_l0 f4 [8]
000000 a2 ca ab 3f 19 62 28 3e de e8 9f 3f 7e c4 86 3f
       1.3421214 0.16443671 1.249294 1.0528715
000010 ac 30 68 bf f7 d9 25 3f 64 1f 8b 3d d2 77 be bd
       -0.9069927 0.6478571 0.06793097 -0.09300198

encoder.lstm.weight_ih_l0_reverse f4 [8, 400]
000000 4a 50 2b 3e 01 16 d4 3e 46 22 66 3f 80 60 95 bb
       0.16729847 0.41423038 0.8989605 -0.004558623
000010 2b bb 27 be 59 7f 23 be 2f 58 38 3e c6 89 e3 3d
       -0.16379993 -0.15966548 0.1800239 0.111102626
000020 d5 f9 aa 3e e4 98 2c 3e c1 54 4a 3e c7 6c 9c 3e
       0.33393732 0.16855198 0.19758894 0.3055174
000030 7d 80 d0 3e 37 8e 3b 3e c3 ed 3f 3e 7e 51 0e bd
       0.4072303 0.1831597 0.18743043 -0.034745686
000040 a6 0c 95 bd 0a e6 65 3b 93 1e 3a bc cd 60 21 3f
       -0.07277803 0.003507974 -0.0113598285 0.6303833
000050 04 47 d7 3e 51 62 bb 3d e3 84 49 3e 6c 2c c4 3e
       0.42046368 0.09149612 0.19679599 0.3831514
000060 81 8a a0 bc a3 c0 8c 3d a6 19 28 3d 8c 8e f3 3e
       -0.019597294 0.0687268 0.041040085 0.47569692
000070 db 21 fa bb c5 24 fe 3e d9 1b 5d 3e a1 07 80 3e
       -0.0076334304 0.49637428 0.21592654 0.2500582
000080 5b 00 37 3d eb 94 22 3f 23 f1 1b 3e d4 30 87 bd
       0.044678073 0.6350848 0.15228705 -0.0660111
000090 4b c7 3e 3d 79 9b ea 3e d0 b9 1e 3e 9d 44 94 bd
       0.04657678 0.4582174 0.1550057 -0.072396494
0000a0 30 1d f9 3d df 5b 5b 3d 29 4e 50 3d 3e bb a9 bd
       0.1216377 0.053554412 0.05085579 -0.08287667
0000b0 08 10 3d 3e 9a e5 be 3d 5a b9 60 3e 33 f4 b9 3d
       0.18463147 0.09321137 0.21945706 0.090797804
0000c0 3a 28 d4 3d 4b c5 8c bc ec 7b 1a 3f 25 2a 74 3f
       0.10359235 -0.01718392 0.6034534 0.9537681
0000d0 cf 1b 84 3e 04 4f ba 3d ac f2 aa 3d d5 ce 4d 3e
       0.25802466 0.09097102 0.08347067 0.20098431
0000e0 0e 75 bb 3e 2d 74 46 3e 6b 8f b3 3d 4e 28 ae 3d
       0.36612743 0.19380255 0.08767589 0.08503781
0000f0 d6 79 2c 3e c5 35 fa 3e e2 78 7c 3e 11 94 99 bd
       0.16843352 0.48869148 0.24655488 -0.074989446
000100 a6 32 b3 3d f3 b4 91 3d 38 82 87 3e 14 b5 87 3e
       0.08749895 0.071145914 0.26466537 0.2650534
000110 2e 67 fd 3d b3 9b bb bb e6 30 a5 3c 04 28 d1 3c
       0.123731956 -0.005725348 0.020164918 0.025531776
000120 ff 4a 3d bd b5 bf d7 3e 88 42 06 bd 69 7c 9d 3d
       -0.0462141 0.42138448 -0.032778293 0.07689745
000130 91 84 88 bc d6 bb b5 3d c6 b9 e1 bc 94 a6 7d 3e
       -0.016664775 0.088737175 -0.027554404 0.24770576
000140 38 f2 81 bd 3e d9 06 3e 02 df d0 3e 56 6b c4 3d
       -0.06345028 0.13168809 0.4079514 0.09590785
000150 7b 5d 22 3f ce 33 10 3f 9a d7 54 bb 57 c1 20 bd
       0.6342389 0.5632905 -0.0032477141 -0.039246883
000160 84 22 d2 bc f0 fa 15 3f 6b 39 bf 3e 17 43 b8 3d
       -0.025651224 0.58586025 0.37348494 0.08997171
000170 3b bd a9 3d f6 2b 22 3f 2f ee 81 3d 52 c7 f5 bd
       0.08288046 0.6334833 0.06344258 -0.12000908
000180 bc 73 8d be 54 6b b4 3e 7d 61 cf 3e c9 2d 16 3c
       -0.2762736 0.35238135 0.40504065 0.0091661895
000190 8d a7 97 3d fd 2a 9a bd 3a 45 70 3f 91 3b db 3e
       0.07405005 -0.075277306 0.9385563 0.42818883
0001a0 b7 35 34 3e 4e 45 9f 3e 9b c7 43 3e de 41 18 3e
       0.17598616 0.31107563 0.19119112 0.14868876
0001b0 93 ff e0 bc fe 4b f7 3d 6e 19 a9 3d c3 69 0b 3e
       -0.027465617 0.12075041 0.082568035 0.13614564
0001c0 fc b7 45 3e 76 cd 7c 3e 8d d1 5f 3f 01 da 6f 3d
       0.19308466 0.24687752 0.87429124 0.058557514
0001d0 fd 73 97 3d 8e 12 13 3f 23 39 0c 3e 50 6f 26 3e
       0.0739517 0.5745019 0.13693671 0.162534
0001e0 10 ff 16 3f f3 7f dc 3e b4 84 6f bc 79 58 85 3e
       0.58982944 0.43066368 -0.014619041 0.26044062
0001f0 40 79 ac bb de 55 0f 3c ad 9b e8 3d 99 cd 0b 3e
       -0.0052634776 0.0087485 0.11357818 0.13652648
000200 5c 45 17 3e 18 2f 8d 3d cd 62 62 3d ac ce 8f 3f
       0.14772552 0.06893748 0.055270005 1.1234946
000210 df e7 21 be 62 41 c5 3e d1 66 c1 3d ae 09 c5 3d
       -0.15811108 0.38526446 0.09443439 0.09620987
000220 ad 6a fe 3d 46 ab c7 bb 6b 20 a9 bd 35 12 01 bc
       0.124226905 -0.0060934154 -0.08258136 -0.007877876
000230 76 82 52 3f a4 ca 70 be 25 8c 97 3e 53 83 46 3f
       0.8223032 -0.23514801 0.2959911 0.77544135
000240 44 80 5b 3e e8 1b f6 3d 97 62 8c 3f b0 45 6d bd
       0.21435648 0.120170414 1.0967587 -0.057927787
000250 46 d6 60 3e a6 2b c9 3d da 9e bb 3e d4 95 c5 3d
       0.21956739 0.098227784 0.36644632 0.09647718
000260 42 e1 e9 3d cd 9a 5b 3f 73 27 67 3d b3 7c 93 3c
       0.11419918 0.8578308 0.056434106 0.018003797
000270 93 0a 0a 3f 52 86 b4 3d c5 d9 44 3d 60 0f d2 3e
       0.53922385 0.08814682 0.048059244 0.41027355
000280 2d 5f 80 bb 1c 7d 04 3e 71 66 72 3e a1 2c 45 3f
       -0.003917596 0.1293835 0.23671891 0.77021223
000290 fe 75 81 3e 22 23 2c 3e 83 5a e7 bb 2e 70 5d 3d
       0.25285333 0.16810277 -0.0070603504 0.05406206
0002a0 7c a8 f4 bd 65 f8 c4 bd a7 f2 c4 3e 86 b0 55 3c
       -0.11946198 -0.0961769 0.3846638 0.013042575
0002b0 05 f8 10 3e 72 0d c8 3d b0 79 20 3e 87 99 cb bb
       0.14157112 0.097681895 0.1567142 -0.0062133702
0002c0 a8 37 9b 3a c1 4d c9 3e 44 32 2d 3e 2a 72 28 3e
       0.0011842148 0.39317134 0.16913706 0.164498
0002d0 f4 3e 11 bc e7 b5 14 3e 74 b3 b0 3e 08 f5 9c 3e
       -0.008865107 0.14522515 0.34511912 0.30655694
0002e0 1a 43 e6 3e 8b 45 ae 3e 91 08 2b 3e cf b2 f0 3d
       0.4497307 0.34037432 0.16702487 0.11752855
0002f0 44 2c 51 3c 43 1f 9c bc f6 b9 e8 3e 4f 2d 44 be
       0.012766901 -0.019057875 0.45454377 -0.19157909
000300 a5 2e c8 3e 88 ea f6 3d da a3 2e 3d 90 fe 9e 3e
       0.39098087 0.12056452 0.04263673 0.3105359
000310 56 9d 88 3e 3b 3b f5 bc 66 cc b6 bd 99 d1 02 3e
       0.26682538 -0.02993547 -0.08925705 0.12775268
000320 42 dd 44 3d f0 32 63 3e 5f c2 9b bd 05 32 0e 3e
       0.04806257 0.221874 -0.07605433 0.13886268
000330 3a d0 1e 3e 38 cf 1a 3e 23 03 ee 3e fa db 71 3e
       0.1550912 0.1511811 0.46486768 0.2361907
000340 77 2e e2 3d a8 55 3e 3d e5 9f 4d 3e a4 65 2f 3d
       0.11044019 0.046468407 0.20080526 0.04282154
000350 0a 10 82 3e 81 91 de bc e6 ca 9d 3e 6e 82 06 3e
       0.25402862 -0.027168991 0.30818862 0.13135692
000360 37 e4 5d 3e fc 65 22 bc 30 5a 09 3e 00 42 e7 3e
       0.21669088 -0.00991201 0.1341331 0.45167542
000370 2a 55 2f bd 9b 42 b4 bd 46 b8 c0 3d 0f 36 4c 3e
       -0.04280583 -0.088017665 0.09410147 0.19942497
000380 3d 39 e9 3e 7e fb 94 3c 3f 6e 17 3e 52 b6 20 3f
       0.45551482 0.018186327 0.1478815 0.627782
000390 a9 44 28 3e 25 ed 74 3e 3a bd 55 3d 20 4d 12 3f
       0.16432442 0.23918588 0.052182414 0.57148933
0003a0 9f 9b 77 3f 29 cd 61 3e 26 5c a1 3c 83 25 38 bd
       0.96721834 0.22050919 0.01969726 -0.04495765
0003b0 ee 20 0c 3e ed 64 51 be e5 ff 02 3e 3c ff 16 3d
       0.13684437 -0.20448656 0.12792929 0.036864504
0003c0 b1 83 71 3e ee 83 c5 3d 82 70 da 3d 93 d7 59 3e
       0.23585393 0.09644304 0.106659904 0.21273641
0003d0 dd 66 3d 3e 6a ca 15 3e b9 df b8 3e 54 02 ea 3d
       0.1849627 0.14627996 0.36108187 0.11426225
0003e0 c4 d3 15 3e 25 b6 c7 3d 8c f2 4c 3e a6 4e 3e bd
       0.14631563 0.09751538 0.200144 -0.046461724
0003f0 e2 e2 f5 3d 67 67 0c 3e e6 e0 29 be 42 f7 14 3d
       0.12006165 0.1371132 -0.16589698 0.036368616

encoder.lstm.weight_hh_l0_reverse f4 [8, 2]
000000 e8 42 aa 3f 51 06 fd bb a9 f5 ca be 60 ef 1e bd
       1.3301668 -0.0077217002 -0.3964055 -0.038802505
000010 b4 98 c1 3f af 37 4c bd 48 4c 4f 3c c6 3f b2 3a
       1.5124726 -0.04985779 0.012652464 0.0013599328
000020 97 af 78 3f 52 03 8d 3d ed 63 be 3b 82 cd 22 bd
       0.9714293 0.06885399 0.005810252 -0.03974677
000030 ca e3 b1 3e 65 8a 04 bd c1 8a 07 bf 5a 31 32 3d
       0.34744102 -0.032358546 -0.52946097 0.043504097

encoder.lstm.bias_ih_l0_reverse f4 [8]
000000 a7 50 80 3f 1a d3 b2 be d2 66 ba 3f 7c 5d c7 bd
       1.0024613 -0.34926683 1.4562628 -0.097346276
000010 df 88 37 3f 3c fa 90 3d 64 19 16 3f 64 2b f1 be
       0.71693224 0.070789784 0.58632493 -0.47103417

encoder.lstm.bias_hh_l0_reverse f4 [8]
000000 39 cd 85 3f a9 ef a9 be 10 b8 bc 3f 26 58 86 bb
       1.0453254 -0.3319066 1.4743671 -0.0040998636
000010 59 17 32 3f 23 64 b5 3c f4 08 1e 3f cf 23 ff be
       0.69566876 0.022142475 0.6173241 -0.49832007

encoder.fc_one.weight f4 [400, 8]
000000 0b bf b4 3d 30 b9 bd 3c 55 92 21 3c 0c 0b a3 3b
       0.08825501 0.023159593 0.009861548 0.004975682
000010 05 ad 9f bc 59 4e 68 bd e1 c1 76 bc c2 9f 7e 3c
       -0.019491682 -0.056715343 -0.015060873 0.015541019
000020 b3 06 cc 3e 9c ff cc 3e ae 70 94 3e 8b 03 81 3e
       0.3984886 0.40038764 0.28992218 0.25198016
000030 c5 3f 02 bf 60 76 dd 3e c4 0d 33 3e 6f 1d 73 bf
       -0.50878555 0.43254375 0.1748572 -0.9496679
000040 09 4c cd bb 59 e1 80 3e 05 6c 0e 3e 2b f2 97 3e
       -0.0062651676 0.25171927 0.13908394 0.29676947
000050 43 38 83 3e 16 9a 3b 3d 77 62 55 3e 5c 46 62 be
       0.25628862 0.045801245 0.20838343 -0.22097152
000060 5d 63 04 bd 95 60 94 3d 96 95 81 3d 7b a2 cd bb
       -0.032321323 0.07244984 0.063273594 -0.0062754727
000070 8c d6 2e 3d ee e6 75 bc e8 41 12 3d 5f 3a 10 bd
       0.042685077 -0.015008671 0.035707384 -0.035211917
000080 56 89 06 bf 46 99 19 3e 59 c6 eb 3e 3a 0f ce 3e
       -0.5255331 0.14999875 0.46049765 0.40245992
000090 04 68 0a bf b4 89 fe 3e 45 76 89 3e 73 d1 28 bf
       -0.54064965 0.49714434 0.26848045 -0.65944594
0000a0 77 58 12 3a e6 11 dd 3e 87 d3 f1 3e 48 63 c4 3d
       0.00055826403 0.43177718 0.47231695 0.09589249
0000b0 cf da 8e bd 72 48 3e 3e 0a de f9 3b e4 3f fa bc
       -0.06975328 0.18582323 0.007625346 -0.030548044
0000c0 b3 a1 19 3e 04 3d 6e bd 3a f4 bf 3e 1a 38 92 3d
       0.1500309 -0.058163658 0.37491018 0.07139607
0000d0 ee cb 2c be ad b7 82 3f 4b 27 fd bd 88 43 a0 be
       -0.16874668 1.0212303 -0.1236101 -0.31301522
0000e0 94 dc 14 bf 3b 6b 0e 3f a8 84 1c 3f 5a 32 09 3f
       -0.58149076 0.5563237 0.6113992 0.53592455
0000f0 1a a8 f8 bd 6c 69 b6 3e 57 15 4d 3f a9 69 71 3c
       -0.12141438 0.35627306 0.80110687 0.014734664
000100 5a a2 b8 be ca 47 02 3f 2d b3 9e 3e 93 c0 32 3f
       -0.36061364 0.5089079 0.30996075 0.69825095
000110 f5 1b d6 be 9b 26 5b 3f 8d 68 df 3e c7 3a 6e bc
       -0.41818205 0.8560578 0.43634453 -0.014540381
000120 46 71 f3 be 6b 41 38 3e 65 be ed 3e 2e 61 9d 3e
       -0.47547358 0.17993705 0.46434322 0.30738205
000130 76 92 2c bf 88 15 1d 3d 69 e7 36 3f b3 31 12 bf
       -0.6741098 0.038350612 0.71446854 -0.57107085
000140 11 9c 97 3d a7 12 8a 3e a3 83 ec 3e 49 28 dd bc
       0.07402814 0.26967356 0.4619418 -0.026996749
000150 77 9a 09 be 2e bc d9 be 32 3d 49 3e c7 2e a0 bd
       -0.1343783 -0.42526382 0.1965225 -0.07821422
000160 cf 1f 70 be e1 1b ef 3e 30 84 cd 3e e5 b7 b4 3e
       -0.23449634 0.46700957 0.40139914 0.3529655
000170 9a 21 f5 be d3 5b a6 3e 44 61 c8 3e fe f9 21 3d
       -0.47877198 0.3249193 0.39136708 0.03954505
000180 99 22 18 bf 48 ef 4f 3f 5a 7e 20 3e 16 48 86 3e
       -0.5942779 0.8122449 0.156732 0.26226872
000190 21 44 74 bf 99 10 73 3f 95 d3 69 3f 2d ad 3d bf
       -0.95416456 0.949472 0.91338474 -0.7409237
0001a0 ba 78 d2 be 5f b1 fc 3e 7e 5e fc bd ae 95 d9 3e
       -0.41107732 0.49354073 -0.123227105 0.4249701
0001b0 35 87 bd be 8b ea 44 3f 73 b4 af 3e 79 64 3c bf
       -0.37017217 0.76920384 0.3431736 -0.7359081
0001c0 98 77 b7 be 2e 30 88 3e ab 7a 2b 3f ee 06 55 3f
       -0.3583343 0.26599258 0.6698405 0.832137
0001d0 86 24 4b bf 99 9b 4e 3f f6 0d 4c 3f df ce 63 bf
       -0.79352605 0.80706173 0.797088 -0.88987535
0001e0 5d 37 d7 bc d0 cd 68 3e f8 ab 2d 3e 9f 8e 8e 3e
       -0.026271516 0.22734761 0.16960132 0.27843186
0001f0 b0 2d ce bd 17 06 89 3e e6 5e 2c 3e 9f 49 db bd
       -0.10067308 0.2676246 0.16833076 -0.107074015
000200 1e ed 23 bd 22 ab 75 3c 40 0e 55 bc 76 66 8c 3a
       -0.040021054 0.0149944145 -0.013003886 0.0010711688
000210 c6 cc ee bc 5d c9 07 bd 06 bd 81 3c 01 a5 55 3d
       -0.029150378 -0.03315102 0.015837204 0.052159313
000220 20 c2 d8 be 9c d0 0c bc 92 40 91 3e 3d 8b 9c 3e
       -0.42335606 -0.008594658 0.28369576 0.3057498
000230 22 63 77 be 8e 9f a1 3e a9 df 18 3f a5 3a 56 be
       -0.2415891 0.31567043 0.5971628 -0.20920809
000240 bb 74 0d 3d 88 56 6d 3c 57 2f 9d bc c3 51 68 3c
       0.03453515 0.014485963 -0.019187612 0.01417965
000250 76 4c a4 bc 8a a1 82 bb 2c df 2f bc eb 9f ab 3b
       -0.02005599 -0.003986542 -0.010734361 0.0052375696
000260 c3 ce 34 be b4 b4 0b 3e c4 7c 09 be ee 92 f4 bd
       -0.17656998 0.13643152 -0.134265 -0.11942087
000270 2c 2c b2 bc bb 4b ba 3d 3c be 4a 3e 32 bd 33 bf
       -0.021749578 0.09096476 0.19799131 -0.70210564
000280 a8 ca f6 bd 6d 39 e9 3d a4 cd bb 3d a4 5f 47 3d
       -0.12050372 0.11387906 0.09170082 0.048675194
000290 91 a8 15 3e a3 35 ce 3c 32 c1 67 3e 38 b4 97 bd
       0.14615084 0.02517206 0.22632292 -0.07407421
0002a0 55 b7 e7 be 57 37 b9 3e 20 fe 8b 3e c2 d0 06 3f
       -0.4525706 0.36175033 0.2734232 0.5266229
0002b0 79 0a 5f be 56 97 81 3e 98 62 24 3d a3 b2 bf be
       -0.21781339 0.25310773 0.04013309 -0.37440977
0002c0 4d 44 0d be c5 3e a7 3e a2 b9 e9 be da 37 ca 3e
       -0.13795586 0.32665077 -0.4564944 0.39495736
0002d0 81 84 15 3f f3 82 c5 3e 0b 39 06 be 1f d8 f9 be
       0.5840531 0.3857647 -0.13107698 -0.487977
0002e0 57 44 5a bf 28 d8 ed 3d 53 ad 59 3f 33 11 af 3e
       -0.8526053 0.11613494 0.85030097 0.3419281
0002f0 7b 37 1b be 34 9c d8 3e 54 1b 59 3d 8e c0 64 bf
       -0.15157883 0.42306674 0.053004578 -0.89356315
000300 39 68 c3 3c 11 25 04 bb 3a 06 b7 bc e3 d5 0a bb
       0.023853408 -0.0020163695 -0.022341836 -0.0021184615
000310 17 88 e2 3c 9a 1d 57 3d d4 56 2a bd 67 e4 f1 3b
       0.027652783 0.052518465 -0.041586712 0.007381964
000320 61 7b 27 bd c8 05 38 3d bb 0d c6 3b 59 b8 3d 3d
       -0.040889148 0.04492739 0.0060441173 0.046318386
000330 d9 c0 a9 bc 50 98 02 3e 22 56 b9 3d 9f 99 68 bd
       -0.02072184 0.12753415 0.09049632 -0.05678713
000340 53 5c 6b bf 54 07 8c 3e 70 2a 4b 3f fd ec d6 3e
       -0.9193775 0.2734934 0.7936163 0.41977683
000350 6b 95 2c bf 76 9e c3 3e 48 ac 07 3f a2 69 e3 be
       -0.67415494 0.38206834 0.52997255 -0.4441653
000360 76 94 89 bd 16 06 01 3e 56 ae 3a 3e c9 05 4a 3d
       -0.0671777 0.12599978 0.18230566 0.049321923
000370 e4 1f 67 bd d4 7a 61 be 7f 93 b4 3e 76 1c 0d be
       -0.056426898 -0.22019511 0.3526878 -0.13780388
000380 bc 24 c0 be d8 a0 8d 3e 73 80 d3 bd a4 db bc 3e
       -0.37528026 0.27661777 -0.10327234 0.36886322
000390 1d 83 aa 3c 2f 2d 74 bd 33 8a 1b 3e f7 a9 e2 3d
       0.020814473 -0.059613403 0.15189438 0.110675745
0003a0 4a a7 01 be a1 fa 71 3d bb 21 81 3d 7a 81 5f be
       -0.12661472 0.05907691 0.06305262 -0.21826735
0003b0 3a 4c 98 bd cc e8 85 3e 7a 73 07 be 95 bd 3d 3b
       -0.07436414 0.26154172 -0.13227645 0.002895211
0003c0 f8 10 9b be dd 5a 86 3e 8b ee c7 3e c2 4e 15 3f
       -0.30286384 0.26241198 0.3904918 0.583233
0003d0 c6 07 fc be 50 1f 33 3f 15 24 18 3f 78 30 8b be
       -0.4922468 0.69969654 0.59430057 -0.27185416
0003e0 10 0b 19 bf f0 b7 ef 3e d9 c5 1d 3f d5 5a 0f 3f
       -0.59782505 0.4682002 0.61630017 0.55997974
0003f0 e6 2e 51 be ac 98 e7 3e 56 82 d6 3e 67 ca 8e be
       -0.20428047 0.45233667 0.41896313 -0.27888796

encoder.fc_one.bias f4 [400]
000000 83 48 de bd 87 a7 a1 bd 41 76 3b bc 48 a2 a4 bd
       -0.10853674 -0.078932814 -0.011441768 -0.08038765
000010 46 dd 6b bd 6c 7c 08 bc 94 c9 18 be d0 0a 66 be
       -0.05758407 -0.008330446 -0.14920646 -0.22465062
000020 d2 22 89 3d 32 d5 0b bd 68 25 93 be 32 aa c9 bd
       0.066960946 -0.034138866 -0.28739476 -0.09846915
000030 4c 7d 55 3e 6c 70 85 3e 08 fa a6 3d 79 a9 eb be
       0.20848578 0.26062334 0.081531584 -0.46027735
000040 aa 30 bd bd d6 67 83 bd e9 8e 66 bd 10 1b 25 be
       -0.092377976 -0.064162895 -0.056288633 -0.16123605
000050 e4 ed 52 be 50 cc 1a bd 7c 9e 0f be 13 e1 79 3e
       -0.2059856 -0.037792504 -0.140253 0.24402265
000060 b6 df bc bd d1 be 37 be 13 1a c1 bd 7c f0 3c be
       -0.09222357 -0.17943884 -0.094288014 -0.18451113
000070 9d 5e 62 be c6 f7 9a be 6b 0f 08 3e bd 8a 2b be
       -0.22106405 -0.3026716 0.13287131 -0.16752143
000080 23 2d 9f bc 6c c9 a1 3e 8b 6a 0d be 71 f7 da bd
       -0.019430703 0.31598985 -0.13810174 -0.10691727
000090 19 d7 2b be 9a 35 84 be a0 f8 b8 3d ef 2d 01 be
       -0.16781272 -0.25822145 0.090317965 -0.12615179
0000a0 dd ec 77 bd 4e 5a c5 bd 0b f3 b4 bd 16 64 8d bc
       -0.060528625 -0.09636365 -0.08835419 -0.017259639
0000b0 2d 4a 62 be f5 79 84 bd 28 1d 3a 3d 1b ae 64 bd
       -0.22098608 -0.06468574 0.04543796 -0.055830102
0000c0 88 91 d9 bc d9 ec 8c be 34 36 fc be 6c 6a 70 be
       -0.026558653 -0.2752445 -0.49260104 -0.23478097
0000d0 b2 51 f7 bd 54 3a 63 be aa 8b 0d be 22 e3 19 be
       -0.12076129 -0.22190219 -0.13822809 -0.1502805
0000e0 fd 8a ae 3e fd 2d 0e be f9 7a dc bc 0f c3 11 be
       0.34090415 -0.1388473 -0.026914107 -0.14234565
0000f0 94 d6 89 bd 26 a3 9c bd f7 fc d9 bc cb eb dd bd
       -0.06730381 -0.076483056 -0.02660988 -0.108359896
000100 d7 bd 19 be 82 c6 b9 be db 90 f7 bd 27 f2 e7 bc
       -0.15013824 -0.36284262 -0.12088176 -0.02831371
000110 da a8 41 be b3 d0 40 bd 15 ed 18 be 93 68 e2 bd
       -0.18912068 -0.04707403 -0.1493419 -0.11055102
000120 59 e1 45 be 39 09 86 bd 3a fe 8b bd 2c 52 d2 bd
       -0.19324245 -0.06544728 -0.06835599 -0.10269579
000130 b7 85 dd bc 0c 89 d2 be b4 15 83 3e 9b 5c 5f be
       -0.0270413 -0.41120183 0.25602496 -0.2181267
000140 72 6a a7 bd 9a d6 58 be d4 84 f8 3e 90 2d aa be
       -0.081746 -0.21175614 0.4853884 -0.33237886
000150 f2 91 b8 be ab a8 1e be ca 68 8c bd 17 2a 94 be
       -0.36048847 -0.15494029 -0.068559244 -0.28938362
000160 92 96 c5 bc f0 02 25 be 0e a7 33 3e c6 c6 03 be
       -0.02411965 -0.16114402 0.17544195 -0.12868795
000170 12 a0 0b be 36 f2 e1 bd e9 e7 97 be 67 2b 54 be
       -0.1363528 -0.11032526 -0.2966912 -0.20719682
000180 3e d0 4e be 53 c0 42 be e4 30 1c be 5c 1d 36 be
       -0.20196626 -0.19018678 -0.15253025 -0.17784637
000190 0f c8 35 be 7b ba ab bd f2 a1 71 be 34 d8 82 bd
       -0.17752098 -0.08385178 -0.23596933 -0.06388894
0001a0 0b d5 b5 3e a0 c6 41 be 76 23 1d 3e b0 f4 98 bc
       0.355141 -0.18923426 0.15345559 -0.018671364
0001b0 24 69 86 be df 70 99 3d de 94 f1 bd d3 6f e8 bd
       -0.2625209 0.074922316 -0.11795972 -0.11349454
0001c0 a1 6f 18 3e 68 29 64 bd c8 f5 d5 3d b8 44 cd bd
       0.14886333 -0.05570355 0.1044727 -0.10022873
0001d0 6f ac 88 3d 8c 5e 88 be dc bb 0e bf ce 7e 73 be
       0.06673514 -0.26634634 -0.557554 -0.23778841
0001e0 81 67 17 3e b4 cd 02 bd 8f ad f2 be 50 13 5c be
       0.14785577 -0.031934455 -0.4739804 -0.21491742
0001f0 4d dc a1 bd 7b 9d b1 bd 14 ac 5b be 52 0e 1f bd
       -0.07903347 -0.08672615 -0.21452361 -0.038832016
000200 57 80 e9 be 84 9f 24 be 21 7b 2e be 89 00 04 3e
       -0.45605728 -0.16076475 -0.17039157 0.12890829
000210 27 38 d0 be c1 e4 1c 3e 19 0c d9 3d e1 00 79 bd
       -0.4066784 0.15321638 0.105980106 -0.060791854
000220 97 0e 11 be bd 2f 55 bd b7 39 80 be 0b 48 98 bd
       -0.14165722 -0.05204748 -0.25044033 -0.07435616
000230 7c 31 0d 3e 65 cb ed be 8e 6a b1 3e c2 38 81 be
       0.13788408 -0.4644424 0.34651607 -0.25238615
000240 db 6b d0 3d 71 7a 24 3e ed 11 36 be d7 ba 02 bd
       0.10176822 0.16062333 -0.17780276 -0.031916466
000250 8d e8 02 bd ee 45 10 be 2d a5 4d 3e f1 fe 98 be
       -0.03196006 -0.14089176 0.20082541 -0.29882005
000260 9c 57 6e be 41 d7 af be a4 e9 8c 3e e0 b6 b5 bd
       -0.23275608 -0.34343913 0.27522004 -0.08872771
000270 b2 8e 63 bc 70 23 8d be df e5 f6 bd 8b 32 ef bc
       -0.013889002 -0.275661 -0.12055563 -0.029198905
000280 f0 f7 be bd 74 f4 89 be b2 dd 99 be 4e c9 c0 bd
       -0.09324634 -0.26944315 -0.30051953 -0.09413396
000290 c6 66 ef 3d 15 f6 23 be 59 9b 62 be d8 6b 1d be
       0.11689524 -0.16011842 -0.22129573 -0.1537317
0002a0 d2 c5 68 bd 80 ba fd bc 7d e5 0f be f5 bb cd bd
       -0.05682928 -0.03097272 -0.14052387 -0.100456156
0002b0 45 27 12 be 6f 9b 28 bd de 42 00 be e5 93 28 be
       -0.14272793 -0.041163858 -0.12525508 -0.16462667
0002c0 32 d3 4f be a5 02 b8 bc 7c 81 1e be f7 1d 2b be
       -0.20295408 -0.022462199 -0.15479082 -0.1671065
0002d0 2b 23 17 be 69 4a 1e be b0 da 1f be 74 d6 9d bc
       -0.1475951 -0.15458073 -0.15610766 -0.019267298
0002e0 66 fe 62 3e 19 d2 84 3d 64 2d ae bc 8b 78 75 be
       0.22167358 0.064853854 -0.021261878 -0.23971765
0002f0 f2 d9 b0 bd e2 62 fd bd 10 22 b8 be a4 17 14 be
       -0.0863532 -0.12372376 -0.35963488 -0.14462143
000300 c9 eb f6 3d 61 7e 20 be 5f 75 b4 bd ce fd c4 3e
       0.12056691 -0.1567321 -0.08811449 0.38474888
000310 fc 3f 2b be a1 6c 17 be 3c b8 9c bd a4 bb 19 3e
       -0.16723627 -0.14787532 -0.076523274 0.15012985
000320 ca 44 c3 bd b7 5d 04 be a8 e5 f4 bd a9 bb ef bd
       -0.09534605 -0.12926374 -0.11957866 -0.11705715
000330 fb 39 47 3e 5a ba e6 bd fb d4 49 be 7e b4 ba 3e
       0.19455712 -0.112660125 -0.19710152 0.3646583
000340 e5 1a 02 bd 43 04 52 bd ac e5 9f be e4 c9 3d bd
       -0.03176393 -0.051273596 -0.31229913 -0.046335116
000350 1e ba d6 bd 79 36 c7 bd 8f b7 b1 be 60 30 63 bd
       -0.10484718 -0.09727187 -0.34710357 -0.055466056
000360 5d 3b 49 be ee fd 05 be 54 c6 93 bd 88 94 2a be
       -0.19651552 -0.13085148 -0.072155625 -0.16658223
000370 ed 98 b5 3e b4 8c c1 bd a5 d7 c8 bd 47 84 99 bd
       0.35468236 -0.09450665 -0.09806756 -0.07495933
000380 4b 84 3a be 36 03 51 be 4c 3d c0 bd d3 9c 0b 3e
       -0.18214528 -0.20411381 -0.093866915 0.13634042
000390 ae be 12 bc 7a 8b 50 be 8d b5 03 bd ec ac 6f 3e
       -0.008956594 -0.20365706 -0.032155562 0.23405808
0003a0 80 f7 44 be 0e e0 d3 3e 67 67 ab bd af 60 bf bd
       -0.19235039 0.41381878 -0.08369332 -0.09344613
0003b0 7b 1b 0e 3e 31 9f 88 be c5 e8 77 be 9d eb db bd
       0.1387767 -0.26683953 -0.24209888 -0.10738299
0003c0 a3 7d b3 bd 89 60 37 be 2e ca 48 be 14 8f fb be
       -0.08764198 -0.17907919 -0.19608375 -0.49132597
0003d0 63 98 45 bd f5 57 f4 bd 34 31 0a bf 50 9c a3 bd
       -0.04824103 -0.11930839 -0.5398133 -0.079887986
0003e0 6c d0 10 3e d7 82 57 bc 0c 72 a2 be 39 21 1c 3d
       0.14142007 -0.013153753 -0.31727636 0.03811762
0003f0 95 39 1c be e9 29 b3 be ba 7e 89 be 0c 5b cf bc
       -0.15256341 -0.34992912 -0.26854497 -0.02531197

decoder.embed.weight f4 [8, 8]
000000 c0 f2 78 3a 21 43 29 3d e5 42 a9 bc 94 ea 03 3d
       0.0009496622 0.041323785 -0.02066178 0.032206133
000010 23 a3 f9 bc 68 4a 17 bd 51 61 ad 3c 2d 84 9f 3c
       -0.030473297 -0.036936194 0.021164568 0.019472206
000020 3d 8b 60 3e 4a 4a 2f 3e 62 92 2f be 2a 5b 30 be
       0.21928115 0.17118183 -0.17145684 -0.17222276
000030 bb b2 1a bc 63 a2 2a 3d 02 ee 52 3e d1 a6 49 bb
       -0.009442027 0.04165877 0.20598605 -0.0030769596
000040 f3 24 8f 3c ed 14 23 3c 7f c6 91 3e 20 8c 32 bd
       0.017473673 0.00995372 0.28471753 -0.043590665
000050 b7 78 cb ba 41 43 74 3e 37 55 c2 3c 78 fc ae bd
       -0.0015523647 0.2385378 0.023722274 -0.08544248
000060 c0 f8 96 3d 58 46 0c 3e 30 65 e3 bc 66 05 39 bd
       0.07371664 0.13698709 -0.02775821 -0.045171164
000070 7a e7 5d be cb 38 c6 3e 28 66 93 3d cd 5b ce 3d
       -0.21670333 0.38715205 0.07197219 0.10076103
000080 8a d4 40 bf 55 36 06 bf e3 9b 84 3f a6 62 6a 3f
       -0.7532431 -0.52426654 1.0360073 0.91556776
000090 e9 86 1a 3f 3e 80 dd be f9 07 3d bf cb 3c 45 bf
       0.60362107 -0.43261904 -0.7384029 -0.7704589
0000a0 8f ee 7a bf 95 48 58 bf fc d7 c0 bd 0c 36 32 3f
       -0.9802026 -0.8448575 -0.09416196 0.6961372
0000b0 a9 53 a7 3f 32 4f 62 bf af 58 9b bf bc 20 5d bf
       1.3072406 -0.8840209 -1.2136439 -0.86378074
0000c0 43 cc 7f 3e b1 cf 9c 3e 1a 27 b9 be b8 03 dc be
       0.24980263 0.30627206 -0.36162645 -0.42971587
0000d0 f3 49 a9 be 21 20 36 3e 21 07 96 3e 7d 18 d3 3e
       -0.3306423 0.17785694 0.29302314 0.4122962
0000e0 12 0b 97 3d 58 d1 d6 3d c1 4e b9 3d e2 b7 3c bd
       0.07375158 0.10489148 0.09048224 -0.0460738
0000f0 78 95 bf bd 85 e2 2e 3e 70 64 3a 3d d7 a9 5d 3d
       -0.09354681 0.17078598 0.04550594 0.05411705

decoder.lstm.weight_ih_l0 f4 [8, 8]
000000 65 d9 a2 bf 83 e0 82 bf da 09 75 3f 85 f9 86 3f
       -1.2722594 -1.0224766 0.9571816 1.0544897
000010 70 1b a3 3f 41 17 81 bf 82 fa a8 bf 3b 1f a8 bf
       1.2742748 -1.0085222 -1.3201449 -1.3134531
000020 4a 82 93 3e 35 6a f0 3e 12 67 bc bc 89 e4 75 be
       0.2881034 0.4695603 -0.022998367 -0.2401296
000030 ee 88 e3 be 79 06 30 3f e6 6b 44 3e 4e ab b6 3e
       -0.44440407 0.68759876 0.19181785 0.3567757
000040 16 0a 88 3d 68 1b 4a 3c 66 44 eb bd 34 56 dc bd
       0.06642549 0.012335636 -0.11487655 -0.107586294
000050 6c 0e 09 bd 58 d9 e5 bc d0 01 6c 3d 35 bc 86 3d
       -0.03346102 -0.02805774 0.057618916 0.065788664
000060 79 fa 49 bc 01 ac e8 ba 7d 37 d6 3c e2 9c b7 3c
       -0.012327784 -0.0017751456 0.026149506 0.022413675
000070 48 67 9b bd 16 da 01 3d ef b3 f6 3b 31 09 ed 3d
       -0.07588059 0.031702124 0.007528774 0.11574019
000080 16 0d 2a bf ff 6a 1a bf 1f 12 46 3f a6 1d c2 3e
       -0.6642622 -0.60319513 0.773714 0.37913245
000090 dc 72 fd 3e 2a 63 07 bf d0 cf 04 bf 06 32 79 be
       0.49501693 -0.5288569 -0.51879597 -0.24335489
0000a0 99 01 86 3e 69 75 b2 3c d1 83 a0 3e 21 4a 27 bd
       0.26173094 0.021784501 0.31350568 -0.04084218
0000b0 7d 0f fe be 66 e5 ca 3e 34 b7 f6 3d 71 ea 7f 3d
       -0.49621192 0.39628142 0.12046662 0.06247944
0000c0 ae 63 ab bd 9e fa df 3d d5 56 41 3f 8a cb 89 3e
       -0.08368622 0.10936473 0.7552312 0.269131
0000d0 a3 31 ac bd 3d e7 66 3e 23 37 c5 3b 27 cc ba bd
       -0.08407905 0.22549148 0.0060185357 -0.0912097
0000e0 a1 bc a9 3f 7c 52 9a 3f 93 fe 1c bf 5c bb a7 bf
       1.326069 1.2056422 -0.6132595 -1.3104053
0000f0 6f c4 89 bf 0a b0 9c 3f df 13 a7 3f b7 4b aa 3f
       -1.0763072 1.2241223 1.3052939 1.3304356

decoder.lstm.weight_hh_l0 f4 [8, 2]
000000 d1 78 69 3f 91 db f1 3f fd 33 ab bf 4d 47 1e bf
       0.91199976 1.8895131 -1.337524 -0.61827546
000010 bf de 80 be f5 4b 09 40 fe 49 d8 3d 55 36 6b bf
       -0.25169942 2.145261 0.10560988 -0.9187978
000020 ea 41 c0 3e 20 28 fc 3e 5e 77 d6 bf f4 d8 07 bf
       0.37550288 0.49249363 -1.6755178 -0.5306542
000030 d3 d8 b9 3f f1 66 55 3f 3b 03 86 bf 67 b5 88 c0
       1.4519295 0.833602 -1.0469736 -4.272144

decoder.lstm.bias_ih_l0 f4 [8]
000000 2b 68 f5 3d a7 6d a7 3f aa c5 e0 3e c5 d5 98 bd
       0.11982759 1.3080338 0.43900806 -0.07462648
000010 8f a1 1a 3f 91 9d 41 3f e6 c0 67 3f 40 d9 16 3f
       0.6040277 0.7563105 0.90528715 0.5892525

decoder.lstm.bias_hh_l0 f4 [8]
000000 58 5d 02 3e 2d 73 b3 3f 11 a1 e0 3e 02 b4 86 bd
       0.1273092 1.4019524 0.43872884 -0.065773025
000010 d7 41 28 3f c9 7d 46 3f b3 c6 6c 3f 50 a9 20 3f
       0.65725464 0.7753568 0.9249069 0.6275835

decoder.lstm.weight_ih_l0_reverse f4 [8, 8]
000000 58 9a f2 be 1a ef 07 bf 7d 21 1c 3f 7b 48 2f 3f
       -0.4738338 -0.53099215 0.609886 0.6846997
000010 94 e1 17 3f f9 b1 73 3e e8 ed 5d bf f9 e0 30 bf
       0.5932858 0.2379836 -0.8669114 -0.6909328
000020 9d d6 8f be d3 5e 4f 3d ee 2d 01 3f b3 d6 c3 3e
       -0.28093424 0.05062754 0.5046071 0.3824974
000030 d0 7e 8c be ef 2f ea 3e 26 2f 86 be ea 6b 18 be
       -0.274405 0.45739695 -0.26207846 -0.14884916
000040 ef bb 24 3d 62 26 92 3d 02 5f 80 bc 82 78 b5 bb
       0.04021829 0.07136227 -0.015670303 -0.0055380473
000050 6a 1a a5 bd b4 76 15 3e 76 20 7d bc 96 a4 18 3d
       -0.08061679 0.14596063 -0.015449634 0.037266336
000060 41 57 91 be 6d d6 46 bd 6f fd 98 3e 6f ad e3 3d
       -0.28386882 -0.048544336 0.29880854 0.11117064
000070 d5 1c c3 3d d2 ce 98 3d cc dc 33 bc bb 39 23 bd
       0.09526984 0.07461323 -0.010977935 -0.039849978
000080 96 b0 98 3e a2 af 76 3e a3 06 e4 be 1c a4 07 bf
       0.29822224 0.24090436 -0.44536313 -0.52984786
000090 16 90 d1 be 69 18 e4 bd 79 8d 8f 3e 3a 92 11 be
       -0.4093024 -0.11137468 0.28037623 -0.14215937
0000a0 3c 60 07 bd 4e d9 27 bc 50 51 82 3c 28 29 4e 3d
       -0.03305076 -0.010244681 0.015907913 0.05033222
0000b0 79 82 c4 bd 46 9c 99 3e dc 81 fe bd a3 17 1f bd
       -0.09595198 0.3000204 -0.124271125 -0.0388409
0000c0 5d c0 aa bd 11 f9 c6 3d 7a 48 0b be 26 73 a2 bc
       -0.08337472 0.097154744 -0.13601866 -0.019830298
0000d0 21 56 26 3e fe 5a 4c 3e 59 2c 74 bd 18 fd 8a 3c
       0.16243793 0.19956586 -0.059612606 0.016966388
0000e0 c2 31 50 bf 58 c1 80 bf f7 a5 bf 3d 7d dd da 3e
       -0.81325924 -1.0059004 0.09357827 0.42747107
0000f0 16 bd 6e 3f 5f 8f 8b bf 43 f0 08 bf 71 19 09 bf
       0.9325727 -1.0903128 -0.5349161 -0.53554446

decoder.lstm.weight_hh_l0_reverse f4 [8, 2]
000000 94 2b 80 3f ff df 49 3f 87 d7 9b be ab c3 32 40
       1.0013299 0.78857416 -0.30437872 2.7931926
000010 98 27 2e 3f 84 46 11 40 37 e9 02 40 38 79 c5 3f
       0.68029165 2.269929 2.0454843 1.5427618
000020 57 a1 5e bf ff 1b 28 bf 5c 74 83 3e 21 0f 19 40
       -0.86964935 -0.6566772 0.25674713 2.3915484
000030 78 55 3f 3f 91 84 c2 3f 65 e8 cd 3e 4e 2a 63 be
       0.7473979 1.5196706 0.40216365 -0.22184107

decoder.lstm.bias_ih_l0_reverse f4 [8]
000000 a9 5a 96 3f c9 82 e5 bd e4 f5 39 3f 33 8e cd 3f
       1.1746417 -0.11206586 0.72640824 1.6059021
000010 1f df 7f bf f0 f1 a6 3e 7f a1 82 3f 9b 45 fb 3e
       -0.9994983 0.3260646 1.0205535 0.49076542

decoder.lstm.bias_hh_l0_reverse f4 [8]
000000 55 94 a0 3f 10 6d b4 bd 9d cf 3b 3f f7 56 cd 3f
       1.2545267 -0.088098645 0.7336367 1.6042165
000010 f8 5d 71 bf ea 9b b0 3e 5a 09 85 3f 9f 31 ed 3e
       -0.9428401 0.34493953 1.0393479 0.4632692

decoder.fc_out.weight f4 [8, 400]
000000 68 2f e6 bc db 6c cb 3c 27 f3 3f bc a0 8e d9 be
       -0.028098777 0.02483218 -0.011715687 -0.42491627
000010 b6 a6 ec bc df 27 1a be 14 d1 5c 3c ea d6 79 bc
       -0.028888088 -0.15054272 0.0134775825 -0.015248993
000020 64 eb 2f be 13 8f 20 bd c9 36 e5 be c6 78 98 bd
       -0.17179638 -0.039198946 -0.4476836 -0.07444911
000030 28 55 a6 bd ac 9e 7d bc e6 8d f4 3c 5c 0c d6 be
       -0.08121711 -0.015479725 0.029852819 -0.41806304
000040 1b 9d 7e 3c c0 bb bc bd a6 4a 75 bf d1 a8 19 bf
       0.015540387 -0.09215498 -0.9581703 -0.6002322
000050 30 2c 42 c0 e0 aa 4e 3d 81 df 40 be a2 a1 ae be
       -3.033947 0.050455928 -0.1883526 -0.3410769
000060 f4 0c ac bd ff 37 72 bd be 18 66 bf e4 db e2 3b
       -0.08400908 -0.059135433 -0.89881504 0.0069231857
000070 9a 40 a0 be cc c4 f4 be b5 b4 68 bd 46 ca b3 3c
       -0.31299287 -0.47806394 -0.05681296 0.021947037
000080 3c 4f 96 be 9d 22 bc bd 19 0f 14 c0 30 2a 0f be
       -0.29357326 -0.091862895 -2.3134215 -0.13980937
000090 58 dd 47 bc ed 8f 83 3c 00 97 49 bc e2 d4 b0 be
       -0.012198769 0.01605984 -0.012304068 -0.34537417
0000a0 a7 05 8d be d2 65 b3 be 05 45 47 be 3b fc 02 3d
       -0.27543375 -0.3503862 -0.19459923 0.031978827
0000b0 2a df ea bd 1d 9f 6c be f5 03 b8 be 92 b9 5e 3c
       -0.114683464 -0.23107572 -0.3594052 0.013594048
0000c0 79 99 31 be 0f 2f 3f bd 7c 58 fa bd 9b 2e a3 bd
       -0.17343701 -0.046675738 -0.12223908 -0.07967874
0000d0 18 31 66 be 74 cd f5 3b c9 24 81 bc 52 3c 03 be
       -0.22479665 0.0075012986 -0.01576461 -0.12815979
0000e0 5f 4e 43 be 91 18 40 3d 72 f6 e7 be 7b a0 00 be
       -0.19072865 0.04689843 -0.4530521 -0.12561218
0000f0 2c e8 14 be ce 9b 1e bc c0 22 c1 bc c5 e9 09 bc
       -0.14541692 -0.009680701 -0.02357614 -0.008417551
000100 4a 65 cd bc 3e 93 1d be e6 17 2e c0 c4 a5 ff be
       -0.025072712 -0.153882 -2.7202086 -0.49931157
000110 c9 fd 1d bf 06 21 5c be 1d 6e 17 3d b8 8e af bc
       -0.6171537 -0.21496972 0.036970247 -0.021430358
000120 e9 8d 49 be fb e3 a2 be 17 17 6d be 53 c4 40 c0
       -0.1968304 -0.3181456 -0.2315334 -3.0119827
000130 af f1 23 be b8 61 ef bc 0c 19 bb bd c6 29 f4 c0
       -0.16010164 -0.0292214 -0.09135637 -7.6300993
000140 32 e0 05 bd 56 e7 dc ba 18 f6 f9 bd 4d 21 82 bd
       -0.032684512 -0.0016853611 -0.12205142 -0.06354008
000150 90 30 a2 3c d0 f8 51 bd b3 02 1c be f4 58 6c bd
       0.019798547 -0.051262677 -0.15235405 -0.05770202
000160 8e 58 6a be be dc 34 bd 7a 4c 65 3c de 59 02 bc
       -0.22885343 -0.04415583 0.013995284 -0.007955996
000170 44 5e c7 bd 17 3a 5c be d7 5d 52 3c 05 c0 fe 3b
       -0.097347766 -0.21506535 0.012839756 0.0077743554
000180 f3 2c 25 bb b8 e2 ab be 39 23 99 bd 36 af 0e c0
       -0.0025203794 -0.3357141 -0.07477421 -2.229444
000190 99 6f cc be f0 36 bd bd 2c 28 85 be 54 4f 01 bf
       -0.39928892 -0.09238994 -0.2600721 -0.5051167
0001a0 6e c1 94 be 5d 5c 2e be da 83 b3 be b1 64 97 bc
       -0.29053825 -0.17027421 -0.35061532 -0.01848063
0001b0 65 49 d0 bd 66 37 8f bd 6e 83 02 be cc d1 10 be
       -0.10170249 -0.06992988 -0.12745449 -0.14142531
0001c0 63 0c 4f c0 d2 81 09 be b8 eb 02 bf ba 92 96 be
       -3.235131 -0.13428429 -0.5114093 -0.29408818
0001d0 e5 2f 07 bf d2 4a 36 be b7 d2 1a 3d 38 01 b2 bd
       -0.52807456 -0.17801979 0.03779861 -0.08691639
0001e0 6e 7d 95 bf 22 26 57 bd 5b d4 5b bc 4d c7 3d be
       -1.1678903 -0.0525266 -0.013417329 -0.18533058
0001f0 e1 20 05 be 77 f0 69 be e2 6d 55 bd e6 81 66 be
       -0.13000824 -0.22845636 -0.052106746 -0.2251049
000200 d0 d3 ce bd e6 bb 3f 3d 98 90 10 bf 44 00 16 be
       -0.10098994 0.046810053 -0.5647063 -0.14648539
000210 04 bf f2 bd 88 36 ae bd 13 4c 42 bd 2b 90 f0 3b
       -0.118528396 -0.08506495 -0.04743583 0.007341405
000220 d3 0d da bc d2 f2 32 bd 9f c2 62 bd 2a 15 19 bd
       -0.02661792 -0.043688603 -0.055361386 -0.0373737
000230 1b 43 86 3b bc 33 12 be ed a9 2b bd 40 d6 d1 bf
       0.004097355 -0.14277548 -0.0419101 -1.6393509
000240 a3 9d 99 be e2 96 c6 be 71 7a 4b 3d 27 df c7 be
       -0.3000308 -0.3878699 0.049677316 -0.3903744
000250 a2 f0 e3 bd d9 35 87 be ba 8d b7 3c 58 48 2b bd
       -0.111298814 -0.2640827 0.022406448 -0.04181704
000260 10 aa b3 bd 10 e2 02 bd d3 75 99 bc 06 d8 d6 bd
       -0.08772671 -0.03195387 -0.01873294 -0.10490422
000270 68 9d df bd 54 6d eb bc 25 5d 27 3c 8e 3b d6 3b
       -0.10918695 -0.028738655 0.0102150785 0.006537861
000280 64 fa 34 be 60 f9 09 be 6f b5 a7 bd 00 57 c4 3c
       -0.17673641 -0.13474035 -0.081889026 0.023967266
000290 69 be ef be 67 db 56 bf 5d 88 97 be b2 d3 2b bd
       -0.4682496 -0.8392853 -0.29596224 -0.041949935
0002a0 e0 5a 75 bf 57 28 1a bf cc cb 8a be ac 44 23 be
       -0.9584179 -0.60217804 -0.2710861 -0.15944165
0002b0 49 5d e8 be 2d 7d 21 bf e6 58 bf bf bc db 57 3c
       -0.4538367 -0.6308163 -1.4949005 0.013174947
0002c0 7d 74 2b 3d 35 00 12 c1 b8 8c c0 be d0 f6 9f be
       0.04185914 -9.125051 -0.3760736 -0.3124299
0002d0 db ad 4a be b6 3a 63 be 1d 48 81 bd 70 77 7a bf
       -0.19792883 -0.22190365 -0.06312583 -0.978385
0002e0 ec 91 a0 38 4a 3a cc bc b2 d7 b6 bd 97 1f a2 bd
       7.6565746e-05 -0.024930138 -0.08927859 -0.079161815
0002f0 65 12 27 bd 5d 7f c2 bd 0c d4 b6 3c db 62 d9 be
       -0.040789027 -0.09496949 0.022317909 -0.42458233
000300 57 a8 da bc ce 76 52 bd 3a 08 5e bd 7f a3 1d bb
       -0.026691599 -0.051382832 -0.054207064 -0.002405375
000310 b5 02 5f bd ef df 11 be 5b 0f 35 be ef 11 3f be
       -0.05444594 -0.1424558 -0.17681639 -0.18659185
000320 ff 07 c8 be 49 10 93 be da 3d 93 3b 0d 64 12 3b
       -0.390686 -0.28723362 0.0044934573 0.0022337467
000330 25 03 e9 bc 73 fb bb c0 f3 e9 9b 3c ae 80 21 3d
       -0.028443882 -5.8744445 0.019032454 0.03942936
000340 53 86 d6 be d9 82 0a bd 8d 97 22 be e6 e6 bb be
       -0.41899356 -0.033816192 -0.15878125 -0.366996
000350 a9 bd 25 bf 5c fe 91 c0 d7 9b ae be fe 96 c8 be
       -0.64742523 -4.5622997 -0.3410327 -0.39177698
000360 d4 45 6f be cf 1f 0c c0 15 65 66 be f8 85 51 be
       -0.23366481 -2.1894414 -0.22499497 -0.20461261
000370 a2 a1 18 3d dc 3a 90 be dd 79 02 c0 8c cc a8 be
       0.03726352 -0.28169906 -2.038688 -0.32968557
000380 39 74 07 3d 03 8f c9 be 31 6a d7 bd 60 c9 ba be
       0.033069823 -0.39366922 -0.10518301 -0.36481762
000390 7d b1 74 be f2 d7 ba bf 17 64 95 bf 5f 5c 5a c0
       -0.23895831 -1.4597151 -1.167117 -3.411888
0003a0 ab 77 3c be d3 42 48 be 77 b9 10 be d1 73 68 3c
       -0.18405025 -0.19556741 -0.14133249 0.014187769
0003b0 9f 0b 2b bd 47 d5 29 bf 2f 4a 85 bf 7c 47 22 bd
       -0.04175913 -0.6634106 -1.0413264 -0.039618954
0003c0 ee ed 4a be b0 c7 22 bf 67 04 23 bf 23 07 6e bb
       -0.19817325 -0.6358595 -0.6367859 -0.0036320172
0003d0 bf 2a 90 3c ea bc e2 c0 7b 1e f8 bd 13 1b 89 be
       0.017598508 -7.085561 -0.12115189 -0.26778468
0003e0 c0 0d 98 bd 3d 10 13 be d7 b0 c9 bd a5 f6 d1 be
       -0.074244976 -0.14361663 -0.09848183 -0.41008487
0003f0 23 2b 00 3d 84 a1 0e 3c 70 65 84 be d3 49 e2 be
       0.03129114 0.0087055005 -0.2585864 -0.44196948

decoder.fc_out.bias f4 [8]
000000 43 1b b2 be 20 79 a2 be b3 8d b0 bc e1 81 44 bf
       -0.34786424 -0.31733036 -0.021551942 -0.7676068
000010 43 be 48 3e 94 e7 19 bf eb 5b 0a bf 61 93 a5 3f
       0.19603829 -0.60118985 -0.54046506 1.2935601
