models/last-training.pt (torch, 59623 bytes, 56 tensors)

encoder.embed.weight f4 [8, 8]
0	0x3d04869d	0.03235494
1	0xbcdcb219	-0.026940392
2	0x3d714d08	0.058911353
3	0xbcd1d2b6	-0.02561317
4	0xbd57df03	-0.052702915
5	0x3d14a108	0.036286384
6	0xbcaa8346	-0.02081455
7	0x3d7ee491	0.062229697
8	0xbd215f49	-0.03939751
9	0xbc57b261	-0.013165087
10	0x3b959efb	0.004566071
11	0xbce18b5f	-0.027532278
12	0x3ca9b152	0.020714436
13	0xbb37dff4	-0.002805707
14	0xbcb73c7a	-0.022367705
15	0x3aaade19	0.0013036161
16	0xbc03d586	-0.008046513
17	0x3c34ddaa	0.011039177
18	0xbac0ea24	-0.0014718217
19	0x3c00c95f	0.007860511
20	0xbc1221ec	-0.00891922
21	0x3bebd307	0.0071967873
22	0xbc27d69d	-0.010244039
23	0x3c693244	0.014233176
24	0x3b179f34	0.0023135664
25	0xba317a35	-0.00067702244
26	0xbc7b37a7	-0.015333093
27	0xbc9b3afa	-0.01894902
28	0xbc0f34f1	-0.00874065
29	0xbc42037d	-0.011841652
30	0xbc857566	-0.016291331
31	0x3c56a4d7	0.013100824
32	0xbadc32a1	-0.0016799757
33	0x3ca3be29	0.019988136
34	0x3cf75716	0.030192893
35	0x3c8ad4a7	0.016947104
36	0x3bae40d0	0.005317785
37	0x3cc45133	0.0239645
38	0x3bdb08ce	0.006684399
39	0x3be639ab	0.0070259175
40	0x3ea8bc59	0.32956198
41	0x3ee1099a	0.43952638
42	0x3ed01093	0.40637645
43	0x3ebbf15d	0.36707583
44	0x3ef55c53	0.47922
45	0x3ebc87f2	0.36822468
46	0x3ebae7da	0.36505014
47	0xbed31652	-0.41227967
48	0xbf476c52	-0.7789966
49	0xbf55c8ab	-0.8350932
50	0xbf47a38b	-0.7798392
51	0xbf5363a9	-0.82573944
52	0xbf4d1a90	-0.80118656
53	0xbf4e35c1	-0.8055077
54	0xbf397490	-0.72443485
55	0x3f4b9c09	0.79534966
56	0xbca72164	-0.020401664
57	0xbcfc155d	-0.030771906
58	0xbb312354	-0.0027029114
59	0xbbec96d0	-0.0072201267
60	0x3c21a99b	0.009867097
61	0xbd1ad894	-0.0378042
62	0x3aa1be36	0.0012340012
63	0x3c3367d7	0.01095005

encoder.lstm.weight_ih_l0 f4 [20, 100]
0	0x3d80f73e	0.06297158
1	0x3df74ca9	0.12075169
2	0x3e54fccb	0.20799558
3	0x3c96b9e0	0.018399179
4	0x3e0f5d69	0.14000477
5	0xbd2b7db1	-0.041867916
6	0xbbdbe4a1	-0.0067106043
7	0xbad5ae83	-0.0016302619
8	0x3e987281	0.2977486
9	0x3c7444e7	0.014909006
10	0xbc924c97	-0.017858787
11	0x3cd2d83f	0.02573788
12	0x3db3916a	0.0876797
13	0xbd8cacec	-0.0686892
14	0x3dbaff4d	0.09130726
15	0x3de8924a	0.113560274
16	0x3cca78b0	0.024715751
17	0x3dd32a85	0.10310844
18	0x3e14a86b	0.14517371
19	0x3e083825	0.13302667
20	0x3ddf5ae3	0.10906007
21	0x3c8e160e	0.0173445
22	0x3dded5e6	0.10880642
23	0x3dad7fa4	0.08471611
24	0x3e9045b3	0.28178176
25	0x3dfcb5cd	0.12339363
26	0x3b004b61	0.001957618
27	0x3e961a31	0.29316857
28	0x3de0df7b	0.109801255
29	0xbcb69820	-0.022289336
30	0x3bee3462	0.007269428
31	0x3d7afdc2	0.06127716
32	0x3c34d74c	0.011037659
33	0x3da24592	0.07923426
34	0x3da9981b	0.08280965
35	0x3b84114d	0.0040303827
36	0x3ca2c2e9	0.019868331
37	0x3d8e638b	0.0695258
38	0x3d55b6be	0.05217623
39	0x3c881892	0.016613279
40	0x38e367e4	0.000108435546
41	0x3dcca1e6	0.09991817
42	0x3e6a1e56	0.22863135
43	0x3d817577	0.06321233
44	0x3dad59c1	0.08464385
45	0x3dd13b61	0.10216404
46	0x3dc29792	0.09501566
47	0x3d50b587	0.050954368
48	0x3b128ca7	0.0022361667
49	0x3d485c34	0.048916057
50	0xba2ac8f2	-0.00065149285
51	0x3dc0e9ea	0.094196156
52	0x3d80ad51	0.062830575
53	0x3c646fe4	0.013942692
54	0xbd2b5222	-0.041826375
55	0x3d9879d3	0.07445111
56	0x3ec2df5d	0.38061038
57	0x3e5de15a	0.21667996
58	0x3ddb58b8	0.10710281
59	0x3d87b02d	0.066254
60	0xbcfadc6d	-0.030622685
61	0x3d8a19da	0.06743212
62	0x3ebd34b6	0.36954278
63	0x3dad33ab	0.084571205
64	0x3dec2ce2	0.11531998
65	0x3d818bf5	0.06325523
66	0x3dd6dfbe	0.10491894
67	0x3e8385c9	0.25688007
68	0x3bd8cdea	0.0066163437
69	0x3e759c0b	0.23985307
70	0x3e038636	0.12844166
71	0x3df178a2	0.11790587
72	0x3cdad280	0.026711702
73	0x3dc6002d	0.09668002
74	0x3d4d784c	0.050163552
75	0x3d175862	0.036949523
76	0xbd05b209	-0.03264049
77	0x3ddbab0f	0.10725986
78	0x3d3f8fe1	0.046768073
79	0x3dd653ad	0.10465179
80	0x3e458a46	0.19291028
81	0x3e1cc10f	0.15308021
82	0x3dbc61f9	0.09198374
83	0x3d6e6cef	0.058209356
84	0x3d4dab36	0.050212108
85	0x3cd5583c	0.02604305
86	0x3e0ec435	0.13942035
87	0xbc58646d	-0.013207537
88	0xbd291204	-0.041276947
89	0x3db03648	0.08604103
90	0x3d492ebd	0.04911684
91	0x3dc1b9a4	0.09459236
92	0x3df7c334	0.12097779
93	0xbd931691	-0.071820386
94	0x3e277dbe	0.1635656
95	0x3dd7c37e	0.10535334
96	0x3d9b7931	0.07591475
97	0x3d48a968	0.048989683
98	0x3cba8d06	0.022772323
99	0xbd077235	-0.0330679
100	0x3e134613	0.143822
101	0x3e789a56	0.24277624
102	0x3edaed3c	0.4275912
103	0x3d9b30a2	0.07577635
104	0x3e09e05e	0.13464496
105	0x3e02ef40	0.12786579
106	0x3d922629	0.07136185
107	0xbca0fa54	-0.019650616
108	0x3ea3bd16	0.319802
109	0x3def3da2	0.116816774
110	0x3dbe8162	0.093020216
111	0x3e2b23e0	0.16712904
112	0x3e57fa96	0.21091685
113	0xbd2aeeb6	-0.04173156
114	0x3dc5dfaf	0.09661805
115	0x3e2572d1	0.1615708
116	0x3e056cab	0.13029735
117	0x3e6a8e20	0.22905779
118	0x3e2594fe	0.16170117
119	0x3e6eb544	0.23311335
120	0x3e427a24	0.18991905
121	0x3db07c7a	0.08617492
122	0x3e381435	0.17976458
123	0x3e37ab23	0.17936377
124	0x3ef04570	0.46927977
125	0x3ddabeaf	0.10680901
126	0xbaf42727	-0.0018627391
127	0x3f080438	0.5313144
128	0x3e42bda0	0.19017649
129	0x3d85d27e	0.06534289
130	0x3d76bbb7	0.060237613
131	0x3e6763fa	0.22596732
132	0x3e3d6747	0.18496428
133	0x3d2a0467	0.041508105
134	0x3e110b3b	0.1416444
135	0x3e32d92f	0.17465661
136	0x3e58431e	0.21119353
137	0x3e488718	0.19582784
138	0x3e01d1c5	0.12677677
139	0x3e1ab898	0.1510948
140	0x3e5ddda4	0.2166658
141	0x3e237f48	0.15966523
142	0x3ee790b2	0.4522758
143	0x3c9afbb4	0.01891885
144	0x3d9533d5	0.07285277
145	0x3dc77a69	0.09740145
146	0x3e26d14f	0.16290782
147	0x3e31499e	0.17313239
148	0x3e027055	0.12738164
149	0x3e140b77	0.14457498
150	0x3e1d484b	0.15359609
151	0x3e8116ca	0.252127
152	0x3dceadaf	0.10091721
153	0x3da8c26e	0.082402095
154	0x3e0bc376	0.13648781
155	0x3e51b3de	0.2047877
156	0x3ecc9926	0.39960593
157	0x3eb1ca99	0.34724882
158	0x3d8ef8ce	0.069810495
159	0xbe29189b	-0.16513292
160	0xbe272d0c	-0.16325778
161	0x3e2f7ab7	0.17136656
162	0x3eb493c5	0.3526899
163	0x3e101378	0.14069927
164	0x3e70bcee	0.23509571
165	0x3d97d7a0	0.07414174
166	0x3e272e81	0.16326334
167	0x3ef79aac	0.48360193
168	0x3dcfcf2d	0.101469375
169	0x3ec29dee	0.38011116
170	0x3e834158	0.2563579
171	0x3d9d3a57	0.07677143
172	0x3e2fabf8	0.17155445
173	0x3d6e9105	0.05824377
174	0xbd7d6fa7	-0.061874058
175	0x3d5932d6	0.053026997
176	0xbd81b2da	-0.06332941
177	0x3db23487	0.08701425
178	0xbdcb5b2a	-0.099294975
179	0x3e2644c0	0.16237164
180	0x3e758d1f	0.23979615
181	0x3ea52c1d	0.32260218
182	0x3dfabf9f	0.1224358
183	0x3e4cb4c6	0.19990835
184	0x3e67f50b	0.2265207
185	0x3e5ff9ff	0.2187271
186	0x3e351c07	0.17686473
187	0x3e2f3adf	0.17112301
188	0x3e47f3c6	0.19526586
189	0x3e03012b	0.12793414
190	0x3e01ae0b	0.12664048
191	0x3eabd0b3	0.33557662
192	0x3d5fadb5	0.05460902
193	0x3daa5a7b	0.08318039
194	0x3e8ff76e	0.2811846
195	0x3e0dead9	0.13859119
196	0xbe56902d	-0.20953436
197	0x3da4e6cb	0.08051833
198	0x3db7f0e5	0.08981494
199	0x3e08d900	0.13364029
200	0x3e3776fe	0.17916486
201	0x3e1cdb57	0.15318047
202	0xbcb7d378	-0.022439703
203	0x3de5fa5e	0.112293944
204	0x3e4f3416	0.20234713
205	0x3ddb43c6	0.10706286
206	0x3e5958db	0.21225302
207	0xbd647324	-0.05577387
208	0xbd074476	-0.033024274
209	0x3e62f8a2	0.22165158
210	0x3e42051e	0.18947265
211	0x3e82d2e8	0.25551534
212	0x3e4bc744	0.19900233
213	0x3d6601a6	0.056153916
214	0x3e7698a7	0.2408167
215	0x3e15ae78	0.14617336
216	0x3e279af2	0.163677
217	0x3e5224ba	0.20521823
218	0x3e8a3418	0.2699287
219	0x3dea3699	0.11436195
220	0x3e0494bd	0.12947364
221	0x3d9fcfed	0.078033306
222	0x3e478b02	0.19486621
223	0x3ddadd52	0.10686745
224	0xbe747159	-0.23871364
225	0x3dc4709a	0.095917895
226	0x3e9291f4	0.28626978
227	0xbe95f709	-0.29290035
228	0x3e1d7d56	0.15379843
229	0x3d1ea99e	0.03873598
230	0x3e232558	0.15932214
231	0x3daba030	0.08380163
232	0x3e201e11	0.1563647
233	0x3e28f30e	0.16498968
234	0x3e66634d	0.22498818
235	0xbdcde1d1	-0.10052837
236	0x3dd137be	0.1021571
237	0x3dd58ccc	0.104272455
238	0x3e09c96a	0.1345574
239	0x3ddb0a9c	0.10695383
240	0x3c3e4162	0.011612268
241	0x3ddb758c	0.1071578
242	0x3de16390	0.11005318
243	0xbbdcd1ea	-0.006738891
244	0x3d3b0b4d	0.045665074
245	0x3e62e9b1	0.22159459
246	0x3e3ac7f8	0.18240345
247	0x3e08e24c	0.13367575
248	0x3db137f1	0.08653248
249	0x3e806f7c	0.25085056
250	0xbdabdb51	-0.08391441
251	0x3e0b65da	0.13613072
252	0x3cce0bc2	0.025152091
253	0x3e64ce47	0.22344314
254	0x3e84b64b	0.25920328
255	0x3e1b7a0e	0.15183279

encoder.lstm.weight_hh_l0 f4 [20, 5]
0	0x3d211a3d	0.039331663
1	0xbd795eca	-0.060881414
2	0xbe1c80ab	-0.15283458
3	0xbd2152e1	-0.03938568
4	0x3c954952	0.018223438
5	0x3df0c62c	0.11756548
6	0x3d93e7a7	0.072219186
7	0xbd75a11e	-0.059968106
8	0x3baa1302	0.005190254
9	0x3d50ac80	0.05094576
10	0x3f0172b0	0.50565624
11	0x3d2fbbfc	0.042903885
12	0x3f1ad3ae	0.6047925
13	0x3eea973a	0.45818502
14	0x3f0291ac	0.5100353
15	0xbdf4a336	-0.119451925
16	0xbe10bdbe	-0.14134881
17	0xbe8c458e	-0.27396816
18	0x38ea0310	0.0001115856
19	0x3d0ecf24	0.034865513
20	0xbdaaf3a8	-0.08347255
21	0xbdf9bc11	-0.12194074
22	0xbe9b95aa	-0.30387622
23	0xbdd7293b	-0.10505911
24	0xbd186f25	-0.03721537
25	0xbd9c292a	-0.07625039
26	0xbdec6a5b	-0.11543723
27	0xbdcbead0	-0.09956896
28	0xbd9acf85	-0.075591125
29	0x3bb2ab2c	0.005452534
30	0x3e2b3ac2	0.16721633
31	0xbe0be79f	-0.13662575
32	0x3de4ea6a	0.111775234
33	0x3e210d50	0.15727735
34	0x3e357faa	0.17724481
35	0xbe4fb6e7	-0.20284615
36	0x3e8faa51	0.2805963
37	0xbda215db	-0.07914325
38	0xbe6384b0	-0.22218585
39	0xbdd1ab00	-0.10237694
40	0xbc7d0c33	-0.015444803
41	0xbe60f24f	-0.21967433
42	0xbdfc7c63	-0.123284124
43	0x3d45054f	0.048100766
44	0xbd52005f	-0.051269885
45	0x3bfcf825	0.007720011
46	0xbe9ac9bb	-0.30232033
47	0xbe83cfd0	-0.25744486
48	0xbd032636	-0.032018863
49	0xbc4d2c6e	-0.0125228
50	0xbd658f74	-0.05604501
51	0xbe52c17a	-0.20581618
52	0xbe467a8e	-0.19382688
53	0x3d2ec603	0.042669307
54	0x3d0bd178	0.03413531
55	0x3e162988	0.1466428
56	0x3bc4e0ec	0.006008258
57	0x3ed15105	0.40882125
58	0x3de289ad	0.11061416
59	0x3e290c86	0.16508684
60	0x3d7b7673	0.06139226
61	0xbe7d11ab	-0.24713771
62	0x3aff4413	0.0019475244
63	0x3d8317d8	0.06401032
64	0x3ce611b4	0.028084613
65	0x3ca30e8f	0.019904403
66	0xbe2278f0	-0.15866446
67	0xbe5eef5c	-0.21770996
68	0xbd968276	-0.07349102
69	0xbbcdc765	-0.006279873
70	0xbd6dafb4	-0.05802889
71	0xbe7390fe	-0.23785779
72	0xbe985bdd	-0.29757586
73	0x3d09eeda	0.033675052
74	0x3c1e1c0f	0.009650244
75	0x3d5e3a8b	0.05425505
76	0xbe9b2022	-0.30297953
77	0xbd048380	-0.03235197
78	0x3d1e164c	0.038595483
79	0x3c50574f	0.0127161285
80	0x3e9d7ce7	0.30759355
81	0xbd9b6b42	-0.07588817
82	0x3ed5907b	0.41711792
83	0x3eb8fce7	0.3613045
84	0x3eb05675	0.3444096
85	0x3e19ac52	0.15007141
86	0x3d826967	0.0636776
87	0x3e31071f	0.17287873
88	0x3e78a47f	0.242815
89	0x3e821af1	0.2541118
90	0x3db7296f	0.0894345
91	0xbe95b6ef	-0.2924113
92	0xbdb8119c	-0.08987734
93	0x3dbb8ee0	0.091581106
94	0x3c2792ad	0.010227841
95	0x3daed2e2	0.085363165
96	0xbea1bf55	-0.31591287
97	0xbd3802f2	-0.044924684
98	0x3da97db1	0.08275927
99	0x3e04ddec	0.12975281

encoder.lstm.bias_ih_l0 f4 [20]
0	0x3cdaf8ab	0.026729902
1	0x3d7b8a9c	0.061411485
2	0x3e4a4642	0.19753364
3	0xb9efa8da	-0.00045711437
4	0x3e2f84bb	0.17140476
5	0xbbfc9494	-0.0077081416
6	0x3e653e53	0.22387056
7	0xbe5b92cf	-0.21442722
8	0xbad3bd63	-0.0016154464
9	0x3d4e3c0a	0.050350226
10	0x3e0bb166	0.13641891
11	0xbba79c37	-0.005115058
12	0xbdf1bd33	-0.11803665
13	0x3e056acf	0.13029025
14	0x3e3e913f	0.18610094
15	0x3d4c170e	0.049826674
16	0x3e904ff6	0.28186005
17	0x3e91ef6c	0.28502977
18	0x3d0d63ae	0.03451889
19	0x3d7de153	0.061982464

encoder.lstm.bias_hh_l0 f4 [20]
0	0x3d810915	0.063005604
1	0x3d60548a	0.054768123
2	0x3e78540e	0.24250814
3	0x3dd79666	0.10526733
4	0x3dcdeff9	0.10055537
5	0x3ba3e566	0.0050017117
6	0x3e4785dc	0.19484657
7	0xbe3966ac	-0.18105572
8	0xbd7e1c17	-0.062038507
9	0x3d874c2c	0.066063255
10	0x3dfd66a4	0.12373093
11	0xbba558ac	-0.005045971
12	0xbe0386da	-0.1284441
13	0x3e4389af	0.19095491
14	0x3e3302d9	0.17481555
15	0x3d83f4ff	0.06443214
16	0x3ebbf129	0.36707428
17	0x3e93d784	0.28875363
18	0x3d665d40	0.056241274
19	0x3dd295fb	0.10282513

encoder.lstm.weight_ih_l0_reverse f4 [20, 100]
0	0x3e153686	0.1457158
1	0x3ce8a360	0.028398216
2	0x3cd83b8e	0.026395585
3	0x3e665715	0.22494157
4	0x3e29cd21	0.16582157
5	0x3e231010	0.15924096
6	0x3d585e00	0.05282402
7	0x3c2e5657	0.010640702
8	0x3cfa4cf4	0.030554272
9	0x3cb2f8b8	0.021847114
10	0x3e10cbe9	0.14140286
11	0x3e8d4c73	0.2759739
12	0x3e68e41f	0.22743271
13	0xbbc4fc1c	-0.006011499
14	0x3dd17611	0.102275975
15	0x3e672649	0.22573198
16	0x3e4a07a3	0.19729476
17	0x3ded5e78	0.11590284
18	0x3e74e8a5	0.23916872
19	0x3e41ca34	0.1892479
20	0x3e835d40	0.25657082
21	0x3e2384ce	0.1596863
22	0x3cf297c3	0.029613381
23	0x3e213109	0.15741362
24	0xbdac77f7	-0.08421319
25	0x3dba794d	0.091051675
26	0x3e885f88	0.26635385
27	0xbd755e3e	-0.05990433
28	0x3df2a7f8	0.11848444
29	0xbd2430f2	-0.04008574
30	0x3e695d23	0.22789435
31	0x3df1f223	0.11813762
32	0x3e026315	0.1273311
33	0x3e11ec4b	0.14250295
34	0x3e57967e	0.21053502
35	0xbd6bf37f	-0.057605263
36	0x3e31cf54	0.17364246
37	0x3e1dcaaa	0.15409341
38	0x3e4d2ed7	0.20037399
39	0x3e29f341	0.165967
40	0x3e58ac0d	0.21159382
41	0x3e2321b1	0.15930821
42	0x3dcf9aab	0.101369224
43	0x3c2061a9	0.009788909
44	0x3da3befa	0.0799541
45	0x3df8273b	0.121168576
46	0x3e226a1f	0.15860794
47	0x3dd80652	0.105480805
48	0x3e0fc258	0.1403898
49	0x3d63b9a4	0.055596963
50	0x3d884844	0.066544086
51	0x3e653cb5	0.22386439
52	0x3e056752	0.13027695
53	0x3e12bd0d	0.1432993
54	0x3e6c5c05	0.23081978
55	0x3e34d57a	0.1765956
56	0x3e963500	0.2933731
57	0xbd50621b	-0.05087481
58	0x3da8e8f9	0.08247561
59	0x3f015ee2	0.50535405
60	0x3ece7fd0	0.40331888
61	0x3e727281	0.23676492
62	0x3d588bf2	0.052867837
63	0xbbd9250e	-0.0066267317
64	0x3e236d73	0.1595972
65	0x3ca382c0	0.019959807
66	0x3e7d8be7	0.247604
67	0x3db87f21	0.09008623
68	0x3e1c1945	0.15244015
69	0x3e1eb597	0.15498959
70	0x3d1c89c8	0.038217336
71	0x3dfc25b5	0.123118795
72	0x3e1f1b77	0.15537821
73	0x3e1fe0a4	0.15613037
74	0xbd4ac568	-0.049504668
75	0xbd7e4cfd	-0.06208514
76	0x3e8a3592	0.26993996
77	0x3e0155cc	0.12630385
78	0x3f0497e6	0.5179428
79	0x3e204614	0.15651733
80	0x3d9a536d	0.075354435
81	0x3d996211	0.07489408
82	0x3df4a466	0.11945419
83	0x3dc7a163	0.09747579
84	0x3e3790f7	0.17926393
85	0x3d97d5a3	0.07413795
86	0x3e719c30	0.23594737
87	0x3e87948a	0.26480514
88	0x3e4dd069	0.20099033
89	0x3e281ffe	0.16418454
90	0x3dfbfb2d	0.12303767
91	0xbc519c46	-0.012793606
92	0x3e182720	0.14858675
93	0x3e0dfdfb	0.13866417
94	0xbc88d448	-0.016702786
95	0x3dd77b74	0.10521594
96	0x3e857ab8	0.2607019
97	0x3e2a9453	0.16658144
98	0x3e571598	0.21004331
99	0x3d825d1c	0.063654155
100	0x3dc687e8	0.09693891
101	0x3e66daf7	0.22544466
102	0xbe12386c	-0.14279336
103	0x3e3f1b9d	0.18662877
104	0x3e0e6e0a	0.13909164
105	0xba93d290	-0.0011277962
106	0x3e02aa35	0.12760241
107	0x3d7135b2	0.0588891
108	0x3dbd1785	0.092330016
109	0x3e528950	0.20560193
110	0x3e3797a9	0.17928948
111	0x3e4ee6f3	0.20205288
112	0x3e6ad797	0.22933803
113	0xbcaf8a3a	-0.021428216
114	0x3e3bb5fb	0.18331139
115	0x3e12c6e9	0.1433369
116	0x3e8a4217	0.27003548
117	0x3e8c9225	0.2745525
118	0x3e158be1	0.14604141
119	0x3e4a31fc	0.1974563
120	0x3e843cbf	0.25827596
121	0x3e3ae5d9	0.18251742
122	0x3e58505c	0.21124405
123	0x3e3001ac	0.17188138
124	0xbe1e9d85	-0.15489776
125	0x3e9eb9d8	0.31001163
126	0x3e0b492c	0.13602132
127	0xbd9828f4	-0.07429686
128	0x3e766d24	0.24065071
129	0xbd6e07a1	-0.058112744
130	0x3e481105	0.19537742
131	0x3da8bd69	0.08239252
132	0x3dc8a5c6	0.09797244
133	0x3e8382ac	0.25685632
134	0x3e557342	0.20844749
135	0x3c5a00d0	0.013305858
136	0x3e2fbdf2	0.17162302
137	0x3e2ec598	0.17067564
138	0x3e0d9ffe	0.13830563
139	0x3df253c8	0.11832386
140	0x3e0bb204	0.13642126
141	0x3e81a429	0.25320557
142	0xbccd0a2d	-0.025029266
143	0x3da80634	0.08204308
144	0x3e2f7e16	0.17137942
145	0x3e148ae3	0.14506106
146	0x3e23a325	0.15980203
147	0x3e022234	0.1270836
148	0x3e6a59b3	0.2288578
149	0x3e289e34	0.164666
150	0x3e1c1fca	0.15246502
151	0x3e3d2f2c	0.18475026
152	0x3e47f8c5	0.19528492
153	0x3dad136d	0.08450971
154	0x3de85a18	0.11345309
155	0x3deff912	0.11717428
156	0xbcbdbaf1	-0.02316043
157	0xbe01334a	-0.12617221
158	0x3e291b6c	0.16514367
159	0x3e2fcf3f	0.17168902
160	0x3d0b0ce2	0.033947833
161	0x3df72f39	0.12069554
162	0xbd8d56c3	-0.06901314
163	0x3e4af054	0.1981824
164	0x3e3cb66e	0.18428966
165	0x3ca8fb94	0.020627774
166	0x3e79816a	0.24365774
167	0xbdab84ea	-0.08374961
168	0x3e47f1da	0.19525853
169	0x3c95bf90	0.01827982
170	0x3e18488e	0.14871427
171	0x3e84c764	0.25933373
172	0x3e8f602f	0.2800307
173	0x3e8fcad4	0.28084433
174	0x3d7ad2b4	0.0612361
175	0x3d1d9621	0.038473252
176	0x3e8fa53a	0.28055745
177	0x3e7860c3	0.24255662
178	0x3de95181	0.11392499
179	0x3e24df6d	0.16100855
180	0x3d964e89	0.07339198
181	0xbd299609	-0.04140285
182	0x3e0fef2f	0.14056085
183	0x3e548ca2	0.20756772
184	0x3e0d8c2b	0.13823001
185	0x3e3fe9db	0.18741553
186	0x3e404766	0.18777236
187	0x3e01f8a9	0.12692513
188	0x3e489195	0.19586785
189	0x3e79f899	0.24411239
190	0x3e3382f3	0.17530422
191	0xbe030b0f	-0.12797187
192	0x3e39c915	0.18143113
193	0x3d17445f	0.036930438
194	0xbe339c90	-0.17540193
195	0x3e64b4c4	0.22334582
196	0x3e7762e7	0.24158822
197	0x3e575257	0.21027504
198	0x3e79f26e	0.24408886
199	0x3e53b6dc	0.20675224
200	0x3dc0f060	0.09420848
201	0x3e6c24e4	0.23060948
202	0x3e8376a8	0.25676465
203	0x3e2d56d6	0.16927657
204	0x3dcb7560	0.09934497
205	0x3e014360	0.12623358
206	0x3e6e1560	0.23250341
207	0x3d60738b	0.05479769
208	0x3ec3d53b	0.3824862
209	0x3e1146aa	0.14187112
210	0x3d81f3a8	0.06345302
211	0x3e2e8b82	0.17045406
212	0x3e5b0c50	0.21391416
213	0xbcb758a0	-0.022381127
214	0x3e2faa28	0.17154753
215	0x3db1fd92	0.08690943
216	0x3e462a66	0.19352111
217	0x3e30601d	0.17224164
218	0x3e2bc5e5	0.1677471
219	0x3e218061	0.15771629
220	0x3e303b9d	0.1721024
221	0x3d2b6434	0.041843608
222	0x3e01526c	0.12629098
223	0x3db58762	0.08863713
224	0x3ebc577b	0.36785492
225	0x3d2e9a72	0.04262776
226	0x3cb66f03	0.022269731
227	0x3ea9dcc1	0.33176234
228	0x3e78cb10	0.24296212
229	0x3e0a35ae	0.1349704
230	0x3da5e2e9	0.0809992
231	0x3e1fec71	0.15617539
232	0x3e1554d0	0.14583135
233	0x3d2a0126	0.041505
234	0x3de1236f	0.109930865
235	0x3e089063	0.13336329
236	0x3e10007a	0.14062682
237	0x3d1b4167	0.03790417
238	0x3e572900	0.21011734
239	0x3e5a93f3	0.213455
240	0x3e45a3a2	0.19300702
241	0x3e16818f	0.1469786
242	0x3e99bc8f	0.3002667
243	0x3db6650c	0.08905992
244	0x3e0f9dfd	0.14025111
245	0x3d981e94	0.07427707
246	0x3e334c4f	0.17509578
247	0x3dd2df68	0.102965176
248	0x3dd92311	0.106023915
249	0x3e0a232e	0.13489982
250	0x3dd6d80f	0.10490429
251	0x3e4700bd	0.19433875
252	0x3dec5438	0.11539501
253	0x3e22ef67	0.15911637
254	0x3d457050	0.048202813
255	0x3e4222d9	0.18958606

encoder.lstm.weight_hh_l0_reverse f4 [20, 5]
0	0x3f18ec63	0.597357
1	0x3ee74077	0.4516637
2	0xbedb5a02	-0.42842108
3	0xbf1384f2	-0.57624733
4	0xbe8678df	-0.26264092
5	0x3e75ead2	0.24015358
6	0x3e5beef4	0.21477872
7	0xbdc622d9	-0.096746154
8	0xbe9215fc	-0.28532398
9	0xbdf9d22b	-0.121982895
10	0xbe50b0ec	-0.2037999
11	0xbe0f62f8	-0.14002597
12	0x3d8712d5	0.06595389
13	0x3de5d713	0.11222663
14	0x3d669b07	0.05630019
15	0x3e99b983	0.30024347
16	0x3eca57f0	0.39520216
17	0xbe39592e	-0.18100426
18	0xbe9c2cce	-0.30502933
19	0xbe5daf37	-0.2164887
20	0xbdcd5460	-0.10025859
21	0xbe0a8612	-0.13527706
22	0x3dff740c	0.12473306
23	0x3def8ef5	0.11697189
24	0x3d7005d4	0.058599308
25	0x3efd7f92	0.4951139
26	0x3ebc26f9	0.36748484
27	0xbe87b65d	-0.2650632
28	0xbed311f1	-0.41224626
29	0xbe7e0166	-0.24805221
30	0x3e5f2b73	0.21793918
31	0x3e2daf77	0.16961466
32	0x3cb00e44	0.021491177
33	0xbe6bae56	-0.23015723
34	0x3cd6866f	0.02618715
35	0xbd65e16f	-0.056123193
36	0xbc9b7f66	-0.018981647
37	0xbde9fac1	-0.11424781
38	0x3cfef65d	0.031123335
39	0xbe2f34df	-0.17110012
40	0x3ea6a052	0.3254419
41	0x3e98f4c2	0.29874235
42	0xbe0bf803	-0.13668828
43	0xbe8aabe8	-0.2708428
44	0xbe24c73c	-0.16091627
45	0xbdbae4ee	-0.09125696
46	0x3da9c506	0.08289532
47	0xbe27436f	-0.16334318
48	0xbd841a6b	-0.06450351
49	0xbe17ff0e	-0.1484339
50	0x3f01394e	0.50478065
51	0x3ecd611b	0.40113148
52	0xbea50cca	-0.3223632
53	0xbebde7a7	-0.370908
54	0xbe70dd28	-0.23521864
55	0x3dd8160d	0.10551081
56	0x3dbebd7c	0.09313485
57	0x3d547152	0.051865883
58	0xbdcbf50e	-0.0995885
59	0x3e04d734	0.12972718
60	0x3e6558c3	0.22397141
61	0x3e32b259	0.17450847
62	0x3d8d33e6	0.068946645
63	0xbe28a0d8	-0.16467607
64	0x3e10a6d0	0.14126134
65	0xbe3333bc	-0.17500204
66	0xbe690585	-0.22756012
67	0x3d7e86ac	0.06214015
68	0x3e8381e4	0.25685036
69	0x3c87bed3	0.016570484
70	0x3e225991	0.1585448
71	0x3dd1b1b3	0.102389716
72	0x3d5388c5	0.051644105
73	0xbe348741	-0.1762972
74	0x3d222be1	0.039592627
75	0x3ef50112	0.4785238
76	0x3ede8300	0.4345932
77	0xbf01de29	-0.50729614
78	0xbef2a7f6	-0.4739377
79	0xbed3331e	-0.41249937
80	0x3e1e3c33	0.15452652
81	0x3e803841	0.25042918
82	0xbeb88bb7	-0.36044094
83	0xbe733df1	-0.23754098
84	0xbe9797f7	-0.29608127
85	0x3e136ad3	0.14396219
86	0x3dd6670a	0.10468872
87	0xbe8de355	-0.27712503
88	0xbe2404ec	-0.16017503
89	0xbe980353	-0.29690036
90	0x3e72f4ff	0.23726271
91	0x3e8c8d08	0.27451348
92	0xbe885bfb	-0.26632676
93	0xbe8f7ad7	-0.28023407
94	0xbe87f421	-0.26553443
95	0x3de273cc	0.11057243
96	0x3e33c492	0.17555454
97	0xbe42c378	-0.19019878
98	0xbe0d9d79	-0.13829602
99	0xbea9239a	-0.33034974

encoder.lstm.bias_ih_l0_reverse f4 [20]
0	0x3e87bfac	0.26513422
1	0x3e887e5e	0.2665891
2	0x3d31d0ea	0.043412127
3	0x3e846bfc	0.25863636
4	0x3a64a1d4	0.0008721624
5	0x3ec25b6f	0.37960383
6	0x3e68f4ac	0.22749585
7	0xbbbd0fc3	-0.005769701
8	0x3e58fbf3	0.21189861
9	0xbcc90b46	-0.024541508
10	0x3e88f9a8	0.26752973
11	0x3de6a0c0	0.112611294
12	0x3d0dbcac	0.03460376
13	0xbe6af3e9	-0.22944607
14	0x3ba34947	0.0049831006
15	0x3ed8d5f9	0.42350748
16	0x3e7248e8	0.23660624
17	0x3e60682d	0.2191474
18	0x3e932cff	0.28745267
19	0x3dfd60a4	0.12371948

encoder.lstm.bias_hh_l0_reverse f4 [20]
0	0x3e4279e0	0.18991804
1	0x3e849a87	0.25899145
2	0x3b6c3506	0.0036042347
3	0x3e9f74e7	0.31143877
4	0x3d861a13	0.06547942
5	0x3ec1410f	0.37744948
6	0x3e1c4f29	0.15264572
7	0xbd6c1b9f	-0.05764353
8	0x3e984db3	0.2974678
9	0xbda1d79e	-0.07902454
10	0x3e5f07d1	0.21780325
11	0x3e54cffb	0.20782463
12	0x3ccfe9c6	0.025380027
13	0xbe97930b	-0.29604372
14	0x3d998b6a	0.07497294
15	0x3ec61e5b	0.38695034
16	0x3e8821f0	0.26588392
17	0x3e3edae7	0.18638192
18	0x3ea9fb99	0.33199766
19	0x3e2273b6	0.15864453

encoder.lstm.weight_ih_l1 f4 [20, 10]
0	0x3d4a1d63	0.04934443
1	0xbd324ded	-0.043531347
2	0xbb43477f	-0.0029797254
3	0x3dd9efbe	0.1064143
4	0x3dc04f3f	0.09390115
5	0x3ddb6049	0.10711724
6	0x3d353e3b	0.0442488
7	0xbe233e0e	-0.1594164
8	0xbdd019db	-0.101611815
9	0xbe41f743	-0.18941979
10	0x3cc2041d	0.023683602
11	0xbda68fac	-0.08132872
12	0x3de092ad	0.10965476
13	0x3d45ecc1	0.04832149
14	0x3dfaef2d	0.122526504
15	0x3dcbbc77	0.09948056
16	0x3dcb98d8	0.09941262
17	0xbe1c67a9	-0.15273918
18	0xbe096fc9	-0.13421549
19	0xbdb600bf	-0.08886861
20	0x3d2cac23	0.04215635
21	0xbd95ec18	-0.07320422
22	0x3e0ca5d6	0.13735136
23	0x3de3538b	0.11099919
24	0x3d608c37	0.05482122
25	0x3cc1f4bc	0.023676269
26	0x3c5f81fa	0.013641829
27	0xbc91af55	-0.0177838
28	0xbdbd3fb2	-0.092406645
29	0x3d271c19	0.04079828
30	0x3e28f1e1	0.1649852
31	0xbde2ce98	-0.11074561
32	0xbbbde3d4	-0.0057949815
33	0x3dddaeac	0.10824332
34	0x3d482af2	0.04886908
35	0x3e51121f	0.20417069
36	0x3df6e33e	0.12055062
37	0xbeb9b2f2	-0.36269337
38	0xbe5d5dd0	-0.21617818
39	0xbe6a4ac9	-0.22880091
40	0x3e191957	0.14951073
41	0xbdbc1771	-0.091841586
42	0x3caf757b	0.021418324
43	0x3e38b6ac	0.18038434
44	0x3e298582	0.16554835
45	0x3e428b93	0.18998556
46	0x3e244a0b	0.1604387
47	0xbe23dd61	-0.16002418
48	0xbdd2efa7	-0.10299616
49	0xbe005986	-0.1253415
50	0x3df6a348	0.12042862
51	0xbe322a05	-0.17398842
52	0x3e237947	0.15964232
53	0x3e4f43d5	0.2024072
54	0x3e147b3b	0.14500134
55	0x3e5744fe	0.21022412
56	0x3e39ba3f	0.18137453
57	0xbdb3fc87	-0.087884
58	0xbe51a085	-0.2047139
59	0xbe17a68d	-0.14809628
60	0x3e10c099	0.1413597
61	0xbe105c88	-0.14097798
62	0x3e2ae925	0.166905
63	0x3e07e944	0.13272578
64	0x3e21603b	0.15759365
65	0x3e499bbe	0.19688317
66	0x3e48a263	0.19593196
67	0xbe65a516	-0.22426257
68	0xbe6033e8	-0.218948
69	0xbe08b1e3	-0.13349108
70	0x3e3977fd	0.18112178
71	0xbe2c12ed	-0.16804095
72	0x3e8f25a8	0.27958417
73	0x3e6d390e	0.23166296
74	0x3e0f3abb	0.13987248
75	0x3eb52843	0.3538228
76	0x3e85f550	0.2616372
77	0xbd382e99	-0.044966314
78	0xbe71c7d6	-0.23611388
79	0xbd26fb7e	-0.040767185
80	0x3d9854db	0.0743806
81	0xbeae12df	-0.33998773
82	0x3d67998b	0.056542914
83	0x3e3e6e42	0.18596748
84	0x3e26d3ed	0.16291781
85	0x3e3ef7bb	0.18649189
86	0x3de45de1	0.111507185
87	0xbe824023	-0.25439557
88	0xbe3d427b	-0.18482392
89	0xbe604a12	-0.21903256
90	0x3e37c5f6	0.1794661
91	0xbe79efeb	-0.24407928
92	0x3dc62a0f	0.09675991
93	0x3e595f83	0.21227841
94	0x3dcbebdc	0.09957096
95	0x3e2b21fa	0.1671218
96	0x3e7f0e5c	0.24907821
97	0xbe86c55f	-0.26322457
98	0xbe186b4a	-0.14884678
99	0xbe6a1376	-0.22858986
100	0x3de24ebb	0.11050173
101	0xbcfc9a31	-0.030835243
102	0x3da23dd5	0.0792195
103	0x3e1b5ef0	0.15172935
104	0x3d338311	0.043826167
105	0x3df06c88	0.11739451
106	0x3dacb679	0.084332414
107	0xbd3b0d29	-0.045666847
108	0xbe3d98fe	-0.18515393
109	0xbd0989d1	-0.033578698
110	0x3e390ed8	0.18072069
111	0xbc6b86d2	-0.014375405
112	0x3d89bee2	0.06725861
113	0x3e02ee76	0.12786278
114	0x3e2cbb47	0.16868316
115	0x3e20fadd	0.15720697
116	0x3e49ee67	0.1971985
117	0xbdedf2fd	-0.11618612
118	0xbe5695bf	-0.20955561
119	0xbde92a7f	-0.113850586
120	0xbe07f786	-0.13278016
121	0xbd0f2354	-0.0349458
122	0xbd5ff8f9	-0.0546808
123	0xbdc5a57e	-0.09650706
124	0xbd9f7911	-0.077867635
125	0xbdc57f6e	-0.09643446
126	0xbe06c6fa	-0.13161841
127	0xbd59ffec	-0.05322258
128	0x3e04c1da	0.12964574
129	0xbd83822e	-0.06421314
130	0xbda718df	-0.08159041
131	0x3e11212a	0.14172807
132	0x3dc37733	0.0954422
133	0xbe254573	-0.16139774
134	0xbe1631ab	-0.14667384
135	0xbd923f4a	-0.07140978
136	0xbe41eb1d	-0.18937345
137	0x3e793ae2	0.24338868
138	0x3de6a94c	0.112627596
139	0x3e4a0b24	0.19730812
140	0xbe01b5cc	-0.12667006
141	0x3c3059c6	0.010763591
142	0x3d9c57b2	0.07633914
143	0xbe0678a8	-0.13131964
144	0xbd8b2e9b	-0.06795999
145	0xbdbaa41b	-0.09113332
146	0xbdff3d4b	-0.124628626
147	0x3e43d00f	0.19122337
148	0x3e220dbd	0.15825553
149	0x3e14904f	0.14508174
150	0x3e5a9990	0.21347642
151	0xbdb29f22	-0.087217584
152	0x3e51c5a8	0.20485556
153	0x3e2b51ad	0.16730376
154	0x3dd9dcf9	0.1063785
155	0x3e09173f	0.13387774
156	0x3e357388	0.17719853
157	0xbe629218	-0.22126043
158	0xbe713a7b	-0.23557465
159	0xbe7f91c2	-0.24957946
160	0x3e36f223	0.17865805
161	0xbe4e5eb4	-0.20153314
162	0x3e1b6107	0.15173732
163	0x3e0fc429	0.14039673
164	0x3e83eecc	0.25768125
165	0x3e368425	0.17823847
166	0x3e4166dc	0.18886894
167	0xbe81fbc0	-0.25387383
168	0xbe889083	-0.26672754
169	0xbe2ac790	-0.1667769
170	0x3e185841	0.14877416
171	0xbd7ea1d8	-0.062166065
172	0x3e74d242	0.23908332
173	0x3e70cbac	0.23515195
174	0x3e7d10df	0.24713467
175	0x3e4ef0e7	0.20209084
176	0x3e25f574	0.16206914
177	0xbdddf222	-0.10837199
178	0xbe1a7719	-0.15084495
179	0xbdf233c2	-0.11826278
180	0x3e2ab7d0	0.16671681
181	0xbe7348c8	-0.23758233
182	0x3e4c1bb6	0.19932446
183	0x3e600291	0.21875979
184	0x3e240bf2	0.16020182
185	0x3e4ff556	0.20308432
186	0x3e737423	0.23774771
187	0xbe4cd9d0	-0.20004964
188	0xbe921dbb	-0.28538308
189	0xbe770aed	-0.24125262
190	0x3e7a4316	0.24439654
191	0xbe6ed654	-0.23323947
192	0x3e33e0ec	0.1756627
193	0x3e5e902f	0.21734689
194	0x3e659821	0.22421314
195	0x3e4ea077	0.201784
196	0x3e4a5793	0.1975997
197	0xbe3b665b	-0.18300764
198	0xbe85c979	-0.26130274
199	0xbe80ba82	-0.25142294

encoder.lstm.weight_hh_l1 f4 [20, 5]
0	0x3e11632b	0.14197986
1	0x3e226e31	0.15862347
2	0xbe21674b	-0.1576206
3	0xbe151f6d	-0.14562769
4	0xbe66733a	-0.22504893
5	0x3ddef641	0.10886813
6	0x3db58d42	0.088648334
7	0xbe2e404e	-0.17016718
8	0xbe1dd4f0	-0.1541326
9	0xbe5894f7	-0.21150576
10	0x3e836a4d	0.2566704
11	0x3e37c481	0.17946054
12	0xbe963e37	-0.2934434
13	0xbdd33d0f	-0.103143804
14	0xbe644cb0	-0.22294879
15	0x3d9b2dc8	0.075770915
16	0x3da8ab2b	0.08235773
17	0xbdb101b1	-0.08642901
18	0xbe0f610e	-0.14001867
19	0xbd963d9f	-0.07335972
20	0x3e1a61c8	0.15076363
21	0x3dac33e5	0.084083356
22	0xbdc72b95	-0.097251095
23	0xbe2fd6db	-0.17171805
24	0xbe0d599b	-0.13803713
25	0x3e09c496	0.13453898
26	0x3e0e907e	0.13922307
27	0xbe2189a6	-0.15775165
28	0xbe6c30ad	-0.23065443
29	0xbe81881a	-0.2529915
30	0x3e147ac8	0.14499962
31	0x3e2fa2ab	0.17151897
32	0xbe1717bc	-0.14755148
33	0xbe2e5b94	-0.17027122
34	0xbe81917d	-0.2530631
35	0x3e445a41	0.19175054
36	0x3e58e2d1	0.21180274
37	0xbe8b2add	-0.2718114
38	0xbe487c8a	-0.19578758
39	0xbe61653f	-0.22011279
40	0x3e4de8d0	0.20108342
41	0x3e368b8c	0.1782667
42	0xbb413450	-0.0029480644
43	0xbe308018	-0.17236364
44	0xbdab72cb	-0.083715044
45	0x3e3e024c	0.18555564
46	0x3e06a518	0.13148916
47	0xbe52d65b	-0.20589583
48	0xbe3579ba	-0.17722216
49	0xbe140111	-0.14453532
50	0x3e5a12b8	0.21296203
51	0x3e535043	0.20636086
52	0xbe15ff77	-0.14648233
53	0xbe0bb71a	-0.13644066
54	0xbe1bc3fc	-0.15211481
55	0x3e41098d	0.188513
56	0x3e2c8e0d	0.16851063
57	0xbb63f5ec	-0.0034784032
58	0xbda0ce93	-0.07851901
59	0xbe2847eb	-0.16433685
60	0xbe287f60	-0.1645484
61	0xbe558e3d	-0.20855041
62	0x3e1b0893	0.1513999
63	0x3e5c5d6c	0.21520013
64	0x3e572d04	0.21013266
65	0xbd8772ca	-0.06613691
66	0xbdb41904	-0.08793834
67	0xbd90af0f	-0.0706464
68	0x3e137617	0.14400516
69	0x3cbaedaa	0.022818405
70	0xbdf516ff	-0.11967277
71	0xbe2d6d86	-0.16936311
72	0xbaeb3f62	-0.0017947967
73	0x3dd70888	0.10499674
74	0x3dbb72be	0.09152745
75	0x3e89974b	0.2687324
76	0x3e5b5703	0.21419911
77	0xbe79044a	-0.24318042
78	0xbe9f3837	-0.31097576
79	0xbe5e6d31	-0.2172134
80	0x3e9301a0	0.28712177
81	0x3e8a65b7	0.27030727
82	0xbe4d31fc	-0.20038599
83	0xbe390ddb	-0.18071692
84	0xbe9c090c	-0.30475652
85	0x3ec07a1e	0.37593168
86	0x3eaac004	0.3334962
87	0xbecfb43b	-0.40567192
88	0xbe9a9988	-0.3019526
89	0xbeb655c3	-0.35612306
90	0x3e5e9eca	0.2174026
91	0x3e8c79a5	0.27436557
92	0xbe22bf6c	-0.15893334
93	0xbe6ec614	-0.23317748
94	0xbe36c81f	-0.17849778
95	0x3e9d34bb	0.30704293
96	0x3eab817b	0.33497223
97	0xbe8d522c	-0.27601755
98	0xbea0df19	-0.3142021
99	0xbe48379f	-0.19552468

encoder.lstm.bias_ih_l1 f4 [20]
0	0x3de10d84	0.10988906
1	0x3e2425bf	0.16030024
2	0x3d12573d	0.03572773
3	0x3de71eb9	0.11285157
4	0x3e0945c1	0.13405515
5	0x3e06f8ed	0.13180895
6	0x3e0e9a75	0.13926108
7	0x3e92aa26	0.28645438
8	0x3e1f2ff3	0.15545635
9	0x3e1dc64e	0.15407678
10	0x3e276ea2	0.16350797
11	0x3dc2960c	0.095012754
12	0xbd9110f1	-0.070833094
13	0xbe29ba53	-0.16574983
14	0xbe5f0e30	-0.21782756
15	0x3e60b3b1	0.21943547
16	0x3e21f046	0.15814313
17	0x3e5f8122	0.21826604
18	0x3e05ad25	0.1305433
19	0x3e7e8482	0.24855235

encoder.lstm.bias_hh_l1 f4 [20]
0	0x3e2d83b0	0.16944766
1	0x3dc959b9	0.09831566
2	0x3d86c7ce	0.065810785
3	0x3e11446a	0.14186254
4	0x3e69d50a	0.22835174
5	0x3e14673c	0.14492506
6	0x3e013091	0.12616183
7	0x3e8a75e0	0.27043056
8	0x3d9ba530	0.075998664
9	0x3e564b10	0.20927072
10	0x3e4fe431	0.20301892
11	0x3e524d25	0.20537241
12	0xbdfdb411	-0.123878606
13	0xbe371bb4	-0.17881662
14	0xbd9a1acb	-0.075246416
15	0x3e318021	0.17334034
16	0x3e95fcc1	0.29294398
17	0x3e3a26a4	0.18178803
18	0x3e5cb5a2	0.21553662
19	0x3e8d5a30	0.2760787

encoder.lstm.weight_ih_l1_reverse f4 [20, 10]
0	0x3e17bb7b	0.14817612
1	0xbea3865a	-0.3193844
2	0xbd3f7a71	-0.04674763
3	0x3e47a4cf	0.19496463
4	0x3e1321b6	0.14368328
5	0x3e2d1019	0.16900672
6	0x3e359e8c	0.17736262
7	0xbc9abe32	-0.01888952
8	0xbe5a7401	-0.21333314
9	0xbd4858ae	-0.048912697
10	0x3e2fec0f	0.17179893
11	0xbe92df7d	-0.28686133
12	0xbcdb9ddc	-0.026808672
13	0x3e00f7c9	0.12594523
14	0x3e1dea27	0.15421353
15	0x3db67ee7	0.089109235
16	0x3e76381e	0.24044845
17	0xbec647eb	-0.38726744
18	0xbe0ab646	-0.13546094
19	0xbe6eb480	-0.23311043
20	0x3e680c36	0.22660908
21	0xbe4655fb	-0.19368736
22	0x3eb6fcf7	0.35739872
23	0x3e9358c2	0.28778654
24	0x3e8727ce	0.26397556
25	0x3e5d63cd	0.21620102
26	0x3e979c8a	0.29611617
27	0xbdc372d2	-0.095433846
28	0xbe4954eb	-0.196613
29	0xbda657f1	-0.08122242
30	0x3e745f94	0.23864585
31	0xbee1dac5	-0.4411222
32	0xbd85e1c7	-0.06537204
33	0x3e267903	0.162571
34	0x3dfb26ce	0.12263261
35	0x3dee55fe	0.116374955
36	0x3e76d068	0.24102938
37	0xbe90f577	-0.28312275
38	0xbe3fce76	-0.18731102
39	0xbe8032fa	-0.25038892
40	0x3e7058c9	0.23471369
41	0xbe1d665b	-0.15371077
42	0x3de86113	0.113466404
43	0x3e34d01e	0.17657515
44	0x3e3d4858	0.18484628
45	0x3e4412d2	0.19147804
46	0x3e7485b6	0.23879132
47	0xbe2c908c	-0.16852015
48	0xbe316e46	-0.17327222
49	0xbe59e6b2	-0.2127941
50	0x3ddefd13	0.10888114
51	0xbe6a5c6d	-0.2288682
52	0xbc40fb21	-0.011778624
53	0x3e3e684b	0.18594472
54	0x3e462ad5	0.19352277
55	0x3e39ec28	0.18156493
56	0x3e45c712	0.1931422
57	0xbe11e21a	-0.14246407
58	0xbe341ba2	-0.17588666
59	0xbe3d921b	-0.18512766
60	0x3dea3441	0.11435748
61	0xbe2e50dc	-0.17023033
62	0xbdb83f14	-0.08996406
63	0x3e392085	0.18078811
64	0x3dd2dd13	0.10296073
65	0x3e055a53	0.13022737
66	0x3dca6416	0.09882371
67	0xbe958f32	-0.29210812
68	0xbdd996d6	-0.10624473
69	0xbebd076f	-0.36919734
70	0x3e776621	0.24160053
71	0xbe8f1eaa	-0.27953082
72	0x3e95cbfd	0.29257193
73	0x3dd80532	0.10547866
74	0x3dfeab12	0.12434973
75	0x3d6ab002	0.05729676
76	0x3d820e36	0.06350367
77	0xbdca5201	-0.09878922
78	0xbe2e9952	-0.17050675
79	0xbd711c30	-0.058864772
80	0x3d621424	0.05519499
81	0xbf016624	-0.5054648
82	0xbe3e2172	-0.18567446
83	0x3e0b68e7	0.13614236
84	0x3da052b0	0.078282714
85	0x3d412102	0.04715062
86	0x3dd9f95e	0.10643266
87	0xbeb5769d	-0.35442057
88	0xbe0a5bf4	-0.1351164
89	0xbe813e3f	-0.25242803
90	0x3dd54e30	0.10415304
91	0xbdfa7e4d	-0.12231121
92	0x3d20a2a7	0.039217617
93	0x3d5528f8	0.052041024
94	0x3e35f8d9	0.17770709
95	0x3e41a42f	0.18910287
96	0x3e412291	0.18860842
97	0xbe75ef33	-0.24017029
98	0xbdbf9453	-0.093544625
99	0xbe8a997e	-0.2707023
100	0x3dc04e08	0.09389883
101	0xbeaf80f8	-0.34278083
102	0x3d342716	0.043982588
103	0x3d859a35	0.06523553
104	0x3e3c5e60	0.18395376
105	0x3d52ec5d	0.051494945
106	0x3dc734f9	0.097269006
107	0xbd964618	-0.07337588
108	0xbe514d71	-0.20439698
109	0xbda6e7b8	-0.081496656
110	0x3d9a145b	0.07523414
111	0xbeb193ae	-0.34682983
112	0xbe248774	-0.16067296
113	0x3dbd5abd	0.092458226
114	0x3e1a8c53	0.15092592
115	0xbcdfe404	-0.027330406
116	0x3e14fbb9	0.1454915
117	0xbeee2dac	-0.4651922
118	0xbe0afa59	-0.13572063
119	0xbee5362e	-0.44767898
120	0x3e79e5e2	0.244041
121	0xbe3eb196	-0.18622431
122	0x3dfffa0c	0.124988645
123	0x3e5eb70c	0.21749514
124	0x3e35b221	0.17743732
125	0xbd95f39d	-0.07321856
126	0x3da5db72	0.080984965
127	0xbe161b1c	-0.14658779
128	0xbd6c03c1	-0.057620768
129	0xbe1fd7bd	-0.15609641
130	0xbda58eec	-0.08083901
131	0x3efa244b	0.48855814
132	0x3deed768	0.11662179
133	0xbe534291	-0.20630862
134	0xbe26ac54	-0.16276675
135	0xbddb4fdb	-0.107085906
136	0xbe35546a	-0.17707983
137	0x3e86e1e1	0.26344207
138	0x3e1f6b54	0.15568286
139	0x3e6c4366	0.23072585
140	0xbbd02a42	-0.006352694
141	0x3ee80cdd	0.45322314
142	0x3cedabe9	0.029012637
143	0xbe0932b0	-0.13398242
144	0xbd7a9f93	-0.061187338
145	0xbd7dc144	-0.06195189
146	0xbd0ed452	-0.034870453
147	0x3ec62c40	0.38705635
148	0x3c04278f	0.008066072
149	0x3ec86893	0.39142284
150	0x3e066aff	0.13126753
151	0xbe39102c	-0.18072575
152	0xbc7f5a59	-0.015585505
153	0x3de4523f	0.111485
154	0x3e59e306	0.21278009
155	0x3e4750ca	0.19464412
156	0x3e6b06e5	0.22951849
157	0xbe558c06	-0.20854196
158	0xbe2d087a	-0.16897765
159	0xbe7d7d84	-0.24754912
160	0x3e75e227	0.24012052
161	0xbe912f84	-0.28356564
162	0x3e0735ad	0.1320407
163	0x3e3d0cd1	0.1846192
164	0x3e9b0648	0.3027823
165	0x3eb7dc89	0.35910442
166	0x3e6ac50f	0.22926734
167	0xbde9e03f	-0.11419725
168	0xbeaa7bfd	-0.3329772
169	0xbe8343a9	-0.25637558
170	0x3ec25d99	0.37962034
171	0xbe9c9848	-0.3058493
172	0x3e91f667	0.28508303
173	0x3eb6cbd5	0.35702386
174	0x3ec83ec3	0.39110383
175	0x3ecd560e	0.40104717
176	0x3e9caebd	0.30602065
177	0xbe316fe4	-0.17327839
178	0xbec870fc	-0.391487
179	0xbe2982c5	-0.16553791
180	0x3e44e153	0.1922658
181	0xbe9e1518	-0.30875468
182	0x3c38060a	0.011231909
183	0x3df598e9	0.11992056
184	0x3e89b0bd	0.26892653
185	0x3e837820	0.25677586
186	0x3e8ad0e0	0.27112484
187	0xbec6948a	-0.387852
188	0xbe824112	-0.2544027
189	0xbea7c1fb	-0.32765183
190	0x3e4e6f56	0.20159659
191	0xbe886848	-0.2664206
192	0x3d184a4c	0.03718023
193	0x3e750520	0.23927736
194	0x3e53fd47	0.20702086
195	0x3e803d9a	0.25046998
196	0x3eaead06	0.3411638
197	0xbe170daf	-0.14751314
198	0xbe59a47f	-0.21254157
199	0xbe23cc8a	-0.15995994

encoder.lstm.weight_hh_l1_reverse f4 [20, 5]
0	0x3d975668	0.073895276
1	0x3e438415	0.19093354
2	0x3e0d2e4d	0.13787194
3	0xbe40c586	-0.18825349
4	0xbe5a6ea6	-0.21331272
5	0x3e502714	0.20327407
6	0x3dff713c	0.124727696
7	0x3e6575c5	0.22408207
8	0xbe1f86a3	-0.15578704
9	0xbdbab7d8	-0.09117097
10	0x3e65ff21	0.22460605
11	0x3dee8de2	0.11648156
12	0x3e8a29bf	0.26984975
13	0xbdeeb0ee	-0.116548404
14	0xbdc29d8f	-0.09502708
15	0x3dd2c2a1	0.10291029
16	0x3e32fc35	0.17479022
17	0x3e0faa52	0.14029816
18	0xbdfb652e	-0.12275158
19	0xbe85a348	-0.26101136
20	0x3e5bf1ca	0.21478954
21	0x3e127ea4	0.14306122
22	0x3e4c96b3	0.19979362
23	0xbe13c613	-0.14431028
24	0xbdbdf431	-0.092750914
25	0x3e1b6e1f	0.15178727
26	0x3e4c4ddb	0.19951575
27	0x3e08611e	0.13318297
28	0xbe3888f5	-0.18020995
29	0xbe3def2d	-0.1854827
30	0x3e1034fb	0.1408271
31	0x3e18ecd4	0.14934093
32	0x3e83cef1	0.2574382
33	0xbe49ec69	-0.1971909
34	0xbe303de6	-0.17211112
35	0x3df6917c	0.12039468
36	0xbc8e34fd	-0.017359251
37	0x3e77a669	0.24184574
38	0xbde3366e	-0.11094366
39	0xbdd62ad8	-0.104573905
40	0x3e1e768e	0.15474913
41	0x3e8b659f	0.27225968
42	0x3e29dd60	0.16588354
43	0xbe1841ce	-0.14868852
44	0xbe98eba2	-0.29867274
45	0x3e70501b	0.23468058
46	0x3e4c75b5	0.19966777
47	0x3e8d474a	0.27593452
48	0xbdf5f341	-0.120092876
49	0xbe3977fb	-0.18112175
50	0x3dce8f91	0.10085977
51	0x3dfc3e28	0.12316543
52	0x3d2372c3	0.039904367
53	0xbde92284	-0.113835365
54	0xbdcb2f3d	-0.09921119
55	0x3d9e88ef	0.07740962
56	0x3c44859d	0.0119947465
57	0x3dcf6263	0.10126188
58	0xbddb17e5	-0.10697917
59	0xbddb005b	-0.10693427
60	0xbdb1785b	-0.08665534
61	0xbe1c2609	-0.15248884
62	0x3ddf1e4b	0.1089445
63	0x3dce7258	0.10080403
64	0x3e351447	0.17683516
65	0xbd845459	-0.064614005
66	0xbe07a806	-0.1324769
67	0xbd2aee7d	-0.041731346
68	0x3d180bc8	0.03712061
69	0x3e26f354	0.1630376
70	0xbde874ce	-0.11350404
71	0xbe17c1de	-0.14820048
72	0xbe42fd0b	-0.1904184
73	0x3cd7cee4	0.02634377
74	0x3d5c3339	0.053759787
75	0x3e6db4ba	0.23213473
76	0x3e9f4f14	0.3111502
77	0x3e0c3fb5	0.13696177
78	0xbe8300f0	-0.25586653
79	0xbe6f45d3	-0.2336648
80	0x3e85d53c	0.26139247
81	0x3ebdd065	0.37073055
82	0x3e92069d	0.2852067
83	0xbe90cae4	-0.28279793
84	0xbeaefc7f	-0.34177014
85	0x3eccf91c	0.40033805
86	0x3ebf7ccb	0.37399897
87	0x3ecdd2c9	0.4019988
88	0xbea2d99b	-0.31806645
89	0xbeb8a980	-0.36066818
90	0x3e8af397	0.2713897
91	0x3e935416	0.2877509
92	0x3e405340	0.18781757
93	0xbe44ba59	-0.19211711
94	0xbea74a64	-0.32673943
95	0x3e9aa6f3	0.30205497
96	0x3e9e3e56	0.30906934
97	0x3eb39efb	0.3508223
98	0xbe78abc1	-0.24284269
99	0xbead446d	-0.33841267

encoder.lstm.bias_ih_l1_reverse f4 [20]
0	0x3e4ef9c2	0.20212463
1	0x3e632775	0.2218302
2	0x3e757b9f	0.23972939
3	0x3e61ff76	0.22070107
4	0x3e54d90f	0.20785926
5	0x3ddf48c6	0.10902552
6	0x3e195907	0.14975367
7	0x3dac6f54	0.08419672
8	0x3e3333ea	0.17500272
9	0x3e16f38a	0.1474134
10	0x3e3d9933	0.18515472
11	0x3e0f284c	0.13980216
12	0xbd3acf4b	-0.045607846
13	0xbdfba9be	-0.12288235
14	0xbdd6f1ca	-0.10495336
15	0x3e06d57b	0.13167374
16	0x3e6309b0	0.22171664
17	0x3eb6162a	0.35563785
18	0x3e5ed534	0.21761018
19	0x3e8315e0	0.25602627

encoder.lstm.bias_hh_l1_reverse f4 [20]
0	0x3d995012	0.07485975
1	0x3e3a66bd	0.18203254
2	0x3e8801df	0.26563928
3	0x3e67c08e	0.22632048
4	0x3e31e712	0.17373303
5	0x3e118667	0.14211427
6	0x3e1a08b8	0.15042388
7	0x3dadfa4a	0.084950045
8	0x3e3fe4cb	0.18739621
9	0x3e18cd6c	0.14922112
10	0x3e4e6ab1	0.20157887
11	0x3c05fcdd	0.008177963
12	0x3d9efbf4	0.077629
13	0xbdb51c44	-0.08843282
14	0xbda05993	-0.07829585
15	0x3e2ee9c9	0.1708137
16	0x3e5fc5ff	0.21852873
17	0x3ec2eac7	0.38069746
18	0x3e72bfab	0.23705928
19	0x3e2eb8a8	0.17062628

encoder.lstm.weight_ih_l2 f4 [20, 10]
0	0x3e2c339b	0.16816561
1	0x3e065068	0.1311661
2	0xbe240a5d	-0.16019578
3	0xbe1d57e2	-0.15365556
4	0xbe865e4e	-0.26243824
5	0x3e869612	0.2628637
6	0x3e004f59	0.12530269
7	0x3e44f749	0.19234957
8	0xbe4c0b0a	-0.19926086
9	0xbe0200f2	-0.12695673
10	0x3dfcb7ad	0.12339721
11	0x3e0ac2aa	0.13550821
12	0xbcb0cf85	-0.021583328
13	0xbe0c70cf	-0.13714908
14	0xbcf63fe4	-0.030059762
15	0x3d75acf1	0.059979383
16	0xbd085186	-0.03328087
17	0xbca71ed6	-0.020400446
18	0xbe09db04	-0.13462454
19	0x3cf858f2	0.03031585
20	0x3e858987	0.26081488
21	0x3e22d021	0.15899707
22	0xbe6e368a	-0.23262993
23	0xbe4603ad	-0.1933734
24	0xbe569c10	-0.2095797
25	0x3e7d87b5	0.247588
26	0x3e1031f2	0.14081553
27	0x3e8483fa	0.2588194
28	0xbe94a161	-0.29029372
29	0xbe2dc53d	-0.16969772
30	0x3e08aa1e	0.13346145
31	0x3db3fb33	0.08788147
32	0xbdbd65ab	-0.09247907
33	0xbd9511e3	-0.07278802
34	0xbdc005d7	-0.09376114
35	0x3e1560be	0.14587685
36	0x3df0e166	0.11761741
37	0x3d918dd5	0.071071304
38	0xbd81bac2	-0.06334449
39	0x3cb7f81a	0.022457171
40	0x3e56238e	0.20912
41	0x3e8c052c	0.27347696
42	0xbe6d3908	-0.23166287
43	0xbe2a9a6f	-0.16660474
44	0xbe87263d	-0.2639636
45	0x3e7bd337	0.24592291
46	0x3e4f4e4f	0.20244716
47	0xba166142	-0.00057365384
48	0xbe0b979c	-0.13632053
49	0xbe122aa0	-0.14274073
50	0x3dad3860	0.08458018
51	0x3e42669a	0.18984452
52	0xbd2ce628	-0.04221168
53	0xbe480f3b	-0.1953706
54	0xbe0f30e4	-0.13983494
55	0x3e4a54f1	0.19758965
56	0x3d28d48d	0.04121833
57	0x3e174e34	0.14775926
58	0xbd6ffa0a	-0.058588065
59	0xbd937672	-0.07200326
60	0x3e47f4e9	0.1952702
61	0x3e89cb28	0.26912808
62	0xbe331e43	-0.17492013
63	0xbe2a3f3d	-0.16625686
64	0xbe0e7397	-0.13911282
65	0x3e84d1ac	0.25941217
66	0x3e4ac83f	0.1980295
67	0x3e32591f	0.1741681
68	0xbe229d43	-0.15880303
69	0xbe7c46e4	-0.24636418
70	0x3e3dfef8	0.18554294
71	0x3dc01fb7	0.09381049
72	0xbcb763eb	-0.022386512
73	0xbded16bc	-0.11576602
74	0xbdbfef1a	-0.09371777
75	0x3d023d0a	0.031796493
76	0x3bbcfcc4	0.0057674367
77	0x3de58849	0.11207635
78	0xbc95cccd	-0.018286133
79	0xbe0f82e4	-0.14014775
80	0x3e1e4a52	0.15458038
81	0x3e42c935	0.19022067
82	0xbe07f6c6	-0.1327773
83	0xbdde5c78	-0.10857481
84	0xbe4bda51	-0.199075
85	0x3e85cd17	0.26133034
86	0x3e307ded	0.17235537
87	0x3e69fe08	0.22850811
88	0xbe9691cc	-0.2940811
89	0xbe04228e	-0.12903807
90	0x3ee6e31b	0.45095143
91	0x3f062380	0.5239792
92	0xbefd31f7	-0.49452183
93	0xbecf1ba3	-0.40450773
94	0xbf0d2a8e	-0.5514306
95	0x3edf4c78	0.4361303
96	0x3ee2c9fd	0.4429473
97	0x3eb6989b	0.35663304
98	0xbeef129b	-0.46693882
99	0xbecbfdf6	-0.39842194
100	0xbe7d53d0	-0.24739003
101	0xbe818e47	-0.25303861
102	0x3e0e86d3	0.13918619
103	0x3e2ed0b3	0.170718
104	0x3e2a77bf	0.16647242
105	0xbe66a02a	-0.22522035
106	0xbe0505af	-0.1299045
107	0xbe756bd5	-0.23966916
108	0x3e08aae8	0.13346446
109	0x3e1261aa	0.14295068
110	0xbe00e5a7	-0.12587605
111	0x3be6eb57	0.0070470977
112	0x3b014810	0.001972679
113	0x3e078ab6	0.13236508
114	0x3daa3197	0.0831024
115	0xbe11d154	-0.14240009
116	0xbc67a7fb	-0.014139171
117	0x3b6f3967	0.003650272
118	0x3daed8a6	0.08537416
119	0x3d08d461	0.033405665
120	0xbe3d92dd	-0.18513055
121	0xbe91394e	-0.28364033
122	0x3db888ef	0.09010493
123	0x3e595dc4	0.21227175
124	0x3e157bab	0.14597957
125	0xbe870154	-0.263682
126	0xbe043bfd	-0.12913509
127	0xbe572cb9	-0.21013154
128	0x3e2618e4	0.16220433
129	0x3e1e9b4d	0.1548893
130	0x3da1b398	0.07895583
131	0x3d6be7f9	0.057594273
132	0x3b589034	0.0033044936
133	0xbe1547cd	-0.14578171
134	0xbdb69f58	-0.08917111
135	0x3d22e74e	0.03977137
136	0x3e0dae82	0.138361
137	0xb98124a8	-0.00024632108
138	0xbe18caec	-0.14921159
139	0xbdfa127b	-0.12210556
140	0x3dde2615	0.10847107
141	0x3d418c98	0.04725322
142	0xbdcd8427	-0.10034972
143	0xbc34f575	-0.01104485
144	0xbd011955	-0.0315183
145	0x3dd9e9aa	0.10640271
146	0xbd072c84	-0.033001438
147	0xbdadb164	-0.084811
148	0x3d25f4db	0.040516715
149	0x3d770e05	0.060316104
150	0x3e61fa14	0.22068053
151	0x3e851b9f	0.25997636
152	0xbe2888bb	-0.16458409
153	0xbe72e866	-0.23721465
154	0xbe7fa9b7	-0.24967085
155	0x3e430924	0.19046456
156	0x3e278ea4	0.16363007
157	0x3e255165	0.16144331
158	0xbe8f10a6	-0.2794239
159	0xbe227dd4	-0.15868312
160	0x3e8e19ce	0.27754062
161	0x3e9a26b6	0.3010766
162	0xbe8e55a9	-0.2779973
163	0xbeadefc2	-0.33971983
164	0xbe9ccf1f	-0.3062677
165	0x3e3de5f3	0.1854475
166	0x3e88937d	0.26675025
167	0x3e100ff9	0.14068593
168	0xbe7bf538	-0.24605262
169	0xbe088859	-0.13333263
170	0x3e0765cf	0.1322243
171	0x3de12338	0.109930456
172	0xbe129c7d	-0.14317508
173	0xbe1b23d5	-0.15150388
174	0xbe038340	-0.12843037
175	0x3e66213c	0.22473615
176	0x3da449f3	0.08021917
177	0x3e3018ce	0.17196962
178	0xbe60034a	-0.21876255
179	0xbe20c0f1	-0.15698601
180	0x3ea4058b	0.3203548
181	0x3e8eca2f	0.2788863
182	0xbea242ea	-0.31691676
183	0xbe5b0ce9	-0.21391644
184	0xbe84c455	-0.2593104
185	0x3e96762e	0.2938704
186	0x3e3b18af	0.18271135
187	0x3e86ae10	0.26304674
188	0xbe82d88c	-0.25555837
189	0xbdf67c26	-0.12035398
190	0x3eb644ad	0.3559927
191	0x3e54c61d	0.20778699
192	0xbe9a619a	-0.3015259
193	0xbe895964	-0.26826012
194	0xbea220cd	-0.3166565
195	0x3e5b0dad	0.21391936
196	0x3e69143f	0.2276163
197	0x3ded5f79	0.115904756
198	0xbe9868cb	-0.2976745
199	0xbe4bb38e	-0.19892713

encoder.lstm.weight_hh_l2 f4 [20, 5]
0	0xbe40eec1	-0.18841077
1	0xbe5fd911	-0.21860148
2	0xbe87e104	-0.2653886
3	0x3e5f3b79	0.21800031
4	0x3de58d4f	0.11208593
5	0xbe2ebc90	-0.17064118
6	0xbdee22bb	-0.11627718
7	0xbe5bf4a1	-0.21480037
8	0x3e132fd4	0.14373714
9	0x3e714789	0.23562445
10	0xbe22de89	-0.15905203
11	0xbe7103b8	-0.23536575
12	0xbe213586	-0.15743074
13	0x3e017049	0.1264049
14	0x3e4ebf0f	0.2019007
15	0xbe58134b	-0.2110111
16	0xbe1620d2	-0.14660957
17	0xbe49705d	-0.1967177
18	0x3e4d8168	0.20068896
19	0x3e7755a4	0.24153763
20	0xbeb8e883	-0.36114892
21	0xbee5b8f3	-0.44867668
22	0xbed0add4	-0.4075762
23	0x3ee1e513	0.44120082
24	0x3ecd601e	0.40112394
25	0xbdc2635d	-0.09491608
26	0xbd92d203	-0.07168963
27	0xbe256f16	-0.16155657
28	0x3d8df645	0.06931738
29	0x3e1551e8	0.14582026
30	0xbe784452	-0.24244812
31	0xbe95b54d	-0.29239884
32	0xbe5d70c8	-0.21625054
33	0x3e60be7c	0.21947664
34	0x3e499ed8	0.196895
35	0xbd333e16	-0.04376038
36	0xbd33ac22	-0.04386533
37	0xbcefbfae	-0.029266205
38	0x3dc70370	0.097174525
39	0x3e052a49	0.13004412
40	0xbe38c6b0	-0.18044543
41	0xbe8f46e2	-0.27983767
42	0xbe94b422	-0.2904368
43	0x3e56b247	0.20966445
44	0x3e6a6c5d	0.228929
45	0xbf115e58	-0.5678458
46	0xbf13f281	-0.57791907
47	0xbf003b23	-0.50090235
48	0x3f136152	0.57570374
49	0x3f0caafc	0.549484
50	0x3dc73492	0.09726824
51	0x3e584930	0.21121669
52	0x3e36f009	0.17865004
53	0xbe443058	-0.19159067
54	0xbdbe3a10	-0.09288418
55	0x3e7634d1	0.24043585
56	0x3e14d317	0.1453365
57	0x3e326a79	0.17423429
58	0xbe46c289	-0.19410147
59	0xbe20c993	-0.15701894
60	0x3e73c74b	0.23806493
61	0x3e39efdb	0.18157904
62	0x3e10b0a3	0.14129882
63	0xbdbb7a87	-0.091542296
64	0xbdf1087c	-0.117691964
65	0xbe45b9bd	-0.19309135
66	0xbe3352c3	-0.1751204
67	0xbe385f88	-0.18005192
68	0x3e2f1405	0.1709748
69	0x3e868eef	0.26280925
70	0xbe816378	-0.252712
71	0xbec9534a	-0.39321357
72	0xbeb5a839	-0.35479906
73	0x3eb455af	0.3522162
74	0x3eb519f2	0.35371357
75	0xbe7e5231	-0.24836041
76	0xbe73e561	-0.2381797
77	0xbe99fb66	-0.30074614
78	0x3ea76ae7	0.32698748
79	0x3e9180e7	0.28418657
80	0xbeca0bea	-0.39462215
81	0xbec8868e	-0.39165157
82	0xbecb6515	-0.39725557
83	0x3ef85af2	0.48506886
84	0x3ec1e437	0.37869427
85	0xbe922d34	-0.28550112
86	0xbe4f7f9c	-0.20263523
87	0xbe8d7ef0	-0.27635908
88	0x3e95c14a	0.2924903
89	0x3e825c21	0.25460914
90	0xbed76ceb	-0.42075285
91	0xbeb65893	-0.35614452
92	0xbed2996e	-0.41132683
93	0x3ed51813	0.4161993
94	0x3eb5c8e1	0.3550482
95	0xbeafd1ad	-0.34339657
96	0xbea2ec89	-0.31821087
97	0xbebfe372	-0.37478215
98	0x3eb7f101	0.3592606
99	0x3ec581b1	0.3857551

encoder.lstm.bias_ih_l2 f4 [20]
0	0x3e1ff7a4	0.15621811
1	0x3e07da19	0.13266791
2	0x3e991581	0.2989922
3	0x3cbda917	0.023151917
4	0x3e82ed7c	0.2557181
5	0x3dedd93c	0.116137
6	0x3e86bb2e	0.26314682
7	0x3dce0634	0.10059777
8	0x3e644b45	0.22294338
9	0x3effb372	0.49941593
10	0xbe51b806	-0.20480356
11	0xbcd6616e	-0.026169505
12	0xbe8713a6	-0.26382178
13	0x3db8b80c	0.09019479
14	0x3d6eff12	0.058348723
15	0x3e891fe6	0.2678215
16	0x3ea0ee21	0.31431678
17	0x3d9ef6ef	0.077619426
18	0x3e829cd2	0.2551027
19	0x3e933bc0	0.28756523

encoder.lstm.bias_hh_l2 f4 [20]
0	0x3e64f28e	0.22358152
1	0x3dad2b2a	0.084554985
2	0x3e6af3a6	0.22944507
3	0x3ded4907	0.115861945
4	0x3e8c7a45	0.27437034
5	0x3e34ad9e	0.17644355
6	0x3e87181d	0.26385584
7	0x3e3dd385	0.1853772
8	0x3e225292	0.1585181
9	0x3f109281	0.5647355
10	0xbe8180b6	-0.2529351
11	0xbe1562c1	-0.14588453
12	0xbe4fbd38	-0.20287025
13	0x3d9d3f89	0.07678134
14	0x3dbf9dd6	0.09356277
15	0x3e74f9ab	0.23923366
16	0x3e8ef698	0.2792251
17	0x3dbf8440	0.093513966
18	0x3e52a4cd	0.20570679
19	0x3e98b68e	0.29826778
