models/last-training1.pt (torch, 48199 bytes, 24 tensors)

encoder.embed.weight f4 [8, 8]
000000 f5 e4 87 bd 6b 2c 46 3d b9 47 d8 bc 2c 44 73 3d
       -0.06635467 0.048382204 -0.026401388 0.059391186
000010 ec fd f3 3c f1 99 bf 3c 9e af a0 bd 32 54 38 3d
       0.029784165 0.023388835 -0.07845996 0.04500217
000020 1b ce c0 3d 7d 01 e2 bd 05 f7 17 be 26 df a1 3d
       0.094143115 -0.1103544 -0.14840324 0.0790389
000030 ec 5e a4 bd ed 3e 1b 3e f4 54 cf 3c f2 f1 55 3d
       -0.080259174 0.15160723 0.025309063 0.05223269
000040 41 8f 03 bd 9c 19 04 bc d7 99 4a 3e c0 14 81 bd
       -0.03211904 -0.008062746 0.19785248 -0.06302786
000050 3c a9 7c bd 6c bf 9b 3d 0c 5e 82 bc 08 89 72 bc
       -0.061684832 0.0760487 -0.015913986 -0.014803179
000060 e4 9d a6 3d a0 94 18 bd 32 f0 62 be 55 f6 41 3d
       0.08135584 -0.037251115 -0.2216194 0.04735406
000070 bf 79 60 be 6f a9 31 3d 1b 86 56 3e 30 28 1c 3e
       -0.21921442 0.043374475 0.20949595 0.15249705
000080 1d e2 b7 3d 77 ee 51 bd 51 85 82 3e 11 9a 6f be
       0.089786746 -0.05125281 0.25492337 -0.23398615
000090 a3 bd 1a 3d 87 e9 5f 3e d0 75 4b 3e 79 e0 51 3e
       0.037778508 0.21866427 0.1986916 0.20495786
0000a0 7b c3 4c bc 9b 70 29 3e 54 f0 07 3d 03 ca 83 bd
       -0.012497778 0.16546862 0.03318818 -0.06435015
0000b0 24 41 56 3d e9 ff df bd 5d 11 82 bd a2 ae 12 be
       0.052308217 -0.10937483 -0.06350968 -0.1432443
0000c0 b4 b8 59 3e 1e e2 cf be 1a de b2 3e c2 6f 3e 3e
       0.21261865 -0.406022 0.34935075 0.1859732
0000d0 ae ea a5 be f9 c4 b1 3e 39 11 b8 3e 97 c6 8c 3e
       -0.3240561 0.3472059 0.3595064 0.27495262
0000e0 2f 3f a1 3d 37 87 4c 3d f6 8d ef 3a 93 db 6d 3d
       0.078733794 0.04993364 0.0018276561 0.05807073
0000f0 70 1c 92 bd 33 2a f9 3d c4 2f 8b 3b 0b 52 1f 3d
       -0.0713433 0.12166252 0.0042476375 0.0388966

encoder.fc_one.weight f4 [200, 8]
000000 a2 08 28 3e bd 84 61 bd c5 fe 1b bd 2b 37 4c bd
       0.16409543 -0.05505823 -0.038084764 -0.0498573
000010 e0 b6 16 3d 82 64 81 3d c3 a7 15 3e 9f b1 99 3e
       0.036795497 0.063179985 0.14614777 0.30018327
000020 97 1a 98 3b df 09 3f be 56 74 99 3a f4 fe f8 3d
       0.0046418416 -0.1865611 0.0011707644 0.121580034
000030 32 0c 1f be 2c 40 c9 3d 66 aa 96 bd c2 d4 66 3d
       -0.15531996 0.09826693 -0.0735672 0.056355245
000040 9c d4 4d bd 26 a7 a8 3d 17 6a f0 bd b9 4b bc 3c
       -0.05025159 0.08235006 -0.11738985 0.022985326
000050 95 14 f6 ba 67 67 1e bd a8 86 cb bc 85 f1 da 3b
       -0.0018774444 -0.03867283 -0.024844483 0.0066816234
000060 74 44 e4 3d e1 8e 8c 3d 48 f9 ad 3c 93 d0 0e 3d
       0.11145869 0.068631895 0.02123703 0.03486688
000070 c9 43 48 be 0f 4e eb 3d a4 37 97 3d 4e 18 5e 3e
       -0.19557108 0.11489498 0.073836595 0.21688959
000080 ca 10 8b bc 9e 25 e5 bd b3 92 1c 3e 01 b8 16 be
       -0.01697578 -0.111888155 0.15290336 -0.1471863
000090 a6 57 d9 bd 92 2b df 3d 00 bb 45 3e 55 e8 9d 3d
       -0.10612421 0.10896982 0.19309616 0.077103294
0000a0 43 1b 87 3d 1e ec 6c 3d 4c 2a 4e 3d 41 b8 a4 3d
       0.06596997 0.057842366 0.050333306 0.08042956
0000b0 be a6 dd bd 59 08 88 3d 87 96 ae 3d 79 19 37 3d
       -0.10822819 0.06642217 0.085248046 0.044702027
0000c0 fe 37 0a 3c bf b9 bf bd 40 5a bc 3d ee 11 5b bd
       0.008436201 -0.093616 0.09196901 -0.053483896
0000d0 86 e9 2d 3e fb 27 14 3d b0 27 b0 3d 15 2c 44 3e
       0.16983613 0.03617094 0.0860132 0.19157441
0000e0 f7 17 8c 3d e1 c4 0c bd a3 9b 61 3d 90 de 83 bb
       0.068405084 -0.034367446 0.055080067 -0.0040243343
0000f0 48 3c 87 3d a4 c5 d1 3c 94 b9 97 bd c2 01 59 3d
       0.066032946 0.025606938 -0.07408443 0.052980192
000100 3f 96 ca bd e2 8d 9a bd d6 00 97 3e 2b 4a 95 bc
       -0.098919384 -0.07546593 0.29492825 -0.018223843
000110 98 18 9f bd ef 5d 38 3e e3 93 df 3d c7 db b8 3d
       -0.07768363 0.18004583 0.10916879 0.09026294
000120 40 91 de bc ff 7a 88 3d ed 35 0c 3e a0 2e 38 be
       -0.02716887 0.06664085 0.13692446 -0.17986536
000130 be 75 1d 3e 5a d3 8e be d8 00 60 bd 77 c6 54 bd
       0.15376946 -0.27895623 -0.054688305 -0.051947083
000140 c8 b2 d8 3b 2f 98 44 3d 1f 1c fc bc 6c 34 32 3d
       0.0066131093 0.047996696 -0.030775128 0.043507025
000150 c4 a5 8e 3c f7 a0 99 bc 54 c0 95 bc f0 93 a4 3c
       0.017413028 -0.018753512 -0.018280186 0.020090073
000160 76 63 2e bd 00 54 4a bb c2 76 62 3d fb 7b 21 bd
       -0.042575322 -0.0030872822 0.055289038 -0.039424878
000170 bd da 41 3d 13 3e 03 3d 0e f4 74 bc 9e ed cc 3b
       0.047327746 0.03204162 -0.014950765 0.006253912
000180 3e 0b 5d 3d 17 25 03 3d 29 26 9f bb 85 b8 57 3c
       0.0539658 0.032017794 -0.004856844 0.0131665515
000190 a0 51 4e 3d 5e 77 91 bc 33 ed 98 3c cc 36 94 bc
       0.050370812 -0.017757114 0.018667793 -0.018092535
0001a0 c9 3d 38 3d 67 73 9d 3d 17 c4 c4 bc bb 90 96 3c
       0.044980798 0.07688027 -0.024019284 0.01837956
0001b0 c6 4a 9d 3d f1 e2 3a 3b ca de 81 3b 0a 37 63 bd
       0.076802775 0.0028516615 0.003963326 -0.05547241
0001c0 09 b8 c1 3b 03 44 57 3d b3 7f 6d 3c de 73 67 3d
       0.0059118313 0.052555095 0.014495778 0.056506984
0001d0 52 13 0d 3c dd 2e b9 3b a2 1e 99 bb 31 90 33 bc
       0.008610563 0.0056513385 -0.004672841 -0.010959671
0001e0 36 45 15 bd 61 d9 1c bc ac 1a 85 bd 9a ce 25 3e
       -0.036442958 -0.009573312 -0.06499228 0.16192093
0001f0 92 c6 fe bd d8 1a 79 3d 3f cf 42 3d b2 d5 ee 3d
       -0.12440218 0.060816616 0.047560927 0.11661853
000200 44 c7 a0 3b 08 a4 0e 3d ea 29 b8 3c 5d de 12 bd
       0.004906567 0.0348244 0.022480924 -0.035856593
000210 69 17 80 bd 60 2a a0 bd a9 fa 64 bd e6 10 52 3d
       -0.06254465 -0.078205824 -0.05590311 0.051285647
000220 fb e3 bb bd 44 a6 cc bd 33 6f 17 3e 4f 5d 09 be
       -0.09174343 -0.0999265 0.14788513 -0.134145
000230 0d 50 c5 bc 08 65 80 3e 8d c4 e6 3d 31 3b 88 3d
       -0.024086023 0.2507708 0.11267958 0.06651915
000240 8b 35 c9 3b 12 81 21 bd 1b f8 b9 bc 3f 87 83 bd
       0.006140416 -0.03942973 -0.022701314 -0.064222805
000250 c8 fa 42 bd 93 f6 23 3d 6b 9e 96 3d c0 2c 7c 3d
       -0.047602445 0.040030073 0.073544346 0.061566114
000260 3a 3f ea 3d 8f 2d f2 bc 98 cf 8f 3e 69 2c c7 bc
       0.11437841 -0.02956274 0.2808807 -0.024313169
000270 fa bc f0 bd 46 02 41 3d e5 99 16 3e cf 18 f1 3d
       -0.117547944 0.04712131 0.14707144 0.1177231
000280 77 27 76 bd 4a fa 5f bc 00 c4 0a bc 29 3a 1f bd
       -0.06009623 -0.013670513 -0.008469582 -0.038873825
000290 9d ff 68 3d f3 98 08 3e 89 37 ac 3b ab 47 d3 3b
       0.056884397 0.13339595 0.0052556437 0.0064477525
0002a0 51 60 9f bd a2 2c a8 3b 16 51 24 3a c9 f8 c0 bc
       -0.07782043 0.005132274 0.0006268186 -0.02355613
0002b0 7d cb 89 3d ac fc 1a bd b6 02 60 bc 24 f6 c8 bc
       0.067282654 -0.037838623 -0.013672521 -0.024531431
0002c0 45 ff 06 3d 0c 1e b2 3d 77 fd ed 3b 30 ec b2 bc
       0.032958288 0.08697137 0.0072628814 -0.021841139
0002d0 b3 a4 35 3d fb e6 e2 bd ac bb 79 bd 0e 31 b3 3b
       0.044346523 -0.11079212 -0.060969993 0.0054684943
0002e0 cc 47 a9 3d b9 7d 4a be e6 5a ba 3d 55 0c 25 3e
       0.08265647 -0.19774522 0.09099369 0.16117986
0002f0 4e cc 59 bd 11 ec 7b 3e 5c 06 06 3e 88 6f 27 3e
       -0.053173356 0.24601771 0.13088363 0.1635114
000300 3e 5d a0 3d 92 0d 95 3d 09 fd a8 3d 01 af 34 be
       0.078302845 0.07277979 0.082513876 -0.17644884
000310 a8 56 18 bd 63 1c 1c bd cf d9 58 bd 65 7c 18 3e
       -0.037192017 -0.03811301 -0.052942093 0.14891203
000320 dd e0 24 be 0b e9 4d 3d a3 4b 29 3e 87 be 07 be
       -0.16101404 0.050271075 0.1653276 -0.13256274
000330 8c 1c 44 3e 7a 3a ac 3a 44 46 0b 3e de be 4e 3d
       0.19151515 0.0013139986 0.13601023 0.050474994
000340 af a4 80 3b 1e 90 42 3e ba 8e 9f bd 6b 94 33 3e
       0.003925882 0.19000289 -0.07790895 0.17537086
000350 1f e1 16 be 2e 78 6f bc ad a9 30 3d e3 9f 36 3d
       -0.14734314 -0.014616055 0.043130565 0.044586074
000360 5d ab ce bd 9e c4 a0 bd 94 2f 73 3e 2e 13 7b be
       -0.10091279 -0.07850002 0.23748618 -0.24519035
000370 46 70 67 bd dd ca 60 3e d6 b7 26 3e a9 80 da 3d
       -0.056503557 0.21952386 0.16281065 0.10669071
000380 49 ef 79 3c 17 f6 fa 3d 30 b6 5e 3d a5 ed d2 bb
       0.015254804 0.12253969 0.054372966 -0.006437021
000390 8e 04 de bc bf 81 80 3c 89 65 83 bc 17 f0 99 bc
       -0.027101781 0.015686868 -0.016039627 -0.018791242
0003a0 41 a3 c2 bd b3 43 8c 3d 30 bb 87 3c 02 13 c4 3c
       -0.095037945 0.0684885 0.01656875 0.023934845
0003b0 d1 49 41 3d 7b ac 24 bd 83 cd e5 3a 6c ab 14 bd
       0.047189537 -0.040203553 0.0017532561 -0.036296293
0003c0 60 40 25 3a 08 dd dd bd b0 77 0b be 2c ae 43 3e
       0.0006303843 -0.10833174 -0.13619876 0.1910941
0003d0 77 68 5c bd a8 7a 0e 3e 50 00 89 bc be d7 05 3e
       -0.053810563 0.13913977 -0.016723782 0.1307058
0003e0 41 38 20 3e c6 f8 27 be ca e6 62 be 45 7c 50 3e
       0.15646459 -0.16403493 -0.22158352 0.20359905
0003f0 36 66 44 be b2 e3 3c 3e ed 9e 2a 3e a8 9e 8b 3e
       -0.19179615 0.18446234 0.16662188 0.27269483

encoder.fc_one.bias f4 [200]
000000 4e db 1b 3e cf 55 8a 3d de c5 90 bd a2 44 4e 3e
       0.15220377 0.06754648 -0.0706899 0.20143369
000010 71 2f 81 3e 7a 00 c2 3d 7b 6c 54 3e b4 b3 95 bd
       0.25231507 0.09472747 0.20744507 -0.07309666
000020 a5 53 28 3e a0 f2 94 3c 7b 69 e8 bd 25 e6 76 bd
       0.16438158 0.018182099 -0.11348244 -0.060278077
000030 06 e7 d6 bd 97 e0 06 be 3f 0c 95 bd 10 50 89 3d
       -0.10493283 -0.13171612 -0.072777264 0.06704724
000040 9a 10 82 bd db 1f 0b 3e 4a 44 08 3e 81 6c 56 3e
       -0.06350823 0.1358637 0.133073 0.20939828
000050 51 48 c2 3d 8e cd c9 bd 6d 88 89 bd 9d 4c 1c 3e
       0.094864495 -0.098536596 -0.06715474 0.152636
000060 fd cd ed 3d a8 89 78 3d 95 3c 8d 3d cf 07 50 3e
       0.11611555 0.060678154 0.06896321 0.20315479
000070 1e 87 c7 bd b9 86 c6 bd 61 b1 24 3e 37 a0 7f 3e
       -0.097425684 -0.09693665 0.1608329 0.24963461
000080 8c 85 26 3e ea f2 53 3e bd 19 89 bd 8c ee 14 3e
       0.16261882 0.20698133 -0.06694362 0.14544123
000090 56 11 92 3d c5 79 de bd dc a1 a9 3d 32 d7 33 3e
       0.07132213 -0.108630694 0.08282825 0.17562559
0000a0 ef 9e a0 3d f4 0e c4 bd 87 fc 26 3e bc 5c 0a be
       0.07842814 -0.095731646 0.16307269 -0.13511938
0000b0 e5 89 92 bd d7 dd 29 3e 53 b8 70 3e 27 79 dd bd
       -0.071552075 0.16588531 0.23507814 -0.108141236
0000c0 6f 11 89 bd db 72 e9 bd 0a 08 bc bd e5 96 73 3e
       -0.06692778 -0.1139886 -0.09181221 0.2378803
0000d0 e5 39 da bd f0 4e 53 3c d9 6f 98 bd ac 6d 69 3e
       -0.10655574 0.012897238 -0.07443208 0.22795743
0000e0 1b bc cc 3d 59 d2 9c bd be 12 da bd 1e 8a cb 3d
       0.09996816 -0.07657308 -0.10648106 0.09938453
0000f0 12 64 24 3e ad a2 e6 bd 95 44 5e 3e 7e 78 01 3e
       0.16053799 -0.11261497 0.2170585 0.1264362
000100 6f 7d 33 bd bb 2b 7a bd 8f 6a 93 bd fb 48 31 3e
       -0.043820795 -0.06107686 -0.07198059 0.17312996
000110 16 37 8c bd b8 b5 41 3e 7c e3 3c bd 46 9d a5 3e
       -0.06846444 0.18916976 -0.046115384 0.32346553
000120 36 fa dd 3d ac 96 88 bd 42 aa 23 bd 8c 2b 4f 3e
       0.108387396 -0.066693634 -0.039957292 0.20231456
000130 49 bc 4b 3e 1a 1d 1f 3e 7e f7 09 3b 45 c2 c0 bd
       0.19896044 0.15538445 0.0021052058 -0.09412054
000140 d8 6c 96 bd d6 b1 b4 bd c3 95 73 3e c2 09 85 3e
       -0.07344979 -0.08822982 0.23787598 0.25984007
000150 c7 8e 83 bd 3c cb 2f bd cf 4b f5 bb 61 4e 9d 3d
       -0.06423717 -0.04291843 -0.0074858437 0.07680965
000160 b8 e8 ba 3c cf bf e6 3d 2d 12 81 bd e7 b5 72 bd
       0.022816047 0.11267053 -0.06302295 -0.059255507
000170 93 5c 1f 3e 5e 6a c2 3c 3d a0 fc 3d cf d6 e9 bd
       0.15562658 0.02373236 0.123352505 -0.114179246
000180 5f 89 1a 3c f3 36 43 3e f3 74 25 3e 35 ec c0 bd
       0.009432166 0.1906393 0.16157894 -0.09420053
000190 38 25 cc bd 77 22 7a bd e5 8c ac 3d 5f 88 94 bd
       -0.099680364 -0.061068024 0.08425311 -0.07252573
0001a0 35 44 b2 bd 9d af 9e 3e d2 d5 25 3e df 03 74 bd
       -0.08704416 0.30993357 0.16194847 -0.059574004
0001b0 e9 46 b2 bd 3b 78 bd bd 2b 10 a0 3d 10 a7 73 3d
       -0.08704931 -0.09251448 0.07815584 0.059485495
0001c0 dd cb b3 bd 8c 55 00 3e a9 14 89 bd 31 12 46 3e
       -0.08779118 0.12532634 -0.06693394 0.19342877
0001d0 81 cd 75 bd 98 b2 08 be 2d c7 9e 3d 24 eb 9e bd
       -0.060010437 -0.13349378 0.077528335 -0.07759693
0001e0 88 6f 0c 3e 90 53 a1 bd 32 96 58 3e f3 71 8e bd
       0.13714421 -0.078772664 0.21151045 -0.06955328
0001f0 2f 76 55 3e 1c 7e 55 bd 38 97 23 3e db c7 76 3e
       0.20845865 -0.05212222 0.15975654 0.24099676
000200 a4 53 9c bd 85 5f 02 3e d3 1c 83 bd 59 2a 79 3d
       -0.07633141 0.1273175 -0.06401982 0.0608314
000210 6b 85 8e bd 4e b9 43 bd 62 5a bb 3c 84 e1 db 3d
       -0.06959041 -0.047784142 0.022870246 0.10736373
000220 4a a2 34 3e 87 87 7a 3d 8c 5f 4d 3e f7 97 99 bd
       0.17640033 0.061164405 0.2005598 -0.07499688
000230 70 d6 a3 bd fe 41 3d 3e 55 cb b5 bd 6f 2d 24 3e
       -0.07999885 0.18482205 -0.08876673 0.16032957
000240 cb 7f 74 3e cf 29 50 3e 6b 8d 68 3e bb c4 7c 3e
       0.23876874 0.20328449 0.22710197 0.24684422
000250 36 e2 bd 3d ea 72 ca 3d 92 09 7e bd af 60 2c 3e
       0.09271662 0.09885199 -0.062020846 0.16833757
000260 ce e4 8f bd 5b ac 2a 3e 95 f3 a8 bd a5 89 f5 bd
       -0.07026063 0.16667311 -0.082495846 -0.11989144
000270 b0 03 6d bc f5 b6 35 3e be 14 80 bd 73 6c 69 bd
       -0.014466211 0.17745574 -0.06253956 -0.05698819
000280 26 8f 87 bd d1 7c 10 be 3e 5b 78 3e 3f d2 d0 bd
       -0.066191 -0.14110114 0.24253556 -0.10196351
000290 a5 6f 64 3e a5 d6 06 be 30 82 5f 3e 22 1c 32 bd
       0.22308214 -0.13167818 0.21827006 -0.04348386
0002a0 f1 12 62 3e 7f da aa bd 9a 2a 67 3e 88 45 56 bd
       0.22077538 -0.08342456 0.22574845 -0.052312404
0002b0 21 97 91 bd d5 8e c2 3d 36 8d 6d 3e ae 37 72 3e
       -0.07108904 0.09499899 0.23198399 0.23654053
0002c0 2b a0 cb bd 69 1d 99 bd db dd 04 3e 3f e8 a7 3d
       -0.09942659 -0.07476313 0.12975256 0.08198594
0002d0 66 4d 8a bd 57 0b a7 bd 39 ab d2 3d 99 09 2a 3e
       -0.06753044 -0.0815646 0.102865644 0.16605224
0002e0 13 f2 cf bd 41 c9 72 bd b5 4e 82 bd 56 4a 91 bd
       -0.10153594 -0.059273962 -0.063626684 -0.070942566
0002f0 78 e2 03 3e f3 73 41 3e 6c 4e 07 3e 1b ed 63 3e
       0.1287936 0.18891887 0.1321351 0.22258417
000300 3d ef 67 bd a5 8b bd bd 92 38 21 3e 6e 2b d6 bd
       -0.05662464 -0.09255151 0.15744236 -0.10457502
000310 c4 57 92 3e 65 6d e7 3d ab ab f7 3d ea 80 0d 3e
       0.28582585 0.11300162 0.1209329 0.13818708

encoder.lstm.weight_ih_l0 f4 [12, 200]
000000 bc a4 a2 3d 6f 50 dc 3d 3b 5b 1b 3c 54 de 31 3e
       0.07941577 0.10757529 0.0094822 0.17369968
000010 9e 6d 63 3e 9e 8c 5e 3d 8a cc 82 3d 64 e8 13 3d
       0.22209784 0.05433332 0.06386669 0.036110297
000020 e1 cf 17 3e ab 3a 1f 3e bb e9 ea 3d ee 30 a7 3d
       0.14825393 0.15549724 0.11470362 0.081636295
000030 cb 0b 99 bc 3c 70 be 3d 99 d9 95 bc 34 99 3b 3c
       -0.018682381 0.09298751 -0.018292235 0.011450101
000040 87 ed 91 bc 26 76 36 3e f1 67 ed 3d 63 32 59 3e
       -0.017813457 0.17818508 0.11592091 0.21210627
000050 73 db 4c 3e bc 62 20 bd b8 fb 98 3d d6 31 1b 3e
       0.20005588 -0.03915666 0.074698865 0.1515573
000060 f2 ad 92 3d 7e 4f 02 3e 2d ae dc 3c e6 b4 75 3e
       0.07162084 0.12725636 0.026938522 0.23994789
000070 a9 f6 36 3d 2b 4a d5 bd fe 9a f2 3d 13 b9 d8 3d
       0.044668827 -0.10414537 0.11845969 0.10582175
000080 3c 26 61 3d 1a 2a d9 3d 27 12 8c bd 0c af 39 3e
       0.054968104 0.10603733 -0.068394 0.18133181
000090 bd e3 96 3d 6f c4 e4 bd 93 3c 84 3d 50 7b 04 3e
       0.073676564 -0.11170279 0.06456866 0.12937665
0000a0 b0 3c 8f 3d ee 99 ad 3c 2c 66 b0 3d 66 6c a3 3d
       0.06993997 0.021191563 0.08613238 0.0797966
0000b0 da 89 8f bd 06 38 ce 3d 70 a5 e7 3d b1 98 6e 3d
       -0.07008715 0.100692794 0.113108516 0.058251087
0000c0 31 15 1d 3c 89 c4 7a 3d 49 ef 06 bb 7f b3 68 3e
       0.009587572 0.061222587 -0.0020589402 0.22724722
0000d0 f1 98 ed 3d de 50 4f 3d d5 1b da 3c ac 8a 39 3e
       0.11601437 0.05061423 0.0266246 0.18119305
0000e0 00 b4 07 bd 87 bd 24 bd 8c f0 6b 3d e7 ac 9e 3d
       -0.033130646 -0.04021981 0.05760245 0.07747822
0000f0 e8 6f 2f 3e ab 20 db 3b db bf 01 3e ca 5f 18 3e
       0.17132533 0.006687244 0.12670843 0.1488029
000100 8b 42 70 3c bb 89 e2 bd 34 99 2d 3c d2 5d 2c 3d
       0.014664303 -0.11061426 0.0105956085 0.04208166
000110 e1 42 4d bb e2 19 42 3e fb 6a de bd 72 98 44 3e
       -0.003132038 0.18955186 -0.10860249 0.19198778
000120 d6 bd d4 3d ce 79 01 bd 9e 87 54 bc 84 64 25 3e
       0.10387771 -0.031610303 -0.012971787 0.16151625
000130 71 a8 10 3e e5 12 e9 3d 19 34 f9 3d bb 08 92 3d
       0.14126755 0.11380557 0.1216814 0.071305715
000140 33 f1 07 bd b2 e4 ba bd fe 90 86 3e db 0a 5b 3e
       -0.03318901 -0.091256514 0.26282495 0.2139086
000150 7f 88 95 3d 6e c3 fe bc eb 8d d3 3d aa 78 7f 3d
       0.07301425 -0.031099048 0.10329803 0.062370934
000160 81 84 91 3d 8a d5 c1 3d 25 50 17 3d 16 f9 9d bd
       0.07105351 0.094645575 0.036941666 -0.07713525
000170 8d 33 21 3e e1 0c aa 3d 86 2d 3f 3d fc 78 0e bc
       0.15742321 0.08303238 0.046674274 -0.008695837
000180 d6 66 a8 3c 0a e5 d4 3d 83 f4 a1 3d fe 9a cf bd
       0.020556848 0.10395248 0.07907965 -0.10136984
000190 4f 74 ba bc 93 01 59 bd 4d 4e 28 3e 3e 7f 97 bd
       -0.022760538 -0.052980017 0.1643612 -0.073973164
0001a0 6b 2b ed 3d fc 9a 3a 3e 85 9c 17 3e dd 21 89 3c
       0.11580547 0.18223184 0.14805801 0.01673978
0001b0 82 aa 6f bb c6 11 9f bd 78 09 c8 3d ba 72 30 bb
       -0.0036570136 -0.07767062 0.09767431 -0.002692385
0001c0 8a c6 ea bd 66 b3 17 3e 60 af 13 3d 4e 5d 3c 3d
       -0.114636496 0.14814529 0.036055923 0.04598742
0001d0 0c 75 60 3d 50 ea 00 3e 10 a7 35 3e 4f 9b 74 3d
       0.054799125 0.12589383 0.1773951 0.059718426
0001e0 bb b5 8a 3d 0e 2d 6e 3d 46 71 29 3d 62 bd bb bd
       0.067729436 0.058148436 0.04136779 -0.09166981
0001f0 20 09 d2 3d 21 b5 62 3d 40 77 14 3e 98 13 0c 3e
       0.10255647 0.05534852 0.14498615 0.1367935
000200 20 c8 f6 3d c6 7e 2a 3e 8a ae 70 3d f5 9a d4 3d
       0.120498896 0.16649923 0.058760203 0.10381118
000210 34 87 d4 bc a3 a7 8d bd 1c 76 2e 3d 15 72 9e 3d
       -0.025943376 -0.0691674 0.042593107 0.07736603
000220 53 15 84 3d d8 fd 48 3e 72 68 ad 3d 22 fb bb bb
       0.0644938 0.19628084 0.08467187 -0.0057367245
000230 8a 62 a2 3d 5f 92 0a 3e 43 a4 70 bd c2 61 42 3e
       0.07928951 0.13532399 -0.058750402 0.18982604
000240 e2 69 f6 3d 97 bd 58 3e ed b4 55 3e 35 5c 45 3e
       0.12031914 0.21166073 0.20869799 0.19273455
000250 8a 64 1d 3e a3 f1 31 3e b1 ef b9 3d 3f b8 f7 3d
       0.15370384 0.17377333 0.09078921 0.12095689
000260 02 0f a1 bd fc d5 f2 3d d9 fc bf 3c 28 1b 9a 3d
       -0.07864191 0.118572205 0.023435997 0.07524711
000270 65 7c 9a 3d f1 47 c1 3d 6e 97 49 3d 19 eb 08 3d
       0.075432576 0.0943755 0.04921668 0.03342733
000280 5b 55 2a bc a5 e7 d6 bb b1 2d 51 3e 17 66 e3 3d
       -0.010396327 -0.006558376 0.20427586 0.111034565
000290 f2 fe ed 3d a3 7a a3 bd 90 b2 52 3e 7c ab cb 3d
       0.116208926 -0.079823755 0.20575929 0.099448174
0002a0 4d 38 9e 3d 59 8c 0d 3e 3c c9 4b 3e 42 7b ce bd
       0.07725582 0.1382307 0.19900984 -0.10082103
0002b0 8b 2e 8b 3d 09 10 da 3d 55 75 40 3e a2 f7 75 3e
       0.06795987 0.1064759 0.18794759 0.24020246
0002c0 9d 99 c2 3b 0b b1 00 3e b1 3f d4 3d 87 42 49 3d
       0.0059387223 0.12567537 0.10363711 0.04913571
0002d0 68 55 21 3d c3 e4 f5 bc c6 08 72 3c e9 5f 3a 3d
       0.03938809 -0.030016309 0.0147726 0.045501623
0002e0 43 ba 7d 3d 70 05 2b bd c1 99 56 3d f0 e5 62 3d
       0.06194521 -0.041753232 0.052392725 0.055395067
0002f0 5e 19 4f 3d 72 be b2 3d 05 61 66 3d 72 df 3b 3e
       0.0505613 0.08727731 0.05624487 0.18346956
000300 94 88 51 3c c4 c0 64 3e 5b 3d 07 3e 9e b4 8e 3c
       0.01278891 0.22339159 0.13206999 0.01742011
000310 6d da 55 3e f8 eb 57 3e 15 af b5 3d cd 70 ba 3d
       0.20884104 0.21086109 0.08871285 0.09103546
000320 8c d2 17 3d 61 51 97 3d bb 27 b8 bd f9 1b 25 3c
       0.037066028 0.07388569 -0.08991953 0.01007747
000330 e6 94 46 3e 2f 89 fb 3c 01 30 f6 3d a6 ef 18 bd
       0.19392738 0.030705063 0.12020875 -0.03733792
000340 cf 51 a9 3d 9c a3 8f bc a0 6a 13 3c 20 38 cd bc
       0.08267557 -0.01753407 0.008997589 -0.025051177
000350 fe 73 80 bd 8a 9e ed ba 42 35 02 3c 0d 36 76 bd
       -0.06272124 -0.0018128913 0.007947268 -0.06011014
000360 6a af 80 bc 3b 39 5d 3d 3a 4b 74 bc d8 12 97 3d
       -0.015708644 0.054009657 -0.014910514 0.07376641
000370 67 a3 d6 bc a7 72 0e 3d b0 89 57 3d 0e aa 21 3c
       -0.026200963 0.03477731 0.052621543 0.009867204
000380 aa 7e 6b bd af f3 9d bc 3e 12 0e bd d4 78 d1 3d
       -0.057493843 -0.019281236 -0.034685366 0.10228124
000390 d7 e0 a3 3c 0e 4f 5c bd 56 7f 7f 3c c5 ba 8b bd
       0.020004673 -0.05378633 0.015594324 -0.06822733
0003a0 31 f8 46 bd 00 32 0e 3e ae a6 21 3d b7 28 af 3d
       -0.048576538 0.13886261 0.0394656 0.085526876
0003b0 ac bf bb 3c 12 8c c3 bd 20 bc c2 3b 0c 9d 00 bb
       0.022918545 -0.09548201 0.0059428364 -0.0019624857
0003c0 7c 24 8f bb 0c 75 c5 3d b0 96 41 3a ac b7 4b 3d
       -0.004368363 0.096414655 0.000738482 0.04973571
0003d0 57 8b 9c bd 30 20 18 3d 3b b0 28 3d d3 08 54 3c
       -0.076437645 0.03714007 0.04118369 0.012941557
0003e0 64 02 91 bd 30 71 27 3d f2 e8 d4 bc b0 4d 1b bd
       -0.07080534 0.04087943 -0.025989983 -0.037915885
0003f0 6a 7d e4 3c 29 4e 2d bd ba 5d c0 bc 2c 7d ca 3d
       0.027891833 -0.042310867 -0.023482192 0.09887156

encoder.lstm.weight_hh_l0 f4 [12, 3]
000000 a5 68 50 be 37 63 36 3c 50 56 26 be 66 8b ce 3c
       -0.20352419 0.011132053 -0.16243863 0.025212955
000010 a7 74 6a 3c 12 6f fa bb e9 33 34 be e3 7c 51 3e
       0.014310039 -0.007642635 -0.17597927 0.20457797
000020 ab 1f 89 be df c5 64 be 8b fb 00 3e 22 8b 73 be
       -0.26781973 -0.22341107 0.12595956 -0.23783544
000030 62 4e c5 bd a1 e5 b1 3d 7e 43 4a bd 50 25 95 be
       -0.09634091 0.08686376 -0.04938077 -0.2913003
000040 d7 7c 96 3e 5d ee 82 be 8f d7 0d 3e f5 9b 7c bc
       0.2939212 -0.25572482 0.1385176 -0.015418042
000050 ab d4 59 3e 97 33 3f be 61 8f 99 3c 7e 90 77 be
       0.21272533 -0.18672024 0.018745126 -0.24176213
000060 21 8e 22 3e bf 2e 30 be b7 73 56 3e e6 a0 60 be
       0.1587453 -0.17205332 0.20942579 -0.21936378
000070 51 09 ac 3e 1f 95 aa be a9 af 3b be 7b 0c 14 3e
       0.33600858 -0.33316895 -0.18328728 0.14457886
000080 cd 09 32 bd 96 2c 4d be 2e 17 7a 3e 09 e4 b2 be
       -0.043466378 -0.2003654 0.24422905 -0.34939602

encoder.lstm.bias_ih_l0 f4 [12]
000000 ce b5 66 3e 28 e5 97 bb 00 f6 48 3e d4 00 79 3e
       0.2253029 -0.004635472 0.19625092 0.24316722
000010 4d 65 db bb ec fd b2 3e fe 8e 27 be a9 b2 3a 3e
       -0.0066954256 0.34959352 -0.16363141 0.18232216
000020 a8 d2 09 be ea 28 b9 3e 8f 0d fd 3d aa 29 9d 3e
       -0.13459265 0.36164027 0.12356102 0.3069585

encoder.lstm.bias_hh_l0 f4 [12]
000000 b4 ae cd 3d 1e 4e d5 bb e6 e1 8f 3e 02 73 4b 3e
       0.100430876 -0.0065095564 0.28102034 0.19868091
000010 84 a6 e1 3d a9 02 9c 3e 31 2f 47 be 7f 25 75 3e
       0.110180885 0.3047078 -0.19451596 0.23940085
000020 2c 20 80 be cf e8 81 3e 4b 7f d3 3b ea 2c 64 3e
       -0.25024545 0.2537293 0.0064543835 0.22282758

encoder.lstm.weight_ih_l0_reverse f4 [12, 200]
000000 43 92 5f 3e 70 8c 43 3e 1e 5b 98 3d a2 16 6c 3e
       0.21833138 0.19096541 0.07439254 0.23055509
000010 c1 fa 9f 3e a5 fc dc 3d ef 3a 01 3e 82 e9 9e bd
       0.31245998 0.107903756 0.12620138 -0.07759382
000020 e4 79 50 3e 46 ef 3d 3d 5d b5 a9 3d 73 64 94 3d
       0.20358998 0.046370767 0.082865454 0.07245722
000030 a3 7b 66 bd a3 51 67 bd 28 13 16 bc 72 fd c8 3d
       -0.056270253 -0.05647434 -0.009159841 0.09813966
000040 8a a8 69 3c 3d 59 88 3e 16 c2 4d 3e 91 1f 61 3e
       0.014261374 0.26630583 0.20093569 0.21984698
000050 b7 7b 28 3e 06 bf 8a bc bf 93 34 3d dc 4d 61 3e
       0.16453443 -0.01693679 0.044086214 0.22002357
000060 b7 56 93 3d f9 98 0e 3e f6 b3 15 3e 03 a9 77 3e
       0.07194274 0.13925542 0.14619431 0.24185567
000070 b2 e2 a1 3c 7b 93 d0 bd ef c4 72 3e c9 7d 5c 3e
       0.019761417 -0.1018438 0.23707937 0.21532358
000080 ad 4d 12 3e 1f 40 1c 3e 7a 77 a2 3d a1 83 43 3e
       0.14287443 0.15258835 0.079329446 0.19093181
000090 df 8d b4 3d 9c 80 42 bd 25 20 99 3e 91 21 50 3e
       0.08816122 -0.047485933 0.29907337 0.20325305
0000a0 66 01 4f 3e 18 b3 ad 3d 6c 45 34 3d ec 0b 9b 3b
       0.20215377 0.08481425 0.04401152 0.004731646
0000b0 73 cb e4 bc db 83 1c 3e b0 87 80 3e 64 cf 54 3c
       -0.027929043 0.15284674 0.2510352 0.012988899
0000c0 69 12 ff 3b 39 5f d6 3b 4f ea e3 3d 66 e2 86 3e
       0.007784177 0.006542113 0.11128675 0.26344603
0000d0 ef a2 94 bc 5c dc 0f 3e 5c dd d5 3d 53 be 92 3e
       -0.018144099 0.14048904 0.104426116 0.2866083
0000e0 15 a5 f9 3d 93 67 e6 bc 6e f1 1e 3d f9 a1 43 3e
       0.1218969 -0.02812556 0.038804464 0.19104756
0000f0 72 8d 19 3e be ed 17 bd 0a 13 7a 3e 82 b1 29 3e
       0.14995363 -0.037091963 0.24421325 0.1657162
000100 4b 2c 79 bd ca 27 3f 3d ef fd f1 bb 0b 81 80 3e
       -0.060833257 0.046668805 -0.0073850076 0.25098452
000110 f8 08 80 3c eb 6b 11 3e 09 bb 24 3c 5f 0d 90 3e
       0.015629277 0.14201324 0.010054358 0.281352
000120 a6 d4 20 3e 2f de 74 bd df e9 32 3d ce 52 82 3e
       0.15706119 -0.059782203 0.043680068 0.254538
000130 00 bb 5f 3e 5b 9b 51 3e b5 72 8f 3d 64 c3 27 3b
       0.21848679 0.2046942 0.070043005 0.002559864
000140 5e be 01 bb 5f d9 05 bb 0c 7d 25 3e aa e8 7d 3e
       -0.0019797306 -0.0020423753 0.16160983 0.24795786
000150 61 32 15 bd d0 3b 5f 3d fc 30 2a 3e 0f 51 3d 3e
       -0.036425 0.0545004 0.16620249 0.18487953
000160 4d 63 4a 3e 7a e0 65 3e 25 fe 88 bd a4 9e 01 bc
       0.19764443 0.22448912 -0.06689099 -0.007911358
000170 f0 bd 22 3e a3 21 1a 3e a8 b5 2d 3e 08 ec 89 bd
       0.15892768 0.15051894 0.16963828 -0.067344725
000180 d7 cd 52 3d eb d7 8c 3e 3b c6 03 3e 5f 21 a4 bd
       0.051465835 0.27508482 0.12868588 -0.080141775
000190 50 cc 6c 3c dc 38 7d 3c b5 aa 64 3e 6c 45 a5 3c
       0.014453009 0.015455451 0.22330745 0.020174704
0001a0 9f 51 dd bb a0 90 2d 3e ea 03 6d 3e b8 15 91 3d
       -0.0067541148 0.16949701 0.23146024 0.07084221
0001b0 50 42 9a 3d 09 f8 86 bd 58 b5 76 3e 43 5d d1 3d
       0.07532179 -0.06590278 0.24092615 0.102228664
0001c0 c2 eb a8 bd a8 43 41 3e 99 61 a8 3a 0a 01 17 3e
       -0.08248092 0.18873465 0.0012846469 0.1474649
0001d0 78 e4 8d bd d0 cd b6 3d de a5 3f 3e 8d 56 7f bd
       -0.069283426 0.08925974 0.18715617 -0.0623384
0001e0 c3 32 fc 3d b9 46 a1 3d c6 66 53 3e 82 ab 4b 3d
       0.123143695 0.078748174 0.20644674 0.04972411
0001f0 81 43 84 3e 0f 8e 1c 3d e8 b5 4b 3e 1f d8 88 3e
       0.2583275 0.038221415 0.1989361 0.26727387
000200 89 85 d5 3d 18 9d 24 3e 2a 6a 8f 3d 4d 67 fd 3d
       0.104258604 0.16075552 0.07002671 0.12373219
000210 fb 71 82 3c 95 c4 8f bd 88 55 4a 3e e1 c9 09 3e
       0.01592349 -0.07019917 0.1975919 0.13455917
000220 48 f8 53 3e 7e c7 2c 3e ae c9 2f 3e b8 3a 2c 3d
       0.2070018 0.16872975 0.17166778 0.042048186
000230 a1 18 97 3d cb a9 37 3e 7e dd 10 be 1c b7 22 3e
       0.073777445 0.17935865 -0.14146993 0.15890163
000240 c0 7e 4f 3e a1 9e 9d 3e 37 be 25 3e 62 9d 67 3e
       0.20263195 0.30785087 0.16185842 0.2261863
000250 e5 60 d7 3d 4d 42 8e 3d e8 87 8a bd ae d5 8c 3e
       0.10516528 0.069462396 -0.06764203 0.27506775
000260 a0 a7 c8 3c 05 1a 1c 3e 83 96 00 3e 54 2a 7c bc
       0.024493992 0.152443 0.12557416 -0.015390951
000270 c8 0e 49 bb b4 57 12 3e de b0 ee bc f0 d6 28 3d
       -0.0030678976 0.14291269 -0.029137071 0.041220605
000280 c1 dc 19 bc 3e ba 51 3d da f4 29 3e b9 ed 87 ba
       -0.009391011 0.051203005 0.1659731 -0.001037053
000290 8b cd 4c 3e ae db 2c 3c 31 7c 28 3e d8 87 12 3e
       0.20000283 0.010550423 0.16453625 0.14309633
0002a0 4d 6f 44 3e 51 d0 d2 3d 54 32 59 3e dc 9b a8 bd
       0.19183083 0.102936395 0.21210605 -0.08232853
0002b0 eb c6 dd 3c 16 a0 3d 3e e6 72 5f 3e b0 89 62 3e
       0.02707239 0.18518099 0.21821174 0.22122836
0002c0 89 78 67 3d ed c1 99 3a 49 ed 5c 3e 99 7e 21 3e
       0.056511436 0.0011730768 0.21574892 0.1577095
0002d0 73 63 70 bd 43 02 fa 3c 6b 47 d8 3d 2d 6b 4e 3e
       -0.058688592 0.030518657 0.10560497 0.20158072
0002e0 05 a4 04 3d 27 79 5b 3d b7 c4 5a 3d e4 f3 50 bd
       0.032382984 0.053582337 0.05341026 -0.051013842
0002f0 2a 00 6c 3e 7d 45 3f 3e 5f 9a 37 3e fe a6 95 3e
       0.23046938 0.18678851 0.17929982 0.29228967
000300 5e 6e 4a bb 26 e3 54 3e 74 ba 1f 3e 07 51 df 3c
       -0.0030888538 0.20789775 0.1559847 0.027260317
000310 fb d0 54 3e b4 95 82 3e e9 ca 60 3e 1f ed 0a 3e
       0.20782845 0.2550484 0.21952404 0.13567017
000320 b8 d9 b2 bd 21 8e 22 bd 34 c4 87 bc be df 43 be
       -0.08732933 -0.039686326 -0.01657305 -0.1912832
000330 28 46 5b be 4f 2b 70 bd 1f 8c 60 be bc af 1f 3d
       -0.21413481 -0.058635052 -0.21928452 0.038985953
000340 7d 93 25 bd 47 2d e0 bd 82 6b 29 bd c0 d7 cc bc
       -0.04042386 -0.10946136 -0.041362293 -0.025005221
000350 2a 3f 86 3c b6 5a 1c 3d 51 dd 90 bd e6 3d d5 bd
       0.01638754 0.038172446 -0.07073463 -0.10412197
000360 d1 d2 6c bd 4b a0 2e be 20 06 ac bd dc a4 02 be
       -0.057818238 -0.17053334 -0.08399606 -0.12758201
000370 06 bf 6d bd c6 4d b0 3d a0 96 85 3d 16 3f a4 bd
       -0.058043502 0.08608584 0.0652287 -0.08019845
000380 0f a4 12 be 25 9d 7a be 69 71 40 bc 66 9d 80 bd
       -0.14320396 -0.24474008 -0.011745789 -0.06280021
000390 f2 85 a6 3d 96 8a 00 bc 70 8d 9c bc 0b a8 18 be
       0.08131017 -0.007845541 -0.019110411 -0.14907853
0003a0 5d 4b 42 be d2 df 56 bc 72 df ad 3b d5 d3 39 be
       -0.18974061 -0.013114886 0.005306178 -0.18147214
0003b0 02 0c 06 be a3 3a 4a bb 9c 74 f0 bd c5 7c aa bc
       -0.13090518 -0.0030857704 -0.117409915 -0.020811448
0003c0 2f 81 3b bd 06 75 f1 bb d4 72 cc bd 32 cc 64 bd
       -0.045777496 -0.0073686866 -0.09982839 -0.0558588
0003d0 6d 48 43 bd 14 28 d4 bd fc 2a 4e be b9 82 76 bd
       -0.047676492 -0.10359207 -0.20133585 -0.06018326
0003e0 68 3e b5 bc 64 eb 81 3d 90 52 a0 3c a4 37 d0 bd
       -0.022124484 0.06343725 0.019570619 -0.101668626
0003f0 6f 22 5f 3d da 87 3f bd 47 67 e2 3c de 3f 49 bc
       0.054476198 -0.046760418 0.027637137 -0.0122832935

encoder.lstm.weight_hh_l0_reverse f4 [12, 3]
000000 d3 33 a9 3d 53 87 91 bd bf 3a 0d 3e c6 98 18 bd
       0.08261838 -0.07105889 0.13791941 -0.03725507
000010 68 c4 1f 3e a0 77 90 bd 2b b5 bf 3d 74 d2 4d 3e
       0.15602267 -0.07054067 0.09360727 0.20099813
000020 27 f6 f7 3d 20 41 21 3e 1b 6b 0f bd 40 65 28 3e
       0.12107497 0.157475 -0.035014253 0.16444874
000030 d7 8b e7 bc bb e5 3b 3d 33 75 bc bc c3 b0 2d 3c
       -0.028264923 0.045873385 -0.023005104 0.010601225
000040 82 f8 f2 3d fd fe f7 3d 4c bf b4 3d a2 28 ec bd
       0.11863805 0.12109182 0.088255495 -0.115311876
000050 e3 f6 ae 3c 5d 6c d0 bc 78 20 15 be c8 4e 00 be
       0.02135796 -0.025442297 -0.14563167 -0.12530053
000060 ef 8c 82 3d 1e e4 d3 bd 4c 52 c5 bc fd e7 51 be
       0.06374537 -0.10346244 -0.024087094 -0.20498653
000070 2b 52 20 3d e6 09 fa 3b d1 8f ef bd aa ae d1 3d
       0.03914086 0.0076305745 -0.11697353 0.10238393
000080 ec 69 2b 3e 6f fd a7 3d b1 8f 47 3e 45 7a ae 3e
       0.16739625 0.082026355 0.19488408 0.3407766

encoder.lstm.bias_ih_l0_reverse f4 [12]
000000 2f 68 65 3e ab 47 b1 bd eb 11 e8 bb 4b fa 78 3e
       0.22403024 -0.08656248 -0.007082214 0.24314229
000010 f4 36 00 be 57 dd 6b bd 5d 62 02 3e 15 19 f7 bb
       -0.12520963 -0.057584133 0.12732835 -0.007540832
000020 25 a4 31 3e 25 c0 40 be 33 23 70 3d 44 99 aa 3d
       0.17347772 -0.18823297 0.05862732 0.08330014

encoder.lstm.bias_hh_l0_reverse f4 [12]
000000 a0 93 5d 3e 6b 17 13 bd e1 e3 d2 3c ae 65 3b 3e
       0.21638346 -0.035911005 0.025743427 0.18300506
000010 d2 0b 78 bd 4f c7 8d bd d1 50 71 3e 71 7f a3 3d
       -0.060558148 -0.06922781 0.23565985 0.07983292
000020 c1 0d 59 3e bf 88 a5 bd fe 5a 6e bc 6e 51 c9 3d
       0.21196653 -0.08082723 -0.014548061 0.098299846

decoder.embed.weight f4 [8, 8]
000000 3d 61 8b 3b 69 c0 75 3d 18 88 8e bd 58 2e 4c 3d
       0.004253535 0.05999795 -0.069595516 0.049848884
000010 e2 ce 18 3d e4 e5 23 3c 3d 86 76 bd 3e 2e 3c bd
       0.037306674 0.010003541 -0.060186613 -0.045942537
000020 bf 4b 35 be c5 65 bc 3e cc c9 88 3e 7a e5 86 be
       -0.17704676 0.36796394 0.2671646 -0.26346952
000030 e2 50 a8 3e dc 48 7b bd 06 79 ff be 5a 5f 0c 3f
       0.3287421 -0.06134878 -0.4989702 0.54832995
000040 19 88 98 3d 8c 2b 71 3e 8f b8 14 bc 4e 96 ba 3d
       0.074478336 0.23551768 -0.009077205 0.091106996
000050 b5 1b 42 3c ec 02 97 3d 1f 52 11 be ba 3c 7d 3e
       0.011847426 0.07373604 -0.14191483 0.24730197
000060 61 fc 63 3e fc 8d 32 be b7 ac 3f be aa 29 23 3e
       0.22264244 -0.17436975 -0.18718229 0.15933862
000070 bc c1 f0 bd f0 b0 45 3e fb 06 2e be 30 95 02 3d
       -0.11755702 0.19305778 -0.1699485 0.031880558
000080 f3 f9 be 3e f6 d0 3e be 31 65 db be 40 22 af 3e
       0.3730007 -0.186344 -0.4285064 0.34205818
000090 96 51 58 be 3b 7c 7f 3e 72 86 08 3d ec d1 6d bd
       -0.21124873 0.24949734 0.033331342 -0.058061525
0000a0 6f 2c 83 bd c2 55 cf 3e ba b8 34 be c6 83 de 3d
       -0.064049594 0.40495116 -0.17648593 0.108649775
0000b0 b4 11 54 3e 88 c8 96 3e be f0 aa be e4 3c b0 3e
       0.20709878 0.29449868 -0.33386797 0.34421456
0000c0 c1 8f 47 be 7a 1c ab 3e 46 69 56 3d 7d 7e 8a bc
       -0.19488432 0.33420163 0.05234649 -0.016906017
0000d0 e6 64 03 3f 7f ea 82 3d b6 1e 00 be 92 ac 0d 3e
       0.51325834 0.06392383 -0.12511715 0.13835362
0000e0 64 63 44 3d f6 6f db bb 88 32 65 be b8 ab 0a 3e
       0.04794635 -0.0066966964 -0.22382557 0.13542068
0000f0 6a f9 3c 3d 3c 2a 97 3d b2 78 22 be 52 e8 c2 3c
       0.046136297 0.073811024 -0.15866354 0.02379242

decoder.lstm.weight_ih_l0 f4 [12, 8]
000000 d2 b0 ab 3d 5c e2 c8 bd c1 e9 dc 3b 85 d8 82 be
       0.08383335 -0.098087996 0.006741733 -0.25555816
000010 93 b1 01 bf 46 cf 4e bd be c3 82 3d d6 68 99 be
       -0.5066158 -0.05049064 0.06384991 -0.29962796
000020 6c 73 17 3e ea 6b ab bd 02 56 98 be 67 20 4a 3e
       0.14790124 -0.08370192 -0.2975312 0.19738923
000030 ac 1a fc bd 58 46 a2 3e f9 97 36 be b9 08 81 bd
       -0.12309775 0.31694293 -0.1783141 -0.06300492
000040 27 f3 0c 3e 70 df 1b bd e0 29 95 bc 7a 5d 22 3d
       0.1376463 -0.038054883 -0.018208444 0.039639927
000050 99 04 29 3e 56 62 b0 3d da 92 7b 3d b9 49 54 3d
       0.1650566 0.08612506 0.061419345 0.05182812
000060 93 dc 6f bd 0e b3 9d 3d 5c dd b7 3d 8e 98 ac bd
       -0.058559965 0.077001676 0.08977768 -0.08427535
000070 ec c7 d5 3d 1a 10 58 be f5 40 47 3d 9b db b7 bd
       0.10438523 -0.21099892 0.048645932 -0.08977433
000080 47 8d 1d 3d 13 66 60 3e f9 78 a3 be c4 37 d0 3e
       0.03846481 0.21913938 -0.31928232 0.40667546
000090 76 95 69 3e 7e c8 8a 3d b5 da e4 bd b5 ea 5f 3e
       0.22810921 0.06776522 -0.111745276 0.21866877
0000a0 0b ad 22 be fb 23 88 3e 1a ca f9 3c 55 c1 9f bc
       -0.15886323 0.2658995 0.030491877 -0.019501368
0000b0 08 df b3 3e c1 a7 28 3e 3f 77 fd bd f2 2d 94 3e
       0.35131097 0.16470243 -0.1237626 0.28941303
0000c0 b8 2a 8a 3e 92 59 51 bd 45 64 bf be e5 da bc 3d
       0.26985717 -0.05111081 -0.37381187 0.09221438
0000d0 49 97 a8 be d7 d1 4d 3e e6 88 87 bd 0a 75 e3 3b
       -0.3292792 0.20099579 -0.06617908 0.0069414424
0000e0 7d 65 a8 bd e7 ad 13 bd dd 1c 90 3e 8e dc 3f be
       -0.08222482 -0.036054518 0.2814702 -0.18736479
0000f0 17 9b f5 3c ce 84 a8 be 41 27 85 3e 75 76 33 be
       0.02998118 -0.32913822 0.2600651 -0.17525657
000100 3b d5 a3 3e 49 9e 9f 3c 33 6b 74 be 32 cc 46 3e
       0.3199862 0.019484656 -0.23869018 0.19413832
000110 96 64 7e be 4e c3 03 3e f0 b3 b7 bd fe 8e c7 3c
       -0.24843058 0.12867472 -0.08969867 0.024360176
000120 2c 36 dc be 7f 3b ee 3e c5 a6 b2 3e 0e e5 83 be
       -0.4301008 0.46529767 0.3489286 -0.25760692
000130 63 f5 be 3e ed d6 a6 bd 48 21 cf be 80 f2 cc 3e
       0.3729659 -0.081464626 -0.4045508 0.40028763
000140 3c 44 06 be 28 79 d7 3e 06 3f 15 bd ac 5c 8f bd
       -0.13111967 0.42084622 -0.036437057 -0.07000098
000150 5c b2 85 3e 0f d3 54 3e d9 6d 9f be 0c 72 84 3e
       0.2611264 0.20783637 -0.31138495 0.2586826
000160 72 f4 dd be a2 3c 06 3f b4 f6 a8 3e 5e 17 97 be
       -0.4335056 0.5243627 0.3300072 -0.29510015
000170 c5 ef 0f 3f 2b 3d 3d 3e 96 4d 02 bf b8 8c e1 3e
       0.56225234 0.18480365 -0.50899637 0.44052672

decoder.lstm.weight_hh_l0 f4 [12, 3]
000000 88 c6 d3 3c ac d2 e7 3d 44 aa 06 bd 7e 72 04 be
       0.025851503 0.11319479 -0.03287722 -0.129343
000010 b2 69 7a be d5 c2 53 be fb 14 ee 3d 27 c8 13 3d
       -0.24454382 -0.20679791 0.116250955 0.036079552
000020 f3 fa 1d 3d 1f 24 3a 3e 22 f7 9e 3d 6f d1 f4 3d
       0.038569402 0.18177842 0.077619806 0.11954009
000030 d1 cd cf bd d3 92 dd be 37 57 9b bd 15 7f fd bd
       -0.10146678 -0.4327608 -0.07584994 -0.123777546
000040 2c df a4 3e b2 8d 53 be 6b 56 39 be 3d af 5f be
       0.32201517 -0.20659521 -0.18099372 -0.21844192
000050 49 29 6d be 77 e1 34 3e 46 49 76 3e 7e 8e a6 3e
       -0.2316028 0.17664133 0.24051389 0.32530588
000060 16 70 59 3e 3e c3 07 bf 7f 54 75 3d 6b 2f d6 be
       0.21234164 -0.5303229 0.059895035 -0.41833052
000070 1e 00 9a 3e 5c 1d cf be 9e 1d a0 be c5 f1 26 bd
       0.30078214 -0.40452087 -0.31272596 -0.040757913
000080 d3 40 92 be 2a 1f ab be 3e 00 3e 3e 64 eb b2 be
       -0.28565082 -0.33422214 0.1855478 -0.34945214

decoder.lstm.bias_ih_l0 f4 [12]
000000 9c 14 80 bb 38 c1 a3 3e 8e 1c 14 3e 66 46 53 be
       -0.003908707 0.31983352 0.14464018 -0.20632324
000010 ec ec 25 3e a6 c3 06 3e 04 24 15 3e 10 5c ca be
       0.1620366 0.13160571 0.1456452 -0.39523363
000020 c8 e0 08 3e f8 7c f9 3e 37 75 97 3e 8a 5f d7 3e
       0.13366997 0.48728156 0.29581615 0.42065078

decoder.lstm.bias_hh_l0 f4 [12]
000000 61 59 16 bd c5 d7 c0 3e 43 68 10 3e 42 3a 53 be
       -0.036706332 0.3766462 0.14102273 -0.20627692
000010 94 55 75 3e ad 49 12 3e c8 35 60 3e fe a2 ea be
       0.23958427 0.14285918 0.21895516 -0.45827478
000020 0e 5b 8f 3d 3d bb ba 3e 5a 0b a0 3e d4 e6 b1 3e
       0.06999789 0.36470976 0.3125866 0.3474642

decoder.lstm.weight_ih_l0_reverse f4 [12, 8]
000000 24 f3 58 3d d4 97 d1 bd 68 42 14 3e 04 d9 88 be
       0.052966252 -0.10234037 0.14478457 -0.2672807
000010 f8 f2 96 be 03 bc 04 be 4a 8f 54 3e 60 4d 08 be
       -0.29482245 -0.12962346 0.20757785 -0.13310766
000020 7f 84 29 3e 01 d2 ed bd cb 5b 2f be d6 71 3d 3e
       0.1655445 -0.11612321 -0.1712486 0.18500456
000030 3b 76 4b be a7 ca 87 3e f0 ae 9c be e1 f0 a6 3d
       -0.1986932 0.265218 -0.30602217 0.08151413
000040 0a e6 e1 3d 86 a8 13 be 63 66 88 be 9d ba 4e 3e
       0.110302046 -0.14419755 -0.26640615 0.20188375
000050 79 4f 7b be 0f a9 6d 3e 91 34 23 be d5 17 57 3d
       -0.24542035 0.23209022 -0.15938021 0.052512962
000060 df 33 86 be 36 a6 6b 3e 7e 89 e6 3d 3e 49 2f 3c
       -0.2621145 0.23012623 0.11256693 0.010698615
000070 e8 09 a9 3e b8 dd cb bc ce f4 29 bd e8 c3 7c 3d
       0.3301537 -0.024885997 -0.04149323 0.06171027
000080 e0 76 ad 3d e6 53 1d 3d a6 51 75 be 50 f3 d5 3d
       0.08469939 0.03841009 -0.23956928 0.10446799
000090 52 49 ec bc b9 94 f2 3d 1c 7b 77 bd 2d ea d3 bd
       -0.028843556 0.11844773 -0.06042014 -0.103474
0000a0 44 81 f3 bd 1c 0c a3 3d b4 64 9d be 33 8d ac 3e
       -0.1188989 0.07961294 -0.30740893 0.33701476
0000b0 96 a2 53 3e 2d 02 72 3d 73 af 35 be 35 a0 52 3e
       0.2066749 0.059084106 -0.1774271 0.20568927
0000c0 a2 7f 9c be 4e 97 a7 3c 90 a2 ad 3e b0 6d 13 be
       -0.30566126 0.02045789 0.33913088 -0.14397311
0000d0 8f 05 dc 3e 2b 61 07 be 1a 07 97 bd bf 45 d8 3a
       0.4297299 -0.1322066 -0.073744014 0.0016500278
0000e0 60 27 cf bd 53 dd c8 bc 14 b7 9a 3e 5d 48 82 be
       -0.10114932 -0.024519598 0.30217803 -0.25445834
0000f0 71 b2 43 bd ae e7 cb be 24 d8 ab 3e 0a ab f5 bd
       -0.047777597 -0.39825195 0.3356334 -0.11995514
000100 88 aa b4 bd 3f 01 87 3d 28 5f 8b 3e 3c 14 31 be
       -0.08821589 0.065920345 0.27221036 -0.17292875
000110 d1 ac ba 3d 26 dc 80 be 5d a3 3a 3e 43 18 7e 3d
       0.09114993 -0.2516796 0.1822638 0.062034857
000120 0d 55 e9 be 79 f6 0c 3f be 2d b4 3e 55 58 d2 be
       -0.455727 0.5506359 0.3519115 -0.41083017
000130 b8 6a 28 3f 75 1f 84 bd 0c 93 0a bf 76 fc b6 3e
       0.6578784 -0.064513125 -0.54130626 0.35739487
000140 66 8c 25 3e a1 15 f5 bd 4e fe 94 bd 2a 38 08 3e
       0.16166839 -0.11967016 -0.07275067 0.13302675
000150 a6 7c 50 be 87 10 28 3e 7d 0b 84 bd d6 89 43 be
       -0.2036005 0.16412555 -0.06447504 -0.19095549
000160 cc 34 cc be d9 a9 d3 3e 64 0c f5 bc 79 3a 86 bd
       -0.3988403 0.4134052 -0.029913135 -0.065541215
000170 e9 0e a0 3e de 56 c7 3d 8b 52 eb be c1 fc cb 3e
       0.31261376 0.097333655 -0.45961413 0.39841273

decoder.lstm.weight_hh_l0_reverse f4 [12, 3]
000000 57 7d 61 be 98 d9 a1 bd 16 bf f3 bd ad e5 91 3e
       -0.2202047 -0.07902831 -0.11901681 0.2849554
000010 51 7c 2b be 08 cf 07 be 42 5a c0 3e d6 44 a0 be
       -0.16746642 -0.1326257 0.3756886 -0.31302518
000020 57 a3 0c be d5 bb f6 bd c8 73 be ba a2 44 18 3d
       -0.13734184 -0.12047545 -0.0014530355 0.03717483
000030 af d0 1d 3e cd 45 b9 bd e3 79 d7 3c 10 95 04 bd
       0.15411638 -0.090465166 0.026303237 -0.03236872
000040 da a4 52 be d2 5f b6 be bd 94 8b bd 21 e1 8b 3e
       -0.20570698 -0.3561998 -0.06815479 0.27320197
000050 f3 0f b9 3e 1b 45 b1 be e2 74 3c 3e c4 ac 5d 3d
       0.3614498 -0.34623036 0.18403962 0.05411984
000060 0d 06 d3 be 59 6f b0 3e 89 06 0e 3e aa 42 a1 3d
       -0.41215554 0.34459952 0.1386968 0.07874043
000070 30 15 59 3c 06 c9 b9 3e aa d1 82 3e 72 d3 8d 3b
       0.01324968 0.3628618 0.25550586 0.0043281848
000080 44 da e9 3c 27 95 22 3d e4 fa b4 bd fd 47 44 3e
       0.02854646 0.039693024 -0.08836916 0.19168086

decoder.lstm.bias_ih_l0_reverse f4 [12]
000000 e3 b3 b2 3c 25 1e c3 3e ed ad aa 3e 45 27 80 bd
       0.021814292 0.38108936 0.3333582 -0.0625749
000010 2b e5 07 3e b7 7d 0a 3e aa d9 11 be 17 21 b2 be
       0.13271014 0.13524519 -0.14243189 -0.3479087
000020 cc b0 c6 be 4a ab ee 3e 4d 08 8f 3e 8c 69 cf 3e
       -0.3880676 0.46615058 0.2793602 0.40510213

decoder.lstm.bias_hh_l0_reverse f4 [12]
000000 a4 65 9c 3d c5 37 ae 3e fa c3 a3 3e e0 83 66 3d
       0.07636574 0.34026924 0.31985456 0.05627811
000010 c9 d5 4d 3e 3f 2d 35 3e ec 03 af bd fa cb a8 be
       0.20101084 0.17693041 -0.0854567 -0.32968122
000020 c4 8d c2 be 09 30 01 3f 27 fb 93 3e 66 c9 99 3e
       -0.37998784 0.5046392 0.28902552 0.30036467

decoder.fc_out.weight f4 [8, 200]
000000 3d 0d a9 be 6f 0d 4d be cd c5 8e be 56 5e 84 bd
       -0.33017913 -0.20024656 -0.27885285 -0.06463306
000010 e6 ba 5f be 11 2d 3e bd 01 7f 48 be 78 00 1d be
       -0.2184864 -0.046429697 -0.19579698 -0.1533221
000020 85 7e b3 bd f9 84 ca be d1 f5 55 be 9b 18 49 3d
       -0.08764366 -0.39554575 -0.20894553 0.04909573
000030 24 6b a2 be 92 cf fc bc ff 25 a3 be 08 29 28 3d
       -0.31722367 -0.030860696 -0.31864926 0.041054755
000040 a2 8a 4e bd ef 3a dd 3b 04 b6 8c be ed bb 16 3d
       -0.05042518 0.00675141 -0.27482617 0.036800314
000050 e9 e2 53 be 02 cf 9f be 62 fa 7a be 42 fe 90 be
       -0.20692028 -0.31212622 -0.24509576 -0.28318983
000060 2a fb 2b bd b2 c4 0f 3d 10 2a 52 be 60 95 e1 bd
       -0.041987576 0.035099693 -0.20523858 -0.11014819
000070 d3 65 8b be eb fd 96 be ee 9c b0 bd c2 11 e8 bd
       -0.27226123 -0.294906 -0.08623682 -0.11331512
000080 b1 17 fc bb a5 53 16 be 80 23 ca 3c 39 36 31 be
       -0.007693254 -0.14680345 0.02467513 -0.1730584
000090 ba 38 8c be 6f e9 a3 bd fc c0 62 be 23 78 f5 bc
       -0.2738703 -0.08003508 -0.2214393 -0.029964512
0000a0 02 ac 24 3b b4 df 54 be 99 49 8e be e7 25 1f 3d
       0.0025126939 -0.20788461 -0.27790526 0.038854506
0000b0 27 e1 5a be 10 43 88 be 38 c2 32 be a5 ac 9a be
       -0.21374951 -0.26613665 -0.17456901 -0.30209842
0000c0 4d a6 ab bc d3 96 82 bc 85 fd 12 be 77 16 a5 be
       -0.020953322 -0.01594106 -0.14354523 -0.32243702
0000d0 a2 a8 20 be 08 d5 b5 be d4 34 8c be 88 39 82 bd
       -0.15689328 -0.35514092 -0.27384055 -0.063586295
0000e0 70 6a db bd 80 9f 94 bd b0 2a 87 be 01 48 27 be
       -0.10713661 -0.07256985 -0.26399755 -0.16336061
0000f0 a6 d4 8a be 6e ba 9e bd 8c c7 84 be 34 2b 9f 3d
       -0.27115363 -0.077504024 -0.25933492 0.07771912
000100 aa 40 73 be 47 66 63 bc 45 2c e3 bc 29 3b a4 be
       -0.23755136 -0.013879365 -0.02773107 -0.32076386
000110 b1 4d 92 3c 5d 0b 39 3d 5e 0e 86 be 72 a5 64 3d
       0.017859312 0.045176852 -0.26182836 0.055821843
000120 12 0f b6 bd 1e cc 9e be 13 90 cb bd e0 bc 95 bc
       -0.08889593 -0.31015104 -0.09939589 -0.01827854
000130 09 90 f5 bd c9 14 85 bd c7 76 b6 bd 17 5b 68 be
       -0.11990363 -0.06498105 -0.08909374 -0.22690998
000140 12 1d 53 be 33 4b 87 be 0e 42 96 bd 1e 42 79 be
       -0.20616558 -0.2642456 -0.07336818 -0.24341628
000150 81 8c 11 bd c1 52 98 be 50 dc 9b be 6e 48 b2 bc
       -0.035534386 -0.29750636 -0.30441523 -0.021763053
000160 6b 43 9d bd b9 b1 4e bc 6e 80 94 be bd 5b 9d be
       -0.076788746 -0.012615615 -0.29004234 -0.30734053
000170 33 1b b8 bd 1e cb ed bd 05 43 98 be 99 02 8a be
       -0.08989563 -0.11611007 -0.29738632 -0.26955107
000180 e3 dd 98 bd fa 0c 88 be 58 3a 22 bc 33 4a 13 bd
       -0.074641965 -0.265724 -0.009901606 -0.035959434
000190 cc 22 9b be da 17 d9 bd a7 1c 80 be 19 31 84 bd
       -0.30299985 -0.106002524 -0.2502186 -0.06454677
0001a0 9e 98 89 be bb d0 9e be 67 7f 66 be 91 c3 8f 3d
       -0.2687425 -0.31018624 -0.22509538 0.07019723
0001b0 9b 02 f3 bd 72 0b 9d bd 16 f2 2e be fe e6 26 bd
       -0.11865731 -0.07668199 -0.17084536 -0.040747635
0001c0 24 02 11 be 05 ac d9 be bc d9 52 be 9d 30 83 bd
       -0.14160973 -0.42514053 -0.20590872 -0.064057566
0001d0 0a 95 88 be 13 46 5e be 23 28 e3 bd 06 c6 42 bd
       -0.26676208 -0.21706419 -0.1109164 -0.04755213
0001e0 1d 23 05 be b8 c7 cc bd f8 0f 4b be 81 91 a2 bd
       -0.13001676 -0.09999031 -0.1983031 -0.07937909
0001f0 53 3b 89 be 84 be b4 be 24 62 60 be 16 ef 86 be
       -0.26803073 -0.35301602 -0.21912438 -0.26354283
000200 3d a3 44 bd 12 53 9b be 20 25 22 bd 9b f9 71 be
       -0.04800724 -0.30336815 -0.039586186 -0.23630373
000210 1f d2 66 bd 68 8a 2f be 4b 2d 8f be 3c 31 8f be
       -0.05635273 -0.17142642 -0.27964243 -0.2796725
000220 0c fe 92 be d9 3a 8a bd 7f e4 85 be ed 85 68 bd
       -0.28709447 -0.067495055 -0.2615089 -0.056768347
000230 1b c0 60 be 88 71 4a be 1b cd 2d bd 7b e5 85 be
       -0.21948282 -0.19769871 -0.042431932 -0.26151642
000240 c4 08 2c bd 64 54 30 be 63 5d 50 be c9 71 32 bc
       -0.042000547 -0.17219692 -0.20348124 -0.010891386
000250 4d a3 35 be 44 ab 80 be c3 6b 86 be 98 b5 41 3d
       -0.17738076 -0.25130665 -0.2625409 0.047292322
000260 7f f8 74 be 44 4f a2 be 45 e5 83 be a7 43 5a be
       -0.23922919 -0.317011 -0.25760856 -0.2131487
000270 06 96 a9 bc de 95 94 be 39 6f 95 be 20 b8 4a be
       -0.02070142 -0.2902059 -0.2918642 -0.197968
000280 12 a6 49 bd 3e c0 64 3d d4 a7 30 bd 44 9a 32 be
       -0.049230643 0.0558474 -0.043128803 -0.1744166
000290 df bc f5 bc 56 75 a4 be 74 70 30 bd a7 94 84 be
       -0.029997287 -0.3212077 -0.043075994 -0.25894663
0002a0 c2 35 8e be fe 58 1e bd 1a 0a 84 be bb 69 22 be
       -0.2777539 -0.03865909 -0.25788957 -0.15860645
0002b0 a6 2d 50 be c1 d1 cd bd 82 ce 99 be f9 c1 5c be
       -0.20329913 -0.10049773 -0.30040365 -0.2155837
0002c0 19 c0 09 3b 8e 11 a7 be 7d c5 59 bd f5 d5 d8 3b
       0.002101904 -0.3263058 -0.053166855 0.0066173025
0002d0 20 f0 de bd 72 2e 0f bd 7c 14 7e bd 19 f7 ee bd
       -0.10885644 -0.034956403 -0.062031254 -0.11668224
0002e0 7a 70 84 3d 13 d4 0b be 50 46 41 bd a7 6f 00 be
       0.06466766 -0.13655119 -0.047186196 -0.12542592
0002f0 a9 e0 17 bd 86 00 30 be e8 77 6d be 05 4e 4c bd
       -0.037079487 -0.171877 -0.23190272 -0.049879093
000300 10 bc d1 bd bf ba ec bc b0 3a 6b bd 70 83 9a bc
       -0.10240948 -0.028897641 -0.057429016 -0.018861502
000310 d6 18 ad bd 0d 26 35 bd 2e 40 1f bd c0 2f 96 be
       -0.08452003 -0.04422574 -0.038879566 -0.29333305
000320 ad ff 9c be 98 d2 2c be 1e 7c a9 be de b1 79 bc
       -0.30663815 -0.1687721 -0.33102506 -0.015240161
000330 0d be 88 be cf 8a db bd ab 76 36 be db ac 52 be
       -0.26707497 -0.10719835 -0.17818706 -0.20573752
000340 ba a9 54 bd 0b b1 a8 be 80 95 44 be 16 8a 15 3d
       -0.051919676 -0.32947573 -0.19197655 0.036508642
000350 63 37 9d be 0d 8f 4e bb b1 19 70 be f1 c8 12 bd
       -0.3070632 -0.003151837 -0.234473 -0.035836164
000360 89 4a d9 3c 69 1b 39 3d 0c d6 1d be 3e 09 a2 bd
       0.026524799 0.045192156 -0.15413684 -0.07911919
000370 83 17 58 be 93 9a 77 be 77 2d 99 be eb 25 3f be
       -0.21102719 -0.24180059 -0.299175 -0.18666808
000380 8f 0a 86 3d 4c 90 02 bd c1 75 a0 be 2a 52 b1 bd
       0.06544983 -0.031875893 -0.3133984 -0.0865825
000390 c1 98 61 be 04 ed 9e be cf d6 60 bd b0 51 ea bd
       -0.22030927 -0.31040204 -0.054892357 -0.11441362
0003a0 8e e7 9f 38 8f 99 90 be 62 06 a1 bc c9 15 9d be
       7.624841e-05 -0.28242156 -0.019656364 -0.30680683
0003b0 5f 16 a2 be 80 fc 23 bd 62 39 8c be 65 9f 05 be
       -0.31657693 -0.040035725 -0.2738753 -0.13049085
0003c0 71 9c 84 3d ab 3a 85 be 00 42 50 be 83 3e 80 bd
       0.06475151 -0.26021323 -0.20337677 -0.06261923
0003d0 ef bb 9f be 0b 1a 63 be 83 f5 96 be 38 b7 b1 be
       -0.3119807 -0.22177903 -0.29484186 -0.34710097
0003e0 de f7 d8 bc 1a 10 a2 3b ba 61 60 be 2b d1 51 be
       -0.02648538 0.004945767 -0.2191228 -0.20489947
0003f0 ba 4f 46 be 44 61 8d be d9 80 b4 be aa d8 d9 bd
       -0.19366351 -0.2761327 -0.35254553 -0.106370285

decoder.fc_out.bias f4 [8]
000000 d2 5c 3c be ee 54 53 be b8 41 e9 3d 84 3b 70 be
       -0.18394783 -0.20637867 0.11389488 -0.23460203
000010 89 0d c6 3d d5 c2 26 3d b7 5f 50 3d 28 34 56 3e
       0.096705504 0.04071315 0.05087253 0.20918334
